MLagents_test1/results/CarAgent_reinforcement_5/CarAgent/CarAgent-3499805.onnx (onnx, 108720 bytes, 7 tensors)

discrete_act_size_vector f4 [1, 2]
00000000: 0000 8040 0000 a040
4.0 5.0

network_body._body_endoder.seq_layers.0.weight f4 [512, 40]
00000000: 2b48 b83d c3c7 81be 314c e83d 74e7 d53b
00000010: 41a5 64bd 86af 893d dcbd 873d b179 a13d
00000020: bf3f 7ebe 5ed6 48bd 439c 92be f43c 993e
00000030: 98c6 943d 87c4 65be 8089 15bd f59b 1b3c
00000040: 0957 53be 3c0b d3bd 0a01 a83e 38fb e0bc
00000050: dfc5 9ebd a2a7 25be aae0 3dbe c6bb cf3c
00000060: 1f09 f33c ace3 003c c591 cabc 33bf dc3d
00000070: b58c 09be b533 88be c08c 8a3c 1511 8a3e
00000080: 4f80 0abd 2a86 45be c9c7 41be 9844 1b3e
00000090: 654c b2bb 12b3 04be 0a58 8bbd 6140 833e
000000a0: 6707 5fbe cff6 7ebd 7593 d3bd eeb8 06bf
000000b0: 50fe 76be 7478 e4bd 53d2 a13e 185a efbd
000000c0: f3e4 8dbe aff9 0abf 95fe d1bd eca4 c9bd
000000d0: e788 683d 7aec 73be 91f6 27bf 4db1 2abe
000000e0: 4382 acbe 7dbe cabd 8d39 67be a96d 30bf
000000f0: e83e 513e e2c2 43bf 9497 b3bd af16 81bd
00000100: d2e6 f8bd 77a9 833e 0625 a9bd 7f9c 5bbe
00000110: a63a 79be eee9 01bf 5f50 86bd af17 ddbe
00000120: 9657 6bbe 9ead ad3e 0f43 a9be e424 61be
00000130: af78 3c3c aa33 373e c764 4a3d 5cfd d0be
00000140: 6bb8 9abd 3778 93be 538d 7fbe c813 80bd
00000150: f302 213d c869 883d c035 d53d c33f 6fbd
00000160: 122f 803c da77 423e 2f02 94bd 3419 163e
00000170: 79fa 8f3c 1e43 23be 81a4 bdbe bb6c 743d
00000180: 7404 6bbe 791f 04be 66dc d63d 7c6f 41be
00000190: 50ad 7bbe 0f2b 90bd 125b 22bd 9c52 3ebe
000001a0: d32c d3be 8c64 d43c 465a 00bf 7b98 9dbc
000001b0: 0828 843e dacd 17be df80 92bd f99d 66be
000001c0: 0f61 81be b83b 4dbe 5a33 83be a042 3f3e
000001d0: 54a8 8abd 9b9e 65be 80c4 fbbc f4b7 28be
000001e0: ca3d a73e 6d31 cbbe 3cfb 2cbe 09ba 6f3d
000001f0: 6176 cfbe 98c0 e1bd 852c f9bd 1244 cebd
00000200: 1b88 063e ccf5 acbe e3ce 5bbb ef1c 26bf
00000210: 619d d4bc 5c91 403e 28e0 5ebd 09ba 68bd
00000220: c551 90be e71a 12be 85b2 703d fda9 42be
00000230: 9737 99bd c8b0 12be 78a3 893e cabf 5abe
00000240: ff7d 0cbe c0be 7d3d 2392 a4bd 63eb 2abe
00000250: c8ad 23be 30e0 ebbe 0daf 0fbd f6c9 8abe
00000260: 3fa6 eb3b ced7 35bf 1cbe 8abe 85d2 38bd
00000270: db89 0abd 827a b73e 2aff 94bc 3183 32be
00000280: 7503 edbd 839e 943e 609a ee3d dd6e 3dbe
00000290: c724 33bb 6792 df3d bede 2ebd 5cc3 4b3c
000002a0: 0065 713b a9d6 ab3c a6eb 623e e5f1 79be
000002b0: 18ce a63e 55c9 413e 84dc 4fbe 36bf 223d
000002c0: ca73 833e e1ba 80be 42d4 26bd e804 66be
000002d0: eb7a 89bd 9f0b 51be f630 c43c bc6b fc3d
000002e0: c118 d13b c199 28be 57d1 09be 7eb4 c53b
000002f0: 7944 833e a61f b4be 0920 ba3d 8b1d 9fbe
00000300: 1dde 71be 318f 8c3e 40bf 843d 8cb0 d0be
00000310: a299 ea39 ca5a 90be 63e2 cdbc 1828 84be
00000320: 161b a9be 2ffc 52be dee5 85be 55bf b4bd
00000330: 52be c4be 282b 8c3c bda7 e0be b71b fbbd
00000340: a28d a3be e58a 7bbe 1d25 5abd 997c b9bb
00000350: 92eb 903d 9667 a5be 403c 95be c42f 243d
00000360: 3d80 e9be 222b 0b3e fe1b c3be acc2 b5be
00000370: 110d acbd 356e ea3b 07a6 c9bc 05d0 98be
00000380: 01f2 84be 2867 213e d38c 6ebe 800a 123e
00000390: e1fb 98be 6bee 0ebf ae1c 533e 0172 0ebf
000003a0: d5a1 94be 893f e53d 9dbf 4bbe 0bda e13e
000003b0: 14fb 97bb 382e 1f3e c5b9 bfbd f1cf 583e
000003c0: 21bd a83e 652d c23d af60 2d3e d835 2fbe
000003d0: d4f2 81bd 47a9 81bd 16ef 7ebe 0921 8b3e
000003e0: 53ee f73e 37ee 35be 8ca0 5dbe cf44 d03e
000003f0: 3a29 8e3d 0918 fabe 9038 81be ba23 433e
0.0899814 -0.2534772 0.11342657 0.0065278355 -0.05582166 0.067229316 0.0662801 0.07884539
-0.24829005 -0.04903256 -0.28634843 0.29929316 0.07264441 -0.2243825 -0.036508083 0.009497632
-0.2063867 -0.10304877 0.32813293 -0.02746354 -0.07752585 -0.16177228 -0.18542734 0.025358092
0.029667435 0.007866781 -0.024727711 0.10778656 -0.13432582 -0.2660195 0.016912818 0.26966158
-0.03381377 -0.19289461 -0.18923868 0.15162885 -0.005441236 -0.12958935 -0.068039015 0.25635055
-0.21780168 -0.062247094 -0.103308596 -0.5262593 -0.2412045 -0.11155787 0.31605777 -0.11687106
-0.27713737 -0.54287237 -0.10253636 -0.098459095 0.056771185 -0.23820677 -0.65610605 -0.16669197
-0.33693132 -0.09899614 -0.22580548 -0.6891733 0.20434153 -0.7646924 -0.087691456 -0.06303155
-0.121534005 0.2571523 -0.08259015 -0.21446417 -0.24338779 -0.50747573 -0.06558298 -0.43182132
-0.2298263 0.33921522 -0.33058974 -0.21986729 0.011503383 0.17890802 0.049412515 -0.40818298
-0.07554706 -0.28802654 -0.24956255 -0.06253773 0.039309453 0.06660801 0.104106426 -0.058410417
0.015647445 0.18991032 -0.07226979 0.14658052 0.01757549 -0.15943572 -0.3703957 0.059674006
-0.22950917 -0.12902631 0.104912564 -0.18890184 -0.24577832 -0.07039463 -0.039637633 -0.185862
-0.41245136 0.02592685 -0.50137746 -0.019237747 0.2581179 -0.1482462 -0.071534865 -0.225212
-0.25269362 -0.20042312 -0.25625116 0.18677759 -0.06770387 -0.22423784 -0.030733347 -0.16476423
0.3266433 -0.39686146 -0.16892713 0.058527026 -0.40520003 -0.110230625 -0.121666946 -0.10071577
0.13137858 -0.33781278 -0.0033540062 -0.648879 -0.02595395 0.1880545 -0.05441299 -0.056818042
-0.28187385 -0.14268075 0.058764 -0.19010158 -0.07481306 -0.14325249 0.2688253 -0.21362224
-0.13719939 0.06194949 -0.08035686 -0.16691355 -0.15984261 -0.4606948 -0.03507905 -0.2710721
0.007191449 -0.71032417 -0.27098167 -0.045122642 -0.033822875 0.35835654 -0.018188078 -0.17432858
-0.11572925 0.29027185 0.116505384 -0.18499322 -0.0027335153 0.10916596 -0.042692892 0.012436714
0.0036833882 0.020976381 0.22160205 -0.24408682 0.32579112 0.18924458 -0.20298964 0.039733134
0.25674278 -0.25142577 -0.04072977 -0.22462809 -0.06712898 -0.2041459 0.023949128 0.12325236
0.0063811247 -0.16464902 -0.13458763 0.0060334792 0.25638178 -0.35180396 0.090881415 -0.31077227
-0.23619886 0.27452996 0.064817905 -0.40759695 0.00044746423 -0.28194267 -0.025132364 -0.2581184
-0.33028477 -0.20604013 -0.26151937 -0.08825556 -0.38426453 0.017110422 -0.43877974 -0.122611456
-0.31943995 -0.24564703 -0.05325805 -0.005660605 0.070761815 -0.32305592 -0.2914753 0.040084615
-0.4560565 0.13590673 -0.38107294 -0.35500085 -0.0840093 0.007154251 -0.0246153 -0.29846206
-0.25965884 0.15762007 -0.23295908 0.14261818 -0.29879668 -0.55832547 0.20616409 -0.55642706
-0.29029718 0.11193759 -0.19897313 0.44111666 -0.004638085 0.15544975 -0.093616046 0.21173073
0.32956794 0.094813146 0.16931413 -0.17110384 -0.06345144 -0.06331115 -0.24895892 0.2717364
0.48424014 -0.17766653 -0.21643275 0.40677497 0.06941457 -0.48846462 -0.25238466 0.19056597

network_body._body_endoder.seq_layers.0.bias f4 [512]
00000000: 6561 99bd ed9d 91be 75aa 48be 5a29 43be
00000010: 7faa 593c 4924 7ebe 6be8 013d 33a3 27bd
00000020: 6976 25bd fb14 9abe 612e 973c d513 81be
00000030: 8ad9 ebbd 1e6d a2be 709e a9bd d547 ad3c
00000040: 8957 05be dda4 8e3b 61c8 14be d21b 17be
00000050: 7f54 26be d61c 56be ea0b 77bd d6ea 78be
00000060: 9898 84be fd7d e1bd 3086 fdbd a5b8 bcbc
00000070: 0b0a d8bd 557d 56be 8601 e5bd bc31 05be
00000080: 652c 29be 3d40 8bbd 4821 cdbd 693c 15be
00000090: 1788 7bbe 0bc7 96bd c82a 37be 00b4 2abe
000000a0: 1ff1 f8bd 888b 64be a57d 92bd 6412 57be
000000b0: 49d7 c2bd c484 2bbe db16 a2be c9ba c0bd
000000c0: 032e 4abe a032 55be 1df2 23be 0fde e0bc
000000d0: b243 08be 6efc 87be 7748 5c3d f8db 00be
000000e0: 1067 2abe f9e8 1bbe b312 25be 3016 4fbd
000000f0: 8e68 0fbe 3129 09be 9463 e6bd 4b9c 73bd
00000100: 7097 0dbd 7580 4b3d 6256 d53b 8247 853c
00000110: 266f 8ebd 841d 1fbe 8608 51be 6602 7fbe
00000120: 4044 c13c fe03 6dbe 84c2 29be 698b 0cbe
00000130: f6ed 41bd 869f 96bd f095 df3c 895b 2ebe
00000140: 26c6 17bd 71a6 cebd 1e48 15be d1bf 07be
00000150: 9841 0dbe b19f 6fbe fcef a6be 7199 24be
00000160: 9e6f 78be 7204 963d f1da 0ebc fc89 86be
00000170: 14af bebd 8702 c6bd ec42 7dbd da92 03be
00000180: fe24 dabd 6cf6 66be 7a0e b1bc 1933 0abd
00000190: 5c3e fdbd 07ea 8ebe 2a8f a5be d811 7cbd
000001a0: b19a 96be d3f7 cbbd 08ef 8fbe 63da c1bd
000001b0: 4f9e 5fbd 5b3b 82bc d1ae b7be da1c 96be
000001c0: e1d5 10be d3f7 0fbe e78e 4bbe a488 4bbe
000001d0: 32fa f0bd 050e dfbc 9217 c3be 577d a1bd
000001e0: 42aa 4bbe 63b7 5fbe 8ac4 1fbd f602 b73c
000001f0: 9472 55be a32c e3bd 063f abbd 0014 31be
00000200: 21a2 0dbe b51f 70bd db0f aabe 4f3d e1bd
00000210: ef43 69bd 440a 4abd 6f17 7fbe 8aa4 bebd
00000220: 4d08 d3bd f1e2 62be 5b0f 11be 7f10 28be
00000230: bc2a 8ebe af6a 86bd 2bb1 93bc d3d8 02bd
00000240: 5efb 07be b45e 12be 6ed0 9fbd 9da0 edbd
00000250: d6fd 87be 1862 cfbd a811 79bd 8c08 9fbe
00000260: 10b2 b9bd ca4f e53c 9722 7cbe d342 54bd
00000270: 48fe 07bc 40dd 24bd a817 02bd 3cbd d8bd
00000280: 10c4 83be 60c9 49be f3db babd f521 51be
00000290: 0f24 0abe c976 9ebd 3e31 f0bd f067 37be
000002a0: dcf1 1fbd 1449 4fbb cc80 a9be a365 94bd
000002b0: cf1b 12be a0a1 13be 107b 3abd 4f00 37be
000002c0: b5af 5dbe 6449 f0bd 7d16 8bbd 3ba1 a1be
000002d0: cae8 493d a1e1 8cbe 0721 95be f8a0 81be
000002e0: e1da 24be 7da9 e1bd 4419 c5bd 8f3d 93be
000002f0: 5eda 22be 637e a6be ea06 62be 482a 393c
00000300: 00f0 b8bd 1553 96bd eec0 f6bd 62be 18be
00000310: d22a abbe 1fb1 53be 6f53 8a3b 2e0b 8bbd
00000320: bb8e 2b3d aeea 20bd 83c9 b3be 5e16 a1be
00000330: f3e3 0bbd 7c35 723d 49dd b3bd c8a4 abbe
00000340: 979d 6dbe 3a72 98bd d309 4abd 8910 68be
00000350: 1146 5ebd 6f67 ecbd 05f9 a3bd 868f 03bd
00000360: 6c83 7cbe 1503 99bd 9a0f a8bc a4e7 42be
00000370: abfb 5abe d319 00be e552 3abe 9966 91be
00000380: 00c7 60be e1ed eabb e878 35be de7a 1dbe
00000390: acd2 8abe d2bd 25bd b924 09bd ab96 d0bd
000003a0: aaf0 edbd a81d 1ebe 09a3 35be 48c5 d4bd
000003b0: 10c5 05be 66af 19be ef48 87be 25de efbd
000003c0: d182 15be b56d 99be e31d 96be 2aab 25be
000003d0: 7284 90be f6d0 e6bd b69a b9bd ef9f 5dbe
000003e0: d2fc a7bd 3163 1ebd afba fabd ad1f afbd
000003f0: e2f4 8bbd b338 1abe 0897 5fbe 9a5e 3bbe
-0.0748928 -0.284408 -0.19596274 -0.19058743 0.013285278 -0.24818529 0.03171579 -0.040927123
-0.040396128 -0.30094132 0.018454732 -0.25210443 -0.11516102 -0.31723875 -0.08282173 0.021152416
-0.13021673 0.0043531493 -0.14529563 -0.14756706 -0.1624317 -0.20909438 -0.060314097 -0.24308333
-0.2589767 -0.110103585 -0.1237911 -0.023037264 -0.105487905 -0.20946248 -0.11181931 -0.13007253
-0.16520841 -0.06799362 -0.100161135 -0.14573826 -0.24563633 -0.07362183 -0.17887414 -0.16670227
-0.12155365 -0.22318852 -0.07152871 -0.21003109 -0.09513719 -0.16749865 -0.31658062 -0.094106264
-0.19744115 -0.20820093 -0.16010328 -0.027449636 -0.13307074 -0.26559776 0.053780045 -0.12583911
-0.16640878 -0.15225591 -0.16120414 -0.05055827 -0.14004728 -0.1339462 -0.11249462 -0.059475224
-0.03456825 0.049683053 0.006510542 0.01626945 -0.06954794 -0.15538603 -0.20413408 -0.24903259
0.023592114 -0.23146054 -0.16578108 -0.13725056 -0.047346078 -0.073546454 0.027293175 -0.17027105
-0.037054203 -0.1009034 -0.14578292 -0.13256766 -0.13794553 -0.23400761 -0.3260497 -0.16074158
-0.24261329 0.073250666 -0.008719192 -0.2627715 -0.09310737 -0.09668451 -0.0618314 -0.12848988
-0.10651587 -0.2255494 -0.021613348 -0.033740137 -0.1236541 -0.27912924 -0.32335788 -0.061540455
-0.29414895 -0.09959378 -0.28112054 -0.09465482 -0.054594334 -0.015897444 -0.35875562 -0.29318887
-0.14144088 -0.14059381 -0.19878732 -0.19876343 -0.11766471 -0.027228365 -0.3810392 -0.07885235
-0.19889167 -0.218473 -0.039005794 0.02234028 -0.2084449 -0.11092498 -0.0836163 -0.17292786
-0.13831379 -0.05862399 -0.33215222 -0.10998022 -0.056949552 -0.049326196 -0.24911283 -0.09308727
-0.103043176 -0.22156884 -0.14166014 -0.16412543 -0.2776698 -0.06563317 -0.018028816 -0.03194506
-0.13279483 -0.14293939 -0.07803427 -0.116029 -0.2656085 -0.10126132 -0.060807854 -0.31061208
-0.09067166 0.027992148 -0.2462257 -0.05182154 -0.0083003715 -0.040250063 -0.03176084 -0.105829686
-0.2573552 -0.19705725 -0.09123983 -0.2042311 -0.13490318 -0.077375 -0.11728142 -0.17910743
-0.039049014 -0.0031629251 -0.33106077 -0.07245948 -0.1426842 -0.14417124 -0.045527518 -0.17871211
-0.21649058 -0.11732748 -0.06791399 -0.31568322 0.04929427 -0.2751589 -0.2912676 -0.25318122
-0.1609912 -0.110186554 -0.0962396 -0.28757903 -0.15903613 -0.325183 -0.2207295 0.011301585
-0.09030151 -0.073400654 -0.12048517 -0.14916375 -0.33431107 -0.20673035 0.004221372 -0.06789242
0.041884165 -0.039286308 -0.3511468 -0.31462377 -0.034152936 0.059133038 -0.08782441 -0.33524156
-0.23204647 -0.07443662 -0.049325775 -0.22662558 -0.05426604 -0.11543166 -0.08006481 -0.032119296
-0.24659508 -0.07471291 -0.020515252 -0.19033676 -0.21385066 -0.12509851 -0.18195684 -0.28398588
-0.21950912 -0.0071694707 -0.17721903 -0.15378901 -0.27113855 -0.04046423 -0.033482287 -0.10184988
-0.11618169 -0.15441 -0.17737974 -0.10389191 -0.13063455 -0.15008315 -0.2642283 -0.117122926
-0.14600684 -0.29966512 -0.29319677 -0.16178575 -0.28226048 -0.11270325 -0.09062712 -0.21643041
-0.082025185 -0.038668815 -0.12242638 -0.085509636 -0.06833817 -0.15060692 -0.21834958 -0.18297806

action_model._discrete_distribution.branches.0.weight f4 [4, 512]
00000000: 85bb efbb 3874 0cbd e082 023c 7849 22bc
00000010: 5b0f 953d 63ec 003c f19c 0fbd dfb9 80bc
00000020: a2a6 153d 6d32 36bc 5372 173e 1bdf c13c
00000030: c92f a4bd 6cb5 bdbc 0693 133d 0f21 ca3d
00000040: 3e4d 8dbd 241a 6d3d c8d8 47bc 21e2 0b3d
00000050: fbc1 603c 5814 e93d 2627 41bd 2512 53bc
00000060: 5b2f d33c 54d7 d1bb 5c4f 55bc 4787 04bd
00000070: 5ed6 1e3d 6a56 e8bc c07f 8c3c 8b66 f03b
00000080: be9d 023d 7c63 cdbc 0903 abbd 1054 0b3d
00000090: e101 98b9 de5e 003d 0d11 d03c d63a 773d
000000a0: 0833 99bc 9476 18bc 3f5a 49bd 6c97 bfbd
000000b0: fb11 163d 50af 4fbc 89bc a23b d41d 953d
000000c0: a1e8 bcbd 67b9 01be bda7 923d a284 8d3b
000000d0: 5109 6cbc 2a7f 153a 4421 58bd 53fb 5dbd
000000e0: 0697 cb3c 864b 553d bae9 8cbc fcdb 6d3c
000000f0: c789 75bc 85fa 393d e786 a43c 0161 1b3d
00000100: 72be 323d 9b5d 843c 26bf 593c 7e55 a73d
00000110: 6794 c93d 6503 1b3d 59bf c73c a84b 00bc
00000120: abad e9bb c955 2abd ad5a 903d a4f3 df3c
00000130: ace7 20bc 9177 c23d 2212 253d 0abd 2b3d
00000140: 9d75 10bd 338f 4ebc bddb 753d 9faa 4bba
00000150: 81a3 163c 19b8 f93b 783e 923c 69fc abbb
00000160: 9c18 063d d2c9 733d 3bfb 893d 9461 3f3d
00000170: e144 7b3c 002c 153d 079f 88bd 7dc9 6bbd
00000180: 14b1 4bbc d8f3 a43b 3128 153d 472e 143c
00000190: 76e4 e9bb 2b39 cbbd 6d11 06bd 2098 c1bd
000001a0: 98b4 ff3c 2a54 093c a8f5 b43c 549c 0d3c
000001b0: f97b fa3b b0ef 393d 7c28 163d dc32 4ebd
000001c0: 9f06 6abd c078 883d 6ca5 87bd dee0 1bbc
000001d0: 0506 2c3c 936a a7bc 5b85 523b a01e 593c
000001e0: 39a2 29bd 997b 10bc 3304 9cbc 5734 053c
000001f0: e4aa 0bbc a98f 27bd 3fdd 9e3c 93d2 bd3d
00000200: c965 3b3d 7cf7 12bd 1d26 333c eee2 c0bc
00000210: c834 4d3d 3798 c23b b5fb e3bc a2a8 f63b
00000220: 1a0b 54bd 7fbe d33c 1395 44bd 4007 68bd
00000230: 2a38 ea3b 17ac 333d c8cc 2dbb 3af6 083d
00000240: e712 c13d af7a 343d 0464 9dbc a5a0 8ebb
00000250: bf39 eabc 47c9 403a e1fc a43c e363 863c
00000260: 39bd 923c f256 c03c fca6 f13a 8de7 49bd
00000270: fc8f 9cbc 9c7e 553d 6b6e ac3d 6712 073d
00000280: 3779 99bd 1ee6 ac3d acf5 503c a06c 4fbd
00000290: 517d 18bd da5e b23b 4143 aebc 6b9b b4bc
000002a0: 0dc7 49bd c6c8 adbd a68c acbd e139 cebd
000002b0: b0be 62bd 152e 82bc f180 f63c 4615 4fbb
000002c0: 4c90 8ebd 2290 e9ba 0c46 453d 93bc aabc
000002d0: 33b8 50bc f70e 703b e51b 1f3c e14f f53b
000002e0: 9e96 4fbc 0a12 8c3d 8633 093d c6de 4ebd
000002f0: 54e4 4c3d e1c6 b4bd e772 a8bc 905b fbba
00000300: ac52 f63b 36d8 363c c3a1 a03c 99e6 ddbc
00000310: 25c6 9d3b 2719 c43c 920c 623d aec7 89bc
00000320: 5ac2 34bc b168 6e3d 0e4f 9cbd 9777 8d3c
00000330: 70f2 013c 6eef 2ebd a4b6 553c 5cd4 bebc
00000340: 9a48 173d 9fed 613d 02b3 31bd ab09 ad3c
00000350: c0fb 9e3c 8251 743d 6636 2cbd 91ff fabc
00000360: e25c 653c f544 0ebe fa42 02bc a4ad c4bc
00000370: 616d aabc e63a 32bc 50c0 d43c 3e37 1fbd
00000380: 03b1 8bbc 78d8 dd3d 9da2 adbd 89e7 a33c
00000390: 0eed 823c 650e 843d 6acf 823d ef7d 263e
000003a0: f297 b83c 4694 083d 770c 6ebd 3088 7a3d
000003b0: 07e3 3c3d aae6 b33c 901d a8bc d140 e33c
000003c0: 05a5 cfbc 3d2e b33d 613d f9bc 31a9 86ba
000003d0: 9676 e4bc 8fd3 c23d 4f41 773d d04c 89bc
000003e0: c8de e6bb 442c 163d 46b0 0cbd 9a2f 4d3c
000003f0: 3676 f23d 9638 443d 9273 f9bc 0848 7ebc
-0.0073160552 -0.034290522 0.007965773 -0.009905212 0.072783194 0.007868859 -0.03506178 -0.01571363
0.036535867 -0.011120421 0.14789705 0.023665955 -0.08016927 -0.023157798 0.036028884 0.09869587
-0.068994984 0.057886258 -0.012197681 0.0341512 0.013718124 0.113808334 -0.047156475 -0.012882744
0.025779417 -0.006403843 -0.013019409 -0.032355573 0.038778655 -0.028361518 0.01715076 0.007336443
0.031888716 -0.025071852 -0.08350188 0.034015715 -0.000289931 0.031340472 0.025398755 0.060358845
-0.018701091 -0.009305615 -0.04915833 -0.09355053 0.03663824 -0.012676075 0.004966323 0.0728108
-0.09224058 -0.12668382 0.071609 0.0043187896 -0.014406518 0.0005702848 -0.0527661 -0.05419476
0.024852287 0.052073978 -0.017201293 0.01451778 -0.014986462 0.04540493 0.020083858 0.037934307
0.043638654 0.016157916 0.013290202 0.08170603 0.098427586 0.037845034 0.024383234 -0.007830538
-0.0071312985 -0.041585717 0.07048545 0.027337857 -0.00982086 0.09495462 0.040300496 0.04192833
-0.035268415 -0.012607384 0.060024012 -0.000776926 0.009194256 0.007620823 0.017852053 -0.0052485955
0.032738313 0.059518643 0.067373715 0.046723917 0.015336246 0.036418915 -0.06670957 -0.0575652
-0.012432355 0.0050339513 0.036415283 0.0090442365 -0.0071378304 -0.09923013 -0.032731462 -0.09452844
0.031214043 0.008381883 0.022089794 0.008643229 0.007644173 0.0453946 0.036659703 -0.050341472
-0.05713522 0.06663656 -0.066233486 -0.009514062 0.010499482 -0.02043656 0.0032122943 0.0132519305
-0.041414473 -0.0088185305 -0.019044971 0.008130155 -0.00852463 -0.04090849 0.019392608 0.092686795
0.045751367 -0.03588055 0.01093438 -0.023545709 0.050099164 0.0059385556 -0.027829984 0.007527427
-0.0517684 0.025847672 -0.04799373 -0.05664754 0.0071478086 0.04386529 -0.0026519764 0.033437945
0.094274335 0.044062313 -0.01921273 -0.0043526464 -0.028591989 0.00073542114 0.020140113 0.016405052
0.017912494 0.023478959 0.0018436606 -0.04929309 -0.019111626 0.052122697 0.08419498 0.032976534
-0.07493823 0.08442329 0.012753885 -0.050640702 -0.037228886 0.005443436 -0.021272304 -0.022046765
-0.049262095 -0.0848556 -0.08425264 -0.10069633 -0.055357635 -0.015891114 0.03009078 -0.0031598373
-0.06961116 -0.0017819444 0.048162505 -0.020841872 -0.012739229 0.0036630013 0.00971124 0.007486329
-0.012670187 0.06839378 0.033496402 -0.050505422 0.05002244 -0.08826996 -0.020562602 -0.0019177068
0.0075171795 0.011159947 0.019608384 -0.027087497 0.0048148804 0.023937775 0.05518777 -0.016818848
-0.011032665 0.05820531 -0.07632266 0.017268939 0.007931337 -0.042708807 0.013044033 -0.02329462
0.036934473 0.055158254 -0.043383606 0.021122774 0.019407153 0.059648044 -0.042044066 -0.030639442
0.013999196 -0.13893493 -0.007950539 -0.02400858 -0.020804109 -0.0108783 0.025970608 -0.038871042
-0.01705218 0.10832304 -0.08478282 0.020007866 0.015982177 0.06448058 0.06387217 0.16258977
0.02253339 0.03334453 -0.058117356 0.061165035 0.046114948 0.021960575 -0.020521909 0.027740868
-0.025347242 0.087490536 -0.030424776 -0.0010273812 -0.027888577 0.09513008 0.060365018 -0.01676026
-0.0070456006 0.03666331 -0.034347795 0.012523556 0.11838953 0.047905527 -0.030450616 -0.015520103

action_model._discrete_distribution.branches.0.bias f4 [4]
00000000: b3d6 b43c 691a 4539 4d91 a8bd f276 a83d
0.022075033 0.00018797223 -0.08230839 0.08225812

action_model._discrete_distribution.branches.1.weight f4 [5, 512]
00000000: 6e47 7abd 2a81 fd3b 60be 48bd d106 bf3d
00000010: 048a 15bc c3b7 cebc 7e33 683d 43f9 683d
00000020: d0ae 7c3c 3354 a13c a496 4d3d d427 cabd
00000030: 70ec 60bd 0f23 af3c b0cd 92bd a2b3 ba3d
00000040: 9527 a33d 0e12 1a3e 4c6e 1f3c 3d03 f6bc
00000050: 786e 103d 0660 8fbc 2d9f ca3b ba63 58bc
00000060: 44b6 923c d5a0 963d b8e9 923c 6461 173b
00000070: b513 70bc b6c7 2bba 5d36 963c d582 d63c
00000080: e318 073d 61de 8e3c 70de fe3c 6e57 04bd
00000090: 1761 373c 1fdf b0bc 9e49 c23c b82d 683d
000000a0: a343 f23a 2c65 6e3c ca02 733c 3be2 893c
000000b0: 1a4a e43c 041e c0bc facf 23bc 7d39 5b3d
000000c0: e526 d23d 65e3 b63d a4ae 6cbd 6365 663d
000000d0: 46e7 0bbd f310 f13c 45a1 9a3d 58f5 ecbc
000000e0: a3c1 c93c aff3 18bc f41e 02bc a4c5 b6bc
000000f0: 92b2 ebbc 2d65 f63c e48e b0bc 6406 96bc
00000100: ada8 1bbd 48a0 c73c 94a1 873d 3c85 dfbd
00000110: e7cc 31bb 20d4 fc3c caad c3bd 4260 2d3d
00000120: a09b fe3d 115b 063c 8d90 a1bc 9df2 10bd
00000130: fc59 873d 6fa4 05bc 122e b03d 48c5 afbb
00000140: 7363 813d c0be ca3c de86 063c 92f4 223d
00000150: 6176 b43d 0217 54bc f0bd 1abd 3f73 373d
00000160: d5de 223d 3ac2 903d 2781 d83c 0329 ac3d
00000170: 040f 6bbd f741 123c 0909 88bd 6bb7 55bd
00000180: 5f02 3e3d e2fb adbd a690 143e 9542 813c
00000190: 6895 84bd 0c4f bdbd 5abc 1ebd b8d1 243d
000001a0: cf0d 70bd 0e46 f0bc f562 923c 4023 76bc
000001b0: 7880 833d a77a 983d 0ac9 623d 612b b73b
000001c0: 013c f33c a1ce 39bd 9cfc 56bd eb55 723d
000001d0: d90d a3bd 02fb 073d 31f8 833c 74b1 08bd
000001e0: e9fe 5fbd 207e 95bd 69f0 373d 106d 9a3d
000001f0: aa5b 82bb a4c3 59bd 09c1 703d e7d7 2f3d
00000200: c6ef a1bd 8ab6 23bd 70b7 0fbc 57db 78bd
00000210: 92fa d23c 4bf8 883d 5a60 093c 9c3d e93c
00000220: 3af1 203d 8b1f 1539 14ca 6fb9 86c1 3e3d
00000230: 5b9f 39bd 3e9d a0bc d08b b4ba 74b8 ac3c
00000240: 80cc f239 f3fd ad3c 15a9 bf3b 0985 d73c
00000250: ad7a f53b 3ee2 66bd c2e6 c2bc c1c1 4b3d
00000260: f3d2 ae3d ccfa 90bd c1f2 f33c 91ea 89bc
00000270: dad1 fa3c f04c 563d cd42 943d 79d2 ea3c
00000280: 04e2 8b3d 5e89 493d df29 7abb 2db0 a73d
00000290: 13a4 73bd 8c5c 5a3d 7e5d 37bb bebd 523d
000002a0: 765d ff3c a015 82bd f85f 043d aa68 15bc
000002b0: 85d6 11bd 07d7 4fbd 6cb2 a73c c40e ecbc
000002c0: a575 6b3d 8e2f 7b3b 9f22 51bd c661 9dbd
000002d0: db82 47bd 3042 883d 03bd 453b 0c5b b73c
000002e0: fa1a c7bc 4605 6f3b ba5f c4bc 1b7f 43bc
000002f0: e1ba 343d 2d42 31bd 9a09 93ba 3124 533d
00000300: 5254 89bd 3b40 0e3d 8a04 4e3c 18d6 36bd
00000310: cbc6 70bd 61c7 713d 6c78 e3bb 715b 39bd
00000320: 784c a6bc 09d2 a63c 3ebd d9bc 9961 4b3d
00000330: e220 283d e454 a2bc 1663 663c a9ed 6ebc
00000340: eeae 623d fc36 ad3d 6f8b f5ba 4bd7 43bc
00000350: eea0 5abd c131 a0bc 61ab b13c dc6b 843d
00000360: f705 3e3d 7aef 463c ba2e 5bbd a972 4c3d
00000370: 6e33 023e 2756 d63c 24a6 003c 9f03 dc3d
00000380: ffdc 9b3d 1b72 b43c aab5 0abb e6fa f23c
00000390: 887f aabd 131c 113d a4b1 203d 44a6 9fbb
000003a0: c542 29bd 835c 46bc eda0 e9bc 27c2 163d
000003b0: e139 893c bd11 7c3d 1994 a1bc a2d4 dc3d
000003c0: a364 81bc f665 0e3e 35be 89bb 8b52 48bd
000003d0: 822b 57bb a700 773c 285d a93d f333 92bc
000003e0: a970 c63c 6b4f 8d3d e569 3dbd f6db bb3c
000003f0: d3da 263d 0e9a 863d a78c d33c a400 583d
-0.061103277 0.007736345 -0.04900968 0.09327472 -0.009127144 -0.025234109 0.05668973 0.05687834
0.015422538 0.01969347 0.05019249 -0.09870878 -0.054912984 0.021379022 -0.07168138 0.091162935
0.07966534 0.1504595 0.009730887 -0.030030841 0.0352616 -0.017501842 0.006183526 -0.01320737
0.017909177 0.07354895 0.017933711 0.002309882 -0.014653136 -0.00065528916 0.01833647 0.026185432
0.03298272 0.017440023 0.031111926 -0.032309942 0.011192582 -0.021590767 0.023716744 0.056684226
0.0018483292 0.014550488 0.014832208 0.016831508 0.027867366 -0.023451813 -0.009998316 0.053521622
0.10261325 0.08930091 -0.057783738 0.056249034 -0.034156106 0.029427027 0.07550291 -0.028925583
0.024628466 -0.009335442 -0.00794195 -0.02231104 -0.028771672 0.030077541 -0.02155251 -0.018313594
-0.03800266 0.02436842 0.066226155 -0.10914084 -0.0027130188 0.030862868 -0.09554632 0.042328127
0.12432027 0.008200423 -0.019722247 -0.035387624 0.0660896 -0.00815688 0.08602537 -0.005364094
0.063177966 0.02474916 0.008210866 0.03978402 0.088116415 -0.012944939 -0.037778795 0.04478764
0.03976329 0.07068296 0.026428772 0.0840626 -0.057387367 0.00892686 -0.06642348 -0.052176874
0.04638898 -0.084953085 0.14508304 0.01577882 -0.064738095 -0.092435926 -0.038753845 0.040239066
-0.05860692 -0.02933028 0.017869452 -0.015023053 0.06420988 0.07445269 0.055367507 0.005589888
0.029691698 -0.045363072 -0.052487 0.05916397 -0.079616256 0.033198364 0.016109558 -0.033372357
-0.05468646 -0.07299447 0.044907007 0.07540333 -0.0039782124 -0.053165093 0.058777843 0.04293051
-0.07907061 -0.039969005 -0.008771762 -0.060756054 0.025754247 0.06687983 0.008384788 0.02847176
0.03929255 0.00014221498 -0.00022868096 0.046571277 -0.04531799 -0.019606229 -0.0013774578 0.021084048
0.000463102 0.021239256 0.0058490136 0.026308553 0.0074914307 -0.056368105 -0.023791675 0.049745325
0.08536329 -0.07079086 0.02977884 -0.016835483 0.030617643 0.052319467 0.07239304 0.028664814
0.068302184 0.04920327 -0.003817193 0.081879 -0.059482645 0.053310916 -0.002797931 0.051450484
0.031172495 -0.06351781 0.032318085 -0.009119192 -0.035604972 -0.050742175 0.02047082 -0.028815635
0.05748524 0.0038327905 -0.051058408 -0.076846644 -0.048708778 0.06653249 0.0030172474 0.022382282
-0.024304856 0.003647165 -0.023971427 -0.01193216 0.044123534 -0.043276 -0.0011218071 0.051548187
-0.06705536 0.034729224 0.012574324 -0.04463777 -0.058783334 0.059028033 -0.0069418456 -0.04525322
-0.020300135 0.020363824 -0.026579496 0.049653623 0.041046984 -0.01981587 0.01406171 -0.01458303
0.055342607 0.08457753 -0.0018733571 -0.011953185 -0.05337613 -0.019554975 0.021688165 0.06465885
0.046392407 0.012142057 -0.05351136 0.049914036 0.12714931 0.026164128 0.007852111 0.10742878
0.07610511 0.022027066 -0.002116541 0.029660653 -0.08325106 0.035427164 0.03923191 -0.0048721153
-0.041323442 -0.012107017 -0.028519118 0.03680625 0.016751232 0.061540354 -0.019723939 0.10782744
-0.015795058 0.13906083 -0.0042035826 -0.048906844 -0.003283233 0.015075839 0.08269721 -0.017847037
0.024223642 0.068999134 -0.046243567 0.022932034 0.04073603 0.06572352 0.025823904 0.052734986

action_model._discrete_distribution.branches.1.bias f4 [5]
00000000: a3a7 3d3c f65d 8b3c b704 2c3d b3ce c93b
00000010: 433e 31ba
0.011575612 0.017012578 0.041996684 0.0061586737 -0.0006761292
