MLagents_test1/results/CarAgent_reinforcement_5/CarAgent/CarAgent-4499726.onnx (onnx, 108720 bytes, 7 tensors)

discrete_act_size_vector f4 [1, 2]
00000000: 0000 8040 0000 a040
4.0 5.0

network_body._body_endoder.seq_layers.0.weight f4 [512, 40]
00000000: 2b48 b83d c916 84be e401 da3d 5b6a b73b
00000010: 8b6d 76bd 86af 893d 92b5 4c3d 30f3 923d
00000020: ea82 75be f793 51bd 439c 92be 8972 983e
00000030: f4db 893d d1ad 6fbe e7d6 38bd f59b 1b3c
00000040: c735 61be 1714 fabd 22ea aa3e 5cb5 efbc
00000050: dfc5 9ebd f970 26be cd46 32be 1338 293a
00000060: f2f3 a03c ace3 003c 8b21 25bd 8d85 c43d
00000070: 0bc6 03be 274a 8abe c08c 8a3c 4fa5 883e
00000080: 2295 c5bc 8109 59be 2562 4bbe 65de 1d3e
00000090: 87c5 d0bb e9ba 00be 44fa 9abd dbed 7a3e
000000a0: 6707 5fbe 1c90 7fbd 6b0f d6bd db6d 00bf
000000b0: 25eb 61be 7478 e4bd 23e6 a93e 4ea4 04be
000000c0: 1b11 85be 66c7 06bf 95fe d1bd 56a8 c2bd
000000d0: 6a64 5f3d 189c 60be 5e4d 24bf 4db1 2abe
000000e0: 65bf a2be d1cc e5bd fe79 56be 5e8c 2cbf
000000f0: e83e 513e 4bdc 41bf e920 b2bd 6c23 4bbd
00000100: 83f4 dbbd 77a9 833e 1101 72bd b526 69be
00000110: a94f 6fbe e008 febe 5f50 86bd 40d0 d5be
00000120: 2095 6fbe 9281 b43e 182d a2be 1f87 51be
00000130: b379 bfbb 06c1 3c3e 1483 913d 9cd9 c2be
00000140: 6bb8 9abd 5e3c 87be 4d68 74be 9e26 91bd
00000150: 2e4c 583d c869 883d d6c4 e53d fe78 19bd
00000160: 62f8 d43c 65d1 503e 2f02 94bd 5d39 2a3e
00000170: ba0f 9c3c f51c 1cbe 9143 b5be bb6c 743d
00000180: 0bb2 5fbe ffe1 ebbd 6368 ef3d 304c 32be
00000190: 50ad 7bbe d377 5bbd b51c 32bd 1b20 2ebe
000001a0: 8945 c7be 8c64 d43c 80da f6be 34b6 00bc
000001b0: f4d5 883e 1233 09be df80 92bd 9d6a 53be
000001c0: f993 83be c2ba 41be b7e7 6bbe bcb3 4e3e
000001d0: fd68 9dbd 4f3d 6cbe 2457 93bc 48fc 2bbe
000001e0: ca3d a73e c924 cfbe e380 2dbe 8670 723d
000001f0: 49fc d1be 98c0 e1bd 26de 06be 5d41 d4bd
00000200: 616a 073e c00c afbe e3ce 5bbb 41fc 24bf
00000210: ae94 1dbd b3d4 3c3e 5e44 80bd 09ba 68bd
00000220: 7ab7 94be b254 2abe 6095 903d cba7 42be
00000230: 9737 99bd 53b0 08be c92b 843e 07d2 64be
00000240: 3687 11be c0be 7d3d 1763 b2bd a41f 3abe
00000250: 4034 1cbe a28b edbe 0daf 0fbd 3af5 89be
00000260: cfe3 61bc 0d45 34bf 14ca 8bbe 80ea 2fbd
00000270: ad84 02bd 8447 b53e b6cd 9bbc 4624 2dbe
00000280: 7503 edbd a849 963e 8a83 f33d 4155 39be
00000290: e7cb b83b 6792 df3d 5f5b 16bd 8022 a93c
000002a0: 3072 373b cac0 e03c a6eb 623e e5d2 80be
000002b0: 96ec a43e fbf8 523e 96b7 45be 36bf 223d
000002c0: d4e6 893e a475 77be 2277 5cbd 0fb6 60be
000002d0: eb7a 89bd 4f60 5ebe 97a1 533c f0de 123e
000002e0: 2a82 803c c199 28be 39cc fbbd 9d4c 3f3c
000002f0: 7e5f 7f3e 5a2e b2be 0920 ba3d cd4c a3be
00000300: 6904 7ebe 1d14 943e 5459 993d da22 d5be
00000310: 0d41 c4ba 655e 8ebe 0875 b3bc 2972 89be
00000320: 161b a9be 27b2 4cbe b0eb 87be f1bb c4bd
00000330: 5606 c8be 282b 8c3c 8b37 dabe 0dc1 fdbd
00000340: 62f1 aabe f54a 81be 1d25 5abd 4bf7 c73b
00000350: 315a 863d 9701 abbe b7ca 98be c42f 243d
00000360: c155 e6be 133c 023e c70e c2be 7d21 b6be
00000370: 110d acbd e768 e03c 0fc9 fbbc c3fd a1be
00000380: 0323 88be 2867 213e f86d 6cbe 4dc8 083e
00000390: 8363 96be bf2e 0dbf ae1c 533e 727e 0abf
000003a0: 3511 9cbe faf4 de3d ac6c 4bbe b650 db3e
000003b0: 92c3 a7bb 1c5a 213e 4bed abbd e8a8 6b3e
000003c0: 21bd a83e 1546 d43d 31ac 3f3e 4af5 24be
000003d0: 00b1 47bd 47a9 81bd c486 7ebe 3fe4 963e
000003e0: f93f fe3e 8faa 24be 8ca0 5dbe 0d20 d93e
000003f0: 98a1 ae3d 53c5 fbbe be04 73be ba23 433e
0.0899814 -0.25798634 0.10644892 0.0055973954 -0.060163062 0.067229316 0.049977846 0.071752906
-0.23975721 -0.0511665 -0.28634843 0.29774883 0.06731406 -0.2340615 -0.04512682 0.009497632
-0.2199317 -0.12210863 0.33381754 -0.029261284 -0.07752585 -0.16254033 -0.17409821 0.0006455194
0.019647572 0.007866781 -0.040315192 0.09595785 -0.12868516 -0.270097 0.016912818 0.2668862
-0.024118964 -0.21195032 -0.19861658 0.15416868 -0.0063712033 -0.125713 -0.07567266 0.24504797
-0.21780168 -0.062393293 -0.104521595 -0.50167626 -0.22062357 -0.11155787 0.33183393 -0.12953302
-0.25989613 -0.5264801 -0.10253636 -0.09504764 0.05453912 -0.21934545 -0.6418055 -0.16669197
-0.31786647 -0.11220706 -0.20944974 -0.67401683 0.20434153 -0.75726765 -0.08697683 -0.049594328
-0.10739996 0.2571523 -0.05908305 -0.22768672 -0.23370232 -0.49616146 -0.06558298 -0.41760445
-0.2339673 0.35255104 -0.3167503 -0.20461701 -0.005843365 0.18433008 0.07105079 -0.38056648
-0.07554706 -0.26413244 -0.23867913 -0.07087444 0.052807026 0.06660801 0.11219184 -0.037468903
0.025997344 0.20392378 -0.07226979 0.16623445 0.019050468 -0.15245421 -0.35403112 0.059674006
-0.21845262 -0.11517715 0.11689832 -0.17411876 -0.24577832 -0.05358107 -0.04348441 -0.17004435
-0.3892024 0.02592685 -0.48213577 -0.007855941 0.26725733 -0.13398388 -0.071534865 -0.20646138
-0.25698832 -0.18918899 -0.23037611 0.2018575 -0.076860406 -0.23070262 -0.017985888 -0.16795456
0.3266433 -0.40457752 -0.16943698 0.059189342 -0.4101279 -0.110230625 -0.1317068 -0.103640296
0.13224174 -0.34189415 -0.0033540062 -0.6444741 -0.03847187 0.18440513 -0.0626304 -0.056818042
-0.29046232 -0.16633871 0.07059741 -0.1900932 -0.07481306 -0.13348512 0.25814655 -0.22345744
-0.14211735 0.06194949 -0.08710306 -0.18176132 -0.15254307 -0.46395594 -0.03507905 -0.26944906
-0.013787224 -0.70417863 -0.2730261 -0.042948246 -0.03186481 0.35406125 -0.019018989 -0.16908368
-0.11572925 0.2935307 0.118903235 -0.18098928 0.0056395414 0.10916596 -0.036708232 0.020646334
0.0027991645 0.027435679 0.22160205 -0.251609 0.3221175 0.20602791 -0.19308314 0.039733134
0.2693392 -0.2416597 -0.05382455 -0.2194445 -0.06712898 -0.21716426 0.012916944 0.14342856
0.015687067 -0.16464902 -0.12294812 0.011675981 0.24938771 -0.34800988 0.090881415 -0.31894532
-0.2480637 0.28921595 0.07487741 -0.41628152 -0.0014973 -0.27806392 -0.02190639 -0.2684491
-0.33028477 -0.19989835 -0.26547003 -0.096061595 -0.39067334 0.017110422 -0.426205 -0.12390337
-0.33387285 -0.252525 -0.05325805 0.0061024777 0.065601714 -0.3339965 -0.2984216 0.040084615
-0.449873 0.12718229 -0.379019 -0.35572425 -0.0840093 0.027393771 -0.03073552 -0.31638917
-0.26589212 0.15762007 -0.23088825 0.13357659 -0.29372796 -0.55149454 0.20616409 -0.5409919
-0.30481878 0.10886569 -0.19865674 0.42835015 -0.0051197493 0.1575703 -0.083948694 0.23013651
0.32956794 0.103649296 0.1871803 -0.16109195 -0.048752785 -0.06331115 -0.24856097 0.29471013
0.49658182 -0.16080688 -0.21643275 0.42407265 0.08526915 -0.49173984 -0.23732278 0.19056597

network_body._body_endoder.seq_layers.0.bias f4 [512]
00000000: 2a34 a7bd 8882 89be b770 36be 3889 49be
00000010: 4519 a83c c116 80be 47d4 4e3d 7aa7 62bd
00000020: e8f7 20bd 674d 96be cfd2 4d3c 0fed 73be
00000030: 12ea d2bd 27aa a0be 2b61 94bd 5756 fb3c
00000040: 8a8c f5bd 7d80 9a3b 6ae4 0bbe afdd f9bd
00000050: f1a3 25be 5ef3 57be 5ab1 74bd 1aa3 76be
00000060: 18d0 80be f90a d5bd 64bb 05be 037b 10bd
00000070: ed0c e1bd e931 4fbe b553 c0bd 2b04 e4bd
00000080: 92c7 26be 60c6 b0bd 4487 e4bd 288a 07be
00000090: 8adf 7abe c5fe 8cbd 2cd8 3cbe 217b 1dbe
000000a0: 65ab f9bd 7717 57be 2ade a9bd 0ffb 67be
000000b0: aa16 c8bd ab2e 3fbe fd5e 9dbe e51f b1bd
000000c0: 8259 52be c2f3 52be 0a59 1ebe 5310 e5bc
000000d0: 4a01 0cbe 2a06 8abe 5973 7c3d a6c9 06be
000000e0: f844 26be f777 18be cbd4 22be dc5b 7fbd
000000f0: df3f 18be 1d5e 09be 4bec ddbd 5861 7bbd
00000100: 66e7 43bd f137 813d 6428 783c 8cf6 753b
00000110: 9d52 a8bd 2844 1abe e429 50be f240 76be
00000120: ff55 e33c 2488 64be 96fc 22be 7f53 f6bd
00000130: 1e1c 5abd 1c35 abbd b4be 203d e7ac 2cbe
00000140: 109f 54bd 8154 e7bd fcf4 14be 8c5b 05be
00000150: c30e 05be 72fc 67be bb95 a6be ca16 21be
00000160: dabb 79be 2bed a33d 5e95 b4ba 2937 85be
00000170: 3c3d b9bd b17f d7bd de4b 57bd 7e12 f0bd
00000180: 17b0 d1bd 8b4f 60be d671 afbc 7665 38bd
00000190: 7fee 17be cf3c 91be 6af5 9cbe 7eeb 6abd
000001a0: e24f 95be c870 d5bd 2725 94be a4b7 abbd
000001b0: ccff 2bbd b188 d3bc 5d4e b7be 7258 90be
000001c0: 83e6 0fbe 2bf8 17be f5c2 51be 3ac4 47be
000001d0: 7fbf e3bd d807 82bc 7b3e bebe e3fd 7fbd
000001e0: 4e27 2ebe d870 67be 9e36 1fbd 2f44 083d
000001f0: 713f 4ebe a9cb bbbd 6cd6 a6bd eb57 30be
00000200: f3ab 06be 599e 46bd 1a9d a6be 0c8f f1bd
00000210: b09a 60bd b3c2 60bd 80d9 7ebe 6131 c8bd
00000220: 4c25 e5bd 7946 5bbe ccec 0ebe f53b 33be
00000230: 03fe 8dbe e187 81bd 9aa8 8fbc 5ae3 81bc
00000240: e6dc 12be ed95 13be 461e a3bd 2766 bebd
00000250: b705 83be a4b7 d7bd e89b 72bd 7da7 a1be
00000260: 8db5 b2bd 086a 823c fbb9 6ebe da1b 6cbd
00000270: 1fba 9ebb 9932 30bd 8a0d 88bc 07b8 d9bd
00000280: d4d2 84be 6a25 48be d418 acbd c98b 50be
00000290: f1db 03be 39ef 8ebd d59c 0abe 32d0 37be
000002a0: d0c3 bbbc 39bc 5c3a 5d1e a6be 4c86 9abd
000002b0: 50de 14be 435f 15be 59c2 67bd 70bf 34be
000002c0: 63cf 62be 88f4 e7bd d91b 9cbd d12a a6be
000002d0: 6017 443d de01 8cbe ea60 90be 9090 7bbe
000002e0: 7fc3 1dbe a3b1 e2bd 9d19 d3bd ccad 90be
000002f0: b7c4 14be cb7b abbe 94b5 62be 379b 653c
00000300: ce02 d4bd 2a0c 8fbd b936 debd 12df 0ebe
00000310: 5374 a6be 3841 53be 3146 453a 9b5d a5bd
00000320: acb7 4c3d 6cca fbbc e06f b4be b8b4 9cbe
00000330: e9c9 12bd d0a8 873d 25cf 86bd 25c3 a7be
00000340: 0854 6abe d4f8 51bd ae5a 7dbd b6f3 65be
00000350: 7434 46bd 49a5 0abe e3ad c2bd 8b59 d0bc
00000360: 9856 74be 73a8 9bbd 4e77 b5bc 3bc9 50be
00000370: 016c 61be e8c9 ecbd b3b1 3cbe 535c 9abe
00000380: 2436 67be 4f99 3dba 8863 32be 93ec 24be
00000390: 55a3 89be a830 b1bc de00 b9bc f714 cabd
000003a0: 48f1 e1bd bc46 12be 0e7c 2dbe e418 bfbd
000003b0: 69f7 09be 878c 11be bc2e 8cbe 9374 e3bd
000003c0: 8f11 1bbe 17f0 9cbe 984b 96be 7dfa 1fbe
000003d0: 3899 90be 1c71 dfbd 392d c0bd 978d 66be
000003e0: 996f afbd 8e84 25bd b963 d1bd ef4f babd
000003f0: 6dbf 86bd 8b08 12be 3a52 64be 3ee7 38be
-0.081642464 -0.268574 -0.17816435 -0.19681251 0.020519862 -0.2501736 0.050495412 -0.0553355
-0.03929892 -0.29355928 0.012562468 -0.238209 -0.102985516 -0.31379816 -0.07245096 0.030680818
-0.11989696 0.004715024 -0.13661352 -0.12200486 -0.1617582 -0.21088931 -0.059739448 -0.24085656
-0.25158763 -0.104024835 -0.13059765 -0.035273563 -0.109887935 -0.20233883 -0.09390966 -0.111336075
-0.16287068 -0.08631587 -0.11158612 -0.13236296 -0.24499336 -0.06884531 -0.18441838 -0.15379001
-0.12190894 -0.21005045 -0.082943276 -0.22654365 -0.09769948 -0.18670146 -0.30736533 -0.086486615
-0.20541957 -0.20600799 -0.15463653 -0.027961886 -0.13672367 -0.26957828 0.06163344 -0.1316286
-0.16237247 -0.14889513 -0.15901487 -0.062343463 -0.14868115 -0.13414808 -0.10836085 -0.06137213
-0.0478281 0.06309498 0.015146349 0.0037530987 -0.08218882 -0.15065062 -0.2032848 -0.24048212
0.027750967 -0.22317559 -0.15916666 -0.12027644 -0.05324947 -0.08359739 0.03924437 -0.16862832
-0.051909506 -0.11295415 -0.14546579 -0.13023204 -0.12993912 -0.22654894 -0.3253611 -0.1573135
-0.24388066 0.080042206 -0.0013777425 -0.26018646 -0.09044883 -0.10522402 -0.052562587 -0.11722277
-0.102386646 -0.21905343 -0.021416586 -0.045018636 -0.14837073 -0.28366706 -0.30655986 -0.05735349
-0.29162508 -0.10421902 -0.28934595 -0.08384636 -0.041991994 -0.025822015 -0.35801974 -0.28192478
-0.14052777 -0.14840762 -0.20484526 -0.19508448 -0.11120509 -0.01587288 -0.37157044 -0.062497985
-0.17007181 -0.2260164 -0.038870446 0.03326815 -0.20141388 -0.091697045 -0.081463665 -0.17221038
-0.13151531 -0.048490856 -0.32541734 -0.11794862 -0.05483502 -0.05487318 -0.24887657 -0.09775043
-0.111887544 -0.21413602 -0.13957518 -0.1750334 -0.27732858 -0.06324745 -0.01753645 -0.01585548
-0.14342079 -0.14412661 -0.079647586 -0.09296828 -0.25590298 -0.105330735 -0.059230715 -0.31573096
-0.08726034 0.0159197 -0.23313133 -0.05764375 -0.0048439647 -0.043017004 -0.016608018 -0.106308036
-0.259421 -0.19545522 -0.08403173 -0.20365824 -0.1287687 -0.06979222 -0.13536389 -0.17950514
-0.02292052 0.00084203813 -0.3244504 -0.07545146 -0.1453793 -0.1458712 -0.05658183 -0.17651153
-0.22149424 -0.113259375 -0.07622499 -0.3245454 0.047873855 -0.27345175 -0.2819894 -0.24566865
-0.15406607 -0.11069038 -0.1030762 -0.28257596 -0.14528166 -0.33492884 -0.22139579 0.014014057
-0.103520975 -0.06984742 -0.10850281 -0.13952282 -0.32510623 -0.20630348 0.0007525413 -0.080744945
0.04997985 -0.03073617 -0.35241604 -0.30606627 -0.035837088 0.06623995 -0.065824784 -0.3276607
-0.22883618 -0.05126269 -0.061854057 -0.2245625 -0.048389867 -0.13539614 -0.095058225 -0.025433322
-0.23861158 -0.076004885 -0.022151615 -0.20389263 -0.22013856 -0.11561948 -0.18427162 -0.30148563
-0.22579247 -0.00072326226 -0.1742078 -0.16105871 -0.26882425 -0.021629646 -0.022583421 -0.0986728
-0.11032349 -0.14284796 -0.16941854 -0.093309194 -0.13473286 -0.14213763 -0.27379405 -0.11106219
-0.15143417 -0.30651924 -0.29354548 -0.15622897 -0.28241897 -0.10910246 -0.093836255 -0.2251495
-0.085662074 -0.040409617 -0.10224099 -0.090972774 -0.0657948 -0.14261071 -0.22296992 -0.18056962

action_model._discrete_distribution.branches.0.weight f4 [4, 512]
00000000: 59c1 bfbc 5aaa 22bd e9e4 c93b 9667 26bc
00000010: 3b25 cd3d 6b8d 1c3c bfc8 c9bc 7786 b2ba
00000020: 6e00 143d 3c0e 1bbc 02be 0f3e fca4 e13c
00000030: 0e84 b6bd 777a ddbc b410 103d d3b9 c33d
00000040: d015 9fbd 60b3 7f3d 5a16 bbbc 9688 483d
00000050: cae2 223b dddc ea3d 1a73 55bd 9264 89bc
00000060: 27dd ca3c 86c4 07bc 9c3f cabc 4e19 02bd
00000070: 45bd da3c 3cb1 e0bc 6be8 8a3c aa8b b6bb
00000080: 4a95 0e3d 2f5c 65bc 0589 91bd 6847 c93c
00000090: 0f7b 28bb 4749 8d3c b804 e83c f1b1 5a3d
000000a0: f6df b2bc 05cb b3bb 7df6 4ebd 9418 bebd
000000b0: a0a8 763d b983 58bc 4378 3b3b 84d5 913d
000000c0: 9790 b6bd 5d61 fbbd 7684 793d 7bac 583c
000000d0: 8531 89bc d1ff 29bb 8092 4fbd 7318 5cbd
000000e0: edb6 a13c 3c86 443d fae7 26bc 8807 12ba
000000f0: 63b2 e0bb 5d4f fa3c 911f 933c 8f3c dc3c
00000100: bb15 a83c 1446 bc3c 7baa 1b3c 2bcc 973d
00000110: 3758 ac3d a43c 4d3d f7aa 9c3c c916 a0bc
00000120: 2d34 ccbb f47e 1bbd 76b2 823d 7aec 853c
00000130: 301b 28bc cfeb a83d 2780 563d f3d4 453d
00000140: 1544 c3bc 7d68 a5bc 79ae 2f3d 51af aeba
00000150: 8012 923b 9ebd e33b cc24 8f3c 494f d0bb
00000160: a729 f53c 350f 583d b661 833d 4aa6 113d
00000170: 39f9 3c3c 2e02 fd3c 096f 8abd 9dcf 67bd
00000180: 6560 91bc 78e0 953b 58b9 303d fffc 573c
00000190: 4189 57bc b1ff c4bd 788d 20bd cba0 e3bd
000001a0: 2721 f13c b4af 6aba b03a b13c 5baf f53b
000001b0: ee2a 643b f214 2b3d 9194 ce3c 5766 52bd
000001c0: 5ee0 80bd 19f0 6c3d 2d73 83bd 467c 87bc
000001d0: 30b2 5c3b cd3a 4abc 5153 b33a 25d7 233c
000001e0: 4bb9 45bd 8be3 37bc fbc1 38bc 2720 693c
000001f0: 4ab8 2bbc b028 48bd fac3 bf3c e1eb b63d
00000200: 7b3e 4d3d 813d 0fbd 5e41 123c 168c d9bc
00000210: 71a5 293d 9201 34bb be70 f4bc 30e7 5c3b
00000220: ea30 33bd eebf a23c 8391 3cbd 5415 68bd
00000230: 516a 153c 83f9 f53c 359f f53a af6e 123d
00000240: 637f a83d 0289 353d ad1c 89bc 279b 1e38
00000250: e951 e9bc 31d6 213c 8d72 973c 72ac 843c
00000260: 9a5d 463b 0854 c13c f902 6bbc 0a44 33bd
00000270: c15d c2bc 2280 6a3d 1f45 aa3d 15a3 1f3d
00000280: 90d2 9cbd 62c9 a33d cfe5 a53c 897f 40bd
00000290: 9920 00bd 3c17 80bb 0ec9 35bc ff3b 94bc
000002a0: 7636 37bd 36f0 c2bd 77a2 b2bd dd35 dbbd
000002b0: aa34 6abd 0e41 a5bc 2fd1 a83c b539 bcbb
000002c0: d13e 92bd e395 a939 f347 013d 443b ccbc
000002d0: 9221 d0bb 1a04 34ba 2063 343c 7177 cc3b
000002e0: 2371 60bc 4772 843d 4067 6f3c 58a5 40bd
000002f0: 2b42 3f3d ed1f b4bd 5f69 acbc 6442 a43b
00000300: a098 b83c 6464 aa3c b38c ea3b 35c6 febc
00000310: 405a 123b 360c 943c c5bd 203d 5c0e 5fbb
00000320: d6b6 4fbc 4ec4 603d 42a0 99bd 9dbb 6c3c
00000330: 4d3b 0f3c f659 68bd 76e6 633c 1c8e cabc
00000340: 05dd d13c 6ff9 8a3d 64ce 44bd 3f85 b13c
00000350: f1ea 9a3c 48fe 323d d10e 03bd 5a12 c3bc
00000360: 8755 323c e2e2 f8bd eeb6 dbbc 97bc d2bc
00000370: 31a3 e5bb 9af7 46bc 5b94 d93c c714 20bd
00000380: 735a d5bb 658e ee3d 853d aabd 16ee 933c
00000390: 41fa 6f3c f540 943d 7c11 7e3d be39 223e
000003a0: ce11 e33c b1a7 d63c aee9 7fbd 163d 913d
000003b0: 54df 8a3d 3bc4 843c 31ff c7bc f5e2 da3c
000003c0: 3796 78bc 0a75 ac3d dca6 09bd eaca eabb
000003d0: 3519 c5bc 07f8 cd3d b600 4f3d dac7 a5bc
000003e0: 23c2 88bc c9c6 173d 80c6 f4bc 3ca9 693c
000003f0: 44f5 f33d 48d8 5e3d 9f59 fcbc 9bd3 97bc
-0.023407625 -0.03971324 0.0061613214 -0.010156533 0.10016867 0.009555201 -0.024631856 -0.0013620396
0.036133222 -0.009463843 0.14037326 0.027544491 -0.08911906 -0.027035935 0.03517218 0.095569275
-0.07767832 0.062426925 -0.022837806 0.048958384 0.0024854415 0.114679076 -0.052111723 -0.016771588
0.024763657 -0.008286601 -0.024688534 -0.031762414 0.026701579 -0.027428262 0.016956529 -0.0055708485
0.034810342 -0.013999029 -0.071062125 0.024570182 -0.0025708114 0.017246855 0.028322563 0.053392354
-0.021835309 -0.0054868483 -0.05052804 -0.09282032 0.060219407 -0.013214999 0.0028605617 0.07120803
-0.08914297 -0.1227443 0.06091734 0.013224716 -0.016747246 -0.0025939832 -0.050676823 -0.053734254
0.019740546 0.04797958 -0.010187143 -0.000557058 -0.006857203 0.030555421 0.017959388 0.026884345
0.020518174 0.022982635 0.009501095 0.07411989 0.08415263 0.05010666 0.019124491 -0.019542115
-0.006231806 -0.03796287 0.06381695 0.016348112 -0.010260388 0.08248102 0.05236831 0.048298787
-0.023836175 -0.020191425 0.042891 -0.0013327395 0.004457772 0.0069500944 0.0174736 -0.006357108
0.029927088 0.052748878 0.06415121 0.035558976 0.011534029 0.030884828 -0.067594595 -0.05659448
-0.01774616 0.004573878 0.043145508 0.013182878 -0.0131552825 -0.09619082 -0.039197415 -0.11114653
0.029434754 -0.00089525734 0.02163443 0.0074977106 0.0034815627 0.041768022 0.025217326 -0.05136713
-0.06292795 0.057846162 -0.064184524 -0.01653875 0.0033675544 -0.012343121 0.0013681446 0.010000025
-0.048272412 -0.011223684 -0.011276717 0.014228857 -0.01048095 -0.048866928 0.023408879 0.08931709
0.050108414 -0.034970764 0.008926718 -0.026556056 0.041417543 -0.0027466756 -0.029838916 0.0033707134
-0.04374782 0.01986691 -0.04603721 -0.056660965 0.009119586 0.030026203 0.0018739464 0.035750087
0.08227422 0.044320114 -0.016737306 3.7814632e-05 -0.02848144 0.009877727 0.01848724 0.01619551
0.0030268193 0.02359964 -0.01434397 -0.04376606 -0.023726346 0.057251103 0.08313965 0.038973887
-0.07657349 0.07997395 0.020251183 -0.046996627 -0.031281088 -0.0039090198 -0.011095298 -0.018095015
-0.044729672 -0.09518473 -0.08722394 -0.10703633 -0.05717913 -0.020172622 0.020607559 -0.005744184
-0.071408875 0.00032345866 0.031562757 -0.024930604 -0.006351658 -0.0006867066 0.011009961 0.0062398245
-0.013698849 0.06467109 0.014612019 -0.047032684 0.046693962 -0.08795152 -0.021046339 0.005012797
0.022533715 0.020799823 0.007157886 -0.031100372 0.0022331625 0.018072229 0.03924348 -0.0034035658
-0.012677869 0.05487471 -0.0750127 0.014449027 0.008742166 -0.05672642 0.013909927 -0.024725966
0.025618086 0.06785857 -0.048048392 0.021669982 0.018910857 0.043699533 -0.031996552 -0.023812462
0.010884649 -0.121526495 -0.026820626 -0.025724692 -0.0070079793 -0.012143994 0.02656 -0.039082315
-0.0065110265 0.11648253 -0.08312515 0.018057864 0.0146470675 0.07238952 0.062028393 0.1584234
0.02771845 0.026203008 -0.062478714 0.07091729 0.06780878 0.016206851 -0.024413677 0.02671955
-0.015172533 0.08420761 -0.033606395 -0.0071653025 -0.024059871 0.10057073 0.050537787 -0.020236898
-0.016694134 0.03705481 -0.029879808 0.01426154 0.11912015 0.05440548 -0.030804453 -0.018533519

action_model._discrete_distribution.branches.0.bias f4 [4]
00000000: 2405 c03c c488 a23b 25b0 c0bd 4e74 b03d
0.023439951 0.0049601514 -0.09408597 0.08615933

action_model._discrete_distribution.branches.1.weight f4 [5, 512]
00000000: 84f5 8ebd 8622 263c 1766 73bd ff0f a23d
00000010: 7d4c 96bb e4f7 19bd d36a 4c3d 2fd5 333d
00000020: 71a5 913c d3c5 f73b c818 543d 1a4f e6bd
00000030: e0f1 41bd 5791 b23b c8d5 9ebd c834 c13d
00000040: 14f9 943d 296e 0b3e 67bd 933b 208b 05bd
00000050: a24e d93c 0578 90bb 32a9 dcbb c0d9 e3bc
00000060: 7399 1e3b 6c77 833d bc5d 5a3c 57d3 26bc
00000070: 0cd9 9dbc d066 4fbc 467e 883c 2ad5 813c
00000080: 9be5 d63c 338d 883c 2bbb ee3c bd7a 0fbd
00000090: e9ca 783b 1cd6 b6bc 27b8 bc3c 0922 833d
000000a0: 9ebf 91bb 3d4a b4b9 759d 193c 5de8 443c
000000b0: beda e93c 7faa 07bd 501e f0bc c57e 6b3d
000000c0: e9c7 be3d 3302 a03d e932 72bd 67a7 1a3d
000000d0: 7cca 3bbd e77c 233c 401e 813d e03d 0fbd
000000e0: ccb4 953c a0a8 9bbb ba99 a4bc 76ee bdbc
000000f0: 2396 1fbd 9012 073d 2d63 dabc 78a9 2bbc
00000100: 3453 0cbd 4b1b b33c 2ca1 853d 813c d2bd
00000110: 1968 1d3c 3bbc 023d 02bd d7bd ff26 033d
00000120: 8ca0 043e dd80 5abb e968 fbbc 7f05 37bd
00000130: 74b1 813d 40b7 7dbc a471 a33d a88d 39bc
00000140: 8c15 713d 2f54 cd3c d809 773c 9d7f 053d
00000150: e560 a73d 8c5f e0bc 232e 4ebd 218d db3c
00000160: 7945 db3c 2a0c 8b3d 1c1c e63c 928f ae3d
00000170: e791 7abd da3d 6b3c 0431 8ebd 7adf 6cbd
00000180: 5cd2 d33c b5c4 cdbd 0182 053e 761c f03a
00000190: 06ba 97bd e412 b5bd 600c 5fbd 98f2 c33c
000001a0: fa3e 9abd 3919 bebc ff74 e43b 7d0e 8cbc
000001b0: a4b3 7c3d de5a 973d dae3 633d c7a8 38bc
000001c0: 62ad c33c a70a 3bbd aa21 8abd f99e 3d3d
000001d0: 303d bfbd 0400 bd3c f667 413b 073a 19bd
000001e0: 67dc 84bd 6b30 b5bd 4613 f93c 719c 913d
000001f0: 7f96 92bc 89b4 83bd 980d 6a3d 51c2 343d
00000200: fabb 87bd 9cd8 47bd c615 aabc 2217 83bd
00000210: cca9 313c 50fb 973d e83c 98bb ea1e 143d
00000220: 64d1 0c3d fd74 e7bb e0ea e4bb 6f5a 273d
00000230: d207 5fbd aae4 e5bc 350f 4e3b 7151 023d
00000240: ec0e 07bc d135 a23c 02d6 d13b 4721 8f3c
00000250: c2e8 03bc 149b 7bbd 2bc9 88bc ca98 0b3d
00000260: 51c9 9f3d d1c8 9ebd 4c1b 053d 0752 cfbc
00000270: 90f2 ad3c e6c5 633d 6745 bf3d 6d8d e73c
00000280: 3c6c 693d 5289 073d 4358 edbb d64a 993d
00000290: 3c52 81bd 6b1a 553d 6805 72bb 1099 503d
000002a0: d235 ce3c 8867 74bd 8959 813c 5072 c8bb
000002b0: 5f60 4fbd 3542 4dbd 62f0 973c afff 11bd
000002c0: dfdd 323d 792d 90bb e9c7 6cbd cd62 b4bd
000002d0: 42fe 85bd 28e2 6f3d 58fe 1bbc 6f2d 823c
000002e0: d9cf 27bd dc5d 053c 2eef 09bd e780 d6bc
000002f0: 113c 5b3d ef5a 3dbd 8903 5abc 4538 3b3d
00000300: bcea 7abd 4532 333d 3956 8f3c 58b1 65bd
00000310: b767 94bd 3589 623d 2a97 8ebb 8a67 6ebd
00000320: d28a abbc c7bd 9c3c 4a85 26bd aa62 193d
00000330: 80f0 283d 0515 06bd 91a6 aa39 006f 01bd
00000340: 57bf 723d a11f c63d 046e c3bb 9cf5 bdbc
00000350: c069 a5bd ed59 afbc de11 a33c 58e0 5a3d
00000360: bdea 173d cf08 e73b 34e6 2fbd 7791 543d
00000370: 8d80 eb3d 2b4e 0b3d c7ce f73a b6a9 b83d
00000380: 338d 903d 3b1f 9c3c 1ea3 a0bc 5ea3 cd3c
00000390: 2c81 c7bd 564f 393d a3ee 1a3d f4a9 843c
000003a0: 61a0 2ebd 8df9 c9bc f589 3cbd 2ba4 163d
000003b0: c3e8 a33c 1bc7 7b3d 0b22 0bbd 7847 e73d
000003c0: d5c5 03bd 665a 0f3e 26b9 b7bc c2db 3dbd
000003d0: 0d5a 73bb 7177 ca3c 3ff9 9f3d 7145 f7bc
000003e0: 8b08 6e3c 1d24 5a3d 3a2a 91bd 77b6 b83c
000003f0: 48b6 0c3d 7018 943d ed71 793c fc2b 303d
-0.06980422 0.010140067 -0.059423532 0.07913207 -0.004586755 -0.037589923 0.049906563 0.04390448
0.017779084 0.0075614243 0.051781446 -0.11245556 -0.04734981 0.0054494548 -0.07755619 0.09433895
0.072740704 0.13616242 0.0045086625 -0.032603383 0.026526753 -0.0044088387 -0.006734037 -0.027813792
0.002420035 0.06419262 0.013328012 -0.010182223 -0.019268535 -0.01265879 0.016661774 0.015848715
0.026232531 0.016668892 0.029141983 -0.03502916 0.003796274 -0.022318892 0.02303703 0.06402976
-0.0044478914 -0.00034387587 0.00937592 0.01201829 0.028546687 -0.033121582 -0.02931133 0.057493944
0.093154736 0.078129195 -0.059130583 0.037757304 -0.0458474 0.0099785095 0.06304598 -0.034971118
0.018274687 -0.0047503263 -0.020092834 -0.023184996 -0.03896154 0.032976687 -0.026658619 -0.010477416
-0.034259036 0.0218636 0.06524882 -0.102654465 0.009607338 0.03191779 -0.10534097 0.03201961
0.12951869 -0.0033340969 -0.030689673 -0.044682976 0.063326746 -0.015485585 0.079806596 -0.011325277
0.05885844 0.025064556 0.0150780305 0.032592405 0.08172778 -0.02738931 -0.05033697 0.026800694
0.026766526 0.067894295 0.028089575 0.085234776 -0.0611743 0.014358008 -0.06942943 -0.05783031
0.025857143 -0.100472845 0.13037874 0.0018319029 -0.07408528 -0.08841494 -0.05445516 0.023919389
-0.07531543 -0.023205386 0.006971955 -0.017096752 0.061694756 0.073903784 0.055637218 -0.011270708
0.023886386 -0.045664456 -0.06744702 0.046294186 -0.093378425 0.023071297 0.0029511428 -0.037408855
-0.06487351 -0.088471256 0.030404698 0.07109917 -0.017894028 -0.06430919 0.05714187 0.044130627
-0.066276506 -0.04879056 -0.020762336 -0.064008966 0.010843705 0.07420981 -0.0046459325 0.036162294
0.034379378 -0.0070635066 -0.006986007 0.04085773 -0.054450817 -0.028063137 0.003144217 0.03181595
-0.008243304 0.019801052 0.0064036855 0.017471923 -0.008051099 -0.06142719 -0.016697487 0.034081258
0.0780207 -0.077531464 0.032496735 -0.025307668 0.021233827 0.055608653 0.09339409 0.02826568
0.056987986 0.033089943 -0.0072431876 0.07484977 -0.06314513 0.052027147 -0.0036929492 0.05092722
0.025172148 -0.059669048 0.015789764 -0.0061171427 -0.050629016 -0.050111968 0.01854724 -0.03564423
0.043668624 -0.004399952 -0.057807837 -0.08807907 -0.065426365 0.05856529 -0.0095210895 0.015890805
-0.040969703 0.008140054 -0.033675365 -0.026184512 0.05352408 -0.0462293 -0.013306507 0.04570796
-0.061259016 0.043749113 0.017497169 -0.05607733 -0.072463445 0.055306632 -0.0043515163 -0.05820421
-0.020940218 0.019133462 -0.040654458 0.03744761 0.041244984 -0.03273489 0.00032549028 -0.0316
0.059264507 0.096740015 -0.0059640426 -0.023188405 -0.08076811 -0.021405185 0.01990598 0.053436607
0.0370891 0.0070506106 -0.04294415 0.05189654 0.114991285 0.034010094 0.0018906229 0.09016745
0.070581816 0.01905786 -0.01960903 0.025102314 -0.097414345 0.045241676 0.037825238 0.016194321
-0.042633418 -0.024655128 -0.046030004 0.036777657 0.02000845 0.06146918 -0.033968013 0.112929285
-0.03217109 0.13999328 -0.022427153 -0.046352156 -0.0037132532 0.024715157 0.07811212 -0.03018448
0.014528404 0.053257097 -0.07088132 0.022547944 0.034353524 0.072312236 0.015224916 0.043010697

action_model._discrete_distribution.branches.1.bias f4 [5]
00000000: 9303 9d3c bc18 233c 1e60 423d 0beb 5d3b
00000010: e510 02bb
0.019166743 0.009954628 0.047454946 0.003386202 -0.0019846496
