MLagents_test1/results/CarAgent_reinforcement_5/CarAgent/CarAgent-3999888.pt (torch, 580945 bytes, 28 tensors)

discrete_act_size_vector f4 [1, 2]
00000000: 0000 8040 0000 a040
4.0 5.0

network_body._body_endoder.seq_layers.0.weight f4 [512, 40]
00000000: 2b48 b83d f993 83be 6021 cc3d cf14 543c
00000010: 8e6e 71bd 86af 893d 78fa 493d e35a 963d
00000020: 9a97 74be 0dee 4dbd 439c 92be 1ca0 983e
00000030: 6aa6 783d 9cb2 66be 01b7 33bd f59b 1b3c
00000040: 7f8f 63be d305 ebbd beb9 aa3e 74ed eebc
00000050: dfc5 9ebd 969c 22be da0e 3cbe 6f79 b13b
00000060: 7ee2 933c ace3 003c 96be 34bd 7c31 d03d
00000070: 62d8 03be c23a 8abe c08c 8a3c 2bad 8a3e
00000080: dfcb edbc d418 5bbe a9a1 50be deee 1e3e
00000090: bf73 b1bb 097a 01be ec73 91bd 55cf 7a3e
000000a0: 6707 5fbe e869 83bd 9799 dcbd d34e 02bf
000000b0: fe28 69be 7478 e4bd 8c33 a83e 2953 03be
000000c0: 8b43 89be bbeb 08bf 95fe d1bd 8573 c3bd
000000d0: 4e82 5c3d 56f7 68be b4f6 25bf 4db1 2abe
000000e0: e24f a8be 1b16 e4bd 0e5e 57be ac7a 2ebf
000000f0: e83e 513e d8cb 40bf 553a c8bd aaf1 5ebd
00000100: 60be eabd 77a9 833e 5aca 8fbd 56a7 6bbe
00000110: 0f47 6bbe 58a8 00bf 5f50 86bd 09ab d5be
00000120: 8bb2 7bbe d0a5 b33e 6fb4 a5be c759 54be
00000130: 04f8 0dbc e43c 3c3e 2570 863d 9bdc c5be
00000140: 6bb8 9abd f6e4 88be 2fc2 83be 2028 7dbd
00000150: 62c2 4b3d c869 883d a877 ea3d ec66 45bd
00000160: 4d93 a93c 2577 4c3e 2f02 94bd 41f2 273e
00000170: e848 f33b 7de6 18be 34a8 b6be bb6c 743d
00000180: a431 5ebe 5f51 f3bd d354 e63d 9b99 36be
00000190: 50ad 7bbe 23c9 62bd cb5f 56bd 3f6b 2dbe
000001a0: 96e5 cabe 8c64 d43c 57d2 f7be 66e1 29bc
000001b0: e635 873e 638a 0dbe df80 92bd 0b17 56be
000001c0: c153 84be 4dbc 45be 0654 75be df7a 473e
000001d0: dc4f 92bd 6079 5ebe 32d6 e1bc 17d0 2dbe
000001e0: ca3d a73e 369e cebe 7b71 34be 8b5f 6d3d
000001f0: fcf6 d2be 98c0 e1bd 731e 05be 6032 d4bd
00000200: 620a 033e 9628 b0be e3ce 5bbb 71db 25bf
00000210: dc0b 29bd fe1d 3f3e da86 82bd 09ba 68bd
00000220: 1c9a 93be 81ad 24be 163a 813d d015 46be
00000230: 9737 99bd 10b5 0cbe 64e5 843e ea7f 65be
00000240: ed74 14be c0be 7d3d b145 b5bd 33f3 37be
00000250: 8486 1fbe 0b04 efbe 0daf 0fbd cc6d 8abe
00000260: 65d0 15bc adc2 35bf 5ffc 8dbe 4d5f 35bd
00000270: 5d51 f6bc a691 b33e f6c1 a1bc 4478 34be
00000280: 7503 edbd 3eff 973e 061c f73d 065c 3dbe
00000290: eddd 7c3b 6792 df3d c711 15bd 29a8 a43c
000002a0: 5098 263b 6fcc d73c a6eb 623e eb92 7cbe
000002b0: c51c a53e 0098 4f3e b4cf 46be 36bf 223d
000002c0: 43ce 883e 8159 80be ffe2 39bd f430 5fbe
000002d0: eb7a 89bd 16e7 59be 5c80 5f3c 6710 103e
000002e0: 7a51 6b3c c199 28be 655f 00be 0562 e13b
000002f0: 739e 823e 2135 b1be 0920 ba3d e794 a2be
00000300: 7c4b 76be e72c 923e 7b2c 953d 55f8 d1be
00000310: 3023 093a ad21 8ebe 0f4e f9bc cd04 89be
00000320: 161b a9be c943 50be e8d0 82be 0a90 bcbd
00000330: eec3 c5be 282b 8c3c 1548 dbbe 6e3b f3bd
00000340: 9b63 a8be 67a9 7dbe 1d25 5abd 3880 b639
00000350: c9c9 a93d 2d79 abbe e6cd 96be c42f 243d
00000360: 2d83 e7be 18cf 043e 111a bfbe ecde b3be
00000370: 110d acbd ce26 893c 82bb 97bc 1a1c 9dbe
00000380: 2300 86be 2867 213e 5289 68be 5c6f 0b3e
00000390: b5b1 95be 537c 0cbf ae1c 533e e0d4 0cbf
000003a0: 1b0c 94be ba26 e33d bcd0 49be ea68 df3e
000003b0: b50b f73a de5b 213e d44b afbd 715b 653e
000003c0: 21bd a83e f805 c63d b590 373e 07ea 24be
000003d0: 1501 5fbd 47a9 81bd 1f41 7abe d487 933e
000003e0: 9204 fa3e 5acc 2bbe 8ca0 5dbe 69b4 d33e
000003f0: 6aae ac3d ddb6 fabe 8c51 77be ba23 433e
0.0899814 -0.25698832 0.09967303 0.012944414 -0.058943324 0.067229316 0.04931113 0.07341554
-0.23885956 -0.05027585 -0.28634843 0.29809654 0.06070558 -0.22529072 -0.043875698 0.009497632
-0.22222708 -0.1147572 0.33344835 -0.02916596 -0.07752585 -0.15880045 -0.1836504 0.0054160873
0.018052336 0.007866781 -0.04412707 0.101656884 -0.12875512 -0.26997954 0.016912818 0.27085242
-0.029027877 -0.2139619 -0.20374168 0.15520808 -0.0054154093 -0.12644209 -0.071021885 0.24493153
-0.21780168 -0.064166844 -0.107714824 -0.50901526 -0.22769544 -0.11155787 0.32851827 -0.12824692
-0.26809344 -0.53484696 -0.10253636 -0.09543518 0.053835206 -0.22750601 -0.64829564 -0.16669197
-0.32873446 -0.11137029 -0.21031973 -0.6815593 0.20434153 -0.7531104 -0.09776751 -0.054429688
-0.114620924 0.2571523 -0.070210174 -0.23013052 -0.22976325 -0.5025687 -0.06558298 -0.41732052
-0.24579827 0.35087442 -0.32364222 -0.20737372 -0.008665089 0.18382603 0.065643586 -0.3864487
-0.07554706 -0.26737183 -0.25734088 -0.061805844 0.049745925 0.06660801 0.11448604 -0.048193857
0.020700121 0.19967325 -0.07226979 0.16401006 0.0074244626 -0.14931674 -0.35675204 0.059674006
-0.21698624 -0.11880755 0.11246648 -0.17832033 -0.24577832 -0.0553676 -0.05233745 -0.16935442
-0.39628285 0.02592685 -0.48402664 -0.010368681 0.2640831 -0.13822322 -0.071534865 -0.20907228
-0.2584515 -0.19310112 -0.23957834 0.19480465 -0.07144138 -0.21725988 -0.027567957 -0.16973911
0.3266433 -0.4035508 -0.17621414 0.057952445 -0.4120406 -0.110230625 -0.12999897 -0.10361171
0.1279693 -0.34405965 -0.0033540062 -0.64787966 -0.041271076 0.18663785 -0.06373377 -0.056818042
-0.28828514 -0.16081811 0.06309907 -0.19344258 -0.07481306 -0.13740945 0.2595626 -0.22412077
-0.14497729 0.06194949 -0.08851183 -0.17963867 -0.15578657 -0.46682772 -0.03507905 -0.27036893
-0.009143923 -0.71000177 -0.27731606 -0.04428034 -0.030068094 0.35072058 -0.019745808 -0.17624003
-0.11572925 0.29686922 0.12065892 -0.18492135 0.0038584427 0.10916596 -0.036393907 0.020099716
0.0025420375 0.026342599 0.22160205 -0.2466542 0.32248512 0.20272827 -0.1941517 0.039733134
0.26719865 -0.25068286 -0.045382496 -0.21796018 -0.06712898 -0.21279559 0.013641443 0.14068757
0.014362687 -0.16464902 -0.1253639 0.00687814 0.25511512 -0.34610847 0.090881415 -0.31754228
-0.24052233 0.28549883 0.072838746 -0.41009775 0.00052313786 -0.27760068 -0.030432729 -0.26761475
-0.33028477 -0.20338358 -0.25550008 -0.09207161 -0.38626045 0.017110422 -0.42828432 -0.1187657
-0.32888493 -0.24771653 -0.05325805 0.00034809276 0.082904406 -0.33490887 -0.29453963 0.040084615
-0.45217267 0.12969625 -0.37324575 -0.35131013 -0.0840093 0.016742136 -0.018522028 -0.30685502
-0.2617198 0.15762007 -0.22708634 0.13616699 -0.29237142 -0.54877204 0.20616409 -0.5501232
-0.28915486 0.11091371 -0.19708532 0.4363473 0.0018848093 0.15757701 -0.08559385 0.22398163
0.32956794 0.09669107 0.17926295 -0.161049 -0.05444439 -0.06331115 -0.24438904 0.28814566
0.48831612 -0.16777173 -0.21643275 0.4134858 0.08431704 -0.4896764 -0.24152201 0.19056597

network_body._body_endoder.seq_layers.0.bias f4 [512]
00000000: 1e3f a5bd ca55 8dbe 588c 3abe babd 4bbe
00000010: 9a72 a23c e046 7cbe 1086 303d 8d01 68bd
00000020: 1595 30bd 4ede 97be 9dd5 5f3c 27ea 76be
00000030: f8f5 d7bd 1a3c a0be 1e19 abbd b470 f73c
00000040: b7cc 00be 4de3 033c 91f4 0bbe d9ed 01be
00000050: afe0 26be 0415 55be 7f67 7fbd 258f 74be
00000060: 04ce 85be 205b d5bd 0ea8 05be f338 15bd
00000070: bc13 e1bd ddc7 52be de12 d9bd 98a2 dfbd
00000080: 0035 28be 9a4e a3bd 3f08 e4bd f6f0 09be
00000090: 8f03 75be 7cf0 87bd 7afe 37be fa1b 22be
000000a0: 4bcd fcbd 1fa5 5ebe 4102 a4bd 49a6 5fbe
000000b0: 0002 c5bd 0eb8 3dbe a4ec 9dbe 5809 b9bd
000000c0: f2ab 4cbe 8a75 4fbe 42b7 1bbe 6db5 c7bc
000000d0: baca 0cbe fc1a 88be 9647 6e3d 9a3d ffbd
000000e0: a356 27be 5b0f 1fbe 9aef 21be ef75 78bd
000000f0: 6ed8 17be 4b7e 04be 7548 e5bd 3a5c 7dbd
00000100: 2613 19bd 40c5 763d 357c 303c e582 b83b
00000110: abc1 9fbd f286 1cbe 23d4 48be 6854 7cbe
00000120: ad6f 123d d88d 6abe 6a56 20be 04c7 f3bd
00000130: 8443 74bd 2df1 a2bd f421 1c3d 53b0 2fbe
00000140: 546a 4bbd 61bf e1bd 890b 0ebe a9f3 08be
00000150: cdc3 05be 8a0d 6cbe 47b8 a5be aa32 22be
00000160: 0650 7abe dc44 a43d bdfe 533b e02e 87be
00000170: 28ed c3bd e571 cfbd 9918 78bd 665e f2bd
00000180: 44c8 d9bd 5017 5bbe 945f 95bc 892a 3fbd
00000190: 9734 08be 89e3 8fbe 9aff 9bbe bd0d 7cbd
000001a0: aa4f 94be 78cf d9bd 877f 91be 30a5 b5bd
000001b0: 618b 45bd 029c a8bc 3717 b9be 5ad3 92be
000001c0: 65d6 15be 224a 15be 4193 4cbe 162f 42be
000001d0: 44f5 dbbd e33f 79bc d3e2 c1be 0af6 8fbd
000001e0: 6a39 31be df9c 5fbe e1d0 12bd 0ea1 003d
000001f0: 55c5 50be 546c cabd 67b9 a8bd 1e21 35be
00000200: f97a 07be bff8 52bd df3a a7be 1285 f6bd
00000210: f1d9 6cbd cc7c 57bd ae56 81be 3315 b5bd
00000220: 3660 dcbd e747 59be f4d6 10be dbaf 35be
00000230: eae1 8cbe 1d3c 7fbd 43d7 a8bc 488d 73bc
00000240: a1cd 09be 0b5b 16be 5ba2 aabd 444f cebd
00000250: 7ae3 84be 517f e2bd 3f7e 77bd abd3 a1be
00000260: da7d b5bd 66fe 8b3c 54eb 76be 12f5 73bd
00000270: 0d87 4cbc 110c 27bd eb1c 86bc f591 dcbd
00000280: 18c2 83be 05eb 42be b32f b1bd dcc1 4fbe
00000290: b7d0 0cbe 3185 95bd 4655 05be 7b96 3cbe
000002a0: 1ca7 e3bc 4367 39bb 4a53 a8be 6977 a3bd
000002b0: b918 0bbe 002f 13be 2e03 60bd d48a 2bbe
000002c0: 4f18 57be bf6d f0bd 9bc0 9dbd 954b a3be
000002d0: 3e15 3d3d 2f76 8fbe 8830 93be b975 83be
000002e0: ad7e 21be cc5b dfbd a596 cbbd 5b7d 90be
000002f0: d97f 1ebe b002 a7be 1536 67be daeb 7a3c
00000300: 44f4 d5bd 5d82 81bd 5655 e8bd 83ac 0cbe
00000310: c06f a6be 3b37 55be 569b 933a df92 9fbd
00000320: d4b0 2c3d 24bb e2bc a1d7 b3be 4ffb 9bbe
00000330: 45bf f1bc 7f7a 763d 59a3 9dbd 3531 a8be
00000340: 485c 6bbe b46e 63bd e982 70bd 9a48 61be
00000350: 0b6a 3ebd 86a9 05be 986a babd 220a eabc
00000360: dcc5 76be b15d a0bd d98f bebc 415d 4dbe
00000370: 96ff 62be 3b01 edbd 8f9f 3dbe 280d 9bbe
00000380: 04d6 67be aa43 373b decb 2dbe 1d8d 24be
00000390: 102b 87be 4c59 d0bc f49d c4bc 9dcb c3bd
000003a0: a701 eebd 7bb7 14be 9854 2bbe 9d33 d2bd
000003b0: f529 08be 94d5 13be 4a6c 8abe a328 d9bd
000003c0: a2cb 22be 7e15 9cbe fe41 93be 157a 1ebe
000003d0: e5d3 8fbe e39b ddbd de32 b7bd eb34 67be
000003e0: 99de a6bd 04e6 f5bc 6ca3 ecbd 0d28 c7bd
000003f0: eb8c 88bd 4f6a 19be 25dc 60be 8176 3ebe
-0.08068679 -0.27604514 -0.182176 -0.19896594 0.019830037 -0.24636412 0.043096602 -0.056642104
-0.043110926 -0.29661793 0.013661769 -0.2411276 -0.10544962 -0.31295854 -0.083544 0.030205108
-0.12578093 0.008049798 -0.13667513 -0.12688388 -0.16296647 -0.20808798 -0.06235456 -0.2388273
-0.2613374 -0.10417771 -0.13052389 -0.036431264 -0.10990092 -0.20584054 -0.10599302 -0.10919684
-0.16426468 -0.079739764 -0.11134385 -0.13470826 -0.23927139 -0.06637666 -0.17968169 -0.15830985
-0.12343844 -0.21742676 -0.080082424 -0.21840777 -0.09619522 -0.18527243 -0.30844605 -0.09034985
-0.19987467 -0.20259681 -0.15206626 -0.024378503 -0.13749209 -0.26583087 0.05817374 -0.124629214
-0.16341643 -0.15533201 -0.15814057 -0.060659345 -0.14828655 -0.12938802 -0.11195461 -0.061855532
-0.037371777 0.060246706 0.010771801 0.005630838 -0.07800611 -0.15285853 -0.19612174 -0.24641573
0.035751034 -0.22905672 -0.15657964 -0.119031936 -0.0596347 -0.07956157 0.038118318 -0.17157106
-0.04966195 -0.11022831 -0.13871588 -0.13374199 -0.13062973 -0.2305204 -0.32367155 -0.1583964
-0.24444589 0.080209464 0.003234788 -0.2640295 -0.09566718 -0.101291455 -0.060570333 -0.11834411
-0.10633901 -0.21395612 -0.018234052 -0.046671424 -0.13301311 -0.28103283 -0.30468446 -0.06153654
-0.2896703 -0.10635275 -0.28417608 -0.08869398 -0.048228625 -0.020582203 -0.36150524 -0.28676873
-0.14632566 -0.1457906 -0.19978048 -0.18963274 -0.1074014 -0.015212986 -0.37868366 -0.0702935
-0.17307058 -0.21837185 -0.035843734 0.031403594 -0.20387776 -0.09883943 -0.08238488 -0.17688414
-0.13230504 -0.051506754 -0.32662103 -0.120371 -0.057825033 -0.05260925 -0.25261444 -0.08841934
-0.10760538 -0.21218835 -0.14144498 -0.17742865 -0.2751611 -0.062313188 -0.020610457 -0.014865227
-0.13457347 -0.14683168 -0.08331748 -0.100737125 -0.259548 -0.1105944 -0.060423132 -0.31606802
-0.08861895 0.01708908 -0.24113208 -0.05955989 -0.0124833705 -0.04078299 -0.016371211 -0.107700266
-0.2573402 -0.19034965 -0.08651676 -0.20288795 -0.13751493 -0.07300795 -0.1302081 -0.18416779
-0.027789645 -0.0028290309 -0.32876045 -0.0798176 -0.1358365 -0.14373398 -0.054690532 -0.16752177
-0.21005367 -0.117396824 -0.07702752 -0.31893602 0.046162836 -0.28019854 -0.28747964 -0.25675753
-0.15770979 -0.10906181 -0.099408425 -0.2822064 -0.15478458 -0.32619238 -0.22579224 0.01531502
-0.104469806 -0.06323693 -0.113444015 -0.13737683 -0.32507133 -0.2082185 0.0011261504 -0.07791685
0.042160824 -0.027677126 -0.3512545 -0.3046517 -0.02951015 0.060175415 -0.07697172 -0.32850042
-0.22984421 -0.055525497 -0.058718596 -0.22000352 -0.04648785 -0.1305295 -0.091023624 -0.028569285
-0.24098915 -0.0783037 -0.023261951 -0.20055105 -0.22167811 -0.115725 -0.18517898 -0.30283475
-0.22640234 0.0027963915 -0.169723 -0.16069455 -0.26400042 -0.025433205 -0.0240011 -0.095603205
-0.11621409 -0.14523117 -0.16731489 -0.10263751 -0.13297255 -0.14436942 -0.27035743 -0.10603454
-0.15897992 -0.30485147 -0.28761286 -0.15476258 -0.2809135 -0.10820749 -0.08945249 -0.2257878
-0.08147926 -0.030016907 -0.11554608 -0.09724436 -0.06667503 -0.1498196 -0.21958978 -0.18599893

action_model._discrete_distribution.branches.0.weight f4 [4, 512]
00000000: c4dd 8dbc d7f9 1dbd a6c3 1c3b baf3 55bc
00000010: 2ef1 b43d ac3d 9d3b 3d85 d2bc 0695 0ebb
00000020: 69b2 033d 0110 3dbc be78 0c3e a69b c03c
00000030: 072f aebd 508d dcbc d4ee f03c 439a bf3d
00000040: 3c4f a2bd b259 843d f292 c2bc 49e7 243d
00000050: fd1e ef3b d3a8 eb3d c2a6 3cbd 0ef2 9ebc
00000060: 2325 c13c bf48 2cbc 8b7b 97bc 12a6 1dbd
00000070: 1632 d33c 74d4 f5bc 728c 463c eb66 4ebb
00000080: a0f6 f23c c561 76bc 2b54 97bd 68fd dd3c
00000090: 6ed5 6dbb 1a2d cd3c 9ecb b73c b724 803d
000000a0: d436 d3bc 7995 e0bb d87a 55bd c86d cebd
000000b0: 804f 443d 73dc 77bc 57d4 ea39 29aa 793d
000000c0: 4161 bebd 1279 03be 1a24 8a3d b3d7 623c
000000d0: 7c27 88bc d37e bbbb fc1e 48bd 7c48 74bd
000000e0: 1c8a 723c 1c3c 433d 2f05 90bc 30e9 843b
000000f0: 9a23 75bc 8996 263d 949d 993c f902 fc3c
00000100: 12c1 003d 3f05 443c 55bb 2c3c ab98 a03d
00000110: 608b b43d c792 243d 34f8 903c b398 8cbc
00000120: b6ba f1bb ee04 24bd a7c9 823d 0bd4 963c
00000130: dcbc 66bc 49cc ad3d de96 413d 0787 383d
00000140: 48b4 9dbc b620 a1bc c249 663d 7f2a 73bb
00000150: 8b93 e73b 432b b13b a588 503c 4735 09bc
00000160: 5c6f eb3c 0098 643d ccc2 8a3d b0ae 283d
00000170: 11fb 543c c3ef 083d 85bf 83bd 8341 5fbd
00000180: dfa4 8dbc 59c2 9d3a 44ba 363d 2da1 023c
00000190: 3753 74bc 5b9d c1bd 0f23 29bd 0661 cdbd
000001a0: e2d7 df3c 3fe2 da3a df7c a23c 0eee 213c
000001b0: e745 c83b 2d25 343d 4696 f83c f03b 5dbd
000001c0: 2479 71bd 0901 753d 7e8f 86bd ed60 31bc
000001d0: b558 8c3b bde3 b1bc 988e c0b9 5b2d 0d3c
000001e0: 659a 4bbd a24a 46bc cc62 51bc 0877 a53c
000001f0: 3346 47bc 34f3 43bd 33da 863c 36de b23d
00000200: 593d 423d 2e98 17bd 0cf5 313b 8501 c2bc
00000210: 72d6 283d f399 e1ba 7482 00bd 592a 843b
00000220: 3a4c 53bd 6a4c 833c f2b6 4fbd 1cb0 7cbd
00000230: e274 073c 18b1 083d 426d 39bb ba5b 033d
00000240: 3c8a ba3d 5fd7 283d 754b 93bc de73 02ba
00000250: 4286 fabc 289d 173a be74 b83c 3802 673c
00000260: d73f 1d3c f5d4 a93c 9bba bdbb bb40 32bd
00000270: 65ff debc b1a5 523d 7992 b13d 5553 063d
00000280: ff72 a0bd 89e3 a23d 01b5 3d3c be60 4bbd
00000290: 9870 0abd d228 28ba 01c2 68bc 3306 c2bc
000002a0: ea19 3ebd dfee bebd 5332 b1bd 2394 cebd
000002b0: 3e0c 6ebd c01d 84bc 16aa db3c eec7 f6bb
000002c0: 5e0f 98bd 95b1 0a3a 0834 0c3d cf41 c7bc
000002d0: 65db 04bc 9d5d 58bb 0961 ad3b 9773 8b3b
000002e0: 9dc7 7ebc 6b5e 8a3d 382d ae3c b14e 43bd
000002f0: 92bc 3e3d e40f b5bd dab3 acbc 8de7 4b3b
00000300: b4d7 763c 643b 693c d6ea 473c 6bd2 09bd
00000310: 04fd ffba 0480 8f3c 6164 3b3d 483c d6b8
00000320: 1cf7 4dbc 1ff8 7b3d 13ca 9bbd f260 823c
00000330: c3bd 363c 964d 48bd 226a 313c 14e6 d6bc
00000340: 8fd1 fa3c 568d 753d 9d6f 46bd b345 9e3c
00000350: faec c63c a6a6 4d3d 75b3 d9bc c2e7 b4bc
00000360: 06d8 cc3b 0286 fbbd b672 87bc 1f1f e2bc
00000370: db4d 4dbc 2b25 57bc 0deb d73c 2325 23bd
00000380: 3127 62bc 6c91 ea3d 8ad3 a9bd 3e9b a73c
00000390: df2d 1c3c 630a 8a3d 1c0f 723d fbe3 273e
000003a0: 696a b23c d5b7 cb3c 6c24 85bd 6669 7e3d
000003b0: df24 6f3d 5207 653c 0d26 bfbc 0f83 d03c
000003c0: 693a c3bc c7e5 b03d 840f 15bd 3dd2 4abb
000003d0: f91f e5bc 542f cf3d b348 443d 3715 b4bc
000003e0: c57e 04bc f920 213d defa efbc d62c 2d3c
000003f0: dfd9 f93d c085 2e3d ea8a 06bd 7fee b5bc
-0.01731766 -0.038568344 0.0023920326 -0.013058597 0.08835064 0.0047986116 -0.025698299 -0.0021756305
0.032152567 -0.01153946 0.13717934 0.023511719 -0.085050635 -0.026922852 0.029410757 0.09355595
-0.07925269 0.064624205 -0.02375171 0.040259633 0.0072973953 0.1150681 -0.04605747 -0.01940253
0.023577278 -0.010515391 -0.018491527 -0.038488455 0.025780719 -0.030008532 0.012118446 -0.003149445
0.029658616 -0.0150379585 -0.07389101 0.027098373 -0.0036290544 0.02504592 0.02243596 0.06257003
-0.02578298 -0.006853756 -0.052119106 -0.10079533 0.04792738 -0.015128243 0.00044790164 0.060953293
-0.092958935 -0.12839153 0.06745167 0.013845372 -0.01662039 -0.0057219057 -0.048857674 -0.05963944
0.014803436 0.047664747 -0.017580597 0.0040561184 -0.014962101 0.040670905 0.018751897 0.030763136
0.031434126 0.011964141 0.01054271 0.07841619 0.08815646 0.04017904 0.017696477 -0.017162656
-0.007376994 -0.040043764 0.063861184 0.018411657 -0.0140831135 0.0848623 0.04726302 0.045050647
-0.019251004 -0.019668918 0.056222685 -0.0037104187 0.007067149 0.0054067685 0.012727891 -0.008374519
0.028739624 0.05580902 0.06775436 0.04118222 0.012999312 0.03343178 -0.06433014 -0.054505836
-0.01729053 0.001203607 0.04461123 0.007972998 -0.014912418 -0.09453841 -0.0412932 -0.100282714
0.02732462 0.0016699507 0.019834934 0.009883417 0.0061118486 0.043980766 0.030345093 -0.05401224
-0.05895342 0.05981544 -0.06570338 -0.010826332 0.0042830356 -0.02171504 -0.00036727334 0.008616771
-0.04970779 -0.012102755 -0.012779903 0.02019836 -0.012162733 -0.04783936 0.016461467 0.087337896
0.047421787 -0.037010364 0.0027154116 -0.023682365 0.041220136 -0.0017212018 -0.03137441 0.0040333685
-0.051586367 0.016027648 -0.05071158 -0.06169139 0.008267613 0.033372015 -0.0028293882 0.0320699
0.09108397 0.04122102 -0.017980317 -0.0004976372 -0.030581597 0.0005783611 0.022516605 0.01409965
0.00959774 0.020731429 -0.0057900674 -0.043518763 -0.027221391 0.051427547 0.086705156 0.032794315
-0.07834434 0.07953555 0.011578799 -0.049652807 -0.033798784 -0.0006414774 -0.01420641 -0.023684597
-0.046411432 -0.09322905 -0.08652177 -0.100868486 -0.058117144 -0.016127467 0.026814502 -0.0075311577
-0.07424806 0.0005290744 0.03422931 -0.024323372 -0.008108948 -0.0033014782 0.0052911085 0.0042557227
-0.015550521 0.0675629 0.021261796 -0.047682468 0.046566553 -0.088409215 -0.021081854 0.0031113357
0.015066076 0.014235351 0.012201985 -0.033647936 -0.0019530361 0.017517097 0.045750026 -0.000102155434
-0.0125711225 0.061515924 -0.07606902 0.015915368 0.011153641 -0.048902117 0.010828527 -0.026232757
0.030617503 0.05994924 -0.048446286 0.019320345 0.024282921 0.050207756 -0.02657483 -0.022083167
0.006251338 -0.12281419 -0.01653419 -0.02760273 -0.012530769 -0.01313142 0.026357198 -0.03983034
-0.013803289 0.11453518 -0.08292301 0.020459767 0.009532421 0.06740262 0.05909644 0.16395561
0.021779256 0.024867931 -0.065010875 0.062112235 0.058384772 0.013978796 -0.023333574 0.025453119
-0.023831563 0.086375766 -0.03639175 -0.0030948066 -0.027969347 0.10116449 0.047920894 -0.021982772
-0.008086865 0.039338086 -0.029294427 0.010569772 0.12199759 0.042608023 -0.032847323 -0.02220845

action_model._discrete_distribution.branches.0.bias f4 [4]
00000000: 90ef d53c e50c 94b9 4033 bbbd addf af3d
0.026115209 -0.00028238367 -0.091406345 0.08587585

action_model._discrete_distribution.branches.1.weight f4 [5, 512]
00000000: f57b 99bd a966 8a3b 2bac 81bd 1c5f 9e3d
00000010: a535 64bc 8ed6 18bd 6734 5e3d 81c9 263d
00000020: 8415 6b3c 4ae1 973b 1128 3d3d 157b e7bd
00000030: c23d 56bd 3f62 b63b 8065 9bbd 9249 bf3d
00000040: 28ad 8a3d fafa 0f3e 8bcb c139 7fa9 2ebd
00000050: 109d ad3c 255d 92bc aceb 67bc 8266 dbbc
00000060: 3ff0 8f3a c784 813d 785f 863a 7ce1 16bc
00000070: fe2f afbc 0459 6bbc fe0e 853c 37d8 653c
00000080: aac8 b53c 185f a63c a532 eb3c 27a4 19bd
00000090: 4a57 51ba 3bb9 08bd 3e98 9f3c d9b9 553d
000000a0: 0b8e 22bc 694c 153a 13c6 ce3b 6ff8 1b3c
000000b0: 0d11 943c 34bf 1fbd b7aa eabc ff2e 493d
000000c0: dc9b bb3d 6264 9f3d 16e4 8bbd f5a8 3c3d
000000d0: 76fc 43bd 621f 613c 7c04 833d 2cec 1dbd
000000e0: 7e02 843c 9fed 19bc a48f d6bc 7956 00bd
000000f0: a39b 25bd 8c73 c43c f7aa 00bd 6baa 6fbc
00000100: 774c 3abd 541b f13c 6b2f 843d 874f debd
00000110: a7bd 6f3b 207a ca3c 235a d7bd 2729 f23c
00000120: 0235 063e 5e6e c8bb b49e 10bd ad91 3fbd
00000130: df44 733d 8126 7dbc f688 a93d 0b22 41bc
00000140: 3007 853d 6ef9 b23c e3bd 853b da06 de3c
00000150: 9254 9e3d ec8a f1bc 20c3 4cbd 14b8 cb3c
00000160: 063e da3c e29a 923d 3543 dd3c d80c ad3d
00000170: 4d5a 81bd 9935 363c cb30 8cbd 50ed 83bd
00000180: a070 ca3c 6baf d1bd e4eb 083e 5151 473a
00000190: 8ee9 9cbd b756 b7bd 8d1a 59bd 4939 b13c
000001a0: 4832 9abd 3131 04bd 0bf7 043c 4ffa afbc
000001b0: 91a1 833d 8d0a 9c3d 2792 613d 9e15 33bc
000001c0: d648 7b3c cc4f 4cbd 9a87 8abd 210d 3a3d
000001d0: 7fc7 c3bd 4ea5 db3c 555a 323b dc16 1abd
000001e0: ad3e 8bbd 53be b6bd 3b9e 133d 1e12 a73d
000001f0: 594a 93bc b715 89bd 4acc 663d 0c28 263d
00000200: 57ce 95bd d10a 50bd 26c2 a2bc 6ffa 86bd
00000210: f472 e93b 4946 993d 89eb 57bb 975a 113d
00000220: dca0 ff3c 6e49 b6bb a70b 72bc 442d 2e3d
00000230: e1a7 68bd 2f8a 01bd c3ab 89bb 24d9 b33c
00000240: 625f 99bc df1d 813c 032b 8cba 0f1c af3c
00000250: 6db5 f0bb 0623 85bd a085 0ebd c023 0f3d
00000260: 8dac 933d 9c2d a4bd a544 ec3c 3ba7 f5bc
00000270: b394 a43c b432 573d 312c a73d 4e22 f53c
00000280: 7e6d 5f3d c430 0b3d 9434 8bbc 23e5 9a3d
00000290: 82ab 70bd 6a41 4e3d 3bd1 0fbc 831b 443d
000002a0: 8b38 ef3c 443c 84bd 4e53 913c 7751 2bbc
000002b0: a5ad 5bbd 51eb 79bd 3357 9e3c 5916 1bbd
000002c0: 9a8b 363d e8c0 39bc 4719 60bd a52a afbd
000002d0: 4261 71bd a739 653d d8f7 00bc b150 3e3c
000002e0: 568f 2ebd a92f f7ba 6bf1 0ebd 4865 e8bc
000002f0: 075c 333d d6fe 2cbd 566e 62bc 3fab 443d
00000300: f5c1 84bd e7fe 243d 10e7 143c c0e6 6dbd
00000310: 1c4b 96bd 1ae8 5f3d 187d 61bc beb8 82bd
00000320: 4f45 d4bc 6ccf 353c cf4a 26bd b1db 0e3d
00000330: 257a 273d 39c2 efbc 5976 18bb e7af 03bd
00000340: ba05 623d 80bc b13d a4ba f3bb ad15 d3bc
00000350: 099b 9ebd ecb0 f9bc bdbd aa3c 717e 5d3d
00000360: 850c 1c3d 9c1c df3b 6e41 45bd 40af 303d
00000370: c8c5 e83d 5aee bd3c 7f53 89bb f82e bc3d
00000380: 4df9 8e3d 15d9 ad3c 4160 b6bc 8905 a53c
00000390: 698a c9bd d342 313d 3dc3 103d 300b dfb6
000003a0: 816d 3dbd 8041 d5bc bef6 3abd dd20 113d
000003b0: 2ac4 563c 415e 803d 9a07 0abd 9b6d dc3d
000003c0: bbc5 fabc 76e6 0c3e d3a1 a2bc 743d 56bd
000003d0: 1f12 2dbc 5ab7 5b3c 5688 a43d 8b72 05bd
000003e0: b2d6 133c ff2e 6e3d 125a 7bbd c5f1 ac3c
000003f0: ffa6 063d 0a59 813d 7c81 533c 8bce 2c3d
-0.07494346 0.004223664 -0.063316666 0.077329844 -0.0139288055 -0.03731399 0.054249194 0.040719513
0.014348391 0.004635011 0.04618079 -0.11302773 -0.05230499 0.005565911 -0.07587719 0.09340204
0.06771308 0.14060584 0.0003696348 -0.042642113 0.021193057 -0.01786668 -0.01415531 -0.026782278
0.0010981633 0.063241534 0.001025184 -0.009209033 -0.02138519 -0.014364485 0.0162425 0.0140286
0.02219041 0.020309016 0.028710673 -0.037510063 -0.00079857244 -0.033379775 0.019481774 0.05217919
-0.009921561 0.0005695285 0.0063102334 0.00951968 0.018074537 -0.039000705 -0.028645856 0.049117085
0.09160587 0.077828184 -0.06830613 0.046059567 -0.047848187 0.013740392 0.0639734 -0.03855531
0.01611447 -0.009395032 -0.02619154 -0.031332467 -0.04043163 0.023980878 -0.031413045 -0.014628033
-0.04548308 0.029431976 0.06454357 -0.108550124 0.0036581547 0.024716437 -0.10515239 0.029560639
0.13106158 -0.0061166724 -0.0353076 -0.046769787 0.059391852 -0.015451075 0.08278076 -0.011787902
0.064955115 0.021847453 0.004081474 0.027102876 0.07730974 -0.029485188 -0.049990773 0.024868049
0.026640903 0.07158448 0.027009586 0.084497154 -0.06316052 0.011121177 -0.06845244 -0.06441748
0.024711907 -0.102385364 0.13371235 0.00076033646 -0.076617345 -0.089520864 -0.053003836 0.021633761
-0.07529122 -0.032273475 0.00811554 -0.021481661 0.06427301 0.076192 0.055071022 -0.010930447
0.01533719 -0.049880788 -0.06764145 0.045422677 -0.09559535 0.026812222 0.0027214487 -0.037619457
-0.06799064 -0.0892302 0.036039572 0.081577525 -0.017979788 -0.06693595 0.05634717 0.040565535
-0.07314747 -0.050791565 -0.019867968 -0.06590735 0.007124299 0.07484109 -0.0032946786 0.035486784
0.031204633 -0.0055629527 -0.014773286 0.042523637 -0.056800727 -0.031625923 -0.004201384 0.021954127
-0.01872224 0.015761314 -0.0010693971 0.021375684 -0.0073458464 -0.06500821 -0.034795403 0.034946203
0.07210646 -0.08016512 0.028841326 -0.029986968 0.020090437 0.05253859 0.08162726 0.029923584
0.05454778 0.033982053 -0.016992845 0.075632356 -0.058757313 0.050355352 -0.008777912 0.0478778
0.029201766 -0.06456807 0.017739918 -0.010456434 -0.053632397 -0.06101543 0.01932869 -0.03786311
0.04456673 -0.011337496 -0.054711606 -0.08553056 -0.058930643 0.055963185 -0.007871591 0.011615918
-0.042617165 -0.0018858808 -0.034898203 -0.028368607 0.043788936 -0.042235218 -0.013820251 0.048014876
-0.06482307 0.040282156 0.009088293 -0.05808139 -0.07338545 0.05466471 -0.013762735 -0.06382893
-0.025911955 0.0110968165 -0.040598687 0.034877483 0.04088797 -0.029267417 -0.00232639 -0.032150175
0.055181243 0.08678532 -0.007438021 -0.025767172 -0.07744414 -0.03047987 0.020842427 0.054075662
0.038097877 0.0068088304 -0.0481581 0.04313588 0.11365849 0.023184944 -0.0041908617 0.09188646
0.06981144 0.021221677 -0.022262694 0.02014424 -0.09840853 0.04327662 0.035342444 -6.6472203e-06
-0.04624701 -0.02603221 -0.045645468 0.03543173 0.013108293 0.062679775 -0.033698656 0.10763093
-0.030611863 0.13759789 -0.019852554 -0.0523047 -0.010563402 0.013410414 0.080338165 -0.03257994
0.009023355 0.058150288 -0.061365195 0.021111378 0.032874104 0.06315811 0.012909289 0.042189162

action_model._discrete_distribution.branches.1.bias f4 [5]
00000000: 6498 b93c 95d0 443c b20c 273d e31b b23b
00000010: 4d49 90bb
0.022655673 0.01201262 0.04078359 0.0054354533 -0.0044032694

exp_avg f4 [512, 40]
00000000: 0000 0000 3c1f 3338 ecb4 45b6 dcb4 c0b8
00000010: 0d35 88b8 0000 0000 304a 6238 25f6 aab7
00000020: 73ba b3b8 064e 5bb8 0000 0000 52e1 0438
00000030: c0e0 4835 5255 b1b8 9eab 90b8 0000 0000
00000040: 2825 12b4 0a38 78b6 2690 4ab8 da58 55b8
00000050: 0000 0000 e6cd 28b7 efa9 a636 8f47 45b8
00000060: e5d3 8bb8 0000 0000 ca6a 07b5 7cad cdb6
00000070: 6fd2 3eb8 78fc 4eb8 0000 0000 ae64 3bb8
00000080: 28d7 10b7 e095 9e35 6564 82b7 f318 f038
00000090: f688 adb9 8f1d 84b8 658c 6f3a 7295 5738
000000a0: 0000 0000 75b5 ea36 73ad b8b4 bf04 9eb7
000000b0: aa57 66b7 0000 0000 9584 1cb6 c03b 8635
000000c0: 811a 36b7 c657 5db7 0000 0000 075c 7d37
000000d0: e2ba 3b35 f0c5 eab7 a203 6db7 0000 0000
000000e0: 129d aab7 4140 a235 e0fb e836 b65a 1bb7
000000f0: 0000 0000 d001 31b4 8a81 6ab6 bd0f 0fb7
00000100: d663 45b7 0000 0000 7ce9 81b7 21ad c935
00000110: 6649 f135 e2b2 b1b6 0000 0000 7480 b7b4
00000120: 92d4 4f36 4aad 7ab7 6a4a 03b7 e6e0 23b7
00000130: 6829 4d39 bf00 63b7 ba55 5fba 71c5 29b7
00000140: 0000 0000 01b8 1938 4c43 bbb6 602b edb6
00000150: 3ad2 5737 0000 0000 6c3f 1338 f486 1333
00000160: 7ee8 3ab7 9709 c637 0000 0000 6655 f337
00000170: a526 8d35 df4d cbb6 75e8 2037 0000 0000
00000180: 0d2a 8bb5 26a2 e535 daac c337 dd42 ce37
00000190: 0000 0000 7a09 8037 a624 fb36 631b a835
000001a0: dd60 2a37 0000 0000 8e3a a3b6 0a74 3036
000001b0: 7d14 dc37 3628 d437 0000 0000 cb23 b037
000001c0: 425e b136 0238 19b6 c0a4 1537 ea1c 6937
000001d0: 80a7 3eb7 903d 7436 8d10 e8b9 ec02 cfb7
000001e0: 0000 0000 c8ca fdb6 7252 96b5 4c17 7fb6
000001f0: 31b3 14b7 0000 0000 a21b af36 ce81 2bb7
00000200: 0403 fbb6 50b6 46b7 0000 0000 e722 49b7
00000210: 020e 0834 002d 27b5 58d2 c9b6 0000 0000
00000220: 269b 5036 914a 01b7 bf51 04b7 f2c3 50b7
00000230: 0000 0000 04f6 d3b7 bd2b 0eb6 8001 7a37
00000240: 008b c1b5 0000 0000 e190 ce36 f649 0cb7
00000250: fb73 2cb7 d790 4ab7 0000 0000 cce8 9fb6
00000260: f8e7 1db7 fa36 e335 3016 82b6 e012 8a34
00000270: f068 84b6 d4d1 7337 435f acb8 6095 fe36
00000280: 0000 0000 cb00 07b8 1e3e 0fb7 d97d 1239
00000290: 0d5b d138 0000 0000 46b5 b7b7 bc4a f336
000002a0: 2a4c ee38 39d1 de38 0000 0000 c0e1 edb5
000002b0: c527 e835 6faa cf38 e81b d438 0000 0000
000002c0: 7a83 b1b6 af59 29b7 f4d6 ef38 25c9 f038
000002d0: 0000 0000 a471 a4b8 cdd5 04b8 0c38 5b39
000002e0: 053a cf38 0000 0000 8ced b1b6 b2f9 abb7
000002f0: 66d8 0239 e27e f438 0000 0000 412d f838
00000300: 1ce8 a5b6 d0d9 71b7 8078 fc37 3063 18b9
00000310: 8e48 283a de5a cb38 89fa 0dbb 9a03 e0b8
00000320: 0000 0000 8156 19b7 c439 8cb5 8943 1a37
00000330: 7a34 2436 0000 0000 0aa1 f5b6 54a8 e736
00000340: 6edd 19b5 3859 7835 0000 0000 9d77 dbb6
00000350: fc2e 11b5 1d69 cc36 77a7 f735 0000 0000
00000360: 6fcf d9b6 cd11 dd35 a256 8136 9432 9234
00000370: 0000 0000 843e 6836 c9f8 9db6 bc52 8a34
00000380: c8df ca35 0000 0000 a0f3 44b6 de90 3c35
00000390: 6ecd a635 c6bb a1b4 0000 0000 5a4a 3236
000003a0: 2432 c335 1626 abb6 6c50 98b6 4362 3cb7
000003b0: 14af 1437 0214 d9b6 4272 c238 646a 7337
000003c0: 0000 0000 3b8c 3ab9 ab8c 90b7 3674 5c39
000003d0: ae47 5238 0000 0000 3429 69b8 0dc0 1338
000003e0: b4c2 1438 66c8 c637 0000 0000 aa77 a8b8
000003f0: d5b3 3737 ed2d b138 ba19 7d38 0000 0000
0.0 4.2706015e-05 -2.9460598e-06 -9.188961e-05 -6.494867e-05 0.0 5.395169e-05 -2.03802e-05
-8.570114e-05 -5.2286334e-05 0.0 3.16811e-05 7.483286e-07 -8.45591e-05 -6.898421e-05 0.0
-1.3610827e-07 -3.6987499e-06 -4.82948e-05 -5.0865907e-05 0.0 -1.006152e-05 4.9669684e-06 -4.7035104e-05
-6.667505e-05 0.0 -5.044682e-07 -6.1296723e-06 -4.549551e-05 -4.9349357e-05 0.0 -4.467804e-05
-8.633164e-06 1.1815537e-06 -1.5543957e-05 0.00011448739 -0.00033099175 -6.299756e-05 0.0009138047 5.1399176e-05
0.0 6.994868e-06 -3.4398872e-07 -1.8837278e-05 -1.3729479e-05 0.0 -2.3322984e-06 1.0001168e-06
-1.0854216e-05 -1.3193063e-05 0.0 1.5101402e-05 6.993488e-07 -2.7987146e-05 -1.4127147e-05 0.0
-2.033872e-05 1.2088641e-06 6.943461e-06 -9.25984e-06 0.0 -1.6485069e-07 -3.4944119e-06 -8.527129e-06
-1.176536e-05 0.0 -1.5486723e-05 1.5026054e-06 1.7977261e-06 -5.2958358e-06 0.0 -3.4179868e-07
3.0969136e-06 -1.4941508e-05 -7.825534e-06 -9.76792e-06 0.00019565749 -1.3530428e-05 -0.0008519549 -1.0119155e-05
0.0 3.664941e-05 -5.5808687e-06 -7.0682e-06 1.2863946e-05 0.0 3.5106597e-05 3.4348844e-08
-1.1140595e-05 2.3607905e-05 0.0 2.9007624e-05 1.0516566e-06 -6.058937e-06 9.590866e-06 0.0
-1.0368545e-06 1.7109021e-06 2.3326302e-05 2.458825e-05 0.0 1.5263202e-05 7.4846494e-06 1.2524946e-06
1.0155342e-05 0.0 -4.864595e-06 2.6293587e-06 2.6235584e-05 2.5291094e-05 0.0 2.0997502e-05
5.285984e-06 -2.2831377e-06 8.919451e-06 1.3894614e-05 -1.1363882e-05 3.6394667e-06 -0.0004426282 -2.4677684e-05
0.0 -7.5635944e-06 -1.1199866e-06 -3.8011522e-06 -8.863209e-06 0.0 5.2186233e-06 -1.0222617e-05
-7.480734e-06 -1.1844168e-05 0.0 -1.198866e-05 1.2671083e-07 -6.227783e-07 -6.014754e-06 0.0
3.1084724e-06 -7.7063605e-06 -7.886846e-06 -1.2443388e-05 0.0 -2.526772e-05 -2.1185108e-06 1.490151e-05
-1.4420075e-06 0.0 6.1561445e-06 -8.361871e-06 -1.0279003e-05 -1.2073861e-05 0.0 -4.7656704e-06
-9.411939e-06 1.6928818e-06 -3.876885e-06 2.5718236e-07 -3.946123e-06 1.4532783e-05 -8.219343e-05 7.5871794e-06
0.0 -3.2187247e-05 -8.537927e-06 0.00013970527 9.982856e-05 0.0 -2.1899712e-05 7.2506646e-06
0.00011362911 0.00010624756 0.0 -1.7723578e-06 1.7296921e-06 9.902275e-05 0.00010114146 0.0
-5.290317e-06 -1.0094066e-05 0.00011436446 0.00011481558 0.0 -7.8412966e-05 -3.167037e-05 0.00020906347
9.881336e-05 0.0 -5.302665e-06 -2.0501062e-05 0.00012478381 0.000116584604 0.0 0.00011833991
-4.9444043e-06 -1.4415433e-05 3.0096853e-05 -0.000145328 0.0006419503 9.69672e-05 -0.0021664223 -0.00010681823
0.0 -9.139651e-06 -1.0447625e-06 9.19484e-06 2.446845e-06 0.0 -7.3203164e-06 6.9039324e-06
-5.7319164e-07 9.251703e-07 0.0 -6.5406334e-06 -5.408508e-07 6.0919106e-06 1.8451673e-06 0.0
-6.4912524e-06 1.6470964e-06 3.854585e-06 2.723142e-07 0.0 3.4607083e-06 -4.707927e-06 2.57647e-07
1.5115302e-06 0.0 -2.9348084e-06 7.0246267e-07 1.2427752e-06 -3.012521e-07 0.0 2.6567345e-06
1.4543225e-06 -5.100631e-06 -4.5393153e-06 -1.1228552e-05 8.862251e-06 -6.469433e-06 9.271923e-05 1.45087e-05
0.0 -0.00017790582 -1.7231641e-05 0.00021024127 5.013466e-05 0.0 -5.5589902e-05 3.5226392e-05
3.546728e-05 2.3696757e-05 0.0 -8.0331534e-05 1.094952e-05 8.448572e-05 6.034386e-05 0.0

exp_avg_sq f4 [512, 40]
00000000: 0000 0000 7ac9 7032 df5c ba31 1baf 1a32
00000010: b3ec 8a32 0000 0000 b5c0 5132 14ce 6631
00000020: 144c 6432 ca95 b932 0000 0000 d428 9032
00000030: d5e6 a331 8603 e431 f5ae 6732 0000 0000
00000040: d00b 5031 7dd7 1d31 823e c832 aec6 db32
00000050: 0000 0000 3ad9 ae32 59db ae31 dcbc 7d31
00000060: 67e6 5232 0000 0000 a960 4d31 8042 5531
00000070: 7347 c032 bbca d932 0000 0000 bfd3 b432
00000080: 01d2 ac31 d3a3 3d31 67cc 4132 ac91 7032
00000090: efa8 7534 fdf2 7b32 0560 7f36 a129 e032
000000a0: 0000 0000 e45e 7531 88ab fc2f 1e28 4732
000000b0: e7b4 6b32 0000 0000 867c ea31 a9bf 6230
000000c0: d724 0a32 1d58 4c32 0000 0000 d023 6831
000000d0: 4c8e 7930 c8b2 4032 5d4c 6b32 0000 0000
000000e0: 54af 0232 5473 5c31 792b 9031 fa0e 1d32
000000f0: 0000 0000 2ab4 9231 d030 5731 b7d6 0832
00000100: bbeb 4832 0000 0000 5dd7 0232 4f32 8431
00000110: 986c 7a31 0e23 0932 0000 0000 0dec aa31
00000120: 4209 8631 5485 d931 30e9 2c32 9afd 4b32
00000130: d999 3236 fb70 ad33 2576 a038 1895 7132
00000140: 0000 0000 52df 4332 0290 1a31 ebce 6931
00000150: 4e45 0332 0000 0000 425a 2632 51ac 8230
00000160: 79b4 d731 94be 4632 0000 0000 4ccb 5832
00000170: 54d0 ea30 b06b 4931 7969 cf31 0000 0000
00000180: 83ea 3c31 9bb7 7130 5498 6132 26c3 7b32
00000190: 0000 0000 b103 6332 d9ee 0431 3ce3 fd30
000001a0: 4692 b031 0000 0000 5b11 e930 81bf 8c30
000001b0: 64ba 7232 05ce 8132 0000 0000 df8d 5832
000001c0: 5424 0531 3114 1831 2cfb c231 789d 1032
000001d0: c980 af35 d2fa de32 518f 2437 e1d7 7732
000001e0: 0000 0000 ceb9 e831 4dfe fa30 02e0 2332
000001f0: c863 6232 0000 0000 b00e ce31 122a 1831
00000200: 403b 2b32 617e 6932 0000 0000 f7ff e531
00000210: d4e7 2631 670c 1a32 ab51 5a32 0000 0000
00000220: fce7 b031 bd78 9331 d41c 1432 e173 5c32
00000230: 0000 0000 2d98 0a32 2470 a731 5eb8 b231
00000240: 96d1 3e32 0000 0000 50ba 9a31 7aa5 ac31
00000250: 1739 0f32 85d3 5332 0000 0000 eb35 0632
00000260: 1f84 b031 b25c ab31 79f2 3632 3a8b 3f32
00000270: bf47 8e35 ce5b ea34 65ac f837 09c4 8c32
00000280: 0000 0000 863f 3934 3679 4033 687a 3e34
00000290: fe12 8834 0000 0000 8ce8 5934 9ae0 7d33
000002a0: 756a 0234 8afb 6734 0000 0000 70b7 0d34
000002b0: b7a0 2e33 154e 7934 bd13 9b34 0000 0000
000002c0: a5f4 8234 2dc2 6b33 5c12 a533 e0aa 4334
000002d0: 0000 0000 b2da e033 47b0 5b33 b1f2 7a34
000002e0: e2aa a834 0000 0000 c2b8 6934 96f8 8133
000002f0: 0836 da33 8af9 4f34 0000 0000 8488 8c33
00000300: 609c 5633 418a 8d34 75e0 b234 4dca 7e34
00000310: beb4 d935 6161 6d34 d7eb 2a38 2754 c534
00000320: 0000 0000 d199 4831 de0d b130 2c89 0a31
00000330: d24e 7231 0000 0000 5a9c 2e31 665c b930
00000340: bd76 2731 1708 8031 0000 0000 d911 4131
00000350: 9a0d a530 e819 1731 6262 7d31 0000 0000
00000360: 707d 1a31 2063 de30 89f5 1e31 16ba 7f31
00000370: 0000 0000 e22b 2a31 f890 db30 7d5c 1331
00000380: 5787 8831 0000 0000 4a53 0631 607b e930
00000390: 8804 3931 08e5 8931 0000 0000 9cf0 f430
000003a0: 4a39 db30 429c 4a31 2710 9631 6f02 5831
000003b0: 46c3 7c33 58ff 8b30 16d0 1135 741b c431
000003c0: 0000 0000 257f 8c34 be1d c433 bdc4 9d34
000003d0: 8bbc f334 0000 0000 dc94 2f34 9481 8433
000003e0: aa42 e534 2d70 0c35 0000 0000 cc7c c334
000003f0: dcee ed33 d173 3c34 6d55 bf34 0000 0000
0.0 1.4015649e-08 5.4238707e-09 9.003794e-09 1.6172953e-08 0.0 1.2209218e-08 3.3586547e-09
1.3288645e-08 2.160495e-08 0.0 1.6782373e-08 4.770167e-09 6.636074e-09 1.348575e-08 0.0
3.0274698e-09 2.2968998e-09 2.331149e-08 2.5585305e-08 0.0 2.035505e-08 5.0890034e-09 3.69237e-09
1.2275996e-08 0.0 2.9886371e-09 3.103338e-09 2.2384233e-08 2.5354316e-08 0.0 2.1051049e-08
5.0297335e-09 2.7596243e-09 1.1280554e-08 1.4002961e-08 2.2878861e-07 1.4665372e-08 3.8053852e-06 2.6095963e-08
0.0 3.5706131e-09 4.5960413e-10 1.1592446e-08 1.3719933e-08 0.0 6.824453e-09 8.2490687e-10
8.041034e-09 1.18943975e-08 0.0 3.37808e-09 9.078789e-10 1.1216521e-08 1.3696163e-08 0.0
7.606861e-09 3.207977e-09 4.195894e-09 9.142008e-09 0.0 4.2696415e-09 3.1314364e-09 7.965062e-09
1.1695131e-08 0.0 7.615964e-09 3.847425e-09 3.6441516e-09 7.98242e-09 0.0 4.974487e-09
3.9009658e-09 6.330689e-09 1.0064738e-08 1.18738175e-08 2.6613618e-06 8.076491e-08 7.651401e-05 1.4061946e-08
0.0 1.1401271e-08 2.2491808e-09 3.4023582e-09 7.640962e-09 0.0 9.682994e-09 9.50772e-10
6.277841e-09 1.1568449e-08 0.0 1.2619079e-08 1.7084951e-09 2.9310563e-09 6.0364838e-09 0.0
2.7490905e-09 8.793621e-10 1.3131359e-08 1.46544945e-08 0.0 1.3213978e-08 1.9344297e-09 1.8472757e-09
5.1389035e-09 0.0 1.6957914e-09 1.0240769e-09 1.4128634e-08 1.5111263e-08 0.0 1.26051125e-08
1.9374697e-09 2.2130389e-09 5.674698e-09 8.417707e-09 1.3075997e-06 2.5958261e-08 9.80853e-06 1.4426377e-08
0.0 6.773212e-09 1.8262171e-09 9.538782e-09 1.3177619e-08 0.0 5.997059e-09 2.2142825e-09
9.966982e-09 1.359112e-08 0.0 6.693877e-09 2.4287958e-09 8.9668e-09 1.2707839e-08 0.0
5.1486477e-09 4.2919894e-09 8.621289e-09 1.2832033e-08 0.0 8.067258e-09 4.8730886e-09 5.201442e-09
1.110711e-08 0.0 4.503171e-09 5.0246713e-09 8.336676e-09 1.232991e-08 0.0 7.812086e-09
5.1372946e-09 4.9872932e-09 1.0648926e-08 1.114932e-08 1.0600705e-06 4.3652693e-07 2.9644181e-05 1.6387292e-08
0.0 1.7252577e-07 4.4813724e-08 1.773966e-07 2.5345793e-07 0.0 2.02943e-07 5.9110427e-08
1.2145922e-07 2.1605061e-07 0.0 1.3198382e-07 4.06587e-08 2.3218338e-07 2.888536e-07 0.0
2.439239e-07 5.4891803e-08 7.686751e-08 1.8222954e-07 0.0 1.0470593e-07 5.1150234e-08 2.3371355e-07
3.1416772e-07 0.0 2.176703e-07 6.052248e-08 1.0161244e-07 1.9369159e-07 0.0 6.54409e-08
4.996798e-08 2.636389e-07 3.3318398e-07 2.372919e-07 1.6220363e-06 2.2107771e-07 4.07508e-05 3.6755338e-07
0.0 2.9191265e-09 1.2882386e-09 2.0159616e-09 3.526044e-09 0.0 2.5409208e-09 1.3486783e-09
2.4369193e-09 3.72621e-09 0.0 2.8095342e-09 1.2009196e-09 2.1988118e-09 3.687227e-09 0.0
2.2481252e-09 1.6180799e-09 2.3131597e-09 3.7213161e-09 0.0 2.47632e-09 1.597555e-09 2.1443889e-09
3.9735073e-09 0.0 1.954691e-09 1.6988047e-09 2.692362e-09 4.0132626e-09 0.0 1.7821722e-09
1.595063e-09 2.948369e-09 4.367411e-09 3.143352e-09 5.8850922e-08 1.0186154e-09 5.4319514e-07 5.707472e-09
0.0 2.6169542e-07 9.132371e-08 2.9386675e-07 4.539946e-07 0.0 1.63523e-07 6.170299e-08
4.2703078e-07 5.23173e-07 0.0 3.6412382e-07 1.1079621e-07 1.7550998e-07 3.5638678e-07 0.0

exp_avg f4 [512]
00000000: caa5 5ab8 3074 4cb7 5854 c937 7f75 51b7
00000010: 8293 cf38 9ad1 84b5 0c66 7d37 085c 1139
00000020: c01a 7536 991d 5cb7 7551 5338 0f74 1838
00000030: 801a 1037 a83a 0bb6 09d3 e237 3d2e db38
00000040: 1ea8 c3b5 b940 2f39 be8e 5ab8 01c3 b536
00000050: 5892 06b8 cc86 da37 8858 d636 d8b1 fc36
00000060: 90a3 feb6 4539 67b8 9486 d436 744d 47b7
00000070: b990 99b8 47d3 5bb7 1086 93b7 c009 3e37
00000080: 382a 91b6 218d fe38 0c4b 7338 da33 75b8
00000090: 715d e3b7 8a5e d4b8 2bf0 8c38 4edb 1639
000000a0: b4a6 d237 7cff a5b6 62db 38b6 bc43 abb7
000000b0: c6b7 ab38 f492 3236 88f9 0c36 9c17 55b8
000000c0: 28fb 0737 720e eeb7 ebde 8fb9 8533 3e39
000000d0: 1939 f3b7 0157 b0b7 3461 a4b8 e0dd bcb5
000000e0: 0613 2437 a316 2eb8 6149 5eb7 2b4a 32b8
000000f0: 2a10 b238 a878 4ab8 76e3 9cb7 dab5 3139
00000100: 24b0 9ab8 5480 e637 533e e737 5d9d cdb9
00000110: 804d a137 6e34 4338 dc80 bab7 b4ed cfb6
00000120: d472 5e38 76e3 fab7 138d 81b8 ad40 8537
00000130: 00c7 57b5 908b 6cb8 e005 2d38 56fc deb8
00000140: dd6a ac39 66b2 8837 8ccd 21b8 b718 2d39
00000150: 4153 4d39 14f7 abb6 cdd2 a736 a821 9eb6
00000160: 5cee 5bb7 70f9 4db9 9514 7eb8 18e0 3fb8
00000170: e41d 8238 4877 49b7 0cb9 2039 6292 9db8
00000180: f514 98b7 9843 5a37 08e1 c838 0a17 ed37
00000190: 02fc b2b6 9e81 b538 7c5f 4a36 c684 a238
000001a0: 125a c236 d9f7 16b9 dca5 96b7 9ce7 05b9
000001b0: 1e28 2939 a820 6d39 fc4d cab6 440e ecb5
000001c0: 63eb 89b8 10f1 1cb8 3622 c036 9851 86b7
000001d0: 112a acb6 dbdd da37 dda2 bfb6 b3c3 aa38
000001e0: 45a0 4c38 3faa d2b8 825a 8f38 88c8 81b9
000001f0: d474 a036 02e5 9b37 c12e 4d38 6278 2738
00000200: 0e9f 32b9 a009 50b8 1659 5d36 efee 26b8
00000210: b466 2ab5 4e60 a939 6c9e c8b5 dc90 d238
00000220: 4464 a838 58d3 0738 2d16 0db8 be9c d8b8
00000230: 5fa5 dfb6 918a d837 d327 3eb7 23f1 9038
00000240: 00b5 88b7 e1e5 fc38 3dc8 bb38 0abd 7239
00000250: 60b4 03b5 9c8b 2bb8 5d56 57b9 e209 dbb6
00000260: 6890 8f39 d919 e1b7 b8a0 c937 7415 7038
00000270: 603c 14b8 1e3c 3239 7fdf aa38 002c 7e35
00000280: 6682 cfb7 8e61 1139 0e82 3538 70f7 bab5
00000290: 6cd9 2938 c828 7bb8 863c 1336 ee2d 23b8
000002a0: 7cf6 0439 06bf 8a38 ae69 9fb7 2a61 1038
000002b0: 7e8a 04b8 74e5 48b7 7fba 1d38 5529 a537
000002c0: 1a32 1fb8 a61a 4e37 ea84 2039 da8a 0936
000002d0: 04cf 99b7 18a9 81b6 acb0 de36 c7ff 92b6
000002e0: 6225 bdb6 24bd 5a39 ebf4 2eb8 94aa 35b7
000002f0: a865 7bb6 2e17 7bb6 6f77 1cb7 f5f6 cd38
00000300: 52f1 cf38 1c23 1138 d055 f8b8 4c9e 5937
00000310: 2280 1637 b87b 88b7 83ff b1b8 b09e 47b6
00000320: b3ab 23b8 2d23 c638 4260 b7b6 d053 3ab7
00000330: 5cf7 2438 211b 7eb8 cee1 ea37 126b 9db5
00000340: 4ac2 d3b7 6f3f 4e39 90ea ab38 ff8a 9737
00000350: d06c 12b9 c933 19b9 c7b4 2539 6619 ef36
00000360: e802 9835 49c1 8c38 80c8 e436 48ba 7db7
00000370: 9c01 2137 8b22 b9b8 0a19 1436 3a1e 52b6
00000380: 3f3a 57b6 f9db b8b8 93e6 1bb8 94a2 0cb8
00000390: 24a8 5337 2cc0 4837 a240 26b8 4626 41b9
000003a0: 9946 54b7 4cf5 3836 c200 b1b6 705e 6938
000003b0: bc1a ba37 cfa9 00b9 c147 12b7 5e6c 9e38
000003c0: a3a4 d238 0de5 dcb8 cd29 0137 9487 1db5
000003d0: 3cd8 66b7 10c1 f8b6 81b1 beb7 f027 47b7
000003e0: a6ee 1639 ce7f 3239 de55 01b9 e91a abb8
000003f0: 591d 46b9 7391 d0b6 c5af f1b6 b313 a9b7
-5.2129653e-05 -1.21863995e-05 2.4000343e-05 -1.2484727e-05 9.898005e-05 -9.895768e-07 1.5103735e-05 0.00013862562
3.6523415e-06 -1.3119913e-05 5.0382183e-05 3.6347712e-05 8.589239e-06 -2.0746756e-06 2.703957e-05 0.00010451346
-1.4577561e-06 0.00016713412 -5.210819e-05 5.416922e-06 -3.2084383e-05 2.6050395e-05 6.3880034e-06 7.530889e-06
-7.588831e-06 -5.5128028e-05 6.3337593e-06 -1.1879358e-05 -7.322565e-05 -1.3102609e-05 -1.7586193e-05 1.1327153e-05
-4.3262517e-06 0.00012137951 5.8005608e-05 -5.8460842e-05 -2.710402e-05 -0.00010126557 6.720455e-05 0.00014386812
2.5111578e-05 -4.9471255e-06 -2.7545834e-06 -2.041633e-05 8.188146e-05 2.6609605e-06 2.1006872e-06 -5.0805145e-05
8.105104e-06 -2.8378538e-05 -0.00027441172 0.00018139005 -2.8994446e-05 -2.102135e-05 -7.838235e-05 -1.4071666e-06
9.779591e-06 -4.1505915e-05 -1.3249316e-05 -4.250758e-05 8.490712e-05 -4.8272923e-05 -1.8702569e-05 0.0001694778
-7.376101e-05 2.7477894e-05 2.7566368e-05 -0.00039217892 1.9228784e-05 4.6540452e-05 -2.2232933e-05 -6.196753e-06
5.3035867e-05 -2.9908242e-05 -6.1774765e-05 1.5884953e-05 -8.0383325e-07 -5.6396762e-05 4.1251886e-05 -0.00010632786
0.00032886016 1.6295537e-05 -3.857682e-05 0.00016507773 0.00019581338 -5.124961e-06 5.0015283e-06 -4.712685e-06
-1.3108915e-05 -0.00019643246 -6.0577488e-05 -4.5746652e-05 6.2044506e-05 -1.2008306e-05 0.00015327724 -7.513609e-05
-1.812957e-05 1.30095505e-05 9.5786585e-05 2.826333e-05 -5.334151e-06 8.654896e-05 3.0155925e-06 7.749493e-05
5.792136e-06 -0.00014397445 -1.7958628e-05 -0.0001277015 0.00016132041 0.00022614247 -6.0291477e-06 -1.7587522e-06
-6.576513e-05 -3.7417805e-05 5.7260286e-06 -1.601204e-05 -5.1308966e-06 2.6090935e-05 -5.7112034e-06 8.1426835e-05
4.8786653e-05 -0.00010045291 6.83563e-05 -0.00024754205 4.781972e-06 1.858408e-05 4.891935e-05 3.9928018e-05
-0.00017034655 -4.960003e-05 3.298342e-06 -3.980001e-05 -6.347939e-07 0.00032305944 -1.4947268e-06 0.000100405625
8.02954e-05 3.2383337e-05 -3.3637672e-05 -0.00010328878 -6.6651696e-06 2.5813732e-05 -1.1334155e-05 6.91137e-05
-1.6296748e-05 0.00012059115 8.954152e-05 0.00023149341 -4.9063783e-07 -4.08996e-05 -0.0002053617 -6.527859e-06
0.00027382676 -2.6834126e-05 2.4035908e-05 5.724044e-05 -3.534218e-05 0.00016997798 8.147861e-05 9.46864e-07
-2.4737044e-05 0.0001386462 4.3274886e-05 -1.3930094e-06 4.049523e-05 -5.9881044e-05 2.1939936e-06 -3.8905004e-05
0.00012680324 6.615934e-05 -1.9003488e-05 3.4422766e-05 -3.1600233e-05 -1.1974353e-05 3.7605405e-05 1.968878e-05
-3.7955215e-05 1.2284761e-05 0.00015308303 2.0495413e-06 -1.833542e-05 -3.8641847e-06 6.636683e-06 -4.3809155e-06
-5.636991e-06 0.0002086056 -4.171293e-05 -1.08281565e-05 -3.7461086e-06 -3.7415407e-06 -9.326132e-06 9.821161e-05
9.9154786e-05 3.4603392e-05 -0.00011841545 1.2971064e-05 8.97053e-06 -1.6270074e-05 -8.4876105e-05 -2.974568e-06
-3.9022136e-05 9.447928e-05 -5.465031e-06 -1.1105978e-05 3.933102e-05 -6.0583585e-05 2.8000122e-05 -1.1728573e-06
-2.5243633e-05 0.00019669322 8.197606e-05 1.8065328e-05 -0.00013964181 -0.00014610509 0.00015802971 7.125712e-06
1.1325728e-06 6.7117224e-05 6.818271e-06 -1.5123347e-05 9.5967225e-06 -8.8279216e-05 2.2068293e-06 -3.1310033e-06
-3.20714e-06 -8.814777e-05 -3.716962e-05 -3.3530014e-05 1.2615728e-05 1.19656725e-05 -3.9637678e-05 -0.00018420172
-1.2652622e-05 2.7560918e-06 -5.2750993e-06 5.563948e-05 2.2185377e-05 -0.0001227029 -8.718985e-06 7.554212e-05
0.00010044246 -0.000105330815 7.698732e-06 -5.868435e-07 -1.3759414e-05 -7.4134514e-06 -2.2732422e-05 -1.1870623e-05
0.00014394018 0.00017023014 -0.00012334387 -8.158928e-05 -0.00018893684 -6.2158156e-06 -7.202822e-06 -2.0155543e-05
