MLagents_test1/results/CarAgent_1/CarAgent/CarAgent-4096.pt (torch, 193199 bytes, 38 tensors)

network_body.observation_encoder.processors.0.normalizer.running_mean f4 [35]
0	0x00000000	0.0
1	0x3db9f460	0.09079814
2	0x3f38c472	0.7217475
3	0x3e3fb404	0.18721014
4	0x3ea7f7c2	0.32806212
5	0x00000000	0.0
6	0x3d87f781	0.066390045
7	0x3f4b534c	0.79423976
8	0x3e0e7718	0.13912618
9	0x3ea7b6e2	0.32756716
10	0x00000000	0.0
11	0x3d74f0b1	0.059799854
12	0x3f49f361	0.7888699
13	0x3e1ab654	0.15108615
14	0x3eae1952	0.34003693
15	0x00000000	0.0
16	0x3d9c7639	0.07639737
17	0x3f36e491	0.71442515
18	0x3e55f2a0	0.20893335
19	0x3ec96de7	0.3934166
20	0x00000000	0.0
21	0x3d28f570	0.041249692
22	0x3f5512af	0.83231634
23	0x3e0137eb	0.12618987
24	0x3eaf9812	0.34295708
25	0x00000000	0.0
26	0x3d92f6d1	0.07175983
27	0x3f25f5a0	0.6482792
28	0x3e8f370d	0.27971688
29	0x3ef7972c	0.48357522
30	0x00000000	0.0
31	0x3d03f7bf	0.03221869
32	0x3f60c1f4	0.8779595
33	0x3db77489	0.08957774
34	0x3eaf98ca	0.34296256

network_body.observation_encoder.processors.0.normalizer.running_variance f4 [35]
0	0x3f800000	1.0
1	0x43a99c90	339.22314
2	0x444df2b4	823.79224
3	0x441c1a3b	624.40985
4	0x4413067d	588.1014
5	0x3f800000	1.0
6	0x437ef11b	254.94182
7	0x4427a2d3	670.5441
8	0x43f5d95c	491.69812
9	0x44044dc7	529.2153
10	0x3f800000	1.0
11	0x4367595b	231.34904
12	0x442ad7d6	683.37244
13	0x44039e92	526.47766
14	0x440fd825	575.37726
15	0x3f800000	1.0
16	0x43910b39	290.08768
17	0x44513829	836.8775
18	0x442989ca	678.15295
19	0x4419eca0	615.69727
20	0x3f800000	1.0
21	0x43230760	163.02881
22	0x440f334a	572.8014
23	0x43e26142	452.75983
24	0x4400f0d4	515.76294
25	0x3f800000	1.0
26	0x4388f389	273.90262
27	0x4469cae8	935.1704
28	0x444e9c75	826.44464
29	0x442834c0	672.8242
30	0x3f800000	1.0
31	0x4300bf42	128.7471
32	0x43dbfd67	439.9797
33	0x43a79000	335.125
34	0x43d6a867	429.31564

network_body.observation_encoder.processors.1.normalizer.running_mean f4 [4]
0	0x3e9507b7	0.29107448
1	0x4099f86b	4.8115745
2	0x3eebc886	0.46051425
3	0x43bb426a	374.51886

network_body.observation_encoder.processors.1.normalizer.running_variance f4 [4]
0	0x44f2247d	1937.1403
1	0x475366c5	54118.77
2	0x4510521b	2309.1316
3	0x4cf80a88	1.3004499e+08

network_body.processors.0.normalizer.running_mean f4 [35]
0	0x00000000	0.0
1	0x3db9f460	0.09079814
2	0x3f38c472	0.7217475
3	0x3e3fb404	0.18721014
4	0x3ea7f7c2	0.32806212
5	0x00000000	0.0
6	0x3d87f781	0.066390045
7	0x3f4b534c	0.79423976
8	0x3e0e7718	0.13912618
9	0x3ea7b6e2	0.32756716
10	0x00000000	0.0
11	0x3d74f0b1	0.059799854
12	0x3f49f361	0.7888699
13	0x3e1ab654	0.15108615
14	0x3eae1952	0.34003693
15	0x00000000	0.0
16	0x3d9c7639	0.07639737
17	0x3f36e491	0.71442515
18	0x3e55f2a0	0.20893335
19	0x3ec96de7	0.3934166
20	0x00000000	0.0
21	0x3d28f570	0.041249692
22	0x3f5512af	0.83231634
23	0x3e0137eb	0.12618987
24	0x3eaf9812	0.34295708
25	0x00000000	0.0
26	0x3d92f6d1	0.07175983
27	0x3f25f5a0	0.6482792
28	0x3e8f370d	0.27971688
29	0x3ef7972c	0.48357522
30	0x00000000	0.0
31	0x3d03f7bf	0.03221869
32	0x3f60c1f4	0.8779595
33	0x3db77489	0.08957774
34	0x3eaf98ca	0.34296256

network_body.processors.0.normalizer.running_variance f4 [35]
0	0x3f800000	1.0
1	0x43a99c90	339.22314
2	0x444df2b4	823.79224
3	0x441c1a3b	624.40985
4	0x4413067d	588.1014
5	0x3f800000	1.0
6	0x437ef11b	254.94182
7	0x4427a2d3	670.5441
8	0x43f5d95c	491.69812
9	0x44044dc7	529.2153
10	0x3f800000	1.0
11	0x4367595b	231.34904
12	0x442ad7d6	683.37244
13	0x44039e92	526.47766
14	0x440fd825	575.37726
15	0x3f800000	1.0
16	0x43910b39	290.08768
17	0x44513829	836.8775
18	0x442989ca	678.15295
19	0x4419eca0	615.69727
20	0x3f800000	1.0
21	0x43230760	163.02881
22	0x440f334a	572.8014
23	0x43e26142	452.75983
24	0x4400f0d4	515.76294
25	0x3f800000	1.0
26	0x4388f389	273.90262
27	0x4469cae8	935.1704
28	0x444e9c75	826.44464
29	0x442834c0	672.8242
30	0x3f800000	1.0
31	0x4300bf42	128.7471
32	0x43dbfd67	439.9797
33	0x43a79000	335.125
34	0x43d6a867	429.31564

network_body.processors.1.normalizer.running_mean f4 [4]
0	0x3e9507b7	0.29107448
1	0x4099f86b	4.8115745
2	0x3eebc886	0.46051425
3	0x43bb426a	374.51886

network_body.processors.1.normalizer.running_variance f4 [4]
0	0x44f2247d	1937.1403
1	0x475366c5	54118.77
2	0x4510521b	2309.1316
3	0x4cf80a88	1.3004499e+08

network_body._body_endoder.seq_layers.0.weight f4 [256, 39]
0	0x3e174059	0.1477064
1	0x3e809313	0.2511221
2	0xbe4e7358	-0.20161188
3	0x3d0244e9	0.031804
4	0x3dd38b90	0.10329354
5	0x3e04b5ce	0.12959978
6	0xbe288c0e	-0.16459677
7	0x3ed2ba5d	0.4115781
8	0x3e0ac8b2	0.13553122
9	0x3c2fb81d	0.010725048
10	0xbc70ffc9	-0.014709421
11	0x3dafb098	0.085786045
12	0x3cdb185f	0.02674502
13	0xbe81e41a	-0.2536934
14	0xbe7888af	-0.2427089
15	0x3c705a09	0.014669904
16	0x3e7e786b	0.24850623
17	0x3e88d6db	0.26726422
18	0xbea17922	-0.3153773
19	0x3dc514ba	0.09623094
20	0xbe9836b8	-0.29729247
21	0xbd946e80	-0.07247639
22	0xbd8ad0ba	-0.06778093
23	0xbdf96008	-0.1217652
24	0x3e4b8ed4	0.19878703
25	0xbe65af4e	-0.22430155
26	0xbe1691fb	-0.14704125
27	0x3eb3d2df	0.3512182
28	0xbd26e8f1	-0.040749494
29	0xbc4d8bd1	-0.012545542
30	0x3d54509b	0.051834684
31	0xbd8b2099	-0.06793327
32	0x3dd47654	0.10374132
33	0xbcce2c25	-0.025167534
34	0x3c09c871	0.008409605
35	0x3d76d71b	0.060263734
36	0x3cdf906c	0.027290545
37	0x3d7e0a4d	0.062021542
38	0x3e04206b	0.12902991
39	0xbe9ae5b1	-0.30253366
40	0xbdf1d0ca	-0.118074015
41	0xbe10ed82	-0.14153102
42	0xbe877dc8	-0.2646315
43	0x3d8a90d1	0.06765903
44	0xbe5b1c14	-0.2139743
45	0xbe95b54e	-0.29239887
46	0xbe9eafba	-0.30993444
47	0x3daa85d8	0.0832631
48	0x3caaeae5	0.02086396
49	0xbe0130de	-0.12616298
50	0x3d30a9d0	0.043130696
51	0xbb5d10b4	-0.003373188
52	0x3cd9e3bb	0.026597848
53	0x3e0ffcb0	0.14061236
54	0x3dd7f5e1	0.105449446
55	0xbe1a997b	-0.1509761
56	0xbe827d06	-0.2548601
57	0xbdca9c18	-0.09893054
58	0x3d71e5f4	0.05905719
59	0x3c457cb8	0.012053661
60	0x3d616d92	0.055036135
61	0x3e3fc11b	0.18726008
62	0xbe30e6e7	-0.17275582
63	0x3d84d481	0.064858444
64	0xbde9d2c6	-0.11417155
65	0x3e5347a6	0.206328
66	0x3e24eca6	0.16105899
67	0x3dac140f	0.084022634
68	0x3e205d24	0.1566053
69	0x3ea67fbf	0.32519338
70	0xbdc097d5	-0.0940396
71	0x3ea96f50	0.33092737
72	0xbe67f397	-0.22651516
73	0xbdb15608	-0.08658987
74	0x3d8e1843	0.06938221
75	0xbca61ac6	-0.020276438
76	0x3ebe75ee	0.37199348
77	0xbc89ee50	-0.016837269
78	0xbe21afd8	-0.15789735
79	0x3e52de83	0.20592694
80	0xbe8a5433	-0.27017364
81	0x3db89faa	0.090148285
82	0x3c990977	0.018681271
83	0x3e84f05f	0.2596464
84	0x3e2ad1d6	0.16681609
85	0x3e3e3359	0.18574275
86	0x3e664a28	0.22489226
87	0x3e0224e1	0.1270938
88	0x3caac7dd	0.020847255
89	0xbdab645d	-0.08368752
90	0xbd46e999	-0.04856262
91	0x3d89c0d5	0.06726233
92	0x3d35439f	0.04425394
93	0x3eba4f91	0.3638883
94	0x3e362699	0.17788161
95	0xbdf67245	-0.12033514
96	0x3e229d44	0.15880305
97	0x3d4a7e18	0.04943666
98	0xbdfa2527	-0.122141175
99	0xbee973bb	-0.45596108
100	0x3ded356c	0.11582455
101	0x3db6d3e0	0.08927131
102	0xbda9cad5	-0.0829064
103	0x3dc21416	0.09476487
104	0x3d503f8b	0.05084185
105	0x3e4f8bb2	0.20268133
106	0xbe0600aa	-0.13086191
107	0xbe249230	-0.16071391
108	0xbdbc8b6f	-0.09206282
109	0x3e809017	0.25109932
110	0xbeabee0f	-0.33580062
111	0xbe0c8766	-0.13723525
112	0x3d84ed98	0.0649063
113	0x3e5afd52	0.21385697
114	0xbe381d2a	-0.17979875
115	0xbd8597db	-0.06523105
116	0x3de5dc6c	0.11223683
117	0x3d29156e	0.041280203
118	0x3e063b86	0.13108644
119	0xbab9f80b	-0.0014188302
120	0xbdd57011	-0.104217656
121	0x3d24b856	0.04021486
122	0x3ec79251	0.38978818
123	0xbd39742e	-0.045276813
124	0xbc6bd0b4	-0.01439302
125	0xbb416be0	-0.0029513761
126	0xbd44a2d6	-0.048006855
127	0x3ea68df5	0.3253018
128	0xbe7b5096	-0.2454246
129	0xbd6d05c0	-0.05786681
130	0xbe28fe1a	-0.16503182
131	0x3e0e89f2	0.1391981
132	0x3ec8bad5	0.39205042
133	0x3e2051e8	0.15656245
134	0xbd7159b1	-0.058923427
135	0x3e0ef76d	0.13961573
136	0x3e0d41f2	0.13794687
137	0x3dd20f3c	0.10256812
138	0xbe6bf744	-0.23043543
139	0xbdbf4ca0	-0.09340787
140	0x3e51f4aa	0.20503488
141	0xbef66b45	-0.48128715
142	0xbe126b9d	-0.14298864
143	0xbe5ed6fc	-0.21761698
144	0xbc4310e5	-0.011905883
145	0x3dfa8a3e	0.12233399
146	0x3cba09af	0.022709696
147	0xbe111650	-0.14168668
148	0xbd0c614f	-0.03427249
149	0x3c6c73a6	0.01443187
150	0xbdbf6ad3	-0.09346547
151	0xbdf0cf86	-0.11758332
152	0xbe63cc8a	-0.22245994
153	0x3e38e87f	0.1805744
154	0x3dbac1d6	0.091190025
155	0xbd5770c4	-0.052597776
156	0x3e8d122f	0.27552935
157	0xbe0d6d71	-0.1381128
158	0xbe0a5273	-0.13508014
159	0xbb2717b1	-0.00254963
160	0xbdd34059	-0.10315008
161	0x3d41e986	0.047341846
162	0x3d4e49be	0.050363295
163	0xbe630a07	-0.22171794
164	0xbeb0c9fd	-0.34529105
165	0xbd1e487c	-0.038643345
166	0xbe8cde76	-0.27513474
167	0x3e623d89	0.22093786
168	0x3d609965	0.05483379
169	0xbdfb44ec	-0.12269005
170	0xbd31a84f	-0.043373402
171	0x3e498372	0.19679049
172	0xbe680d53	-0.22661333
173	0x3e12754d	0.14302559
174	0x3e23c2b1	0.15992238
175	0xbdb8f8fc	-0.09031865
176	0x3d4b2f60	0.049605727
177	0x3e798ca5	0.24370058
178	0x3dbce145	0.09222654
179	0x3e38bef2	0.1804159
180	0xbe446b5c	-0.1918158
181	0x3e1beae6	0.15226325
182	0xbd77b24d	-0.060472775
183	0x3e75de11	0.24010493
184	0xbdfbeff8	-0.1230163
185	0x3dc64871	0.09681786
186	0x3db11520	0.086466074
187	0xbdf71cf7	-0.120660715
188	0x3ca6ab64	0.020345397
189	0xbdaf88f0	-0.08571041
190	0xbe1bed4a	-0.15227237
191	0xbe8823fd	-0.26589957
192	0xbe216d8d	-0.15764447
193	0x3d478095	0.04870661
194	0xbe48c2c9	-0.19605555
195	0x3e20bdec	0.1569745
196	0xbde36da6	-0.11104898
197	0x3db42609	0.08796317
198	0x3dc00c23	0.09377315
199	0x3e4a6009	0.19763197
200	0xbda3a99e	-0.07991336
201	0xbd7d60c5	-0.061859865
202	0x3d85c168	0.0653103
203	0x3e2b17f6	0.16708359
204	0xbe765508	-0.24055874
205	0x3ced0d28	0.028936937
206	0xbe0eda07	-0.13950358
207	0x3dea7418	0.114479244
208	0x3e96409d	0.2934617
209	0xbdcc57d9	-0.09977693
210	0xbd206d24	-0.039166585
211	0xbd2a75d5	-0.04161628
212	0xbb4642d5	-0.0030252237
213	0x3e18c17d	0.1491756
214	0xbe952eac	-0.2913717
215	0xbe5a90ed	-0.21344347
216	0x3e20d12e	0.15704796
217	0xbe24941d	-0.16072126
218	0xbe2a2b07	-0.16617976
219	0x3d38f63c	0.045156702
220	0xbcef29be	-0.029194709
221	0xbd3d1db4	-0.046170905
222	0xbdf3e9bc	-0.11909816
223	0xbd543f41	-0.051818136
224	0xbd401488	-0.04689458
225	0x3e4fca91	0.20292117
226	0x3e304174	0.17212468
227	0x3e0a4350	0.1350224
228	0xbe93c65f	-0.28862283
229	0x3c9f298c	0.01942899
230	0xbd6dcc4c	-0.05805616
231	0xbdd15e6f	-0.1022309
232	0xbd9122eb	-0.07086738
233	0x3dc7d6e8	0.09757787
234	0x3d04ac7a	0.03239105
235	0xbe214eed	-0.15752764
236	0xbec68ada	-0.3877781
237	0x3e176780	0.14785576
238	0xbe8ed495	-0.27896562
239	0x3dd0afc1	0.101897724
240	0x3e042aeb	0.12906997
241	0x3d95321a	0.07284947
242	0x3e0faa47	0.140298
243	0xbcbfa1b4	-0.023392536
244	0x3e185771	0.14877106
245	0x3e4cea68	0.20011294
246	0x3d02ad09	0.0319033
247	0x3def56da	0.116864875
248	0x3eb4d61d	0.35319605
249	0xbe159a58	-0.14609659
250	0xbcd911a2	-0.026497666
251	0x3cfec3cf	0.031099228
252	0x3e5ee1bd	0.217658
253	0x3e8ec662	0.2788573
254	0xbd130c96	-0.035900675
255	0x3e4f07af	0.20217775

network_body._body_endoder.seq_layers.0.bias f4 [256]
0	0x00000000	0.0
1	0x00000000	0.0
2	0x00000000	0.0
3	0x00000000	0.0
4	0x00000000	0.0
5	0x00000000	0.0
6	0x00000000	0.0
7	0x00000000	0.0
8	0x00000000	0.0
9	0x00000000	0.0
10	0x00000000	0.0
11	0x00000000	0.0
12	0x00000000	0.0
13	0x00000000	0.0
14	0x00000000	0.0
15	0x00000000	0.0
16	0x00000000	0.0
17	0x00000000	0.0
18	0x00000000	0.0
19	0x00000000	0.0
20	0x00000000	0.0
21	0x00000000	0.0
22	0x00000000	0.0
23	0x00000000	0.0
24	0x00000000	0.0
25	0x00000000	0.0
26	0x00000000	0.0
27	0x00000000	0.0
28	0x00000000	0.0
29	0x00000000	0.0
30	0x00000000	0.0
31	0x00000000	0.0
32	0x00000000	0.0
33	0x00000000	0.0
34	0x00000000	0.0
35	0x00000000	0.0
36	0x00000000	0.0
37	0x00000000	0.0
38	0x00000000	0.0
39	0x00000000	0.0
40	0x00000000	0.0
41	0x00000000	0.0
42	0x00000000	0.0
43	0x00000000	0.0
44	0x00000000	0.0
45	0x00000000	0.0
46	0x00000000	0.0
47	0x00000000	0.0
48	0x00000000	0.0
49	0x00000000	0.0
50	0x00000000	0.0
51	0x00000000	0.0
52	0x00000000	0.0
53	0x00000000	0.0
54	0x00000000	0.0
55	0x00000000	0.0
56	0x00000000	0.0
57	0x00000000	0.0
58	0x00000000	0.0
59	0x00000000	0.0
60	0x00000000	0.0
61	0x00000000	0.0
62	0x00000000	0.0
63	0x00000000	0.0
64	0x00000000	0.0
65	0x00000000	0.0
66	0x00000000	0.0
67	0x00000000	0.0
68	0x00000000	0.0
69	0x00000000	0.0
70	0x00000000	0.0
71	0x00000000	0.0
72	0x00000000	0.0
73	0x00000000	0.0
74	0x00000000	0.0
75	0x00000000	0.0
76	0x00000000	0.0
77	0x00000000	0.0
78	0x00000000	0.0
79	0x00000000	0.0
80	0x00000000	0.0
81	0x00000000	0.0
82	0x00000000	0.0
83	0x00000000	0.0
84	0x00000000	0.0
85	0x00000000	0.0
86	0x00000000	0.0
87	0x00000000	0.0
88	0x00000000	0.0
89	0x00000000	0.0
90	0x00000000	0.0
91	0x00000000	0.0
92	0x00000000	0.0
93	0x00000000	0.0
94	0x00000000	0.0
95	0x00000000	0.0
96	0x00000000	0.0
97	0x00000000	0.0
98	0x00000000	0.0
99	0x00000000	0.0
100	0x00000000	0.0
101	0x00000000	0.0
102	0x00000000	0.0
103	0x00000000	0.0
104	0x00000000	0.0
105	0x00000000	0.0
106	0x00000000	0.0
107	0x00000000	0.0
108	0x00000000	0.0
109	0x00000000	0.0
110	0x00000000	0.0
111	0x00000000	0.0
112	0x00000000	0.0
113	0x00000000	0.0
114	0x00000000	0.0
115	0x00000000	0.0
116	0x00000000	0.0
117	0x00000000	0.0
118	0x00000000	0.0
119	0x00000000	0.0
120	0x00000000	0.0
121	0x00000000	0.0
122	0x00000000	0.0
123	0x00000000	0.0
124	0x00000000	0.0
125	0x00000000	0.0
126	0x00000000	0.0
127	0x00000000	0.0
128	0x00000000	0.0
129	0x00000000	0.0
130	0x00000000	0.0
131	0x00000000	0.0
132	0x00000000	0.0
133	0x00000000	0.0
134	0x00000000	0.0
135	0x00000000	0.0
136	0x00000000	0.0
137	0x00000000	0.0
138	0x00000000	0.0
139	0x00000000	0.0
140	0x00000000	0.0
141	0x00000000	0.0
142	0x00000000	0.0
143	0x00000000	0.0
144	0x00000000	0.0
145	0x00000000	0.0
146	0x00000000	0.0
147	0x00000000	0.0
148	0x00000000	0.0
149	0x00000000	0.0
150	0x00000000	0.0
151	0x00000000	0.0
152	0x00000000	0.0
153	0x00000000	0.0
154	0x00000000	0.0
155	0x00000000	0.0
156	0x00000000	0.0
157	0x00000000	0.0
158	0x00000000	0.0
159	0x00000000	0.0
160	0x00000000	0.0
161	0x00000000	0.0
162	0x00000000	0.0
163	0x00000000	0.0
164	0x00000000	0.0
165	0x00000000	0.0
166	0x00000000	0.0
167	0x00000000	0.0
168	0x00000000	0.0
169	0x00000000	0.0
170	0x00000000	0.0
171	0x00000000	0.0
172	0x00000000	0.0
173	0x00000000	0.0
174	0x00000000	0.0
175	0x00000000	0.0
176	0x00000000	0.0
177	0x00000000	0.0
178	0x00000000	0.0
179	0x00000000	0.0
180	0x00000000	0.0
181	0x00000000	0.0
182	0x00000000	0.0
183	0x00000000	0.0
184	0x00000000	0.0
185	0x00000000	0.0
186	0x00000000	0.0
187	0x00000000	0.0
188	0x00000000	0.0
189	0x00000000	0.0
190	0x00000000	0.0
191	0x00000000	0.0
192	0x00000000	0.0
193	0x00000000	0.0
194	0x00000000	0.0
195	0x00000000	0.0
196	0x00000000	0.0
197	0x00000000	0.0
198	0x00000000	0.0
199	0x00000000	0.0
200	0x00000000	0.0
201	0x00000000	0.0
202	0x00000000	0.0
203	0x00000000	0.0
204	0x00000000	0.0
205	0x00000000	0.0
206	0x00000000	0.0
207	0x00000000	0.0
208	0x00000000	0.0
209	0x00000000	0.0
210	0x00000000	0.0
211	0x00000000	0.0
212	0x00000000	0.0
213	0x00000000	0.0
214	0x00000000	0.0
215	0x00000000	0.0
216	0x00000000	0.0
217	0x00000000	0.0
218	0x00000000	0.0
219	0x00000000	0.0
220	0x00000000	0.0
221	0x00000000	0.0
222	0x00000000	0.0
223	0x00000000	0.0
224	0x00000000	0.0
225	0x00000000	0.0
226	0x00000000	0.0
227	0x00000000	0.0
228	0x00000000	0.0
229	0x00000000	0.0
230	0x00000000	0.0
231	0x00000000	0.0
232	0x00000000	0.0
233	0x00000000	0.0
234	0x00000000	0.0
235	0x00000000	0.0
236	0x00000000	0.0
237	0x00000000	0.0
238	0x00000000	0.0
239	0x00000000	0.0
240	0x00000000	0.0
241	0x00000000	0.0
242	0x00000000	0.0
243	0x00000000	0.0
244	0x00000000	0.0
245	0x00000000	0.0
246	0x00000000	0.0
247	0x00000000	0.0
248	0x00000000	0.0
249	0x00000000	0.0
250	0x00000000	0.0
251	0x00000000	0.0
252	0x00000000	0.0
253	0x00000000	0.0
254	0x00000000	0.0
255	0x00000000	0.0

action_model._continuous_distribution.log_sigma f4 [1, 2]
0	0x00000000	0.0
1	0x00000000	0.0

action_model._continuous_distribution.mu.weight f4 [2, 256]
0	0xbca2933e	-0.019845601
1	0xbbb68a36	-0.0055706752
2	0xbc4843e3	-0.012223217
3	0xbc2dca1e	-0.0106072705
4	0xbcd4ca02	-0.025975231
5	0xbd095526	-0.03352847
6	0x3ca6ec90	0.020376474
7	0x3bb1745f	0.005415484
8	0x3ca965b9	0.020678388
9	0xbc3a6a6d	-0.011377913
10	0x3b481f0a	0.003053608
11	0xbb57b315	-0.0032913138
12	0xbc759a5b	-0.0149904145
13	0xbc1e8fae	-0.009677811
14	0x3bba6e21	0.005689398
15	0x3cb5845d	0.022157842
16	0x3b2adf4b	0.0026073034
17	0x3a8ec12c	0.001089131
18	0x3cb05ed3	0.02152959
19	0x3aeea3bb	0.0018206754
20	0xbbb069a5	-0.0053836876
21	0xbcf33cd5	-0.029692093
22	0xbc2536c8	-0.010083862
23	0x3c968240	0.018372655
24	0xbb33c8e9	-0.0027432984
25	0xbb073e8f	-0.0020636653
26	0xbbdf93c0	-0.006823033
27	0x3c8073ca	0.015680213
28	0x3bf6e2eb	0.007534375
29	0xbc5a3ac0	-0.013319671
30	0xbc1e07bf	-0.0096454015
31	0xbb1d57ba	-0.0024008588
32	0x3a3f5544	0.00072987773
33	0x3c964d07	0.018347276
34	0x3c05d838	0.008169226
35	0x39e22cbb	0.00043139406
36	0x3baf7e4f	0.0053556333
37	0xbcf53fef	-0.029937712
38	0xbbf172e3	-0.007368432
39	0xbbace6a6	-0.005276519
40	0x3b57e965	0.003294551
41	0x3a2b3f6b	0.00065325823
42	0xbbcb957a	-0.0062128874
43	0x3c35eff3	0.011104572
44	0x3c4d88e7	0.012544847
45	0x3b8892a0	0.0041678697
46	0xbb5f0172	-0.003402796
47	0x3b8fb7e8	0.004385937
48	0xbc28c297	-0.0103003
49	0xbb2cefcd	-0.002638805
50	0xbc8c5151	-0.017128618
51	0xbbe573db	-0.0070023364
52	0x3cdd708f	0.027031211
53	0xba9ad3a4	-0.0011812341
54	0x3aeb7548	0.001796403
55	0x3b89a902	0.0042010555
56	0xbbbda333	-0.005787277
57	0xbd02557f	-0.031819817
58	0x3b8ae5f9	0.0042388407
59	0xbb62b48f	-0.0034592485
60	0xbd0f0577	-0.03491732
61	0x3c12ea4c	0.008966994
62	0xbb250bcf	-0.002518404
63	0xbb5aa933	-0.003336501
64	0x3c5488ff	0.012972116
65	0xbb0b8b90	-0.0021292903
66	0xbbf3818a	-0.0074312137
67	0x3cd2ca57	0.025731249
68	0xbc5745b7	-0.01313918
69	0x3b33aa13	0.0027414605
70	0x3cd56c1b	0.026052525
71	0xbc53570b	-0.012899171
72	0x3bdc4da3	0.006723122
73	0x3cf699c5	0.03010262
74	0xbba41297	-0.005007099
75	0x3c3fc463	0.011704537
76	0x3c9ba882	0.01900125
77	0x3c48038d	0.012207878
78	0xbc7b8cab	-0.015353362
79	0x3be3172d	0.006930253
80	0x3c638a85	0.013888006
81	0xbc847d0e	-0.016172912
82	0x3c5e5de2	0.013572188
83	0xbbff18fa	-0.00778496
84	0xbcd5ad40	-0.026083589
85	0xbc9d70b0	-0.019218773
86	0xbc2f82a3	-0.010712299
87	0x3c3b84bd	0.0114452215
88	0xbb6baa3a	-0.0035959617
89	0x3acad23b	0.001547403
90	0xbc6785a0	-0.01413098
91	0xbb0b7d95	-0.002128457
92	0x3c190de9	0.009341695
93	0x3c40028b	0.011719356
94	0xba8d338e	-0.0010772811
95	0xbb6ad215	-0.0035830785
96	0xbc28ee45	-0.010310714
97	0xbb8e691a	-0.004346025
98	0xbc303ce3	-0.010756704
99	0xbbd58c2b	-0.0065169535
100	0xbb91486f	-0.0044336836
101	0xbc93a16f	-0.018021313
102	0xba191483	-0.00058395433
103	0xb8a05b1e	-7.6463664e-05
104	0x3c9a53ab	0.018838724
105	0x3acf56f2	0.0015818758
106	0xbd064c17	-0.03278741
107	0xbc811641	-0.015757682
108	0xbc123ac7	-0.008925146
109	0x3c4da68b	0.012551914
110	0xbc10a66b	-0.00882874
111	0xbc08f63b	-0.008359487
112	0xbc8dfbc0	-0.017331958
113	0xbc44e9b9	-0.012018614
114	0x3b2148ba	0.0024609999
115	0x3bd31f48	0.006442938
116	0xbcff9bfd	-0.03120231
117	0x3b18bf2f	0.0023307314
118	0x3bb65413	0.0055642216
119	0xbc5f2d58	-0.013621651
120	0xbc67971b	-0.014135147
121	0x3cacc0d7	0.021088047
122	0xbc54b1eb	-0.012981872
123	0x3cdb0350	0.026734978
124	0xbc344b8d	-0.011004341
125	0xb92dccaa	-0.00016574809
126	0xbca1bd6e	-0.019743647
127	0xbbea370b	-0.007147675
128	0x3c2ee7d1	0.0106753865
129	0x3bf35f50	0.0074271336
130	0xbc89d407	-0.016824735
131	0x3c6744ba	0.014115507
132	0x3b54c7d5	0.0032467742
133	0xbc10ca3a	-0.008837277
134	0xbbd94515	-0.0066305497
135	0xbbcf95d7	-0.006335001
136	0x3c37f783	0.011228445
137	0xbcc179c7	-0.023617638
138	0x3b5ad70d	0.003339234
139	0xbc14748d	-0.009060991
140	0xbc0fef7b	-0.008785124
141	0xb9b65b97	-0.00034781985
142	0x3b3aa60f	0.0028480326
143	0x3add15c7	0.0016867452
144	0x3c7b79ef	0.015348895
145	0x3c1a1780	0.009405017
146	0xbb34e639	-0.0027603044
147	0xbad7beed	-0.0016460099
148	0xba50b37f	-0.00079613173
149	0x3bd5c343	0.006523521
150	0xbc0dbe27	-0.008651293
151	0xbbd7bb37	-0.006583597
152	0x3b467e0d	0.0030287534
153	0x3cab38cb	0.020901104
154	0x3b32afa4	0.0027265335
155	0xbc7834eb	-0.015149335
156	0xbc2186ee	-0.00985883
157	0x3bd5a3a0	0.0065197498
158	0xba7f6418	-0.0009742393
159	0xbbfd0af8	-0.007722255
160	0x3c070abe	0.008242307
161	0xbc608955	-0.0137046175
162	0xbb021223	-0.0019847236
163	0x3c6344cf	0.013871386
164	0xbc4c5d34	-0.012473393
165	0x3cdc505d	0.026893789
166	0xbc872d74	-0.016501166
167	0xba9f1e2f	-0.0012139733
168	0xbb6a7fbb	-0.00357817
169	0x3c51a775	0.0127962725
170	0x3ca344e1	0.019930305
171	0xbb810967	-0.0039378884
172	0xbc885bb2	-0.016645286
173	0x3c030d09	0.007998713
174	0xbb3149ab	-0.0027051966
175	0xbbc0ae6b	-0.0058801672
176	0x3cc90ced	0.024542296
177	0xbc88f3b2	-0.016717765
178	0x3ce8dd3b	0.028425803
179	0xbca3e24a	-0.020005364
180	0x3a43a9bb	0.00074639515
181	0x3c5a5498	0.013325833
182	0xbbfd5975	-0.0077316114
183	0xbb4472d3	-0.0029975667
184	0x3c7f5d62	0.015586229
185	0xbb0e6c91	-0.002173219
186	0xbbf72108	-0.0075417794
187	0x3ca709f2	0.020390484
188	0x3969b822	0.00022289206
189	0x3af59c07	0.0018738516
190	0x3b8601ba	0.0040895613
191	0x3bc8d308	0.0061286725
192	0x3b58e2c5	0.003309415
193	0xbb87e8bb	-0.0041476167
194	0xbb41a7fa	-0.0029549585
195	0xb91aa077	-0.00014746362
196	0x3bce37f5	0.0062932917
197	0xbba8d3b9	-0.0051521924
198	0xbc6062ff	-0.0136954775
199	0x3c1b1c1b	0.00946715
200	0x3b1cf298	0.0023948308
201	0x3c1beb43	0.00951654
202	0x3be73cfa	0.0070568295
203	0xbc300301	-0.010742904
204	0xbb32d775	-0.0027289067
205	0xbc843391	-0.01613787
206	0x3c844d36	0.016150098
207	0x3b2b1aee	0.002610858
208	0xba804b2f	-0.0009788031
209	0xba738ced	-0.0009290714
210	0x3a87cdd2	0.0010361022
211	0xbc1238c0	-0.008924663
212	0xbc8c8e57	-0.017157717
213	0x3bad036b	0.0052799485
214	0xbcbd1e77	-0.023085816
215	0x3b98bbfe	0.0046610823
216	0x3becb982	0.0072242627
217	0x3c91b57b	0.017786732
218	0xbbedd200	-0.0072577
219	0xbc4e7ed2	-0.0126034785
220	0x3c72a42d	0.01480965
221	0xbc815c9f	-0.015791235
222	0x3be80f92	0.0070819343
223	0x3adddadb	0.0016926186
224	0xbc1038e7	-0.008802629
225	0xbb1d760f	-0.0024026667
226	0x3bc941fb	0.0061418987
227	0x3ca9e5f0	0.020739526
228	0x3c80f7db	0.015743187
229	0x3cd64462	0.026155654
230	0xbc75033a	-0.014954383
231	0xbbaf17d5	-0.005343417
232	0xbc8b9452	-0.017038498
233	0x3bb89e36	0.0056340946
234	0x3b3fd5a9	0.0029271638
235	0x3a03f70f	0.0005034068
236	0xbac19437	-0.0014768903
237	0x3bbb7218	0.005720388
238	0x3c1b6dce	0.009486629
239	0x3ba211c1	0.004945964
240	0x3b3bb298	0.0028640386
241	0xbc118273	-0.008881199
242	0xbbe99f87	-0.007129613
243	0xbc1fc579	-0.009751671
244	0xbc6db3c8	-0.014508195
245	0xb8f60640	-0.00011731358
246	0x3b894f23	0.004190342
247	0x3c6c392b	0.014417927
248	0xbc91c1eb	-0.017792663
249	0xbb8a1478	-0.004213866
250	0xbc70da97	-0.014700553
251	0xbca778c5	-0.02044333
252	0xbc2940f3	-0.0103304265
253	0xbc03d25f	-0.008045762
254	0x3bc8ab3e	0.0061239293
255	0x3cce5f43	0.025191909

action_model._continuous_distribution.mu.bias f4 [2]
0	0x00000000	0.0
1	0x00000000	0.0

network_body.observation_encoder.processors.0.normalizer.running_mean f4 [35]
0	0x00000000	0.0
1	0x3db9f460	0.09079814
2	0x3f38c472	0.7217475
3	0x3e3fb404	0.18721014
4	0x3ea7f7c2	0.32806212
5	0x00000000	0.0
6	0x3d87f781	0.066390045
7	0x3f4b534c	0.79423976
8	0x3e0e7718	0.13912618
9	0x3ea7b6e2	0.32756716
10	0x00000000	0.0
11	0x3d74f0b1	0.059799854
12	0x3f49f361	0.7888699
13	0x3e1ab654	0.15108615
14	0x3eae1952	0.34003693
15	0x00000000	0.0
16	0x3d9c7639	0.07639737
17	0x3f36e491	0.71442515
18	0x3e55f2a0	0.20893335
19	0x3ec96de7	0.3934166
20	0x00000000	0.0
21	0x3d28f570	0.041249692
22	0x3f5512af	0.83231634
23	0x3e0137eb	0.12618987
24	0x3eaf9812	0.34295708
25	0x00000000	0.0
26	0x3d92f6d1	0.07175983
27	0x3f25f5a0	0.6482792
28	0x3e8f370d	0.27971688
29	0x3ef7972c	0.48357522
30	0x00000000	0.0
31	0x3d03f7bf	0.03221869
32	0x3f60c1f4	0.8779595
33	0x3db77489	0.08957774
34	0x3eaf98ca	0.34296256

network_body.observation_encoder.processors.0.normalizer.running_variance f4 [35]
0	0x3f800000	1.0
1	0x43a99c90	339.22314
2	0x444df2b4	823.79224
3	0x441c1a3b	624.40985
4	0x4413067d	588.1014
5	0x3f800000	1.0
6	0x437ef11b	254.94182
7	0x4427a2d3	670.5441
8	0x43f5d95c	491.69812
9	0x44044dc7	529.2153
10	0x3f800000	1.0
11	0x4367595b	231.34904
12	0x442ad7d6	683.37244
13	0x44039e92	526.47766
14	0x440fd825	575.37726
15	0x3f800000	1.0
16	0x43910b39	290.08768
17	0x44513829	836.8775
18	0x442989ca	678.15295
19	0x4419eca0	615.69727
20	0x3f800000	1.0
21	0x43230760	163.02881
22	0x440f334a	572.8014
23	0x43e26142	452.75983
24	0x4400f0d4	515.76294
25	0x3f800000	1.0
26	0x4388f389	273.90262
27	0x4469cae8	935.1704
28	0x444e9c75	826.44464
29	0x442834c0	672.8242
30	0x3f800000	1.0
31	0x4300bf42	128.7471
32	0x43dbfd67	439.9797
33	0x43a79000	335.125
34	0x43d6a867	429.31564

network_body.observation_encoder.processors.1.normalizer.running_mean f4 [4]
0	0x3e9507b7	0.29107448
1	0x4099f86b	4.8115745
2	0x3eebc886	0.46051425
3	0x43bb426a	374.51886

network_body.observation_encoder.processors.1.normalizer.running_variance f4 [4]
0	0x44f2247d	1937.1403
1	0x475366c5	54118.77
2	0x4510521b	2309.1316
3	0x4cf80a88	1.3004499e+08

network_body.processors.0.normalizer.running_mean f4 [35]
0	0x00000000	0.0
1	0x3db9f460	0.09079814
2	0x3f38c472	0.7217475
3	0x3e3fb404	0.18721014
4	0x3ea7f7c2	0.32806212
5	0x00000000	0.0
6	0x3d87f781	0.066390045
7	0x3f4b534c	0.79423976
8	0x3e0e7718	0.13912618
9	0x3ea7b6e2	0.32756716
10	0x00000000	0.0
11	0x3d74f0b1	0.059799854
12	0x3f49f361	0.7888699
13	0x3e1ab654	0.15108615
14	0x3eae1952	0.34003693
15	0x00000000	0.0
16	0x3d9c7639	0.07639737
17	0x3f36e491	0.71442515
18	0x3e55f2a0	0.20893335
19	0x3ec96de7	0.3934166
20	0x00000000	0.0
21	0x3d28f570	0.041249692
22	0x3f5512af	0.83231634
23	0x3e0137eb	0.12618987
24	0x3eaf9812	0.34295708
25	0x00000000	0.0
26	0x3d92f6d1	0.07175983
27	0x3f25f5a0	0.6482792
28	0x3e8f370d	0.27971688
29	0x3ef7972c	0.48357522
30	0x00000000	0.0
31	0x3d03f7bf	0.03221869
32	0x3f60c1f4	0.8779595
33	0x3db77489	0.08957774
34	0x3eaf98ca	0.34296256

network_body.processors.0.normalizer.running_variance f4 [35]
0	0x3f800000	1.0
1	0x43a99c90	339.22314
2	0x444df2b4	823.79224
3	0x441c1a3b	624.40985
4	0x4413067d	588.1014
5	0x3f800000	1.0
6	0x437ef11b	254.94182
7	0x4427a2d3	670.5441
8	0x43f5d95c	491.69812
9	0x44044dc7	529.2153
10	0x3f800000	1.0
11	0x4367595b	231.34904
12	0x442ad7d6	683.37244
13	0x44039e92	526.47766
14	0x440fd825	575.37726
15	0x3f800000	1.0
16	0x43910b39	290.08768
17	0x44513829	836.8775
18	0x442989ca	678.15295
19	0x4419eca0	615.69727
20	0x3f800000	1.0
21	0x43230760	163.02881
22	0x440f334a	572.8014
23	0x43e26142	452.75983
24	0x4400f0d4	515.76294
25	0x3f800000	1.0
26	0x4388f389	273.90262
27	0x4469cae8	935.1704
28	0x444e9c75	826.44464
29	0x442834c0	672.8242
30	0x3f800000	1.0
31	0x4300bf42	128.7471
32	0x43dbfd67	439.9797
33	0x43a79000	335.125
34	0x43d6a867	429.31564

network_body.processors.1.normalizer.running_mean f4 [4]
0	0x3e9507b7	0.29107448
1	0x4099f86b	4.8115745
2	0x3eebc886	0.46051425
3	0x43bb426a	374.51886

network_body.processors.1.normalizer.running_variance f4 [4]
0	0x44f2247d	1937.1403
1	0x475366c5	54118.77
2	0x4510521b	2309.1316
3	0x4cf80a88	1.3004499e+08

network_body._body_endoder.seq_layers.0.weight f4 [256, 39]
0	0xbebe1825	-0.37127796
1	0xbc617155	-0.013759931
2	0xbea4b4d2	-0.32169205
3	0x3e4bcb4e	0.19901773
4	0xbe45cea0	-0.19317102
5	0x3e1ca348	0.15296662
6	0x3dd78f88	0.10525423
7	0x3e3fa6c1	0.18715955
8	0xbe85e1c2	-0.26148802
9	0xbc698881	-0.0142537365
10	0xbde96bfc	-0.113975495
11	0x3e967dfe	0.29393
12	0x3e2d00b5	0.16894801
13	0xbd227e71	-0.039671365
14	0xbda2d6d6	-0.07951133
15	0xbe925a3e	-0.28584474
16	0x3cfab700	0.03060484
17	0xbe5411a3	-0.20709853
18	0xbcea28f5	-0.028583983
19	0xbaec87f9	-0.0018045894
20	0x3e1f5063	0.15558009
21	0xbe810d0e	-0.25205272
22	0x3ea01b19	0.31270674
23	0x3e1f3c4c	0.15550345
24	0xbdc31e41	-0.09527255
25	0xbd74b113	-0.059739184
26	0x3dd853f6	0.10562889
27	0xbda8772b	-0.082258545
28	0x3c0b1d8b	0.00849093
29	0x3ef98b36	0.48739022
30	0xbc4d61a6	-0.012535488
31	0x3c44adb3	0.012004304
32	0xbe31d78b	-0.1736738
33	0xbd0a5eac	-0.033781692
34	0x3e36e832	0.17862013
35	0x3c3a37f6	0.011365881
36	0xbdc4c2e8	-0.09607488
37	0xbe1df6ac	-0.15426129
38	0x3c112d08	0.008860834
39	0x3e618c0c	0.2202608
40	0x3e08f5b8	0.13374984
41	0x3da64c17	0.08119982
42	0x3dafe99d	0.0858948
43	0xbdb50f85	-0.08840851
44	0xbcbb2a32	-0.022847269
45	0x3e05a6a7	0.13051854
46	0x3cf67eeb	0.030089816
47	0xbe9b1550	-0.30289698
48	0xbe334e9b	-0.17510454
49	0xbde24702	-0.110487
50	0x3e661182	0.22467616
51	0x3e93e1d2	0.28883225
52	0xbd369f6b	-0.044585627
53	0x3d5b077c	0.053473935
54	0x3e3c9ec1	0.18419935
55	0xbe574082	-0.21020702
56	0xbd19d1a3	-0.03755344
57	0x3e9ecf15	0.31017366
58	0xbdd617e4	-0.104537755
59	0x3e69a3fa	0.22816458
60	0x3d838361	0.06421543
61	0x3e207174	0.15668279
62	0xbde880a2	-0.1135266
63	0x3e34649f	0.17616509
64	0x3d800cf1	0.062524684
65	0xbde4feb0	-0.1118139
66	0xbe8c2d8b	-0.27378497
67	0x3e807b72	0.2509418
68	0xbd61ec93	-0.055157255
69	0x3ddbde69	0.10735781
70	0xbe967eda	-0.29393655
71	0xbddf3988	-0.10899645
72	0xbda19df5	-0.07891456
73	0xbdf3dfcc	-0.1190792
74	0x3d1b4bb8	0.037914008
75	0x3e844c3f	0.2583942
76	0xbece1c1c	-0.4025582
77	0xbddda3d9	-0.10822267
78	0x3dd5f335	0.10446779
79	0x3e4a8690	0.19777894
80	0x3d4c6be5	0.049907584
81	0x3cc45cc4	0.023970015
82	0xbe79b97f	-0.24387167
83	0x3d8c4079	0.06848235
84	0x3d546bd5	0.05186065
85	0xbd8931db	-0.06698962
86	0x3e0b3eb0	0.13598132
87	0xbe289f5f	-0.16467045
88	0xbdb1aaf2	-0.08675183
89	0xbd7f0994	-0.062264994
90	0x3e7c2774	0.24624425
91	0x3e48c9e3	0.19608264
92	0xbec2887e	-0.3799476
93	0x3d4d9cc2	0.050198324
94	0x3ea375a5	0.31925693
95	0x3d08dc97	0.033413496
96	0xbd216eaa	-0.039412178
97	0x3e2893d9	0.1646265
98	0xbc85434c	-0.016267441
99	0x3d3ac66e	0.045599394
100	0x3ed277a6	0.4110691
101	0x3e8067ae	0.250791
102	0x3dae8c01	0.085227974
103	0xbd9de612	-0.07709898
104	0xbe71b986	-0.23605928
105	0x3af47699	0.0018651068
106	0xbda3be67	-0.07995301
107	0xbcbc6550	-0.022997528
108	0x3e0e505c	0.13897842
109	0xbe236f90	-0.15960526
110	0xbc83410b	-0.016022226
111	0xbd5d5744	-0.0540383
112	0xbeaaebac	-0.33382928
113	0x3a8ad9d0	0.0010593478
114	0xbdcffe5f	-0.10155939
115	0x3dbf622a	0.09344895
116	0xbdd72b00	-0.105062485
117	0xbd9a867c	-0.07545182
118	0xbd5be43b	-0.053684454
119	0xbe5f4bef	-0.2180631
120	0x3e375af3	0.17905788
121	0x3e83d7b3	0.25750503
122	0xbd45475e	-0.048163764
123	0xbd83ec84	-0.06441596
124	0x3d14aa81	0.036295418
125	0x3e292cde	0.16521022
126	0xbee23b3d	-0.4418582
127	0x3dd626fa	0.10456653
128	0xbe03d4d1	-0.12874152
129	0xbe92bc68	-0.28659368
130	0xbd43b097	-0.04777583
131	0xbd241e5e	-0.040068023
132	0x3d6c9620	0.057760358
133	0x3df50675	0.11964122
134	0xbd4371ca	-0.04771594
135	0x3e20a695	0.15688546
136	0xbef956eb	-0.48699126
137	0xbe760ee6	-0.24029121
138	0x3e98527e	0.29750437
139	0x3e22c1fc	0.15894312
140	0x3e9bc1a1	0.30421165
141	0xbd9bc38e	-0.076056585
142	0xbd01f32b	-0.031726044
143	0xbcac4b3c	-0.021031968
144	0x3c12a8c6	0.008951372
145	0x3e8a4cc7	0.270117
146	0x3c069a3b	0.008215482
147	0x3d6daee9	0.058028135
148	0x3e4cdc7a	0.2000598
149	0x3da69ced	0.081354
150	0xbe36861c	-0.17824596
151	0x3dcad863	0.09904554
152	0x3e801b96	0.25021046
153	0x3e3cbb90	0.18430924
154	0x3d4e52d9	0.05037198
155	0xbd5633a0	-0.052295327
156	0xbe41f1ea	-0.18939939
157	0xbd8cd062	-0.06875683
158	0x3d9e6115	0.07733361
159	0x3dd61ee3	0.1045511
160	0x3ca3282b	0.019916615
161	0xbe72bc70	-0.23704696
162	0xbeb3f6a4	-0.3514911
163	0x3da4a8a9	0.08039982
164	0x3d9c7d66	0.07641105
165	0x3e6f448e	0.23365995
166	0x3e163794	0.14669639
167	0xbbfdaa1c	-0.007741226
168	0xbe87c920	-0.26520634
169	0xbbe60b52	-0.0070203925
170	0x3d967bf8	0.07347864
171	0xbdc1702b	-0.094452225
172	0x3c4c7d6e	0.012481077
173	0xbd7654fb	-0.060139637
174	0xbdb12ffe	-0.08651732
175	0x3d37878f	0.044807013
176	0x3e06eb96	0.13175806
177	0xbc92e8c8	-0.017933264
178	0xbd5b5d3a	-0.053555705
179	0xbd7a306d	-0.06108134
180	0xbe16993a	-0.14706889
181	0x3bffc7cd	0.0078058005
182	0x3e18b91e	0.14914367
183	0x3e4a1f00	0.19738388
184	0x3d756f9a	0.059920885
185	0xbcdc5216	-0.02689461
186	0xb914f86f	-0.00014206929
187	0x3e900c1f	0.28134248
188	0x3db03d25	0.086054124
189	0xbd8b5751	-0.06803764
190	0xbd7e4550	-0.06207782
191	0x3b68c060	0.0035515055
192	0x3daaecea	0.08345969
193	0x3da60e63	0.08108213
194	0x3d1d9da3	0.038480412
195	0xbdce58a6	-0.10075502
196	0xbcd07340	-0.02544558
197	0x3e2a6ca4	0.16643006
198	0xbd21dcc4	-0.03951718
199	0xbe904d3b	-0.28183922
200	0x3cf3ac02	0.029745106
201	0xbd810d04	-0.06301311
202	0x3e37abb4	0.17936593
203	0x3e905286	0.2818796
204	0xbde18923	-0.11012485
205	0x3c82282a	0.015888292
206	0x3cdd2f0d	0.026999975
207	0xbd24eea5	-0.04026665
208	0xbe754ac7	-0.23954307
209	0x3b65c0f7	0.0035057643
210	0x3e59718a	0.21234718
211	0xbe69dd63	-0.22838359
212	0xbdab14b4	-0.08353558
213	0xbe7d6def	-0.24748968
214	0x3e45b111	0.19305827
215	0xbd3686bd	-0.04456209
216	0x3b128fe4	0.0022363598
217	0x3e1871e3	0.14887194
218	0x3c9dcf20	0.019263804
219	0x3b86964c	0.0041072723
220	0xbc21301a	-0.009838128
221	0xbd906abc	-0.07051608
222	0x3c983545	0.018580088
223	0xbb5c75d9	-0.0033639579
224	0xbe359171	-0.17731263
225	0x3e1c1b99	0.15244903
226	0xbd8d899d	-0.06911013
227	0x3deed22d	0.116611816
228	0x3e1acc79	0.15117063
229	0xbe49c0f4	-0.19702512
230	0x3df99e4e	0.12188397
231	0x3cac3c76	0.021024924
232	0xbd8aa022	-0.06768824
233	0xbcaa58ab	-0.020794233
234	0xbdbbca1f	-0.09169411
235	0x3da4c2e0	0.08044982
236	0x3e280156	0.1640676
237	0x3ec2a489	0.38016155
238	0x3e2d7418	0.16938818
239	0x3dd018fd	0.10161016
240	0x3e465b76	0.19370827
241	0xbd3ac0f8	-0.045594186
242	0xbd327cbd	-0.04357599
243	0xbc15c782	-0.009141805
244	0xbda221e2	-0.07916619
245	0xbd4fa556	-0.050694786
246	0x3e2ad1f7	0.16681658
247	0xbea0e776	-0.3142659
248	0xbdfbd35b	-0.12296172
249	0xbe937b9f	-0.28805253
250	0x3e9591cd	0.292128
251	0xbe5c1442	-0.21492103
252	0x3e32491f	0.17410706
253	0x3ce1663a	0.027514566
254	0x3e52263d	0.20522399
255	0x3e67a9e7	0.22623406

network_body._body_endoder.seq_layers.0.bias f4 [256]
0	0x00000000	0.0
1	0x00000000	0.0
2	0x00000000	0.0
3	0x00000000	0.0
4	0x00000000	0.0
5	0x00000000	0.0
6	0x00000000	0.0
7	0x00000000	0.0
8	0x00000000	0.0
9	0x00000000	0.0
10	0x00000000	0.0
11	0x00000000	0.0
12	0x00000000	0.0
13	0x00000000	0.0
14	0x00000000	0.0
15	0x00000000	0.0
16	0x00000000	0.0
17	0x00000000	0.0
18	0x00000000	0.0
19	0x00000000	0.0
20	0x00000000	0.0
21	0x00000000	0.0
22	0x00000000	0.0
23	0x00000000	0.0
24	0x00000000	0.0
25	0x00000000	0.0
26	0x00000000	0.0
27	0x00000000	0.0
28	0x00000000	0.0
29	0x00000000	0.0
30	0x00000000	0.0
31	0x00000000	0.0
32	0x00000000	0.0
33	0x00000000	0.0
34	0x00000000	0.0
35	0x00000000	0.0
36	0x00000000	0.0
37	0x00000000	0.0
38	0x00000000	0.0
39	0x00000000	0.0
40	0x00000000	0.0
41	0x00000000	0.0
42	0x00000000	0.0
43	0x00000000	0.0
44	0x00000000	0.0
45	0x00000000	0.0
46	0x00000000	0.0
47	0x00000000	0.0
48	0x00000000	0.0
49	0x00000000	0.0
50	0x00000000	0.0
51	0x00000000	0.0
52	0x00000000	0.0
53	0x00000000	0.0
54	0x00000000	0.0
55	0x00000000	0.0
56	0x00000000	0.0
57	0x00000000	0.0
58	0x00000000	0.0
59	0x00000000	0.0
60	0x00000000	0.0
61	0x00000000	0.0
62	0x00000000	0.0
63	0x00000000	0.0
64	0x00000000	0.0
65	0x00000000	0.0
66	0x00000000	0.0
67	0x00000000	0.0
68	0x00000000	0.0
69	0x00000000	0.0
70	0x00000000	0.0
71	0x00000000	0.0
72	0x00000000	0.0
73	0x00000000	0.0
74	0x00000000	0.0
75	0x00000000	0.0
76	0x00000000	0.0
77	0x00000000	0.0
78	0x00000000	0.0
79	0x00000000	0.0
80	0x00000000	0.0
81	0x00000000	0.0
82	0x00000000	0.0
83	0x00000000	0.0
84	0x00000000	0.0
85	0x00000000	0.0
86	0x00000000	0.0
87	0x00000000	0.0
88	0x00000000	0.0
89	0x00000000	0.0
90	0x00000000	0.0
91	0x00000000	0.0
92	0x00000000	0.0
93	0x00000000	0.0
94	0x00000000	0.0
95	0x00000000	0.0
96	0x00000000	0.0
97	0x00000000	0.0
98	0x00000000	0.0
99	0x00000000	0.0
100	0x00000000	0.0
101	0x00000000	0.0
102	0x00000000	0.0
103	0x00000000	0.0
104	0x00000000	0.0
105	0x00000000	0.0
106	0x00000000	0.0
107	0x00000000	0.0
108	0x00000000	0.0
109	0x00000000	0.0
110	0x00000000	0.0
111	0x00000000	0.0
112	0x00000000	0.0
113	0x00000000	0.0
114	0x00000000	0.0
115	0x00000000	0.0
116	0x00000000	0.0
117	0x00000000	0.0
118	0x00000000	0.0
119	0x00000000	0.0
120	0x00000000	0.0
121	0x00000000	0.0
122	0x00000000	0.0
123	0x00000000	0.0
124	0x00000000	0.0
125	0x00000000	0.0
126	0x00000000	0.0
127	0x00000000	0.0
128	0x00000000	0.0
129	0x00000000	0.0
130	0x00000000	0.0
131	0x00000000	0.0
132	0x00000000	0.0
133	0x00000000	0.0
134	0x00000000	0.0
135	0x00000000	0.0
136	0x00000000	0.0
137	0x00000000	0.0
138	0x00000000	0.0
139	0x00000000	0.0
140	0x00000000	0.0
141	0x00000000	0.0
142	0x00000000	0.0
143	0x00000000	0.0
144	0x00000000	0.0
145	0x00000000	0.0
146	0x00000000	0.0
147	0x00000000	0.0
148	0x00000000	0.0
149	0x00000000	0.0
150	0x00000000	0.0
151	0x00000000	0.0
152	0x00000000	0.0
153	0x00000000	0.0
154	0x00000000	0.0
155	0x00000000	0.0
156	0x00000000	0.0
157	0x00000000	0.0
158	0x00000000	0.0
159	0x00000000	0.0
160	0x00000000	0.0
161	0x00000000	0.0
162	0x00000000	0.0
163	0x00000000	0.0
164	0x00000000	0.0
165	0x00000000	0.0
166	0x00000000	0.0
167	0x00000000	0.0
168	0x00000000	0.0
169	0x00000000	0.0
170	0x00000000	0.0
171	0x00000000	0.0
172	0x00000000	0.0
173	0x00000000	0.0
174	0x00000000	0.0
175	0x00000000	0.0
176	0x00000000	0.0
177	0x00000000	0.0
178	0x00000000	0.0
179	0x00000000	0.0
180	0x00000000	0.0
181	0x00000000	0.0
182	0x00000000	0.0
183	0x00000000	0.0
184	0x00000000	0.0
185	0x00000000	0.0
186	0x00000000	0.0
187	0x00000000	0.0
188	0x00000000	0.0
189	0x00000000	0.0
190	0x00000000	0.0
191	0x00000000	0.0
192	0x00000000	0.0
193	0x00000000	0.0
194	0x00000000	0.0
195	0x00000000	0.0
196	0x00000000	0.0
197	0x00000000	0.0
198	0x00000000	0.0
199	0x00000000	0.0
200	0x00000000	0.0
201	0x00000000	0.0
202	0x00000000	0.0
203	0x00000000	0.0
204	0x00000000	0.0
205	0x00000000	0.0
206	0x00000000	0.0
207	0x00000000	0.0
208	0x00000000	0.0
209	0x00000000	0.0
210	0x00000000	0.0
211	0x00000000	0.0
212	0x00000000	0.0
213	0x00000000	0.0
214	0x00000000	0.0
215	0x00000000	0.0
216	0x00000000	0.0
217	0x00000000	0.0
218	0x00000000	0.0
219	0x00000000	0.0
220	0x00000000	0.0
221	0x00000000	0.0
222	0x00000000	0.0
223	0x00000000	0.0
224	0x00000000	0.0
225	0x00000000	0.0
226	0x00000000	0.0
227	0x00000000	0.0
228	0x00000000	0.0
229	0x00000000	0.0
230	0x00000000	0.0
231	0x00000000	0.0
232	0x00000000	0.0
233	0x00000000	0.0
234	0x00000000	0.0
235	0x00000000	0.0
236	0x00000000	0.0
237	0x00000000	0.0
238	0x00000000	0.0
239	0x00000000	0.0
240	0x00000000	0.0
241	0x00000000	0.0
242	0x00000000	0.0
243	0x00000000	0.0
244	0x00000000	0.0
245	0x00000000	0.0
246	0x00000000	0.0
247	0x00000000	0.0
248	0x00000000	0.0
249	0x00000000	0.0
250	0x00000000	0.0
251	0x00000000	0.0
252	0x00000000	0.0
253	0x00000000	0.0
254	0x00000000	0.0
255	0x00000000	0.0

value_heads.value_heads.extrinsic.weight f4 [1, 256]
0	0xbce8e6a8	-0.028430298
1	0x3e117115	0.14203294
2	0xbde20584	-0.11036208
3	0x3d86ac64	0.0657585
4	0x3ccc5020	0.02494055
5	0x3e0111c7	0.12604438
6	0xbd11b3d4	-0.035571888
7	0x3d3ee53c	0.046605334
8	0xbdfdb810	-0.12388623
9	0x3df9fed2	0.12206806
10	0xbc344120	-0.011001855
11	0x3e17f083	0.14837842
12	0xbe13bcea	-0.14427534
13	0x3bcf61e0	0.0063288063
14	0x3e0e6971	0.1390741
15	0xbd98fab8	-0.07469696
16	0xbe024346	-0.12720975
17	0x3e153a39	0.14572991
18	0xbd92b7ba	-0.07163949
19	0xbe013806	-0.12619027
20	0x3dd9d306	0.10635953
21	0x3d953f20	0.07287431
22	0xbcd22a58	-0.025654957
23	0xbd965e20	-0.07342172
24	0x3d301928	0.04299274
25	0x3e15ea4b	0.14640157
26	0xbdcec17c	-0.10095498
27	0xbdee92ac	-0.11649069
28	0xbc66a030	-0.014076278
29	0xbd2ad04c	-0.041702554
30	0x3dee9896	0.11650197
31	0x3dc7076c	0.097182125
32	0xbdbde65e	-0.09272455
33	0xba1c1f00	-0.0005955547
34	0x3dd007ae	0.10157715
35	0x3d6b7ac4	0.057490125
36	0x3dfd5682	0.12370016
37	0xbe199bd2	-0.15000847
38	0xbd18b8a4	-0.037285462
39	0x3c752760	0.014963001
40	0x3dd30502	0.103036895
41	0xbd4f3af2	-0.050593324
42	0xbe0f7fb1	-0.14013554
43	0x3d809358	0.062781036
44	0x3cda2ff8	0.026634201
45	0x3dd48572	0.10377015
46	0xbdb3192b	-0.08745035
47	0x3ab12000	0.0013513565
48	0xbdd8fb64	-0.10594824
49	0x3c47b560	0.012189239
50	0xbd770b5e	-0.060313575
51	0xbdf38401	-0.11890412
52	0x3c527580	0.012845397
53	0xbe13a755	-0.14419301
54	0x3e17e087	0.14831744
55	0x3dbb838a	0.091559485
56	0x3d5bcc5c	0.05366169
57	0x3deba85a	0.1150672
58	0x3e180789	0.14846624
59	0x3dd7ce52	0.10537399
60	0xbd9e0108	-0.077150404
61	0xbd6ae236	-0.057344638
62	0x3d13e96c	0.03611128
63	0x3dae0710	0.08497441
64	0xbd6c3d1c	-0.057675466
65	0x3bb55e60	0.005534932
66	0x3db2f752	0.08738579
67	0x3d2aae20	0.041669965
68	0x3d83f2fc	0.0644283
69	0x3dc72d76	0.09725468
70	0x3d5c9454	0.053852394
71	0x3dfb8212	0.12280668
72	0x3caab638	0.020838842
73	0xbc158110	-0.009125009
74	0xbe1969db	-0.14981787
75	0xbd7fd5e8	-0.062459856
76	0xbc4a9c60	-0.012366384
77	0x3d96103c	0.07327315
78	0xbdbbfc70	-0.09179008
79	0x3db9ea3e	0.09077881
80	0xbe15ab77	-0.1461619
81	0x3dea8fa2	0.11453177
82	0xbddf61e6	-0.109073445
83	0x3cbb2a10	0.022847205
84	0xbe0d07ad	-0.1377246
85	0xbe0efdaa	-0.13963953
86	0xbcca8be0	-0.0247249
87	0xbc9055c0	-0.017619014
88	0x3df49e5e	0.11944269
89	0x3c63d300	0.013905287
90	0xbd89d402	-0.067298904
91	0xbd5a07a0	-0.053229928
92	0x3d290fa4	0.04127468
93	0xbb892fe0	-0.0041866153
94	0x3cdf4dd8	0.027258798
95	0xbdd06bee	-0.10176836
96	0x3d81126e	0.06302343
97	0x3d84cc38	0.06484264
98	0x3e0da67d	0.13833041
99	0x3c71e310	0.014763609
100	0xbd63eee4	-0.055647746
101	0x3d967c9c	0.07347986
102	0x3da8fa2a	0.0825084
103	0xbe02b37f	-0.12763785
104	0x3deaba5a	0.11461325
105	0x3dd35852	0.1031958
106	0x3c87db30	0.016584009
107	0xbdddcf2a	-0.10830529
108	0x3d56f5e8	0.05248061
109	0xbdecb9be	-0.11558865
110	0xbe18bae9	-0.1491505
111	0xbddf54e4	-0.109048635
112	0x3dff0cde	0.12453626
113	0x3dfac6d6	0.12244956
114	0x3d155910	0.03646189
115	0x3e1bdb35	0.1522034
116	0xbd1a3dde	-0.037656657
117	0x3d8b2446	0.06794028
118	0x3d69e858	0.057106346
119	0x3e03a8f3	0.12857418
120	0x3df39756	0.118940994
121	0xbc645240	-0.013935626
122	0x3dbb256a	0.091379955
123	0x3d62de08	0.055387527
124	0x3e04ab2b	0.1295592
125	0xbdd479dd	-0.10374806
126	0xbe06cb2b	-0.1316344
127	0x3d3969cc	0.04526691
128	0x3d5e5f2c	0.05428998
129	0xbda44aed	-0.080221035
130	0xbdd90fb6	-0.105987
131	0x3d37dfa4	0.044891015
132	0xbe066cea	-0.13127485
133	0x3e0b5123	0.1360517
134	0x3cfc1da8	0.03077586
135	0x3dbd0e32	0.09231223
136	0xbd1397ac	-0.036033317
137	0xbd1d6426	-0.038425587
138	0x3da59a02	0.08086015
139	0xbcca13f0	-0.02466771
140	0xbdac639a	-0.08417435
141	0x3cbd84a8	0.023134544
142	0xbddd9986	-0.10820298
143	0xbe160e7f	-0.14653967
144	0xbca6db60	-0.020368278
145	0x3dc1b66e	0.09458624
146	0xbd95dcd2	-0.07317509
147	0x3d3d2dc4	0.046186224
148	0x3d44d3c0	0.048053503
149	0x3c503550	0.012708023
150	0xbd919031	-0.071075805
151	0xbd579bce	-0.05263882
152	0xbd713226	-0.058885716
153	0xbc8f01f0	-0.017456979
154	0x3dd6b256	0.10483234
155	0x3c9e9c78	0.01936172
156	0xbe0b3d28	-0.13597548
157	0xbe1208ea	-0.14261213
158	0xbc05e410	-0.00817205
159	0x3d2e379c	0.042533502
160	0xbcf94d04	-0.030432232
161	0x3d2a45ac	0.04157035
162	0xbcda7980	-0.026669264
163	0x3d67cb90	0.056590617
164	0xbd0f513e	-0.034989588
165	0x3df591b6	0.11990683
166	0x3c8fcb38	0.017552957
167	0x3db9a5f8	0.09064859
168	0xbdc20b08	-0.0947476
169	0x3df91cc2	0.12163688
170	0xbd902a82	-0.07039358
171	0x3c00e750	0.007867649
172	0x3e13feb9	0.14452638
173	0x3cec3e18	0.028838202
174	0x3cdf3790	0.027248174
175	0xbb9550c0	-0.0045567453
176	0x3de31dce	0.11089669
177	0x3c9bc748	0.019015923
178	0xbdba0a16	-0.09083955
179	0x3dd2ad86	0.10287003
180	0x3d9c1b72	0.07622422
181	0xbcfb3754	-0.030666031
182	0xbda616e1	-0.081098326
183	0xbcaf57d8	-0.021404192
184	0xbd290284	-0.041262165
185	0xbd09853e	-0.033574335
186	0x3c8cb268	0.017174914
187	0xbcd4bdc8	-0.025969401
188	0xbd749bc0	-0.059718847
189	0x3dae7268	0.08517915
190	0x3db5236e	0.08844648
191	0xbd77f350	-0.060534775
192	0x3e0b9fa7	0.13635121
193	0x3d6df5a8	0.058095604
194	0xbd40be72	-0.047056623
195	0x3d7e343c	0.062061533
196	0x3d82fa92	0.06395449
197	0x3b31e5c0	0.0027144998
198	0x3d676d04	0.05650045
199	0xbda56023	-0.08074977
200	0x3db66c1a	0.089073375
201	0x3caba200	0.020951271
202	0xba411100	-0.0007364899
203	0x3d78e150	0.06076175
204	0xbd5b66f4	-0.05356498
205	0x3e10c99f	0.14139412
206	0xbcf9da44	-0.030499585
207	0xbd24b86a	-0.040214933
208	0xbdd4602a	-0.10369904
209	0x3d8ad444	0.06778768
210	0x3bf2e300	0.0074123144
211	0xbc6fcde0	-0.014636487
212	0x3e1adca5	0.15123232
213	0x3d63d72c	0.055625126
214	0xbddd61d8	-0.10809678
215	0x3e0c16b7	0.1368054
216	0x3e09a899	0.13443221
217	0xbe1a8b81	-0.15092279
218	0xbe07c507	-0.13258754
219	0x3d995446	0.07486777
220	0x3b9fea80	0.0048802495
221	0x3d003998	0.031304926
222	0x3d079784	0.03310348
223	0x3e02523b	0.12726681
224	0xbcc65c00	-0.02421379
225	0x3d925356	0.07144801
226	0x3d379250	0.04481727
227	0xbd89974d	-0.067183115
228	0xbdab9d5e	-0.08379625
229	0xbd1df946	-0.038567804
230	0x3df16a6a	0.11787875
231	0xbdad6a30	-0.08467519
232	0x3d143430	0.036182582
233	0xbda10435	-0.078621306
234	0xbd167b56	-0.036738716
235	0x3d826540	0.06366968
236	0x3dbcb624	0.09214428
237	0xbcad8858	-0.021183178
238	0xbd87252d	-0.065988876
239	0x3d86e458	0.06586522
240	0x3bb889c0	0.0056316555
241	0xbdb49e23	-0.08819225
242	0x3e1b8ae5	0.15189703
243	0xbdb71837	-0.089401655
244	0xbcc483d0	-0.023988634
245	0xbb1a2f80	-0.0023526847
246	0x3cb18318	0.021668956
247	0xbe01a2b6	-0.12659726
248	0x3d7bf3b8	0.061511725
249	0xbdc4713a	-0.09591909
250	0xbe133cc2	-0.14378646
251	0xbd74f9f8	-0.0598087
252	0x3da8237a	0.082098916
253	0xbdd48db0	-0.10378587
254	0x3d830a4c	0.06398448
255	0xbe030390	-0.12794328
