MLagents_test1/results/CarAgent_reinforcement_8/CarAgent/CarAgent-3999940.onnx (onnx, 108720 bytes, 7 tensors)

discrete_act_size_vector f4 [1, 2]
00000000: 0000 8040 0000 a040
4.0 5.0

network_body._body_endoder.seq_layers.0.weight f4 [512, 40]
00000000: 2b48 b83d 2fc4 6ebe b75d 8c3d 84a4 5b3d
00000010: 560a 28bd 86af 893d b697 ba3d 3dd0 8ebb
00000020: 9067 5ebe 5636 ffba 439c 92be da88 b03e
00000030: 0326 df3b ca2e 88be ca8d f9bc f59b 1b3c
00000040: c272 c8bd 1fba 3ebe a02e a53e 70fe c4bc
00000050: dfc5 9ebd 8def 58be 223d 93be f31b 3a3e
00000060: 61cd 4e3d ace3 003c de32 9a3d dbc7 0fbd
00000070: 9d07 f0bd 5d31 88be c08c 8a3c 6f99 8d3e
00000080: 6c81 dcbd ba65 0ebe 4e2f 4bbe 8dd8 423e
00000090: 492f cf3d 7e11 353c ce12 87bd c6d1 693e
000000a0: 6707 5fbe c101 53bd 2475 0abe 19a4 1ebf
000000b0: dc40 b0be 7478 e4bd 6a57 923e cdb9 f4bd
000000c0: 9993 bebe 0077 2ebf 95fe d1bd c628 12be
000000d0: fb67 9c3d 9c59 a4be 816b 41bf 4db1 2abe
000000e0: a0e7 d5be d465 5abe 85c6 4abe 9cc5 50bf
000000f0: e83e 513e 8c12 25bf 1d9d 55be ae62 2bbe
00000100: 181a 61be 77a9 833e 62f1 11be 407c 94be
00000110: 9520 74be c208 20bf 5f50 86bd 4307 01bf
00000120: c2e8 6cbe 15f1 833e 8f63 d8be 81fc b2be
00000130: 84c6 baba af02 073e 554b b8bb 685e edbe
00000140: 6bb8 9abd f1dd 7bbe 74d8 61be fbb8 aebd
00000150: da6f 6c3c c869 883d d9da 453e 00a7 20be
00000160: 5770 083d e038 4f3e 2f02 94bd 351f 9b3d
00000170: b669 193d 091c f1bd 0a7f cabe bb6c 743d
00000180: 077a 21be d7ef 4bbe 2475 b93d edfe 4ebe
00000190: 50ad 7bbe f0ef 1ebe 48ae 3cbd b88a b5bd
000001a0: 734b d4be 8c64 d43c 7efb bdbe 8d8d ebbd
000001b0: e872 7e3e f5b6 22be df80 92bd 54b7 a9be
000001c0: 91ab 87be 5194 99bd 529a 8abe 56be 473e
000001d0: cb26 1fbe 1e6a 6dbe 7a27 bebc 7248 5dbe
000001e0: ca3d a73e 198f c6be 7f27 8ebe 0e57 a1bd
000001f0: a600 09bf 98c0 e1bd 5ef1 2bbe 8ca5 0bbe
00000200: 1e03 cf3b bcc5 02bf e3ce 5bbb 4b31 34bf
00000210: 0464 d6bd b497 d13d dca0 3bbe 09ba 68bd
00000220: b2c1 8ebe c81e 4abe 6ee1 c3bd 8912 b5be
00000230: 9737 99bd 977a 72be 88f9 503e da7c 90be
00000240: 1ce3 62be c0be 7d3d 7cce 6fbe 1c00 2ebe
00000250: b058 74be b936 17bf 0daf 0fbd 5bea abbe
00000260: 02af 39be e04d 35bf 9d55 afbe 50a9 6bbd
00000270: 1489 a8bb 8fd2 b03e 8a49 cbbd 111f c9bd
00000280: 7503 edbd 77c0 833e 33c3 053e c005 38be
00000290: 1692 4cbd 6792 df3d 53d7 93bd ce20 1a3d
000002a0: 519d 50bc e464 fdbc a6eb 623e 497b 90be
000002b0: 971a 843e 713e 593e 0010 6dbe 36bf 223d
000002c0: 489f 973e 901f bdbe 3c27 73bc f16f 7dbe
000002d0: eb7a 89bd 9895 00be 9eff 82bc c68f 583d
000002e0: e043 27bd c199 28be 1c81 08be c5e1 41bd
000002f0: 3460 863e 1f61 c5be 0920 ba3d b50b 8cbe
00000300: a977 52be 0946 503e 4661 3b3c cd55 debe
00000310: 6bc7 323a 2aac aabe 0125 edbc 3e45 9ebe
00000320: 161b a9be 8a67 41be 41f6 9dbe fb3f 27be
00000330: 7f82 fcbe 282b 8c3c 223f eebe 41c6 28be
00000340: aab1 a2be 66f1 acbe 1d25 5abd 7328 253a
00000350: 9485 1b3d 3cba babe d46d c9be c42f 243d
00000360: 0e51 01bf 880a 933d 0898 a2be 9280 d4be
00000370: 110d acbd 8b9f e63d d41d 2cbe dde1 c5be
00000380: 24c2 9cbe 2867 213e 0148 87be e643 c13d
00000390: bb9b 8ebe 3f75 17bf ae1c 533e 9871 0cbf
000003a0: 1088 c8be 6f89 ee3d 765a 69be 8a73 f93e
000003b0: 3cc3 16be ee46 823e 7d22 07be a383 903e
000003c0: 21bd a83e 6ee1 fd3c ba79 6b3e a8f0 8dbe
000003d0: 0415 42be 47a9 81bd b7c4 84be bffd 913e
000003e0: 0c8d c93e c1cd 80be 8ca0 5dbe 8ee3 c03e
000003f0: d718 0e3e 1cb4 45bf 67e8 afbe ba23 433e
0.0899814 -0.23317026 0.06853812 0.05362369 -0.041025482 0.067229316 0.09110968 -0.00435832
-0.21719193 -0.001947115 -0.28634843 0.3447941 0.0068099513 -0.26598197 -0.030463118 0.009497632
-0.09787513 -0.18625687 0.32262135 -0.024047107 -0.07752585 -0.21185131 -0.28757578 0.18174724
0.050488833 0.007866781 0.075292334 -0.035102706 -0.11720202 -0.2660016 0.016912818 0.27656123
-0.10766873 -0.13905993 -0.19842264 0.1902792 0.10116441 0.011051534 -0.065953836 0.22833928
-0.21780168 -0.051515345 -0.13521248 -0.61969143 -0.34424484 -0.11155787 0.28582317 -0.11949501
-0.37221983 -0.6815033 -0.10253636 -0.14273366 0.0763702 -0.32099617 -0.7555466 -0.16669197
-0.41778278 -0.21327907 -0.19802292 -0.8155153 0.20434153 -0.64481425 -0.20860715 -0.16736862
-0.2198261 0.2571523 -0.14252236 -0.29001045 -0.23840554 -0.62513363 -0.06558298 -0.50401706
-0.23135665 0.25769868 -0.42263457 -0.3495827 -0.0014249836 0.13184617 -0.0056242147 -0.4636109
-0.07554706 -0.24596383 -0.22055227 -0.08531376 0.014430964 0.06660801 0.19321765 -0.15688705
0.03331026 0.2023654 -0.07226979 0.07574312 0.03745433 -0.117729254 -0.39550048 0.059674006
-0.15769206 -0.1991571 0.09055546 -0.20214434 -0.24577832 -0.15521216 -0.046064645 -0.08864349
-0.41463813 0.02592685 -0.37105936 -0.11501608 0.24848521 -0.15890105 -0.071534865 -0.3314768
-0.26498082 -0.07498992 -0.27070862 0.19506201 -0.15542142 -0.23185012 -0.023212183 -0.21609667
0.3266433 -0.3878105 -0.27764508 -0.078779325 -0.53516614 -0.110230625 -0.16791293 -0.1363737
0.0063175103 -0.5108297 -0.0033540062 -0.70387715 -0.10468295 0.10234013 -0.18323082 -0.056818042
-0.27882153 -0.19738305 -0.09564482 -0.35365704 -0.07481306 -0.23679577 0.20407689 -0.28220254
-0.22156948 0.06194949 -0.23418611 -0.16992229 -0.23861957 -0.59067875 -0.03507905 -0.33577237
-0.18133166 -0.7082195 -0.34245005 -0.057534516 -0.005143294 0.34535643 -0.09926136 -0.098203786
-0.11572925 0.25732777 0.13062744 -0.17970943 -0.049944006 0.10916596 -0.07218804 0.03762894
-0.01273282 -0.030931897 0.22160205 -0.2821906 0.25801536 0.21215226 -0.23150635 0.039733134
0.2961371 -0.36938143 -0.014840897 -0.24749734 -0.06712898 -0.12557065 -0.015991028 0.052871488
-0.040836215 -0.16464902 -0.13330501 -0.04733445 0.26245272 -0.3855066 0.090881415 -0.27352682
-0.20553459 0.20339216 0.011436766 -0.43424836 0.0006819877 -0.33334476 -0.028948309 -0.30912203
-0.33028477 -0.18887153 -0.3085194 -0.16333 -0.4931831 0.017110422 -0.46532542 -0.16481878
-0.31776172 -0.33777922 -0.05325805 0.0006300278 0.037969187 -0.3647021 -0.39341605 0.040084615
-0.50514305 0.07179743 -0.31756616 -0.4150434 -0.0840093 0.11260899 -0.16808254 -0.38648883
-0.30616868 0.15762007 -0.26422122 0.09436779 -0.27853188 -0.5916328 0.20616409 -0.5486083
-0.39166307 0.11647307 -0.22788414 0.48720962 -0.14722914 0.2544474 -0.1319675 0.2822543
0.32956794 0.030991282 0.22995654 -0.2772267 -0.1895333 -0.06331115 -0.25931332 0.28513905
0.39365423 -0.25156978 -0.21643275 0.3767361 0.13876663 -0.7722795 -0.34356996 0.19056597

network_body._body_endoder.seq_layers.0.bias f4 [512]
00000000: fba5 9dbd 720c bebe 122f 62be 5886 9fbe
00000010: 3fe9 2fbc 14e4 8fbe 36ba d8bc 8a24 6cbd
00000020: 9666 c1bd c4fc c6be dae2 61bd 639d c4be
00000030: eb5a dabd bb72 fabe eb1b bdbd 2c08 b9bd
00000040: fda2 61be a249 61bd 22ba 4cbe c205 11be
00000050: 4cd0 4fbe 58c4 a1be 9b3e b0bd a0c2 cfbe
00000060: f712 cebe d5f3 62be a0d4 26be 75e6 4dbd
00000070: 7200 99bd f491 bbbe 1c2e dfbd 4226 d4bd
00000080: 71a5 59be b8e0 2abe 4feb 1abe f7c3 0fbe
00000090: cfd3 c9be 647a 4fbd 71c6 49be 7561 16be
000000a0: c0dd f6bd ecfe c9be 3bd0 9ebd 19a4 82be
000000b0: e074 c4bd 79f8 17be 361f d9be 6bdb 0fbe
000000c0: c9bf 43be 621d 90be f5d9 4dbe 81cc cdbd
000000d0: 01ad d7bd e1e7 afbe 7706 843d 7cbc 9bbe
000000e0: 8c73 2fbe a035 e5bd 7178 6ebe 32bc 8abd
000000f0: 6f75 41be ac8d 6dbe 5064 28be 00aa a9bd
00000100: d0e3 acbd 7810 643d 6ccb 27be a77f d7bb
00000110: 3079 76bd 2d2e 22be f2df 9abe 0fee 72be
00000120: 2e63 223c c0ee c6be e85d 76be 2c80 fcbd
00000130: 1740 d0bd ea9b a9bd ba02 2b3d c73d 13be
00000140: 6eed f4bd f727 e3bd 609f 6bbe 4649 fdbd
00000150: 7a0b 08be c067 a8be bd47 e8be eb17 90be
00000160: 3eaa bebe 7ce2 d43d d5be 73bc e406 e7be
00000170: 2c0f d1bd cab7 fcbd 039b 5cbd c711 2dbe
00000180: e301 11bd bda1 9fbe ed8a 2fbd e5ff febd
00000190: cffd 4cbe d978 a3be b45e dbbe 20bd cbbd
000001a0: f2f7 cdbe fa48 f1bd aad2 99be 1bfa b6bd
000001b0: c5dd 92bd 156e 83bd 5ca5 05bf 617b c6be
000001c0: 41d6 59be a138 4cbe cbe7 72be 4cce 36be
000001d0: 4de2 35be 5b8c d2bc 7f4c 0cbf f947 31bd
000001e0: b266 3abe 79ab 88be 162b d0bd 8d7a 6b3d
000001f0: 63b6 9dbe 2aa7 84be 38d9 d9bd 0670 3bbe
00000200: 7688 33be 4526 b0bd 9ee9 f1be 09c0 d1bd
00000210: baa4 f5bd 062a 84bd acd8 dabe 5dcc 6fbe
00000220: 923b 12be c02a 8ebe 19f3 3abe 8096 a0be
00000230: 74cc e9be c676 97bd 3e9d f5bc 3535 a9bc
00000240: 5177 6dbe fd6c 88be 8fcb c2bd addd ccbd
00000250: 9300 b7be fbf1 20be 8639 3bbd ef11 f2be
00000260: 74ce ebbd f003 af3c 67ac bebe 3e8d 05be
00000270: 6ad8 0f3c 5d78 9fbd da68 e5bc e174 0fbe
00000280: ac2a bdbe 7105 81be 4e71 9cbd 36f2 96be
00000290: faee 38be 696e d3bd 6b1b 2bbe f0d3 6dbe
000002a0: 0f02 a3bd 4d99 e43c a144 c8be 521a 3dbe
000002b0: 4c4a 11be e1cb 37be ed43 23be c9af 54be
000002c0: 4b07 63be b718 1fbe b3e7 bebd 5fd0 c6be
000002d0: ae2d 173c aa4b 63be e8eb 09bf 9ce8 62be
000002e0: 5c71 a8be cd7a 0cbe 0470 86bd 3444 8fbe
000002f0: 4952 87be 6036 7ebe 5793 95be 5ece 7dbd
00000300: bf43 13be 1cb0 bfbd 4542 f0bd aea3 3dbe
00000310: e758 c9be d1ee 8abe 2c98 a63c d8cf 05be
00000320: f132 eb3c bc5f eebc c990 ecbe 6013 d4be
00000330: f1b7 b5bd 15ce 6a3c 371f afbd 3b1d dfbe
00000340: 88fa 55be 8151 9bbd 0b51 d9bd aa7f b6be
00000350: 1e5f 03be d754 01be 8094 27be f7a9 b2bd
00000360: 5e7a f4be d766 c0bd 2fe3 ea3c 21e8 35be
00000370: 15bf b2be e8d5 2abe c9ba 6abe ec1c 9cbe
00000380: 3bb6 9cbe c6e1 403d 9381 5ebe fff4 3ebe
00000390: 6db5 80be fafc 84bd 2f82 0abc 1d00 5dbe
000003a0: 3363 22be 44e5 c0bd 4299 68be 9d3e febd
000003b0: b2a1 c6bd d7aa 76be b1db d0be 2af0 cfbd
000003c0: 6270 26be a54b a0be 64e4 f4be 76b3 3bbe
000003d0: e34f c9be 7159 08be c606 0bbe 2bb7 73be
000003e0: dd99 e8bd 407c 01be 018d 22be e5bf cabd
000003f0: 4e33 84bd 722e 45be 3c6d 9cbe a387 82be
-0.07697674 -0.3711887 -0.22088268 -0.31157184 -0.010736763 -0.28103697 -0.02645598 -0.057652034
-0.09443395 -0.3886472 -0.055147983 -0.38401327 -0.106618725 -0.48915657 -0.092338406 -0.09034762
-0.22034831 -0.055001862 -0.19992879 -0.14162353 -0.20294303 -0.3159511 -0.08605691 -0.40578175
-0.40248844 -0.22163327 -0.16292048 -0.05026861 -0.07470788 -0.3663479 -0.108974665 -0.103588596
-0.21254517 -0.16687286 -0.15128826 -0.14039598 -0.3941941 -0.05065383 -0.19704606 -0.14685614
-0.12054014 -0.39452302 -0.077545606 -0.25515822 -0.09592605 -0.14840879 -0.42406625 -0.14048545
-0.19116129 -0.28147417 -0.20102675 -0.10048772 -0.10531045 -0.34356597 0.064465456 -0.3041724
-0.17133921 -0.11191869 -0.23288132 -0.06774177 -0.18892454 -0.23198575 -0.16444516 -0.08284378
-0.08441889 0.05567977 -0.16386193 -0.0065764966 -0.060174167 -0.15837927 -0.30248982 -0.23723625
0.009911342 -0.38854027 -0.2405926 -0.12329134 -0.10168474 -0.08281691 0.041750647 -0.14379035
-0.119593486 -0.11091607 -0.23010015 -0.123674914 -0.13285628 -0.32891655 -0.45367232 -0.28143248
-0.3723926 0.10394761 -0.014877041 -0.45122445 -0.10207972 -0.123397425 -0.05385877 -0.16901313
-0.03540219 -0.31178084 -0.0428571 -0.12451152 -0.20018695 -0.31928137 -0.4284569 -0.09948182
-0.4022823 -0.11781497 -0.30043536 -0.089344226 -0.071712054 -0.06417481 -0.52205443 -0.38766006
-0.21273138 -0.19943477 -0.23721235 -0.17852134 -0.17762108 -0.025701692 -0.54804224 -0.04328153
-0.18203238 -0.26693323 -0.10164468 0.05748992 -0.30803213 -0.25908786 -0.10637134 -0.18304452
-0.17532524 -0.08601049 -0.47248548 -0.10241706 -0.1199431 -0.06453328 -0.42743433 -0.23417802
-0.14280537 -0.2776699 -0.18256797 -0.31364822 -0.45663798 -0.07395701 -0.029982205 -0.020655254
-0.23190047 -0.2664565 -0.09511482 -0.10003219 -0.35742626 -0.15717308 -0.045709155 -0.47279307
-0.11513987 0.021364182 -0.37240908 -0.13042161 0.0087796245 -0.07786629 -0.028004099 -0.1400943
-0.3694662 -0.25199464 -0.07638799 -0.29481667 -0.18059912 -0.103237934 -0.16709678 -0.23225379
-0.07959377 0.02790513 -0.3911486 -0.18467072 -0.14188498 -0.17948867 -0.1594388 -0.20770182
-0.22170751 -0.15536772 -0.09321537 -0.3883085 0.0092271995 -0.22196832 -0.5387559 -0.22159046
-0.32898986 -0.1371872 -0.06564334 -0.27981722 -0.26429966 -0.2482543 -0.29213974 -0.061964385
-0.14381312 -0.09359762 -0.1173139 -0.1851947 -0.3932564 -0.27135327 0.020336233 -0.13067567
0.028710814 -0.029098384 -0.46204212 -0.41421032 -0.08872975 0.01433136 -0.08550876 -0.4357699
-0.20896351 -0.07583905 -0.10611161 -0.35644275 -0.12829253 -0.1263002 -0.16365242 -0.087238245
-0.4774961 -0.09394615 0.028672783 -0.17764331 -0.3491141 -0.16683161 -0.22922815 -0.30490816
-0.3060778 0.047090314 -0.21729116 -0.18648146 -0.25138417 -0.06493564 -0.00845389 -0.21582074
-0.15858154 -0.09418729 -0.22714713 -0.12414286 -0.0969881 -0.24088608 -0.4079261 -0.101532295
-0.16253808 -0.31307712 -0.47830498 -0.18330178 -0.3931876 -0.13315369 -0.13576803 -0.23800342
-0.11357472 -0.12645054 -0.15874101 -0.09899882 -0.06455098 -0.19255999 -0.3055209 -0.25494108

action_model._discrete_distribution.branches.0.weight f4 [4, 512]
00000000: 5217 3ab8 8345 a5bd deed 063c 31cb 1fbd
00000010: d645 a23d 9c8c 1dbd af4c 9a3c 947b 023d
00000020: 2f9b c4bb 411c 36bd 3897 163e 1fa3 b43d
00000030: 8ee2 cebd 3c84 60bd 4130 86bc f615 073e
00000040: f54f 36bd 8bba 953d 7dba c8bd 116b cf3d
00000050: a4c2 6bbd eb0a 063e 0f14 d5bd 1784 80bd
00000060: 2db8 5a3b ced8 443c 2bd8 753c d8b8 0b3d
00000070: 7349 553d 7964 3bbd 7a09 1b3d 031e b4bc
00000080: 428b 363d 8d85 acbc 4a1e 65bd c4d4 013d
00000090: 2fdc e0bc 3aa2 2c3d dbf1 eb3c b370 a53c
000000a0: b377 22bd ce7f 72bc ad98 55bd f80b 15be
000000b0: ee42 973d 8e16 003d 8e70 43bd ae5b 2bbc
000000c0: 8cc9 80bd e734 f5bd 5455 893d 892d 0abd
000000d0: 85b2 c2bb 8f9e 783b a10e 0e3c 2e73 fcbd
000000e0: 2a02 7dbc 7f34 013d 973c 1ebd 8ee1 b8bc
000000f0: 1d6b 8d3c 5480 cc3c fece 5a3c a784 3cbd
00000100: 7c17 0bbd 906d 853d 5ed8 61bc cc3d 8c3d
00000110: 58c1 373d a18e 513d c933 53bc 9971 c4bc
00000120: bdbc 833d e68b 35bd 2ea3 8e3c 84ad dbbc
00000130: bd79 d53c 5377 693d 3a97 a73d 9e88 9e3d
00000140: 4241 72bd c5c2 533d d561 7ebc 3e42 ff3b
00000150: 7008 29bc c1dc 26bd 6632 54bd 2981 0a3c
00000160: 3919 b83c acff c93d f543 9c3c bb19 54bc
00000170: 6d7a 9cbd 9410 fb3c da10 01be 98db cbbd
00000180: dfda 8d3c 9c1b a0bc 9c06 c13d a728 f4bc
00000190: 372f 02bd 54b0 46bd 89a2 b3bd 6ce5 32be
000001a0: 2b1c 6a3c 4290 183d f08a 02bc 8751 3c3d
000001b0: dccc 9fbc 3a4a 47bc b063 18bc 7fb2 b5bd
000001c0: ce11 b8bd 045a a7b9 d988 dabd 0007 d13d
000001d0: 80de 44bc 44a1 573c 28de 70bd 050b 3ebc
000001e0: b3bc 74bd c26e 90bd cca0 cb3a dae5 acbc
000001f0: 8c17 08bd 8794 52bd c610 303d f8a4 343e
00000200: 7290 d23d ff0d 99bc 15e1 063d 4351 c1bd
00000210: 8f34 743b f457 203d fb62 62bd a5a0 db3b
00000220: 19a7 86bb 7181 8bbc 173c 27bd 45c0 4abd
00000230: 84b4 69bd 8944 92bd ae3b 4d3b 3b39 ca3c
00000240: 070f 6d3d 2297 a13c 52ff 1dbd 476c aebb
00000250: 88ef 84bd b29c 53bd 46df 3f3d 680a 21bc
00000260: 8a5b 5fbc 4e94 2fbd 99f4 58bd 5ffb babd
00000270: aa2b 763c 0dda 963d cfbf 083d 9260 bf3c
00000280: 02ca 10be 9d97 b03d 2256 7f3b 6ac0 25be
00000290: 0130 57bd df04 723c 728d a9bb cb03 20bc
000002a0: 0f7b a1bd dae7 123d 35be 18be a716 aabd
000002b0: bac6 eebd 5bed f03b b963 0e3d f2d6 3cbd
000002c0: 0ad6 64bd 78cc aabb 2c45 083d 87ec 8dbb
000002d0: 0312 91bd 7680 ddbd b17d a8bc 1c1f 02be
000002e0: 610a 1dbd 65e8 9d3b 8041 47bb 6a57 bebd
000002f0: 936c 353d 6001 9ebd e24e 173d cb2e 0f3d
00000300: 5cda 7d3d b12c 393b 9c35 0abd d53e 8abd
00000310: 3559 91bd dbaf 8cbc 5a83 0c3c 0463 fcbc
00000320: 45d1 863c 792f ef3d f571 cfbd a8d7 5b3d
00000330: 0efa 8c3b f586 27bc 8942 66bd 8b34 9dbd
00000340: 5184 763d 5501 103e 2000 6dbd 1449 203d
00000350: e524 fbbc cea6 213d 839a a6bd 58f7 0ebd
00000360: 925a d3bc 26f1 bebd e552 083d 19aa 1abd
00000370: 7792 7bbc 8136 073d bc02 023d ea14 a4bc
00000380: 3ca6 933d d1f5 f43d ffb1 abbc b2df 923d
00000390: 142f 4cbd 0580 f63d 86ba bb3d 248f 1d3e
000003a0: ca39 bb3c 0f35 f53c 99b7 acbd 38ea d63d
000003b0: 4165 02bc 69ba 703d f383 d9bc 802d a0bc
000003c0: bef5 2fbc 521b c93d 493a 3cbd eb49 3fbc
000003d0: cb18 47bd ab69 683d efbd a33c ff3f 08bc
000003e0: f7ac 4bbd d2d1 173c 08c8 c1bd d8f4 82bc
000003f0: c967 e13d 5f6f 893d d1a2 85bd f653 babd
-4.4367574e-05 -0.08069899 0.008235423 -0.039012138 0.079234764 -0.038464174 0.018835394 0.031856135
-0.0059999446 -0.04446054 0.14706123 0.088201754 -0.101018056 -0.05481361 -0.016380431 0.13191971
-0.044509847 0.07310971 -0.09801195 0.10127843 -0.05755867 0.13090102 -0.104042165 -0.06275194
0.0033373937 0.012014581 0.015005152 0.034111828 0.052072 -0.045750115 0.037850834 -0.021986967
0.0445664 -0.021059776 -0.05593709 0.03169705 -0.027448742 0.0421469 0.02880185 0.02019534
-0.039664935 -0.014800979 -0.052147556 -0.14555347 0.07385813 0.03127151 -0.047714762 -0.01045887
-0.06288442 -0.11972981 0.06705728 -0.033734832 -0.0059416913 0.0037936305 0.00867048 -0.12326656
-0.0154424105 0.031544205 -0.038632 -0.02256849 0.01726299 0.024963535 0.013355015 -0.046024945
-0.033957943 0.06515038 -0.013784496 0.06847724 0.04486212 0.051161412 -0.0128907645 -0.023979949
0.06432483 -0.04432287 0.017411795 -0.026816137 0.026059026 0.056998562 0.08183141 0.077409014
-0.059144266 0.05169942 -0.015526255 0.007789879 -0.010316953 -0.04073787 -0.051805876 0.008453646
0.022472965 0.09863219 0.019075373 -0.012945588 -0.07640538 0.030647554 -0.12604085 -0.099539936
0.01731628 -0.019544415 0.09425089 -0.02980454 -0.03178331 -0.048508003 -0.087712355 -0.1747033
0.014288942 0.03724695 -0.007967696 0.045976188 -0.019506864 -0.012163693 -0.009301111 -0.08871936
-0.08987771 -0.0003191979 -0.10670633 0.10206413 -0.012015939 0.013161007 -0.058805615 -0.011599307
-0.05975027 -0.070523754 0.0015535592 -0.021105696 -0.03322558 -0.051411178 0.042984746 0.17641056
0.10281457 -0.018683432 0.0329295 -0.094393276 0.0037262773 0.03914638 -0.055270176 0.0067025
-0.004109275 -0.017029496 -0.04082879 -0.04949977 -0.05705692 -0.07141978 0.003131609 0.024685493
0.05787566 0.019725386 -0.03857357 -0.0053229663 -0.064909995 -0.05166311 0.04684379 -0.009829141
-0.013632664 -0.042866044 -0.05296764 -0.091299765 0.015025059 0.07365809 0.033386048 0.023361478
-0.1413956 0.08622668 0.0038961251 -0.16186681 -0.052536014 0.014771669 -0.0051743323 -0.009766529
-0.078848 0.035865642 -0.14916308 -0.08305102 -0.11658998 0.0073525137 0.03476307 -0.046103425
-0.055868186 -0.005212363 0.033269092 -0.004331175 -0.070835136 -0.108155176 -0.020567747 -0.1270718
-0.038339976 0.0048189634 -0.0030404031 -0.09294017 0.044292998 -0.07715106 0.036940463 0.034956735
0.06197582 0.0028255398 -0.033742532 -0.067502655 -0.07097093 -0.017173698 0.0085762385 -0.030808933
0.01645721 0.116789766 -0.101291575 0.053672463 0.00430227 -0.010225047 -0.056215797 -0.076760374
0.06018478 0.14063008 -0.057861447 0.039132193 -0.030657241 0.039465718 -0.081349395 -0.034903854
-0.025800023 -0.09323339 0.03328218 -0.037759874 -0.015354744 0.033010963 0.03174089 -0.020029504
0.07209441 0.11960948 -0.020958899 0.07171573 -0.049849585 0.120361365 0.09166436 0.15386635
0.022854704 0.029932527 -0.08433456 0.104938924 -0.007958711 0.058771525 -0.026552176 -0.019552946
-0.010739742 0.09819664 -0.045954023 -0.011675338 -0.04860763 0.056741398 0.019988028 -0.008316039
-0.0497255 0.009266334 -0.09461981 -0.015985891 0.110061236 0.067106955 -0.065251954 -0.090980455

action_model._discrete_distribution.branches.0.bias f4 [4]
00000000: 391c 263d cee7 ee3c 3445 e2bd 424e ad3d
0.04055426 0.029163267 -0.11048356 0.08462192

action_model._discrete_distribution.branches.1.weight f4 [5, 512]
00000000: a2c2 e4bc 0847 78bc 249d d7bc 1db6 d9bc
00000010: c0d5 d93c 51c3 69bd 1c7d 8d3d 682c f63c
00000020: ff57 55b9 3513 a73b 1454 c33c b3bb b7bd
00000030: a125 80bd c96a edba 5efc a5bc 0102 473d
00000040: 1600 d6bc 443b af3c 5c95 aa3d 8518 1f3b
00000050: a298 f03c e38f 19bd 41ee 073d 2b5b b23c
00000060: a050 0dbd 0302 213d 39cf d63b 540a 863d
00000070: f3f3 313d 02a3 a9bd 7aa9 8e3b a6c8 f5bb
00000080: 1a56 853b 78fa 69bd 3bf7 533d d167 66bd
00000090: 9fa1 803c bbaa b4bc 7260 6b3d fcd4 ab3d
000000a0: 130b 5ebc 7842 d93c 75e5 5b3d 1c56 acbc
000000b0: bca5 ee3c 7451 50bd 4732 56bd ab76 b73d
000000c0: 2379 fc39 2740 48bc 2586 f93c c271 ae3c
000000d0: 7b28 0ebd 38ff 54bb b3df 0a3d 2c11 b23c
000000e0: 07ca b83c 643a 35bd 8ede 47bd bfba 6cbd
000000f0: 5561 803c 127d cf3b fd99 e8bc e7c1 dc3d
00000100: 65ca 8f3c 975a 863d 70d3 0e3c 4c78 f4bc
00000110: 4f67 c63c f2eb f43c f367 fdbd 241f 393d
00000120: 02b9 513d d2ef b1bb bb2f c9bd 3495 5ebd
00000130: ef6b 003e 2d3f ae3c be2a ad3c a014 8f3c
00000140: fccb a93d dd88 383d 9376 6c3c 17ca a73d
00000150: d436 b53d 1c6c 0dbd d227 b4bd 4c53 2bba
00000160: 5c48 e43c 8d54 053d fa36 153d ea32 373d
00000170: f0ef d5bc 83d7 5c3d 9fe4 2d3d f8ea 96bd
00000180: dde7 273d b1db aabd 33aa 033d bf10 383d
00000190: cbb1 aabd c8c9 f5bd 49c9 2dbd 4a26 b83d
000001a0: 54c2 88bd 674c 893b 70a7 c23c 52fb c13d
000001b0: 6229 c53d 2c8a ca3d 6a60 f83c 05a1 2abd
000001c0: 74de e43d 7c3b e7bb 3570 d3bd c73c cf3d
000001d0: e42b c4bd 83b6 a73d ac8b 20bd 24d5 46bc
000001e0: cfd9 98bd a7f7 e9bd 1d3c 34bb 6b9c f13d
000001f0: 349c 0abd 0fbc a8bd d53c cd3c cce1 69bc
00000200: 4abb 123d 7e3a 6ebd 9a0c a7bc 877e debd
00000210: 04f2 153d 49ed ab3d 1142 12bd 49b0 18bc
00000220: 93f9 a43c 40dd 70bd fd9e 9c3b 0b72 a03c
00000230: a4b9 a5bd 597d 48bc 7e06 1a3d cefd 64bd
00000240: d7d9 f0bc 1ef8 04bd cf5c f33b 0056 333d
00000250: 9a1a 1bbd 0b79 d1bd 96ac 933c be95 163c
00000260: cc48 6b3d 0027 be3c 4575 8fbc 26a5 0e3d
00000270: ce8c c03c 6304 ac3d 6124 953d 073e 11b8
00000280: c9e2 ad3c 239a 2abc 2767 86bc 936e bb3b
00000290: ae85 8bbd a69c 053d f50c 0cbd 7fb9 403d
000002a0: b7c0 1d3c 047a 0a3d 68ae d1bc 9909 053c
000002b0: c8d2 adbd cc28 523c 65ef 703d 685f eb3c
000002c0: 2d3f a8bb f730 02bd a2f4 b93c 16b1 d6bd
000002d0: 384f 183c ba2d d23d d81c 5fb9 8bec 353d
000002e0: 1d49 c6bc 5035 f5bc c9db 743d 02e2 24bd
000002f0: 7b53 893d d596 6abd a50f 00bd 1caf 853d
00000300: d0fe 73bc c8dc 7a3c 46fa b53d 0b62 9abd
00000310: a2a0 b4bd 3098 0e3c f535 fcbc 2c44 a9bc
00000320: fb5d 8f3c 4223 723d 175b 75bd 2184 a7bb
00000330: ff10 1f3c 357c 87bc 21cb 113b 8258 77bd
00000340: f595 2a3d 5e57 243e 6b0f 673b 9756 8e3c
00000350: e83d aabd 0377 8b3d 74fe 3d3d 4120 763c
00000360: ab6d e1bc a314 923b efa3 d0bc c841 933d
00000370: 4223 c53d ec91 7b3c ee78 e43c 7853 823d
00000380: 79e8 493d 39fd 663d 442a a6bd 062d 22bd
00000390: edaa 09be 8a09 323d da51 963d 9fa4 113d
000003a0: 5bad febc 3ed1 8ebc b7bd 8cbd 27b5 4b3d
000003b0: f27c 143c 08c3 6e3d aa26 5fbd 5673 d43d
000003c0: 8b55 9dbc f8ff eb3d e51f 60bc c6b4 f6bd
000003d0: 92fd 5cbd 65ec 4c3d f06a ac3d 8877 3d3c
000003e0: 08c3 fe3c 5217 a93d 8771 12bd 0f6f af3c
000003f0: d338 b73c 1dbf 963d cd8c 6a3d 0cd0 9538
-0.02792484 -0.015153654 -0.026320048 -0.026576096 0.026591182 -0.057071034 0.06908628 0.030050471
-0.00020346044 0.005098725 0.023843803 -0.08971348 -0.06257177 -0.001811349 -0.02026194 0.048585895
-0.026123088 0.021390565 0.08329269 0.002427609 0.029369656 -0.037490737 0.0331862 0.021771988
-0.034500718 0.03930856 0.0065554646 0.06544939 0.04344554 -0.082830444 0.0043536993 -0.007500726
0.004069102 -0.05712363 0.05174945 -0.05625135 0.015702067 -0.022054067 0.057465024 0.08390233
-0.013552445 0.026520953 0.053685624 -0.021037154 0.029131763 -0.05085893 -0.052294042 0.08958181
0.0004815544 -0.012222326 0.030459473 0.021294478 -0.034706574 -0.0032500755 0.033904742 0.021736704
0.022557272 -0.04424514 -0.04879623 -0.057795282 0.015671412 0.006332048 -0.02839374 0.107791714
0.017552564 0.065602474 0.008717403 -0.029842518 0.024219183 0.029897664 -0.12373342 0.045195714
0.051201828 -0.0054302 -0.09823557 -0.05434151 0.12541173 0.021270359 0.021138545 0.01746589
0.0829086 0.045052398 0.014432567 0.081928425 0.08848348 -0.03452693 -0.087966576 -0.00065355445
0.027866535 0.032551337 0.036429383 0.04472629 -0.026115388 0.053916465 0.04245436 -0.073690355
0.040992606 -0.08342684 0.032144736 0.044937845 -0.083346926 -0.12001377 -0.04242829 0.08991678
-0.0667769 0.004190016 0.023761481 0.09471764 0.09627034 0.098896354 0.030319411 -0.041657466
0.11175242 -0.0070566516 -0.10324136 0.10119014 -0.09578684 0.08189108 -0.0391957 -0.012135778
-0.07463419 -0.11424189 -0.002750165 0.117974125 -0.033840373 -0.08238994 0.025053421 -0.014275026
0.035823144 -0.05816125 -0.020391751 -0.10863977 0.036607757 0.08394868 -0.035707537 -0.009319373
0.020138538 -0.05880475 0.004779695 0.01958563 -0.08092049 -0.012236916 0.037603848 -0.05590611
-0.02940075 -0.032463185 0.007426835 0.043783188 -0.037867166 -0.10228165 0.018026631 0.009190975
0.05744247 0.023211956 -0.017511973 0.034825467 0.02350464 0.08399274 0.07282329 -3.462846e-05
0.021226304 -0.010412726 -0.016406609 0.0057199686 -0.06812607 0.032620095 -0.034192044 0.047051903
0.009628466 0.03380777 -0.025595859 0.008119964 -0.08487469 0.01282711 0.058822054 0.028732017
-0.0051344843 -0.031784978 0.022699658 -0.10482995 0.009296231 0.10262628 -0.00021277682 0.044415038
-0.024204785 -0.029932648 0.059779916 -0.0402546 0.06705376 -0.05727275 -0.03126492 0.0652754
-0.014892295 0.015311427 0.088856265 -0.075382315 -0.08819701 0.0087032765 -0.030787447 -0.02066239
0.017500868 0.059115656 -0.059901323 -0.0051121865 0.009708642 -0.016538719 0.0022246318 -0.060387142
0.041646916 0.16048953 0.0035256993 0.017375274 -0.08312589 0.06809809 0.046385244 0.015022338
-0.027518114 0.0044580265 -0.025468795 0.07190281 0.096258655 0.015354615 0.027889695 0.06363577
0.04929397 0.056393836 -0.0811353 -0.03959372 -0.1344411 0.04346613 0.07339831 0.035557386
-0.031088522 -0.017433759 -0.06872123 0.049733307 0.009062992 0.058291465 -0.054480232 0.10373561
-0.01920583 0.115234315 -0.013679479 -0.120461985 -0.05395276 0.05003013 0.08418834 0.011564143
0.031098858 0.08256401 -0.0357528 0.021415262 0.022365963 0.07360671 0.057263184 7.1436254e-05

action_model._discrete_distribution.branches.1.bias f4 [5]
00000000: 9c48 3e3d eaa9 3c3c 6c79 803d 13d0 963c
00000010: f8db ba3b
0.046455964 0.01151512 0.062731594 0.018409764 0.005702492
