MLagents_test1/results/CarAgent_reinforcement_1/CarAgent/CarAgent-5000520.pt (torch, 580945 bytes, 28 tensors)

discrete_act_size_vector f4 [1, 2]
4.0 5.0
00000000: 0000 8040 0000 a040

network_body._body_endoder.seq_layers.0.weight f4 [512, 40]
0.0899814 -0.25576413 0.09021303 0.014616596 -0.0015167482 0.067229316 -0.05868786 0.13760155
-0.21720982 -0.03161671 -0.28634843 0.19013003 0.11963402 -0.2195991 -0.0123799015 0.009497632
-0.062605135 -0.09799985 0.26346794 -0.019040598 -0.07752585 -0.26538238 -0.110649586 0.0043425737
-0.00929794 0.007866781 -0.06318395 0.16922247 -0.16060136 -0.24126092 0.016912818 0.19641942
-0.042123605 -0.09302206 -0.2062316 0.024886144 0.005314244 0.023581903 -0.0624402 0.20755538
-0.21780168 0.185778 -0.07313946 -0.42842805 -0.05654401 -0.11155787 0.14913948 -0.082938194
0.021784334 -0.25945365 -0.10253636 -0.013209757 0.091847084 -0.04259848 -0.4639386 -0.16669197
-0.23246856 0.03433872 -0.121635206 -0.39145115 0.20434153 -0.6203638 0.012455633 0.026106983
0.071565874 0.2571523 0.06486678 -0.121145874 -0.1667415 -0.256661 -0.06558298 -0.19981909
-0.13892964 0.25294092 -0.145862 -0.08785416 -0.019150795 0.16070111 0.1706422 -0.32028422
-0.07554706 -0.25526422 -0.0937937 -0.06950508 0.06751934 0.06660801 0.035647776 0.15000309
0.06999885 0.2293414 -0.07226979 0.12459952 0.049286474 0.12708855 -0.28017464 0.059674006
0.009251246 0.025225718 0.04852737 -0.15946284 -0.24577832 -0.0070076925 0.019962141 -0.08771363
-0.31092855 0.02592685 -0.24202485 0.07073447 0.23046769 -0.09404238 -0.071534865 -0.12200215
-0.20124714 -0.120059 -0.1663258 0.113853596 -0.23430057 -0.08159354 -0.009880659 -0.14414681
0.3266433 -0.23940349 -0.15635997 0.052845072 -0.29397327 -0.110230625 -0.0666714 -0.029222008
0.13694273 -0.24211115 -0.0033540062 -0.41203004 -0.0053384253 0.13110133 -0.0025354887 -0.056818042
-0.22630423 -0.02058339 0.057011813 -0.097416975 -0.07481306 -0.096985556 0.27496237 -0.16269037
-0.015804287 0.06194949 0.023947218 -0.27103603 -0.057385303 -0.3570587 -0.03507905 -0.19126841
-0.028589735 -0.6535405 -0.082770064 -0.044582907 -0.07593224 0.20579132 0.03293235 -0.12409032
-0.11572925 0.2773842 0.1524492 -0.23857239 -0.036836293 0.10916596 -0.014583628 0.007703371
0.007116835 0.0072348416 0.22160205 -0.25534594 0.41973862 0.13350382 -0.22057006 0.039733134
0.22469302 -0.23331408 0.003996237 -0.22285198 -0.06712898 -0.18858096 0.041073903 0.1202997
0.014316185 -0.16464902 -0.06165955 -0.02815652 0.20031086 -0.3437035 0.090881415 -0.15087937
-0.16609286 0.17113791 0.046805274 -0.2210742 0.03358641 -0.15105896 0.04256029 -0.10020303
-0.33028477 0.011908004 -0.23880428 -0.034514613 -0.121582694 0.017110422 -0.25593653 -0.020972686
-0.26719233 -0.05071843 -0.05325805 0.030109089 0.15109435 -0.11088151 -0.023982313 0.040084615
-0.13512862 0.17222194 -0.42720348 -0.19939366 -0.0840093 0.024082102 -0.06455735 -0.005696236
0.01159606 0.15762007 0.095299415 0.12586898 -0.32625934 -0.3818685 0.20616409 -0.4579273
-0.27590632 0.3009862 0.04552308 0.28055388 0.041056704 0.19386974 -0.148614 0.041841373
0.32956794 0.19575515 0.20845766 -0.26073027 -0.0039188582 -0.06331115 -0.09602296 0.31319782
0.39590147 -0.15946335 -0.21643275 0.33369213 0.044806402 -0.28298205 -0.09060707 0.19056597
00000000: 2b48 b83d 84f3 82be 9cc1 b83d 727a 6f3c
00000010: a0cd c6ba 86af 893d ae62 70bd 6ce7 0c3e
00000020: 406c 5ebe 8680 01bd 439c 92be 72b1 423e
00000030: ae02 f53d 96de 60be 12d5 4abc f59b 1b3c
00000040: 1f37 80bd 25b4 c8bd 45e5 863e 07fb 9bbc
00000050: dfc5 9ebd 33e0 87be 409c e2bd 264c 8e3b
00000060: 6356 18bc ace3 003c 9666 81bd a848 2d3e
00000070: af74 24be 1a0d 77be c08c 8a3c 2c22 493e
00000080: cd89 2cbd 5a82 bebd 602e 53be 07de cb3c
00000090: 1c23 ae3b d62e c13c 4cc1 7fbd 6689 543e
000000a0: 6707 5fbe 973c 3e3e 24ca 95bd ec5a dbbe
000000b0: b19a 67bd 7478 e4bd 05b8 183e 80db a9bd
000000c0: 0f75 b23c 1cd7 84be 95fe d1bd bd6d 58bc
000000d0: 531a bc3d be7b 2ebd 5c89 edbe 4db1 2abe
000000e0: 3d0c 6ebe c2a6 0c3d e11b f9bd 496c c8be
000000f0: e83e 513e 29d0 1ebf b612 4c3c 50de d53c
00000100: 2191 923d 77a9 833e e0d8 843d 541b f8bd
00000110: 49be 2abe 1269 83be 5f50 86bd 609d 4cbe
00000120: 9243 0ebe 7981 813e d95c 15be e2ec b3bd
00000130: 21e2 9cbc d58e 243e d4bc 2e3e 4bfc a3be
00000140: 6bb8 9abd feb1 82be e916 c0bd ae58 8ebd
00000150: 9447 8a3d c869 883d 6703 123d 699a 193e
00000160: 8f5b 8f3d 79d8 6a3e 2f02 94bd 082e ff3d
00000170: 9de0 493d 8023 023e 0d73 8fbe bb6c 743d
00000180: 8a92 173c 2aa6 ce3c a3c4 463d 3a4a 23be
00000190: 50ad 7bbe c9a0 e5bb a587 a33c 34a3 b3bd
000001a0: 0732 9fbe 8c64 d43c 5dd5 77be 3cdd 903d
000001b0: b9ff 6b3e 4b99 c0bd df80 92bd 43dc f9bd
000001c0: bb13 4ebe 7ee1 f5bd 4f51 2abe 132c e93d
000001d0: 7dec 6fbe 841a a7bd 7de2 21bc 399b 13be
000001e0: ca3d a73e 3026 75be d41c 20be 1374 583d
000001f0: aa83 96be 98c0 e1bd 048b 88bd fe62 efbc
00000200: b73a 0c3e fceb 77be e3ce 5bbb 9af5 d2be
00000210: f5ed aebb 6d3f 063e 712a 26bb 09ba 68bd
00000220: 4cbc 67be 7f9e a8bc 3885 693d 8d82 c7bd
00000230: 9737 99bd 5da0 c6bd dec7 8c3e 4e98 26be
00000240: fe77 81bc c0be 7d3d f52c c43c 3cc5 8abe
00000250: da0c 6bbd 66d0 b6be 0daf 0fbd dedb 43be
00000260: 0535 eabc 6e4e 27bf 5a83 a9bd 919c 36bd
00000270: 5d82 9bbd f6ba 523e 12e4 063d 1123 febd
00000280: 7503 edbd 4d05 8e3e a51b 1c3e 524c 74be
00000290: a7e1 16bd 6792 df3d 2bf0 6ebc 8f6c fc3b
000002a0: 5734 e93b 4012 ed3b a6eb 623e b4bc 82be
000002b0: fbe7 d63e 3ab5 083e 1edd 61be 36bf 223d
000002c0: ed15 663e e3e9 6ebe def2 823b 4f33 64be
000002d0: eb7a 89bd 5e1b 41be 1c3d 283d b05f f63d
000002e0: 6f8e 6a3c c199 28be b98e 7cbd 81a8 e6bc
000002f0: 4a1e 4d3e e8f9 afbe 0920 ba3d 1f80 1abe
00000300: 3f14 2abe c73e 2f3e e3b6 3f3d 4661 62be
00000310: e791 093d 33af 1abe b353 2e3d 3f37 cdbd
00000320: 161b a9be ca19 433c 1c89 74be 325f 0dbd
00000330: 5900 f9bd 282b 8c3c 1d0a 83be e9ce abbc
00000340: 6fcd 88be 21be 4fbd 1d25 5abd 56a7 f63c
00000350: 7ab8 1a3e d815 e3bd 8e76 c4bc c42f 243d
00000360: 285f 0abe f35a 303e 6aba dabe da2d 4cbe
00000370: 110d acbd d447 c53c a536 84bd 7ea7 babb
00000380: 67fd 3d3c 2867 213e 572c c33d cce3 003e
00000390: 770b a7be 4584 c3be ae1c 533e 7275 eabe
000003a0: 9843 8dbe dd1a 9a3e 6976 3a3d c2a4 8f3e
000003b0: 132b 283d ca85 463e 452e 18be dc61 2b3d
000003c0: 21bd a83e 0a74 483e ed75 553e 707e 85be
000003d0: c469 80bb 47a9 81bd b0a7 c4bd 775b a03e
000003e0: 99b3 ca3e 5c4a 23be 8ca0 5dbe b2d9 aa3e
000003f0: eb86 373d 06e3 90be 3390 b9bd ba23 433e

network_body._body_endoder.seq_layers.0.bias f4 [512]
-0.08004941 -0.09578691 -0.079491235 -0.10753684 0.015512699 -0.059787646 0.05197892 -0.0057214545
-0.00028672165 -0.14051256 0.055141345 -0.11264552 -0.044184424 -0.058342304 -0.016538478 0.010521105
-0.058621176 0.061292637 -0.058888506 -0.0672189 -0.049965817 -0.07155175 0.017556058 -0.040555153
-0.10446532 -0.053439476 -0.035799302 0.03634646 -0.08057593 -0.06936709 -0.06519344 -0.017811771
-0.12492038 0.0035907282 0.014652753 -0.0687802 -0.0807377 -0.01811278 -0.09238336 -0.08140244
-0.10736025 -0.058583792 -0.059374522 -0.11132583 -0.075305656 -0.074379794 -0.055454202 -0.07879169
-0.13199079 -0.15709873 -0.06378329 -0.034512024 -0.060553823 -0.046095893 0.047064066 -0.07715956
-0.1251647 -0.091813155 -0.056392267 -0.025610676 -0.08676182 -0.0861549 -0.07863948 0.011662137
0.023179436 0.043352105 0.10608777 -0.033225384 -0.071085095 -0.15127258 -0.001854894 -0.11343099
0.056509625 -0.0799358 -0.10133961 -0.07951343 0.009866604 0.029133867 0.08872766 -0.07317766
0.045043964 -0.014830115 -0.032653756 -6.379446e-05 -0.10703001 -0.14603367 -0.10422364 -0.07835171
-0.101105995 0.06790734 -0.05200132 -0.14572695 -0.032070372 -0.0031294255 -0.0077567883 -0.09615726
-0.055570424 -0.055023782 -0.009322718 0.00065563805 -0.06471217 -0.16129702 -0.0944542 -0.040874492
-0.08804553 -0.05764734 -0.1045501 -0.098697156 -0.011041792 -0.011309404 -0.20751934 -0.13142887
-0.076943815 -0.10372456 -0.13857454 -0.1170284 -0.07591306 -0.053872354 -0.08672146 -0.050559387
-0.04167468 -0.13212217 0.023075484 0.035988398 -0.09796521 -0.06631225 -0.033363312 -0.08255778
-0.050193947 0.0027345947 -0.076614305 -0.016073648 0.063425906 -0.04217281 0.00914798 -0.0064380774
-0.13431022 -0.026383372 -0.03714808 -0.05551207 -0.039441276 -0.039351117 -0.0033973597 -0.03985779
-0.06440241 -0.020210978 0.009709772 -0.078488424 -0.16880898 -0.015340877 -0.04252947 -0.17884533
-0.061302196 -0.024397379 -0.16316846 -0.003858053 -0.03518867 -0.025024628 0.02501435 -0.08768374
-0.14997666 -0.060726464 -0.049037848 -0.1249446 -0.019385116 -0.0575848 -0.07724017 -0.035343844
-0.027892062 0.009956669 -0.14365272 -0.082532816 -0.063889325 -0.045271423 0.019487184 -0.069092244
-0.1716381 -0.05163912 -0.100937106 -0.10472927 0.055473503 -0.07441077 -0.05517492 -0.07752054
-0.033490624 -0.03806573 -0.0016518593 -0.177399 -0.032176282 -0.14438914 -0.13669442 -0.02117463
-0.016222397 -0.043425284 -0.09812591 -0.033613678 -0.10039454 -0.15376902 0.035067957 -0.029563157
0.061656363 0.010920392 -0.13341147 -0.1821157 -0.06317049 0.04792026 -0.037764452 -0.10572436
-0.16659297 -0.03598211 -0.06501486 -0.053106744 0.0011664503 -0.050206427 0.0014392519 0.03659655
-0.081189916 -0.059917826 -0.045700055 -0.07061131 -0.1135998 -0.050246403 -0.114539266 -0.1323297
-0.07096615 0.0044092066 -0.10074159 -0.026149442 -0.10955331 -0.03657645 0.021769198 -0.09174846
-0.09587458 -0.074110046 -0.06801133 -0.030309476 -0.11980015 -0.074014254 -0.15350723 0.013979476
-0.002576368 -0.13375151 -0.06723668 -0.078687556 -0.11835191 0.016174959 -0.091483 -0.092962496
0.014862877 0.043034807 -0.022243746 -0.06334906 -0.067012176 -0.04383952 -0.11721167 -0.09050079
00000000: f2f0 a3bd ed2b c4bd 4dcc a2bd 463c dcbd
00000010: fa28 7e3c e4e3 74bd d9e7 543d 0a7b bbbb
00000020: 2153 96b9 86e2 0fbe e4db 613d b2b2 e6bd
00000030: bafa 34bd 57f8 6ebd b47b 87bc b660 2c3c
00000040: c21c 70bd fd0d 7b3d 1335 71bd 10aa 89bd
00000050: f5a8 4cbd b989 92bd b9d1 8f3c 291d 26bd
00000060: eaf1 d5bd 5ae3 5abd 4aa2 12bd 07e0 143d
00000070: fe04 a5bd 5510 8ebd 2384 85bd fee9 91bc
00000080: 42d6 ffbd 6c52 6b3b 1a12 703c a2dc 8cbd
00000090: cf59 a5bd 4161 94bc 7d33 bdbd 53b6 a6bd
000000a0: b1df dbbd 8ff5 6fbd b332 73bd ccfe e3bd
000000b0: da39 9abd 6f54 98bd f223 63bd 8a5d a1bd
000000c0: 9828 07be 7dde 20be d0a0 82bd 7b5c 0dbd
000000d0: 4907 78bd 0ccf 3cbd 40c6 403d d505 9ebd
000000e0: 2d2b 00be 8908 bcbd 94fb 66bd 7bcd d1bc
000000f0: 2eb0 b1bd fb71 b0bd bc0d a1bd 8c12 3f3c
00000100: cde2 bd3c fa91 313d 8b44 d93d 5717 08bd
00000110: 1095 91bd 33e7 1abe ea1f f3ba 824e e8bd
00000120: a376 673d 61b5 a3bd 248b cfbd f0d7 a2bd
00000130: 89a7 213c 26aa ee3c d9b6 b53d 2bde 95bd
00000140: 0580 383d 03fa 72bc f2bf 05bd 64c9 85b8
00000150: 8d32 dbbd da89 15be 3473 d5bd dd76 a0bd
00000160: a910 cfbd 0113 8b3d 56ff 54bd 7239 15be
00000170: 395c 03bd 0c17 4dbb a82c febb 19ee c4bd
00000180: d09d 63bd 9e60 61bd 50be 18bc 20df 2b3a
00000190: d087 84bd 0c2b 25be 3471 c1bd 036c 27bd
000001a0: 3751 b4bd 9e1f 6cbd 5d1e d6bd bc21 cabd
000001b0: a2e8 34bc 144b 39bc f37f 54be 4a95 06be
000001c0: b894 9dbd 8b6d d4bd 7ce6 0dbe 96ac efbd
000001d0: 4e78 9bbd 42a9 5cbd 059b b1bd 5c17 4fbd
000001e0: 12b3 2abd 094b 07be cc08 bd3c 9268 133d
000001f0: fca1 c8bd b8ce 87bd f8a7 08bd 0e14 a9bd
00000200: 2b98 4dbd e336 333b f6e7 9cbd e2ac 83bc
00000210: 71e5 813d 65bd 2cbd 69e1 153c 82f6 d2bb
00000220: 9e88 09be f121 d8bc 9628 18bd a060 63bd
00000230: 2d8d 21bd a32e 21bd 3da6 5ebb ec41 23bd
00000240: 69e5 83bd 7e91 a5bc bc15 1f3c 8abe a0bd
00000250: 43dc 2cbe 4d58 7bbc 6233 2ebd 3b23 37be
00000260: 0318 7bbd 03dd c7bc a215 27be 63d7 7cbb
00000270: ff21 10bd 7300 cdbc e5ea cc3c 8893 b3bd
00000280: 7b93 19be 50bc 78bd e9db 48bd f4e2 ffbd
00000290: 89cd 9ebc 0ade 6bbd 1830 9ebd b5c4 10bd
000002a0: e57d e4bc 4c21 233c b319 13be f706 a9bd
000002b0: 68d8 82bd 876e 39bd 96a3 9f3c 3c80 8dbd
000002c0: e6c1 2fbe 8b83 53bd 1db8 cebd 4d7c d6bd
000002d0: 2f38 633d ac64 98bd 19ff 61bd 17c3 9ebd
000002e0: 772d 09bd d0ea 1bbd 3383 d8ba 15a8 35be
000002f0: 47cb 03bd bfda 13be 9ff9 0bbe 6b76 adbc
00000300: d5e4 84bc b6de 31bd 3df6 c8bd 7fae 09bd
00000310: a79b cdbd a075 1dbe 6ba3 0f3d 6f2e f2bc
00000320: 628b 7c3d 72eb 323c 049d 08be 8a7c 3abe
00000330: 885f 81bd 0948 443d e6ae 1abd 0386 d8bd
00000340: 5997 2abe fa61 13bd 8326 85bd 7586 59bd
00000350: 94e3 983a 41a5 4dbd 48a5 bc3a 44e6 153d
00000360: e646 a6bd 656c 75bd fb2f 3bbd aa9c 90bd
00000370: 03a7 e8bd 2ccf 4dbd 9093 eabd 7081 07be
00000380: b356 91bd 1b7b 903b 9b51 cebd 5b37 d6bc
00000390: 7c5d e0bd 30d1 15bd 5155 b23c 9ee6 bbbd
000003a0: e459 c4bd 02c7 97bd 8649 8bbd 944b f8bc
000003b0: c859 f5bd c994 97bd 0031 1dbe 2c0a 653c
000003c0: 48d8 28bb 28f6 08be 62b3 89bd f126 a1bd
000003d0: 7c62 f2bd 5981 843c 705b bbbd 1f63 bebd
000003e0: 6d83 733c 4445 303d 8438 b6bc 27bd 81bd
000003f0: ae3d 89bd 1291 33bd ac0c f0bd 7a58 b9bd

action_model._discrete_distribution.branches.0.weight f4 [4, 512]
0.031006658 0.0028703918 -0.018655427 0.009762442 0.017138435 0.0028698118 -0.046853933 -0.044589255
0.020974722 0.017294217 -0.023623284 0.023750903 0.0035366493 0.021447824 0.0035330623 -0.008353531
-0.010414986 0.028745167 -0.0033843326 -0.002404598 -0.030516649 0.07829414 -0.020367496 0.0003429523
0.0035805847 -0.0008678855 0.0083872415 0.0080979755 -0.018623384 0.007487259 -0.00039282037 0.019672818
0.01375658 0.030964052 -0.09260818 0.011636222 -0.0040851138 -0.013658007 0.0037737386 0.032985892
-0.019096456 -0.023249904 -0.0034975975 -0.011389092 -0.00048115465 0.0002488164 0.026102545 0.050487865
-0.008423249 0.00767665 -0.027099865 0.0018409906 0.04356216 0.068595104 -0.009461417 0.0044466886
0.032080945 0.0051419092 0.005836521 0.030794391 0.019177876 0.0020174726 0.016041603 -0.062021907
0.009211418 0.003703735 -0.05802698 0.051754594 0.029014083 0.03100822 -0.015774509 -0.00375314
0.0004781727 0.018605925 0.01240228 0.018923786 0.020291382 -0.0019849923 -0.0036999302 0.031972766
-0.072732285 0.03114219 -0.038762435 -0.06552061 -0.020615501 0.02355321 -0.0021387802 0.029117096
0.0013399203 -0.002196597 0.010792633 -0.00021798626 -0.003417679 -0.03107771 -0.02608608 -0.0045152362
0.030825013 0.0068558822 0.012031796 0.018370597 0.04749616 -0.0012589575 0.0067337584 -0.019270863
0.04146971 0.022222709 -0.009779381 0.023160629 -0.0016021336 0.024161888 0.0012377594 0.0042888136
-0.05785023 0.022396142 0.01704411 0.0035263489 -0.009147309 -0.00800199 0.0051122033 0.0063393656
-0.0369314 -0.014025573 -0.0027816452 0.0030483338 0.02697619 -0.015939271 0.022962976 0.04950131
0.023077901 -0.020802237 0.01686324 -0.03806524 -0.0072959517 -0.007519876 -0.008499153 0.012737812
0.022338679 0.0046916674 -0.044414837 -0.033582956 0.008869789 -0.025370657 0.006294125 0.012692999
0.044318497 -0.027914543 -0.04143762 0.022856416 0.02808316 0.0029080973 -0.0035219996 0.0069567137
-0.027107324 0.05141132 0.0021593769 -0.025874898 0.007144263 0.00074684416 -0.0055785365 0.012941901
0.010958853 0.074758895 -0.009835756 -0.001682748 -0.023434993 0.0020131199 0.019837629 0.006147872
-0.024688553 -0.007150718 0.009223192 0.009687034 0.0021373453 0.002294969 0.03151657 -0.004628619
0.012054744 -0.0038277549 0.0033363432 0.0014163071 0.0043541333 -0.000812219 0.0047815256 -0.020033985
0.04040595 0.005285091 -0.015778176 0.0100351665 0.0023430705 -0.007173023 -0.0015545608 0.012493801
-0.031001363 0.032770734 -0.037032954 -0.027343461 -0.0037277446 0.038080823 -0.022983888 0.029793153
0.02340511 0.030844359 0.0024573223 0.0004387766 0.011362478 -0.009794724 0.009217424 0.02230707
0.008455044 -0.0035909868 0.018717239 -0.015521351 -0.010210754 0.0163138 -0.04794817 0.008249542
0.023260506 -0.02468025 -0.016751144 0.0056733103 -0.002305632 0.004814529 0.0060939034 -0.004023719
0.027846891 0.04371627 0.005400022 0.008554874 0.00069072074 0.017161323 -0.009848145 0.047675785
0.029833026 -0.02306621 -0.0068642343 -0.009575674 0.013809812 -0.012299838 0.01178042 -0.03052241
-0.07508745 0.002130757 0.022368625 0.009413923 0.0034510118 -0.0036086247 -0.012762325 0.011116548
-0.043109883 0.041617285 -0.016014656 0.042865664 0.0008704822 0.020082138 -0.01603846 0.00029584882
00000000: ad01 fe3c 2f1d 3c3b 44d3 98bc a6f2 1f3c
00000010: e765 8c3c 7413 3c3b e9e9 3fbd 39a3 36bd
00000020: 2ed3 ab3c 9aac 8d3c 9e85 c1bc 4191 c23c
00000030: 21c7 673b 59b3 af3c f38a 673b 40dd 08bc
00000040: 9ea3 2abc fc7a eb3c aecb 5dbb 7696 1dbb
00000050: 0dfe f9bc ae58 a03d bcd9 a6bc 47ce b339
00000060: 3ea8 6a3b cf82 63ba a46a 093c 5fad 043c
00000070: 1190 98bc ae57 f53b 75f3 cdb9 e428 a13c
00000080: 4763 613c 53a8 fd3c 5ca9 bdbd daa5 3e3c
00000090: 6bdc 85bb d5c5 5fbc d450 773b 371c 073d
000000a0: 2c70 9cbc 9576 bebc f337 65bb 5099 3abc
000000b0: 7c43 fcb9 9273 8239 01d5 d53c 5dcc 4e3d
000000c0: ab01 0abc 688c fb3b 8900 debc 654d f13a
000000d0: 3c6e 323d 977b 8c3d 0f04 1bbc 87b5 913b
000000e0: 4f67 033d 767d a83b 4940 bf3b 8544 fc3c
000000f0: ec1a 9d3c 9337 043b ae69 833c af0a 7ebd
00000100: 7deb 163c 5dba 723b b3ad 6dbd a0fc 533d
00000110: f1ae ed3c f304 fe3c 8b39 81bc 3ef7 75bb
00000120: 41b3 fa39 746b 983c ef32 4b3c 0e06 9b3c
00000130: 1d3a a63c a516 02bb 877a 72bb e0f5 023d
00000140: aaf4 94bd e81d ff3c 5cc5 1ebd ab2f 86bd
00000150: d7e1 a8bc a9f2 c03c c72a 0cbb fa86 ee3c
00000160: 44a0 af3a c8f4 0fbb 95d3 303c 3e93 64b9
00000170: 24fb 5fbb af96 febc 7ab2 d5bc 8cf4 93bb
00000180: bd84 fc3c 4fa7 e03b 0321 453c ef7d 963c
00000190: 558b 423d 9b03 a5ba dca6 dc3b eedd 9dbc
000001a0: 25dc 293d 660c b63c b239 20bc 5cbb bd3c
000001b0: affe d1ba 27ef c53c 503c a23a 2d89 8c3b
000001c0: 5df4 6cbd 1d78 b73c 17a0 8b3c 511a 673b
000001d0: 98de 15bc c71a 03bc 4584 a73b 74ba cf3b
000001e0: 6145 17bd 84cb 65bc 434c 36bb 8ec6 473b
000001f0: 2cfd dc3c 1393 82bc da1c bc3c e3c1 4a3d
00000200: de0d bd3c 7469 aabc c724 8a3c 4cea 1bbd
00000210: e112 efbb 4b69 f6bb 0840 0bbc 41b2 503c
00000220: 9bff b63c 8fbc 993b 55ec 35bd 488e 09bd
00000230: 9752 113c 20d6 cfbc f33e ce3b 4cf6 4f3c
00000240: 5087 353d 0aad e4bc 7eba 29bd 613d bb3c
00000250: a80e e63c c795 3e3b 59d1 66bb 25f5 e33b
00000260: 2e10 debc ad94 523d 5584 0d3b 98f7 d3bc
00000270: 6c1a ea3b ddc7 433a 28cc b6bb 440a 543c
00000280: c38c 333c 311b 993d 2726 21bc a78f dcba
00000290: befa bfbc 8cee 033b 8682 a23c 1774 c93b
000002a0: a63f cabc 9250 eabb df1c 173c 5eb6 1e3c
000002b0: b412 0c3b 3167 163b 8517 013d acab 97bb
000002c0: 4381 453c 12db 7abb 8da6 5a3b 61a3 b93a
000002d0: 1ead 8e3b 18eb 54ba 58ae 9c3b 501e a4bc
000002e0: b680 253d 8f2e ad3b 3c41 81bc 8a6a 243c
000002f0: 338e 193b ae0b ebbb 68c2 cbba cdb2 4c3c
00000300: 92f6 fdbc 9b3a 063d deaf 17bd 65ff dfbc
00000310: 2d4d 74bb a3fa 1b3d b548 bcbc c510 f43c
00000320: 13bc bf3c 4fad fc3c 070b 213b 990b e639
00000330: b029 3a3c 0d7a 20bc ae04 173c 51bd b63c
00000340: 0687 0a3c c356 6bbb e554 993c 444d 7ebc
00000350: 024b 27bc 85a4 853c 4d65 44bd 1629 073c
00000360: d18c be3c 3c2e cabc b239 89bc 2de7 b93b
00000370: 161a 17bb 32c3 9d3b 5eaf c73b 67d9 83bb
00000380: 2a1f e43c d50f 333d abf2 b03b be29 0c3c
00000390: 7c11 353a e795 8c3c 1d5a 21bc af47 433d
000003a0: 6464 f43c 59f5 bcbc 5fed e0bb 4ae3 1cbc
000003b0: 8d42 623c 4285 49bc aa02 413c 220a fabc
000003c0: 73c7 99bd 2ca4 0b3b 683e b73c db3c 1a3c
000003d0: 5f2a 623b ad7e 6cbb 1219 51bc 2f22 363c
000003e0: fd93 30bd e376 2a3d 2b31 83bc e893 2f3d
000003f0: 1231 643a 4c83 a43c 1763 83bc 281c 9b39

action_model._discrete_distribution.branches.0.bias f4 [4]
-0.016787408 -0.00317203 -0.04061848 0.057137337
00000000: bf85 89bc d5e1 4fbb 905f 26bd d708 6a3d

action_model._discrete_distribution.branches.1.weight f4 [5, 512]
0.0016266013 -0.0035048965 0.030652264 0.0069841584 -0.0054493723 -0.03281591 0.0051634847 -0.008327105
-0.017938009 0.018998252 0.014720037 0.0031770214 -0.0005048437 0.023235997 0.008256317 0.013583847
0.04020328 0.03143816 0.0029487996 -0.002932778 0.016723854 -0.036313727 -0.031642657 -0.021050278
0.004968882 -0.0013766793 0.01211553 -0.017658278 0.0073495386 0.028883083 0.010508959 -0.016185869
0.024621995 -0.023478674 -0.008469831 -0.012832071 0.019010661 0.02110474 0.020486517 -0.010679485
-0.004006937 0.033204272 0.01170067 0.013586179 -0.004957755 -0.010165233 0.0010093736 0.02808267
-0.00027132328 -0.0017235243 0.009832876 -0.007059365 0.006960983 0.010374767 -0.014642616 0.00752657
0.045149907 -0.01446848 0.01417109 0.0021149176 -0.007885647 0.05529351 0.0026387258 -0.032741502
0.005403534 0.018137291 0.022846594 0.010310033 -0.0081676785 0.01167425 -0.019204589 -0.017596494
0.011731757 0.018101865 0.020546753 -0.017197661 -0.010813718 0.001893006 0.008728862 -0.011003642
-0.022832777 -0.0056929714 0.006156499 0.00040553964 0.030502524 0.013109997 0.009394456 0.010967506
-0.03116086 -0.0008139579 0.030497126 0.004580106 -0.009913761 -0.010658961 -0.002761292 0.0137370275
0.0091349045 0.009205257 -0.012629925 -0.017103573 -0.0019727855 -0.013404686 0.01323834 -0.004464378
-0.03144104 0.020836998 0.0052426513 -0.014115915 0.044490278 0.023207292 -0.010467792 0.034918778
0.019783983 -0.0120532345 0.0050094114 -0.005707686 0.035650752 0.008634928 0.029892502 0.040388264
-0.005875431 0.023990953 -0.00769626 -0.033055823 -0.0075918157 0.003021514 -0.012119693 -0.0046867174
-0.019755976 0.0021145681 -0.003916562 -0.02027312 0.044924043 -0.00038449376 0.035593446 -0.02082472
0.012529946 0.042195715 0.028317057 0.027401155 0.006660504 0.04034818 -0.019869132 0.018214734
-0.0019075491 -0.028523838 -0.01753762 0.032816276 0.016153906 0.021172104 0.029650755 0.007082433
0.001612999 0.013588056 -0.012383883 -0.016524673 0.03239658 -0.009665005 0.015320508 0.008705392
-0.0015008291 -0.0056641833 0.026409293 0.020803167 -0.012581902 0.008745805 0.0038525874 0.0136881005
0.024332542 -0.006769481 0.038477108 0.003017041 -0.025627872 -0.015870009 -0.010711757 -0.023747955
0.0019528853 -0.014571396 0.022076841 0.009328843 0.005090165 0.028927047 0.051968586 0.014006796
-0.015291666 0.006470116 0.011177856 0.015789041 0.010215504 0.005530573 0.008031447 0.0005890571
-0.02948897 0.044179883 0.009416675 -0.010081122 0.020054845 0.028917292 0.01696135 0.0070842104
-0.0042806678 0.008970274 -0.0078546675 0.008117023 -0.022177104 -0.024674593 -0.021437593 0.005697876
-0.003637458 0.023728162 0.030889621 0.010564419 0.013733589 -0.031138642 -0.007864394 0.021333123
0.019130258 0.016034259 -0.0048665632 -0.00013275418 0.016030135 0.045859776 0.0040597823 0.013633254
0.015902359 -0.039087933 0.0068085967 -0.0210636 -0.013006167 -0.014778409 -0.004406787 -0.024110114
0.0048980284 0.02518917 0.023330873 0.0063646752 0.0021879997 0.021693828 -0.00617404 0.03683173
-0.01820427 -0.009165263 0.024073934 -0.009139705 0.0032836713 -0.015045143 0.0018095385 0.016591895
-0.007315452 -0.0071420926 -0.039750215 0.0018076736 -0.004651224 0.0010400317 -0.0354865 -0.001989572
00000000: af33 d53a 68b2 65bb 751a fb3c 5edb e43b
00000010: a690 b2bb fa69 06bd 7332 a93b 696e 08bc
00000020: bbf2 92bc 39a2 9b3c 4f2c 713c 9335 503b
00000030: 7d57 04ba 6b59 be3c 8145 073c c98e 5e3c
00000040: 32ac 243d 4dc5 003d a640 413b da33 40bb
00000050: 7700 893c b4bd 14bd bb9b 01bd a271 acbc
00000060: 01d2 a23b b171 b4ba 3780 463c 18a8 90bc
00000070: 66d4 f03b 379c ec3c c52d 2c3c 3a98 84bc
00000080: 11b4 c93c 5956 c0bc 0cc5 0abc 9b3d 52bc
00000090: 3fbc 9b3c d9e3 ac3c 57d3 a73c 02f9 2ebc
000000a0: a04c 83bb 3401 083d 2bb4 3f3c 9198 5e3c
000000b0: aa74 a2bb 148c 26bc f54c 843a a10d e63c
000000c0: 6540 8eb9 e1e7 e1ba 121a 213c 3f52 e7bb
000000d0: f518 e43b edfa 293c 95e7 6fbc 72a1 f63b
000000e0: 1cef 383d 340d 6dbc dc2d 683c 6e9a 0a3b
000000f0: cd32 01bc 737b 623d 79ee 2c3b f41b 06bd
00000100: 2110 b13b a894 943c c828 bb3c 6aeb 283c
00000110: bad1 05bc 5a45 3f3c f152 9dbc 8626 90bc
00000120: 8e36 403c 5d4a 943c aa51 a83c 1ce2 8cbc
00000130: 052c 31bc be1e f83a 8003 0f3c 9f48 34bc
00000140: ce0b bbbc 1b8c babb 75bc c93b 9c9e d439
00000150: 6ee0 f93c 50cb 563c 34eb 193c 0eb1 333c
00000160: 0f45 ffbc ca5f 55ba 1cd5 f93c b714 963b
00000170: 546d 22bc eca2 2ebc cbf6 34bb 4511 613c
00000180: 91aa 153c a5d1 163c bfed 4ebc cb1c 8cbc
00000190: d949 01bb 549f 5bbc 9fe5 583c eb49 92bb
000001a0: 52c8 00bd 5ab2 aa3c 8cca ab3b 7046 67bc
000001b0: 703b 363d 381d be3c 1a81 2bbc fe06 0f3d
000001c0: 0512 a23c ee7a 45bc fd25 a43b 8a07 bbbb
000001d0: 8606 123d 8379 0d3c 1fe1 f43c 2a6e 253d
000001e0: b086 c0bb ad88 c43c e930 fcbb 8b65 07bd
000001f0: c4c4 f8bb 9804 463b ad91 46bc 0993 99bb
00000200: 49d7 a1bc 9194 0a3b 8156 80bb d013 a6bc
00000210: 4602 383d e195 c9b9 6fca 113d 9a98 aabc
00000220: 674a 4d3c 6ad5 2c3d 2cf9 e73c 6378 e03c
00000230: 5b40 da3b 2244 253d 97c4 a2bc 1137 953c
00000240: ba06 faba d3aa e9bc 0eab 8fbc 5c6a 063d
00000250: 3255 843c 1f71 ad3c 24e6 f23c c113 e83b
00000260: 446b d33a 70a0 5e3c c5e5 4abc c05e 87bc
00000270: 47b2 043d f859 1ebc de02 7b3c 0fa1 0e3c
00000280: 78b7 c4ba 9d9a b9bb 4d58 d83c 676b aa3c
00000290: 5224 4ebc 914a 0f3c b17b 7c3b 0e44 603c
000002a0: 0a55 c73c 86d2 ddbb 2c9a 1d3d 8cb9 453b
000002b0: 8bf1 d1bc d201 82bc 5d80 2fbc 128b c2bc
000002c0: f5f7 ff3a ddbc 6ebc 7eda b43c 01d8 183c
000002d0: 66cb a63b 6af8 ec3c 03dd 543d c37c 653c
000002e0: e589 7abc 4403 d43b 5323 373c 0558 813c
000002f0: ee5e 273c cf39 b53b 5596 033c f46a 1a3a
00000300: da92 f1bc f7f5 343d 6648 1a3c 4a2b 25bc
00000310: 0f4a a43c f5e3 ec3c 87f2 8a3c aa22 e83b
00000320: d844 8cbb 0ef8 123c ddb0 00bc 43fd 043c
00000330: c2ac b5bc 5f22 cabc e49d afbc 40b5 ba3b
00000340: 6b62 6ebb 9061 c23c 3b0c fd3c 6316 2d3c
00000350: d902 613c 7716 ffbc a9d9 00bc cdc2 ae3c
00000360: 0fb7 9c3c 475a 833c b177 9fbb ee33 0bb9
00000370: a151 833c 76d7 3b3d ec07 853b 035e 5f3c
00000380: aa45 823c ab1a 20bd a61a df3b 928d acbc
00000390: d117 55bc 2421 72bc cf66 90bb 9382 c5bc
000003a0: a47f a03b 8559 ce3c 6320 bf3c c48e d03b
000003b0: 8b64 0f3b 41b7 b13c 9a4f cabb dedc 163d
000003c0: 1f21 95bc e629 16bc b336 c53c b4be 15bc
000003d0: dd32 573b e77f 76bc 092e ed3a baeb 873c
000003e0: 76b6 efbb 3708 eabb 1fd1 22bd 76ef ec3a
000003f0: 4b69 98bb ac51 883a 4b5a 11bd 7b63 02bb

action_model._discrete_distribution.branches.1.bias f4 [5]
-0.016305003 -0.0020197632 0.029410046 -0.0013123554 0.0049644792
00000000: 1292 85bc 015e 04bb 56ed f03c 5703 acba
00000010: 12ad a23b

exp_avg f4 [512, 40]
0.0 -7.014497e-06 0.0 8.1100516e-05 6.779328e-05 0.0 -2.0455438e-05 0.0
9.4541465e-05 7.1365066e-05 0.0 4.237995e-05 0.0 3.1706062e-05 6.516623e-05 0.0
4.0790925e-05 0.0 3.3295084e-05 6.312383e-05 0.0 7.324575e-05 0.0 8.4027124e-07
4.905846e-05 0.0 6.359548e-05 0.0 1.0490548e-05 5.440681e-05 0.0 4.9886068e-05
0.0 2.4199962e-05 3.792483e-05 -6.243208e-05 -0.0004002656 -1.0683723e-05 -0.0019232298 -5.319155e-05
0.0 -2.4216119e-05 0.0 8.9506255e-05 6.976303e-05 0.0 -1.3876281e-05 0.0
7.916641e-05 6.772067e-05 0.0 5.736124e-06 0.0 5.955402e-05 6.6526045e-05 0.0
-8.866007e-06 0.0 7.415614e-05 6.784189e-05 0.0 7.647074e-05 0.0 -1.1180617e-05
4.4990367e-05 0.0 4.3913726e-05 0.0 2.1376416e-05 6.284144e-05 0.0 8.7706794e-05
0.0 -2.2416676e-05 1.9711293e-05 9.381411e-05 -0.0008756018 0.00012790722 0.004084456 6.664628e-05
0.0 2.0889673e-05 0.0 0.00013625016 0.00015752786 0.0 1.3196017e-05 0.0
0.00014394382 0.00015677851 0.0 6.0225488e-05 0.0 9.691433e-05 0.00015454718 0.0
-1.4556522e-05 0.0 0.00017169633 0.00016268207 0.0 0.00015066544 0.0 6.474353e-06
0.00013304422 0.0 3.493303e-05 0.0 0.00012220678 0.00016190487 0.0 0.00014713198
0.0 1.0007835e-05 0.00010209381 -2.3170387e-05 -0.001898522 1.24614435e-05 0.0004984923 1.7659717e-05
0.0 -1.0996364e-05 0.0 -8.677148e-05 -9.393983e-05 0.0 -3.723873e-05 0.0
-6.0529143e-05 -9.0170215e-05 0.0 -5.4382188e-05 0.0 -4.3385673e-05 -9.886409e-05 0.0
-0.00010400441 0.0 6.2365853e-06 -7.621089e-05 0.0 -3.8605234e-05 0.0 -5.9162594e-05
-4.6815967e-05 0.0 -0.00015331489 0.0 5.554701e-05 -7.7972705e-05 0.0 -6.589032e-05
0.0 -3.187752e-05 -3.8476184e-05 -7.35877e-05 9.231173e-05 -1.9362655e-05 -0.0031729802 -5.1202296e-05
0.0 3.725745e-05 0.0 4.805347e-05 7.6896446e-05 0.0 3.006293e-06 0.0
8.230463e-05 8.268585e-05 0.0 8.298079e-05 0.0 2.3301218e-06 4.801179e-05 0.0
4.6411387e-05 0.0 3.8899518e-05 8.1215665e-05 0.0 7.304174e-05 0.0 1.226919e-05
5.6370132e-05 0.0 4.604761e-05 0.0 3.9263286e-05 7.195776e-05 0.0 8.691554e-05
0.0 -1.6046288e-06 5.690413e-05 9.790865e-05 -0.00014586802 0.0001641676 0.002970309 0.000121850055
0.0 8.475573e-05 0.0 0.00011308952 0.0001919552 0.0 1.6935091e-05 0.0
0.00018091017 0.00021064257 0.0 6.7045905e-05 0.0 0.00013079937 0.00016428989 0.0
7.710222e-05 0.0 0.00012074305 0.00017881946 0.0 0.00020546127 0.0 -7.6160322e-06
0.00014659399 0.0 6.7304616e-05 0.0 0.00013054065 0.0001464964 0.0 0.00016104849
0.0 3.6796762e-05 0.0001497504 -0.00018360218 -0.00036700832 -1.7102295e-05 -0.004332299 -0.00021887149
0.0 -4.649564e-05 0.0 -0.0003064055 -0.0002941069 0.0 8.658143e-05 0.0
-0.00043948257 -0.00035577736 0.0 -0.00027005808 0.0 -8.284302e-05 -0.00020809505 0.0
00000000: 0000 0000 125e ebb6 0000 0000 8214 aa38
00000010: 3d2c 8e38 0000 0000 b897 abb7 0000 0000
00000020: 9044 c638 d4a9 9538 0000 0000 20c1 3138
00000030: 0000 0000 20fc 0438 daa9 8838 0000 0000
00000040: ec16 2b38 0000 0000 53a6 0b38 5961 8438
00000050: 0000 0000 839b 9938 0000 0000 008f 6135
00000060: 1fc4 4d38 0000 0000 905e 8538 0000 0000
00000070: 9000 3037 de32 6438 0000 0000 c23c 5138
00000080: 0000 0000 0601 cb37 7a11 1f38 f8ed 82b8
00000090: bdda d1b9 3e3e 33b7 e214 fcba fe19 5fb8
000000a0: 0000 0000 b823 cbb7 0000 0000 4eb5 bb38
000000b0: be4d 9238 0000 0000 2cce 68b7 0000 0000
000000c0: 2506 a638 4205 8e38 0000 0000 ee78 c036
000000d0: 0000 0000 a4c9 7938 e683 8b38 0000 0000
000000e0: 36bf 14b7 0000 0000 4684 9b38 5646 8e38
000000f0: 0000 0000 ea5e a038 0000 0000 6294 3bb7
00000100: 0ab4 3c38 0000 0000 0130 3838 0000 0000
00000110: 8151 b337 bec9 8338 0000 0000 3aef b738
00000120: 0000 0000 720b bcb7 ae59 a537 11be c438
00000130: a488 65ba d51e 0639 e6d6 853b 73c4 8b38
00000140: 0000 0000 3b3c af37 0000 0000 60de 0e39
00000150: 102e 2539 0000 0000 7664 5d37 0000 0000
00000160: a0ef 1639 e964 2439 0000 0000 a09a 7c38
00000170: 0000 0000 7c3e cb38 f10d 2239 0000 0000
00000180: c937 74b7 0000 0000 6209 3439 a395 2a39
00000190: 0000 0000 f2fb 1d39 0000 0000 453e d936
000001a0: c981 0b39 0000 0000 0e85 1238 0000 0000
000001b0: a224 0039 02c5 2939 0000 0000 7147 1a39
000001c0: 0000 0000 53e7 2737 321b d638 075e c2b7
000001d0: d4d7 f8ba 7e11 5137 41ad 023a f423 9437
000001e0: 0000 0000 067d 38b7 0000 0000 15f9 b5b8
000001f0: 9001 c5b8 0000 0000 c830 1cb8 0000 0000
00000200: ace0 7db8 c419 bdb8 0000 0000 6e18 64b8
00000210: 0000 0000 03f9 35b8 4155 cfb8 0000 0000
00000220: f11c dab8 0000 0000 dc43 d136 69d3 9fb8
00000230: 0000 0000 0eec 21b8 0000 0000 5a25 78b8
00000240: 435c 44b8 0000 0000 27c3 20b9 0000 0000
00000250: 26fb 6838 4785 a3b8 0000 0000 992e 8ab8
00000260: 0000 0000 3ab4 05b8 7d61 21b8 1853 9ab8
00000270: 7c97 c138 fc6c a2b7 c6f1 4fbb 0cc2 56b8
00000280: 0000 0000 e244 1c38 0000 0000 058d 4938
00000290: 7743 a138 0000 0000 b8bf 4936 0000 0000
000002a0: f69a ac38 a167 ad38 0000 0000 f905 ae38
000002b0: 0000 0000 305f 1c36 4460 4938 0000 0000
000002c0: d9a9 4238 0000 0000 0a28 2338 5452 aa38
000002d0: 0000 0000 fc2d 9938 0000 0000 c5d7 4d37
000002e0: f86e 6c38 0000 0000 3f23 4138 0000 0000
000002f0: a2ae 2438 07e8 9638 0000 0000 6d46 b638
00000300: 0000 0000 a05e d7b5 58ac 6e38 4e54 cd38
00000310: 26f4 18b9 6824 2c39 84a9 423b c089 ff38
00000320: 0000 0000 e3be b138 0000 0000 792a ed38
00000330: 9547 4939 0000 0000 d50f 8e37 0000 0000
00000340: b4b2 3d39 efdf 5c39 0000 0000 ff9a 8c38
00000350: 0000 0000 3027 0939 3b45 2c39 0000 0000
00000360: f0b1 a138 0000 0000 6e37 fd38 7c81 3b39
00000370: 0000 0000 1771 5739 0000 0000 388d ffb6
00000380: 06b7 1939 0000 0000 e425 8d38 0000 0000
00000390: bde1 0839 d49c 1939 0000 0000 20df 2839
000003a0: 0000 0000 3956 1a38 5106 1d39 5685 40b9
000003b0: 066b c0b9 e676 8fb7 f5f5 8dbb de80 65b9
000003c0: 0000 0000 5004 43b8 0000 0000 0da5 a0b9
000003d0: 5c32 9ab9 0000 0000 0d93 b538 0000 0000
000003e0: 5a6a e6b9 a187 bab9 0000 0000 9596 8db9
000003f0: 0000 0000 02bc adb8 1734 5ab9 0000 0000

exp_avg_sq f4 [512, 40]
0.0 5.08307e-09 0.0 1.6854814e-08 1.8819316e-08 0.0 5.259949e-09 0.0
1.6159998e-08 1.8788661e-08 0.0 9.651826e-09 0.0 1.124833e-08 1.699196e-08 0.0
9.509537e-09 0.0 1.2057055e-08 1.7331683e-08 0.0 1.34788e-08 0.0 8.67792e-09
1.37876475e-08 0.0 1.408408e-08 0.0 7.2626007e-09 1.4505502e-08 0.0 1.6419282e-08
0.0 5.4460427e-09 1.204702e-08 1.6759547e-08 2.8040404e-07 4.4056376e-09 1.3751976e-05 2.1290253e-08
0.0 5.516915e-09 0.0 2.4536858e-08 2.7091948e-08 0.0 2.0641082e-09 0.0
2.8449712e-08 2.9355478e-08 0.0 1.9022645e-08 0.0 1.0026059e-08 1.7202513e-08 0.0
4.144944e-09 0.0 2.6052438e-08 2.8358162e-08 0.0 2.635727e-08 0.0 3.664752e-09
1.0206846e-08 0.0 1.0146338e-08 0.0 1.9145205e-08 2.644828e-08 0.0 2.8976089e-08
0.0 1.8100496e-09 7.179118e-09 2.6615536e-08 1.5297799e-06 5.513956e-08 5.8474063e-05 2.9516663e-08
0.0 5.8543894e-09 0.0 2.5548967e-08 2.828281e-08 0.0 3.559315e-09 0.0
2.6899276e-08 2.9191591e-08 0.0 1.8662647e-08 0.0 1.1647381e-08 2.0486384e-08 0.0
5.6363345e-09 0.0 2.4489026e-08 2.853975e-08 0.0 2.4410266e-08 0.0 5.364669e-09
1.3312368e-08 0.0 9.784047e-09 0.0 2.077719e-08 2.7093403e-08 0.0 2.6028316e-08
0.0 4.2292183e-09 1.0262262e-08 2.3914382e-08 2.6641248e-06 2.896104e-08 5.4387325e-05 2.7736279e-08
0.0 2.977734e-09 0.0 1.0740118e-07 1.1010571e-07 0.0 1.5005337e-08 0.0
9.379737e-08 1.0661892e-07 0.0 3.647755e-08 0.0 7.716839e-08 9.177463e-08 0.0
3.53985e-08 0.0 7.6515434e-08 9.847161e-08 0.0 8.064841e-08 0.0 3.1990936e-08
6.269896e-08 0.0 6.729714e-08 0.0 4.1443624e-08 8.573268e-08 0.0 1.0546042e-07
0.0 8.105077e-09 4.113042e-08 9.526573e-08 1.21011535e-05 2.7896593e-07 0.00037279123 1.0340677e-07
0.0 6.3582426e-08 0.0 1.0714205e-07 1.4341975e-07 0.0 5.347138e-08 0.0
1.2561942e-07 1.4799073e-07 0.0 8.2576435e-08 0.0 9.066211e-08 1.1973945e-07 0.0
6.938378e-08 0.0 1.07327594e-07 1.3393033e-07 0.0 1.0229608e-07 0.0 7.498085e-08
1.01751894e-07 0.0 7.970867e-08 0.0 9.344814e-08 1.2621273e-07 0.0 1.11239785e-07
0.0 6.2272505e-08 9.0393236e-08 1.240966e-07 6.2917075e-06 1.5269775e-07 0.00023025017 1.6306151e-07
0.0 4.082398e-08 0.0 8.45743e-08 1.1049996e-07 0.0 5.178942e-08 0.0
7.395197e-08 9.924804e-08 0.0 3.5208434e-08 0.0 9.490195e-08 1.1418628e-07 0.0
9.501993e-08 0.0 3.427034e-08 7.2568135e-08 0.0 4.2203755e-08 0.0 8.55146e-08
1.0756808e-07 0.0 1.0052801e-07 0.0 2.7888381e-08 6.0978394e-08 0.0 5.18905e-08
0.0 7.693737e-08 1.035881e-07 8.656645e-08 1.1770849e-06 1.5880142e-08 5.517267e-05 1.2501947e-07
0.0 2.6013925e-07 0.0 3.0159705e-07 4.3735326e-07 0.0 1.157879e-07 0.0
4.490152e-07 5.1825157e-07 0.0 4.05272e-07 0.0 1.5120854e-07 3.1515194e-07 0.0
00000000: 0000 0000 28a7 ae31 0000 0000 21c8 9032
00000010: 1da8 a132 0000 0000 00bb b431 0000 0000
00000020: 36d0 8a32 b464 a132 0000 0000 2ed1 2532
00000030: 0000 0000 ae3e 4132 b7f5 9132 0000 0000
00000040: 635f 2332 0000 0000 7d23 4f32 c6e0 9432
00000050: 0000 0000 6490 6732 0000 0000 e515 1532
00000060: b7de 6c32 0000 0000 70f6 7132 0000 0000
00000070: 838a f931 df33 7932 0000 0000 620a 8d32
00000080: 0000 0000 e61f bb31 5bf7 4e32 a2f6 8f32
00000090: 708a 9634 6660 9731 4ab8 6637 c3e1 b632
000000a0: 0000 0000 4c8f bd31 0000 0000 1fc5 d232
000000b0: d3b7 e832 0000 0000 2dd8 0d31 0000 0000
000000c0: 9461 f432 6129 fc32 0000 0000 3d67 a332
000000d0: 0000 0000 133f 2c32 bac4 9332 0000 0000
000000e0: 506b 8e31 0000 0000 ebc9 df32 4298 f332
000000f0: 0000 0000 4068 e232 0000 0000 00d7 7b31
00000100: 2f5a 2f32 0000 0000 1150 2e32 0000 0000
00000110: c074 a432 6230 e332 0000 0000 18e7 f832
00000120: 0000 0000 75c5 f830 31ac f631 2fa0 e432
00000130: d652 cd35 96d2 6c33 0c42 7538 d48b fd32
00000140: 0000 0000 c127 c931 0000 0000 c676 db32
00000150: 8ff2 f232 0000 0000 2298 7431 0000 0000
00000160: 2210 e732 fdc0 fa32 0000 0000 984f a032
00000170: 0000 0000 b919 4832 09fa af32 0000 0000
00000180: b9a9 c131 0000 0000 f05b d232 9327 f532
00000190: 0000 0000 beae d132 0000 0000 2154 b831
000001a0: 6ab4 6432 0000 0000 b216 2832 0000 0000
000001b0: 8679 b232 06bb e832 0000 0000 df94 df32
000001c0: 0000 0000 9950 9131 e84d 3032 486c cd32
000001d0: 51c9 3236 00c6 f832 f21d 6438 b940 ee32
000001e0: 0000 0000 daa0 4c31 0000 0000 6ca4 e633
000001f0: 4173 ec33 0000 0000 16e5 8032 0000 0000
00000200: a66d c933 5ff6 e433 0000 0000 7eab 1c33
00000210: 0000 0000 c5b7 a533 a315 c533 0000 0000
00000220: 1009 1833 0000 0000 ce50 a433 5777 d333
00000230: 0000 0000 ef30 ad33 0000 0000 6866 0933
00000240: 1ea5 8633 0000 0000 fe84 9033 0000 0000
00000250: bfff 3133 0a1c b833 0000 0000 7b79 e233
00000260: 0000 0000 813e 0b32 60a7 3033 e494 cc33
00000270: 0f06 4b37 c9c4 9534 3173 c339 7910 de33
00000280: 0000 0000 cf8a 8833 0000 0000 f715 e633
00000290: ecfe 1934 0000 0000 67a8 6533 0000 0000
000002a0: 01e2 0634 62e7 1e34 0000 0000 e054 b133
000002b0: 0000 0000 06b2 c233 bb91 0034 0000 0000
000002c0: 2300 9533 0000 0000 f87b e633 7dce 0f34
000002d0: 0000 0000 ddad db33 0000 0000 2905 a133
000002e0: b282 da33 0000 0000 4e2c ab33 0000 0000
000002f0: a9ad c833 1785 0734 0000 0000 b8e2 ee33
00000300: 0000 0000 acba 8533 351e c233 6a3f 0534
00000310: 5b1d d336 3df5 2334 4f6f 7139 0216 2f34
00000320: 0000 0000 7156 2f33 0000 0000 379f b533
00000330: ff4b ed33 0000 0000 126f 5e33 0000 0000
00000340: 87cf 9e33 3022 d533 0000 0000 1538 1733
00000350: 0000 0000 e6cc cb33 9236 f533 0000 0000
00000360: c20d cc33 0000 0000 a330 1333 c1d6 9b33
00000370: 0000 0000 8543 3533 0000 0000 26a4 b733
00000380: 2d00 e733 0000 0000 dce1 d733 0000 0000
00000390: 338f ef32 3af3 8233 0000 0000 35de 5e33
000003a0: 0000 0000 c438 a533 2974 de33 69e6 b933
000003b0: 54fc 9d35 cd68 8832 3469 6738 173d 0634
000003c0: 0000 0000 44a9 8b34 0000 0000 2feb a134
000003d0: 60cd ea34 0000 0000 12a7 f833 0000 0000
000003e0: 2e10 f134 fa1d 0b35 0000 0000 2994 d934
000003f0: 0000 0000 e35b 2234 2732 a934 0000 0000

exp_avg f4 [512]
7.4086005e-05 6.5290136e-05 0.00015713982 -9.776789e-05 8.531091e-05 0.00019784528 -0.00035290114 -8.993041e-05
-5.805159e-05 -3.0779458e-05 -2.5072912e-05 6.890949e-05 0.00013033175 -0.00011607642 -0.00013875873 0.00017724921
2.8551132e-05 -0.00042636105 3.8500315e-05 0.000111961606 5.713125e-05 0.0003004243 0.00065854087 0.0001659562
4.9169532e-05 -5.4880766e-05 6.521662e-05 -0.0005862151 4.7116446e-05 -9.201509e-05 7.6528675e-05 1.8367286e-05
-0.00015498913 0.000860907 0.00025603356 9.730688e-05 -6.783869e-05 -0.0002568206 6.3372645e-06 8.39218e-05
5.137967e-05 5.2230254e-05 -3.5979187e-06 -2.6880676e-05 -2.4404504e-05 0.00014704876 7.822489e-05 2.0222393e-05
2.0950745e-05 -3.018007e-05 9.790209e-05 -4.961872e-05 0.00016823731 6.7418834e-05 -0.00050778064 1.06166135e-05
-0.00020744003 -7.086356e-05 -0.00016319654 -9.8867284e-05 0.00015738426 -0.00033856777 0.00015998879 0.00075981184
-0.00021113137 -0.00053430273 -0.00053672894 -9.553237e-05 -4.257387e-05 -8.675974e-05 -0.000253119 0.0001317956
-0.00010673763 -8.64218e-05 -8.5398606e-05 -8.449533e-06 -0.00012587744 -0.0001752007 -0.0005483975 -1.8778668e-05
0.0019625113 -0.00024206279 0.00021353728 0.0009440825 1.38945525e-05 -4.0999672e-05 0.0001314492 -2.0969019e-05
-5.9207596e-06 -1.7656523e-05 0.00014265068 6.3107516e-05 0.00020084271 0.0010616521 0.00036551993 -2.5377827e-05
6.266571e-05 0.00027369475 9.2535265e-06 -0.00019281382 7.0675786e-05 -2.2779297e-05 -4.8040365e-05 2.6563204e-05
0.00014412488 -0.00025002577 -7.0442184e-05 -5.0503113e-06 0.00012370473 0.00051852106 6.004136e-05 -9.445852e-06
-6.5352506e-05 7.1859875e-05 -1.322186e-05 5.42013e-06 0.00019805014 -3.6894704e-05 -2.8059261e-05 -0.00025448418
0.0002100945 7.733212e-05 0.00013439781 -1.561521e-05 -5.1960928e-05 -4.4267796e-05 -2.480139e-05 0.00022719117
-5.3758646e-05 -0.00033016098 2.7242782e-05 0.00064319925 -0.00032571197 0.00013808126 -0.0002084574 0.0007335198
-4.182674e-05 -7.0700444e-05 3.509718e-05 1.0062813e-06 4.836452e-05 -0.000113149705 -0.0002502518 4.667896e-05
0.00012805991 0.0010023583 0.0005792608 -0.0002536135 -3.6722755e-05 0.00025094041 -0.0002203281 4.9226128e-05
4.7512567e-05 -2.4332046e-05 -5.5507484e-05 0.00016696786 -3.870348e-05 6.29731e-05 -0.00078504294 -3.4696168e-05
6.5140324e-05 0.00011247478 9.6892734e-05 -8.142424e-06 -4.0536695e-05 0.00011382629 9.079465e-05 -7.5401855e-05
1.9206123e-05 0.00013494836 -1.1192759e-05 8.692542e-05 -3.856429e-05 0.0002461568 -0.00019438728 0.00025457196
-9.576096e-05 -8.7049804e-05 -1.557731e-05 2.9523304e-05 -0.00052297674 -4.3675656e-05 -9.12213e-05 1.3158588e-06
0.00028420007 0.00011744208 0.0002507196 -5.0437815e-05 1.21593985e-05 2.6095364e-05 -8.451022e-05 6.184827e-05
0.0009490572 0.00014104163 -0.00015929912 0.00010987346 3.2641154e-05 -0.00018949975 1.9957624e-06 -0.00010068099
-0.00052066986 -0.00030839408 1.8646238e-05 1.0637079e-05 -2.6956055e-05 0.0001578264 0.00023650416 2.00412e-05
9.103737e-05 -0.000245634 -7.8875586e-05 1.8915172e-05 -0.00022200916 2.5421345e-05 0.0010532672 -0.00053240237
5.0548864e-05 -3.263045e-05 0.0001834729 -3.8643106e-05 -4.456806e-05 -0.00014485007 4.9125614e-05 -4.1266627e-05
9.280998e-05 0.00017576889 -2.581322e-05 -3.610477e-05 5.2877444e-05 -0.0001646959 -0.00024669387 8.337191e-05
0.00011003223 -7.79581e-05 4.7251655e-05 0.00023611313 7.237326e-06 -7.691874e-05 -2.5539748e-05 -0.00014270056
0.0009852605 2.2906534e-07 -3.148203e-05 0.00012626585 1.7779816e-05 0.0004811103 0.00015691775 -5.528383e-05
0.0005626288 -0.00023662872 0.0003557708 7.645948e-05 -2.5881734e-05 2.2361215e-05 0.00010481413 2.6232963e-06
00000000: 9f5e 9b38 60ec 8838 e6c5 2439 bc08 cdb8
00000010: f2e8 b238 b074 4f39 9705 b9b9 0599 bcb8
00000020: 6c7c 73b8 3119 01b8 ab53 d2b7 8083 9038
00000030: aaa9 0839 0e6e f3b8 c37f 11b9 f9db 3939
00000040: 1781 ef37 3689 dfb9 667b 2138 eecc ea38
00000050: 36a0 6f38 4482 9d39 eea1 2c3a 8704 2e39
00000060: 623b 4e38 c62f 66b8 e8c4 8838 3bac 19ba
00000070: e69e 4538 3af8 c0b8 057e a038 7213 9a37
00000080: 9484 22b9 7eae 613a 3e3c 8639 3c11 cc38
00000090: 9f44 8eb8 e1a5 86b9 b0a4 d436 2cff af38
000000a0: 8080 5738 cf11 5b38 c673 71b6 d07d e1b7
000000b0: 46b8 ccb7 1a31 1a39 ab0c a438 42a3 a937
000000c0: 62bf af37 352b fdb7 c950 cd38 b21d 50b8
000000d0: dc68 3039 3663 8d38 951c 05ba 021e 3237
000000e0: 4284 59b9 969c 94b8 bd1f 2bb9 f856 cfb8
000000f0: 8407 2539 cc81 b1b9 aac2 2739 1c2e 473a
00000100: 2563 5db9 7310 0cba 45b3 0cba 8d58 c8b8
00000110: 5891 32b8 c8f2 b5b8 0fb5 84b9 9d32 0a39
00000120: 54d8 dfb8 5a3d b5b8 0718 b3b8 78c2 0db7
00000130: f8fd 03b9 14b6 37b9 55c2 0fba e286 9db7
00000140: 7a9d 003b 3cd2 7db9 fae8 5f39 4e7c 773a
00000150: a61c 6937 10f7 2bb8 a0d5 0939 a0e6 afb7
00000160: f0aa c6b6 181d 94b7 8094 1539 9758 8438
00000170: 4e99 5239 2227 8b3a 41a3 bf39 78e2 d4b7
00000180: 666b 8338 b07e 8f39 983f 1b37 112e 4ab9
00000190: c637 9438 2b16 bfb7 f37e 49b8 0cd4 de37
000001a0: 3a20 1739 e415 83b9 5cba 93b8 d875 a9b6
000001b0: bcb6 0139 5ced 073a ebd4 7b38 a079 1eb7
000001c0: dc0d 89b8 7ab3 9638 75d3 5db7 90de b536
000001d0: aeab 4f39 63bf 1ab8 ce60 ebb7 4a6c 85b9
000001e0: d04c 5c39 5e2d a238 23ed 0c39 68fd 82b7
000001f0: 9ff0 59b8 2fac 39b8 940c d0b7 2a3a 6e39
00000200: e87a 61b8 7519 adb9 6e87 e437 5f9c 283a
00000210: 52c4 aab9 e8c9 1039 5b95 5ab9 ae49 403a
00000220: 1f6f 2fb8 0345 94b8 4f35 1338 900f 8735
00000230: 02db 4a38 c94a edb8 3a34 83b9 27c9 4338
00000240: d247 0639 9061 833a 89d9 173a 6ef7 84b9
00000250: c206 1ab8 a790 8339 e007 67b9 2778 4e38
00000260: 3b48 4738 ac1c ccb7 b5d0 68b8 1814 2f39
00000270: 8c55 22b8 6d10 8438 57cb 4dba ba86 11b8
00000280: f29b 8838 70e0 eb38 e432 cb38 729b 08b7
00000290: f205 2ab8 06b6 ee38 0269 be38 1021 9eb8
000002a0: d61c a137 ed80 0d39 89c8 3bb7 bb4b b638
000002b0: 17c0 21b8 9b0e 8139 70d4 4bb9 1278 8539
000002c0: 46d3 c8b8 828e b6b8 05ac 82b7 d0a8 f737
000002d0: 6018 09ba 6130 37b8 104e bfb8 909c b035
000002e0: b000 9539 3d4b f638 0473 8339 318d 53b8
000002f0: 3800 4c37 5ee7 da37 143b b1b8 8ab4 8138
00000300: 27ca 783a 93e4 1339 8809 27b9 dd6b e638
00000310: 2ce8 0838 74b4 46b9 f0ee 0536 b224 d3b8
00000320: 907d 08ba f4af a1b9 7e6a 9c37 e875 3237
00000330: b01f e2b7 347e 2539 1afe 7739 261e a837
00000340: 51eb be38 70c8 80b9 026a a5b8 06ac 9e37
00000350: 21cb 68b9 ec3f d537 c80d 8a3a eb90 0bba
00000360: 6e04 5438 aedc 08b8 a262 4039 b814 22b8
00000370: 97ee 3ab8 e5e2 17b9 3a0c 4e38 b415 2db8
00000380: fba2 c238 9a4e 3839 7889 d8b7 346f 17b8
00000390: b9c8 5d38 38b2 2cb9 b156 81b9 f4d7 ae38
000003a0: 1bc1 e638 707d a3b8 1430 4638 2395 7739
000003b0: 28d8 f236 6f4f a1b8 313e d6b7 e4a1 15b9
000003c0: db23 813a 00f5 7534 930b 04b8 3b66 0439
000003d0: dd25 9537 883d fc39 4a8a 2439 8fe0 67b8
000003e0: 617d 133a 8a1f 78b9 c086 ba39 df58 a038
000003f0: 9a1c d9b7 5894 bb37 a8cf db38 e30b 3036
