MLagents_test1/results/CarAgent_reinforcement_1/CarAgent/CarAgent-1499877.pt (torch, 580945 bytes, 28 tensors)

discrete_act_size_vector f4 [1, 2]
00000000: 0000 8040 0000 a040
4.0 5.0

network_body._body_endoder.seq_layers.0.weight f4 [512, 40]
00000000: 2b48 b83d 0e3f 6ebe 9cc1 b83d 224a 69bc
00000010: a89d 1cbb 86af 893d 9ce7 b9bd 6ce7 0c3e
00000020: 8fd0 34be 3654 87bc 439c 92be cbb8 4e3e
00000030: ae02 f53d d446 48be fe18 61bc f59b 1b3c
00000040: e160 f8bc 25b4 c8bd 5700 883e be82 39ba
00000050: dfc5 9ebd 2522 80be 409c e2bd 133c 3a3b
00000060: bfaf 01b9 ace3 003c bcbc f9bc a848 2d3e
00000070: 6f5f 22be 3c07 64be c08c 8a3c bc79 613e
00000080: cd89 2cbd d350 e3bd d9da 4bbe 437e 74bc
00000090: 0e70 023d 4800 a03c 1410 93bd 9488 5b3e
000000a0: 6707 5fbe a2fd ec3d 24ca 95bd 703a b8be
000000b0: 3939 84bc 7478 e4bd 03aa e43d 80db a9bd
000000c0: 1ab5 993d fa4a 62be 95fe d1bd 47d3 403c
000000d0: 531a bc3d bfac 0ebd 0db9 d8be 4db1 2abe
000000e0: 8eae 80be c2a6 0c3d 903e 99bd 18fb acbe
000000f0: e83e 513e 52eb 0cbf b612 4c3c b2c5 24bd
00000100: 225a bd3d 77a9 833e a56a d23d 541b f8bd
00000110: f651 2ebe c821 54be 5f50 86bd 1380 20be
00000120: 9243 0ebe 1041 623e 7d3b 0cbe 4a13 eebc
00000130: 0bc0 abbc d0cc ce3d ce94 5f3e b86b 93be
00000140: 6bb8 9abd 5078 77be e916 c0bd 031d 54bd
00000150: ea76 a83d c869 883d 6375 b53d 699a 193e
00000160: e270 833d fde0 763e 2f02 94bd 903a 163e
00000170: 9de0 493d 4584 093e bcc3 8abe bb6c 743d
00000180: 1b49 6c3d 2aa6 ce3c b89c 2b3d 62f5 1bbe
00000190: 50ad 7bbe 5e6e 8cbc a587 a33c 41c2 b5bc
000001a0: 51d8 94be 8c64 d43c 029e 84be 3cdd 903d
000001b0: c0cd 8c3e 8acf acbd df80 92bd c348 e0bd
000001c0: bb13 4ebe 763d b9bd e8b1 0ebe 29a7 e63d
000001d0: e996 6dbe 0f22 b0bd c94a 1b3c 3d89 d7bd
000001e0: ca3d a73e 94f6 04be d41c 20be 7f9f 303d
000001f0: a3a4 8fbe 98c0 e1bd b2b1 9abc fe62 efbc
00000200: fd2d 0c3e 22cf 6dbe e3ce 5bbb f5a2 aabe
00000210: f5ed aebb f921 e03d b011 8639 09ba 68bd
00000220: 9b2d 78be 7f9e a8bc b482 b13d b060 a7bd
00000230: 9737 99bd 5965 b1bd dec7 8c3e c76a 1bbe
00000240: 9f11 31bc c0be 7d3d 34c5 443c 3cc5 8abe
00000250: 1d1c 17bb 18f9 afbe 0daf 0fbd e6fb 40be
00000260: 0535 eabc 9f5b 1bbf 0094 70bd e814 bcbd
00000270: 93cd 49bd c356 2b3e 42a0 1b3d 1761 f0bd
00000280: 7503 edbd 3df8 5e3e a51b 1c3e 9006 7bbe
00000290: c746 7ebd 6792 df3d 26d6 8abd 8f6c fc3b
000002a0: 91f6 053c a796 70bc a6eb 623e 76bf 76be
000002b0: fbe7 d63e 0e89 af3d 645f 72be 36bf 223d
000002c0: bfcd 283e e3e9 6ebe d928 c03c 29fc 67be
000002d0: eb7a 89bd ec5e 32be 1c3d 283d 871b 723d
000002e0: cb7b 81bc c199 28be 79de a2bd 81a8 e6bc
000002f0: b3fc 2c3e ef32 b1be 0920 ba3d 81c3 1cbe
00000300: 3f14 2abe 58dd f63d 216b a73b dcb4 7fbe
00000310: 48e8 313d 75d2 1abe f732 303d f760 ebbd
00000320: 161b a9be da7f 05bd 1c89 74be 3889 113d
00000330: 2296 d9bd 282b 8c3c d179 96be e9ce abbc
00000340: 7b13 7abe 0427 2bbd 1d25 5abd 2a10 e03c
00000350: 7ab8 1a3e daba debd 4fe4 27bd c42f 243d
00000360: fbfe 2cbe f35a 303e daa8 d3be 3df7 42be
00000370: 110d acbd bead 2c3d a536 84bd 014b 29bd
00000380: d521 b1bb 2867 213e 3116 7c3d cce3 003e
00000390: 80ca a1be 2be8 bfbe ae1c 533e 272b e1be
000003a0: 9843 8dbe 777a 883e e792 063d d4e5 1a3e
000003b0: f83a 2abc c051 423e aefd 15be 5427 5f3d
000003c0: 21bd a83e df7e 1b3e ed75 553e 1c2a 83be
000003d0: cf40 04bc 47a9 81bd d3b9 d8bd 775b a03e
000003e0: 32d9 b83e 895c 32be 8ca0 5dbe 17f5 973e
000003f0: eb86 373d 490a 8bbe 90ac e2bd ba23 433e
0.0899814 -0.23266241 0.09021303 -0.014238866 -0.0023897681 0.067229316 -0.09077379 0.13760155
-0.17657684 -0.016519647 -0.28634843 0.2018768 0.11963402 -0.19558269 -0.013738869 0.009497632
-0.030319633 -0.09799985 0.2656276 -0.0007076672 -0.07752585 -0.2502605 -0.110649586 0.0028417155
-0.00012367869 0.007866781 -0.030485503 0.16922247 -0.15856718 -0.22268385 0.016912818 0.22019094
-0.042123605 -0.110994 -0.19907703 -0.014922681 0.031845145 0.019531384 -0.07180801 0.21438819
-0.21780168 0.11571814 -0.07313946 -0.35982084 -0.016140567 -0.11155787 0.1116524 -0.082938194
0.075052455 -0.22098914 -0.10253636 0.011769122 0.091847084 -0.034832712 -0.42328683 -0.16669197
-0.25133175 0.03433872 -0.07482636 -0.3378532 0.20434153 -0.5504657 0.012455633 -0.0402276
0.09245707 0.2571523 0.10274247 -0.121145874 -0.17023453 -0.20716012 -0.06558298 -0.15673856
-0.13892964 0.22095132 -0.13694568 -0.029061932 -0.020965597 0.10097659 0.21834108 -0.2879312
-0.07554706 -0.2416699 -0.0937937 -0.05178548 0.08225806 0.06660801 0.0886028 0.15000309
0.06418015 0.24109264 -0.07226979 0.14670777 0.049286474 0.13429363 -0.27102458 0.059674006
0.057686906 0.025225718 0.041897506 -0.15230325 -0.24577832 -0.01714247 0.019962141 -0.022187354
-0.29071286 0.02592685 -0.259018 0.07073447 0.27500725 -0.084380224 -0.071534865 -0.10951378
-0.20124714 -0.09044926 -0.13935053 0.11262352 -0.23202099 -0.08600246 0.009478279 -0.10524223
0.3266433 -0.12984687 -0.15635997 0.043120857 -0.28055295 -0.110230625 -0.01888356 -0.029222008
0.13689418 -0.23223546 -0.0033540062 -0.3332745 -0.0053384253 0.1094398 0.0002557165 -0.056818042
-0.24236147 -0.02058339 0.08667508 -0.081727386 -0.07481306 -0.08661909 0.27496237 -0.15177451
-0.010807424 0.06194949 0.0120099075 -0.27103603 -0.0023057528 -0.3436973 -0.03507905 -0.18846092
-0.028589735 -0.6068668 -0.058734894 -0.09183675 -0.049268316 0.16732316 0.03799463 -0.117372684
-0.11572925 0.21774383 0.1524492 -0.24514222 -0.062079217 0.10916596 -0.06779127 0.007703371
0.008176462 -0.014684356 0.22160205 -0.24096474 0.41973862 0.08571063 -0.23669201 0.039733134
0.16484736 -0.23331408 0.023456978 -0.22654785 -0.06712898 -0.17419022 0.041073903 0.059108283
-0.0158061 -0.16464902 -0.079525895 -0.02815652 0.16893272 -0.34609172 0.090881415 -0.15308954
-0.16609286 0.12053937 0.0051092063 -0.24971336 0.04343441 -0.15119345 0.043017354 -0.11493104
-0.33028477 -0.032592632 -0.23880428 0.035531253 -0.10624339 0.017110422 -0.29389814 -0.020972686
-0.24421494 -0.041785255 -0.05325805 0.027351458 0.15109435 -0.10875483 -0.040989216 0.040084615
-0.16894142 0.17222194 -0.4133976 -0.19039626 -0.0840093 0.04215788 -0.06455735 -0.041331295
-0.0054056444 0.15762007 0.0615446 0.12586898 -0.31599808 -0.37481818 0.20616409 -0.43978235
-0.27590632 0.26655933 0.03285494 0.15126735 -0.010390036 0.18976498 -0.14647552 0.054480866
0.32956794 0.15185116 0.20845766 -0.25618064 -0.008072092 -0.06331115 -0.10582318 0.31319782
0.36103207 -0.17418112 -0.21643275 0.29679176 0.044806402 -0.27156284 -0.1106807 0.19056597

network_body._body_endoder.seq_layers.0.bias f4 [512]
00000000: e100 8cbd f5ac 92bd b29b 6abd f772 c1bd
00000010: 89c5 91bc 1094 97bd 8ab4 d43c 339d 3cbd
00000020: 3c35 00bd 6c29 f5bd 383a 513d f908 e7bd
00000030: 966e 4dbd f4db 28bd 25dd febc 29a5 9bbc
00000040: cab6 2ebd 88c0 023d 60c5 7dbd 9c7d 96bd
00000050: f69c efbc ce1c 4abd 0dbb 343c 8193 45bd
00000060: fe59 bcbd 5eaf 84bd 33f9 f9bc 92ef 26bb
00000070: cede 99bd 308f 86bd bfbb 66bd 3b51 9ebb
00000080: 0c06 00be 5475 743c ee08 083d ddc3 aabd
00000090: c1d8 67bd 1a3d efbc db09 8dbd 9c81 bcbd
000000a0: cbed e9bd 0adf 4abd 1b2c 86bc ecc0 e9bd
000000b0: b0a3 a7bd 725c afbd d805 6ebd 84ae 13bd
000000c0: af6e f3bd c172 d6bd cd32 42bd 77e9 32bb
000000d0: cd19 59bd 0848 efbc 1e24 b03c 8462 a1bd
000000e0: 389c d6bd 0c63 a1bd d52f f0bc b4be 80bc
000000f0: 4090 a0bd c1b3 95bd 0ef1 99bd cf09 e43b
00000100: 433a 003d 5813 6b3c 2c24 823d e82b 51bc
00000110: 2740 57bd 56af 15be 2991 6c3a b020 bdbd
00000120: 0cf1 353d 268e b7bd 39e3 9fbd 010d 70bd
00000130: 3b4e c63c 88df 4d3c 6a98 823d 2f34 79bd
00000140: 825a 303d 3fe7 1dbd fa82 66bc 1839 f2bb
00000150: 87fd b4bd 36d2 eebd d266 cebd 2825 6fbd
00000160: 0a0e b6bd de9e 853d 7679 7bbd f6af b7bd
00000170: 8702 fcbc 79fa 1fbc 249d e4bc fcfa b6bd
00000180: 3819 08bd d8d3 a6bd cfc2 cfbc cfea 06bd
00000190: bb2c 82bd a99d 02be 6e2e 53bd b80f 20bd
000001a0: 36f0 abbd 4d61 27bd 2eb3 76bd 64e9 b7bd
000001b0: 04a8 3ebb 4af0 e5bc 80d6 21be c536 f7bd
000001c0: 27a5 14bd e903 5bbd a95b b8bd cfe4 9bbd
000001d0: 8ca3 9ebd 4ac9 69bd 53a1 9fbd 4aa2 66bd
000001e0: d09c 62bd fce5 e0bd daa8 283c 9d03 d03c
000001f0: 17f4 8dbd edd6 1dbd be92 89bd 4262 84bd
00000200: 8dcd 15bd e1b3 3ebb 0d08 5ebd 325b 043c
00000210: 527b 843d 130e 24bd 46b1 ba3a d62d 8bbc
00000220: f35d 00be 5f9e 3bbc 44de e4ba b57d 81bd
00000230: 42fe 57bd cf72 7ebc 25db abbc 9178 81bc
00000240: 99a8 acbd 6bf4 adbc bbb0 bbba 5cae 9cbd
00000250: 080b 1abe 38a1 053b 3690 3ebc a017 0abe
00000260: 31b5 6bbd b1a1 02bc 98d9 f7bd 7814 0e3c
00000270: 7f1d 0cbc f1c2 2ebd 4ac1 9eb8 7373 c5bd
00000280: 7c54 ccbd 1278 fcbc 84b4 e9bc 9a6a cfbd
00000290: 919c 16bd 540f 90bd fea5 43bd 8c5b 11bd
000002a0: c845 d0bc b550 60bc 11ab 03be 858f b8bd
000002b0: fc72 9ebd b91f 52bd 9989 853c 254b cebd
000002c0: de13 1abe 3a40 1abd 2e6e 99bd f3db d7bd
000002d0: 28b9 103d ee0d 9abd 2408 debc 5782 9cbd
000002e0: dc3a 93bc b6df 88bc 9a8b 35bb 2255 1fbe
000002f0: a1e8 c7bc d127 f7bd 0a8a e2bd 70fa 16bd
00000300: c108 91bc 8362 e2bc c8e4 99bd acbe 12bd
00000310: 8360 9abd c3d8 0ebe ac38 0a3d dbbc b8bc
00000320: 4cf1 483d 171d cd3b 5191 d5bd f122 f6bd
00000330: 4815 46bd 781d 283d 05ba 03bd 4e93 b8bd
00000340: f51c 09be 279a cfbc 692a 5abd abda d6bb
00000350: 98bf 863c 9b71 14bd b5bf 733c ef54 b53c
00000360: 2b9e 91bd 86f0 5cbd c341 7cbd 4397 96bd
00000370: 242d cebd 71d0 04bd bdda 8fbd dd3d fcbd
00000380: 4644 80bd 0805 14bc ac5e 9abd 691b 13bc
00000390: 90ef c4bd 0749 7ebd 5770 663c f74a 90bd
000003a0: 4db6 77bd 38dc e7bc 9f18 fbbc d2b2 7fbc
000003b0: 7baf d3bd 3fa5 9ebd c474 0abe d8d9 003d
000003c0: d641 92bc c8de babd 31c2 69bd 308a b1bd
000003d0: b4c7 9cbd 9196 d13c 639f aabd 9d2e b2bd
000003e0: 104a fa3c 716f 2d3d 8328 3cbd f222 26bd
000003f0: 589f 75bd 1b0b e5bc e907 05be 540a bebd
-0.06836105 -0.07161895 -0.05727739 -0.09445756 -0.017794387 -0.074012876 0.025964994 -0.046048354
-0.03130077 -0.11970791 0.051080912 -0.11281008 -0.05015429 -0.04122539 -0.03111131 -0.018999653
-0.04265479 0.031921893 -0.06195581 -0.07348177 -0.02924965 -0.049343877 0.0110309245 -0.048236374
-0.09196852 -0.06478761 -0.030514335 -0.0025472385 -0.075132 -0.065702796 -0.056331392 -0.004831461
-0.12502307 0.014920551 0.03321164 -0.08338139 -0.056603197 -0.02920394 -0.068866454 -0.092044085
-0.114223085 -0.049529113 -0.016378453 -0.1141375 -0.08185518 -0.085625544 -0.05811104 -0.036055103
-0.118863456 -0.10471106 -0.04741173 -0.00272998 -0.05300312 -0.029209152 0.021501597 -0.078801185
-0.10479015 -0.0788022 -0.029319683 -0.015715934 -0.078400135 -0.07309676 -0.07516681 0.006959177
0.031305563 0.014347874 0.063545555 -0.012766816 -0.052551415 -0.14617667 0.0009024316 -0.0923475
0.044419333 -0.089626595 -0.07807011 -0.05860615 0.024207225 0.012565501 0.06376727 -0.06084078
0.043055065 -0.03855061 -0.014069313 -0.00739206 -0.08837419 -0.11661188 -0.10078205 -0.058385044
-0.088893965 0.06524442 -0.06139513 -0.08969109 -0.030762924 -0.009764307 -0.027906962 -0.0893459
-0.033227175 -0.08145875 -0.025361447 -0.032938775 -0.06356188 -0.12755455 -0.05155795 -0.03907749
-0.08395426 -0.040864278 -0.060229473 -0.089800626 -0.0029091844 -0.02806868 -0.15804482 -0.12070993
-0.036290314 -0.053470526 -0.09001858 -0.07612001 -0.07746038 -0.05707673 -0.07794442 -0.056307115
-0.05532533 -0.10981366 0.010294164 0.025392348 -0.06931322 -0.038535047 -0.06717442 -0.06464054
-0.03657298 -0.0029098915 -0.054206897 0.008078383 0.06468834 -0.040052485 0.0014243505 -0.01698963
-0.12535839 -0.011451333 -0.001746126 -0.06322805 -0.052732714 -0.015530302 -0.02097852 -0.01580456
-0.08430595 -0.021234712 -0.0014319638 -0.07650444 -0.1504327 0.0020390283 -0.011631062 -0.13485575
-0.057545844 -0.007973121 -0.121020496 0.008671872 -0.008551954 -0.04266638 -7.57003e-05 -0.09641161
-0.099770516 -0.030818973 -0.02852846 -0.101277545 -0.036770407 -0.070341736 -0.047765724 -0.035487697
-0.0254239 -0.013691117 -0.12858225 -0.09011749 -0.07736775 -0.051299784 0.016300963 -0.100729264
-0.15046641 -0.037658907 -0.07491718 -0.10539999 0.03533283 -0.07522188 -0.027103491 -0.07642048
-0.017972402 -0.016708236 -0.0027701617 -0.1555982 -0.024402918 -0.12068141 -0.11061485 -0.03685993
-0.01770437 -0.027634865 -0.0751434 -0.03582637 -0.075379394 -0.13949876 0.033745453 -0.02255099
0.049058244 0.0062595713 -0.104281075 -0.12018383 -0.04836014 0.04104373 -0.032159824 -0.09012471
-0.13389952 -0.02534206 -0.0532631 -0.006556829 0.01644878 -0.036241155 0.0148772495 0.022135226
-0.07110246 -0.05394032 -0.061586153 -0.0735307 -0.10067204 -0.032425348 -0.07024143 -0.12316487
-0.06263022 -0.009034403 -0.075375885 -0.008978703 -0.096160054 -0.062081363 0.01406487 -0.070455484
-0.06047659 -0.02830325 -0.030651389 -0.015606599 -0.103362046 -0.07746362 -0.13521105 0.031457752
-0.017853659 -0.091245234 -0.05706996 -0.08668935 -0.07655278 0.025584491 -0.08331182 -0.08700297
0.030552894 0.042342607 -0.045937072 -0.04056067 -0.059966415 -0.027959397 -0.12991299 -0.09279314

action_model._discrete_distribution.branches.0.weight f4 [4, 512]
00000000: 0763 f93b 2196 a63b 1aaf 183c 79ee 7cba
00000010: aec0 b33b 7a90 33bc cbff 683a 304e a2bc
00000020: ab8b 883c 3648 f13b ca7f a0bb b323 5c3c
00000030: 4c58 903b 0484 433c 9587 3bbb e7e0 9c3c
00000040: 2f0e 89bc 5c50 1e3d adda 523c 4f55 b03c
00000050: 145b bc3b 6e22 a53d 1192 0f3c 3a21 8f3a
00000060: 0ba5 7ebb c675 cbbc 2492 1f3a 54bf 3bbc
00000070: 75db 513a 2b91 b0bc 61c2 9d3b 49cf 2f3c
00000080: 3f66 61bb 06ba 253c 6a04 99bd 84b7 5aba
00000090: 20c6 3cbc 0585 0fbd 52f3 40bc 8650 b13c
000000a0: 9084 3b3c 00f7 d23b dc93 bdbb f849 3e3c
000000b0: a929 2f3a b49a 03ba 2cb2 153c 0903 0b3d
000000c0: b2a2 b53b eabf e139 69aa 8bbc 87f7 c7bb
000000d0: fff9 e23c 51f8 793d 09c9 e83c f040 1a3c
000000e0: 1cd6 cdb6 67cd faba ce00 f1bb 4657 a83c
000000f0: 588b 553c 700f 87bc 6b53 47bb a859 60bd
00000100: 6679 28bc 622c a33c a279 9abc 956c ae3c
00000110: 90fe 5d3b 3692 83b9 e0fe 7b3c f1f5 fc39
00000120: 2fee e43b ff65 1dbc 8c51 b7bc 9512 e33b
00000130: 1b22 1e3d 6f4b 66bc 0e39 4b3c f8dc 303c
00000140: 2368 3bbd c05c 863b 7190 e9bc 3cd2 14bd
00000150: 79b9 3f3b 7e79 cb3c dbbc 163c e28b 153c
00000160: 9a6b 2c3c a12c 8b3c 3808 3cbc 9868 be3a
00000170: fa5d 96bb 802c aebc bacc b9bc 8f36 74bc
00000180: 9270 c83c ba93 513c 1078 c23c be0f 87bb
00000190: 79e4 8e3c d39f 5a3b 2932 d03a 4cc5 4dbc
000001a0: 5140 213d 4a74 e43b 3f9c 94bc f757 673c
000001b0: 32e0 1cbc 383e 4c3b 559c 413a c605 803b
000001c0: 6b61 6bbd ed72 003d e136 983b 3948 09bc
000001d0: 5f17 e43b 7df7 aabc b4fe 0239 16d3 38bc
000001e0: 86ca d4bc 8427 dbba 9ee2 b53c 9413 3c3d
000001f0: 605d 1b3d 8166 5fbc e655 8c3c c167 8b3d
00000200: a04c 343c 6439 29bd 1c32 f73c 2adc 2abd
00000210: a7b5 1bbc d8e0 18bb ac69 ae3c 2efc 963c
00000220: 5a56 ae3b fd85 c83a f8d3 6abd 1b61 c33b
00000230: 069a 33ba f338 85bc 04cf 3fbc 5d52 47bc
00000240: 0453 153d 6795 c3bc a47d 0cbd 347e 683c
00000250: 7305 b03c 69e3 84bc b8fe 3cbc 19ad 85ba
00000260: cd8c 943b 3511 9e3b 7302 a5ba aef9 27bd
00000270: 7c91 15b8 9e86 7e3b cf65 eabc a488 be3b
00000280: ef78 cbba 4d63 7d3d e39c 79bc 5724 56bb
00000290: a2c4 d8bb 2596 3c3c 816f 34bc 626a 963c
000002a0: d954 f23b 43b8 2abc 8fe0 1c3c 9d11 983b
000002b0: 56b9 3cbc daaf 433c 4f8e d23c 3fef 243b
000002c0: 33cd 883a 8bca 7bbc b773 94ba 0567 ce3a
000002d0: 429e 3abc 36dc 32bc 2f94 de3b e0b4 fabc
000002e0: 89e2 d83c 10ef c03c 1bf4 033c 8b34 acb9
000002f0: 4314 193c 0e9e d2ba bca2 2eba 0355 873c
00000300: d639 e8bc 7cae 2abb 3f27 933a 9976 21bd
00000310: b61d 083c 801e 7ebb 184f 48bb 1210 15bc
00000320: db1d f13c a975 6c3c e67a b0bb f98f 3fbb
00000330: 6280 a53c 5e04 1c3d ecd4 193b eb87 143c
00000340: 6aba 8e3b de5f dfbc 506a 49bc 0f69 8dba
00000350: aeb2 fcbc 2690 34bc 85fa 0cbd a275 153d
00000360: 69ae b03c 0fed 443c f7fd 893b 7fe4 083c
00000370: 6060 9e3c b33b ebbc 1722 ca39 6693 da3b
00000380: b4e1 243c 33b9 bf3c 62df 81bc 4550 81bb
00000390: da52 113c 6eea d53c 6566 c939 c2ed 663d
000003a0: 155d 853c 1bce 08bd c7fd 3fbb c8cb 3abd
000003b0: 5655 f53b cd29 0b3c 7b4b a3b9 35ea c5bc
000003c0: 28e7 c9bc a35d cc3b 7a6a ba3c 9213 4e3c
000003d0: 0a0d e93b dfcc 70bc 66e5 2a3b 7041 103c
000003e0: a48a 41bc bbc6 f33c f084 85bc 34f2 3d3d
000003f0: 72d5 b03a 7354 e63c 89db ab3a 4ea3 4abc
0.007610682 0.0050838147 0.009319091 -0.00096485723 0.0054856157 -0.010959739 0.0008888214 -0.019812673
0.016668161 0.0073633445 -0.004898046 0.013436246 0.004405057 0.01193333 -0.0028614749 0.01915021
-0.016730396 0.038650855 0.012869519 0.021525053 0.005748162 0.080632076 0.008762852 0.0010919936
-0.0038855697 -0.024836432 0.00060871453 -0.01145919 0.0008005419 -0.021553596 0.0048144315 0.010730573
-0.0034393219 0.010115152 -0.07471545 -0.0008343386 -0.011521846 -0.035038967 -0.011776762 0.021644842
0.01144518 0.006438136 -0.0057854485 0.011614315 0.0006681928 -0.0005020306 0.009136718 0.03393844
0.0055430764 0.0004305833 -0.017049031 -0.0061025056 0.027707098 0.06102783 0.028416174 0.009414896
-6.1344017e-06 -0.0019134701 -0.0073548323 0.020549428 0.01303371 -0.016486853 -0.0030414711 -0.054773003
-0.01028285 0.019918624 -0.018856827 0.02129201 0.0033873655 -0.00025095203 0.015380591 0.00048248426
0.0069864015 -0.009606837 -0.022377752 0.0069297054 0.038606744 -0.014056071 0.01240374 0.010794871
-0.04575361 0.004100412 -0.028511258 -0.036333308 0.0029254837 0.024838205 0.0092003 0.009127589
0.010523701 0.016989054 -0.011476569 0.0014527021 -0.0045888396 -0.021261454 -0.022680629 -0.014905586
0.02446774 0.012791568 0.02373889 -0.0041217497 0.017442929 0.0033359423 0.001588409 -0.012559246
0.039367978 0.0069718705 -0.01814091 0.014120094 -0.009574937 0.0031165015 0.0007385661 0.0039069382
-0.057465952 0.0313596 0.004645214 -0.008379036 0.006960794 -0.020869965 0.0001249265 -0.011280796
-0.025975477 -0.0016720151 0.022202786 0.04591711 0.037930846 -0.013635279 0.017130803 0.06806899
0.011004597 -0.041314498 0.030175261 -0.04171387 -0.0095037585 -0.0023327377 0.021290623 0.018430796
0.0053203525 0.0015298721 -0.057331055 0.0059625036 -0.00068512594 -0.016262507 -0.011707071 -0.012165633
0.036456123 -0.023874952 -0.034299508 0.014190245 0.021486973 -0.016221719 -0.011535339 -0.0010198682
0.0045333863 0.0048238286 -0.0012589231 -0.041009597 -3.565986e-05 0.0038837562 -0.028613 0.0058146287
-0.0015523712 0.06186228 -0.015235159 -0.0032675469 -0.0066152373 0.011510407 -0.011012913 0.018361274
0.0073953685 -0.010419908 0.009575023 0.0046407715 -0.011518797 0.011943782 0.025702624 0.0025167016
0.0010437131 -0.015368114 -0.001132599 0.0015747255 -0.011390271 -0.01091676 0.006792567 -0.030603826
0.026475208 0.023551494 0.008053805 -0.00032845544 0.00934321 -0.0016068832 -0.00066618226 0.016520029
-0.02834789 -0.0026043942 0.0011226906 -0.039419744 0.008307865 -0.0038775504 -0.0030564722 -0.00909807
0.029433182 0.014432349 -0.0053857444 -0.0029230101 0.02020282 0.038090102 0.0023472859 0.0090656085
0.0043557184 -0.027267393 -0.012293413 -0.0010788756 -0.03084692 -0.011020696 -0.0344186 0.036489137
0.02156754 0.01201941 0.004211183 0.008355259 0.019333065 -0.02871499 0.0003855384 0.0066704033
0.010063577 0.02340374 -0.015853588 -0.0039463365 0.008869851 0.026112761 0.00038413997 0.056379087
0.016279737 -0.033399682 -0.002929555 -0.045604497 0.0074869795 0.008493853 -0.0003114602 -0.02415953
-0.024646357 0.0062367483 0.02275585 0.012577908 0.00711215 -0.014697283 0.0026076674 0.008804664
-0.01181284 0.029757848 -0.016298741 0.04637356 0.0013491346 0.02811644 0.0013111691 -0.012368036

action_model._discrete_distribution.branches.0.bias f4 [4]
00000000: b435 243b e250 b0bb e88a f2bc d3aa f83c
0.0025056424 -0.0053807357 -0.029607251 0.030354893

action_model._discrete_distribution.branches.1.weight f4 [5, 512]
00000000: fca8 043b 44d1 edbb 0381 aa3b fd09 d8bb
00000010: 71fe 95bc fb83 f0bc 3749 7fbc c265 a7bc
00000020: 100e 04bd e5e5 4c3c 22a4 d0ba 97e2 dc3b
00000030: 34b8 e3bb 99dc 0d3c bcfe 8bbc dcc6 f43b
00000040: 1ec7 d53c 8baf a9bc 8e20 3f3b 98f8 4e3b
00000050: e6a3 3b3b 20b8 19bd 58dd 933a 0872 debc
00000060: a4a8 3dbc 8bf3 b4bc 4443 f03b dbe6 83bc
00000070: 0563 953b f765 68ba 59f0 9bbc ee0d 79bc
00000080: 26da e53b 8e86 cbbc b059 cabc 3039 bdbb
00000090: 182d 833c 281f cc3b cf5f 383b 7876 b13a
000000a0: a5e6 983a eb56 533c 9406 c53b 136e a03a
000000b0: 9269 60bc 7db2 9dbc e263 34ba 0f74 a83c
000000c0: 00aa a1bb f7e6 2bbc 5e7f 993c 954b 81bc
000000d0: 4223 a4bb 2fe0 823c e091 30bc f06a 1b3b
000000e0: 6bcf 793c 572e 90bc b906 8bba 8cfa 103b
000000f0: 0db1 66bc 2a75 c63c f555 cf3b f940 cebc
00000100: 42d6 613a a0b0 dbbb 45b1 d03c bfef a73c
00000110: 52b0 7dbb 1029 e4bb b532 c6bb e4f3 98bc
00000120: c4aa 96ba 02ee 593b 8398 6abb 1da3 72bc
00000130: c013 82bc 01ad 89bc 4ee2 ec3b 829e 88bc
00000140: 385a cebb 0eab 34bb 1cf8 d33b 9225 d33b
00000150: dd49 753c 4785 6a3b d840 9f3a 58b0 f5bb
00000160: ef5b a2bb 5766 eb39 7b0f 633c 2e63 89bc
00000170: fdbd b7bb df85 d3bb 0da3 b4bb 3c53 1eba
00000180: 3f37 573c 3c90 543c 00f7 f3bc 25bb 2ebb
00000190: d1af 55bb 8d03 87bc c422 453c 6784 c4bc
000001a0: 4005 bcbc 6e41 313b c086 63bc ed19 07bc
000001b0: da6b c23c fee5 323b 2911 73bc 7941 eb3a
000001c0: 797d 373a 9b41 b4bc de80 a83b b448 20bc
000001d0: fb09 053d b024 7cbb de8d bfba 72b7 da3c
000001e0: 356c 96bc 9895 8b3c eaa5 a23c a99d 84bc
000001f0: 0d17 a2ba 831c 21bc ae2d ffbc 480e fdbb
00000200: 2fd0 efbc 846d 7a38 6f92 d63a 826d cfbc
00000210: aeae 183d 67b8 a9b9 ae36 ee3c de21 363c
00000220: 6bc6 103b 31e4 003d a55f e9bb fa7d 623c
00000230: e939 c1bc 4a3a cc3c d4f2 babb 09e4 f2bb
00000240: 2e67 253c 810d 84bb f9d0 4abc a238 013d
00000250: efac 823b 58bc 223c 6cd6 493c c04e 1c3a
00000260: 0e4e 093b d41e 993c 22ef 1ebc 89db c0bb
00000270: 8edc da3c eb6b 15b9 6e84 27bc d532 92bc
00000280: 61d1 30bd 8c69 14bc 491e 9a3b 6434 aebc
00000290: 415e 72bc 8457 5c3b b8cf a2bc b373 8fbb
000002a0: 101e f53c 8240 87bc 9f8e 653c 4531 3bbb
000002b0: 795f 80bc 22d6 40bc 3e24 e33b ea91 edbb
000002c0: 0ec0 503a 69ed 91bc 478f 8abc c2b7 703b
000002d0: 3711 d73b e992 61bc 200b 4e3d 422f cdbc
000002e0: 5d1a dabc 8259 09bc 38e5 4d3c 0d08 0b3b
000002f0: 002f 8c3b 0af6 023c 9074 0c3c c0be d5bb
00000300: 3d31 fabb 60e5 a03c 9d30 8a3c 56d3 c0bc
00000310: f6e3 893c f3ed 3a3a a7f2 d73b 34f8 dd39
00000320: 1efd 25bb 0c52 2c3c 4e5d 4dbc ba85 963b
00000330: a895 0bbd 73af 523b 5dd5 00bd 95d1 cdbb
00000340: 9721 49bb f4da 80bb 5f27 7f3b 8aba e73b
00000350: f0f4 d5b9 b34f b0bc 59f4 24bc b1bd e0bb
00000360: fedb 3b3b b38d c03c fcc1 20bb fa66 a6ba
00000370: 3022 333c 5766 3e3c 4e0b 3ebc e0ff d739
00000380: 8cfd aa3b 673b 59bb 96b1 4fbc 8931 a5bc
00000390: 4403 05bc f4fb 53bc 874e e2bb 051b 36bc
000003a0: 2b19 003c 20ba 953a 8fea 773c 3535 81bc
000003b0: d2c5 88bb 5216 953c 0988 b9bb d9c5 a83c
000003c0: 39cf 3abb 1eca 81bc 3b39 e33c f0ba 42bc
000003d0: e5e0 bbbb f517 d9bc 85f5 1b3b 3174 8d3c
000003e0: d07d d5bb 85a5 f2bb 39df f7bc 845c 9cbc
000003f0: 188c 5fbc 74c5 bbbc c58f a13b a2c8 2c3c
0.0020242324 -0.0072576124 0.0052033677 -0.0065929876 -0.018309804 -0.029359808 -0.015581421 -0.020434264
-0.032239974 0.012505983 -0.0015918056 0.006740879 -0.006949449 0.008658552 -0.01708924 0.007469995
0.026095923 -0.020713588 0.0029163691 0.003158128 0.0028631627 -0.03752911 0.0011281176 -0.027153984
-0.011575852 -0.022088787 0.0073322374 -0.016101291 0.004558923 -0.00088652916 -0.019035505 -0.015201075
0.0070145307 -0.024844434 -0.02470097 -0.0057746395 0.016012713 0.0062293 0.0028133278 0.0013539335
0.0011665417 0.012899141 0.006012747 0.0012239836 -0.013697045 -0.019250149 -0.0006881339 0.020563154
-0.0049335957 -0.010492078 0.018737491 -0.01578311 -0.005009086 0.01597604 -0.010776967 0.0023714863
0.015247206 -0.017600222 -0.0010606862 0.0022121994 -0.014080298 0.02422579 0.0063273855 -0.025177466
0.0008614996 -0.006704405 0.025475154 0.020500062 -0.0038709831 -0.006962903 -0.006048525 -0.018670984
-0.0011494984 0.0033253436 -0.003579647 -0.014809397 -0.015878558 -0.016806128 0.007229126 -0.016677145
-0.006297376 -0.0027567777 0.006468786 0.0064436877 0.014971224 0.0035785006 0.0012150062 -0.0074978285
-0.004954807 0.00044898942 0.013858671 -0.016770925 -0.005607365 -0.0064551677 -0.005512601 -0.00060396246
0.01313573 0.012973841 -0.029780865 -0.002666184 -0.0032606015 -0.016481185 0.012032215 -0.023988916
-0.022951722 0.0027047056 -0.013887107 -0.008245927 0.023733068 0.002729773 -0.014835634 0.001794859
0.0006999593 -0.02200394 0.0051423153 -0.009782959 0.03248022 -0.0038474016 -0.0014614423 0.026698802
-0.018362144 0.017039105 0.019854505 -0.01618846 -0.0012366489 -0.009833458 -0.031149711 -0.0077226497
-0.029274074 5.970664e-05 0.0016370545 -0.025320772 0.037275963 -0.00032371582 0.029078808 0.011116473
0.0022090923 0.03146762 -0.0071219974 0.01382398 -0.023587184 0.024930138 -0.005705217 -0.007412438
0.010095401 -0.00402993 -0.0123789245 0.03154815 0.0039879004 0.0099326 0.012319189 0.00059626624
0.0020951065 0.018691458 -0.009700568 -0.0058855456 0.026716497 -0.0001424995 -0.010224445 -0.017846504
-0.04316843 -0.009058367 0.0047033173 -0.021265216 -0.01479298 0.00336215 -0.019874439 -0.004377806
0.029921561 -0.016510252 0.014011054 -0.0028563302 -0.015670525 -0.011769803 0.0069318106 -0.0072500603
0.00079631887 -0.017813401 -0.016914023 0.0036730622 0.0065633315 -0.013767936 0.05030358 -0.025046948
-0.0266239 -0.008383157 0.012566857 0.0021214515 0.004278064 0.007993231 0.008572713 -0.0065229833
-0.007635264 0.019640625 0.016868884 -0.023538273 0.016832333 0.0007130794 0.0065902057 0.0004233733
-0.0025327872 0.010517608 -0.012534453 0.004593578 -0.03407827 0.0032148033 -0.03145348 -0.0062810876
-0.0030690187 -0.0039323512 0.003893338 0.0070717977 -0.00040809019 -0.021522379 -0.010068023 -0.0068585505
0.002866506 0.023505067 -0.0024529686 -0.0012695484 0.010933444 0.011621079 -0.011599375 0.00041198637
0.0052182134 -0.0033146979 -0.012676617 -0.020165222 -0.008118454 -0.012938488 -0.006906334 -0.01111484
0.0078185005 0.0011423267 0.015131607 -0.015772441 -0.0041739726 0.01819912 -0.0056619686 0.020602154
-0.0028504862 -0.015843447 0.02773725 -0.01188539 -0.0057335966 -0.026500681 0.0023797464 0.017267318
-0.006515242 -0.0074049854 -0.030257808 -0.019087084 -0.013644241 -0.022921301 0.0049304687 0.010545881

action_model._discrete_distribution.branches.1.bias f4 [5]
00000000: 03bc 1bbc 08f4 293c 38be c33c 26dd 3bbb
00000010: c2a0 5abc
-0.009505275 0.010373123 0.023894414 -0.002866575 -0.013343992

exp_avg f4 [512, 40]
00000000: 0000 0000 4ed5 e2b6 0000 0000 e420 9936
00000010: 887c 8e36 0000 0000 da90 b5b6 0000 0000
00000020: e2b8 5736 0d7f 9f35 0000 0000 1dbd a8b6
00000030: 0000 0000 6e11 3e36 98a1 b634 0000 0000
00000040: ccdd ac36 0000 0000 3c92 f6b6 f0a0 6cb5
00000050: 0000 0000 28a7 6137 0000 0000 ab40 83b7
00000060: 1039 a9b6 0000 0000 92e2 dc36 0000 0000
00000070: 7d4b 13b7 c0a2 8833 0000 0000 f24d ae36
00000080: 0000 0000 5602 f8b6 be21 84b6 5aaa a337
00000090: 8426 6039 da50 ba36 9036 ffb8 e2b4 1f37
000000a0: 0000 0000 8e62 8037 0000 0000 25fb dfb7
000000b0: 1c08 43b6 0000 0000 8f12 0b38 0000 0000
000000c0: d8de 3ab8 b352 97b7 0000 0000 c20f 97b7
000000d0: 0000 0000 bedc dd36 077c d1b6 0000 0000
000000e0: 8201 fe37 0000 0000 0ccd 2eb8 25cf cfb7
000000f0: 0000 0000 680b 04b8 0000 0000 3b7e a837
00000100: 60d9 8736 0000 0000 c833 1b38 0000 0000
00000110: 1400 4bb8 7051 cbb7 0000 0000 64f9 f9b7
00000120: 0000 0000 d160 9a37 5a9a 0b37 d389 f735
00000130: 2888 e4b8 f4d3 9ab5 0daf 88ba dbf3 99b6
00000140: 0000 0000 d3b3 e9b6 0000 0000 684a 2d35
00000150: 243c ebb5 0000 0000 60a7 d737 0000 0000
00000160: 0255 06b8 7a71 47b7 0000 0000 4ac1 5db7
00000170: 0000 0000 f777 e736 4407 3036 0000 0000
00000180: 6790 c537 0000 0000 0e93 fab7 d759 91b7
00000190: 0000 0000 49c2 4eb8 0000 0000 f640 3438
000001a0: 5025 1b37 0000 0000 380e 16b5 0000 0000
000001b0: ca48 c1b6 de2c 30b7 0000 0000 d106 36b8
000001c0: 0000 0000 7e85 1b38 c248 8537 6ae1 01b7
000001d0: 25c2 abb8 085d 3cb7 2ac7 91b9 7249 8cb7
000001e0: 0000 0000 4a85 b8b6 0000 0000 37b3 9b38
000001f0: d5f7 8538 0000 0000 3b61 32b7 0000 0000
00000200: 0c77 a638 c4fa 9238 0000 0000 01a6 96b6
00000210: 0000 0000 4495 9938 78a9 8938 0000 0000
00000220: 9a58 fa36 0000 0000 5985 8038 ffb1 8c38
00000230: 0000 0000 aa3c 5538 0000 0000 3e32 9637
00000240: 3e73 4b38 0000 0000 4d24 2538 0000 0000
00000250: f462 f637 f7d0 4f38 0000 0000 455e ab38
00000260: 0000 0000 129b 59b7 48f6 0c38 d816 8e38
00000270: 1bec 47b9 f434 8437 99ae 813b 5e92 8c38
00000280: 0000 0000 f0a0 ff37 0000 0000 0a62 2bb8
00000290: e03c 5db6 0000 0000 1dcb a2b7 0000 0000
000002a0: fb4f 1737 e0f8 25b7 0000 0000 1c5d ac37
000002b0: 0000 0000 1ec0 01b8 28f3 67b7 0000 0000
000002c0: 9000 5136 0000 0000 6186 62b7 0efb 12b7
000002d0: 0000 0000 a47a 0ab6 0000 0000 9ca7 0bb7
000002e0: 8f85 98b6 0000 0000 1164 8937 0000 0000
000002f0: 3687 e0b7 a559 29b7 0000 0000 2e61 50b7
00000300: 0000 0000 e86b 0836 14fb 9f36 7e2c 22b7
00000310: e876 9939 2ac8 a037 3a49 03ba 9437 9eb6
00000320: 0000 0000 1ec8 f237 0000 0000 e55a 9fb7
00000330: b082 1837 0000 0000 0834 c8b7 0000 0000
00000340: 9fd0 0d38 2a9e 7137 0000 0000 7610 7ab6
00000350: 0000 0000 8b5e 6537 4a9c 2a37 0000 0000
00000360: eee3 0b37 0000 0000 18b4 d735 047f 4437
00000370: 0000 0000 c64b ee36 0000 0000 49d2 3e36
00000380: ae0e 2237 0000 0000 35c9 d9b5 0000 0000
00000390: 9213 4237 6cf7 6c37 0000 0000 dcb1 a337
000003a0: 0000 0000 5789 20b7 8e48 4f37 ed68 1db6
000003b0: 8759 9a37 3aba 0537 94b4 b5b7 64ce 8ab7
000003c0: 0000 0000 e85a e5b5 0000 0000 a868 8237
000003d0: fdee 8137 0000 0000 caf3 0138 0000 0000
000003e0: 8cd4 8fb7 b910 f936 0000 0000 fd90 d8b7
000003f0: 0000 0000 fe51 2638 f395 9a37 0000 0000
0.0 -6.760157e-06 0.0 4.5635843e-06 4.246427e-06 0.0 -5.4110833e-06 0.0
3.2145113e-06 1.18834e-06 0.0 -5.028806e-06 0.0 2.8322352e-06 3.4017717e-07 0.0
5.15182e-06 0.0 -7.3483952e-06 -8.8151046e-07 0.0 1.3449964e-05 0.0 -1.564653e-05
-5.0432354e-06 0.0 6.582887e-06 0.0 -8.779459e-06 6.3625976e-08 0.0 5.194678e-06
0.0 -7.391248e-06 -3.9378347e-06 1.951044e-05 0.00021376653 5.5526443e-06 -0.000121695106 9.519254e-06
0.0 1.5304682e-05 0.0 -2.670062e-05 -2.9061985e-06 0.0 3.3157467e-05 0.0
-4.4553395e-05 -1.8039113e-05 0.0 -1.800794e-05 0.0 6.612011e-06 -6.243124e-06 0.0
3.0279862e-05 0.0 -4.1675798e-05 -2.4772782e-05 0.0 -3.1481875e-05 0.0 2.0085941e-05
4.0486193e-06 0.0 3.7003105e-05 0.0 -4.8399044e-05 -2.4237408e-05 0.0 -2.9799245e-05
0.0 1.8403314e-05 8.320983e-06 1.8443046e-06 -0.00010897248 -1.1535581e-06 -0.0010428146 -4.588144e-06
0.0 -6.9648754e-06 0.0 6.45558e-07 -1.7526368e-06 0.0 2.5707937e-05 0.0
-3.202726e-05 -1.1887745e-05 0.0 -1.321763e-05 0.0 6.898302e-06 2.6230273e-06 0.0
2.3551473e-05 0.0 -2.98708e-05 -1.7327182e-05 0.0 -4.929517e-05 0.0 4.2975844e-05
9.247407e-06 0.0 -5.5900045e-07 0.0 -5.760322e-06 -1.0500864e-05 0.0 -4.339853e-05
0.0 3.7079204e-05 1.5888716e-05 -7.7414825e-06 -8.190078e-05 -1.1227334e-05 -0.00027804944 -1.6723501e-05
0.0 -5.499144e-06 0.0 7.424357e-05 6.3880965e-05 0.0 -1.0632265e-05 0.0
7.937671e-05 7.008531e-05 0.0 -4.4896738e-06 0.0 7.3234114e-05 6.564235e-05 0.0
7.460895e-06 0.0 6.1283536e-05 6.7088746e-05 0.0 5.0839655e-05 0.0 1.790479e-05
4.85063e-05 0.0 3.9372873e-05 0.0 2.9371564e-05 4.954726e-05 0.0 8.1714745e-05
0.0 -1.2970313e-05 3.360797e-05 6.7753426e-05 -0.00019066075 1.5760284e-05 0.0039575812 6.702983e-05
0.0 3.0473311e-05 0.0 -4.0860883e-05 -3.2967e-06 0.0 -1.9406487e-05 0.0
9.018923e-06 -9.892712e-06 0.0 2.0547355e-05 0.0 -3.093492e-05 -1.3825287e-05 0.0
3.1143754e-06 0.0 -1.3501937e-05 -8.760731e-06 0.0 -2.0634989e-06 0.0 -8.32407e-06
-4.5455013e-06 0.0 1.637827e-05 0.0 -2.6765843e-05 -1.0094057e-05 0.0 -1.24203925e-05
0.0 2.032839e-06 4.7677986e-06 -9.666312e-06 0.00029271026 1.9166695e-05 -0.0005008165 -4.715237e-06
0.0 2.8941835e-05 0.0 -1.8996603e-05 9.090334e-06 0.0 -2.3866087e-05 0.0
3.3811313e-05 1.4401545e-05 0.0 -3.7262485e-06 0.0 1.3671476e-05 1.01691785e-05 0.0
8.338115e-06 0.0 1.6071162e-06 1.17120835e-05 0.0 7.101774e-06 0.0 2.8434608e-06
9.65937e-06 0.0 -1.6226319e-06 0.0 1.1567858e-05 1.4124304e-05 0.0 1.9513936e-05
0.0 -9.56872e-06 1.2355054e-05 -2.3455898e-06 1.839992e-05 7.970777e-06 -2.166097e-05 -1.654699e-05
0.0 -1.7088287e-06 0.0 1.5545942e-05 1.5489286e-05 0.0 3.0983043e-05 0.0
-1.7145903e-05 7.422725e-06 0.0 -2.5816722e-05 0.0 3.9653845e-05 1.8428056e-05 0.0

exp_avg_sq f4 [512, 40]
00000000: 0000 0000 fced 3632 0000 0000 02d5 8c30
00000010: 8973 bc31 0000 0000 573a fa31 0000 0000
00000020: f1bd 8931 840d 0d32 0000 0000 1eb5 4032
00000030: 0000 0000 7b1d f12f c01a a031 0000 0000
00000040: 673a 3e31 0000 0000 9b3f 0d32 178c 2932
00000050: 0000 0000 aa9a 2132 0000 0000 8dda 1131
00000060: e9e0 bd31 0000 0000 734c 0531 0000 0000
00000070: e00b 2432 9f63 3432 0000 0000 3eb7 0532
00000080: 0000 0000 dcc0 6e31 7105 f231 921f 8931
00000090: d0af 9234 746d 0431 a29e 8936 ff99 2632
000000a0: 0000 0000 c91e 4332 0000 0000 9c1b 9032
000000b0: fa35 c632 0000 0000 3f44 3532 0000 0000
000000c0: 9c30 9b32 b2b2 c232 0000 0000 abdc 7332
000000d0: 0000 0000 89da 6a32 0867 b432 0000 0000
000000e0: 4f34 4a32 0000 0000 de31 8932 79db b432
000000f0: 0000 0000 36c1 9232 0000 0000 523d 3b32
00000100: b63e 9e32 0000 0000 f0d8 8c32 0000 0000
00000110: 95a7 4632 4dcf a432 0000 0000 9fde a032
00000120: 0000 0000 97ff 2b32 5655 9232 2622 b132
00000130: 9465 a336 9b43 6733 1dde 2038 c699 e332
00000140: 0000 0000 480f e331 0000 0000 8d85 4132
00000150: ca4c 7d32 0000 0000 8d42 a231 0000 0000
00000160: da46 5d32 8777 8632 0000 0000 5e2f 3132
00000170: 0000 0000 0211 fa31 0257 4e32 0000 0000
00000180: 1a18 bb31 0000 0000 d4ef 4f32 3b03 8432
00000190: 0000 0000 cfc9 6232 0000 0000 e416 9e31
000001a0: 4d3a 2132 0000 0000 17d5 0832 0000 0000
000001b0: 3e2c 2532 03e8 7c32 0000 0000 feda 7b32
000001c0: 0000 0000 8078 7831 2b79 0732 7442 5e32
000001d0: 7112 3935 cc65 2632 120d 6c37 266f 8932
000001e0: 0000 0000 c63f 7730 0000 0000 42e5 c232
000001f0: 6d86 c632 0000 0000 5281 2031 0000 0000
00000200: 4928 b132 7a4d bf32 0000 0000 d798 aa31
00000210: 0000 0000 ba02 8d32 a022 b332 0000 0000
00000220: 5f54 0932 0000 0000 d5ab 5f32 e178 a632
00000230: 0000 0000 6fcb 7f32 0000 0000 10c5 e531
00000240: 0295 8032 0000 0000 e64c 9332 0000 0000
00000250: 2707 a631 ed80 8632 0000 0000 a4a5 b032
00000260: 0000 0000 7bd5 4231 77b2 3832 385e a732
00000270: 7d03 4836 8867 4134 842b c538 3b0e c332
00000280: 0000 0000 8072 8632 0000 0000 409e 7732
00000290: cc3d b732 0000 0000 b211 7032 0000 0000
000002a0: b8aa 8032 7062 ac32 0000 0000 9919 6932
000002b0: 0000 0000 6b13 8d32 3f5a bb32 0000 0000
000002c0: 66bc 8932 0000 0000 8463 6432 e9f5 9c32
000002d0: 0000 0000 4774 7032 0000 0000 9c3f 7e32
000002e0: eebf b332 0000 0000 6adc 9932 0000 0000
000002f0: da0a 4832 a420 9232 0000 0000 761b 8532
00000300: 0000 0000 7300 7632 bf7d ae32 310b a532
00000310: 3cf5 f236 d5aa 9433 15c1 1d38 66db db32
00000320: 0000 0000 8c6e ec32 0000 0000 5280 8330
00000330: 1d01 5332 0000 0000 fcdb b432 0000 0000
00000340: 192d dc31 c95c 8b32 0000 0000 9e22 e432
00000350: 0000 0000 a9f6 f830 d036 6932 0000 0000
00000360: 514d 6532 0000 0000 d17f 6e32 90d6 ab32
00000370: 0000 0000 a346 9b32 0000 0000 7e1f 2432
00000380: 027a a132 0000 0000 9bb7 1132 0000 0000
00000390: 1bf0 a632 7329 c232 0000 0000 5b0a 2e32
000003a0: 0000 0000 a788 9932 7798 c632 35b0 f331
000003b0: b601 4e34 7443 4a31 4a7a 2f37 8a78 e732
000003c0: 0000 0000 dea6 e233 0000 0000 9f2e 3c33
000003d0: 11af c933 0000 0000 0a7f 8733 0000 0000
000003e0: 8bc2 af33 353a f233 0000 0000 fc14 f633
000003f0: 0000 0000 b7f0 0b33 068f ad33 0000 0000
0.0 1.0647906e-08 0.0 1.0246881e-09 5.484655e-09 0.0 7.28259e-09 0.0
4.0088186e-09 8.210353e-09 0.0 1.1217052e-08 0.0 4.3858592e-10 4.659654e-09 0.0
2.7681837e-09 0.0 8.221742e-09 9.868947e-09 0.0 9.4066e-09 0.0 2.1224509e-09
5.5261933e-09 0.0 1.9397504e-09 0.0 9.5487565e-09 1.050003e-08 0.0 7.783283e-09
0.0 3.4743186e-09 7.0437456e-09 3.990814e-09 2.732254e-07 1.9270745e-09 4.1013855e-06 9.697486e-09
0.0 1.1357494e-08 0.0 1.6776362e-08 2.307478e-08 0.0 1.0551104e-08 0.0
1.806648e-08 2.2665834e-08 0.0 1.4194636e-08 0.0 1.3670282e-08 2.1001611e-08 0.0
1.1769841e-08 0.0 1.5971576e-08 2.1054563e-08 0.0 1.70845e-08 0.0 1.0898775e-08
1.8422138e-08 0.0 1.6396797e-08 0.0 1.1563221e-08 1.9186382e-08 0.0 1.8727688e-08
0.0 1.0011624e-08 1.7035443e-08 2.062104e-08 4.869604e-06 5.3845365e-08 3.835383e-05 2.6496206e-08
0.0 6.608307e-09 0.0 1.12644445e-08 1.4743998e-08 0.0 4.7223865e-09 0.0
1.2880003e-08 1.5654008e-08 0.0 1.0313526e-08 0.0 7.277891e-09 1.2010561e-08 0.0
5.4451563e-09 0.0 1.2103516e-08 1.5368292e-08 0.0 1.3200817e-08 0.0 4.6010076e-09
9.3846895e-09 0.0 7.964693e-09 0.0 9.614324e-09 1.4721084e-08 0.0 1.4659916e-08
0.0 3.6157246e-09 7.885585e-09 1.293721e-08 6.8944706e-07 9.685618e-09 1.4069739e-05 1.5999444e-08
0.0 8.9948704e-10 0.0 2.2688827e-08 2.3111363e-08 0.0 2.3356574e-09 0.0
2.0623832e-08 2.2270559e-08 0.0 4.965027e-09 0.0 1.64158e-08 2.0854088e-08 0.0
7.993633e-09 0.0 1.30193785e-08 1.9379913e-08 0.0 1.4889209e-08 0.0 6.6871806e-09
1.4968922e-08 0.0 1.7148022e-08 0.0 4.832049e-09 1.5658282e-08 0.0 2.0564421e-08
0.0 2.8352065e-09 1.0750788e-08 1.9484204e-08 2.9804353e-06 1.801219e-07 9.4017974e-05 2.2707459e-08
0.0 1.5651722e-08 0.0 1.4413274e-08 2.1332106e-08 0.0 1.3973862e-08 0.0
1.4978795e-08 2.00682e-08 0.0 1.3568205e-08 0.0 1.642339e-08 2.1810704e-08 0.0
1.6034573e-08 0.0 1.3293974e-08 1.8272617e-08 0.0 1.3996277e-08 0.0 1.4799209e-08
2.0925622e-08 0.0 1.7911777e-08 0.0 1.16439995e-08 1.701148e-08 0.0 1.5495726e-08
0.0 1.4319187e-08 2.0313449e-08 1.9213617e-08 7.240711e-06 6.922861e-08 3.761154e-05 2.5594726e-08
0.0 2.7524287e-08 0.0 9.567975e-10 1.228207e-08 0.0 2.1054795e-08 0.0
6.4079697e-09 1.6223924e-08 0.0 2.6558435e-08 0.0 1.811448e-09 1.3574848e-08 0.0
1.3347134e-08 0.0 1.3882485e-08 2.0004592e-08 0.0 1.8076497e-08 0.0 9.553217e-09
1.879835e-08 0.0 8.481858e-09 0.0 1.943413e-08 2.2603421e-08 0.0 1.0130488e-08
0.0 1.7873687e-08 2.3119567e-08 7.092263e-09 1.9185867e-07 2.9433211e-09 1.04592855e-05 2.6946754e-08
0.0 1.0554298e-07 0.0 4.3814563e-08 9.391636e-08 0.0 6.309536e-08 0.0
8.18446e-08 1.1279591e-07 0.0 1.1459085e-07 0.0 3.258239e-08 8.081956e-08 0.0

exp_avg f4 [512]
00000000: d168 13b6 1631 3fb7 880a d4b6 e42a 9038
00000010: 3c46 2eb7 68da 2637 fd25 6837 a4a7 9936
00000020: e4c0 74b7 01ff 2e38 094c 4db8 c8da 5ab7
00000030: facd d037 12c1 04b8 d292 3638 fcfc be37
00000040: 0ccf 0738 a310 fbb8 a5ce bf37 660e 2f38
00000050: 54cd 94b5 28b6 dcb9 4ae5 e137 1868 13b7
00000060: af29 df36 5cd5 68b6 f68d 4c38 2d6f 8eb7
00000070: cd07 1a38 2853 fe37 5d30 e6b7 0295 1e38
00000080: 88b4 3d38 8318 bfb8 5ed4 ab38 4c5c d436
00000090: 1969 df38 f2ea 4a38 84d1 17b7 0722 0eb8
000000a0: e06d a536 f574 2b37 ac17 9838 2c5e 25b7
000000b0: 02b5 82b7 5340 4737 1a4c 09b7 9c80 69b8
000000c0: be6b 0c38 389b 87b6 93d0 d136 9818 9737
000000d0: 9ba1 c1b8 3d00 cbb8 66ad 7bb8 cc06 08b7
000000e0: 8f20 8238 5d28 a6b6 0334 94b7 4a07 d4b8
000000f0: 1116 69b7 aab5 2e39 aa15 8037 c072 9b38
00000100: 7ca6 1139 ad9f bc37 2ff4 1838 8933 adb8
00000110: fc1c b3b8 fedc 1cb6 ceb2 9e37 cebd 2137
00000120: 3207 53b8 288f 9537 644f 2838 b3c0 c737
00000130: 3c49 c6b8 37c3 a1b7 307e acb8 cb91 3ab8
00000140: f81a db38 6049 94b8 4a67 8037 e45f a4b7
00000150: 81b4 9238 a8a5 5c37 75f3 c4b7 a5b3 af37
00000160: 6e0e b936 3d9d 34b8 fe4d 97b7 42dc 8cb7
00000170: 9af2 9b36 30e4 5137 7e93 9137 9e53 1036
00000180: 191c 02b9 93bb f8b6 bfb5 84b7 7745 1638
00000190: b9e2 2bb7 4bac d9b7 613b 8338 0970 9637
000001a0: 0459 0cb9 e65a 5bb7 5069 7238 5f0d d636
000001b0: 4ba9 c938 a84e d4b6 d6ea d2b7 9a82 6f38
000001c0: 8da2 da38 bb21 12b9 4136 a837 4cc0 0838
000001d0: a259 d0b7 97e1 4a38 a9a2 9336 c561 9d38
000001e0: 366d d637 8acc 4636 0735 b9b6 14a2 99b8
000001f0: 02c4 a137 e47a 3337 cefd f3b6 d86e 57b9
00000200: 067d 18b7 9eee 9ab7 a78a 44b7 73f3 54b8
00000210: a20f c238 8086 32b5 088c a738 2f96 04b9
00000220: 1004 9637 76a8 d7b7 1d4a 9338 ccf5 b536
00000230: 7494 0e36 37c1 9938 a75c a238 b4aa eeb7
00000240: 4229 9bb8 54ea 75b8 5e05 4b38 1db7 c538
00000250: 65e5 4338 b426 98b8 4a4b fa38 a69a 8d37
00000260: df2a 6136 6a6e 91b8 73f1 db36 ea81 9ab7
00000270: 6662 73b6 14d2 2eb7 3cc6 89b8 b11c 0a36
00000280: b4af ba36 3eef 6db9 57a7 3d36 7003 bf37
00000290: c08d 1837 71bd d237 d38c bab7 86d5 ccb7
000002a0: 973f 9d38 a7e5 9d37 9b52 8c38 9252 7138
000002b0: 54db 50b7 6509 1a38 f94f 18b9 4604 8d37
000002c0: bb5e 4b37 2244 9238 d6cb 8637 3e5f 5a37
000002d0: 0438 53b8 dd12 1d37 1048 ceb7 7acd 9c38
000002e0: f793 1ab9 14f7 2237 2673 c8b7 0833 1d38
000002f0: 6009 e4b5 b489 ff37 625e 8337 50a2 2d38
00000300: d049 b9b8 688b 6db8 48c2 6f36 1026 6d38
00000310: 1475 3fb8 fc23 ac37 da12 62b8 1ac7 b0b6
00000320: fce2 abb7 58c7 f0b8 3f8f 8bb7 a9c1 7737
00000330: 622d 99b8 0f86 ba37 369e 53b7 6e06 a3b5
00000340: 7a36 0d38 a007 4c38 cac6 5437 365c 55b8
00000350: 1851 e137 4cca 03b8 eeb9 3639 40ba 2e36
00000360: 7273 e3b6 11d8 0538 ed2a f137 305f 9e36
00000370: 21ea 3838 db98 6838 f789 08b8 4526 ac37
00000380: 8be4 3537 544f 6bb8 9a19 4137 1e8f 3537
00000390: 1e6a bbb6 ba36 0d37 208b c6b8 cf47 5bb9
000003a0: 9e2d 1e38 693c ab38 180a 4836 b293 f337
000003b0: 1a33 3437 18b8 1f36 3015 0bb7 526d 07b8
000003c0: 0060 2db2 9493 eeb7 54f8 7db6 096f 3137
000003d0: abb4 9bb7 06ad 95b8 fc33 3d37 6346 9cb8
000003e0: c7df 4938 2881 fcb8 c082 4837 36af dcb8
000003f0: f373 e436 48f6 03b9 839a 0d37 5665 7536
-2.1965718e-06 -1.1395916e-05 -6.3193183e-06 6.874444e-05 -1.0387561e-05 9.945223e-06 1.3837122e-05 4.5792713e-06
-1.4588444e-05 4.1722324e-05 -4.8946622e-05 -1.30447515e-05 2.4891448e-05 -3.1651063e-05 4.352892e-05 2.276757e-05
3.2379336e-05 -0.000119717115 2.28652e-05 4.173666e-05 -1.1086618e-06 -0.00042097387 2.6928861e-05 -8.786119e-06
6.6507705e-06 -3.4694885e-06 4.87696e-05 -1.697949e-05 3.6723726e-05 3.0317882e-05 -2.7440658e-05 3.780891e-05
4.5229244e-05 -9.1121554e-05 8.193472e-05 6.328837e-06 0.000106530446 4.8379363e-05 -9.049083e-06 -3.388713e-05
4.9301743e-06 1.0219625e-05 7.252334e-05 -9.8566925e-06 -1.5581496e-05 1.1876301e-05 -8.183555e-06 -5.5671306e-05
3.3478944e-05 -4.0413834e-06 6.2529666e-06 1.8012055e-05 -9.2330585e-05 -9.679839e-05 -6.0004553e-05 -8.107814e-06
6.2049476e-05 -4.9518844e-06 -1.7667195e-05 -0.000101103054 -1.389302e-05 0.00016661608 1.5268877e-05 7.41235e-05
0.00013890298 2.2485701e-05 3.6467038e-05 -8.258882e-05 -8.540784e-05 -2.3374446e-06 1.891833e-05 9.64054e-06
-5.031302e-05 1.7828846e-05 4.012826e-05 2.3812381e-05 -9.455017e-05 -1.92836e-05 -8.2251034e-05 -4.4481636e-05
0.00010447757 -7.070857e-05 1.5306887e-05 -1.9594976e-05 6.995444e-05 1.3151592e-05 -2.347839e-05 2.094528e-05
5.5151095e-06 -4.3061784e-05 -1.803692e-05 -1.6791866e-05 4.6476025e-06 1.25105e-05 1.7354028e-05 2.1506344e-06
-0.00012408233 -7.4128125e-06 -1.5820258e-05 3.582748e-05 -1.0245182e-05 -2.5948646e-05 6.257627e-05 1.7933564e-05
-0.00013384601 -1.3074581e-05 5.7795376e-05 6.3792536e-06 9.61596e-05 -6.327249e-06 -2.5143305e-05 5.7103673e-05
0.000104253275 -0.0001393621 2.0052425e-05 3.2604017e-05 -2.483727e-05 4.837065e-05 4.3998775e-06 7.5045544e-05
2.5561643e-05 2.9623357e-06 -5.519603e-06 -7.325798e-05 1.9283969e-05 1.0697844e-05 -7.271511e-06 -0.0002054529
-9.089015e-06 -1.8469345e-05 -1.1714793e-05 -5.077147e-05 9.253553e-05 -6.650589e-07 7.9892634e-05 -0.00012644449
1.7883285e-05 -2.5708443e-05 7.023311e-05 5.422835e-06 2.124606e-06 7.3315976e-05 7.74202e-05 -2.84513e-05
-7.398661e-05 -5.8630787e-05 4.840397e-05 9.4277995e-05 4.6705263e-05 -7.255134e-05 0.000119349526 1.6880524e-05
3.3552567e-06 -6.934705e-05 6.554817e-06 -1.8418727e-05 -3.6267097e-06 -1.0420121e-05 -6.569593e-05 2.0580303e-06
5.5636865e-06 -0.00022691206 2.82606e-06 2.2770575e-05 9.09291e-06 2.5122166e-05 -2.2238504e-05 -2.4418125e-05
7.498188e-05 1.8822799e-05 6.691107e-05 5.7535777e-05 -1.2448832e-05 3.672521e-05 -0.00014525642 1.68105e-05
1.2121799e-05 6.974513e-05 1.6068963e-05 1.3015988e-05 -5.035849e-05 9.362321e-06 -2.459067e-05 7.476933e-05
-0.00014741706 9.71348e-06 -2.3895478e-05 3.7479243e-05 -1.6990052e-06 3.0462492e-05 1.5660367e-05 4.139758e-05
-8.835236e-05 -5.6635035e-05 3.5726862e-06 5.654065e-05 -4.5646986e-05 2.0520754e-05 -5.3900156e-05 -5.268387e-06
-2.0490486e-05 -0.000114812225 -1.6636795e-05 1.4767437e-05 -7.304062e-05 2.2235354e-05 -1.2613416e-05 -1.2146318e-06
3.3667755e-05 4.864449e-05 1.2682469e-05 -5.0869035e-05 2.6859852e-05 -3.1421238e-05 0.00017426137 2.6036432e-06
-6.778567e-06 3.19109e-05 2.8749428e-05 4.719848e-06 4.4087068e-05 5.5455468e-05 -3.2553417e-05 2.0521818e-05
1.08416525e-05 -5.6102246e-05 1.1509657e-05 1.0821763e-05 -5.585388e-06 8.416997e-06 -9.46729e-05 -0.00020912218
3.771262e-05 8.165168e-05 2.9808198e-06 2.9036633e-05 1.0740734e-05 2.3800003e-06 -8.289979e-06 -3.228832e-05
-1.0091753e-08 -2.8440532e-05 -3.7844484e-06 1.05758745e-05 -1.856157e-05 -7.137102e-05 1.1277381e-05 -7.45177e-05
4.8130543e-05 -0.000120403536 1.1951372e-05 -0.00010523053 6.8084278e-06 -0.0001258488 8.44023e-06 3.656683e-06
