MLagents_test1/results/CarAgent_rl+im_1/CarAgent/CarAgent-1499728.pt (torch, 374393 bytes, 56 tensors)

network_body.observation_encoder.processors.0.normalizer.running_mean f4 [35]
000000 00 00 00 00 35 85 c9 3e 93 75 18 3e e7 3f ea 3e
       0.0 0.3935944 0.14888601 0.4575188
000010 60 cd 18 3f 00 00 00 00 a7 8a 04 3f b9 44 58 3e
       0.5968838 0.0 0.51774067 0.21119966
000020 3e c8 8a 3e aa 95 03 3f 00 00 00 00 9c 9c 00 3f
       0.27105898 0.51400244 0.0 0.50238967
000030 38 10 4c 3e 93 be 98 3e 8f 21 07 3f 00 00 00 00
       0.19928062 0.29832897 0.5278558 0.0
000040 f1 44 1f 3f 9e b6 7a 3e 89 35 08 3e fa a7 d8 3e
       0.6221457 0.24483725 0.13301672 0.42315656
000050 00 00 00 00 94 31 27 3f ef 76 80 3e 1a 97 c4 3d
       0.0 0.65310025 0.2509074 0.09599133
000060 98 ba cb 3e 00 00 00 00 1b 71 1f 3f 43 bc 77 3e
       0.39790797 0.0 0.6228196 0.2419291
000070 44 7f 0a 3e 55 ab d5 3e 00 00 00 00 6a 94 30 3f
       0.1352511 0.41732278 0.0 0.6897646
000080 1b f8 84 3e 92 f7 4e 3d 7d fd af 3e
       0.2597054 0.05052907 0.34373084

network_body.observation_encoder.processors.0.normalizer.running_variance f4 [35]
000000 00 00 80 3f 2d c8 ae 48 4e 97 39 48 4d c0 b5 48
       1.0 357953.4 190045.22 372226.4
000010 0f 95 8c 48 00 00 80 3f 9e d7 b6 48 da fd 73 48
       287912.47 1.0 374460.94 249847.4
000020 cd b0 90 48 62 d3 67 48 00 00 80 3f a9 11 b7 48
       296326.4 237389.53 1.0 374925.28
000030 79 b3 69 48 3c 4a 99 48 78 9c 77 48 00 00 80 3f
       239309.89 313937.88 253553.88 1.0
000040 ac 25 ac 48 12 65 87 48 a4 e6 28 48 23 de 20 48
       352557.38 277288.56 172954.56 164728.55
000050 00 00 80 3f 7c e8 a5 48 e5 a2 89 48 97 2f fe 47
       1.0 339779.88 281879.16 130143.18
000060 db 80 1f 48 00 00 80 3f be 06 ac 48 41 4d 86 48
       163331.42 1.0 352309.94 275050.03
000070 9a 4b 2b 48 ce cd 12 48 00 00 80 3f e3 b3 9c 48
       175406.4 150327.22 1.0 320927.1
000080 14 ca 8c 48 fe 87 8c 47 0b 2e e1 47
       288336.62 71951.984 115292.086

network_body.observation_encoder.processors.1.normalizer.running_mean f4 [4]
000000 d6 c0 2b 3f 27 ca fd 41 47 a8 4f 3f 8f f4 16 44
       0.6709112 31.723707 0.81116146 603.8212

network_body.observation_encoder.processors.1.normalizer.running_variance f4 [4]
000000 72 b3 ba 48 55 07 2d 4e 5e ca 5a 48 f2 3f 14 54
       382363.56 7.257347e+08 224041.47 2.546912e+12

network_body.processors.0.normalizer.running_mean f4 [35]
000000 00 00 00 00 35 85 c9 3e 93 75 18 3e e7 3f ea 3e
       0.0 0.3935944 0.14888601 0.4575188
000010 60 cd 18 3f 00 00 00 00 a7 8a 04 3f b9 44 58 3e
       0.5968838 0.0 0.51774067 0.21119966
000020 3e c8 8a 3e aa 95 03 3f 00 00 00 00 9c 9c 00 3f
       0.27105898 0.51400244 0.0 0.50238967
000030 38 10 4c 3e 93 be 98 3e 8f 21 07 3f 00 00 00 00
       0.19928062 0.29832897 0.5278558 0.0
000040 f1 44 1f 3f 9e b6 7a 3e 89 35 08 3e fa a7 d8 3e
       0.6221457 0.24483725 0.13301672 0.42315656
000050 00 00 00 00 94 31 27 3f ef 76 80 3e 1a 97 c4 3d
       0.0 0.65310025 0.2509074 0.09599133
000060 98 ba cb 3e 00 00 00 00 1b 71 1f 3f 43 bc 77 3e
       0.39790797 0.0 0.6228196 0.2419291
000070 44 7f 0a 3e 55 ab d5 3e 00 00 00 00 6a 94 30 3f
       0.1352511 0.41732278 0.0 0.6897646
000080 1b f8 84 3e 92 f7 4e 3d 7d fd af 3e
       0.2597054 0.05052907 0.34373084

network_body.processors.0.normalizer.running_variance f4 [35]
000000 00 00 80 3f 2d c8 ae 48 4e 97 39 48 4d c0 b5 48
       1.0 357953.4 190045.22 372226.4
000010 0f 95 8c 48 00 00 80 3f 9e d7 b6 48 da fd 73 48
       287912.47 1.0 374460.94 249847.4
000020 cd b0 90 48 62 d3 67 48 00 00 80 3f a9 11 b7 48
       296326.4 237389.53 1.0 374925.28
000030 79 b3 69 48 3c 4a 99 48 78 9c 77 48 00 00 80 3f
       239309.89 313937.88 253553.88 1.0
000040 ac 25 ac 48 12 65 87 48 a4 e6 28 48 23 de 20 48
       352557.38 277288.56 172954.56 164728.55
000050 00 00 80 3f 7c e8 a5 48 e5 a2 89 48 97 2f fe 47
       1.0 339779.88 281879.16 130143.18
000060 db 80 1f 48 00 00 80 3f be 06 ac 48 41 4d 86 48
       163331.42 1.0 352309.94 275050.03
000070 9a 4b 2b 48 ce cd 12 48 00 00 80 3f e3 b3 9c 48
       175406.4 150327.22 1.0 320927.1
000080 14 ca 8c 48 fe 87 8c 47 0b 2e e1 47
       288336.62 71951.984 115292.086

network_body.processors.1.normalizer.running_mean f4 [4]
000000 d6 c0 2b 3f 27 ca fd 41 47 a8 4f 3f 8f f4 16 44
       0.6709112 31.723707 0.81116146 603.8212

network_body.processors.1.normalizer.running_variance f4 [4]
000000 72 b3 ba 48 55 07 2d 4e 5e ca 5a 48 f2 3f 14 54
       382363.56 7.257347e+08 224041.47 2.546912e+12

network_body._body_endoder.seq_layers.0.weight f4 [256, 39]
000000 06 07 27 3e 4b ea 0a be df 25 3a bc 4c fc 93 3b
       0.16311273 -0.13565938 -0.011361568 0.00451616
000010 3f 9a 84 bd 17 20 00 3e 08 f7 18 3e 75 4a 37 3b
       -0.064747326 0.12512241 0.14937985 0.0027967964
000020 91 64 a2 3e 7b ab b5 3c 51 d1 8f 3e 31 27 41 3e
       0.3171735 0.022176495 0.28089383 0.18862607
000030 3b d8 0a be 09 11 06 be 61 2d e1 3c b3 6c 24 be
       -0.13559048 -0.13092436 0.027487459 -0.1605709
000040 a8 35 c3 3c 54 46 9a 3e 6a 7c a0 be c3 18 a6 bd
       0.023829296 0.3013178 -0.3134492 -0.08110192
000050 f8 cd c5 3d b7 ee 59 3e 44 50 9e bd 75 36 eb 3d
       0.09658426 0.21282469 -0.07730153 0.11484996
000060 f6 a1 cd bd 8a b0 a3 3d 0a 3d 09 bd 65 ec da 3d
       -0.10040657 0.079926565 -0.033505477 0.1068962
000070 28 ef 8a 3e dc 6c aa 3c 2e a5 bc bc 1d 83 af 3d
       0.27135587 0.020803861 -0.023027983 0.0856993
000080 a0 eb 33 3c bb 0f 8f 3e a4 7e f9 3d f8 1d 1c be
       0.01098147 0.2794169 0.12182358 -0.15245807
000090 3c f5 0c bd 8a 74 a1 3c 29 56 b6 bc 8d 76 a3 3d
       -0.03441356 0.01970889 -0.022257881 0.07981596
0000a0 94 82 0e 3e f1 4d a8 be f6 5a 98 be b3 58 6c 3e
       0.13916999 -0.32871965 -0.29756898 0.23080711
0000b0 64 36 11 be 20 2e 6c be cd 8a 41 3d b8 b4 98 3d
       -0.14180905 -0.2306447 0.04725151 0.07456344
0000c0 c8 23 f9 3d 5e 0e 10 bd e1 da 0a 3e aa 56 a8 3c
       0.12165028 -0.03516995 0.13560058 0.020549137
0000d0 5d 1e d8 be da 0b 83 be 8d f4 e9 3c 8a 6a c1 3d
       -0.42210665 -0.2559498 0.028558994 0.09444149
0000e0 5d bb 5a be 88 b1 d4 3c b6 bb 9f 3c ed 46 96 3d
       -0.21360536 0.02596356 0.019498687 0.07337747
0000f0 77 eb 64 bd fd 1d 03 bd 8f 55 c9 bd 10 c7 10 3e
       -0.05588862 -0.03201102 -0.09830772 0.14138436
000100 39 b4 46 3e bc 3a ca be 47 35 83 3e 6b dc eb 3d
       0.19404687 -0.39497936 0.25626585 0.11516651
000110 aa 89 54 3e 5f cc 1a 3c bc 61 c7 3c b4 ec 73 3b
       0.2075564 0.00944814 0.024338596 0.0037219943
000120 90 04 e4 3d a2 b8 31 3d 00 9d 36 3e d8 ee 94 be
       0.11133683 0.04338897 0.17833328 -0.29088473
000130 0b f8 fe 3d 56 f5 94 3d 16 9c 94 3d ce db 66 3e
       0.12449654 0.072733566 0.072563335 0.22544786
000140 27 99 c7 be 85 e5 0e 3e ac 0b b6 bd 1f d3 22 be
       -0.38984033 0.13954742 -0.08888945 -0.15900849
000150 d7 68 f7 3d 60 05 91 bd 12 fe bd 3e 60 ff 72 3e
       0.120805435 -0.07081103 0.37107903 0.2373023
000160 42 5d 40 bd 8a 4b 25 be 56 c5 84 be 16 61 16 3e
       -0.046963938 -0.16142097 -0.25931805 0.14685473
000170 c0 9c ac 3b 20 a3 e4 3d 52 23 d3 bd b5 74 8a 3e
       0.0052677095 0.11163926 -0.10309471 0.27042165
000180 c1 64 08 3e ca 55 cb bd 64 52 8e 3e ea e5 2e be
       0.13319685 -0.09928472 0.27797234 -0.17079893
000190 ed 71 d8 3c b3 3e 47 3d f9 5b 43 3d 4b 96 a2 bd
       0.026421512 0.04864378 0.047695134 -0.07938822
0001a0 52 ff f8 3d 3a f9 2d be 50 40 b4 3d 3a 1c 9c bd
       0.121580735 -0.16989604 0.08801329 -0.07622571
0001b0 33 22 18 3e a1 23 bb 3e b6 10 24 be 44 86 fd 3c
       0.14856796 0.3655062 -0.16022 0.030947812
0001c0 9c b5 28 3e 92 07 99 be 3d 4f b1 3d 78 b2 02 bd
       0.16475528 -0.29888588 0.08657692 -0.031908482
0001d0 8f 11 75 3e fc bd 4e 3d 36 91 29 3e 82 32 31 3e
       0.2393248 0.050474152 0.165593 0.17304423
0001e0 78 ac 5b be 57 41 0b be dd 61 cf bd f5 2d 42 be
       -0.2145251 -0.13599144 -0.10126088 -0.18962844
0001f0 f6 b4 de bd a9 60 01 be be 06 07 3e 2c bd e1 3d
       -0.10874359 -0.12634529 0.13186166 0.1102241
000200 e1 bf 92 3d 64 22 2e 3e 68 0c 4b 3e 4d 02 93 be
       0.07165504 0.17005306 0.19828951 -0.28712693
000210 92 4f 76 3e 9c 4c d7 3c 35 83 03 be d2 18 c4 bc
       0.24053791 0.026281647 -0.1284302 -0.023937616
000220 3f 6c e1 be b3 94 91 3e f0 cb 11 3e bf 17 df 3d
       -0.44027898 0.2843376 0.14237952 0.10893201
000230 52 4d de bd 44 f3 50 bd 07 68 6c be d3 ad 65 3e
       -0.108545914 -0.051013246 -0.23086558 0.2242959
000240 b6 d7 e7 3d 9f 96 8a bd 6e 31 09 be 8d f3 89 3e
       0.113204405 -0.0676701 -0.13397762 0.26943627
000250 6d 84 08 bd a7 50 9f 3b 38 09 82 bd f2 28 8b be
       -0.033329416 0.0048619094 -0.063494146 -0.27179676
000260 5d 08 0a be 4d 5e bb 3d 3a 31 d3 3d 89 6f b2 3d
       -0.13479753 0.09148846 0.103121236 0.0871268
000270 f3 b7 b1 bd eb 2a 4e 3d 9a b3 af bc af 30 dc 3b
       -0.08677664 0.0503339 -0.021447945 0.0067196707
000280 61 91 64 3e b1 e4 52 3c 3e 46 ca 3e cf bc 0e 3e
       0.22321083 0.012871907 0.39506716 0.13939212
000290 3e da 21 3e e3 26 94 be 7b 0b 18 be 99 69 9b bd
       0.15805909 -0.28935918 -0.1484813 -0.075885005
0002a0 78 21 f1 3d a7 16 67 be 30 af dd bc 54 8a 89 3d
       0.11773962 -0.22567235 -0.027061075 0.06715837
0002b0 00 8a 43 3e 20 56 9a 3d 53 8e 9b be 97 ea f9 3d
       0.19095612 0.07535958 -0.30382022 0.122029476
0002c0 7e d0 96 3d 64 93 28 3e 1c dd 0a 3d 12 24 b9 ba
       0.073639855 0.16462475 0.033902273 -0.001412513
0002d0 31 70 19 be 4a 00 2e 3e 34 26 20 3c f1 73 76 3e
       -0.14984204 0.16992298 0.009774733 0.24067666
0002e0 58 fc 49 3e 79 91 4f 3d 5d ca 2b be 02 bf bd bd
       0.19725168 0.050675843 -0.16776414 -0.092649475
0002f0 45 45 ff bd 95 d8 e6 3d e4 81 96 3d 37 95 94 bd
       -0.12464384 0.112717785 0.073489934 -0.07255023
000300 8c 0c 5e 3e 42 6f 95 be b9 ed 8c 3d 71 87 4c be
       0.21684474 -0.29186445 0.068812795 -0.19973542
000310 2e a9 9f 3d c8 d1 9b bd e0 dd 72 be 77 03 11 3b
       0.0779594 -0.07608372 -0.23717451 0.002212731
000320 80 d9 45 3d a0 63 12 3e 78 69 8e be e1 c3 15 3e
       0.048303127 0.14295816 -0.2781484 0.14625503
000330 7b 51 6e bd 2f 68 43 be c5 e8 9d 3e 42 f0 1f be
       -0.058183175 -0.19082712 0.30841652 -0.15618995
000340 e6 9b ba bd 1c 16 0b be 02 f5 39 be d6 cf 08 be
       -0.091117665 -0.13582653 -0.1815987 -0.13360533
000350 69 42 69 bc fc b5 79 bd b9 14 39 3e b0 ca 9a 3c
       -0.014237025 -0.06096457 0.18074311 0.018895477
000360 61 4d 21 3b 6f 05 06 3e 41 6a 4c 3d d7 d0 95 3b
       0.0024612772 0.1308801 0.04990602 0.004572015
000370 f9 c8 29 be 11 33 bf 3d d6 14 a1 bd 78 2b 1b 3e
       -0.16580571 0.09335912 -0.07865302 0.15153301
000380 59 b3 5c 3e 6a 0e b3 bd 94 da 30 3e f1 44 29 bd
       0.2155279 -0.08742984 0.17270881 -0.041325513
000390 01 00 8a 3c 50 b4 c1 3d 69 80 8f be 15 d1 5c bd
       0.016845705 0.0945822 -0.28027657 -0.053910334
0003a0 a1 46 a2 bd 80 5f 14 be 83 a2 0f 3d c5 48 58 bd
       -0.07923628 -0.14489555 0.035067093 -0.052803773
0003b0 ad 90 c5 be 1b fb 8b be ff 12 72 3d d9 ad a5 3e
       -0.3858694 -0.27340016 0.059100147 0.32359198
0003c0 89 b5 ce bd 1d d3 8e 3e ca f8 ff 3c 67 2f a2 bd
       -0.10093219 0.27895442 0.031246562 -0.079191975
0003d0 f1 1a b9 bd 6a 7a f1 bd 7b 83 64 be b6 46 34 3e
       -0.09038342 -0.11790927 -0.22315781 0.17605099
0003e0 4f 82 6c 3d 5e 30 67 bd 32 b6 d4 3d c0 b2 37 3e
       0.05774146 -0.05644261 0.103863135 0.17939281
0003f0 c9 88 b6 bd ce 7a 89 be 85 a9 08 be e0 d6 6f bd
       -0.089128084 -0.26851505 -0.13345917 -0.05855453

network_body._body_endoder.seq_layers.0.bias f4 [256]
000000 5c 92 de bb f0 44 2e 3d 1b dc 02 3d 67 0a b3 bb
       -0.0067923497 0.042546213 0.03194819 -0.0054638865
000010 3b 43 58 bc f9 72 05 3c 54 af 31 3c 9a e2 13 3d
       -0.013199623 0.008145087 0.010845024 0.036104776
000020 e1 69 f3 bc 84 a6 69 3c d2 dd 37 bd ab 65 94 bc
       -0.029713573 0.014260892 -0.04488928 -0.018114885
000030 98 3f 70 bb af d2 c5 3c c4 9a 9e 3a 55 c5 9f 3c
       -0.0036658999 0.024148313 0.0012100567 0.019503275
000040 92 55 61 3c 41 03 9a bb 4d 85 84 bc ef fc 7a 3c
       0.013753312 -0.004700095 -0.016176844 0.015319093
000050 c6 28 e4 bc a5 f4 79 3c 67 2c a1 3c 35 a8 1b bd
       -0.027851474 0.015256082 0.019674493 -0.03800221
000060 d9 1e aa 3c 1a 99 d1 bc f2 19 7f 3a c0 7b 58 3c
       0.020766662 -0.0255857 0.0009731344 0.013213098
000070 df 3c c0 bc 15 13 1d 3d 8f b0 d7 bb 85 0a 18 3d
       -0.023466526 0.038348276 -0.0065823267 0.037119407
000080 6e 95 21 bb 79 97 d7 3c c8 cd 29 bd 49 fc 14 bc
       -0.0024655717 0.026317345 -0.041456014 -0.009093353
000090 41 70 8d bc 2c 5b 9f 3c d2 5d 41 3d 80 17 08 3b
       -0.01726544 0.019452654 0.047208615 0.002076596
0000a0 b9 49 48 3c 9c 98 b9 3c 6e 28 75 3b 3f 6f f9 bc
       0.012224608 0.022655778 0.0037408131 -0.030448554
0000b0 99 df c1 3c e3 26 0e 3d fa ff d4 3c 3f d2 5a bc
       0.02366619 0.034705054 0.026000965 -0.013355791
0000c0 8b 40 39 3c 4a 6e a5 3c 74 a0 9a bc 35 01 47 3c
       0.011306892 0.020194191 -0.018875338 0.012146284
0000d0 f2 c2 33 3c 00 e5 de 3c c5 df e5 bc 43 be d2 bc
       0.010971772 0.027208805 -0.028060803 -0.02572549
0000e0 a3 51 34 bd b7 f7 8b 3a e1 ec 0c bc 8d b1 04 3d
       -0.044023167 0.0010678683 -0.008601398 0.032395888
0000f0 6d 27 00 3b 58 a8 fc bb a4 00 b9 bc ac 33 49 3d
       0.001955475 -0.007710498 -0.022583313 0.049121544
000100 f6 93 36 3c 54 10 df 3c 77 f0 a3 bc e2 94 c6 bc
       0.011143675 0.027229466 -0.020012124 -0.024240915
000110 f4 f3 69 bc fd 21 06 3d 73 20 30 bc 74 db 38 3d
       -0.014279354 0.032747258 -0.010749924 0.04513116
000120 b1 6d f3 3a 41 51 b3 bb a8 8b ad 3c b4 46 c8 3a
       0.0018572119 -0.0054723327 0.021184757 0.001527986
000130 0d d5 86 3c 07 29 8d bc 07 ce 04 3d b2 d5 5a 3a
       0.016459012 -0.017231477 0.032423045 0.0008347883
000140 4d 4e 08 3d 3b b6 d7 3b 57 d4 29 3d a7 6f 1c 3c
       0.0332778 0.006583003 0.04146227 0.009548104
000150 07 49 1f 3d 3a f4 11 3d 1d aa fa bc 95 c4 23 3d
       0.038888004 0.035633303 -0.030598694 0.039982397
000160 9e 4d b7 3a df c4 9c 3a ec 16 9b 3b e3 74 af bc
       0.0013984924 0.0011960528 0.004732957 -0.02141804
000170 89 4a fd 3c e7 d2 ae 3c 5c 4c bb bb 0c c1 c1 bc
       0.03091933 0.0213408 -0.00571589 -0.023651622
000180 fc 56 f1 3c bd ef 0b bc 9f 08 ad 3b ae b5 35 3d
       0.029460423 -0.008541045 0.0052805687 0.044362716
000190 d4 92 29 3c cc 9d d0 3c 5b 39 17 3d c0 58 d1 bc
       0.010349948 0.025465868 0.036919933 -0.025555015
0001a0 37 64 d2 bb 7d b4 35 3d fa a8 a3 3c 15 78 18 bd
       -0.006420638 0.04436158 0.019978035 -0.037223894
0001b0 a6 34 2b 3d d7 bc 94 3c 5c b4 13 3d fb 07 d8 bc
       0.041798256 0.018156452 0.036060676 -0.026370993
0001c0 86 2a e6 3c a6 86 76 3c 36 a4 7c bb 68 0c 3f 3c
       0.028096449 0.015046751 -0.0038550026 0.011660673
0001d0 ea be b7 3c 53 51 8f 3c b7 49 82 3c aa a2 cc bc
       0.022429902 0.017494833 0.01590429 -0.024979908
0001e0 e3 8c 17 bd ac 52 30 3b c5 14 47 bc 4d 59 b9 3c
       -0.036999594 0.0026904745 -0.012150948 0.02262559
0001f0 d7 13 d2 bc 9c 1c 23 bd 75 3f 86 bc 9a dd c4 3c
       -0.025644226 -0.039822206 -0.01638768 0.02403145
000200 49 2b 30 3c 48 34 60 bb a0 73 6f 3c 32 33 05 bd
       0.0107525075 -0.003421085 0.0146149695 -0.032519527
000210 9a f8 27 bc f5 98 db 39 8a d5 24 3b 69 05 23 3d
       -0.010252142 0.00041884897 0.0025151693 0.03980008
000220 55 5c ef 3c 9d 9f 40 3d 1b d0 f1 3b 9c d2 3f 3c
       0.029218832 0.04702722 0.0073795444 0.011707928
000230 1d 7a c5 bb 36 26 13 bc 24 40 17 3d cb 4f 1e 3d
       -0.00602652 -0.008981278 0.036926404 0.038650315
000240 1f 20 f0 3c 64 ba db 3b 10 0f b0 3c f9 2d 18 3c
       0.029312192 0.006705569 0.021491557 0.0092883045
000250 fd 83 92 3c b3 43 2a 3d 3f 84 18 3d 19 b6 8d 3c
       0.017885203 0.04156847 0.037235495 0.017298745
000260 27 eb 20 3d 15 cd 36 3d 15 6d ec bb 61 02 a9 bd
       0.03928676 0.044629175 -0.007215152 -0.08252407
000270 23 8d 0d 3d 90 0e f2 bc aa d4 ed bc c7 99 ee 3a
       0.034558427 -0.02954796 -0.02903207 0.0018203788
000280 67 e7 b3 3b 3e df 23 3d ea 3f 14 bc 10 43 f0 3c
       0.005490232 0.040007822 -0.009048441 0.029328853
000290 09 69 d9 3c 77 22 ab 3c 7d 72 d3 3c aa 2a dc 3c
       0.026539342 0.020890458 0.025811428 0.026875813
0002a0 17 5e 1e 3d 1a 3c 59 bb da 03 20 bc 98 c5 3c 3d
       0.03866395 -0.0033147396 -0.009766543 0.046086878
0002b0 c4 99 fe 3c 4c 96 37 bc 92 2b 05 3c 0c e9 e1 3c
       0.03107918 -0.011205267 0.008128064 0.027576946
0002c0 db f7 b3 3c 38 60 3c 3c ca 33 97 3c 8a a6 1e 3d
       0.021968773 0.01149755 0.018457312 0.038733043
0002d0 54 40 1f 3b 38 18 bf bc 33 75 15 bc 6d 94 8c bc
       0.0024299817 -0.023326978 -0.009122181 -0.017160619
0002e0 83 90 24 3c 1f 6a b2 bc 4f f0 39 3d f2 00 17 bc
       0.01004422 -0.021779118 0.04539519 -0.009216534
0002f0 90 53 d9 3c 7d 12 a5 bc 03 7c fa bc b0 91 eb bc
       0.026529104 -0.020150417 -0.030576712 -0.028755993
000300 c5 61 2a bd 2b 0f ca bc 40 bf 94 bc 16 35 1c bc
       -0.041597147 -0.024665436 -0.018157601 -0.009534141
000310 a5 94 24 3c b2 12 92 3c de 87 cf 3b 42 5e ed 3c
       0.010045205 0.01783118 0.0063333353 0.02897561
000320 77 55 46 3d 1f 08 6b bc 88 b4 fd ba c6 9b 07 3d
       0.04842135 -0.014345198 -0.0019356171 0.03310754
000330 a2 80 d5 bc 6b 99 0b 3c 7e 5f a1 3c 7b 36 9a 3b
       -0.026062313 0.008520464 0.019698855 0.0047062016
000340 32 7e 32 3d 48 ae 0f 3c f9 09 44 bc 92 45 94 3c
       0.04357738 0.008769579 -0.011965268 0.01809958
000350 76 c4 f9 3c 00 82 e4 3b bb f9 55 3c ec 8c ef 3c
       0.030489188 0.006973505 0.013060029 0.029242001
000360 16 8b 09 3c 73 e7 0c bd de 1e 5b 3b 23 0d 6e 3d
       0.008394977 -0.034400415 0.0033435146 0.058117997
000370 22 88 13 bc 56 28 b2 bc c0 0f ff b9 a2 b0 f7 3a
       -0.009004625 -0.02174775 -0.00048649125 0.0018897245
000380 37 98 e6 3c 37 b5 03 3c c1 66 29 3c b6 8b 8e 3a
       0.028148754 0.00803881 0.01033944 0.0010875377
000390 a3 cd 2e 3d 70 c8 96 bc d6 f3 ef bc 92 35 cb 3c
       0.04267658 -0.018406123 -0.029291075 0.024805818
0003a0 d2 ff 63 3d a8 24 9a 3b 5a 5f e1 39 9c 69 21 bc
       0.05566389 0.004704077 0.00042986387 -0.009851839
0003b0 a3 1e 44 bd 7b ab bf 3c e9 cd e1 3c 52 92 15 3d
       -0.04788078 0.023397198 0.027564006 0.036516495
0003c0 50 0b 9d 3c b2 89 32 bb 4d da 53 3c b6 0e db 3c
       0.019170433 -0.0027242717 0.012930465 0.026740413
0003d0 43 2b 44 3c d9 97 0b ba f4 c9 bd bd 59 1f 11 bc
       0.011973205 -0.0005325056 -0.09267035 -0.0088575715
0003e0 3a da b3 bc bf ab 0e bd 33 2c 64 3c e4 aa 39 3d
       -0.021954644 -0.03483176 0.013926554 0.04532899
0003f0 48 4c 0a bb 58 7a 03 3d 21 18 4b bc 93 76 e2 bc
       -0.0021102596 0.032099098 -0.0123958895 -0.027644431

action_model._continuous_distribution.log_sigma f4 [1, 2]
000000 e7 2b 12 be a0 96 8b be
       -0.1427456 -0.27263355

action_model._continuous_distribution.mu.weight f4 [2, 256]
000000 b1 60 45 3c 4a b2 86 3d dd 00 b8 bc 7b 6f 54 3c
       0.012046979 0.06576975 -0.02246135 0.012966032
000010 1f cd ee bb 13 ae 60 3d 53 d5 94 3b 7e b2 f5 bb
       -0.007287636 0.05485351 0.004542032 -0.0074980846
000020 dd 76 d9 3b a6 06 10 3d f6 37 99 3c af b4 33 bd
       0.006636484 0.03516259 0.018703442 -0.043873485
000030 7f 31 e6 3c 95 67 05 3c 74 2b 01 3d f9 97 ef bb
       0.028099773 0.008142372 0.03153558 -0.0073118177
000040 a2 c3 2d 3d f4 49 7b bd 4b 8a cb bc bd 37 d7 bc
       0.042422898 -0.061349824 -0.024846217 -0.026271695
000050 79 46 6c 3c 9e 0c 01 bc 21 84 09 3d dd d8 8d 3c
       0.014421099 -0.007876543 0.033573274 0.017315323
000060 60 72 0c 3d 66 a6 ac 3c 75 a0 ab bc b7 8c 09 3d
       0.034288764 0.021075439 -0.020950535 0.03358146
000070 45 a0 c4 3c 98 ae 2c 3d ec a6 52 3d ef a7 03 3d
       0.024002204 0.042158693 0.05142872 0.032142576
000080 6d f3 c4 bc f0 df f2 3c 38 c3 be bc 1a 7c 9a bc
       -0.024041856 0.029647797 -0.023286447 -0.018858004
000090 1d 91 0c bd 0c bc 7d 3d fc 06 57 3d 0a 2a 89 3c
       -0.03431808 0.061946914 0.052496895 0.016743679
0000a0 2b 83 5b 3d bb 91 85 3c 59 ac 01 3c de 88 54 bd
       0.05359189 0.016304841 0.007914626 -0.05188834
0000b0 92 76 2d 3d df d0 1e 3d ed f4 e5 3c e9 20 06 3d
       0.042349406 0.038773414 0.028070891 0.03274623
0000c0 86 98 8c bb c5 a3 d7 3b 9d 74 42 3d cc d4 62 bc
       -0.004290643 0.006580802 0.047474492 -0.01384468
0000d0 a0 bc 39 3c 48 29 1a 3d 56 a6 d9 3c 89 f5 86 bc
       0.011336476 0.037637025 0.026568573 -0.016474502
0000e0 dd 96 23 bb 38 3a 7e 3d 88 25 58 3d ab 2a 4b 3d
       -0.0024961748 0.06206724 0.052770168 0.04960124
0000f0 11 8e 6f 3d ae 9a 41 3c 23 8b 13 bd fa 1a 81 3c
       0.058485094 0.011816664 -0.036021363 0.015759934
000100 e7 88 85 3d 92 47 8f 3c 7c 39 ae 3c 23 aa cd 3c
       0.06520253 0.017490182 0.021267645 0.025105542
000110 f3 d8 09 bd 38 bf 85 3d cf c8 cd 3c f2 b0 d2 3c
       -0.033654165 0.06530613 0.025120167 0.02571914
000120 14 ce d1 3c 14 2f cf 3c 5d 44 e3 bc f2 e5 b5 3c
       0.025610961 0.025291003 -0.02774256 0.022204373
000130 5e 14 a0 3c 3a 33 7d bc c5 f7 2e 3d d1 20 42 bd
       0.019540962 -0.015454108 0.04271676 -0.047394577
000140 a9 2f 67 bc fe ad 00 bd 14 40 b4 3c 50 e7 97 3d
       -0.014110484 -0.031415932 0.022003211 0.07417166
000150 bf 05 10 3d 1c 6c 15 3d b0 bf 1f bd 6d 60 04 3d
       0.03516173 0.036480054 -0.039001167 0.03231852
000160 74 3b c4 bc b3 40 d8 3c 51 75 1a bb 3f 12 60 bd
       -0.02395413 0.026398038 -0.0023568461 -0.0547049
000170 ec a6 2f 3d 2c e2 0e 3d 60 24 b4 3c e8 ca cd 3b
       0.0428838 0.034883663 0.021990001 0.006280292
000180 b2 bb ae 3c 18 a7 30 bb c4 f9 e6 3c 68 28 25 3d
       0.021329734 -0.0026955064 0.02819527 0.040321738
000190 fb 21 31 3d 9b 66 ed bb 6b 23 9c 3c a5 0d 11 3d
       0.043245297 -0.0072448975 0.019059857 0.035413403
0001a0 96 b3 15 3d 80 db 03 3d 4c 96 a9 bc e7 36 0a 3b
       0.03654822 0.032191753 -0.02070155 0.0021089853
0001b0 7d e3 80 3d ae 7e 21 3d 4d ec 65 3d 03 8c df 3b
       0.0629339 0.03942745 0.056133557 0.0068221106
0001c0 54 b7 b9 3c e1 35 9e 39 1e d8 c9 3c 29 73 3b 3d
       0.022670425 0.0003017625 0.024639186 0.045764122
0001d0 6d 31 be 3c 19 95 18 bc ca e4 26 3c fd 25 1a 3d
       0.023216927 -0.009312891 0.0101863835 0.037633885
0001e0 c9 f4 d9 bb 78 96 1d 3c ca 3f d4 bc 82 44 a7 3c
       -0.006651495 0.009618394 -0.025909323 0.02041841
0001f0 53 90 23 3d 47 ea 79 3b 77 bf 9c 3a 11 d1 3e 3c
       0.03993256 0.0038134025 0.0011958916 0.011646525
000200 d3 1c 33 3d f6 a4 01 3d fe ee ad 3c 2b f3 3e bd
       0.04372866 0.03165146 0.021232124 -0.04661862
000210 5b fa 9c 3c b8 f8 5c 3d 05 80 4e 3d 2b 63 87 3d
       0.019162348 0.053948134 0.050415058 0.06610712
000220 dc 34 eb 3c 9d 7d 3c 3d 12 00 75 3c 57 f6 66 b9
       0.028711729 0.04601823 0.01495363 -0.00022026278
000230 bf 4a cf bc 7d c8 23 3d a4 4e 8f 3d 20 14 47 3d
       -0.025304196 0.039986122 0.069974214 0.048603177
000240 47 8c 86 3d 86 06 88 3d 6e a3 10 3d e9 a8 62 3d
       0.065697245 0.06641869 0.03531211 0.055336867
000250 52 f8 0c 3d 54 70 36 3d e8 b8 95 3d 3a c7 47 bb
       0.034416504 0.04454072 0.07310659 -0.0030483739
000260 17 65 7f 3d 5b 41 a2 bb 4a 1b af 3c 78 f9 d5 bc
       0.062352266 -0.0049516386 0.021375317 -0.026119933
000270 e2 4b 37 3d b9 41 a3 3c 21 21 f9 bc fc f3 53 3d
       0.044750102 0.0199288 -0.030411305 0.051746354
000280 37 65 8d 3d 2d 9d a9 3d 13 34 2b 3d c6 14 75 3b
       0.06904071 0.08281932 0.04179771 0.0037396415
000290 5d 00 3d 3c d6 68 90 3c 18 70 b3 3c 23 90 7a 3d
       0.011535731 0.017628115 0.021904036 0.061172616
0002a0 12 af de 3c 93 10 a4 3c 10 e0 0f bc 59 29 32 3d
       0.02718309 0.020027434 -0.008781448 0.043496463
0002b0 28 f1 15 3d aa 93 c7 3c 5f 84 7a bb 19 5a 86 3c
       0.036606938 0.024362404 -0.0038225872 0.016400384
0002c0 be a4 e9 3c 6e a6 41 3d 6a 1b 0a 3c 18 14 1a 3d
       0.028520938 0.04727786 0.008429388 0.03761682
0002d0 3f 0b d0 3c cb 5e d8 3c 6e c7 77 3c 7a f5 49 3b
       0.025395988 0.026412388 0.015123231 0.0030816481
0002e0 c0 d8 0e 3c 08 f7 2d 3c 18 8e 37 3c 1c 30 d0 3c
       0.008718669 0.010617979 0.011203311 0.025413565
0002f0 4c 12 ab 3a cc 5f 6f bc 26 92 56 bb e6 06 a2 3c
       0.0013051718 -0.014610242 -0.003274092 0.01977868
000300 50 1f 1d bc 0a e2 ff 3c fa 2e 58 3d 70 8b fe 3c
       -0.009589985 0.031235714 0.052779175 0.031072348
000310 32 39 37 bc 25 ff 8d 3d 48 3c ec 3c ee 36 14 3d
       -0.01118307 0.069334306 0.028837338 0.036185198
000320 99 1e 28 3d 44 43 20 3d d0 02 a8 bc 09 1c 06 3d
       0.041044805 0.03912665 -0.020509154 0.03274158
000330 c9 46 2c bd 2d af 74 3c 86 da 83 3c 54 b1 5a ba
       -0.042059693 0.014934343 0.016095411 -0.0008342464
000340 c7 02 00 3d b0 8e 41 3c 91 2f 21 bd 09 91 16 3d
       0.03125265 0.0118138045 -0.039352003 0.03675941
000350 08 c2 95 3a bb c8 4f bd c9 8d 04 3d 4f ab f2 3c
       0.0011425624 -0.05072854 0.03236178 0.029622702
000360 68 2f 2c 3c 36 e5 38 bd b7 cb 21 3c e7 59 fc 3c
       0.010509349 -0.045140468 0.00987523 0.030804588
000370 5b 80 99 bc 6a d4 69 bc cf da 7b 3b bb 28 3e 3c
       -0.018737962 -0.014271835 0.003842998 0.011606391
000380 ec d9 b6 3d 0a 18 b5 3c a2 82 83 bd 88 1a 4f 3d
       0.08928284 0.02210619 -0.064214006 0.05056241
000390 9e b9 04 3d 8e 44 d4 bb 5d cf 5b 3c e5 14 b9 ba
       0.03240358 -0.006477899 0.0134161385 -0.0014120607
0003a0 40 15 34 3d 4e 4b a1 3c 2c ee 26 3d f7 61 9c bb
       0.043965578 0.019689228 0.040754482 -0.0047724205
0003b0 b5 aa 28 bc 4a f8 b7 bb cd ce 30 3d c7 bf 3c 3d
       -0.010294606 -0.005614315 0.04316597 0.04608133
0003c0 74 e1 19 3d 2f 76 8e bc b7 63 98 3c da 64 2b 3d
       0.037568524 -0.017390339 0.018602235 0.041844226
0003d0 21 dc dc 3b 48 1a 69 3d b9 a4 07 bd a0 9a 0f 3d
       0.0067401086 0.05690983 -0.033116076 0.03505957
0003e0 2d 1f 91 3c 13 42 57 3c 14 d9 ac 3d 64 16 9b 3c
       0.017715061 0.013138312 0.08439842 0.018931575
0003f0 77 aa c5 3d 79 d7 49 3d 44 65 36 bd 23 aa 55 3d
       0.09651654 0.049277756 -0.04453017 0.05216421

action_model._continuous_distribution.mu.bias f4 [2]
000000 c5 eb 28 3d 86 e8 cb 3c
       0.041240472 0.02489115

exp_avg f4 [256, 39]
000000 00 00 00 00 d8 45 4a b7 ca fe 37 36 e2 97 25 37
       0.0 -1.20564e-05 2.7417432e-06 9.870129e-06
000010 05 72 88 37 00 00 00 00 db 90 e8 b7 7d 52 3d b7
       1.6265558e-05 0.0 -2.7724009e-05 -1.1284484e-05
000020 ac 3e 2e 38 b3 d9 6f 37 00 00 00 00 8e 40 bf b6
       4.15432e-05 1.4296197e-05 0.0 -5.6997587e-06
000030 18 27 85 36 fc 91 39 36 4e ce 2a b6 00 00 00 00
       3.96826e-06 2.7652122e-06 -2.545206e-06 0.0
000040 b0 eb 53 35 c2 13 cb 36 aa 3e 13 b7 52 ed 8c 37
       7.8946596e-07 6.0521716e-06 -8.776473e-06 1.6799811e-05
000050 00 00 00 00 d8 7e 7c b7 cc 64 76 37 47 70 35 36
       0.0 -1.5049904e-05 1.4686211e-05 2.7036456e-06
000060 43 b0 a0 36 00 00 00 00 89 c2 94 b7 bc 8a 81 37
       4.788891e-06 0.0 -1.7733562e-05 1.5442602e-05
000070 29 6c c2 36 65 41 b5 37 00 00 00 00 49 7c 73 b7
       5.794242e-06 2.1607333e-05 0.0 -1.4512866e-05
000080 6e 25 e6 36 1b a6 8d 37 27 10 c4 36 8a 4f 3c 37
       6.8588915e-06 1.6885859e-05 5.8431356e-06 1.1224192e-05
000090 44 dd 72 37 d2 16 07 37 a4 11 99 b6 00 00 00 00
       1.4475841e-05 8.05194e-06 -4.561809e-06 0.0
0000a0 0b 1b 5e 37 1a c4 3a 37 fa a8 af b7 6f 5f 80 b9
       1.3238528e-05 1.1132122e-05 -2.0940312e-05 -0.00024485166
0000b0 00 00 00 00 0b cd d1 38 61 d0 bc b8 98 ef f9 b7
       0.0 0.00010004089 -9.003352e-05 -2.9794683e-05
0000c0 9f 09 b8 38 00 00 00 00 9e 09 a2 b8 7c 6a ef b7
       8.775596e-05 0.0 -7.726553e-05 -2.8540606e-05
0000d0 5d 66 e5 38 68 83 0c b7 00 00 00 00 18 87 5a b9
       0.000109386376 -8.375246e-06 0.0 -0.00020840426
0000e0 6e a2 88 39 29 6f 07 b8 70 b7 7e b8 00 00 00 00
       0.0002606096 -3.2290034e-05 -6.072916e-05 0.0
0000f0 bd 62 9b b9 5b 61 cc 38 be cc af 39 18 84 99 b7
       -0.0002963747 9.745612e-05 0.00033531146 -1.8300532e-05
000100 00 00 00 00 c6 f3 23 b9 e6 47 fb 38 22 f4 95 38
       0.0 -0.00015635704 0.00011982005 7.150347e-05
000110 c8 f1 f2 37 00 00 00 00 c2 dd 98 b9 1e 3d 6a 39
       2.8961236e-05 0.0 -0.00029156922 0.00022338747
000120 a2 7d 30 39 e2 ec 91 b8 f1 d1 18 b9 22 7d 29 ba
       0.0001683147 -6.958262e-05 -0.00014574059 -0.00064654846
000130 98 81 80 b6 d7 df ad b7 00 00 00 00 6c c5 93 36
       -3.829784e-06 -2.072744e-05 0.0 4.4039243e-06
000140 e0 1c 5e b6 e0 2e 03 b6 da 1e 8d 37 00 00 00 00
       -3.3097385e-06 -1.9547806e-06 1.6822876e-05 0.0
000150 7c ae d0 b8 94 f6 3b b6 10 11 f0 38 37 d4 5c b8
       -9.950713e-05 -2.8008699e-06 0.0001144727 -5.2649728e-05
000160 00 00 00 00 c0 92 0c 35 91 7e 81 38 fb 91 64 b8
       0.0 5.2367614e-07 6.174774e-05 -5.449539e-05
000170 d0 a8 3c b8 00 00 00 00 d7 77 a7 37 a8 2f 1b 38
       -4.497991e-05 0.0 1.9963756e-05 3.6999263e-05
000180 36 c9 9d b8 f6 c4 c7 b8 00 00 00 00 34 f4 a3 b8
       -7.523822e-05 -9.525746e-05 0.0 -7.817932e-05
000190 51 ec d2 38 db da b5 b7 60 2c df b7 00 00 00 00
       0.00010057598 -2.1678794e-05 -2.6604335e-05 0.0
0001a0 9c 72 9e b7 40 93 c3 35 e1 ef d0 37 c7 b2 b9 b8
       -1.8888437e-05 1.4571488e-06 2.4907235e-05 -8.854787e-05
0001b0 00 00 00 00 bb 97 d9 37 78 1e 61 37 00 d4 aa b8
       0.0 2.593907e-05 1.3418139e-05 -8.14572e-05
0001c0 cb f3 1e 38 d4 2e 08 b9 b2 ed da 38 88 8f 40 37
       3.7897185e-05 -0.00012987416 0.00010439324 1.147751e-05
0001d0 e0 4b 91 38 00 00 00 00 96 48 ac b7 fb 8e ec 37
       6.9282716e-05 0.0 -2.0537798e-05 2.8199973e-05
0001e0 00 f6 24 b2 de 73 cb 36 00 00 00 00 40 33 06 b7
       -9.60199e-09 6.06336e-06 0.0 -7.998955e-06
0001f0 7e 8e bb b6 2f 0f 6d 37 54 fc e3 37 00 00 00 00
       -5.5896226e-06 1.4129836e-05 2.7178008e-05 0.0
000200 0c ea 85 b7 60 35 d4 b6 76 b7 c0 37 a2 93 ba 36
       -1.5963822e-05 -6.324306e-06 2.2973614e-05 5.5604187e-06
000210 00 00 00 00 f0 d2 14 b8 b8 59 fb 37 b6 54 55 37
       0.0 -3.54824e-05 2.996331e-05 1.2715513e-05
000220 22 b2 1f 38 00 00 00 00 16 ad c5 b7 f8 f6 cd 37
       3.8074453e-05 0.0 -2.356483e-05 2.4552908e-05
000230 c5 52 02 36 72 3e c4 b6 00 00 00 00 f8 4f 2a b8
       1.9419688e-06 -5.848525e-06 0.0 -4.0605635e-05
000240 8c ed 06 38 ca bd 90 37 66 8e 00 38 00 00 00 00
       3.2169322e-05 1.7254515e-05 3.0650197e-05 0.0
000250 91 6c a5 b7 6d be d5 37 40 81 1c b7 09 1a f4 b7
       -1.9720088e-05 2.5480253e-05 -9.328418e-06 -2.909919e-05
000260 50 69 14 38 43 e8 be b7 ab 09 92 36 9a 9c df 36
       3.538403e-05 -2.275792e-05 4.3522646e-06 6.6641487e-06
000270 00 00 00 00 d0 67 a2 b7 04 e1 52 b6 fa 33 b2 37
       0.0 -1.9360246e-05 -3.1423415e-06 2.1243457e-05
000280 12 c7 25 37 00 00 00 00 c2 28 34 38 19 2a 8c 37
       9.881116e-06 0.0 4.2953303e-05 1.6708904e-05
000290 c6 7c 85 b8 af 19 17 37 00 00 00 00 8c 91 65 37
       -6.365175e-05 9.006281e-06 0.0 1.3683351e-05
0002a0 f8 f4 55 b7 7d 36 80 b6 36 a1 3a 38 00 00 00 00
       -1.2752826e-05 -3.8210405e-06 4.4495995e-05 0.0
0002b0 b4 45 70 37 a3 76 e0 b6 c0 b8 48 b7 45 7c 27 b7
       1.4321344e-05 -6.6895313e-06 -1.1963944e-05 -9.982909e-06
0002c0 00 00 00 00 24 df 1a 36 0b cb 7b b7 86 ec 99 37
       0.0 2.3077673e-06 -1.50080405e-05 1.8349161e-05
0002d0 fa 15 69 37 00 00 00 00 d4 18 5e 37 05 b1 30 b7
       1.3892999e-05 0.0 1.3238012e-05 -1.0531633e-05
0002e0 51 e8 ba b6 01 a6 70 b7 00 00 00 00 28 03 96 36
       -5.570277e-06 -1.43437655e-05 0.0 4.470716e-06
0002f0 f8 f5 60 b6 4c 01 37 b6 df 6e 21 b7 4c 6d c8 37
       -3.3521774e-06 -2.726988e-06 -9.622162e-06 2.3892753e-05
000300 fa a9 2c b7 2d 37 23 b6 f2 25 8c b7 00 00 00 00
       -1.0291575e-05 -2.432101e-06 -1.670697e-05 0.0
000310 1c 05 02 b8 4f 2f bf 37 7a f3 6c 37 d9 bd 34 39
       -3.0999174e-05 2.2791004e-05 1.4123385e-05 0.00017236861
000320 00 00 00 00 90 f9 92 b9 64 75 55 b7 33 68 ab 39
       0.0 -0.0002803323 -1.27231215e-05 0.00032693296
000330 f3 c4 34 39 00 00 00 00 38 cd 8e 38 88 4a 17 b7
       0.00017239507 0.0 6.8093126e-05 -9.0176545e-06
000340 a2 96 8b b8 1f 4a f8 b7 00 00 00 00 f8 88 a8 37
       -6.656094e-05 -2.959842e-05 0.0 2.0090942e-05
000350 76 d1 a9 b7 80 0a 4d b6 83 9c c1 38 00 00 00 00
       -2.0243908e-05 -3.0553492e-06 9.23211e-05 0.0
000360 08 c9 05 b8 e3 14 93 38 ec a1 58 b8 00 a5 03 b6
       -3.1896896e-05 7.013397e-05 -5.1649215e-05 -1.9616564e-06
000370 00 00 00 00 34 24 92 37 82 e7 81 37 0b 92 38 b8
       0.0 1.7421415e-05 1.5485803e-05 -4.400503e-05
000380 86 83 db 38 00 00 00 00 fc 14 fe b7 78 47 3b 37
       0.00010467232 0.0 -3.0288931e-05 1.1162709e-05
000390 91 37 2e 38 da 9f f5 37 12 2a b2 38 92 63 80 39
       4.1536583e-05 2.9280713e-05 8.4955376e-05 0.00024488248
0003a0 2f c3 89 38 56 fd 83 b7 00 00 00 00 46 22 2c b7
       6.569025e-05 -1.5734386e-05 0.0 -1.0259979e-05
0003b0 f8 cd 30 36 0a 4d 09 37 1b 5f 30 37 00 00 00 00
       2.6345933e-06 8.183773e-06 1.0512561e-05 0.0
0003c0 64 1f 8b 36 3d 30 04 b7 cb d2 2c 36 41 c0 bc 36
       4.146177e-06 -7.8790445e-06 2.5752695e-06 5.625218e-06
0003d0 00 00 00 00 ae 22 c5 b6 21 f0 f2 b6 ac d3 55 37
       0.0 -5.8750948e-06 -7.2401167e-06 1.2745073e-05
0003e0 14 6f 7b 36 00 00 00 00 12 47 00 b5 84 a7 c4 35
       3.746657e-06 0.0 -4.7787137e-07 1.4651891e-06
0003f0 d0 24 9d b5 51 31 d5 36 00 00 00 00 e1 05 02 b6
       -1.1708125e-06 6.353636e-06 0.0 -1.9374932e-06

exp_avg_sq f4 [256, 39]
000000 00 00 00 00 85 e1 c4 31 79 94 17 31 fd 19 33 32
       0.0 5.7299894e-09 2.205779e-09 1.042508e-08
000010 77 1c 13 32 00 00 00 00 8e 74 8b 31 4c 3e 0f 31
       8.562998e-09 0.0 4.058683e-09 2.084465e-09
000020 ed 2a 32 32 54 2d 2f 32 00 00 00 00 19 f4 90 31
       1.0370724e-08 1.0196647e-08 0.0 4.2187023e-09
000030 25 79 14 31 55 70 00 31 ec 86 4a 31 00 00 00 00
       2.1605697e-09 1.8690305e-09 2.9471563e-09 0.0
000040 9f 6c 8b 31 8b 8c 33 31 fc f7 f2 30 64 8e 44 31
       4.0577812e-09 2.6127818e-09 1.7678299e-09 2.8602694e-09
000050 00 00 00 00 74 6a 8e 31 d5 6e 2b 31 4c d1 11 31
       0.0 4.1448462e-09 2.4946776e-09 2.1219249e-09
000060 63 a9 cf 30 00 00 00 00 8d 43 92 31 0e 20 26 31
       1.5109375e-09 0.0 4.256839e-09 2.41744e-09
000070 eb a8 20 31 5c ef a9 30 00 00 00 00 73 7b 80 31
       2.3379083e-09 1.2364398e-09 0.0 3.739325e-09
000080 56 83 33 31 8d 2e 4f 31 94 1a ed 30 14 b7 99 31
       2.6122584e-09 3.0148926e-09 1.7251574e-09 4.4736996e-09
000090 11 64 58 32 21 0e 20 31 8b eb ff 30 00 00 00 00
       1.2595607e-08 2.3291096e-09 1.8620637e-09 0.0
0000a0 e6 c9 64 35 cb f2 10 35 7b 3b 80 35 c7 bc 80 35
       8.523042e-07 5.399749e-07 9.554054e-07 9.591685e-07
0000b0 00 00 00 00 5e 0e d5 35 c8 6f 23 35 a1 69 7e 36
       0.0 1.5873918e-06 6.0884895e-07 3.7910434e-06
0000c0 61 ea 2a 36 00 00 00 00 1d b6 a7 35 ed 4e 41 35
       2.54684e-06 0.0 1.2495472e-06 7.2012955e-07
0000d0 91 a4 29 35 bf c4 b9 34 00 00 00 00 a8 68 7e 35
       6.319688e-07 3.4602087e-07 0.0 9.477467e-07
0000e0 57 7f 48 35 86 6f f3 35 59 7d 11 36 00 00 00 00
       7.469111e-07 1.8137368e-06 2.1679646e-06 0.0
0000f0 dd b0 60 35 cd 7a 35 35 04 e4 9d 34 e3 3c c5 34
       8.370387e-07 6.7606453e-07 2.9409432e-07 3.673841e-07
000100 00 00 00 00 01 cf 82 35 78 5e 57 35 25 53 21 35
       0.0 9.746001e-07 8.023121e-07 6.0098165e-07
000110 ba 0f 19 35 00 00 00 00 8e 51 5f 35 d1 ec 40 35
       5.7019827e-07 0.0 8.319265e-07 7.1870187e-07
000120 58 de b5 34 11 4b f2 34 4a 11 3c 35 e7 21 04 36
       3.3875654e-07 4.513063e-07 7.0060617e-07 1.9689267e-06
000130 f0 4b f4 34 54 0e 9a 35 00 00 00 00 de dc d7 33
       4.5503793e-07 1.1478064e-06 0.0 1.0051893e-07
000140 5f 5e e0 32 f7 57 02 34 04 bf c2 33 00 00 00 00
       2.6119947e-08 1.2139195e-07 9.0685745e-08 0.0
000150 ee 6d 80 34 25 61 2e 33 94 ae ce 34 99 79 6f 34
       2.3921842e-07 4.0600884e-08 3.8497512e-07 2.2302847e-07
000160 00 00 00 00 c2 e4 7a 34 a1 c0 34 33 8b 53 9a 34
       0.0 2.3366286e-07 4.208471e-08 2.874552e-07
000170 5f 3d 07 34 00 00 00 00 ad ad d4 33 43 6f 69 33
       1.2595181e-07 0.0 9.903611e-08 5.4350732e-08
000180 88 09 11 34 e7 ab 3b 34 00 00 00 00 80 c3 e9 33
       1.3507645e-07 1.747827e-07 0.0 1.0885469e-07
000190 86 ce 6f 33 3c 20 46 34 51 33 2f 34 00 00 00 00
       5.5834356e-08 1.8451914e-07 1.6316814e-07 0.0
0001a0 07 21 a7 33 5b fc 65 33 63 30 03 33 aa a7 91 33
       7.782551e-08 5.3547733e-08 3.0544822e-08 6.7825866e-08
0001b0 00 00 00 00 24 f5 84 33 1e cf 5a 33 06 04 d0 32
       0.0 6.19132e-08 5.0945452e-08 2.4216217e-08
0001c0 16 1d c1 33 76 60 b5 33 9a 94 3f 34 4e b8 fe 32
       8.9925535e-08 8.4460154e-08 1.7842322e-07 2.9653304e-08
0001d0 bc 0c 1a 34 00 00 00 00 26 ad 3c 32 73 fd 34 32
       1.4347e-07 0.0 1.098241e-08 1.0535007e-08
0001e0 78 cf 43 32 65 ea 3e 32 00 00 00 00 4f 0d a0 32
       1.1397667e-08 1.1112751e-08 0.0 1.8632504e-08
0001f0 15 ae 0c 32 18 f6 0f 33 a1 8f cd 32 00 00 00 00
       8.188654e-09 3.3518603e-08 2.3930456e-08 0.0
000200 58 38 8a 32 29 54 2e 32 49 67 ac 32 1a 15 4a 32
       1.6090937e-08 1.0147269e-08 2.0070404e-08 1.17627454e-08
000210 00 00 00 00 0b 0d 43 32 0c 84 14 32 4f 30 77 32
       0.0 1.13534595e-08 8.644758e-09 1.4388276e-08
000220 55 e7 a0 32 00 00 00 00 00 6d 40 32 a5 79 2b 32
       1.873165e-08 0.0 1.1200655e-08 9.981169e-09
000230 bc 5b 03 32 86 38 61 32 00 00 00 00 a4 42 33 32
       7.646062e-09 1.3109576e-08 0.0 1.0434324e-08
000240 af fe 0e 32 4c a0 a7 31 b1 ad 0d 32 00 00 00 00
       8.323396e-09 4.8785633e-09 8.246773e-09 0.0
000250 61 9d 2f 32 4f 2d 2d 32 af 87 88 31 96 9b 1b 32
       1.02221245e-08 1.0080227e-08 3.9735464e-09 9.057564e-09
000260 3a bd 25 32 8e 18 b8 32 af 5d dd 31 97 0d f9 32
       9.647289e-09 2.1431585e-08 6.442597e-09 2.8993595e-08
000270 00 00 00 00 af 52 df 31 ce 3e 5a 31 c7 60 47 32
       0.0 6.4995542e-09 3.1758876e-09 1.1605329e-08
000280 ab 38 25 32 00 00 00 00 a1 2a 07 32 92 e5 6c 31
       9.617149e-09 0.0 7.867727e-09 3.4473016e-09
000290 5a 6c fe 31 bb 9b a2 31 00 00 00 00 4a 4e f3 31
       7.404691e-09 4.732525e-09 0.0 7.0811312e-09
0002a0 b8 56 a3 31 04 e7 52 32 2b 82 55 32 00 00 00 00
       4.753783e-09 1.2276136e-08 1.24278285e-08 0.0
0002b0 76 58 d0 31 1e 43 92 31 fd e0 23 31 9a 36 41 31
       6.0636536e-09 4.2567896e-09 2.3847513e-09 2.8116234e-09
0002c0 00 00 00 00 4f f2 9d 31 dc df 9a 31 e5 9e 29 31
       0.0 4.5968487e-09 4.5074398e-09 2.4683058e-09
0002d0 a5 59 00 32 00 00 00 00 ac aa d9 31 5f e1 88 31
       7.470963e-09 0.0 6.3349344e-09 3.9837427e-09
0002e0 bb d2 78 31 00 af 68 31 00 00 00 00 67 08 a6 31
       3.6208536e-09 3.385992e-09 0.0 4.832191e-09
0002f0 c2 b9 98 31 c0 31 3f 31 b4 39 8f 31 08 af aa 31
       4.4449004e-09 2.7822438e-09 4.168408e-09 4.96755e-09
000300 61 f0 aa 32 da 39 66 31 7b 05 13 32 00 00 00 00
       1.9899916e-08 3.350229e-09 8.557772e-09 0.0
000310 37 c8 33 34 27 d9 5a 33 0e 80 50 34 f3 db 2a 34
       1.6743512e-07 5.095458e-08 1.9418096e-07 1.5912501e-07
000320 00 00 00 00 3f 70 09 34 0f 66 8a 33 a7 24 a0 34
       0.0 1.2799954e-07 6.44469e-08 2.982899e-07
000330 b5 bc 74 34 00 00 00 00 7d 0c 08 34 62 fa 77 33
       2.2792922e-07 0.0 1.267053e-07 5.773689e-08
000340 e5 ff 90 33 26 be d1 33 00 00 00 00 33 8c 52 34
       6.7520695e-08 9.766909e-08 0.0 1.9608778e-07
000350 37 6d a8 33 d2 f2 96 34 78 ae 4f 34 00 00 00 00
       7.842976e-08 2.8116352e-07 1.9341849e-07 0.0
000360 ad 83 e7 33 8e 1e ac 33 c2 e4 c8 33 79 96 bb 33
       1.07807274e-07 8.014932e-08 9.3548365e-08 8.735237e-08
000370 00 00 00 00 06 78 1e 34 f8 7a a2 33 5b 3d b5 33
       0.0 1.4758561e-07 7.566081e-08 8.43963e-08
000380 37 4a ab 33 00 00 00 00 34 72 e2 33 33 79 ad 33
       7.9763076e-08 0.0 1.05447185e-07 8.077986e-08
000390 4c a7 7f 33 15 aa a1 33 f7 a0 ce 33 0d 8e 90 34
       5.952397e-08 7.5280845e-08 9.621902e-08 2.6925446e-07
0003a0 82 1c 71 33 3f 20 5e 33 00 00 00 00 8d d7 c6 31
       5.6138113e-08 5.171773e-08 0.0 5.7870637e-09
0003b0 f1 a3 a8 31 4b 1b 5b 32 7a 63 53 32 00 00 00 00
       4.9080815e-09 1.2753683e-08 1.2304435e-08 0.0
0003c0 de fb c2 31 94 ad cb 31 13 fc c5 31 bd f4 91 31
       5.674777e-09 5.927811e-09 5.762112e-09 4.247879e-09
0003d0 00 00 00 00 85 71 1a 32 de ec c0 31 62 64 b4 32
       0.0 8.989791e-09 5.614864e-09 2.1000407e-08
0003e0 03 dd 92 32 00 00 00 00 ef cd c1 31 81 d2 ed 31
       1.7097141e-08 0.0 5.640451e-09 6.9215393e-09
0003f0 ac 0d 2a 31 7a 1e 2d 31 00 00 00 00 4e 55 bb 31
       2.4746027e-09 2.5192137e-09 0.0 5.4521143e-09

exp_avg f4 [256]
000000 a4 de 87 37 42 c4 3c b8 e4 3a cc b7 70 2a 4e b6
       1.619693e-05 -4.5005472e-05 -2.4346118e-05 -3.0721094e-06
000010 88 7e a4 b5 dc 5a 91 38 c6 7b 07 37 54 e9 28 b8
       -1.2255778e-06 6.931063e-05 8.075445e-06 -4.0271625e-05
000020 d4 a9 65 b7 2b 87 71 38 d5 54 16 38 47 22 b9 b8
       -1.3689005e-05 5.7584763e-05 3.5841793e-05 -8.827872e-05
000030 dd 76 21 37 c5 9d 33 b7 aa da b3 38 30 73 c2 b8
       9.624023e-06 -1.0705965e-05 8.5761145e-05 -9.272096e-05
000040 e2 c7 fc 37 0f fe d0 b8 dd 20 41 b8 9e 34 27 b7
       3.0133819e-05 -9.965535e-05 -4.6045392e-05 -9.966227e-06
000050 f9 1a 6b 38 14 a0 14 b7 7c e2 2a 38 fc 60 1c 38
       5.6053486e-05 -8.8587585e-06 4.074209e-05 3.7283622e-05
000060 97 44 10 38 b4 a1 4b 38 ae 81 b3 b8 60 06 39 38
       3.4396155e-05 4.854957e-05 -8.55954e-05 4.4113374e-05
000070 b9 2c 53 38 fe 41 61 38 c7 ea 83 38 38 8e f9 b5
       5.034797e-05 5.370564e-05 6.2902975e-05 -1.8593337e-06
000080 45 79 fb b7 8f 4f ca 37 c0 1d ce b7 52 e1 28 b8
       -2.9978002e-05 2.4117324e-05 -2.4570967e-05 -4.0264167e-05
000090 37 29 76 b8 ee 86 09 38 52 36 89 38 3b 3d e1 b7
       -5.8689355e-05 3.278901e-05 6.542787e-05 -2.6850603e-05
0000a0 22 eb 25 38 22 d4 42 38 f2 81 56 37 c6 de c0 b8
       3.955805e-05 4.645077e-05 1.2785649e-05 -9.196768e-05
0000b0 04 63 47 38 cb 55 89 38 c2 fb 95 38 3b 5d 83 b8
       4.7537513e-05 6.548649e-05 7.151767e-05 -6.263932e-05
0000c0 9e a4 2d 36 89 d9 61 37 3c 90 87 37 14 09 c0 b7
       2.5874829e-06 1.3461694e-05 1.6160418e-05 -2.2892411e-05
0000d0 59 a8 37 38 fe ea 00 38 6a f4 2f 38 24 e2 1d b9
       4.3787386e-05 3.073643e-05 4.195088e-05 -0.0001505693
0000e0 ce 58 30 b7 7e 1c 13 39 62 7d f5 37 55 43 7d 38
       -1.0511094e-05 0.00014029627 2.9264662e-05 6.038261e-05
0000f0 14 74 74 38 34 af ff 37 ee e7 55 b8 07 c9 82 37
       5.828224e-05 3.0479954e-05 -5.099916e-05 1.5590818e-05
000100 96 d3 e5 38 c2 cb 31 37 b5 8f 23 b9 a1 4d 7e 38
       0.00010958982 1.0597463e-05 -0.00015598426 6.0630617e-05
000110 74 6c 60 b8 84 b6 07 39 5c 54 fd 37 b2 f0 6b 38
       -5.3506767e-05 0.00012942596 3.0199233e-05 5.625253e-05
000120 9e 1a c9 b7 06 70 a0 37 b8 44 b6 b6 3e 8e 96 b8
       -2.3973462e-05 1.9125651e-05 -5.4320226e-06 -7.179052e-05
000130 70 e1 44 36 1b f1 01 b8 13 ed da 38 4a dc e2 37
       2.9337498e-06 -3.0980544e-05 0.000104392086 2.704388e-05
000140 b4 04 c9 b7 d6 43 8a b8 f8 01 04 38 ba 77 12 b7
       -2.3963257e-05 -6.592988e-05 3.1473086e-05 -8.730154e-06
000150 9e b7 1b b8 e4 07 a8 38 e5 d4 70 b8 62 9e e3 38
       -3.7125887e-05 8.012334e-05 -5.7418732e-05 0.000108537046
000160 3e 3e 34 b7 58 15 87 37 40 2b 68 35 59 a1 04 b9
       -1.0743328e-05 1.6103193e-05 8.648967e-07 -0.00012648608
000170 81 28 0f b9 42 c3 27 38 10 9d f6 b6 31 82 2a 38
       -0.00013652632 3.999775e-05 -7.349656e-06 4.065241e-05
000180 5e 95 61 37 d4 f8 3d b6 be 39 bf 38 70 57 c1 38
       1.3445822e-05 -2.8308032e-06 9.118345e-05 9.219244e-05
000190 11 1a 82 38 a0 11 f1 b5 78 df 56 38 f8 83 40 38
       6.203738e-05 -1.7961029e-06 5.1229697e-05 4.5899273e-05
0001a0 73 86 8f 38 42 b5 cd b7 c7 ca 0a b8 18 1f ef 35
       6.8438145e-05 -2.452231e-05 -3.3090615e-05 1.7815937e-06
0001b0 1a 14 3e 39 48 46 08 38 b0 34 cf 38 32 6f e1 37
       0.000181273 3.249038e-05 9.880343e-05 2.687387e-05
0001c0 78 67 4b 38 e8 45 54 b8 c0 f7 65 38 6a e3 3e 38
       4.8495334e-05 -5.0609844e-05 5.482859e-05 4.5511326e-05
0001d0 b4 f7 0d b8 b3 3c 6e b8 6e 3e 62 b7 0d e2 ca 36
       -3.384771e-05 -5.6800152e-05 -1.3485185e-05 6.046385e-06
0001e0 f7 df 6b b7 73 e8 85 b8 c8 81 8d b8 f2 f9 8e 38
       -1.4059237e-05 -6.385231e-05 -6.7475776e-05 6.8176436e-05
0001f0 30 38 c5 b6 e0 e7 5d 37 b3 3a c1 36 89 28 b5 37
       -5.8775986e-06 1.3226614e-05 5.7586817e-06 2.1595757e-05
000200 b4 0e fb 37 11 ec 26 38 4d 74 8b 38 6f 5b 6c 36
       2.9928378e-05 3.9797338e-05 6.649699e-05 3.5219962e-06
000210 76 9d ae 38 19 5f 49 38 3c f3 3a 37 0c 20 17 39
       8.326296e-05 4.80107e-05 1.1143096e-05 0.0001441242
000220 35 95 47 38 f1 b6 90 37 40 b9 d4 b6 be 21 45 37
       4.7584257e-05 1.7251326e-05 -6.3396583e-06 1.1749971e-05
000230 63 7b 04 38 c6 5e a0 38 1a fe a8 37 5f b8 0e 39
       3.1586165e-05 7.6470475e-05 2.0145486e-05 0.00013610859
000240 e1 59 c7 38 30 ba 74 b6 4e a6 5b 38 10 46 af 35
       9.505801e-05 -3.6467209e-06 5.2368552e-05 1.3058907e-06
000250 3d 65 65 38 0b d9 d8 38 a6 46 11 39 10 27 fa b7
       5.469214e-05 0.0001034011 0.00013854596 -2.9820512e-05
000260 f0 b3 9a b8 f8 47 49 b8 a8 0d 94 b8 1b d0 58 b8
       -7.376808e-05 -4.798916e-05 -7.0597336e-05 -5.1692226e-05
000270 f4 30 dc 38 f6 7c 59 38 05 30 b4 b7 a6 83 94 38
       0.00010499536 5.185321e-05 -2.1480033e-05 7.0817114e-05
000280 f1 67 83 b8 5e 1e cb b7 a8 cd b3 38 de fd ef b7
       -6.2659274e-05 -2.4213627e-05 8.5736916e-05 -2.8609236e-05
000290 be dd 23 38 27 48 46 38 5e 8d 60 37 df 51 11 38
       3.9068742e-05 4.7274076e-05 1.3384355e-05 3.4646942e-05
0002a0 06 b1 f5 37 c0 1c 86 38 f9 67 0a 37 89 80 cd 38
       2.9288709e-05 6.394973e-05 8.249649e-06 9.799103e-05
0002b0 b4 73 62 38 1e fe 16 38 78 9a 9b b6 d0 3a 87 b5
       5.3990356e-05 3.5999452e-05 -4.6373425e-06 -1.00754e-06
0002c0 32 75 37 38 df 7d 6e 38 2f ac 68 37 80 48 ba 38
       4.3739747e-05 5.686085e-05 1.3868367e-05 8.882675e-05
0002d0 c5 f6 38 38 9e 37 b9 37 89 7e 12 b8 9c 50 ed 35
       4.409884e-05 2.2079617e-05 -3.4926958e-05 1.7681336e-06
0002e0 1d 82 9d 37 31 5c a0 b9 02 05 bc b8 9e ea f9 37
       1.8776447e-05 -0.00030586266 -8.965471e-05 2.9792365e-05
0002f0 58 8d 76 b6 f6 2b 45 38 22 42 b5 36 06 16 13 37
       -3.673913e-06 4.7009402e-05 5.401919e-06 8.7670105e-06
000300 04 e1 24 b9 61 bc 81 38 0f 75 be 38 a3 52 de 37
       -0.00015724084 6.186288e-05 9.08171e-05 2.6502943e-05
000310 a4 e8 b1 b8 93 26 a9 38 60 96 e7 37 c2 3a fe 38
       -8.4833504e-05 8.065733e-05 2.760737e-05 0.00012122608
000320 31 fe ae 38 5a 3e c2 38 67 01 9e b8 22 49 09 38
       8.3443134e-05 9.262255e-05 -7.534288e-05 3.2731456e-05
000330 ce 7e 94 b8 14 e2 b1 b7 76 39 49 37 58 af a7 b6
       -7.080809e-05 -2.120532e-05 1.1993912e-05 -4.9974005e-06
000340 ca 44 c3 37 28 19 f8 36 1a 67 a5 b8 0c 96 5e 38
       2.3277844e-05 7.3939045e-06 -7.887017e-05 5.3068667e-05
000350 72 63 09 b8 86 79 3c b8 4b 2f 48 38 6b 13 32 38
       -3.275596e-05 -4.493587e-05 4.772776e-05 4.245659e-05
000360 1c 16 bc 37 f6 53 77 b8 e4 a0 1d 38 fd aa 62 38
       2.2421642e-05 -5.8967584e-05 3.7581558e-05 5.4041844e-05
000370 56 06 89 b7 b9 55 0d b8 97 5b 6c 37 16 05 60 b8
       -1.6334623e-05 -3.3696855e-05 1.4088021e-05 -5.34105e-05
000380 15 34 6a 39 2a c2 86 b8 81 8a 82 b8 3c 6d 98 b8
       0.00022335381 -6.425784e-05 -6.2246814e-05 -7.268271e-05
000390 7e 36 b2 37 80 d1 0b 35 9c 3b 4b b7 40 98 12 36
       2.1244628e-05 5.20864e-07 -1.2113622e-05 2.1844317e-06
0003a0 91 39 03 38 a0 7a 28 b7 1c 82 24 39 76 67 b7 b6
       3.1286447e-05 -1.0042131e-05 0.00015688728 -5.4658694e-06
0003b0 b6 63 f9 b7 a0 ac fd 37 b6 7e d4 38 8c 82 04 39
       -2.9729545e-05 3.0240335e-05 0.000101325495 0.00012637133
0003c0 35 de 22 b8 49 95 96 b7 f1 62 30 38 38 66 27 38
       -3.8830756e-05 -1.795091e-05 4.2053816e-05 3.99111e-05
0003d0 47 c2 7e 37 8b 33 39 39 4f f6 ce b8 5a 56 b5 38
       1.51848135e-05 0.00017662176 -9.868724e-05 8.646837e-05
0003e0 7a 43 d0 37 68 0c 19 b6 a1 ec 97 38 cc e9 85 b8
       2.4826953e-05 -2.2805998e-06 7.244317e-05 -6.385482e-05
0003f0 9c 1d 18 39 84 84 c0 b8 56 dc 95 b8 48 83 97 38
       0.0001450688 -9.1799564e-05 -7.1459144e-05 7.224694e-05
