MLagents_test1/results/CarAgent_rl+im_1/CarAgent/CarAgent-2999713.pt (torch, 374393 bytes, 56 tensors)

network_body.observation_encoder.processors.0.normalizer.running_mean f4 [35]
000000 00 00 00 00 d4 94 bb 3e fd c9 b9 3d 2f fc 0a 3f
       0.0 0.36636984 0.09071729 0.5429105
000010 51 f5 2b 3f 00 00 00 00 88 f2 06 3f 1f cf 3d 3e
       0.671712 0.0 0.52713823 0.18536042
000020 52 33 93 3e b4 4b 0f 3f 00 00 00 00 75 77 ff 3e
       0.28750092 0.5597489 0.0 0.49895826
000030 62 b6 3e 3e 3a 2d a1 3e 1c 96 14 3f 00 00 00 00
       0.18624261 0.31479818 0.5804155 0.0
000040 7c 7a 28 3f 61 2c 73 3e 5f d3 d5 3d f8 bf d5 3e
       0.65811896 0.23747398 0.104407065 0.41748023
000050 00 00 00 00 f8 67 2b 3f 30 d1 7a 3e 50 1d af 3d
       0.0 0.6695552 0.24493861 0.08550513
000060 7c b6 d5 3e 00 00 00 00 43 8c 29 3f e8 61 75 3e
       0.41740787 0.0 0.6622965 0.2396313
000070 3c da c8 3d 3d c6 c5 3e 00 00 00 00 6d d8 35 3f
       0.0980725 0.38627806 0.0 0.71033365
000080 54 f1 80 3e 34 ed 1a 3d 1b 33 b4 3e
       0.2518412 0.03782387 0.3519524

network_body.observation_encoder.processors.0.normalizer.running_variance f4 [35]
000000 00 00 80 3f dc 02 2a 49 11 a4 71 48 65 bd 35 49
       1.0 696365.75 247440.27 744406.3
000010 9d be 02 49 00 00 80 3f 88 8c 36 49 75 2c dd 48
       535529.8 1.0 747720.5 452963.66
000020 a9 04 16 49 3e 6f dd 48 00 00 80 3f 61 16 37 49
       614474.56 453497.94 1.0 749926.06
000030 68 fc dd 48 08 f8 1d 49 9f 65 e5 48 00 00 80 3f
       454627.25 647040.5 469804.97 1.0
000040 17 c7 24 49 4f 9d 04 49 98 f5 88 48 a6 a0 8c 48
       674929.44 543188.94 280492.75 288005.2
000050 00 00 80 3f b0 08 22 49 a6 71 07 49 2a 10 65 48
       1.0 663691.0 554778.4 234560.66
000060 2a be 8e 48 00 00 80 3f 45 cc 23 49 dc 70 05 49
       292337.3 1.0 670916.3 546573.75
000070 3d 8f 81 48 6b 6d 74 48 00 00 80 3f 40 b0 16 49
       265337.9 250293.67 1.0 617220.0
000080 f6 fc 09 49 1f 39 d5 47 64 25 42 48
       565199.4 109170.24 198805.56

network_body.observation_encoder.processors.1.normalizer.running_mean f4 [4]
000000 11 20 38 3f 59 ce 29 42 2c 7b 59 3f 5c 4d 0b 44
       0.7192393 42.45151 0.8495357 557.20874

network_body.observation_encoder.processors.1.normalizer.running_variance f4 [4]
000000 a8 c1 2a 49 b5 f8 d9 4e ad 14 9d 48 b1 e6 bb 54
       699418.5 1.8284776e+09 321701.4 6.456234e+12

network_body.processors.0.normalizer.running_mean f4 [35]
000000 00 00 00 00 d4 94 bb 3e fd c9 b9 3d 2f fc 0a 3f
       0.0 0.36636984 0.09071729 0.5429105
000010 51 f5 2b 3f 00 00 00 00 88 f2 06 3f 1f cf 3d 3e
       0.671712 0.0 0.52713823 0.18536042
000020 52 33 93 3e b4 4b 0f 3f 00 00 00 00 75 77 ff 3e
       0.28750092 0.5597489 0.0 0.49895826
000030 62 b6 3e 3e 3a 2d a1 3e 1c 96 14 3f 00 00 00 00
       0.18624261 0.31479818 0.5804155 0.0
000040 7c 7a 28 3f 61 2c 73 3e 5f d3 d5 3d f8 bf d5 3e
       0.65811896 0.23747398 0.104407065 0.41748023
000050 00 00 00 00 f8 67 2b 3f 30 d1 7a 3e 50 1d af 3d
       0.0 0.6695552 0.24493861 0.08550513
000060 7c b6 d5 3e 00 00 00 00 43 8c 29 3f e8 61 75 3e
       0.41740787 0.0 0.6622965 0.2396313
000070 3c da c8 3d 3d c6 c5 3e 00 00 00 00 6d d8 35 3f
       0.0980725 0.38627806 0.0 0.71033365
000080 54 f1 80 3e 34 ed 1a 3d 1b 33 b4 3e
       0.2518412 0.03782387 0.3519524

network_body.processors.0.normalizer.running_variance f4 [35]
000000 00 00 80 3f dc 02 2a 49 11 a4 71 48 65 bd 35 49
       1.0 696365.75 247440.27 744406.3
000010 9d be 02 49 00 00 80 3f 88 8c 36 49 75 2c dd 48
       535529.8 1.0 747720.5 452963.66
000020 a9 04 16 49 3e 6f dd 48 00 00 80 3f 61 16 37 49
       614474.56 453497.94 1.0 749926.06
000030 68 fc dd 48 08 f8 1d 49 9f 65 e5 48 00 00 80 3f
       454627.25 647040.5 469804.97 1.0
000040 17 c7 24 49 4f 9d 04 49 98 f5 88 48 a6 a0 8c 48
       674929.44 543188.94 280492.75 288005.2
000050 00 00 80 3f b0 08 22 49 a6 71 07 49 2a 10 65 48
       1.0 663691.0 554778.4 234560.66
000060 2a be 8e 48 00 00 80 3f 45 cc 23 49 dc 70 05 49
       292337.3 1.0 670916.3 546573.75
000070 3d 8f 81 48 6b 6d 74 48 00 00 80 3f 40 b0 16 49
       265337.9 250293.67 1.0 617220.0
000080 f6 fc 09 49 1f 39 d5 47 64 25 42 48
       565199.4 109170.24 198805.56

network_body.processors.1.normalizer.running_mean f4 [4]
000000 11 20 38 3f 59 ce 29 42 2c 7b 59 3f 5c 4d 0b 44
       0.7192393 42.45151 0.8495357 557.20874

network_body.processors.1.normalizer.running_variance f4 [4]
000000 a8 c1 2a 49 b5 f8 d9 4e ad 14 9d 48 b1 e6 bb 54
       699418.5 1.8284776e+09 321701.4 6.456234e+12

network_body._body_endoder.seq_layers.0.weight f4 [256, 39]
000000 06 07 27 3e 3c 32 08 be 76 59 28 bc b9 3a 05 3c
       0.16311273 -0.13300413 -0.010275235 0.008131676
000010 ad 7b 93 bd 17 20 00 3e 02 57 02 3e 06 a2 a8 3b
       -0.07201324 0.12512241 0.12728503 0.005146268
000020 36 1a ac 3e 4a e7 ac 3c 51 d1 8f 3e b4 75 3d 3e
       0.33613747 0.021106381 0.28089383 0.18501931
000030 9f 70 01 be 6c ab 01 be 70 5f 2a 3c b3 6c 24 be
       -0.12640618 -0.12663049 0.010398731 -0.1605709
000040 1f 80 09 3d 04 f8 98 3e d8 63 a3 be 3d ae 71 bd
       0.03356945 0.2987672 -0.31912112 -0.059004057
000050 f8 cd c5 3d 5d 7c 5e 3e a6 53 9f bd f8 ba f9 3d
       0.09658426 0.21727128 -0.077796265 0.121938646
000060 17 9b 19 be 8a b0 a3 3d e3 7f f0 bc 85 db e5 3d
       -0.15000568 0.079926565 -0.029357856 0.11223511
000070 3f e2 8b 3e 3e 53 4e bd 2e a5 bc bc f8 55 a8 3d
       0.2732105 -0.050372355 -0.023027983 0.08219522
000080 5f e1 3d 3c 15 a3 99 3e 00 bb 59 3e 98 7f 1f be
       0.011589377 0.30007234 0.21262741 -0.15576017
000090 89 b0 34 bc fc bb 88 bb 86 1d 64 bc 8d 76 a3 3d
       -0.011028417 -0.0041728 -0.013923055 0.07981596
0000a0 92 58 3d 3e e6 43 a2 be 41 02 aa be 6c 8a 73 3e
       0.18490818 -0.31692427 -0.33204845 0.23783273
0000b0 64 36 11 be 18 8c 71 be e9 e6 5a 3d 0c 74 95 3d
       -0.14180905 -0.23588598 0.05344287 0.07297525
0000c0 43 43 02 3e 5e 0e 10 bd ab a3 f1 3d a0 33 ff 3b
       0.12720971 -0.03516995 0.11798795 0.0077881366
0000d0 db c1 d6 be d4 a6 74 be 8d f4 e9 3c e4 95 e3 3d
       -0.41944775 -0.23891765 0.028558994 0.11112574
0000e0 35 6c 4d be 0f bd 1f bc 1b 73 15 3c ed 46 96 3d
       -0.20060809 -0.009749665 0.009121682 0.07337747
0000f0 cb 50 7b bd 2f 29 e2 bc 51 86 cb bd 1d eb 39 3e
       -0.061356347 -0.027607528 -0.09937728 0.18156095
000100 39 b4 46 3e bd b9 c8 be 32 a4 73 3e 12 cd fa 3d
       0.19404687 -0.39204207 0.23793104 0.12246145
000110 96 28 12 3e 5f cc 1a 3c b8 80 92 3c f4 a0 08 3c
       0.14273295 0.00944814 0.017883644 0.008339155
000120 2b 78 0e 3e e5 e2 bf 3d f4 3f 2b 3e 84 50 88 be
       0.13913028 0.093694486 0.16723615 -0.2662393
000130 7d 43 80 3e 50 86 f9 3d 16 9c 94 3d 83 d3 2f 3e
       0.2505149 0.12183821 0.072563335 0.17170529
000140 58 46 d0 be 92 e3 37 3e 6f 20 84 bd 1f d3 22 be
       -0.40678668 0.17957905 -0.06451499 -0.15900849
000150 ef 1a 04 3e 74 6b a2 bd 83 c5 b6 3e c9 54 7c 3e
       0.129009 -0.07930651 0.35697564 0.24641718
000160 42 5d 40 bd b6 5b 30 be 24 7f 8c be 45 a6 17 3e
       -0.046963938 -0.17222485 -0.2744075 0.1480952
000170 7b 5c 09 3c 20 a3 e4 3d e2 b8 9e bd e1 b7 80 3e
       0.0083838655 0.11163926 -0.07750107 0.25140288
000180 49 19 14 3e e3 59 aa bd 64 52 8e 3e 4f d4 25 be
       0.1446277 -0.08317926 0.27797234 -0.1619427
000190 34 2d be 3a e9 3b c0 3c 28 80 6c 3c 4b 96 a2 bd
       0.0014509321 0.023466067 0.014434852 -0.07938822
0001a0 81 3d 0d 3e c5 c0 41 be 31 a9 88 3d 7e 42 ec bd
       0.13792993 -0.18921192 0.06672896 -0.1153612
0001b0 33 22 18 3e 93 a6 c3 3e 80 65 39 be a3 40 8b bb
       0.14856796 0.38213024 -0.18105125 -0.0042496487
0001c0 4c 46 3f 3e 81 6a 7b be e5 88 de 3d 8d 6d 1a 3c
       0.1867916 -0.24552347 0.10865954 0.009425533
0001d0 2b a8 62 3e fc bd 4e 3d 20 d2 5a 3e 82 51 43 3e
       0.22134463 0.050474152 0.21369219 0.19074062
0001e0 ed a2 6f be 8b ff 2b be dd 61 cf bd 6b 35 42 be
       -0.23401995 -0.167967 -0.10126088 -0.1896569
0001f0 1b cc f9 bd cd e4 fc bd c6 e9 b2 3d 2c bd e1 3d
       -0.12197133 -0.12348328 0.08735995 0.1102241
000200 93 72 b0 3d c8 da 0e 3e 67 a6 47 3e e7 33 a9 be
       0.08615603 0.13950646 0.19497071 -0.3304741
000210 92 4f 76 3e e3 81 a7 3b f1 81 f4 bd 37 79 62 3c
       0.24053791 0.0051119193 -0.11938847 0.013822845
000220 9d a0 de be b3 94 91 3e 2e 43 13 3e cc cf aa 3d
       -0.43481913 0.2843376 0.14381096 0.08340415
000230 c5 0b b7 bd d9 81 8c bd 07 68 6c be 76 2b 4c 3e
       -0.08937792 -0.06860704 -0.23086558 0.19938454
000240 1a a1 f9 3d 1b e6 07 bd 8c 52 06 be 8d f3 89 3e
       0.12188931 -0.03317843 -0.13117427 0.26943627
000250 5d e1 1f bd 61 fa da bb ab a1 d1 bc 04 53 48 be
       -0.039033283 -0.0066826795 -0.025589785 -0.19562918
000260 3e 90 2c be 81 50 b2 3d 28 99 29 3d c6 72 84 3d
       -0.16851899 0.08706761 0.041405827 0.06467204
000270 f3 b7 b1 bd f2 08 23 3d 91 61 e4 bc c6 70 85 3b
       -0.08677664 0.039803453 -0.027878555 0.0040722815
000280 e8 6f 67 3e b1 e4 52 3c 84 e0 c3 3e f7 b9 23 3e
       0.22601283 0.012871907 0.3825723 0.15988909
000290 62 28 35 3e 59 96 9c be 7b 0b 18 be a9 9b c0 bd
       0.17691186 -0.30583456 -0.1484813 -0.0940469
0002a0 54 dc 08 3e e2 f1 5c be 60 55 11 bd 54 8a 89 3d
       0.13365299 -0.21576646 -0.03548181 0.06715837
0002b0 68 a1 4c 3e ca a1 9a 3d 87 e5 9e be 05 6e 8b 3d
       0.19983447 0.0755039 -0.3103449 0.06808094
0002c0 7e d0 96 3d ba 45 2f 3e 5b 3a 0e 3d b4 76 27 bd
       0.073639855 0.17116442 0.03472362 -0.04088469
0002d0 20 ec f2 bd 4a 00 2e 3e f3 4d 8b 3c da 8e 6f 3e
       -0.118614435 0.16992298 0.017004943 0.23394337
0002e0 01 a1 33 3e 44 01 cf 3d 5d ca 2b be 69 ee a7 bd
       0.17541887 0.10107663 -0.16776414 -0.0819977
0002f0 9d e8 06 be c8 18 7c 3d 8d b4 b5 3c 81 68 94 bd
       -0.13174672 0.06154707 0.02218082 -0.07246495
000300 08 f1 43 3e c9 2f 95 be 44 ae 91 3d 71 87 4c be
       0.19134915 -0.2913802 0.07113317 -0.19973542
000310 e6 be eb 3d 49 e8 8f bd b6 e3 84 be eb 1e a0 bc
       0.1151102 -0.07026727 -0.2595498 -0.019545993
000320 80 d9 45 3d ff 09 e7 3d bb 92 8c be 3d 53 1f 3e
       0.048303127 0.112812035 -0.27455696 0.15559097
000330 ab a0 ae bd 2f 68 43 be 4a 91 94 3e ed ab 1f be
       -0.08526739 -0.19082712 0.29017097 -0.15592928
000340 5c 52 4b bd f0 c9 2d be 02 f5 39 be 6e 89 05 be
       -0.04963909 -0.16971564 -0.1815987 -0.13040707
000350 64 76 4b bc c1 8b 95 bd 84 38 3b 3e b0 ca 9a 3c
       -0.012418363 -0.073020466 0.18283278 0.018895477
000360 e1 4e ef 3b 31 fc fc 3d 69 90 0e 3d be e7 30 3d
       0.0073031043 0.12352789 0.03480569 0.043189757
000370 f9 c8 29 be 29 d0 b5 3d d3 6d a0 bd bc 16 f7 3d
       -0.16580571 0.08877594 -0.07833447 0.12064883
000380 93 f6 2e 3e 6a 0e b3 bd 93 99 2d 3e e9 3d 32 bd
       0.17086248 -0.08742984 0.16953115 -0.043516073
000390 d7 1e d4 3c 82 0a 2c 3e 16 11 a0 be 40 a1 0d bd
       0.025893612 0.16800883 -0.31263036 -0.034577608
0003a0 15 5e b9 bd 2b db c0 bd 83 a2 0f 3d 5e de 40 bd
       -0.09051148 -0.09416803 0.035067093 -0.047087066
0003b0 af 9c bf be fd 4b 8a be e6 c5 67 3d d9 ad a5 3e
       -0.37424228 -0.270111 0.056585215 0.32359198
0003c0 32 b6 86 bd 33 a2 8a 3e 52 2f ac 3d 10 49 cb bd
       -0.0657772 0.27076873 0.08407463 -0.09926045
0003d0 f1 1a b9 bd 5f 34 c8 bd b1 b4 69 be 0a 4e 1d 3e
       -0.09038342 -0.09775614 -0.22822835 0.15361801
0003e0 06 ad 1b 3d 5e 30 67 bd 37 f6 15 3e 23 3d 25 3e
       0.038006805 -0.05644261 0.14644705 0.16136603
0003f0 b7 40 aa bd 1b b7 56 be 85 a9 08 be e8 46 29 bc
       -0.083131246 -0.20968287 -0.13345917 -0.010331847

network_body._body_endoder.seq_layers.0.bias f4 [256]
000000 bd db 45 3b 60 be 2c 3d 3e 77 44 3d da e2 2c bc
       0.0030190789 0.042173743 0.04796528 -0.0105521325
000010 b7 7f 1b bd 3e 35 6f bb cb c9 a2 3c 22 73 a7 3d
       -0.037963595 -0.003650024 0.019871613 0.08176257
000020 1d 61 8a bd a1 d0 81 3b c1 9f 15 bd 1e 8f 02 bd
       -0.06756804 0.003961638 -0.036529306 -0.03187477
000030 5c 3d 72 bc d3 07 ad 3c 1d 86 c6 3c e4 f7 9a 3c
       -0.014785137 0.021121895 0.024233872 0.018917032
000040 be ed b7 3c 07 77 d4 bc c0 3f 04 bd a5 7e 07 3b
       0.022452231 -0.025935663 -0.03228736 0.0020674851
000050 62 3a 31 bd 18 d7 2c 3d 30 2c 66 3c 80 75 22 bd
       -0.04326857 0.042197317 0.014048621 -0.039662838
000060 da 65 f0 3b 7b 8b 89 bc aa 14 f8 3c b2 9d b3 3c
       0.0073363604 -0.016790142 0.03028329 0.02192578
000070 f1 3c 03 bd 04 fc 79 3d f8 8e 9a bb 93 35 66 3d
       -0.03204054 0.061031356 -0.0047167502 0.056203436
000080 8c 8d 6b bc 11 5b c1 3c b7 fa 75 bd 63 61 33 bc
       -0.014377009 0.023602994 -0.060053553 -0.010948512
000090 be c4 d9 bc 14 3c 34 3c 44 18 7d 3d 19 a6 e7 bb
       -0.026583072 0.011000652 0.06179072 -0.007069361
0000a0 87 d6 fb 3c 36 9c 8a 3c 5e 68 44 3a 1a a0 33 bd
       0.030741943 0.01692019 0.00074923586 -0.043853857
0000b0 31 73 92 3c 75 a8 50 3d d6 cb 22 3d 28 b2 77 bc
       0.017877193 0.050941903 0.039745174 -0.015118159
0000c0 86 da ee 3a 8c 62 f3 3c 8d 90 3f bc 99 c3 76 b9
       0.0018223084 0.029710077 -0.011692178 -0.00023533254
0000d0 74 67 7d bc 8c d7 0a 3d 02 a9 8f bd 93 ae 8e bc
       -0.01546656 0.033896968 -0.070146576 -0.017417228
0000e0 5a 79 8d bc bd 5f dc 3b 95 66 f1 b8 dd fe 27 3d
       -0.017269779 0.00672528 -0.00011510883 0.04101454
0000f0 68 54 41 bd 34 3d 33 3c 99 6c 01 bd 20 03 56 3d
       -0.047199637 0.010939885 -0.031597707 0.052249074
000100 1a 01 45 bb 6b 59 c6 3c 17 e0 b0 bc 77 ce 6a bd
       -0.003006047 0.02421256 -0.02159123 -0.057325806
000110 b9 d3 fa bc ff d2 36 3d 6e e2 94 bc dc 84 6a 3d
       -0.030618535 0.044634815 -0.018174376 0.05725561
000120 d2 4a 82 bc 42 bf 01 bd 01 f1 7a 3b a7 05 e3 3b
       -0.015904818 -0.03167654 0.0038290622 0.006928164
000130 e6 54 51 bc 7f 70 99 bc 15 80 da 3c db 9d 01 bd
       -0.012776589 -0.0187304 0.026672402 -0.031644683
000140 4d b0 de 3c 22 2e 05 3d 64 85 3d 3d 7a f0 de 3c
       0.027183676 0.0325147 0.04626979 0.027214278
000150 67 c3 48 3d f6 46 4f 3d 5a 1e 22 bd 94 78 61 3d
       0.049014475 0.050604783 -0.039579727 0.055046633
000160 4e a2 72 bb 54 67 c1 bc 44 f5 60 3c ba c4 d7 bc
       -0.003702301 -0.023608841 0.013730351 -0.026338924
000170 6a 8f 8f 3c a8 f1 e2 3b 3f 50 3b bc 83 38 2e bc
       0.01752444 0.0069257803 -0.011432706 -0.010633591
000180 dd 8b 5e 3d b9 0b 32 3c 4a 72 12 bd 43 ed 7f 3d
       0.054332603 0.010867053 -0.035753526 0.06248213
000190 38 0a 15 3b bf eb 6c 3c 23 bd 0a 3d 11 ef 9a bc
       0.0022741687 0.014460503 0.03387178 -0.018912824
0001a0 43 d9 ae bc b9 ab 7b 3d a9 e7 ce 3c 14 e5 1e bd
       -0.021343833 0.061443064 0.025256949 -0.038792685
0001b0 d3 c9 7b 3d d3 1e 0f bc 97 cc 5e 3d f8 f1 5b bd
       0.06147177 -0.008735376 0.05439433 -0.053697556
0001c0 b7 6e 2c 3d a3 61 5e 3b 5c c3 1d 3c 95 d8 d2 b8
       0.042097773 0.0033932708 0.009629097 -0.00010053922
0001d0 ba f7 10 3d af 24 c2 3c 64 dd 12 3d 6a 1f aa bc
       0.0353925 0.023699133 0.035855666 -0.020766933
0001e0 a2 21 19 bd e7 07 98 bc 31 07 8c 3b cf 60 1b 3d
       -0.03738559 -0.018558456 0.004273318 0.03793412
0001f0 f5 47 75 bd 95 ce db bc 16 3e ec bc d5 b3 bc 3c
       -0.059883077 -0.026831904 -0.028838199 0.02303497
000200 2a 5c 88 3a fd ed b6 38 09 6a 8a 3c f4 44 5e bd
       0.0010403444 8.722765e-05 0.016896265 -0.054264978
000210 40 08 24 bd ef e2 3d 3c 11 95 b4 3b b3 f7 59 3d
       -0.04004693 0.01158975 0.005510934 0.05321474
000220 df 61 89 3c 9b d2 92 3d 8e a5 82 bc 43 76 fb 3c
       0.016770301 0.07169076 -0.015948083 0.03069604
000230 b8 a6 6f bc d1 bd 87 bc c9 3b da 3c 95 be 2e 3d
       -0.014627151 -0.016570004 0.026639836 0.042662222
000240 4d 49 07 3d e0 ff 02 3c f4 71 c5 3c 29 9f 94 b9
       0.03302889 0.007995576 0.024102189 -0.00028347343
000250 0f 8a d7 3c 06 27 82 3d 2a 65 3e 3d 2f cc 87 3c
       0.026310949 0.063550994 0.046483196 0.016576855
000260 8b c3 5a 3d d9 d0 22 3d 0c 60 8c bc 8f 71 c9 bd
       0.05340914 0.039749954 -0.017135642 -0.09836113
000270 fc 3c 58 3d b7 f5 bb bc 6c 7d 21 bd 7f 8f 81 3c
       0.052792534 -0.022944314 -0.039426252 0.015815495
000280 84 5e 53 3c 41 df 2f 3d 6e 1f b0 bc ec 99 ff 3c
       0.012900952 0.04293752 -0.021499362 0.031201325
000290 0c 3b cd 3c a3 b7 f8 3c 34 b4 04 3d b9 f8 2f 3d
       0.02505257 0.030361002 0.032398418 0.04296181
0002a0 ca f5 7b 3d 83 2d 9b bc 89 cd 84 bc ba 37 8d 3d
       0.0615137 -0.0189426 -0.016211288 0.068953946
0002b0 da 5d 3c 3d 28 9b 21 bd d5 70 3b bc 64 a6 0a 3d
       0.04598794 -0.03945461 -0.0114404755 0.03385009
0002c0 72 17 2c 3d 65 f0 91 3c 60 60 bd 3b 36 ee 4f 3d
       0.042014547 0.017814824 0.005779311 0.050764285
0002d0 34 3d cf 3b b9 71 8c bd 98 89 97 bc 0f e9 17 bd
       0.0063244347 -0.068576284 -0.018498227 -0.037087496
0002e0 f9 b4 ca 3c fe fa 9f bc 53 67 45 3d 23 45 b7 ba
       0.024744498 -0.019528862 0.04819424 -0.0013982396
0002f0 77 5f 33 3d 0e b4 8a bc 47 62 b5 bc 4c 73 46 bd
       0.043792214 -0.01693156 -0.022141589 -0.0484498
000300 28 2e 3b bd f9 d5 d3 bc da cc be bc d4 f4 5c bc
       -0.045698315 -0.025858866 -0.02329104 -0.013486106
000310 46 51 20 3d 79 0a 8a 3c 3f 60 fd 3b d7 80 43 3d
       0.03914001 0.016850697 0.0077324207 0.047730293
000320 65 f4 78 3d 6e 0e 3f bc 02 80 56 3c b4 8c 89 3c
       0.060779948 -0.011661155 0.013092043 0.016790725
000330 10 b3 19 bd 12 99 df bb c9 cd db 3c 57 1e 94 3c
       -0.037524283 -0.0068236673 0.026831524 0.018080873
000340 72 f9 98 3c 57 54 e7 3b 6d 2f 3f bc 0d cb 32 3d
       0.018673632 0.0070596146 -0.011669022 0.043650676
000350 9c c3 62 3d 48 43 3e bc 24 67 7c 3c 03 5f cb 3c
       0.05536233 -0.011612721 0.01540545 0.024825579
000360 b2 70 9d 3a 4a 66 3d bd e0 4f 30 3c dd b9 ae 3d
       0.0012011735 -0.04624013 0.010761231 0.08531544
000370 1a f5 c7 bc be 89 a0 ba 33 09 73 3b e8 b9 21 bb
       -0.024408866 -0.0012248082 0.003708434 -0.002467746
000380 72 3e 21 3d d0 eb cd bb 33 75 81 bb fe 0b b0 3c
       0.039366193 -0.0062842146 -0.003950739 0.021490093
000390 08 a1 54 3d 7a d3 55 bc a2 e3 9f bc 65 d1 5f 3c
       0.051911384 -0.013050908 -0.019517723 0.013660763
0003a0 fd 55 96 3d 2f 21 9a 39 10 f6 0a 3c ed 12 8a bc
       0.0734062 0.00029397893 0.008481517 -0.016854728
0003b0 f0 31 86 bd 9c dd 5f 3d 56 86 17 3d 66 3e 4a 3d
       -0.065524936 0.054654703 0.036993347 0.049375914
0003c0 af 6c ef 3c 80 17 ee ba b7 2b 3c 3c 80 41 02 3d
       0.029226629 -0.0018164963 0.011485032 0.031800747
0003d0 cb b7 a2 3c e7 0d 6c 3b 6e 93 d3 bd 7c e0 eb bb
       0.01986303 0.0036019029 -0.10330854 -0.0071983915
0003e0 1d db 29 bd f6 24 4d bd ff 66 ad 3c a4 81 71 3d
       -0.04146873 -0.050084077 0.021167276 0.058961526
0003f0 dc be 21 3c 2b ee 30 3d c8 ce c3 bc 27 f4 aa bc
       0.009872165 0.043195885 -0.023902312 -0.020868374

action_model._continuous_distribution.log_sigma f4 [1, 2]
000000 96 ad 83 be f4 5c 02 bf
       -0.25718373 -0.50923085

action_model._continuous_distribution.mu.weight f4 [2, 256]
000000 41 1e 21 3c 17 d7 00 3e f5 5e 2e bd 46 38 1b 3d
       0.009833873 0.1258205 -0.042571027 0.037895463
000010 e7 74 c2 bc ac 3c d6 3d 3a 8b 19 3d cf 55 83 bc
       -0.023737384 0.10460791 0.037486292 -0.016032128
000020 5c c1 b7 3c a4 7a 78 3d 25 60 28 3d 88 3c b1 bd
       0.022431068 0.060663834 0.041107316 -0.086541235
000030 ca 3a 5c 3d 2b 77 a5 3b 2a 63 8b 3d 42 13 ff bc
       0.053767003 0.0050496063 0.068060234 -0.031137113
000040 10 cf 54 3d 59 b4 0e be c3 53 6c bd 62 86 8c bd
       0.051955283 -0.13935985 -0.05769707 -0.06861569
000050 3b a6 bd 3c 93 f9 fb bc cf e7 81 3d 9e 30 2b 3d
       0.023150554 -0.030758655 0.06343042 0.04179441
000060 6b 3c 74 3d d8 82 84 3d 04 9c fc bc 2a ea d0 3d
       0.05962793 0.06470269 -0.030836113 0.10200913
000070 fe 54 3e 3d 3d 1b 88 3d d8 b5 f2 3d 5a c1 56 3d
       0.046467774 0.0664582 0.1185109 0.05243049
000080 a0 79 75 bd 11 8d d6 3c f2 17 49 bd a1 0a 68 bc
       -0.059930444 0.026190313 -0.0490951 -0.01416269
000090 c2 26 9c bd 8e ab f6 3d 14 61 0c 3d 0b 3a 4d 3d
       -0.0762458 0.1204444 0.03427227 0.050104182
0000a0 38 9c 06 3e e3 36 e6 3c 18 f9 c4 3a 46 62 a6 bd
       0.1314553 0.028102344 0.0015027849 -0.08124213
0000b0 b1 b0 ac 3d d0 1b 5a 3d 8a 27 2c 3d 78 09 57 3d
       0.08432139 0.05324918 0.042029895 0.052499264
0000c0 34 73 2a bc a7 a6 6a 3a f4 11 d6 3d 8c 5e 80 bc
       -0.010403443 0.0008951225 0.10452643 -0.015670083
0000d0 84 97 1b 3c fe cc 93 3d e9 f0 30 3d 22 3f 49 3b
       0.009496573 0.072168335 0.0431985 0.0030707796
0000e0 1a 9e 5d bc 8d ea 0d 3e 03 59 d5 3d fd fb 6b 3d
       -0.013526464 0.13859005 0.10417368 0.05761336
0000f0 8c d7 ba 3d 80 7a 45 bc 24 48 12 bd 9e 20 a1 3b
       0.091231436 -0.012053132 -0.03571333 0.0049172183
000100 a1 c0 da 3d 9b 27 78 3d ce 5f 8b 3d 76 03 67 3d
       0.10681272 0.060584646 0.06805383 0.056399785
000110 16 06 7a bd c6 f8 b8 3d 95 fe 1a 3d d8 fa 08 3d
       -0.06104096 0.09031825 0.037840445 0.03344235
000120 93 ee 42 3d b9 ff 0d 3d bd 1c 96 bd 57 18 a3 3d
       0.047590803 0.034667704 -0.073297 0.07963627
000130 2b 30 ed 3c c0 c6 14 bc d0 fa 55 3d 82 77 c4 bd
       0.028953632 -0.009080589 0.052241147 -0.09593107
000140 7e 09 c4 bc 87 8a 34 bd e6 66 cd 3c fa 95 00 3e
       -0.023930307 -0.044077422 0.02507348 0.12557212
000150 92 5a a0 3d 76 16 43 3d 18 4a 8d bd 1e 98 41 3d
       0.07829775 0.047628842 -0.06898898 0.04726421
000160 86 5b 70 3c fc 50 60 3d cf 3e a6 bd 87 b5 d0 bd
       0.014670258 0.054764733 -0.081174485 -0.101908736
000170 77 55 5c 3d 45 6c 5d 3d ad b0 61 3d a6 0d 0e bb
       0.053792443 0.054058332 0.05510013 -0.0021675616
000180 de 54 3d 3d 7a b4 46 bb bb ee 33 3d b3 61 84 3d
       0.046223514 -0.0030319975 0.043928843 0.06463947
000190 17 73 91 3d 5b 86 0f bd b1 ff 2b 3c 47 5c b8 3d
       0.0710203 -0.03504024 0.010497973 0.090019755
0001a0 eb 4d 6d 3d 68 c4 05 3d 18 5d bd bd 37 f1 b1 3b
       0.057935636 0.03265801 -0.09246272 0.0054303664
0001b0 5b 83 bb 3d e9 f1 33 3d e4 18 a3 3d 40 a4 a1 b9
       0.091559134 0.043931875 0.07963732 -0.0003083069
0001c0 a3 58 f2 3c 86 ac 9a bc b2 35 de 3c 66 d2 a4 3d
       0.02958328 -0.018881094 0.027125213 0.08047943
0001d0 e4 6d 1c 3d 23 ea 1b 3c 6a ed 57 bc d8 5c 3e 3d
       0.038190737 0.009516272 -0.0131791625 0.04647526
0001e0 57 21 00 b9 38 99 ed 3c 06 fd 51 bd e7 a0 cb 3c
       -0.00012219451 0.029003724 -0.051266693 0.024856998
0001f0 c5 b6 9c 3d c2 56 4f 3c 0f dd fc bb af ca 82 ba
       0.07652048 0.012654962 -0.007716782 -0.0009978617
000200 c8 9f 5e 3d 09 5d 76 3c 39 fa 26 3d 06 53 8f bd
       0.054351598 0.01503683 0.040765975 -0.06998257
000210 09 f7 a5 3d 00 b1 e6 3d fd 8b b5 3d 79 3e c9 3d
       0.08103759 0.11264229 0.08864591 0.09826369
000220 c7 05 82 3c d1 9c 97 3d 3e 7c b2 3c cb bc 2e bc
       0.015871895 0.07402957 0.021787759 -0.010665129
000230 46 f8 53 bd ec e4 88 3c 43 22 06 3e b1 01 a7 bc
       -0.051750444 0.016710721 0.13099007 -0.020386549
000240 ac e0 a2 3d c6 cc 03 3e f1 6f 32 3d 56 c2 95 3d
       0.07953009 0.12871084 0.043563787 0.07312457
000250 22 71 22 3d f1 b3 8e 3d 78 a7 56 3d e8 79 ce bc
       0.039658673 0.06967915 0.052405804 -0.025204614
000260 19 7e b8 3d e5 bf 6e ba 5b 20 1c 3d a0 79 0e bc
       0.09008426 -0.0009107574 0.038116794 -0.00869599
000270 53 e5 72 3d 2a 3b 9c 3d 38 08 87 bd 55 04 90 3d
       0.059300732 0.07628472 -0.065933645 0.07032076
000280 e6 9f d3 3d f2 a5 23 3e 4e 47 70 3d cc 1e 74 bd
       0.103332326 0.15981272 0.05866175 -0.059599683
000290 67 58 c1 ba a2 28 6e bc fd ba 70 3c f1 4e 07 3e
       -0.0014751077 -0.014536055 0.014693019 0.13213708
0002a0 bb 78 50 3d f1 dd f9 3b 92 29 67 bc a6 0a 88 3d
       0.050896388 0.0076253344 -0.014109032 0.06642656
0002b0 65 31 33 3d ee e5 36 3d be a2 f8 bc e4 38 03 3c
       0.04374828 0.04465287 -0.030351039 0.008009169
0002c0 07 29 4d 3d 7e 89 02 3d 86 02 0f 3c ef 6a 3b 3d
       0.050087955 0.031869404 0.008728629 0.045756277
0002d0 2b a2 62 3d ce 58 51 3d 3a 2f 53 3d d5 b7 49 3c
       0.055330437 0.05111008 0.05155871 0.012311895
0002e0 93 5f be bc c9 82 fe 3c c5 64 20 3d 3e 46 64 3c
       -0.023238933 0.031068223 0.0391586 0.013932763
0002f0 5c 19 52 bc 04 7a bf 3b 2e 22 49 bc 20 9c 30 3d
       -0.012823429 0.005843403 -0.0122762155 0.043117642
000300 bb 0f 87 3c 48 59 d1 3d 4d 6c a1 3d 84 2a 76 3d
       0.016486993 0.10222107 0.07881985 0.06009914
000310 9a 41 57 bc ee 79 0c 3e ca 49 a0 3d ff d8 5f 3d
       -0.013138199 0.13718387 0.07826574 0.054650303
000320 36 55 4c 3d 9b 35 f3 3c 56 7a 1d bd fd 30 f4 3c
       0.04988595 0.029688647 -0.038446747 0.029808516
000330 22 71 8f bd d0 19 15 3d 43 31 22 3c b3 96 8b 3b
       -0.07004 0.03640157 0.00989944 0.004259908
000340 be 77 46 3d 9f 21 d7 ba 16 d5 77 bd 5b ce 8e 3d
       0.04845404 -0.0016413218 -0.06050595 0.06972953
000350 53 51 e7 bc f8 ef fa bd f4 71 3d 3d 86 10 ea 3c
       -0.02823702 -0.12252802 0.046251252 0.028572332
000360 ea da 06 bb bf 92 a2 bd 84 5d f0 bb c1 37 75 3d
       -0.002057726 -0.07938146 -0.0073353667 0.059867624
000370 be de 07 bd df 99 5b bc 54 90 78 bb 8d 24 25 3d
       -0.033171408 -0.013403385 -0.0037927823 0.04031806
000380 79 ba 21 3e f6 62 0b 3d 5c fd 0a be 43 ca ab 3d
       0.1579379 0.034029923 -0.13573211 0.08388188
000390 19 e9 db 3c f4 74 38 bc 60 4f 71 3d 2f af 4c bd
       0.026844548 -0.011258353 0.05891359 -0.049971756
0003a0 45 11 51 3d d1 20 4a 3d 3a 7f 52 3d be 61 08 bc
       0.05104186 0.049347702 0.051390864 -0.008324085
0003b0 78 ed a8 bb 68 20 7b bc 6a cf 61 3d 25 a7 7d 3d
       -0.0051552616 -0.0153275505 0.055129446 0.06192698
0003c0 c8 ea d5 3d 79 c1 54 bc 64 b9 16 3c 77 38 d9 3c
       0.104451716 -0.012985581 0.009199474 0.026516182
0003d0 b9 64 75 bc 65 fc 0b 3e 16 26 21 bc a4 1b a6 3d
       -0.014977627 0.136705 -0.009835741 0.08110741
0003e0 82 97 bd 3b e4 28 cf 3c 1a 80 27 3e b0 4c 97 3c
       0.0057858834 0.025288053 0.1635746 0.018469185
0003f0 89 88 56 3e 32 f5 9f 3d 57 01 79 bd 3e 84 3e 3d
       0.20950522 0.07810439 -0.060792293 0.046512835

action_model._continuous_distribution.mu.bias f4 [2]
000000 6c f2 61 3d 5d a2 31 3d
       0.055162832 0.043367732

exp_avg f4 [256, 39]
000000 00 00 00 00 12 99 78 b8 94 af 4d 35 90 94 6e 38
       0.0 -5.9270365e-05 7.662395e-07 5.688198e-05
000010 46 43 96 38 00 00 00 00 8d ab 7d b8 d5 36 9b b8
       7.165088e-05 0.0 -6.047967e-05 -7.401189e-05
000020 ca a3 08 39 e6 1e 9a 38 00 00 00 00 e8 81 a7 b8
       0.00013030987 7.3490475e-05 0.0 -7.9873775e-05
000030 7b ea ef 37 d6 0d 82 38 97 85 04 38 00 00 00 00
       2.8600209e-05 6.20146e-05 3.1595668e-05 0.0
000040 f6 3f d0 38 1b a1 ca b8 1a 37 a4 b7 93 2e 3a 38
       9.9301265e-05 -9.662119e-05 -1.9575982e-05 4.438923e-05
000050 00 00 00 00 b8 30 38 b8 0a 60 a6 38 5c f2 49 b8
       0.0 -4.391439e-05 7.9333855e-05 -4.814785e-05
000060 36 cb 9f 38 00 00 00 00 45 a1 2a b7 1e 26 8b b7
       7.619562e-05 0.0 -1.0170338e-05 -1.6587841e-05
000070 56 87 27 38 c3 29 51 38 00 00 00 00 53 a0 fc b7
       3.9941944e-05 4.9868377e-05 0.0 -3.0115398e-05
000080 3c 0c 1c 38 ac 46 58 b7 68 75 bd 38 1b 34 19 b8
       3.7204692e-05 -1.2891058e-05 9.034091e-05 -3.652657e-05
000090 8a 5b 49 38 39 ed 56 38 5e 3b b2 b8 00 00 00 00
       4.8007387e-05 5.1242507e-05 -8.4987594e-05 0.0
0000a0 46 47 cd b9 64 92 94 b9 ef 2f 0e 3a 97 c1 a4 39
       -0.0003915375 -0.0002833783 0.0005424013 0.00031424753
0000b0 00 00 00 00 28 55 f9 b9 ac bc 03 38 33 7a 02 3a
       0.0 -0.00047556427 3.140855e-05 0.00049773155
0000c0 04 65 9e 39 00 00 00 00 00 9c 36 34 4e 3c 6e 39
       0.0003021137 0.0 1.7006823e-07 0.00022719914
0000d0 38 e9 47 b9 84 a4 53 39 00 00 00 00 f5 43 14 ba
       -0.00019065 0.00020183815 0.0 -0.00056558783
0000e0 57 9e 37 3a 67 39 cc b8 18 2c 76 b8 00 00 00 00
       0.00070044905 -9.73817e-05 -5.8692036e-05 0.0
0000f0 9c 79 aa 38 68 a3 ed b7 dc 68 c3 b8 87 e0 11 b9
       8.128883e-05 -2.8328694e-05 -9.317856e-05 -0.0001391192
000100 00 00 00 00 03 49 2e b9 24 d8 d9 39 2a e4 ad b9
       0.0 -0.00016621132 0.00041550503 -0.00033167127
000110 66 8c 7c b9 00 00 00 00 7c dc 34 b8 2a 7c 2d 39
       -0.00024084895 0.0 -4.3120686e-05 0.0001654482
000120 ca 6e 8e b9 e1 08 0a b9 36 23 a3 39 4e 97 b5 39
       -0.00027166895 -0.00013164013 0.00031116017 0.0003463574
000130 9a 18 41 39 92 09 50 b8 00 00 00 00 f8 84 47 38
       0.00018415079 -4.9599978e-05 0.0 4.7569134e-05
000140 fd 7c cd 37 a2 54 7c b8 40 2b 48 b8 00 00 00 00
       2.4496107e-05 -6.0160302e-05 -4.7723996e-05 0.0
000150 5e f5 9f b7 2e c6 ce 38 af 81 85 b8 da a9 d5 b8
       -1.9068535e-05 9.859759e-05 -6.36609e-05 -0.00010188269
000160 00 00 00 00 b8 11 65 b7 ec b5 b8 37 30 58 7c b6
       0.0 -1.3653589e-05 2.2019223e-05 -3.7602258e-06
000170 44 19 07 b8 00 00 00 00 73 33 8b b8 d6 11 3c b8
       -3.221004e-05 0.0 -6.63762e-05 -4.4839304e-05
000180 88 5d 2d 39 10 4c fc b7 00 00 00 00 cb e9 bf 38
       0.00016533409 -3.007616e-05 0.0 9.151137e-05
000190 5c dc 0e 39 e9 94 be b9 89 89 1b 37 00 00 00 00
       0.00013624266 -0.0003635057 9.270742e-06 0.0
0001a0 98 c2 18 b8 1d 4b 00 b8 7c 52 d5 38 11 6e 83 b8
       -3.6420854e-05 -3.0587533e-05 0.000101719954 -6.267068e-05
0001b0 00 00 00 00 32 d6 f6 b8 03 1f 01 39 00 bf bb b3
       0.0 -0.00011770091 0.00012313951 -8.742609e-08
0001c0 a6 a7 b6 38 1f 7a ce 38 19 6e 84 b9 c5 14 8b b8
       8.709663e-05 9.845592e-05 -0.0002525903 -6.631905e-05
0001d0 43 47 00 39 00 00 00 00 50 c7 3f b9 12 d7 b9 b6
       0.00012233578 0.0 -0.00018289429 -5.538467e-06
0001e0 2c d6 3c 39 3a b0 96 39 00 00 00 00 d7 5a 27 39
       0.00018008862 0.00028741529 0.0 0.00015960202
0001f0 7b 8c 93 b9 04 b4 89 38 8f 53 aa 38 00 00 00 00
       -0.0002814269 6.5661996e-05 8.121796e-05 0.0
000200 05 b6 42 b9 34 11 63 37 bd b9 45 39 42 23 93 39
       -0.0001856909 1.353426e-05 0.00018856577 0.00028064294
000210 00 00 00 00 0e 30 a9 39 e3 4d 34 b9 98 f7 88 b9
       0.0 0.00032269995 -0.00017195153 -0.00026124413
000220 fd f8 2a b8 00 00 00 00 bd 39 7c b8 e6 3e fe 38
       -4.0763047e-05 0.0 -6.0135255e-05 0.000121233796
000230 c0 e6 b2 b8 92 cd 89 39 00 00 00 00 5a 0b 7f 38
       -8.530682e-05 0.00026283838 0.0 6.080731e-05
000240 ff 90 ee b8 57 73 8b 38 1e 2d c6 b7 00 00 00 00
       -0.00011375732 6.64952e-05 -2.3624449e-05 0.0
000250 6c 32 b1 b8 31 37 b8 38 00 9c a6 35 28 85 84 39
       -8.4494095e-05 8.784084e-05 1.2413366e-06 0.0002527621
000260 c0 68 e7 37 20 e1 30 39 58 9f 18 39 b9 ad 27 b9
       2.7586124e-05 0.00016868534 0.0001455521 -0.00015991078
000270 00 00 00 00 b4 4b 41 b8 d1 fd 8e 38 41 d4 ad 36
       0.0 -4.608529e-05 6.818365e-05 5.1805114e-06
000280 4c 88 55 b8 00 00 00 00 60 ed 82 38 68 80 00 39
       -5.0910094e-05 0.0 6.2430976e-05 0.00012254866
000290 39 9e 36 b9 21 46 80 b8 00 00 00 00 3b 0f 6e 38
       -0.00017415815 -6.116578e-05 0.0 5.6757806e-05
0002a0 28 24 12 38 13 67 bd b8 3c 8c 20 b7 00 00 00 00
       3.4842786e-05 -9.031421e-05 -9.569394e-06 0.0
0002b0 44 ae 21 b8 32 a2 85 38 17 37 f2 b7 c8 e1 a3 b8
       -3.854769e-05 6.3721454e-05 -2.8874301e-05 -7.814501e-05
0002c0 00 00 00 00 20 5f cc b4 4a d2 2d b8 83 05 87 38
       0.0 -3.8067174e-07 -4.144226e-05 6.438328e-05
0002d0 fa 01 68 b8 00 00 00 00 e9 62 65 38 38 58 fe b7
       -5.531495e-05 0.0 5.4689972e-05 -3.032024e-05
0002e0 0f 1b 36 b8 9a c0 a6 b8 00 00 00 00 10 4d 92 b6
       -4.341738e-05 -7.951372e-05 0.0 -4.3601103e-06
0002f0 80 3f c1 b6 c2 da c2 37 36 1c 78 b8 2c 96 d6 36
       -5.7592406e-06 2.322847e-05 -5.915408e-05 6.3951793e-06
000300 1a da e3 b7 9a a7 f9 b8 5d 2c f7 38 00 00 00 00
       -2.716207e-05 -0.000119044635 0.00011786141 0.0
000310 d2 e1 e2 b9 a4 ce 41 37 39 ef d7 39 85 d1 a7 39
       -0.00043274328 1.1551809e-05 0.0004118623 0.00032008826
000320 00 00 00 00 98 89 85 b8 62 dd 39 b9 ea 55 69 39
       0.0 -6.367563e-05 -0.00017725446 0.00022252617
000330 f3 83 4d b8 00 00 00 00 82 e9 14 b9 0f d9 a7 38
       -4.8998696e-05 0.0 -0.00014201368 8.003611e-05
000340 de eb b3 38 6c 1a 58 39 00 00 00 00 2a 9c 08 3a
       8.579319e-05 0.00020609208 0.0 0.00052112585
000350 ec 20 7f b8 84 b0 3d ba 6a 58 a2 b9 00 00 00 00
       -6.08274e-05 -0.0007236081 -0.00030964921 0.0
000360 e6 64 9c b8 d4 c7 4a 39 97 59 34 b9 6f d5 23 39
       -7.4574535e-05 0.00019338663 -0.00017199513 0.00015624402
000370 00 00 00 00 60 93 92 36 38 9b 1d b8 9d de 44 38
       0.0 4.368296e-06 -3.7576276e-05 4.6937366e-05
000380 0e cd 90 b9 00 00 00 00 80 d1 52 b8 b9 72 c2 38
       -0.00027618598 0.0 -5.0263014e-05 9.2720096e-05
000390 90 a3 bd b8 66 d9 8d 39 33 90 99 b9 c0 e6 a9 38
       -9.042688e-05 0.0002705559 -0.0002928987 8.1015285e-05
0003a0 30 34 76 38 df 19 61 b9 00 00 00 00 2c b8 08 b9
       5.8699574e-05 -0.0002146731 0.0 -0.0001303858
0003b0 7a b9 6d b8 da 90 26 39 30 21 3f 39 00 00 00 00
       -5.667794e-05 0.00015884955 0.00018227543 0.0
0003c0 08 d0 30 b8 d4 e0 43 b8 64 ad b5 38 77 06 08 39
       -4.2155414e-05 -4.670101e-05 8.663049e-05 0.00012972379
0003d0 00 00 00 00 0d cd 9d b8 f4 5d 02 38 88 7b 66 38
       0.0 -7.524537e-05 3.1081916e-05 5.495132e-05
0003e0 5d 9f e8 38 00 00 00 00 d7 e7 a3 b7 f3 64 2f 38
       0.00011092306 0.0 -1.9539073e-05 4.1817268e-05
0003f0 7c dd e9 b7 1d 01 a5 38 00 00 00 00 6c 6a d1 b7
       -2.7878901e-05 7.8680205e-05 0.0 -2.4964298e-05

exp_avg_sq f4 [256, 39]
000000 00 00 00 00 00 d3 a4 33 bb d8 d6 32 b1 eb d0 33
       0.0 7.675226e-08 2.5011436e-08 9.728627e-08
000010 f1 74 99 33 00 00 00 00 1c 4b a6 33 d4 ed e9 32
       7.145889e-08 0.0 7.74364e-08 2.7232922e-08
000020 a2 12 0d 34 e5 66 b6 33 00 00 00 00 0c ab 92 33
       1.3138427e-07 8.493752e-08 0.0 6.829768e-08
000030 30 6e f0 32 7b b9 4e 33 12 91 8f 33 00 00 00 00
       2.7989785e-08 4.8131806e-08 6.6853445e-08 0.0
000040 bb 49 78 33 7f 64 22 33 41 0e d1 32 16 62 81 33
       5.7809057e-08 3.7809965e-08 2.4337284e-08 6.024872e-08
000050 00 00 00 00 65 2e 3c 33 2f 39 13 33 75 bd 51 33
       0.0 4.3814357e-08 3.4278113e-08 4.8833915e-08
000060 c3 63 92 33 00 00 00 00 5a 84 6b 33 bc 6c 22 33
       6.816801e-08 0.0 5.4835574e-08 3.7817458e-08
000070 3e 88 ed 32 93 88 51 33 00 00 00 00 71 80 3d 33
       2.7652387e-08 4.8785818e-08 0.0 4.412181e-08
000080 d6 eb 13 33 40 a3 b2 33 56 dd a3 33 c6 28 bb 33
       3.4440596e-08 8.318466e-08 7.63054e-08 8.715283e-08
000090 bf 64 09 34 33 6e 45 33 7c bd 17 33 00 00 00 00
       1.279577e-07 4.5967862e-08 3.5329762e-08 0.0
0000a0 3a 86 52 36 3f 34 82 35 2f fd 50 36 63 87 3d 36
       3.1370569e-06 9.70096e-07 3.1141788e-06 2.8242e-06
0000b0 00 00 00 00 91 20 e0 36 e9 ba a3 35 02 11 39 37
       0.0 6.6795114e-06 1.2198844e-06 1.1030819e-05
0000c0 94 46 03 37 00 00 00 00 92 eb 80 36 28 cf d0 35
       7.824641e-06 0.0 3.8421213e-06 1.5557498e-06
0000d0 d0 31 51 36 0f 24 db 35 00 00 00 00 04 e0 4d 36
       3.1172422e-06 1.6327266e-06 0.0 3.0677775e-06
0000e0 36 32 d1 35 84 b1 e1 36 94 12 06 37 00 00 00 00
       1.5586327e-06 6.726188e-06 7.991348e-06 0.0
0000f0 0e 5a 05 36 c3 0b d7 35 11 e9 c3 35 c1 cf 06 36
       1.9870963e-06 1.6022171e-06 1.4596463e-06 2.0088485e-06
000100 00 00 00 00 b9 ef 0d 36 09 e9 e4 35 37 e6 f0 35
       0.0 2.1150174e-06 1.7055146e-06 1.7948395e-06
000110 70 eb 26 36 00 00 00 00 86 6a f4 35 25 b3 d5 35
       2.487297e-06 0.0 1.8210419e-06 1.5921875e-06
000120 3c 1e 11 36 52 69 22 36 3e 20 18 36 0a 84 d5 36
       2.1624282e-06 2.4201186e-06 2.2668532e-06 6.363266e-06
000130 43 6c fc 35 f9 37 0b 36 00 00 00 00 4a c2 2e 35
       1.8806971e-06 2.0745194e-06 0.0 6.510278e-07
000140 87 2d b7 33 92 f4 30 35 92 c3 de 34 00 00 00 00
       8.529883e-08 6.5921006e-07 4.1493018e-07 0.0
000150 69 4c 8a 35 81 37 3c 34 94 f8 e0 35 08 1f 9a 35
       1.030404e-06 1.7529057e-07 1.6761646e-06 1.1482925e-06
000160 00 00 00 00 71 3f 8d 35 ce 9d 33 34 a5 8e 8b 35
       0.0 1.0523783e-06 1.6728083e-07 1.0397822e-06
000170 cf 7d ed 34 00 00 00 00 03 17 da 34 79 02 75 34
       4.4236228e-07 0.0 4.0622407e-07 2.2818303e-07
000180 cb c7 6c 35 43 43 8f 35 00 00 00 00 f8 b4 41 35
       8.820759e-07 1.0673906e-06 0.0 7.2161447e-07
000190 b8 87 73 34 ed 63 c6 35 3d b3 53 35 00 00 00 00
       2.2680513e-07 1.4781232e-06 7.886445e-07 0.0
0001a0 24 b2 c3 34 bd af 77 34 ba 9c f0 33 c8 9d ee 34
       3.6451195e-07 2.3067601e-07 1.1204379e-07 4.4445756e-07
0001b0 00 00 00 00 d3 33 a2 34 89 c7 7c 34 f0 5b 30 34
       0.0 3.0212558e-07 2.354192e-07 1.6424724e-07
0001c0 62 14 1f 35 d4 c2 e4 34 ba 20 77 35 03 a8 65 34
       5.9261777e-07 4.2610066e-07 9.2062294e-07 2.1388409e-07
0001d0 4d 37 a1 34 00 00 00 00 a9 a4 36 34 2d ed a1 33
       3.0028824e-07 0.0 1.7009974e-07 7.540289e-08
0001e0 18 d7 2d 34 69 90 15 34 00 00 00 00 f7 a8 12 34
       1.6190131e-07 1.3929242e-07 0.0 1.3658779e-07
0001f0 99 59 6f 33 50 15 31 34 b2 e0 0d 34 00 00 00 00
       5.5728012e-08 1.6492163e-07 1.3213392e-07 0.0
000200 f8 42 18 34 f1 76 4f 33 41 ac 37 34 fc da 70 34
       1.4180466e-07 4.830412e-08 1.7105869e-07 2.2431408e-07
000210 00 00 00 00 d6 82 2a 34 e1 a7 82 33 00 17 96 34
       0.0 1.5880082e-07 6.084134e-08 2.7956412e-07
000220 bb 95 6d 34 00 00 00 00 d0 82 a3 33 9f b9 69 33
       2.2126817e-07 0.0 7.6140736e-08 5.441836e-08
000230 e8 38 2b 34 c4 c6 8c 34 00 00 00 00 e4 94 af 33
       1.5946318e-07 2.6221653e-07 0.0 8.1761556e-08
000240 7b 46 88 33 61 18 32 33 4b 31 28 34 00 00 00 00
       6.345814e-08 4.1466027e-08 1.5664152e-07 0.0
000250 c5 b6 8c 33 63 df 66 33 17 24 d2 33 15 bd 61 34
       6.5525036e-08 5.3754217e-08 9.785452e-08 2.1023546e-07
000260 96 ee 35 34 97 52 6c 34 af ea 0b 34 38 87 88 33
       1.6943736e-07 2.2009259e-07 1.3030761e-07 6.35759e-08
000270 00 00 00 00 87 01 08 34 4e e3 3d 33 10 eb 36 34
       0.0 1.2666543e-07 4.4211724e-08 1.7035586e-07
000280 63 c5 1d 34 00 00 00 00 ec f5 da 33 5d 9c 38 33
       1.4693573e-07 0.0 1.0196149e-07 4.298305e-08
000290 bb 7e df 33 5a dc ac 33 00 00 00 00 d5 61 eb 33
       1.0407299e-07 8.049456e-08 0.0 1.0960836e-07
0002a0 42 08 4b 33 d6 e7 1d 34 83 1c 45 34 00 00 00 00
       4.727213e-08 1.4706106e-07 1.8357427e-07 0.0
0002b0 8f ac a1 33 24 86 5b 33 37 a2 0a 33 bc 00 94 33
       7.528535e-08 5.111191e-08 3.2278162e-08 6.8919206e-08
0002c0 00 00 00 00 40 03 74 33 dd a7 5d 33 44 20 33 33
       0.0 5.6813633e-08 5.1608243e-08 4.170603e-08
0002d0 dc 73 10 34 00 00 00 00 1a 4b af 33 f9 fc 63 33
       1.3453194e-07 0.0 8.1627334e-08 5.3082633e-08
0002e0 cb 16 81 33 9d 52 ac 33 00 00 00 00 65 c8 7e 33
       6.0111766e-08 8.0244014e-08 0.0 5.932124e-08
0002f0 3d b7 5b 33 fd 84 94 33 4c d4 cd 33 f1 27 09 34
       5.1156565e-08 6.9159775e-08 9.584673e-08 1.277365e-07
000300 4e f1 af 34 c1 ca 00 34 cb 00 bc 33 00 00 00 00
       3.2771862e-07 1.199469e-07 8.7545764e-08 0.0
000310 67 49 b5 35 26 e1 33 34 77 c5 ab 35 4b bf 86 35
       1.3506914e-06 1.6752583e-07 1.2797963e-06 1.0039452e-06
000320 00 00 00 00 eb 23 72 35 c9 f0 c6 34 ef 04 ea 35
       0.0 9.020429e-07 3.7055568e-07 1.7435794e-06
000330 c3 1d b4 35 00 00 00 00 f0 f0 72 35 7e 10 bb 34
       1.3419707e-06 0.0 9.0502635e-07 3.4843464e-07
000340 c0 c4 12 35 92 30 58 35 00 00 00 00 64 fd ab 35
       5.467555e-07 8.053695e-07 0.0 1.2814239e-06
000350 f2 5e fd 34 2b 97 19 36 60 99 cf 35 00 00 00 00
       4.7194004e-07 2.2886768e-06 1.546734e-06 0.0
000360 c1 24 39 35 3a 12 04 35 aa 68 8b 35 c3 f2 7d 35
       6.8971354e-07 4.9200355e-07 1.0386768e-06 9.460311e-07
000370 00 00 00 00 1d 05 5a 35 0a ce 03 35 0f 72 01 35
       0.0 8.121877e-07 4.910113e-07 4.822222e-07
000380 e6 78 50 35 00 00 00 00 fb 61 2c 35 7b 10 05 35
       7.766197e-07 0.0 6.4217573e-07 4.9570343e-07
000390 81 bc 21 35 52 f8 73 35 93 66 86 35 6b a2 dd 35
       6.0251483e-07 9.088591e-07 1.0013631e-06 1.6513053e-06
0003a0 8d 2c 2f 35 a3 16 9f 34 00 00 00 00 e6 9c ed 33
       6.525741e-07 2.9632528e-07 0.0 1.1064712e-07
0003b0 b1 34 f0 32 39 98 1c 34 4e c2 e8 33 00 00 00 00
       2.7963639e-08 1.458401e-07 1.0838686e-07 0.0
0003c0 86 5d 64 33 8f 1f 4e 33 d5 2b 0a 33 f6 9b 85 33
       5.3170446e-08 4.7991815e-08 3.2170494e-08 6.221664e-08
0003d0 00 00 00 00 aa e2 5a 33 ec 69 00 33 17 f5 82 33
       0.0 5.096323e-08 2.9898658e-08 6.098178e-08
0003e0 08 68 a9 33 00 00 00 00 83 c7 08 33 90 d5 50 33
       7.888599e-08 0.0 3.1846422e-08 4.8623008e-08
0003f0 4d 98 a6 32 e8 0a e4 32 00 00 00 00 c5 fe 30 33
       1.9394202e-08 2.6547653e-08 0.0 4.1209905e-08

exp_avg f4 [256]
000000 c0 bf f6 b7 c0 d3 44 37 c0 e5 18 b9 c2 07 0f b9
       -2.9414776e-05 1.1731812e-05 -0.00014581438 -0.00013640433
000010 85 c7 10 38 53 10 41 b9 74 3c 77 37 c4 51 fc b8
       3.4518092e-05 -0.00018411996 1.4736423e-05 -0.000120315264
000020 aa 24 f5 b8 83 37 17 b9 94 88 e4 b7 96 58 f4 b8
       -0.000116893396 -0.00014421162 -2.7243317e-05 -0.00011651327
000030 6c fc 36 b9 80 ab 60 36 fe 05 60 39 11 ec 51 38
       -0.00017450907 3.3478427e-06 0.00021364537 5.0049337e-05
000040 b0 39 6d 37 68 ab ce 38 00 2d 9b b4 ba 86 87 38
       1.4139732e-05 9.854772e-05 -2.8903742e-07 6.4623964e-05
000050 59 9e a7 38 4e 19 e5 b8 30 eb 77 b8 70 60 06 37
       7.992675e-05 -0.00010924284 -5.9108424e-05 8.009476e-06
000060 a6 ae 28 b9 f8 75 b0 37 06 7d 3d b8 dc 74 99 38
       -0.0001608679 2.1035768e-05 -4.517755e-05 7.317375e-05
000070 ae 51 99 b8 58 1a 5c 38 76 1b 20 b9 92 93 8a b8
       -7.3108225e-05 5.2476622e-05 -0.00015269019 -6.60784e-05
000080 3c b1 c3 38 5e 88 82 b8 b0 58 5d b7 1b 14 b5 b7
       9.331337e-05 -6.2242834e-05 -1.3193276e-05 -2.1586244e-05
000090 94 63 03 38 57 f7 a7 b9 42 09 1c b8 60 13 9f b7
       3.1325573e-05 -0.00032037005 -3.720192e-05 -1.89633e-05
0000a0 d6 21 15 b8 00 f6 38 b6 26 92 ac 36 28 74 b5 b7
       -3.555588e-05 -2.7561327e-06 5.1430134e-06 -2.163097e-05
0000b0 c0 db 0a 38 4a 0e b6 38 60 b0 26 36 f4 d7 1e b9
       3.3106422e-05 8.681098e-05 2.4838591e-06 -0.00015148503
0000c0 d1 4c 19 37 93 14 c3 38 5e 11 a2 b8 92 2c 24 38
       9.137396e-06 9.302157e-05 -7.727997e-05 3.9142156e-05
0000d0 32 06 a1 38 6d e8 16 b9 a0 df 43 b9 1d a1 8a b9
       7.678232e-05 -0.000143917 -0.00018679956 -0.0002644145
0000e0 1a 6f 07 b8 f9 db 20 39 18 ee ab 37 88 8c 12 39
       -3.228998e-05 0.00015340735 2.049566e-05 0.00013975997
0000f0 94 1a ec b9 74 5c f2 38 40 8f 41 36 32 60 74 37
       -0.0004503323 0.0001155668 2.8842624e-06 1.45659305e-05
000100 fd ae e2 b8 26 b6 9d b8 15 d4 73 b9 3a 37 c9 b7
       -0.00010809114 -7.520271e-05 -0.00023253293 -2.3986784e-05
000110 40 5b 62 b7 25 83 6c 39 6f 6c 0b b9 3c 69 7f b8
       -1.34918955e-05 0.00022555569 -0.00013296468 -6.0894745e-05
000120 20 16 a7 b8 1c 4e cf b8 40 67 c3 37 c0 90 1a b6
       -7.967302e-05 -9.885078e-05 2.3293891e-05 -2.3032044e-06
000130 1e 9c e3 b8 1c 21 bb 37 62 3e 84 38 8b 7c 9f 38
       -0.000108532826 2.2307555e-05 6.30587e-05 7.604909e-05
000140 e9 7d 4d b8 c2 39 e0 b7 e4 5a 00 39 70 66 b1 b8
       -4.899307e-05 -2.6729776e-05 0.0001224089 -8.459098e-05
000150 71 d1 00 39 53 86 cc 38 c8 e4 98 38 7a 9d 32 39
       0.00012285054 9.752498e-05 7.2905386e-05 0.00017034067
000160 0e af 66 b7 3e 43 79 b9 94 88 0a b9 40 ec e5 b8
       -1.3749826e-05 -0.0002377154 -0.00013211585 -0.00010963576
000170 52 67 57 b9 95 6f 8e b8 76 31 78 b8 5d ac b0 38
       -0.00020542488 -6.7918714e-05 -5.917387e-05 8.424439e-05
000180 00 24 3f b5 57 3e e0 b7 dc 79 21 39 ab 4c a7 38
       -7.120543e-07 -2.673191e-05 0.00015399553 7.977461e-05
000190 49 98 ca b8 18 d4 30 b8 70 8c 58 38 6c 00 3a b8
       -9.660476e-05 -4.2159198e-05 5.1629206e-05 -4.434625e-05
0001a0 b8 63 3a 37 1c 21 03 b8 08 56 4e b8 58 90 d3 b5
       1.11096815e-05 -3.126367e-05 -4.919435e-05 -1.5762735e-06
0001b0 75 44 20 39 64 45 01 39 34 1b 86 39 45 82 c6 37
       0.00015284291 0.00012328249 0.0002557874 2.36641e-05
0001c0 e6 f9 b4 38 ea bb 37 38 cc 98 7b 38 24 77 4f b8
       8.629616e-05 4.380561e-05 5.9985367e-05 -4.9463604e-05
0001d0 7c 58 86 b9 dc f3 34 b7 b1 ee 23 b8 4c 5c 27 b9
       -0.00025624398 -1.0785614e-05 -3.9084527e-05 -0.00015960744
0001e0 8b a3 36 37 62 94 18 38 24 bf 10 b8 d2 fe 93 38
       1.0886123e-05 3.6377816e-05 -3.451029e-05 7.05697e-05
0001f0 48 4d 1d ba d4 64 08 38 c8 95 c2 b6 70 8e 17 b8
       -0.00060005905 3.251883e-05 -5.7990874e-06 -3.613386e-05
000200 ca a4 95 b8 5a 41 88 b7 13 0f c3 38 77 f4 38 b8
       -7.135568e-05 -1.6242895e-05 9.3011324e-05 -4.4096694e-05
000210 2a eb 98 38 a0 a7 85 b8 73 fd d5 b8 e1 1f cf 38
       7.2917275e-05 -6.373157e-05 -0.0001020384 9.876467e-05
000220 25 2f ae 38 92 2f 61 38 50 4c c7 b8 7e 4a 92 38
       8.305748e-05 5.3688484e-05 -9.503274e-05 6.975698e-05
000230 26 a5 40 39 45 c7 c8 b8 0d 34 fa b9 59 d6 84 39
       0.0001837207 -9.57386e-05 -0.00047722497 0.00025336703
000240 80 52 14 38 29 74 59 b9 91 64 d3 38 fe 98 f9 b8
       3.5362784e-05 -0.00020738006 0.00010079996 -0.00011901742
000250 28 db 93 38 00 0b 21 39 7c 06 6b 38 4c 73 94 38
       7.050327e-05 0.00015358254 5.6034405e-05 7.078666e-05
000260 44 47 30 b9 a8 78 f1 38 da 95 0b b8 ef 8a 12 38
       -0.00016811216 0.000115142495 -3.3279743e-05 3.4938505e-05
000270 04 c1 35 38 94 e9 4f 38 9e 51 b2 b8 64 3f 1d 38
       4.3333523e-05 4.9570182e-05 -8.502904e-05 3.7490754e-05
000280 fe 80 8a b9 7c 51 db b8 9e d4 1f 38 00 6d 64 b6
       -0.00026417518 -0.000104579114 3.810657e-05 -3.4038094e-06
000290 ec 4b 06 b7 f3 e5 8d b7 7b cb 5e 38 1b 6c c8 b8
       -8.004699e-06 -1.6915588e-05 5.311843e-05 -9.5568794e-05
0002a0 1b c4 50 38 9b 30 5d 38 24 a1 73 b8 62 b7 55 39
       4.9773702e-05 5.2735773e-05 -5.808579e-05 0.00020381578
0002b0 ba b4 09 39 73 2f c3 b8 bd 2d 37 b8 ef e2 3a b7
       0.00013132664 -9.307163e-05 -4.3673197e-05 -1.1139301e-05
0002c0 f8 40 d0 38 83 83 06 38 67 43 4d 38 63 08 f1 38
       9.930314e-05 3.207057e-05 4.8938582e-05 0.00011493338
0002d0 7c 3b 30 38 c0 7a 9c 36 9c eb 86 38 d0 62 9d b7
       4.201707e-05 4.6634523e-06 6.4335036e-05 -1.8761872e-05
0002e0 9c 0a 9d 39 db 47 90 b9 d0 24 15 b9 7c a2 8c b5
       0.00029953278 -0.00027519357 -0.00014223461 -1.0478102e-06
0002f0 ea ed 80 b7 00 59 e7 37 f6 10 8e 38 d8 b5 0f b8
       -1.5369576e-05 2.757879e-05 6.774247e-05 -3.4263212e-05
000300 de 45 c6 b8 60 b8 cb 37 48 19 e7 b8 86 7f fc b8
       -9.4543895e-05 2.4285342e-05 -0.00011019647 -0.000120400495
000310 94 4d 4c b8 70 0f 98 b7 78 c9 d8 37 0f ef 03 39
       -4.870964e-05 -1.8127e-05 2.5843023e-05 0.0001258219
000320 b3 64 20 39 d6 49 24 38 c3 16 23 b8 3c 92 32 38
       0.00015296302 3.9169412e-05 -3.8883427e-05 4.25747e-05
000330 2a 3d f6 b7 78 ab 22 b7 20 19 96 35 23 25 7c b8
       -2.9353967e-05 -9.695876e-06 1.1183183e-06 -6.011607e-05
000340 3f 1d 0e b8 d4 c9 ea b7 7e 5c ec b8 ac de e1 38
       -3.3882676e-05 -2.7988957e-05 -0.00011270585 0.00010770312
000350 8c ef b2 b7 d2 26 25 39 80 a4 8c b6 72 df cc 38
       -2.1330801e-05 0.00015750088 -4.1914755e-06 9.769098e-05
000360 80 7f 26 b4 10 92 fe 37 43 bb 98 b7 63 be 0f 39
       -1.5506339e-07 3.0347175e-05 -1.8207013e-05 0.00013708467
000370 0c d6 9c 37 b7 2f 9b b8 2e 63 87 b7 dc ea c2 38
       1.8696323e-05 -7.3998635e-05 -1.6139438e-05 9.294387e-05
000380 94 ff b8 38 c4 6c 30 b9 20 43 4d b7 44 be 06 b9
       8.821409e-05 -0.00016825186 -1.2234581e-05 -0.00012850115
000390 20 bb 14 36 ac 44 16 37 d8 64 92 b7 98 88 7a b7
       2.216264e-06 8.956686e-06 -1.7451515e-05 -1.4932964e-05
0003a0 24 9f 3e b8 66 bb 14 b9 a6 4c 15 39 40 64 0e b7
       -4.544774e-05 -0.00014184191 0.00014238301 -8.487201e-06
0003b0 5e 43 4b b8 7f 1e 36 b9 c0 c3 ab 36 fc f3 34 39
       -4.8461712e-05 -0.00017368233 5.1189854e-06 0.00017257029
0003c0 94 d4 d3 b8 86 28 0d 38 17 c6 f4 37 30 c8 01 b6
       -0.0001010086 3.365476e-05 2.917931e-05 -1.9339022e-06
0003d0 00 53 9e b6 2c 26 96 39 8c 9c f2 38 9c 36 5a b8
       -4.7184294e-06 0.0002863867 0.00011568618 -5.202611e-05
0003e0 96 a7 d8 b7 5c cf ca b8 d4 94 af 38 7c 90 0a b9
       -2.5827245e-05 -9.670734e-05 8.372372e-05 -0.0001321453
0003f0 10 71 46 39 9f 03 2d b9 98 04 f7 b7 77 43 ba b8
       0.0001892487 -0.00016499915 -2.9446834e-05 -8.8817374e-05
