MLagents_test1/results/CarAgent_rl+im_2/CarAgent/CarAgent-3098133.onnx (onnx, 48558 bytes, 9 tensors)

network_body.observation_encoder.processors.0.normalizer.running_mean f4 [35]
00000000: 0000 0000 0ccc 883e b8be 583d f70d 2e3f
00000010: ce60 4a3f 0000 0000 f7d3 f73e 7127 2b3e
00000020: 7098 b23e 6ce0 283f 0000 0000 8a83 043f
00000030: 0568 263e 1ac5 a33e e45a 2a3f 0000 0000
00000040: 19e3 323f f3ac 633e cd8d a13d d961 e53e
00000050: 0000 0000 86a3 303f 790e 673e c8c6 ac3d
00000060: 27ab e83e 0000 0000 0d9b 383f 1626 6a3e
00000070: 16b9 4d3d 591a be3e 0000 0000 31c4 3c3f
00000080: ab3c 6d3e d296 fd3c 5bb0 bd3e
0.0 0.26718175 0.05291626 0.6799006 0.7905396 0.0 0.48403904 0.16714264
0.34881926 0.6596744 0.0 0.5176321 0.16250618 0.31986314 0.6654494 0.0
0.69877774 0.22233944 0.078883745 0.44801214 0.0 0.68999517 0.22564115 0.08436352
0.4544308 0.0 0.7211159 0.22866091 0.05022534 0.37129477 0.0 0.73736864
0.23167674 0.030955706 0.3704861

network_body.observation_encoder.processors.1.normalizer.running_mean f4 [4]
00000000: f3f6 563f ebde 5342 a8d0 6a3f d3f7 2244
0.83970565 52.967693 0.91724634 651.87225

network_body._body_endoder.seq_layers.0.weight f4 [256, 39]
00000000: 0607 273e 231b 27be 1209 b0bd a3f6 593d
00000010: 29f6 35bd 1720 003e 0e30 0a3e 9e3b 2ebc
00000020: 85ce a43e 23c5 833d 51d1 8f3e 2bc3 423e
00000030: 3d08 a4bd 0575 28be de71 5fbc b36c 24be
00000040: 6b59 ae3d 0093 773e 4328 adbe b5dc b83c
00000050: f8cd c53d 142e 673e 95a7 a9bd a3eb 7a3d
00000060: 138e 82be 8ab0 a33d 62e0 1cbc 4149 b73d
00000070: ef10 823e 3cf4 18be 2ea5 bcbc 81ee ca3d
00000080: 0303 54bc 9e3e 663e 02e7 a73e e73a 08be
00000090: f9cf bd3c 230a 6dbd 5d50 3dbd 8d76 a33d
000000a0: b9a4 4f3e 8604 5ebe 1e50 bdbe 24e2 483e
000000b0: 6436 11be b927 36be eeac 47bc 264b ca3b
000000c0: d7b9 b33d 5e0e 10bd 6e13 4d3d d2dc 8bbd
000000d0: a841 bbbe d917 1bbe 8df4 e93c 651d c13d
000000e0: ae83 45be d303 0abc 491a 8ebc ed46 963d
000000f0: 780b 18bd f3ec 65bd 26d0 d2bd 50cc 843e
00000100: 39b4 463e bd46 a3be 1842 3d3e be96 a83d
00000110: d254 613d 5fcc 1a3c b12d f13c 7992 013c
00000120: 009a 083e d412 413e aad2 ae3c 3414 41be
00000130: 79f4 933e b1d5 1f3e 169c 943d c51b d73d
00000140: da95 d3be a759 683e 6ee8 3abd 1fd3 22be
00000150: 5310 0b3e 8a53 88bd c398 b73e 7088 903e
00000160: 425d 40bd 01d5 34be 3c33 71be 1523 093e
00000170: cd82 c03d 20a3 e43d e228 f6bc 375f 783e
00000180: f7ef 883d 0273 00bd 6452 8e3e 2373 21be
00000190: f8b0 353c 4c77 f8bc 5afd 6dbd 4b96 a2bd
000001a0: 3655 0a3e dec6 46be 5527 2a3d 4cc6 13be
000001b0: 3322 183e 3988 c03e 39fe 31be d147 81bd
000001c0: b409 503e d287 48be ec51 163e 2147 653d
000001d0: 0559 613e fcbd 4e3d b0b0 973e e409 113e
000001e0: 0570 92be edb5 54be dd61 cfbd 77bc 5fbe
000001f0: f3f7 22be 6cac c0bd dc6c 873c 2cbd e13d
00000200: 0b6f 503d bd6c 073e aa15 6e3e 21bf bebe
00000210: 924f 763e 92a1 8cbd 606e b1bd 6b66 b13d
00000220: 77fe cabe b394 913e 50ad 023e 0cbd ed3d
00000230: 775e 05be fed2 0cbd 0768 6cbe 677b 1a3e
00000240: 3e9b 2a3e 8f5c dfba 6e90 cdbd 8df3 893e
00000250: 8796 94bb e754 35bd fb16 76bd 086b 0fbe
00000260: 9337 98be c84b db3c 11b9 a5bc 100f 0d3d
00000270: f3b7 b1bd f2bd 213d 9c67 5abd 8582 49bc
00000280: d9c9 643e b1e4 523c 98fe bf3e f53b 123e
00000290: eb14 663e bc4b a2be 7b0b 18be 8756 ccbd
000002a0: 93c7 163e eaa2 5ebe 2d4e 2cbd 548a 893d
000002b0: 2e3c 5e3e 1239 923d aa51 9ebe e3a5 403d
000002c0: 7ed0 963d a1ab 263e 98a1 0f3d 7854 dbbc
000002d0: 298e 16be 4a00 2e3e 9942 4e3c 5ffc 733e
000002e0: cd99 233e ec6b 183e 5dca 2bbe ecda a5bd
000002f0: 7f7b f0bd 2d9a babc d9e4 a0bd 15cc 20bd
00000300: 7908 3f3e 9961 81be c94f 893d 7187 4cbe
00000310: 58ef 203e d6ec 98bd 41bd 91be ec22 29bd
00000320: 80d9 453d b927 cb3d 0888 80be efab d33d
00000330: c5df 00be 2f68 43be 4f6f 6c3e 4211 0cbe
00000340: c9a0 7e3d 5a2a 2cbe 02f5 39be d024 16be
00000350: 4476 d63b 462d c3bd dfd0 0e3e b0ca 9a3c
00000360: b548 5abc 9ba1 ff3d 74d9 08ba 708d a23d
00000370: f9c8 29be ebc4 8b3d 6034 4dbd 452a b33d
00000380: 2152 e73d 6a0e b3bd fd16 203e f411 3cbd
00000390: 3de7 cebb c1b1 4f3e b619 cfbe 8562 03bd
000003a0: 2bf5 ebbd c942 aa3b 83a2 0f3d 7131 f4bc
000003b0: 984a a1be 5d1d 8dbe 7bad 493d d9ad a53e
000003c0: f51f 4dbd 91dc 963e c7f0 163e a56c f2bd
000003d0: f11a b9bd 0921 86bd 3c53 56be 6e39 073e
000003e0: 5a57 093d 5e30 67bd 757b 3f3e 4c03 243e
000003f0: 9b7e a0bd 7ab3 06be 85a9 08be 523a d83c
0.16311273 -0.16318946 -0.0859548 0.053213727 -0.04442421 0.12512241 0.13494894 -0.010634331
0.32188812 0.06434085 0.28089383 0.19019763 -0.08009384 -0.1645089 -0.013637988 -0.1605709
0.08513149 0.2417717 -0.3381978 0.022566179 0.09658426 0.22576171 -0.08283917 0.061259877
-0.2549902 0.079926565 -0.009574981 0.08949519 0.25403544 -0.14936918 -0.023027983 0.09908772
-0.012940171 0.22484824 0.32793432 -0.1330372 0.023170458 -0.057870995 -0.04621922 0.07981596
0.2027768 -0.21681413 -0.36975187 0.19617516 -0.14180905 -0.1778859 -0.012187226 0.006173509
0.087756805 -0.03516995 0.050067358 -0.068292275 -0.3657353 -0.15145816 0.028558994 0.09429435
-0.19288513 -0.008423763 -0.017346518 0.07337747 -0.037120312 -0.056134176 -0.102936074 0.25937128
0.19404687 -0.31889907 0.18482244 0.08231877 0.05501253 0.00944814 0.029440733 0.007908457
0.13339996 0.18854839 0.021340687 -0.18855363 0.28897455 0.1560886 0.072563335 0.105033435
-0.41325265 0.2269045 -0.04563182 -0.15900849 0.13580446 -0.06656559 0.35858735 0.28229094
-0.046963938 -0.1765938 -0.235547 0.13392289 0.09399948 0.11163926 -0.030048791 0.24255072
0.06686395 -0.03135968 0.27797234 -0.15766577 0.011089556 -0.030330323 -0.058102943 -0.07938822
0.13509068 -0.194118 0.041541416 -0.14431113 0.14856796 0.3760393 -0.17382134 -0.06312526
0.20316201 -0.19583061 0.14679688 0.055976037 0.22006615 0.050474152 0.2962699 0.14163929
-0.2860109 -0.20772524 -0.10126088 -0.21849237 -0.15914898 -0.09407887 0.0165314 0.1102241
0.05088715 0.13225074 0.23250452 -0.37255195 0.24053791 -0.068667546 -0.086636305 0.08662113
-0.39647266 0.2843376 0.12761426 0.116083235 -0.13024317 -0.034380905 -0.23086558 0.15086137
0.16660783 -0.0017041134 -0.100373134 0.26943627 -0.004534546 -0.044270422 -0.06008051 -0.14005673
-0.297299 0.026769534 -0.020229848 0.034438193 -0.08677664 0.039487787 -0.053321466 -0.012299185
0.22342624 0.012871907 0.37498927 0.14280684 0.22468917 -0.31698406 -0.1484813 -0.09977441
0.14724569 -0.21741834 -0.04206674 0.06715837 0.21702644 0.071397915 -0.3092168 0.047033202
0.073639855 0.16276409 0.035066217 -0.026773676 -0.14702667 0.16992298 0.01258912 0.2382674
0.15976639 0.14884919 -0.16776414 -0.08098397 -0.11742305 -0.022778595 -0.07856149 -0.039257128
0.18655576 -0.25269774 0.06704671 -0.19973542 0.15716302 -0.07467048 -0.28464702 -0.04129307
0.048303127 0.09919686 -0.25103784 0.10335528 -0.12585361 -0.19082712 0.23089336 -0.13678458
0.062165055 -0.16813031 -0.1815987 -0.1466248 0.00654486 -0.095301196 0.13946865 0.018895477
-0.013322999 0.12481996 -0.00052203913 0.07937133 -0.16580571 0.068246685 -0.050098777 0.08748297
0.11294962 -0.08742984 0.1563377 -0.04591556 -0.006314187 0.20282651 -0.40449303 -0.032076377
-0.115213715 0.0051959497 0.035067093 -0.029808732 -0.31502223 -0.27561465 0.04923771 0.32359198
-0.050079305 0.29465154 0.14740287 -0.118371285 -0.09038342 -0.0654927 -0.20930189 0.13205501
0.03353057 -0.05644261 0.18699439 0.16016883 -0.07836648 -0.13154402 -0.13345917 0.026394997

network_body._body_endoder.seq_layers.0.bias f4 [256]
00000000: 760d 3e3c 23eb e4bc c00a 0c3d 49b3 bebd
00000010: 6ec9 cebd f5d3 b0bc 2806 293d 31f9 d83d
00000020: c637 e0bd de3e 7cbd 94e7 6abd 41b5 3ebd
00000030: 1c61 8ebd 36fe 5b3c 6e22 cc3d dcd3 303d
00000040: 856f 6b3d 9faf 93bd f4f0 80bd 3a95 bebb
00000050: e713 77bd 1498 853d 847f 1dbd d27a c8bd
00000060: fb53 1fbd c1b5 ddbc c813 5e3d f72f 713c
00000070: f41f aabd 338d d73d 2831 d0bc 1fd7 d83d
00000080: cd53 e0bc 22d9 d13c 6711 c6bd fd36 47bc
00000090: d55c 78bd 9985 bfbc 2c40 693d b11d d4bd
000000a0: 904c eb3c 88d2 bf3c 00fd 6bbc 35df 7cbd
000000b0: b663 39bd bc08 c13d e348 aa3d 0f55 90bd
000000c0: 7d17 9cbc 8d75 293d b9a0 44bc 8457 ccbc
000000d0: 9ffa 7ebd a314 013d 71cc 46be 4199 88bd
000000e0: d631 37bb a9a5 3bbc c75d 01bc 3e68 e43c
000000f0: 53cb 33be b06e 353c b5be 133b bb23 a43d
00000100: b4b0 7fbd 241c cabc b8a6 b7bd 4470 20be
00000110: c72e 8bbd 2979 8d3d 1bcf 5fbd 5d04 923d
00000120: c8d2 03be 4e0d 04be f3b0 abbc 7100 9abc
00000130: 0164 c3bd 37de 9e3d b2ae 873b e23f b0bd
00000140: 3fa4 f3bc bb5a 523d 3189 b2ba 61e5 203d
00000150: 0345 003c 0d49 713d 3f31 4cbd 04de d43d
00000160: d6f4 cebc f64a f9bd a8f1 47bc 7a56 56bd
00000170: 5e55 a1bd f518 edbc 5a0a 9bbd 9ec5 393a
00000180: 5ec2 c83d 5e18 223c 59d1 a5bd 5e7d ba3d
00000190: 2abd 98bd 5401 1fbd e5d1 5d3c 534b d2bc
000001a0: 348b e4bd 2a7f bc3d f208 bbbc e1ac d9bc
000001b0: a6eb d93d 7968 c3bd 76b0 e33d 0f6f 6cbd
000001c0: 4c7d 653d 50fd 213d e5a3 273d 8842 74bd
000001d0: 1d3e 433d d476 493d 486d a43d 72ff 9ebd
000001e0: f6e7 0cbd eb19 00be 9c8e a2bb 6fca 1b3d
000001f0: 0c13 15be 6125 f73a b4f6 14bd ef52 b93a
00000200: 3093 e2bd e70c e6bb 8d2b 073d 63b1 abbd
00000210: c91b 70bd 1d1f 863c 2ee7 43bd 4e5f 963d
00000220: 4dd8 cd3c fb3c f23d 0fcc 86bd 0901 043d
00000230: bc01 3ebc 3d15 f73b 139b dcbb c1d6 083d
00000240: 2d93 b03a fb83 f0bc 6ce5 543c 2165 dcbd
00000250: afaa 623d 4870 f63d b6b5 1b3d 5048 333b
00000260: 4787 653d fdad a43c 323d dabd ee5a 27be
00000270: 4b38 c03d 2764 5cbd 8e95 7abd dd45 913c
00000280: 2ed1 66bd 8403 0dbc f9d1 b1bd addf 233c
00000290: 2adc 583d 3ff4 223d fd6e 503d a904 3a3d
000002a0: 1927 983d b447 90bc 39ab 4a3c d7db e23d
000002b0: 4c44 be3d 7590 11be 93c0 9cbc 23e1 b9ba
000002c0: 6125 963d 3a38 923d 78d6 d03c c466 a33d
000002d0: 797b 2ebd d2f4 40be 5e3e f1bd 8200 e5bd
000002e0: ad44 653e 2f0f d7bd cd21 43bd cf1f da3c
000002f0: 9877 413d 833f acbd 3783 14bc 3966 1abe
00000300: 975e 11be abb2 80bd 6b04 38bd 1c75 51bd
00000310: 4fd7 933d e5ce 8bbc fd85 69bd 9e5f c13d
00000320: a2a3 be3d def0 ecbb f2dd ea3c aeab 41bd
00000330: 8678 10bd 1d5a 0ebe 769d 043b 4e11 a83b
00000340: aca6 39bd 2b75 e33c 9792 8e3b baf8 b73d
00000350: be9e 153d 365d 27bd 1c30 e23c a6d6 fc3c
00000360: ae73 fe3b bea4 aebd f8fe af3c 657e 163e
00000370: 0496 67bd 35be 79bb b21c 3138 9135 c1bd
00000380: c4a5 1b3d d85c dabd 131e 6cbd 6726 8b3c
00000390: 3da2 a03d 5698 e5bc 1675 d3bc 0d9b d5bc
000003a0: 5eae d73d cc8e 57bd 47e3 3a3c 04cd 03bd
000003b0: cc49 8f3d 853d a63d 5214 823d dfcb 24bb
000003c0: ed8b 423c 6208 9fbc c4ea 243c 04fd 27bd
000003d0: 4e10 183d d4b9 4cbc d348 25be 183c e5bc
000003e0: a495 d0bd ca8c b7bd dea3 163c 822d 903d
000003f0: dbab 51bb a51e c33c 0c75 85bd 3fe5 13bd
0.011599889 -0.027944153 0.03418994 -0.0931154 -0.100970134 -0.021585444 0.041265637 0.105944045
-0.10948138 -0.061583392 -0.057349756 -0.046559576 -0.06952116 0.013427308 0.099675044 0.043170795
0.0574794 -0.072112314 -0.06295958 -0.005816129 -0.060321715 0.06523147 -0.038451687 -0.09789051
-0.03889845 -0.027064206 0.054218084 0.014720908 -0.08306876 0.105249785 -0.025414065 0.10587906
-0.02738371 0.025616232 -0.09671288 -0.012159106 -0.060635407 -0.023379134 0.056945965 -0.10357226
0.028723031 0.023415819 -0.014403582 -0.061736304 -0.045261107 0.09425494 0.08314683 -0.07047474
-0.019054169 0.04137187 -0.01200121 -0.024944074 -0.06225073 0.03151382 -0.19413926 -0.06669856
-0.0027953289 -0.011453071 -0.007895893 0.027881738 -0.17558031 0.011073753 0.002254409 0.080146275
-0.062424377 -0.024671622 -0.08967346 -0.15667826 -0.067960314 0.06907875 -0.05464087 0.071297385
-0.12873375 -0.128957 -0.0209584 -0.018799039 -0.095405586 0.07757228 0.0041406984 -0.08605935
-0.029741405 0.05135606 -0.0013621208 0.039281253 0.007828954 0.058907557 -0.049851652 0.103939086
-0.025263231 -0.12172501 -0.012203611 -0.052328564 -0.078776106 -0.028942565 -0.07570334 0.0007086637
0.098026976 0.009893505 -0.080965705 0.09105943 -0.07457955 -0.038819626 0.013538812 -0.025670683
-0.111593634 0.09203942 -0.022831414 -0.026571693 0.106406495 -0.09541411 0.11117642 -0.0577231
0.056027696 0.03954822 0.040927786 -0.05963376 0.047666658 0.04918559 0.08028656 -0.07763566
-0.034400903 -0.12509887 -0.004960848 0.038034853 -0.14558047 0.0018855744 -0.036368087 0.0014139096
-0.1106323 -0.007020581 0.033000518 -0.08383443 -0.058620248 0.016372258 -0.047827892 0.07342397
0.025127554 0.11828037 -0.0658189 0.03222755 -0.011597093 0.0075403736 -0.0067323535 0.03340793
0.0013471596 -0.029359808 0.012994152 -0.10761476 0.055338558 0.12033135 0.03801509 0.0027356334
0.056037214 0.020102495 -0.10656203 -0.1634328 0.09385737 -0.05380645 -0.061177783 0.017733509
-0.056351833 -0.008606795 -0.08682627 0.010002059 0.05294434 0.039783712 0.050887097 0.0454146
0.07429332 -0.017612316 0.012369924 0.110770874 0.0929037 -0.14215262 -0.019134795 -0.0014181476
0.07331348 0.071396306 0.025492892 0.07978585 -0.04259822 -0.18843392 -0.11779474 -0.111817375
0.22389479 -0.10500943 -0.047639657 0.026626496 0.047233194 -0.084105514 -0.009064487 -0.15078057
-0.1419624 -0.06284078 -0.04492609 -0.051137075 0.07218801 -0.017066428 -0.057012547 0.09442066
0.09308554 -0.007230862 0.028670285 -0.047282867 -0.03527119 -0.13901563 0.0020235456 0.005129016
-0.045324966 0.027765831 0.004350971 0.08982988 0.03652834 -0.040860377 0.027610831 0.030864071
0.007765255 -0.08527516 0.021483883 0.14696653 -0.05653955 -0.0038107757 4.2226813e-05 -0.09434045
0.037999883 -0.1066224 -0.05764587 0.016986085 0.078434445 -0.028026741 -0.025812667 -0.02607491
0.10531305 -0.052626416 0.011406726 -0.03217794 0.069964975 0.08117203 0.06351532 -0.002514593
0.011874181 -0.019413177 0.010065738 -0.04101278 0.037124924 -0.012495477 -0.16141061 -0.027982756
-0.10184792 -0.089624 0.009194342 0.0703993 -0.0031993303 0.023818323 -0.065164655 -0.036107298

action_model._continuous_distribution.log_sigma f4 [1, 2]
00000000: bd5b 3bbf a382 9dbf
-0.73186857 -1.2305492

action_model._continuous_distribution.mu.weight f4 [2, 256]
00000000: 460b 14bc e704 3f3e 18b7 64bd 8f61 b73d
00000010: 4170 18be 3730 2a3e 7abc a03d f046 013c
00000020: 7311 75bc 4f2c e83d 416b 083d a5b9 2cbe
00000030: 0bfd 563d fb46 67bb 4336 1a3e 4a66 37bd
00000040: 4a7f cf3d 2a50 a3be 3fd9 e6bd a399 21be
00000050: c107 aabc 05f7 56bc e0bf aa3d 1969 863d
00000060: ce8a d23d fde8 e43d 4906 9d3c 0ad1 5d3e
00000070: 6af4 653d 8e87 f73d bf79 473e 4ccb f73d
00000080: 8433 c7bd 6b1e 9d3c c287 c3bd c0ac 6ab9
00000090: 6b89 f8bd 1e0e 3c3e 16f5 8c3d c0c2 6f3d
000000a0: 82df 973e 91c4 8a3d 6866 06bb 327b e2bd
000000b0: 4a5c ee3d bcc4 c23d e4d4 7a3d 5aa0 b33d
000000c0: f07c c1bc 2c1e 42bc 912a 043e 8af8 b0bc
000000d0: d090 9abd de05 c13d 5ae0 a63d fe83 3f3d
000000e0: d6ed 9f3c 8e0f 833e 73b3 123e 32e3 383d
000000f0: d1e9 0f3e 3d12 323b 89ca 0cbd 69b8 c1bb
00000100: 74eb 2e3e b6a2 ae3d 2edd 083e e4a8 863d
00000110: 470d 02be 692f dd3d d1a6 7c3d 1ca4 653d
00000120: 7ed3 7f3d ec92 853d 495b f9bd 6f76 053e
00000130: 9787 883d abbd 1cbd 7efe d53d e440 4bbe
00000140: 7fca 8bbd 2f41 01bd 378d 943d f439 2c3e
00000150: 1c5a 0f3e ec1b 8b3d e506 11be ac58 bb3d
00000160: 6124 a13d 1d45 d23d 95b8 2dbe 60ab 5cbe
00000170: 9067 a23d 965d c93d f63d cb3d a3f5 8abc
00000180: 0d12 f33d fdf0 703b 9e36 0e3c d1e3 c33d
00000190: c836 d03d 8358 02be 6362 34bc 3ed1 223e
000001a0: 9311 bd3d 6c36 813d b7bf 24be 6d22 ed3a
000001b0: c922 103e 3858 bc3d 9d70 0d3e 1d25 e1bc
000001c0: ba93 3b3d e55e 98bc 39e4 f83c 4e1e e23d
000001d0: 668f 873d 8185 1e3d 0088 853c e1db 973d
000001e0: 658d 173b 526b 863d 863b 3dbd 1f21 873b
000001f0: d5a0 043e fc52 aa3c 5d2c 0fbd 03e2 68bb
00000200: 5bf1 8b3d 3d2e 2bbd fea4 7a3d d8d4 e5bd
00000210: a7c5 753e 92f2 453e 0d00 fe3d fbc3 123e
00000220: f40f c2bc 90c2 143e 7d29 013e 9d19 dcbc
00000230: 8306 49bd 2c4d e9bc 5f1d 2d3e 0345 fdbd
00000240: c6bb f23d f925 593e 54d4 6a3d 58d2 b23d
00000250: 3925 7d3d 4063 083e 0073 603c 5c7c 79bd
00000260: f8ca c93d 239a 8a3c 23af 673d db60 4e3d
00000270: b81c d63d 6be0 f73d a4fe f1bd cf3d 5c3d
00000280: 1bca 033e 4005 683e acda 6b3d a3ef 11be
00000290: cd57 a93a 673b 0fbd 7d92 b93c 481e 933e
000002a0: b045 b03d 8241 32bc 8480 0bbc faca fe3d
000002b0: 4b0a af3d c088 963d 61f4 adbd b6a1 6dbc
000002c0: a3c6 ac3d 6735 d8bc d4d6 6aba c8d3 923d
000002d0: 1ba5 a53d 2a0d bf3d eb17 943d 3b21 1c3d
000002e0: 64bf 84be b7a2 1b3d c167 a83d a9b4 43bd
000002f0: 53c0 ccbb 3910 6a3d 2d46 d9bc 4978 e73d
00000300: 407a 553d 9ad5 563e 95a5 033e e4c3 cd3d
00000310: a524 023c 67ff 573e 0c7f c13d 83ee d13d
00000320: 7fee a23d 6c40 c63c a8b3 f8bc 6c24 d93d
00000330: 35f0 a2bd c10a 6a3d 580d f43c c203 0b3c
00000340: e963 983d 099c ebbc 49cb adbd 1981 ef3d
00000350: 7201 ecbc 4b87 62be 73aa 453d 17e2 32bd
00000360: 7dfc ce3c 072b 55be a7a8 e7bb 4432 fc3d
00000370: 4b4e 27bd 1fba d73b 152f c3bb 01e3 af3d
00000380: 5e02 303e 9093 7b3d 1e64 9dbe e6f1 1b3d
00000390: 0fb6 e63c a17b 70bd 5e4c 153e e8ba 04be
000003a0: 970c 933d 115b ac3d d0ab 673d ce6c 8d3a
000003b0: 77a7 a7bd 43e3 243a 3042 cc3d bb8c 2b3d
000003c0: ebb6 733e f056 d43b 8cfe 78bc 8735 3c3d
000003d0: 4517 e3bc 72cf 933e 7c6a 413d 2b6e 0b3e
000003e0: f08e f63a 4b10 993d 1fc7 b33e 545e 823c
000003f0: 8b54 a43e ea7b dc3d 4ce7 c6bd 6031 c63d
-0.009035891 0.18654214 -0.055838674 0.08954155 -0.14886571 0.16619955 0.07848449 0.007890448
-0.0149577735 0.11336576 0.03330541 -0.16867693 0.052487414 -0.003529011 0.15059762 -0.044775285
0.101317 -0.31897098 -0.11271905 -0.15781264 -0.02075565 -0.0131204175 0.083373785 0.065630145
0.10280381 0.111772515 0.019168036 0.21661773 0.056141295 0.12086402 0.19480036 0.12099323
-0.09726623 0.019179543 -0.09547378 -0.00022380333 -0.121355854 0.1836476 0.06882684 0.058535337
0.2966271 0.06775773 -0.0020507816 -0.11058654 0.116386965 0.0951018 0.061238185 0.08770819
-0.023619145 -0.011848014 0.12906863 -0.021602888 -0.07547152 0.09424947 0.081482604 0.046756737
0.019522589 0.25597805 0.14326267 0.045138545 0.14054038 0.0027171515 -0.03437284 -0.005911876
0.17082006 0.085271284 0.13365623 0.06575182 -0.12700377 0.108000584 0.061682526 0.05606471
0.062457554 0.06522164 -0.121756144 0.1303346 0.06666487 -0.03826682 0.10448931 -0.19848973
-0.068257324 -0.031556305 0.07253497 0.16818982 0.13999218 0.06792435 -0.14162786 0.09147772
0.07868267 0.102670886 -0.16964944 -0.2154975 0.07929909 0.09832303 0.099239275 -0.016962832
0.11868677 0.0036764734 0.008680014 0.09564937 0.10166699 -0.12729077 -0.011009785 0.15900132
0.09231868 0.06309208 -0.16088758 0.0018091925 0.1407577 0.09196514 0.1381249 -0.027483517
0.04579518 -0.018599937 0.030382263 0.110409364 0.06619148 0.038701538 0.016300201 0.074149854
0.002312505 0.065634385 -0.046199344 0.0041238214 0.12951978 0.020791523 -0.034954417 -0.0035535104
0.06833144 -0.041792143 0.061192505 -0.11222237 0.2400118 0.19330814 0.124023534 0.14332573
-0.023689248 0.14527345 0.12613483 -0.026867682 -0.049078476 -0.028479181 0.16905735 -0.123666786
0.11852221 0.21205892 0.057331398 0.08731526 0.061803076 0.13319111 0.013699293 -0.060909614
0.09853166 0.016919201 0.056563508 0.050385337 0.104546964 0.12103351 -0.11816147 0.053769883
0.12870066 0.22658253 0.05758159 -0.1425157 0.0012919843 -0.03496876 0.022652859 0.2873404
0.08607042 -0.010879876 -0.008514527 0.124410585 0.08546885 0.07350302 -0.08493877 -0.014503887
0.084363244 -0.026392652 -0.00089584035 0.071693 0.08088132 0.09328683 0.072311245 0.03811763
-0.2592727 0.037996974 0.082229145 -0.047779713 -0.006248513 0.057144377 -0.02652272 0.113022394
0.05211854 0.2097992 0.12856133 0.10047129 0.007943307 0.21093522 0.094480604 0.102505706
0.07955646 0.02420064 -0.030359104 0.1060265 -0.07955972 0.057139162 0.029791519 0.008484783
0.07440931 -0.028760927 -0.08486039 0.11694545 -0.028809283 -0.22121923 0.048258256 -0.043672647
0.02526688 -0.20817195 -0.0070696655 0.12314275 -0.04084615 0.0065834667 -0.0059565403 0.085882194
0.17188403 0.061420023 -0.30740446 0.03807249 0.028162984 -0.05871165 0.14579913 -0.12961924
0.07180136 0.08415807 0.056560338 0.0010789873 -0.08186238 0.0006289968 0.09973562 0.041882258
0.23800246 0.0064800903 -0.015197407 0.045949485 -0.027721057 0.28869206 0.047220692 0.13616244
0.0018810909 0.07473811 0.35112855 0.01591412 0.3209575 0.10765822 -0.09712085 0.09677386

action_model._continuous_distribution.mu.bias f4 [2]
00000000: 4f3d a53d f716 553d
0.08068334 0.052023854

onnx::Div_56 f4 [35]
00000000: 8e32 b839 dd8d e23e e73c 653e eeda ee3e
00000010: fc32 b93e 8e32 b839 afde ff3e 8f07 bf3e
00000020: 7a04 f43e 8009 ba3e 8e32 b839 38d7 ff3e
00000030: 61e2 bc3e 24cf ee3e 4983 b13e 8e32 b839
00000040: 84e6 ea3e 0ce6 d43e b103 8a3e e36f 913e
00000050: 8e32 b839 26cc ec3e 1504 d63e 734d 8e3e
00000060: 3010 903e 8e32 b839 899b e53e 3806 d73e
00000070: d6a6 5f3e f6b2 7a3e 8e32 b839 fa4f e13e
00000080: 8c03 d83e b05a 313e 82bf 703e
0.0003513288 0.44248858 0.22386514 0.46651405 0.3617171 0.0003513288 0.49974582 0.37310454
0.47659665 0.36335373 0.0003513288 0.49968886 0.36891463 0.4664241 0.34670475 0.0003513288
0.45878994 0.41581762 0.2695594 0.28405675 0.0003513288 0.46249503 0.4179999 0.27793464
0.2813735 0.0003513288 0.44845226 0.41996932 0.21840987 0.2448233 0.0003513288 0.4400633
0.42190206 0.17319751 0.23510554

onnx::Div_59 f4 [4]
00000000: c487 bb3e 3489 ac41 024b 7f3e 281d c744
0.36627018 21.566994 0.24930957 1592.9111
