MLagents_test1/results/CarAgent_reinforcement_4/CarAgent/CarAgent-5000406.pt (torch, 580945 bytes, 28 tensors)

discrete_act_size_vector f4 [1, 2]
00000000: 0000 8040 0000 a040
4.0 5.0

network_body._body_endoder.seq_layers.0.weight f4 [512, 40]
00000000: 2b48 b83d c91e 9cbe e2d1 273e 18e1 103d
00000010: 395a 5cbc 86af 893d 3b4e 06bc 69bb 123e
00000020: 3d45 5dbe 104d 79bb 439c 92be dc71 853e
00000030: 1ce1 083e e740 45be 3354 81bb f59b 1b3c
00000040: 5e8c 81be c1cf 66bc fb73 a73e f0e6 883b
00000050: dfc5 9ebd bc0a 69be 1f26 efbd 6f51 9c3d
00000060: ae58 553d ace3 003c 497f 8bbd ccc9 093e
00000070: 9b04 c6bd 0e4c 75be c08c 8a3c 50f3 7a3e
00000080: f39f bbbc bd42 12be eb5e 30be b366 543e
00000090: 9e42 2fbd 80f5 b4bd e862 5abd 7865 743e
000000a0: 6707 5fbe 90c1 513c d884 0dbd 0a3d 0dbf
000000b0: 4ff1 47be 7478 e4bd a0f1 a33e c3ac 81bd
000000c0: 3510 72be 64f6 f2be 95fe d1bd cb36 86bd
000000d0: cb43 903d 31ea 49be c7bc 1bbf 4db1 2abe
000000e0: b7ab 9dbe 78a6 39bd fbf9 67be 4cbc 1dbf
000000f0: e83e 513e c2c7 45bf 07ce 3abd 2ba0 e1bc
00000100: f656 a9bd 77a9 833e dd35 10bd fb07 7dbe
00000110: f706 14be 19a2 dfbe 5f50 86bd bb8b b9be
00000120: 8d0e 67be 6640 b73e 6524 95be b96c 4cbe
00000130: 4e59 23bd 01eb 5b3e 7d58 813d f2ef d9be
00000140: 6bb8 9abd 89de 8cbe 1bec 1ebe 1951 73bd
00000150: 49de cc3d c869 883d 9bd7 ea3c d797 983d
00000160: 5e87 4e3d e04b 713e 2f02 94bd abc7 283e
00000170: 31e3 383d a040 9ebd 0072 94be bb6c 743d
00000180: 2066 65be 0595 7ebc 5226 fb3d 2947 16be
00000190: 50ad 7bbe 340f f23b b407 debb b9ad 45be
000001a0: 994e adbe 8c64 d43c 8faf debe 948d 6d3d
000001b0: b40a 8a3e 25b0 c2bd df80 92bd 2c9d 31be
000001c0: b3fb 82be 3f4b 14be 85d4 3cbe 3381 833e
000001d0: 49e6 f3bd a26d f1bd 950a 2bbc 6675 14be
000001e0: ca3d a73e fb25 babe b2bb 9ebd 1ba5 f23c
000001f0: 76da b4be 98c0 e1bd b13f 1dbe 5646 0ebd
00000200: d2e2 343e 3286 8bbe e3ce 5bbb 7065 1fbf
00000210: 76c7 423c 71f7 5d3e 075b 3dbc 09ba 68bd
00000220: 3c7f 91be dcc8 95bd 5b08 e03d ebff e5bd
00000230: 9737 99bd daf0 d6bd ac96 9a3e 7032 3cbe
00000240: 5bab d1bd c0be 7d3d 8c13 54bd 0f0b 56be
00000250: dd46 84bd 72bb bebe 0daf 0fbd 6dd6 32be
00000260: 4ba9 f9ba 7c85 35bf 47c3 68be 6c28 f0bc
00000270: 8d9e 80bd b774 bd3e 245f dbba cd04 30be
00000280: 7503 edbd a954 813e c1e3 1e3e 152f 71be
00000290: 1c33 d6bc 6792 df3d ca18 70bd a067 993b
000002a0: c58b 1f3c b323 913c a6eb 623e a3a6 94be
000002b0: b1ee de3e d0f7 c23d ffc4 65be 36bf 223d
000002c0: 015c 6b3e 361a 5cbe b77f 09bd 4b69 62be
000002d0: eb7a 89bd 16c7 50be 1443 8f3d 2ac0 b03d
000002e0: f5cb 9ebb c199 28be 4fbe 15be cff4 a33c
000002f0: 018b 843e c3e8 abbe 0920 ba3d f7d0 7dbe
00000300: 7bd7 5abe 52a2 6d3e 83c0 593d b2a0 d2be
00000310: ec55 e7ba 3675 7cbe 8cff 65bc b551 8abe
00000320: 161b a9be 48d6 44be 4376 80be 1243 d9bd
00000330: 4370 adbe 282b 8c3c be71 e1be 4680 0dbe
00000340: 3dfd 93be 8734 55be 1d25 5abd 0271 f5ba
00000350: 790b ab3d bbc2 9fbe 6f6d 88be c42f 243d
00000360: 985d e4be b95b 5e3d f070 9bbe 0633 9dbe
00000370: 110d acbd 9f29 bc3c edc7 09bd 587e 95be
00000380: efe2 6fbe 2867 213e 1dda 51be 1b82 d53d
00000390: ba51 8bbe 4b35 05bf ae1c 533e 9ef8 01bf
000003a0: f1e9 90be 6a0f bc3d 1191 3bbe bab3 db3e
000003b0: c207 a33b 00a8 443e a0e3 29bd 97b8 6b3e
000003c0: 21bd a83e 4d2d da3d e486 803e 6713 6ebe
000003d0: fa6c 39bd 47a9 81bd 965a 6bbe 7a73 ab3e
000003e0: f23a ea3e 95ce 2abe 8ca0 5dbe 18a2 c83e
000003f0: a13a 7f3d 3352 cebe 92d6 53be ba23 433e
0.0899814 -0.30492237 0.16388658 0.035370916 -0.013449245 0.067229316 -0.008197363 0.14329304
-0.21608444 -0.0038040318 -0.28634843 0.2606343 0.13367122 -0.1926304 -0.003946805 0.009497632
-0.25302404 -0.014087618 0.32705674 0.0041779205 -0.07752585 -0.22758001 -0.11677193 0.0763272
0.052086525 0.007866781 -0.06811387 0.13455886 -0.09668847 -0.23954794 0.016912818 0.24506879
-0.022903418 -0.14283271 -0.17223708 0.20742302 -0.04278814 -0.08835888 -0.05331698 0.23866832
-0.21780168 0.012802497 -0.034550518 -0.55171263 -0.19525646 -0.11155787 0.32020283 -0.0633178
-0.23638995 -0.47453606 -0.10253636 -0.0655342 0.070441805 -0.19718243 -0.60834926 -0.16669197
-0.3079507 -0.045324773 -0.22653954 -0.61615443 0.20434153 -0.7725793 -0.04560664 -0.027542194
-0.082685396 0.2571523 -0.035207618 -0.24710076 -0.14455782 -0.43678358 -0.06558298 -0.36239418
-0.22564144 0.3579132 -0.2912933 -0.1996335 -0.03988009 0.21476366 0.06315706 -0.42565876
-0.07554706 -0.2751353 -0.15519755 -0.059403513 0.10003335 0.06660801 0.028667262 0.07450836
0.050422065 0.235641 -0.07226979 0.16482417 0.04513854 -0.0772717 -0.28993225 0.059674006
-0.22402239 -0.015538459 0.122631684 -0.14675583 -0.24577832 0.0073870663 -0.0067758206 -0.19304551
-0.33849028 0.02592685 -0.43493316 0.057996348 0.2696129 -0.09506253 -0.071534865 -0.17345113
-0.25582656 -0.14481829 -0.18440445 0.2568451 -0.11909158 -0.11788489 -0.010439535 -0.14497909
0.3266433 -0.36357102 -0.07750644 0.029619744 -0.35322922 -0.110230625 -0.15356328 -0.034735046
0.1766465 -0.2725082 -0.0033540062 -0.62264156 0.0118883755 0.21676423 -0.011557347 -0.056818042
-0.28417385 -0.073137015 0.10939094 -0.11230453 -0.07481306 -0.104951575 0.3019308 -0.18378615
-0.102377616 0.06194949 -0.051776454 -0.20902656 -0.064588286 -0.37252384 -0.03507905 -0.1746461
-0.0019047646 -0.70906806 -0.22730742 -0.02931615 -0.06280241 0.3700311 -0.0016736728 -0.17189331
-0.11572925 0.25259903 0.15516569 -0.23553117 -0.026147418 0.10916596 -0.05861739 0.0046815425
0.0097379135 0.017717218 0.22160205 -0.29033384 0.43541482 0.09519923 -0.2243843 0.039733134
0.22984315 -0.21494374 -0.033569064 -0.22110479 -0.06712898 -0.20388445 0.06995216 0.086304024
-0.004846091 -0.16464902 -0.14623378 0.020014195 0.25887302 -0.3357602 0.090881415 -0.24786745
-0.21371262 0.23206452 0.05316211 -0.41138226 -0.0017649508 -0.24654087 -0.014037978 -0.27015463
-0.33028477 -0.19222367 -0.25090227 -0.10608496 -0.3387471 0.017110422 -0.4403209 -0.13818464
-0.28904143 -0.20820819 -0.05325805 -0.0018725696 0.083517976 -0.31203255 -0.2664599 0.040084615
-0.44602656 0.054286692 -0.30359602 -0.3070299 -0.0840093 0.022969065 -0.03363793 -0.29197955
-0.23426412 0.15762007 -0.2049336 0.10425206 -0.2721079 -0.52034444 0.20616409 -0.50769985
-0.28303483 0.091826275 -0.18317057 0.42910558 0.00497529 0.19204712 -0.041476846 0.23019634
0.32956794 0.10653172 0.25102913 -0.23249589 -0.045269944 -0.06331115 -0.22983775 0.3348654
0.45748097 -0.16680367 -0.21643275 0.39186168 0.062311772 -0.40297088 -0.20687321 0.19056597

network_body._body_endoder.seq_layers.0.bias f4 [512]
00000000: 94e2 54bd 9598 74be 8277 02be 5d31 0bbe
00000010: 227a ae3b 2649 6ebe c453 433d e49a babc
00000020: a708 1fbd e09b 7ebe 6005 023d f2c3 74be
00000030: 4b9e e3bd e055 5cbe 906b 92bd 6609 ac3c
00000040: 2323 afbd 0b51 d53c 3581 f2bd 04cf c7bd
00000050: 276d 29be d2a9 6fbe 1df7 49bd 8c32 21be
00000060: ff86 81be 117c 08be 1bb2 a7bd 7078 ca3c
00000070: 903d 96bd f878 33be 4bde e5bd 038a b5bd
00000080: ca70 28be f7fa 79bd 4152 a8bd d43e 02be
00000090: 5826 54be e55a b1bd b773 22be 720a 2cbe
000000a0: d75d cebd b6f2 36be 2550 7dbd 18a2 41be
000000b0: 6c07 f6bd 74e6 04be 4118 80be 75f9 63bd
000000c0: aa7f 46be 1e17 4ebe 9e20 21be afa3 87bd
000000d0: 6ca6 d5bd cd90 5ebe 577b 8e3d 20b1 2ebe
000000e0: 29c7 2bbe 2819 03be 67e7 42be 6299 4bbd
000000f0: c66e 1cbe f2e5 51be 7804 b7bd 38dc 7fbd
00000100: deb5 31bd 5ebe 8a3d caf5 2c3c ac97 893b
00000110: 420b 33bd 0654 08be 06c2 1dbe 4ece 46be
00000120: c42c ad3c 6471 2fbe 5323 33be 0abf 03be
00000130: a1db 9dbc 2668 ddbc 787a 8e3d a222 0fbe
00000140: 89a5 ffbc b683 31bd ffdc 09be 71f2 f4bd
00000150: dd11 02be 5439 1dbe 19b6 8ebe 0a2e e3bd
00000160: c40d 31be 5655 b33d 2189 d5bc 3072 75be
00000170: 9bdd 8dbd d9a0 b9bd 3b7a 56bd 0a95 19be
00000180: 090c 04be 3c08 28be 2f7a b7bb fba4 9dbc
00000190: ad8f 19be 2bd6 95be c1ec 8fbe ec15 79bd
000001a0: 25c9 77be 79bf a8bd c47d 58be 1295 53bd
000001b0: 1334 7cbc e9fb 86bc d427 a8be 0d1d 76be
000001c0: dd57 1bbe 6e65 19be c804 36be 31c6 4cbe
000001d0: 11d6 e5bd 6bdf 9bbc 9b7c 92be f7b9 94bd
000001e0: ddab 0dbe 4103 55be 6cd6 4cbc 4711 713d
000001f0: 691a 30be 212b 17be 0a67 b2bd 8dd7 31be
00000200: 5dea 26be 30b9 4ebd 6a15 9abe df7c cdbd
00000210: 20b2 11bd d340 16bd a7ec 39be ff3c d4bd
00000220: ff38 e3bd d0bd 49be f808 ccbd b7e0 07be
00000230: 3a29 76be bbfc 00be 122d 4a3c 71e2 ddbc
00000240: 7ecb 0abe 2f4d dcbd f0cc 82bd ef61 d0bd
00000250: 6f47 6abe 4d51 96bd cbca 8dbd 65e0 8cbe
00000260: c1c9 85bd b9df 0b3d 714b 63be cd29 8bbd
00000270: dafb babb 7252 e3bc 2cbf a1bc a215 b7bd
00000280: a3c5 7dbe d7ca 60be 3113 4dbd 7d4b 4cbe
00000290: 3324 fdbd 6ab2 cabd ad61 07be 2352 f8bd
000002a0: c9e6 ebbc f9a9 863c 9ddc 97be d8b4 8bbd
000002b0: 4821 24be ca99 0dbe 4221 5bbd 487d c8bd
000002c0: afee 7abe f98e 12be 9282 22bd da3f 84be
000002d0: 6df0 1e3d 5886 5ebe dd43 65be 0b48 5abe
000002e0: f566 08be c7bc f6bd 8a75 44bd d0a2 68be
000002f0: dc36 0ebe ebc0 a0be b1b3 54be 871c be3c
00000300: a269 b4bd f7dc 4dbd 75a4 08be 3b51 28be
00000310: 5154 95be e7a0 48be f2d5 d2bb ec5a 9dbd
00000320: cdf3 6f3d 3fbf cebb 709e 8cbe 4494 8dbe
00000330: 2ffa 09bd e73f 8d3d 3322 bebd 8b3f 91be
00000340: d477 60be efb2 26bd 1eea 9ebd f5a9 45be
00000350: 1614 32bd 4c00 16be 368b 86bd 11ea 84bb
00000360: d0a4 43be 63ff bebd e22b dcbb 7169 4dbe
00000370: 5919 47be a642 f7bd 9413 0fbe f646 7dbe
00000380: b59f 69be 928c 04ba 47c6 53be c68c 33be
00000390: f9bd 71be 1260 e7bc 1f3d 4d3a 3ebb 2cbe
000003a0: e27f e0bd 7558 15be 0cd5 fdbd c1c4 07be
000003b0: 4489 f7bd da09 11be e4cd 7fbe 8825 b6bd
000003c0: b222 f3bd 2120 a4be df33 59be 212e 14be
000003d0: 87bd 84be a679 d9bd 483f 99bd 2519 43be
000003e0: cdd3 35bd 46ed 62bd cb3c f1bd 9411 d3bd
000003f0: 0df1 95bd 17cb 13be fbc3 15be d1e1 1abe
-0.051973894 -0.2388633 -0.12740901 -0.1359305 0.005324618 -0.23270091 0.047687307 -0.022778936
-0.03882661 -0.24864149 0.031743407 -0.23902872 -0.11114176 -0.21517134 -0.07149422 0.021000575
-0.08551624 0.02603962 -0.118410505 -0.09756282 -0.16545545 -0.23404625 -0.04930793 -0.15741938
-0.25298306 -0.13328578 -0.08188268 0.024715632 -0.07335961 -0.17526615 -0.1122404 -0.08864214
-0.16449276 -0.061030354 -0.08218814 -0.1271928 -0.20717752 -0.08659915 -0.15864454 -0.1680086
-0.10076492 -0.17866024 -0.06184401 -0.1890949 -0.12013134 -0.12978536 -0.25018504 -0.055657823
-0.19384637 -0.20126006 -0.15735099 -0.06623017 -0.10432133 -0.21734925 0.06957119 -0.17059755
-0.16775192 -0.12802565 -0.19033585 -0.049706824 -0.15276632 -0.20497873 -0.08936399 -0.062465876
-0.043386333 0.06774591 0.010556648 0.004198989 -0.04371191 -0.13313302 -0.15406045 -0.19414636
0.02113951 -0.17133099 -0.17493944 -0.12865844 -0.019269766 -0.0270272 0.06956953 -0.13978055
-0.031206863 -0.0433385 -0.1346321 -0.119603045 -0.12702127 -0.153539 -0.27873304 -0.11092766
-0.17290407 0.08756511 -0.026066365 -0.2396934 -0.069270335 -0.090638824 -0.05236266 -0.1499826
-0.12895216 -0.16409391 -0.005599282 -0.019243708 -0.14996214 -0.2926496 -0.28110316 -0.060811922
-0.24197824 -0.082396455 -0.21141726 -0.051655836 -0.015393275 -0.016477542 -0.32842886 -0.2403452
-0.15170236 -0.14980099 -0.17775261 -0.19997479 -0.112224706 -0.019027432 -0.2861069 -0.072620325
-0.13835092 -0.20802023 -0.012502294 0.058854368 -0.17197575 -0.14762546 -0.087110594 -0.17367382
-0.1630034 -0.050469577 -0.30094463 -0.10033583 -0.035570264 -0.036682915 -0.18156682 -0.103631966
-0.110948555 -0.19701314 -0.09962648 -0.13269316 -0.24039164 -0.12596409 0.012339847 -0.027085515
-0.13554189 -0.10756909 -0.06386745 -0.10174929 -0.22878812 -0.07339726 -0.06923445 -0.2751495
-0.06532622 0.034148905 -0.22196747 -0.06795082 -0.0057062926 -0.027749274 -0.019744478 -0.08939673
-0.24782424 -0.21952377 -0.05006713 -0.19950671 -0.1236042 -0.09897311 -0.13220854 -0.12125041
-0.02879657 0.016438471 -0.29660502 -0.068216026 -0.16028321 -0.13828197 -0.053498514 -0.097895205
-0.24505113 -0.14312352 -0.039675303 -0.25829965 0.038803507 -0.21730936 -0.22389169 -0.21316545
-0.13320525 -0.12047725 -0.047963656 -0.22718358 -0.13888115 -0.31397185 -0.20771672 0.023206962
-0.0880921 -0.050259557 -0.13343985 -0.16437237 -0.2916589 -0.1959263 -0.0064341957 -0.076833576
0.058582116 -0.0063094194 -0.27464628 -0.2765218 -0.03368586 0.06896954 -0.09283867 -0.28368792
-0.21920711 -0.040697988 -0.07759498 -0.19303115 -0.043476187 -0.14648551 -0.06569521 -0.004056223
-0.1910584 -0.09326055 -0.0067190984 -0.20059754 -0.19443263 -0.12073259 -0.13972312 -0.247341
-0.2281483 -0.0005056347 -0.20681106 -0.1753417 -0.23607625 -0.028244052 0.0007829237 -0.16868302
-0.10961892 -0.14584525 -0.12394151 -0.1325865 -0.12086728 -0.14163914 -0.24980885 -0.08893877
-0.11871852 -0.32055762 -0.21211194 -0.14470722 -0.25925848 -0.10618906 -0.07482773 -0.1905256
-0.044391442 -0.055402063 -0.117791735 -0.10306087 -0.073213674 -0.14432941 -0.14625542 -0.15125205

action_model._discrete_distribution.branches.0.weight f4 [4, 512]
00000000: 7382 96bc 0a44 82bc 4230 ae3c 1eba 3ebc
00000010: 7e9e 113d a7aa 943b 589b 3bbd 7635 7cbd
00000020: ade6 3e3d 664f 99b9 55a7 dc3d a526 d13b
00000030: 7b38 b0bd 68a3 8cbc 30a5 603b e4b3 3e3d
00000040: 0439 66bd f669 a83d 5fee 6cbc b450 a93c
00000050: 2f10 eabc cc70 a83d e2b4 12bd 2e5f f6bb
00000060: b279 e63b cf2b 853c 91f3 26bd ca04 efbc
00000070: 9d2b 403d 3734 baba c974 94bb ad9f 393c
00000080: 64a4 443d c045 4fbc 01a4 8cbd bba2 a6bb
00000090: ac2d abbb 17ac 013c b297 453d 5412 f43c
000000a0: a08f 07bd 9cec 69bc deb8 2dbd f841 33bd
000000b0: 5ce7 973b a85f 02bd 59b1 f63c 3871 ca3d
000000c0: e3ee 71bd 549b 87bd c215 673d f9f2 053d
000000d0: d503 60bc bdeb 183d 3bd2 3abd fc72 0bbd
000000e0: 6e4a 2b3d 539b a73b 0eae 8abc 98e5 ae3b
000000f0: f29e e93b 7934 cf3c af3b 9cbc 1762 123c
00000100: f230 2dbc d045 233d f3b5 773c 09cd 8b3d
00000110: a14b 933d d436 e23c 0162 bb3b cfbb ccbc
00000120: 5939 033d 6c76 24bd ed79 053d 382c 1b3d
00000130: 13d3 40bc 562c 7b3d e70e c83c 6151 673d
00000140: 5a09 68bd 95c5 9cbd af22 833c db9d 673d
00000150: 3d32 9c3c 65af 123d 2c57 e53c 4835 5dbc
00000160: 5648 b03c 124a 2d3d 33c2 293d eb85 13bc
00000170: 8dc8 cdba 05df d03b a940 8ebd 5db0 4ebd
00000180: 3fbf 81bc 059b 183c 3cd8 b63c 337e cfb9
00000190: a302 de39 7f84 8abd fa69 f6bc 0d92 d6bd
000001a0: a15e f13c 5ac9 693c cb84 823c 2fae 8b3c
000001b0: 11b1 9a3b 1809 533d 03d9 853c 405d 3bbd
000001c0: 52ee cbbc 874c 8d3d 8ed4 20bd 2731 553c
000001d0: a75f e2bb 414a 0abc cb81 05bb 4b31 4a3b
000001e0: 4677 c9bd 4e49 01bc 36cb 9abd efde bf3b
000001f0: b430 193a 6fcc 42bd 3691 2f3c 0007 8e3d
00000200: 66e0 4c3d 7700 37bd 4ce0 50bb 1b97 a1bc
00000210: 1439 ef3c 4fd3 533c 7360 edbc 1e5c b3bb
00000220: 2d04 c4ba 7e0e ab3c 183e 2fbd 58a3 1cbd
00000230: 978b 1e3c 2b6c 16bd e6c0 813d 020e f03b
00000240: 4b43 583d 3ce9 1b3d aa0c 8ebb 5c79 223d
00000250: 37fb 50bc b5ca ebbb fc92 b3b9 4a50 cc3c
00000260: 3d2f a8bc 3fad 073d 911d 84bd 6d73 c0bc
00000270: a48b e8bb 6d9a 6e3d 30d1 623d 7ee5 1b3d
00000280: cbfd 70bd fd4c ac3d 7659 69bc dfb7 09bd
00000290: 327b 1b3c ebb6 c9bc e69d 2a3c 4857 1ebd
000002a0: d12d 6cbd 2108 72bd a04d a4bd 7a37 6dbc
000002b0: 4997 c2bc fe8b 2ebd 3852 89bc 81f5 453b
000002c0: b530 acbd 600f febb b84f 8e3c f8a5 38bc
000002d0: a404 3a3c 6569 87bc 9d02 0b3d de99 4f3c
000002e0: cbe0 cfbc 89de 0c3d d3e0 123d 44e5 49bd
000002f0: ef10 feba 27a7 27bd 29c3 b7bc 8c49 473d
00000300: 3d1f 413d b8b5 ad3c a73f febc 0ccf 15bd
00000310: 61aa 863b a851 5f3d 32d5 a1bc 25da fabc
00000320: 76c8 173d 233b 1e3d 3933 5fbd 52c1 f03c
00000330: f76b 803c b747 5cbd 99bb 50ba e1a5 6abc
00000340: dd2d e4bc 01d0 3c3d 3a95 cabc 5ff7 e3bb
00000350: fb2a e0bc 355f 0c3d 8f99 82bc 6128 5bbd
00000360: d3d2 463d bd7b c0bd cffd 63bc 2036 ccbc
00000370: 00eb dd3b 9e9e 9a3c 73de d3bc 6b44 0ebd
00000380: 09c1 d13c a4b7 a33d cef2 9abc d4e8 37bb
00000390: e95c a53c 0799 483d b8ee 3e3d 3e63 883d
000003a0: 0a99 7cbc fe38 3d3d 10fa a3bd 5841 813d
000003b0: dfb6 5abb 9003 ea3c 5f30 1ebc 89f4 f93b
000003c0: 6556 813c ad45 4c3d ef4c debc 53ed 49bd
000003d0: e1d9 1c3c 8670 873d 94e5 a13c 033c f6bb
000003e0: c573 8ebd 93fc 033d 9bdd 0bbd e34a 9c3c
000003f0: 74d7 8e3d 8f07 5d3c 835e 9dbc 9eb4 813b
-0.01837275 -0.015901584 0.021263245 -0.0116410535 0.03555154 0.004536945 -0.045802444 -0.06157442
0.04660671 -0.0002924159 0.107741036 0.0063827806 -0.08604523 -0.017167762 0.0034278147 0.046558276
-0.056206718 0.082233354 -0.014461129 0.020668365 -0.02857217 0.08224639 -0.035817035 -0.0075186705
0.00703355 0.016256241 -0.040759627 -0.029177088 0.046916593 -0.0014206235 -0.0045305234 0.011329574
0.048008338 -0.012650907 -0.06867219 -0.005085317 -0.0052239504 0.007914565 0.04824037 0.029793896
-0.033095956 -0.0142776035 -0.04241263 -0.043764085 0.0046357345 -0.031829506 0.030113863 0.09884876
-0.05906571 -0.06621423 0.056417234 0.03270242 -0.013672789 0.037334193 -0.045610648 -0.034045205
0.04181903 0.0051149516 -0.016928699 0.0053374283 0.0071295435 0.025293576 -0.019071428 0.008934519
-0.0105707515 0.0398615 0.015119064 0.06826217 0.071921594 0.027614035 0.00571847 -0.024991898
0.032037113 -0.040152 0.03258698 0.037883967 -0.011769074 0.06132158 0.024421168 0.056474093
-0.056649543 -0.07654873 0.01600775 0.056547027 0.019066924 0.0358118 0.027995668 -0.013501473
0.021518867 0.042306967 0.04144497 -0.0090040965 -0.0015700028 0.0063742422 -0.06945927 -0.050461162
-0.015838264 0.009314303 0.022319905 -0.00039576142 0.00042345104 -0.06763553 -0.03007983 -0.10477076
0.029464068 0.014269197 0.015932461 0.01705083 0.004720815 0.051522344 0.01633883 -0.045743227
-0.024893913 0.06899362 -0.039265208 0.013012207 -0.0069083753 -0.008440555 -0.0020371552 0.0030852135
-0.09837203 -0.007891012 -0.07558291 0.005855433 0.0005843744 -0.047558244 0.010715773 0.06934929
0.05001869 -0.044678178 -0.0031871973 -0.019725373 0.029202022 0.012928798 -0.028976655 -0.0054736277
-0.0014954858 0.020880934 -0.042783827 -0.038241714 0.0096768355 -0.03672425 0.063356206 0.0073258886
0.05279855 0.038064227 -0.004335006 0.03966652 -0.012755207 -0.0071957954 -0.00034251052 0.024940629
-0.020530337 0.033124205 -0.06450952 -0.02349254 -0.0070967246 0.05825274 0.055375278 0.038060658
-0.058835786 0.08413122 -0.014242521 -0.03362262 0.009489821 -0.024623355 0.0104136225 -0.038657457
-0.05766088 -0.059089784 -0.08022618 -0.014478559 -0.023753779 -0.042613976 -0.016762838 0.0030206146
-0.08407728 -0.0077532977 0.017371997 -0.011270039 0.0113536455 -0.016529748 0.03393804 0.012670962
-0.025375744 0.034391914 0.03585894 -0.04929091 -0.0019383709 -0.040930893 -0.022431927 0.048654124
0.04714893 0.021204814 -0.031036211 -0.03657441 0.004109666 0.054521233 -0.01975498 -0.030621598
0.03705641 0.038630616 -0.05449221 0.029389057 0.015676482 -0.05377933 -0.00079625245 -0.014321775
-0.0278539 0.046096805 -0.02472936 -0.006956979 -0.027364245 0.034270484 -0.015942363 -0.053505305
0.0485409 -0.09398601 -0.013915493 -0.024928153 0.006772399 0.018874463 -0.025862908 -0.034733217
0.025604742 0.07994011 -0.018914606 -0.002806236 0.020185905 0.048974063 0.04661438 0.06659554
-0.015417347 0.04619693 -0.0800668 0.063112915 -0.003337316 0.028566152 -0.009655087 0.007628028
0.015788266 0.049871136 -0.027136294 -0.049298596 0.009573431 0.06613259 0.019762792 -0.007514478
-0.06955675 0.032223295 -0.034146886 0.019078678 0.06974688 0.013490572 -0.019210106 0.003958299

action_model._discrete_distribution.branches.0.bias f4 [4]
00000000: 3f19 6e3c 8416 a93c 1cf2 d8bd bed1 a53d
0.014532386 0.02064062 -0.10593054 0.08096646

action_model._discrete_distribution.branches.1.weight f4 [5, 512]
00000000: 5afb b9bd a8a1 2e3d f642 eabc c791 db3d
00000010: 8c64 3d3d 9192 3dbd 1b25 aabc 466d 6e3b
00000020: 4147 143d 25ea 493c d921 813d 239e c2bd
00000030: 2ff6 b6bd 1a5f 6a3c a255 f4bc 31c7 3a3d
00000040: 62f0 963d 58e9 1e3e d7d0 07bc e7b2 25bd
00000050: 9734 113d 5d3d f6bb 4dd2 ec3c 868f 21bc
00000060: d5dc 363d a8d8 b03d fbf4 1d3d f386 633d
00000070: 5e56 50bd 0582 e03b dcdd ac3c dbfc 2f3d
00000080: cbce b73c 5426 8f3c df19 253d 57ea 62bd
00000090: ff59 9c3c d292 dbbc 74fa 0b3c 0e89 503d
000000a0: a7c1 5c3c 354e 9c3c f37e 3ebd 89f3 c8bc
000000b0: 66b0 463d 965d 323c aa8d 0bbd 50ed 903d
000000c0: 28f5 b83d 2f1e ee3d 7a40 1cbc 7799 833c
000000d0: 5cb4 ebbc 9eef 7f3c 511b 5b3d a914 1fbc
000000e0: 4b01 3d3d b207 19bd b69c 7bbb 08d3 5c3c
000000f0: b96f 2b3d 670f f33c 3085 d9bc fc41 83ba
00000100: 7569 93bc 73fd fe3c 2935 6c3d 2b4e f2bc
00000110: 1fe4 7b3d 37ec 573d e2ea 05be eca8 9d3a
00000120: a2e0 613d d088 043c 294b bc3b e5f8 02bd
00000130: 5623 443d 00c0 01bc 7c7d 173d 9fc2 6bbc
00000140: 2009 c13c 43b2 373d e7cb 943a 6a88 613d
00000150: e638 c13d a16d 0bbc f5ab 8abd c6b6 7c3d
00000160: 682a 083d 764e 8fbb 735c cfbb 02e7 903d
00000170: 3170 44bd acc9 bf3c 3610 1fbd 7e64 42bd
00000180: 0999 243d c747 bdbd 38ab f73d 4f47 773d
00000190: 47ae 6cbd da32 0abd 8786 97bd 6c37 e3bc
000001a0: e3f0 94bd 0d7e bbbb b8ab 713c 5be0 803c
000001b0: 00c1 f53d 25f6 9d3d ea37 593d 6b98 51bc
000001c0: 6453 df3b f720 133d 2164 4ebd 4e67 203d
000001d0: a89a 97bd ae3e 433d 5614 2c3c a6a4 bdbc
000001e0: 0171 57bd 75e9 5bbd 6418 bbbc 6e87 be3c
000001f0: 5c8e 9bbc 6a19 c6bd 29fc 373d 06a1 47bc
00000200: 45c5 d9bc 0807 b1bc 39ec c4bc 10bb 23bd
00000210: e8ce 5c3c bca0 d93d b3e9 2f3c 9780 3b3d
00000220: 5372 963d 6533 e5bc b249 9b3c f242 8dbb
00000230: 5286 88bc 214c 18bd 9f12 ae3d 3845 4ebc
00000240: 1be7 1f3c 8e0d 693d 020c 483d 453d 603d
00000250: a32e 983b 0c15 2ebd 0511 57bc e658 353d
00000260: c3d1 ab3d e048 f3bc 106f e33c 3392 d23c
00000270: 4a38 923c af97 a83d 1b55 f93d 0087 1f3d
00000280: 3b2d a23d ac39 443d 2ffc 143c d342 d53d
00000290: 7c52 6cbc 0877 323d 5323 493b d36e 223a
000002a0: 5b32 7cbc f35b 70bd bcd7 913c 19e0 c53d
000002b0: d404 d6bc 3a25 a2bb 3726 35bc 83ab e1bc
000002c0: 23ef 733d e0bb 3ebd a600 c4bc 1fda 7fbd
000002d0: d07b dbba b940 833d 1b6f 403a cca4 713d
000002e0: 1077 dabc 9bf7 39bd 867b 0fbd bac4 bc3c
000002f0: b2f0 b83b fe90 70bd 7fb5 e13c 590d 0b3d
00000300: c2ee 77bc be6d 993d 9bd0 02bd af7a 45bc
00000310: 6e56 73bd 139c 7a3d 4c9f 73bb 62c8 2cbd
00000320: a137 fa3c 484f 623d 469f 76bc 54a4 4b3d
00000330: ff3e 863b 77a3 9d3c c5ad da3c 7417 14bd
00000340: 61bd 183d 391c b63d 9dbc 29bd 165c bcbc
00000350: facc 3fbd 5e4e 8abd 02f9 8a3c 9951 b43d
00000360: ec4b 7f3c 7e14 913c 6374 61bc 98ce 593d
00000370: f371 f93d dae9 e03c 294f 59bc 9f81 e63d
00000380: 9656 d13c 41a6 4b3d 1dd1 81bc b353 ab3c
00000390: a545 bebd 5141 7abc b7e4 93bc ab35 bf3c
000003a0: 275a 06bb 6e2e 28bd 7ce8 adbc fe40 8e3d
000003b0: 886c e6ba d9a6 293d bc40 d8bc 68bf 103e
000003c0: 27ff 243a 7c93 083e 88c5 e5bc 0b74 a9bd
000003d0: 61d9 b5bc 5d3c 3e3d 3c5f 943c 2b7d 24bd
000003e0: 7f07 c73c 92fb f83b 55a3 4bbd be08 56bc
000003f0: 7e63 ce3c dd3c 523d edf6 913c ac44 903d
-0.09081145 0.042634636 -0.028596383 0.10721164 0.046238467 -0.046282355 -0.020769646 0.003638105
0.036200766 0.012323891 0.06305284 -0.095028184 -0.089336745 0.014304901 -0.02982599 0.04560012
0.07370068 0.15518701 -0.008289537 -0.040453818 0.035450544 -0.0075146393 0.028908873 -0.009860879
0.044644196 0.08635074 0.03856371 0.05554862 -0.050863616 0.006851437 0.021101885 0.04296575
0.022437474 0.017474331 0.040307876 -0.055399265 0.019085882 -0.026803408 0.008543599 0.050911956
0.013473905 0.01908026 -0.046507787 -0.02453019 0.04850807 0.01088657 -0.03407065 0.07076514
0.09031135 0.11626851 -0.009536857 0.016064389 -0.028772525 0.015621094 0.053492848 -0.009709516
0.04614381 -0.037360854 -0.0038392968 0.013478048 0.041854594 0.02967043 -0.026552767 -0.0010014172
-0.017994622 0.031126713 0.057667885 -0.029578289 0.06149685 0.052715506 -0.13077882 0.0012028492
0.055145867 0.008089259 0.0057462645 -0.031975646 0.04788526 -0.0079193115 0.036984906 -0.014389663
0.023563921 0.044847738 0.0011352272 0.055061735 0.09434681 -0.008510024 -0.067710795 0.061697744
0.033243567 -0.004373367 -0.0063281595 0.07075311 -0.047958557 0.023411594 -0.03883382 -0.047459118
0.04018501 -0.09242206 0.12093204 0.06037074 -0.05778339 -0.033739902 -0.07398706 -0.027736388
-0.07272508 -0.0057218135 0.014750414 0.015731981 0.119997025 0.07712964 0.05303184 -0.012792687
0.006815361 0.03592011 -0.05038846 0.03916102 -0.07402545 0.047667198 0.010502895 -0.0231498
-0.052598003 -0.05368944 -0.022838779 0.023257937 -0.01898878 -0.09672816 0.044918213 -0.012184387
-0.026583323 -0.021609798 -0.024038421 -0.03997332 0.013477065 0.10626361 0.010736871 0.04577693
0.07346024 -0.027978608 0.01895604 -0.004310959 -0.016665611 -0.037181977 0.084996454 -0.012589745
0.00975969 0.056897692 0.048839577 0.05474593 0.0046442314 -0.04250054 -0.013126616 0.044274233
0.08389618 -0.029697835 0.02776292 0.025704479 0.017849106 0.08232056 0.12174436 0.038947105
0.07918783 0.047906563 0.009093328 0.10413136 -0.014423963 0.04357055 0.003069122 0.00061963237
-0.015392865 -0.05868144 0.017803065 0.09661884 -0.02612535 -0.0049482854 -0.011056474 -0.027547603
0.05955423 -0.04656589 -0.02392609 -0.062463876 -0.0016745273 0.06408829 0.0007340775 0.058995053
-0.026668102 -0.04540215 -0.03502991 0.023043025 0.0056439275 -0.058732025 0.027552364 0.033948276
-0.015132608 0.07491635 -0.031937223 -0.012053176 -0.059408598 0.061184 -0.0037173806 -0.042183287
0.030544104 0.05525139 -0.015052622 0.049717262 0.004096865 0.019242985 0.026694188 -0.03615518
0.03728998 0.08892102 -0.04143964 -0.022993129 -0.04682634 -0.067532286 0.01696444 0.08804626
0.015582066 0.017709967 -0.013760659 0.05317554 0.12179937 0.02745526 -0.013263502 0.11255192
0.025553983 0.0497191 -0.015846783 0.020913934 -0.092906274 -0.015274362 -0.018053396 0.02334102
-0.0020500512 -0.041059904 -0.021229021 0.0694599 -0.0017579952 0.041418884 -0.026398055 0.14135516
0.0006294124 0.13337511 -0.028048292 -0.082740866 -0.02219838 0.046444286 0.018111818 -0.040158432
0.024295567 0.007598349 -0.049716312 -0.013063608 0.025193926 0.051327575 0.017817939 0.07044348

action_model._discrete_distribution.branches.1.bias f4 [5]
00000000: 5d6a a83b ab7d 2b3c 4f90 163d f34f e13b
00000010: 4a31 b93a
0.0051396326 0.010466973 0.036758717 0.006875986 0.0014129069

exp_avg f4 [512, 40]
00000000: 0000 0000 70d8 16b7 ae89 0d38 2c35 2d37
00000010: f958 dc37 0000 0000 85d2 5e37 2fc0 d837
00000020: ed9e 87b6 9efe 9637 0000 0000 874b 3237
00000030: 0292 7237 e9a5 2737 a44f 1938 0000 0000
00000040: 5640 9035 d340 d737 bdf9 0b37 fc05 b237
00000050: 0000 0000 b8f7 4b37 ccb1 0536 a18f af37
00000060: bc79 1738 0000 0000 494a 1236 a07e d737
00000070: 41e7 f136 d8aa bd37 0000 0000 7de7 3e37
00000080: 9890 12b7 220b 0838 574d 2238 5e34 a537
00000090: 7804 0fba fbdf f0b8 a6de a03a 531d 9e37
000000a0: 0000 0000 7436 4a38 d321 aab7 cec2 03b8
000000b0: 95ba cdb7 0000 0000 2c35 1d38 7b06 3bb8
000000c0: b940 7336 bca4 1eb7 0000 0000 5def 8238
000000d0: b815 9ab7 2671 47b8 5846 21b8 0000 0000
000000e0: 89b9 7838 bd32 a5b8 691d 8637 58ac 4137
000000f0: 0000 0000 fe6d 2438 66c8 b8b7 244e adb7
00000100: c510 f7b7 0000 0000 f93e 02b7 e77f 96b8
00000110: 2579 9f38 3068 1738 0000 0000 e0be a838
00000120: f405 6cb8 192a e8b7 7500 8eb7 e8b1 35b8
00000130: 8631 273a 33dc 4f39 4a78 6539 f523 2bb6
00000140: 0000 0000 0e69 34b8 3068 ac37 2e96 b1b7
00000150: 2398 a9b7 0000 0000 3ac7 8ab8 b2df f437
00000160: 5c0b dfb6 fa28 e3b7 0000 0000 c22a 72b8
00000170: 10cd 5637 b8ee ae35 61b7 11b7 0000 0000
00000180: cbd9 4cb8 cedc 2838 0803 13b8 60dd 56b8
00000190: 0000 0000 a993 5ab8 a4f8 6e37 5c54 c1b6
000001a0: 1036 dfb6 0000 0000 c157 b9b7 f7d1 2038
000001b0: 2626 7bb8 e7a0 69b8 0000 0000 eac1 71b8
000001c0: 6e58 a136 545b 1a37 1594 2fb7 fe42 04b7
000001d0: b0ea eab8 fc6b ae3a c002 9bbb e544 97b8
000001e0: 0000 0000 aecc 2f36 3634 64b5 12a0 4b37
000001f0: d0d9 6137 0000 0000 4176 9237 9c6a 51b6
00000200: 403d e8b4 d43f 1c37 0000 0000 fd33 4938
00000210: bcf3 67b7 22c6 a9b7 2496 1737 0000 0000
00000220: 2baf da37 f05d 6335 3e44 5ab7 eddd 7436
00000230: 0000 0000 0853 f837 8447 bfb6 5eb2 27b7
00000240: 10d5 9a36 0000 0000 dd69 ce37 8250 1fb7
00000250: ec99 a1b5 e062 0f37 0000 0000 e534 8538
00000260: 296f 3ab8 2335 adb6 1d99 8336 6870 0637
00000270: 621a a4b9 5884 9837 c09c 1e3b 9d17 bd37
00000280: 0000 0000 aa78 7f37 6c7a c436 f854 0738
00000290: 5606 6038 0000 0000 be6a 5437 e037 1936
000002a0: 4014 2138 9f97 5338 0000 0000 1c20 0938
000002b0: 8b2f 4a36 aefe 9337 a8cc 6138 0000 0000
000002c0: ce5c e337 4bc1 c9b5 22c4 e837 bff9 4638
000002d0: 0000 0000 f408 5536 440e b7b5 4f2a 5838
000002e0: 664a 5738 0000 0000 8392 6437 99de 83b5
000002f0: c4bc 2a38 bafe 4838 0000 0000 932c 3938
00000300: 4ddf 0bb7 5e1b 9337 9276 4138 9e0e 2ab7
00000310: 9075 7238 d476 02b8 e09f 3c39 22e4 9937
00000320: 0000 0000 0483 c035 d6f7 d5b6 d826 3c37
00000330: 37b4 f536 0000 0000 e591 ae36 8ba8 98b6
00000340: 458d bc36 b41b ed36 0000 0000 5631 9a36
00000350: ce43 29b6 2ee7 8c36 c7f6 8336 0000 0000
00000360: d4ba 6c36 b0f6 92b6 e10f ef36 5ba4 f536
00000370: 0000 0000 047d 7b36 15da a335 5206 af35
00000380: 8f1f 3136 0000 0000 78cc 2c36 ecad 82b6
00000390: 4fbe fe36 4d12 e836 0000 0000 a2c5 4b36
000003a0: 98fa 7336 3098 d6b4 6cc3 ca35 36b6 aa36
000003b0: a01e e038 ca2b 8d37 ab60 4139 799e 2937
000003c0: 0000 0000 9464 6f37 1337 4238 f955 8937
000003d0: ecee 8838 0000 0000 7331 d437 ff85 5138
000003e0: a090 e335 26b5 7f38 0000 0000 1901 ee36
000003f0: 8cb9 4338 0b83 c237 ccf0 a838 0000 0000
0.0 -8.99109e-06 3.3745244e-05 1.0323984e-05 2.6267475e-05 0.0 1.32812465e-05 2.5838699e-05
-4.041815e-06 1.7999959e-05 0.0 1.0627212e-05 1.4458319e-05 9.992605e-06 3.6552214e-05 0.0
1.074756e-06 2.5660183e-05 8.343192e-06 2.122204e-05 0.0 1.2157419e-05 1.9922036e-06 2.0928508e-05
3.611458e-05 0.0 2.1798935e-06 2.5688962e-05 7.209281e-06 2.2610111e-05 0.0 1.137878e-05
-8.735944e-06 3.2435295e-05 3.8695838e-05 1.9693918e-05 -0.0005455683 -0.000114858114 0.0012273386 1.8848723e-05
0.0 4.8211266e-05 -2.028133e-05 -3.141426e-05 -2.4524788e-05 0.0 3.7481237e-05 -4.459031e-05
3.6247495e-06 -9.455889e-06 0.0 6.243468e-05 -1.8368344e-05 -4.7550675e-05 -3.8450904e-05 0.0
5.93006e-05 -7.877264e-05 1.598774e-05 1.1543823e-05 0.0 3.9203085e-05 -2.2027827e-05 -2.0659594e-05
-2.9452503e-05 0.0 -7.763266e-06 -7.176381e-05 7.604276e-05 3.6098238e-05 0.0 8.0464175e-05
-5.627233e-05 -2.7676158e-05 -1.6927932e-05 -4.331945e-05 0.0006377924 0.00019823089 0.00021883953 -2.5501915e-06
0.0 -4.3013184e-05 2.0552514e-05 -2.1169977e-05 -2.0217214e-05 0.0 -6.6174616e-05 2.9191233e-05
-6.6472403e-06 -2.707959e-05 0.0 -5.7737117e-05 1.2803139e-05 1.3033487e-06 -8.68537e-06 0.0
-4.8840226e-05 4.025996e-05 -3.5050354e-05 -5.1227747e-05 0.0 -5.211277e-05 1.4243797e-05 -5.761669e-06
-6.6522116e-06 0.0 -2.2094582e-05 3.8342518e-05 -5.9878592e-05 -5.570138e-05 0.0 -5.7639474e-05
4.8084685e-06 9.200379e-06 -1.0465291e-05 -7.883411e-06 -0.000112017035 0.0013307328 -0.0047305524 -7.213074e-05
0.0 2.6196171e-06 -8.5012596e-07 1.2137012e-05 1.34617585e-05 0.0 1.7459623e-05 -3.1205482e-06
-4.3257933e-07 9.313186e-06 0.0 4.7970552e-05 -1.3825422e-05 -2.0238633e-05 9.035259e-06 0.0
2.6069194e-05 8.4700787e-07 -1.3009701e-05 3.648801e-06 0.0 2.9602568e-05 -5.700569e-06 -9.995505e-06
4.6143614e-06 0.0 2.460641e-05 -9.495883e-06 -1.2040232e-06 8.546485e-06 0.0 6.3517866e-05
-4.444938e-05 -5.1619877e-06 3.921929e-06 8.013194e-06 -0.00031300174 1.818144e-05 0.0024202317 2.2541552e-05
0.0 1.5227279e-05 5.855507e-06 3.226564e-05 5.3411663e-05 0.0 1.26610375e-05 2.28313e-06
3.840425e-05 5.044753e-05 0.0 3.269325e-05 3.012802e-06 1.764236e-05 5.383478e-05 0.0
2.7103724e-05 -1.5031923e-06 2.7747887e-05 4.7439473e-05 0.0 3.1744685e-06 -1.3638714e-06 5.1537816e-05
5.1329283e-05 0.0 1.3623971e-05 -9.825045e-07 4.070696e-05 4.792095e-05 0.0 4.414895e-05
-8.337037e-06 1.753651e-05 4.6125213e-05 -1.0136193e-05 5.7806785e-05 -3.1105083e-05 0.00017988635 1.8345254e-05
0.0 1.4343245e-06 -6.3767466e-06 1.1214717e-05 7.3225488e-06 0.0 5.2025885e-06 -4.549574e-06
5.6192825e-06 7.0663755e-06 0.0 4.595301e-06 -2.522243e-06 4.199238e-06 3.932833e-06 0.0
3.5275489e-06 -4.3798573e-06 7.1246036e-06 7.3207025e-06 0.0 3.7474683e-06 1.2207917e-06 1.3040355e-06
2.6393425e-06 0.0 2.5749014e-06 -3.894549e-06 7.5919447e-06 6.9162693e-06 0.0 3.0364395e-06
3.6355686e-06 -3.9971337e-07 1.5107048e-06 5.087607e-06 0.00010686857 1.68289e-05 0.00018441926 1.0110082e-05
0.0 1.4268928e-05 4.6304496e-05 1.6371707e-05 6.529488e-05 0.0 2.5295396e-05 4.9954277e-05
1.6954909e-06 6.0965445e-05 0.0 7.0930805e-06 4.6664427e-05 2.3187624e-05 8.055716e-05 0.0

exp_avg_sq f4 [512, 40]
00000000: 0000 0000 7c14 f032 4a53 1c32 b6e1 dc32
00000010: 4665 4733 0000 0000 9c8c 7e32 4877 0d32
00000020: 67c8 3633 ab33 7033 0000 0000 8250 3e33
00000030: 1948 4732 e0ea 0d32 440f 0c33 0000 0000
00000040: e569 7731 4635 f631 1c82 6c33 8270 8033
00000050: 0000 0000 76fc 2e33 6f28 4932 a924 5a32
00000060: 0b51 f732 0000 0000 7aa2 9331 acaa 3c32
00000070: 60e3 5433 248d 7e33 0000 0000 513a 4433
00000080: 28f7 1932 51c3 2832 cf83 f632 6d88 ed32
00000090: 8097 3e35 40d5 2c33 0843 f136 0a82 8233
000000a0: 0000 0000 6e8a e631 4091 1d31 ebea 7f33
000000b0: c5c0 8a33 0000 0000 0a1a 2c32 086e 1b32
000000c0: d4b5 5133 b40d 8133 0000 0000 150c 0b32
000000d0: 19e1 d131 ebb8 7033 690f 8833 0000 0000
000000e0: d9f3 ad32 bcd3 0b33 8f7b 6432 e1bc 4033
000000f0: 0000 0000 4c76 4f32 85e0 0833 7ee9 c932
00000100: 94c1 4933 0000 0000 119f b132 eb03 1733
00000110: 5af0 3332 9f87 1833 0000 0000 eb73 b032
00000120: 8892 1633 bd68 4032 722c 0833 5160 7233
00000130: 216d e337 f047 2f35 1124 e539 aa80 8b33
00000140: 0000 0000 6887 4a33 cdce d831 17bd 0b33
00000150: ec43 8233 0000 0000 33a2 8c32 5103 3232
00000160: 0717 7733 a08d a333 0000 0000 3cbe 7c33
00000170: a9ca 8231 c799 d832 7beb 4833 0000 0000
00000180: ffe1 1732 dbf5 8132 2520 8433 e830 a133
00000190: 0000 0000 a9eb 7c33 39e0 3b32 48ab 9a32
000001a0: 8942 2533 0000 0000 c4e6 1232 b754 8d32
000001b0: f788 8233 b6c7 9e33 0000 0000 0b40 8733
000001c0: 0e6e 6532 e521 2332 2dff 0933 026c 5e33
000001d0: 6ea0 8a37 0985 5c35 1b76 2b39 1eaf a333
000001e0: 0000 0000 58fe 6232 1d39 0431 0fd0 6a33
000001f0: 750c 8433 0000 0000 b151 2332 5c91 d631
00000200: 29a4 6333 1691 8333 0000 0000 85d1 ca32
00000210: 7a9b 5831 2ffa 3833 9355 6c33 0000 0000
00000220: b4b3 5832 3565 9932 93cc 2633 0d10 6b33
00000230: 0000 0000 fc82 1433 b4d2 a532 0f95 9232
00000240: 59eb 2b33 0000 0000 53f3 9c32 a62f a932
00000250: 1dbf 0c33 9fa4 5633 0000 0000 8ed1 2c33
00000260: b846 b832 3117 0832 9457 f232 7ac3 5633
00000270: 615e 0838 d6cc 8635 a91c 9c39 505f 8f33
00000280: 0000 0000 bd15 9733 be2d c532 f776 b733
00000290: 055c 1634 0000 0000 81ec fa33 9a71 a832
000002a0: 95d4 4433 7d1c 0034 0000 0000 33c8 2a33
000002b0: 63b7 0a33 9acd e633 6329 1b34 0000 0000
000002c0: e16a f733 9f8b 9232 32a9 4733 f883 f733
000002d0: 0000 0000 a0a8 cf32 a99f e032 4623 0434
000002e0: 772d 2234 0000 0000 d5d5 ca33 6e58 a632
000002f0: 6b70 8133 a1e4 0834 0000 0000 a4eb 0333
00000300: 9313 a232 03f3 0734 7b6e 2334 19b8 af33
00000310: 71b6 2836 d74f cc34 0ea5 5838 c9dc 3234
00000320: 0000 0000 4b77 4931 3d11 2330 09ac c430
00000330: a39d 5031 0000 0000 3ac0 d130 d4ee 2130
00000340: 5b3f 3a31 93cd 7e31 0000 0000 d95e 5131
00000350: 96b4 2130 0ffb ac30 579a 2c31 0000 0000
00000360: ad28 9a30 0f5f 3730 724f 4f31 7bc0 8431
00000370: 0000 0000 cef9 3f31 f4fd 3930 1ecf c330
00000380: b243 2231 0000 0000 b635 8230 f2ab 5d30
00000390: 7863 5c31 1fe4 8931 0000 0000 91e9 4131
000003a0: 6425 2630 8f50 c330 325c 2431 1907 1d31
000003b0: 8746 c633 8dc6 bc31 2407 3f35 198f 9131
000003c0: 0000 0000 aabe a134 5adc 4833 3ff0 7234
000003d0: fd82 d634 0000 0000 019f 0934 88df 3233
000003e0: b87b dd34 1bd8 0335 0000 0000 458b df34
000003f0: 2707 7033 d957 cb33 f555 9a34 0000 0000
0.0 2.7948992e-08 9.099333e-09 2.5714012e-08 4.6425406e-08 0.0 1.4816717e-08 8.234402e-09
4.2557442e-08 5.5926346e-08 0.0 4.4311044e-08 1.1599718e-08 8.260685e-09 3.2610174e-08 0.0
3.6003425e-09 7.165599e-09 5.5066366e-08 5.9809295e-08 0.0 4.0742144e-08 1.1708933e-08 1.2697606e-08
2.8791439e-08 0.0 4.2967345e-09 1.09818465e-08 4.9566893e-08 5.926735e-08 0.0 4.5687845e-08
8.961969e-09 9.823297e-09 2.8698109e-08 2.765247e-08 7.100098e-07 4.024082e-08 7.190163e-06 6.077251e-08
0.0 6.7096186e-09 2.2929072e-09 5.958547e-08 6.46119e-08 0.0 1.0017638e-08 9.047206e-09
4.8826976e-08 6.009523e-08 0.0 8.093612e-09 6.108291e-09 5.6047536e-08 6.3357966e-08 0.0
2.025074e-08 3.255603e-08 1.3299441e-08 4.4875268e-08 0.0 1.2075883e-08 3.1869167e-08 2.350566e-08
4.6975018e-08 0.0 2.0677847e-08 3.516099e-08 1.0473821e-08 3.5513605e-08 0.0 2.054181e-08
3.5057866e-08 1.1199686e-08 3.170539e-08 5.6432615e-08 2.7111326e-05 6.5297263e-07 0.00043705155 6.496096e-08
0.0 4.715494e-08 6.309938e-09 3.2535436e-08 6.065952e-08 0.0 1.6371905e-08 1.0361718e-08
5.7530112e-08 7.6160404e-08 0.0 5.884634e-08 3.8065378e-09 2.521564e-08 4.6780297e-08 0.0
8.840742e-09 1.5129379e-08 6.152576e-08 7.506043e-08 0.0 5.8887654e-08 1.0935815e-08 1.800585e-08
3.847757e-08 0.0 8.5507885e-09 1.6453084e-08 6.0785105e-08 7.3937755e-08 0.0 6.298077e-08
1.3354578e-08 9.4955555e-09 3.212988e-08 5.1786635e-08 1.6525588e-05 8.214998e-07 0.00016351829 7.6221326e-08
0.0 1.3212762e-08 1.9240993e-09 5.46716e-08 6.148995e-08 0.0 9.506423e-09 6.244745e-09
5.300186e-08 6.126554e-08 0.0 2.3611173e-08 3.1520515e-09 4.306838e-08 5.502586e-08 0.0
1.26137145e-08 1.7857568e-08 3.8835946e-08 5.47298e-08 0.0 3.4578065e-08 1.9304345e-08 1.7064421e-08
4.0028088e-08 0.0 1.8271441e-08 1.9695857e-08 3.2770107e-08 4.997548e-08 0.0 4.023746e-08
2.1452578e-08 7.921515e-09 2.8212334e-08 5.0003543e-08 3.2512824e-05 1.0043393e-06 0.00029775992 6.676294e-08
0.0 7.0354396e-08 2.295462e-08 8.543241e-08 1.4003315e-07 0.0 1.1684552e-07 1.9609434e-08
4.582815e-08 1.1931293e-07 0.0 3.976329e-08 3.2297418e-08 1.0747608e-07 1.4450556e-07 0.0
1.1521275e-07 1.706013e-08 4.648718e-08 1.1525839e-07 0.0 2.4174653e-08 2.6149637e-08 1.230629e-07
1.5103966e-07 0.0 9.445254e-08 1.9365157e-08 6.027479e-08 1.2749162e-07 0.0 3.0715128e-08
1.8868183e-08 1.2661262e-07 1.522075e-07 8.18256e-08 2.5140146e-06 3.8056052e-07 5.1652132e-05 1.6657863e-07
0.0 2.931716e-09 5.932355e-10 1.4309772e-09 3.035759e-09 0.0 1.5261385e-09 5.8910854e-10
2.7102576e-09 3.707872e-09 0.0 3.0467417e-09 5.8828087e-10 1.2586002e-09 2.5117026e-09 0.0
1.1216535e-09 6.67101e-10 3.0167624e-09 3.863588e-09 0.0 2.7936156e-09 6.7663497e-10 1.4246984e-09
2.3612583e-09 0.0 9.47401e-10 8.064368e-10 3.2070755e-09 4.013159e-09 0.0 2.8217964e-09
6.0443583e-10 1.4211013e-09 2.3917548e-09 2.2850541e-09 9.232922e-08 5.4940927e-09 7.1163436e-07 4.2363237e-09
0.0 3.0127313e-07 4.6766537e-08 2.2625407e-07 3.9955913e-07 0.0 1.2816965e-07 4.1647155e-08
4.1254475e-07 4.911578e-07 0.0 4.163832e-07 5.588586e-08 9.4689035e-08 2.8747277e-07 0.0

exp_avg f4 [512]
00000000: dc20 1338 3fd4 69b6 0b00 37b8 fb4f 6937
00000010: 6ec2 5f38 9c76 d236 9a5d a138 9052 89b9
00000020: 5983 3937 73ef 9b37 7e7b 16b7 e18c 31b7
00000030: 29d6 a837 1c69 2635 ef3f ccb8 f19f 7f38
00000040: 03e3 f6b7 6a79 6138 bfcd a5b7 7695 d538
00000050: 61da 37b7 e290 0836 60e0 5238 b2e7 2936
00000060: 029a 76b8 eabf 0c39 961b 1cb7 411b aa38
00000070: 9089 c7b8 3c5a 27b7 7bc2 9136 ba13 0138
00000080: 2475 fc36 7f22 00b8 6213 37b8 4292 5439
00000090: dac5 d937 7c5c 60b6 62fc 4bb8 b935 4037
000000a0: 6e29 55b7 2f07 82b7 3f78 46b8 2bcc 0cb9
000000b0: 3512 8a38 14fd 9a37 f4ac 2e37 c6f9 e938
000000c0: 73af 27b8 b2ce 5cb8 8d41 0739 8013 44b4
000000d0: 279d 3436 11f9 8a36 2be9 0f39 c820 c336
000000e0: f4b3 67b8 1472 c037 9450 9336 78fd f9b7
000000f0: c4d4 0938 98e2 01b6 5b9b df37 2b4d 29b9
00000100: 2063 8c36 8635 9638 3269 ab38 9aca 95b7
00000110: 263e ef38 6255 d1b8 a6f1 a5b7 777a 6739
00000120: e61c 2c39 72fd e437 4f9c e7b8 1a20 f137
00000130: f2b7 f338 cc8c 8ab9 d31d 1039 c5e6 3e37
00000140: 70a8 dab9 d610 2f38 92b5 c238 469f ea38
00000150: 3da2 c6b8 23be 05b7 cb56 f736 0534 0c39
00000160: 9ced 1a39 b221 b739 4078 1a35 94cb 7d38
00000170: 426e dab9 a16a 6cb9 5434 72b9 d207 2e37
00000180: 1623 6f38 7e12 a735 1e07 3638 dd50 f138
00000190: 4457 81b6 e0fb b8b6 3235 bf36 91e1 21b9
000001a0: a353 d935 3574 1ab8 524c 7137 1e33 4cb8
000001b0: 6644 2a39 e354 47b9 62a2 5939 a2bb a036
000001c0: 9479 0837 1090 6f38 5aef 9537 5805 4437
000001d0: 5873 b336 a82a 0a39 9e5d 3636 b6cd 8fb9
000001e0: 9839 eb37 02d8 e636 a060 5a38 f661 c439
000001f0: 62f2 5337 32a0 7c37 ac6f de37 a04f 38b7
00000200: 7757 7237 3241 a7b7 009e 90b7 dcd4 9cb8
00000210: 40dd 1fb6 cd79 2139 31f8 47b6 6f75 5f38
00000220: da21 7bb8 f6a6 7537 96bb b9b6 3ee7 8637
00000230: 7e38 e2b6 b651 8136 0e6b b539 b8a1 f237
00000240: 43e3 f837 a3b4 4238 3b2c 5b38 6090 9db8
00000250: b369 6f37 a4cd 88b9 f411 92b7 af87 7238
00000260: 12ff 0538 e010 08b7 4a10 8638 a8c3 c3b6
00000270: 92a9 9438 776c 4a38 cbf8 9939 281e 9835
00000280: 1d97 e8b7 7a95 bb36 582b c2b6 17ab 8cb7
00000290: 1ab6 c039 ef66 ecb7 a575 e6b7 8a8b 6eb7
000002a0: 902b 2539 d88a 0139 1348 ccb5 9e79 8939
000002b0: 8c08 5037 fdde c037 16e8 4937 6983 1139
000002c0: ac07 ca38 3e89 4937 d431 36b8 02d8 3638
000002d0: 5d4f deb8 6a62 48b7 5e62 a636 9113 1339
000002e0: 506e 8836 c810 2f38 8d7e 34b8 536a 4fb8
000002f0: 466a e4b6 662e c135 ef1d 60b6 f0a0 15b9
00000300: b014 aab9 8b65 3739 d4ca 0837 49a8 9d36
00000310: 34a7 f736 331a 6538 1ca4 0cb5 72df 11b9
00000320: b4c8 f738 4496 9238 e24d 6737 2139 50b7
00000330: acf2 5cb8 b262 e338 f60a ebb7 8759 1937
00000340: 0c5b 2b37 3cca a638 a575 2db9 32b8 0037
00000350: 4728 47b9 ba87 a136 6bc2 d4b8 a1bc b638
00000360: a4b1 b935 d82b a438 eed2 2739 cf07 9338
00000370: c0d8 b5b5 69d7 6136 6ef4 1038 1bc3 4939
00000380: 94a0 f9b6 cb08 ae39 bb80 a336 54dc 5937
00000390: e2eb 8e37 5868 5d39 40c6 0ab9 02c9 f137
000003a0: 1c5b 86b7 085f fc37 eba8 8438 9041 a438
000003b0: c8d4 1b38 4266 b8b7 5c92 d737 ba1e 7938
000003c0: 7657 d237 0ed5 4e38 3853 19b6 768a bfb8
000003d0: 49ff c8b6 a1b1 a438 bf5c b3b8 6853 c3b7
000003e0: 23dc 25b9 3823 d0b7 d025 0139 9e60 9db7
000003f0: 9ca7 8238 b60b 2e37 f18d 9038 225a 87b7
3.5078134e-05 -3.484325e-06 -4.363064e-05 1.3906504e-05 5.334842e-05 6.2722956e-06 7.694513e-05 -0.0002619219
1.1057441e-05 1.8588942e-05 -8.9694495e-06 -1.0582823e-05 2.0126887e-05 6.1992773e-07 -9.7393866e-05 6.0945695e-05
-2.9431196e-05 5.3757256e-05 -1.976534e-05 0.00010184471 -1.0958495e-05 2.0349912e-06 5.0276867e-05 2.5317827e-06
-5.87944e-05 0.00013422934 -9.304747e-06 8.111308e-05 -9.5146825e-05 -9.974985e-06 4.3439773e-06 3.077437e-05
7.523822e-06 -3.0549705e-05 -4.364865e-05 0.00020272381 2.5960548e-05 -3.3432434e-06 -4.863402e-05 1.14566e-05
-1.2705435e-05 -1.5500553e-05 -4.7318867e-05 -0.00013427499 6.583744e-05 1.847608e-05 1.0411477e-05 0.0001115683
-3.9979303e-05 -5.2644587e-05 0.00012899023 -1.8261017e-07 2.6913565e-06 4.1417156e-06 0.00013724405 5.815269e-06
-5.5242286e-05 2.2941305e-05 4.390322e-06 -2.9801144e-05 3.28615e-05 -1.9354393e-06 2.6656015e-05 -0.00016145843
4.183865e-06 7.162527e-05 8.1735096e-05 -1.7856528e-05 0.00011407984 -9.9818004e-05 -1.978206e-05 0.00022075498
0.00016413964 2.7297738e-05 -0.00011044053 2.8744387e-05 0.000116214054 -0.00026426313 0.0001374402 1.1378613e-05
-0.00041705696 4.173893e-05 9.284461e-05 0.000111876565 -9.471595e-05 -7.971687e-06 7.3712777e-06 0.00013370819
0.00014775101 0.00034929585 5.754446e-07 6.0509497e-05 -0.0004166235 -0.00022546436 -0.00023098412 1.0373029e-05
5.7014717e-05 1.2447852e-06 4.339881e-05 0.000115068375 -3.8546586e-06 -5.5129494e-06 5.6984363e-06 -0.00015438187
1.6192101e-06 -3.6824687e-05 1.4382489e-05 -4.8684997e-05 0.00016237944 -0.00019009742 0.00020755225 4.790215e-06
8.134539e-06 5.711621e-05 1.787364e-05 1.1683755e-05 5.3480435e-06 0.00013176596 2.7174606e-06 -0.00027428352
2.8041002e-05 6.8796808e-06 5.206524e-05 0.0003745702 1.2633014e-05 1.5057669e-05 2.6516464e-05 -1.0985794e-05
1.44446885e-05 -1.993831e-05 -1.7239712e-05 -7.478308e-05 -2.382163e-06 0.00015399531 -2.9797777e-06 5.327671e-05
-5.987459e-05 1.4642012e-05 -5.5352675e-06 1.6081725e-05 -6.7419014e-06 3.854012e-06 0.00034602772 2.8923954e-05
2.966973e-05 4.6421435e-05 5.225486e-05 -7.513235e-05 1.427012e-05 -0.00026093156 -1.7412916e-05 5.782366e-05
3.1947224e-05 -8.110161e-06 6.392652e-05 -5.8342303e-06 7.088775e-05 4.826157e-05 0.000293678 1.1333659e-06
-2.7726923e-05 5.5904356e-06 -5.7866964e-06 -1.676897e-05 0.0003675677 -2.8181325e-05 -2.747292e-05 -1.4218394e-05
0.00015751855 0.00012354122 -1.5220161e-06 0.00026221288 1.2399756e-05 2.299202e-05 1.203457e-05 0.00013877232
9.6335396e-05 1.2012488e-05 -4.3438587e-05 4.3593354e-05 -0.000106005675 -1.1943843e-05 4.958637e-06 0.00014026302
4.065958e-06 4.173888e-05 -4.3033204e-05 -4.9451668e-05 -6.8073014e-06 1.4393124e-06 -3.3396025e-06 -0.00014269701
-0.0003244034 0.00017490068 8.153456e-06 4.6985556e-06 7.3806386e-06 5.4622255e-05 -5.2392875e-07 -0.00013911517
0.00011815262 6.989812e-05 1.3786806e-05 -1.24110675e-05 -5.2678093e-05 0.00010842587 -2.8019287e-05 9.140355e-06
1.0213593e-05 7.953166e-05 -0.00016542392 7.672281e-06 -0.00018993123 4.8139746e-06 -0.00010145161 8.713571e-05
1.3835274e-06 7.828296e-05 0.00016004939 7.010961e-05 -1.3548633e-06 3.3652998e-06 3.455992e-05 0.00019241536
-7.439472e-06 0.00033194417 4.8727647e-06 1.2985507e-05 1.703756e-05 0.00021115073 -0.0001323456 2.882304e-05
-1.601647e-05 3.0084993e-05 6.325714e-05 7.832341e-05 3.7153048e-05 -2.1982127e-05 2.5698151e-05 5.9394843e-05
2.5074678e-05 4.931265e-05 -2.2847216e-06 -9.13338e-05 -5.9901836e-06 7.853215e-05 -8.5526604e-05 -2.328465e-05
-0.00015817634 -2.4811932e-05 0.00012316485 -1.876085e-05 6.230103e-05 1.0373935e-05 6.892894e-05 -1.6135225e-05
