MLagents_test1/results/CarAgent_reinforcement_4/CarAgent/CarAgent-3999537.pt (torch, 580945 bytes, 28 tensors)

discrete_act_size_vector f4 [1, 2]
4.0 5.0
00000000: 0000 8040 0000 a040

network_body._body_endoder.seq_layers.0.weight f4 [512, 40]
0.0899814 -0.30638453 0.16133744 0.040979885 -0.009748074 0.067229316 -0.012495371 0.14013393
-0.20935066 -0.00024715747 -0.28634843 0.26285782 0.1348907 -0.19785099 -0.0023257113 0.009497632
-0.25813717 -0.01988147 0.33188418 0.0076613766 -0.07752585 -0.22652185 -0.11701195 0.073999435
0.052098278 0.007866781 -0.06256966 0.13370837 -0.09817215 -0.23743999 0.016912818 0.24762714
-0.023063399 -0.14618017 -0.17389594 0.19813457 -0.046127785 -0.09093329 -0.055759255 0.23045515
-0.21780168 0.014966664 -0.035863187 -0.55391616 -0.196739 -0.11155787 0.3157167 -0.056378823
-0.23944011 -0.4753747 -0.10253636 -0.064133 0.07857924 -0.20366327 -0.6100152 -0.16669197
-0.31297827 -0.052248765 -0.22047894 -0.6159254 0.20434153 -0.7694829 -0.049110338 -0.03127927
-0.08394828 0.2571523 -0.03939438 -0.25007173 -0.14109723 -0.4359627 -0.06558298 -0.35915133
-0.22953112 0.35098517 -0.29290226 -0.20434447 -0.039764076 0.21340899 0.061535537 -0.4284509
-0.07554706 -0.27921993 -0.15386374 -0.069431424 0.090732045 0.06660801 0.023919595 0.07002106
0.04387025 0.22781354 -0.07226979 0.15992911 0.04528645 -0.087873876 -0.29997283 0.059674006
-0.2293566 -0.01904916 0.11552959 -0.15419711 -0.24577832 -0.0031346914 -0.00427414 -0.19357464
-0.34790903 0.02592685 -0.44554964 0.059862275 0.26242143 -0.102476515 -0.071534865 -0.18479683
-0.25073975 -0.14665647 -0.19349515 0.24718 -0.11529404 -0.11374869 -0.015630309 -0.1388212
0.3266433 -0.35968196 -0.08107862 0.03133515 -0.35043138 -0.110230625 -0.15162411 -0.039588723
0.1800245 -0.26854166 -0.0033540062 -0.6207155 0.017004665 0.21704532 -0.009524356 -0.056818042
-0.2781782 -0.082329355 0.11382716 -0.108876735 -0.07481306 -0.10172059 0.30082518 -0.18373276
-0.099941224 0.06194949 -0.049747735 -0.21581864 -0.059055317 -0.3690028 -0.03507905 -0.17212407
-0.002785792 -0.7081179 -0.22488454 -0.0288761 -0.06736748 0.36830673 -0.00045318046 -0.18031314
-0.11572925 0.2579958 0.16694182 -0.23970361 -0.01915802 0.10916596 -0.054293014 0.02113374
0.005751387 0.021062259 0.22160205 -0.28444588 0.4383336 0.10213371 -0.21425518 0.039733134
0.23567592 -0.19812325 -0.03885282 -0.21793598 -0.06712898 -0.20647831 0.073526874 0.09796961
0.006005234 -0.16464902 -0.13602246 0.028475251 0.25739026 -0.33094805 0.090881415 -0.2530685
-0.2167805 0.24804783 0.06420585 -0.41144204 0.002046061 -0.25042933 -0.011889985 -0.27179852
-0.33028477 -0.19585466 -0.25295687 -0.11519425 -0.3465941 0.017110422 -0.44998196 -0.12955344
-0.29799384 -0.21341771 -0.05325805 -0.007231037 0.08287848 -0.31999114 -0.2764541 0.040084615
-0.4552276 0.05363252 -0.30811453 -0.31218925 -0.0840093 0.021059457 -0.037677065 -0.3014095
-0.24480069 0.15762007 -0.21110497 0.09150111 -0.27126676 -0.5253451 0.20616409 -0.5086385
-0.2839642 0.08028254 -0.19517565 0.44101894 0.017639354 0.181297 -0.048631027 0.21888584
0.32956794 0.110857874 0.24702147 -0.2445565 -0.051218927 -0.06331115 -0.23331062 0.333974
0.45242897 -0.17105217 -0.21643275 0.3919766 0.057754155 -0.41366535 -0.21608378 0.19056597
00000000: 2b48 b83d 6fde 9cbe a435 253e 86da 273d
00000010: 63b6 1fbc 86af 893d 62b9 4cbc 457f 0f3e
00000020: 0560 56be ea94 81b9 439c 92be 4d95 863e
00000030: ca20 0a3e 7399 4abe f66a 18bb f59b 1b3c
00000040: 8e2a 84be 77de a2bc b9ec a93e 490c fb3b
00000050: dfc5 9ebd 58f5 67be f6a3 efbd 048d 973d
00000060: 0165 553d ace3 003c 8624 80bd d9ea 083e
00000070: 7b0e c9bd 7823 73be c08c 8a3c f891 7d3e
00000080: 74ef bcbc 41b0 15be c711 32be cae3 4a3e
00000090: 7df0 3cbd 3c3b babd d163 64bd 6ffc 6b3e
000000a0: 6707 5fbe bd36 753c 47e5 12bd 73cd 0dbf
000000b0: f375 49be 7478 e4bd 9fa5 a13e 7bed 66bd
000000c0: ca2f 75be 5064 f3be 95fe d1bd 2a58 83bd
000000d0: 27ee a03d 1b8d 50be f529 1cbf 4db1 2abe
000000e0: b03e a0be cd02 56bd 3bc5 61be 49ad 1dbf
000000f0: e83e 513e d5fc 44bf ec27 49bd b11e 00bd
00000100: 13ed abbd 77a9 833e 005c 21bd 6709 80be
00000110: cb7b 10be 8136 dfbe 5f50 86bd afe2 b7be
00000120: 350a 6bbe 54b4 b33e 49f7 95be ad3f 51be
00000130: a8df 22bd e387 5a3e b00c 7c3d eb5d dbbe
00000140: 6bb8 9abd eaf5 8ebe 758e 1dbe 1032 8ebd
00000150: b9d1 b93d c869 883d 07f3 c33c 3467 8f3d
00000160: 4bb1 333d f447 693e 2f02 94bd 75c4 233e
00000170: 497e 393d 38f7 b3bd 0a96 99be bb6c 743d
00000180: 75dc 6abe fc0c 9cbc c79a ec3d d9e5 1dbe
00000190: 50ad 7bbe 656f 4dbb 160e 8cbb 6e38 46be
000001a0: 2221 b2be 8c64 d43c 151f e4be 2532 753d
000001b0: 1a5c 863e 35df d1bd df80 92bd 613b 3dbe
000001c0: f660 80be 1d2d 16be 9823 46be c11c 7d3e
000001d0: 481f ecbd 13f5 e8bd 220b 80bc 2527 0ebe
000001e0: ca3d a73e 3c28 b8be 8c0c a6bd 4959 003d
000001f0: be6b b3be 98c0 e1bd 5a43 1bbe c927 22bd
00000200: 5858 383e 4b7e 89be e3ce 5bbb 36e7 1ebf
00000210: 5e4d 8b3c 2141 5e3e 0b0c 1cbc 09ba 68bd
00000220: 5f6d 8ebe 4b9c a8bd 371e e93d c4fa debd
00000230: 9737 99bd e252 d0bd c205 9a3e 7124 3cbe
00000240: fcad ccbd c0be 7d3d 48c4 4bbd 90ff 5cbe
00000250: fde3 71bd efed bcbe 0daf 0fbd 4b41 30be
00000260: d691 36bb 3747 35bf 2248 66be 928d ecbc
00000270: f6f7 89bd b392 bc3e da98 edb9 02a4 38be
00000280: 7503 edbd 0718 843e ccf2 2a3e dd74 75be
00000290: 48f1 9cbc 6792 df3d 5a62 5ebd aa20 ad3c
000002a0: 2276 bc3b c28a ac3c a6eb 623e e4a2 91be
000002b0: 436d e03e 7b2b d13d b665 5bbe 36bf 223d
000002c0: 0755 713e d2e0 4abe 2224 1fbd 9c2a 5fbe
000002d0: eb7a 89bd 0d6f 53be 4295 963d 4aa4 c83d
000002e0: 8ec7 c43b c199 28be 7949 0bbe ee44 e93c
000002f0: a8c8 833e 0672 a9be 0920 ba3d 3292 81be
00000300: b5fb 5dbe 4000 7e3e 5b7e 833d 88a8 d2be
00000310: 3517 063b 4638 80be 36ce 42bc 2d29 8bbe
00000320: 161b a9be 208e 48be 9083 81be f7ea ebbd
00000330: c874 b1be 282b 8c3c 0964 e6be a8a9 04be
00000340: a692 98be 2c8a 5abe 1d25 5abd 56f2 ecbb
00000350: 31bc a93d e1d5 a3be 648b 8dbe c42f 243d
00000360: 9813 e9be c6ad 5b3d 30c1 9dbe 45d7 9fbe
00000370: 110d acbd e284 ac3c 4453 1abd 5952 9abe
00000380: 08ad 7abe 2867 213e e72b 58be ef64 bb3d
00000390: 7ae3 8abe 047d 06bf ae1c 533e 2236 02bf
000003a0: c163 91be 2c6b a43d 20dc 47be 3ccd e13e
000003b0: 6880 903c eca5 393e 5431 47bd 9c23 603e
000003c0: 21bd a83e 7409 e33d 32f3 7c3e 056d 7abe
000003d0: f0ca 51bd 47a9 81bd fbe8 6ebe a4fe aa3e
000003e0: c5a4 e73e 4d28 2fbe 8ca0 5dbe 28b1 c83e
000003f0: 9f8f 6c3d f2cb d3be 1145 5dbe ba23 433e

network_body._body_endoder.seq_layers.0.bias f4 [512]
-0.05142371 -0.24050947 -0.13654369 -0.13342848 0.014397005 -0.24119076 0.041803647 -0.022793822
-0.036645133 -0.2520546 0.03418302 -0.2526795 -0.115735434 -0.20684211 -0.0678941 0.018105606
-0.0936166 0.020876875 -0.108227536 -0.097877756 -0.172617 -0.24043371 -0.05549523 -0.15873292
-0.24672045 -0.13188131 -0.09236915 0.014545234 -0.07456498 -0.17281446 -0.116882406 -0.087693214
-0.16255914 -0.056176767 -0.08898421 -0.12482704 -0.20482616 -0.072400495 -0.16220623 -0.1580237
-0.101106234 -0.17953227 -0.06563882 -0.1920337 -0.11974319 -0.13657111 -0.26242104 -0.056121074
-0.18432543 -0.19803184 -0.15911451 -0.062432133 -0.112728514 -0.22314592 0.06273543 -0.17013465
-0.17022562 -0.13078095 -0.18449748 -0.05199308 -0.15173246 -0.20466459 -0.103685826 -0.061147295
-0.04441831 0.058994014 0.014385477 0.00046925846 -0.051299118 -0.133792 -0.15595022 -0.18939655
0.025954148 -0.16671652 -0.16716944 -0.12221617 -0.029499786 -0.0272706 0.067794256 -0.13954951
-0.026832726 -0.0532184 -0.14060481 -0.123865314 -0.12692395 -0.15171516 -0.28514338 -0.10798912
-0.17151713 0.08118299 -0.035495717 -0.24123739 -0.07060857 -0.08794129 -0.057021618 -0.14362605
-0.1306324 -0.17446183 -0.0085016275 -0.02536595 -0.13900211 -0.29360828 -0.29120252 -0.06133912
-0.25117287 -0.084774315 -0.21076676 -0.052850407 -0.020500874 -0.014016526 -0.32471222 -0.2402174
-0.15337664 -0.14360252 -0.18016826 -0.19191761 -0.11425994 -0.018173335 -0.2844568 -0.07813496
-0.13662733 -0.2132809 -0.011642307 0.04837022 -0.17435388 -0.14858012 -0.08592171 -0.1817645
-0.16150963 -0.054256447 -0.30673254 -0.09602829 -0.029619206 -0.04210671 -0.1798156 -0.1076248
-0.109326236 -0.19150193 -0.1003614 -0.1395106 -0.23817939 -0.13192251 -0.0014375203 -0.03524502
-0.1401659 -0.10942884 -0.06873635 -0.10907691 -0.23204607 -0.072798185 -0.058291275 -0.27037466
-0.063162 0.029169155 -0.22601846 -0.06706738 -0.010571186 -0.035298847 -0.018978307 -0.093712576
-0.24138756 -0.2144305 -0.053283796 -0.1951815 -0.12629369 -0.10522528 -0.12826702 -0.12490473
-0.028263241 0.011053518 -0.29502022 -0.07407868 -0.16396965 -0.13995771 -0.057499453 -0.098290615
-0.24196912 -0.14628196 -0.039992306 -0.2593018 0.03256105 -0.21162748 -0.22114962 -0.21079375
-0.13582034 -0.10917215 -0.046371955 -0.22477742 -0.14008452 -0.31386203 -0.21587501 0.022275627
-0.08387891 -0.06216217 -0.13690808 -0.16416417 -0.29743442 -0.19739148 -0.0006876969 -0.06815236
0.04907172 -0.007847596 -0.28124353 -0.27247083 -0.03267652 0.06060436 -0.09561525 -0.29349136
-0.22310446 -0.055926632 -0.07022754 -0.19324936 -0.046486173 -0.1343784 -0.06408859 -0.00789649
-0.19287232 -0.09384537 -0.018342124 -0.19357708 -0.19187637 -0.1256878 -0.13581243 -0.24197756
-0.22161163 -0.00945534 -0.20726982 -0.1844337 -0.24472633 -0.03514786 -0.0006010216 -0.17507394
-0.11397413 -0.14531982 -0.12441972 -0.11971545 -0.13349621 -0.14766552 -0.2576804 -0.09758684
-0.11937881 -0.3197839 -0.20959616 -0.1453667 -0.25272837 -0.106290616 -0.07362514 -0.18685433
-0.046179928 -0.051701073 -0.122018635 -0.108098395 -0.06959994 -0.15794659 -0.14365217 -0.14840925
00000000: aba1 52bd 1d48 76be 1cd2 0bbe 7aa1 08be
00000010: 6ae1 6b3c b6fa 76be 4d3a 2b3d 1cba babc
00000020: 3519 16bd 4d0d 81be 7f03 0c3d 355f 81be
00000030: b306 edbd 6bce 53be 100c 8bbd 3552 943c
00000040: 0fba bfbd fb05 ab3c 66a6 ddbd 2274 c8bd
00000050: 83c2 30be 4134 76be f74e 63bd e28a 22be
00000060: 49a4 7cbe e50b 07be 092c bdbd 224f 6e3c
00000070: 86b5 98bd 46f6 30be 0b60 efbd 8098 b3bd
00000080: e775 26be 9c19 66bd 5a3d b6bd 52a5 ffbd
00000090: f3bd 51be b646 94bd 6419 26be f7d0 21be
000000a0: c910 cfbd 4fd7 37be a56d 86bd 7ba4 44be
000000b0: eb3b f5bd 4cd9 0bbe 0d5c 86be 36df 65bd
000000c0: cebf 3cbe dcc8 4abe eaee 22be d6b8 7fbd
000000d0: 35de e6bd 5d80 64be 6f7b 803d c737 2ebe
000000e0: a04f 2ebe 71eb 05be e8ec 3cbe b2f6 54bd
000000f0: c15f 1bbe 9893 51be 3c59 d4bd 9675 7abd
00000100: f9ef 35bd b5a3 713d 10b1 6b3c ce06 f639
00000110: 061f 52bd c500 09be 6ab1 1fbe 2bf1 41be
00000120: cb9d d43c bcb7 2abe 772e 2bbe 794c fabd
00000130: 89a9 f1bc 9866 dfbc b7d7 8a3d 11e6 0ebe
00000140: 4ed0 dbbc 89fb 59bd b5fa 0fbe 19ad fdbd
00000150: 5af8 01be 385b 1bbe 50fe 91be 6629 ddbd
00000160: 30a2 2fbe 4443 a63d f563 11bd ef06 77be
00000170: 3a9b 90bd 901a b4bd 808f 69bd b512 13be
00000180: 80c4 05be 1fa6 32be 694a 0bbc 41cc cfbc
00000190: 9256 0ebe d353 96be 7f18 95be bb3e 7bbd
000001a0: bb99 80be 289e adbd 3ed3 57be ab79 58bd
000001b0: 73f1 a7bc 92a5 65bc ae40 a6be 8dfb 75be
000001c0: c40e 1dbe 8a0c 13be 077e 38be 0d86 44be
000001d0: 1e01 eabd 3fe0 94bc 52a4 91be 3905 a0bd
000001e0: 09e8 0bbe 4f66 5abe 60bf 3ebc da1f 463d
000001f0: d389 32be 6325 18be b9f7 afbd 7920 3abe
00000200: c862 25be 023c 5ebd 0c0c 9dbe 7baa c4bd
00000210: faa3 f2bc 1678 2cbd 9521 38be 646a dcbd
00000220: 6fe6 dfbd 1519 44be 478a cdbd dedb 0ebe
00000230: 4ce5 73be b216 07be 2d6b bcba 155d 10bd
00000240: a687 0fbe 3a1c e0bd a5c5 8cbd b763 dfbd
00000250: 7c9d 6dbe 3717 95bd d5c2 6ebd 8c6e 8abe
00000260: 145b 81bd 27f4 ee3c 6271 67be 9f5a 89bd
00000270: c532 2dbc 8695 10bd 6578 9bbc 61ec bfbd
00000280: 4d2e 77be ab93 5bbe 1c40 5abd a9dd 47be
00000290: 2253 01be 5a80 d7bd 6e58 03be 0dce ffbd
000002a0: 5088 e7bc d119 353c e40c 97be 90b6 97bd
000002b0: a9e7 27be 1351 0fbe 8c84 6bbd 974c c9bd
000002c0: c1c6 77be f0ca 15be f9ce 23bd 35c3 84be
000002d0: bc5e 053d e0b4 58be 0c75 62be 51da 57be
000002e0: 7d14 0bbe a695 dfbd 85f0 3dbd 0d2c 66be
000002f0: 5172 0fbe 86b2 a0be 570e 5dbe 607b b63c
00000300: b5c8 abbd c29d 7ebd a231 0cbe a71a 28be
00000310: 5349 98be fe20 4abe 8f46 34ba 7793 8bbd
00000320: 6eff 483d 3493 00bc 27ff 8fbe 4c81 8bbe
00000330: d1d7 05bd 473c 783d eed1 c3bd 8044 96be
00000340: 7f75 64be 5313 65bd 75d3 8fbd 29e3 45be
00000350: 4968 3ebd 7e9a 09be e140 83bd 4860 01bc
00000360: 5280 45be 0032 c0bd 3942 96bc 1239 46be
00000370: 3d7b 44be 4db4 00be 6a12 0bbe f7c8 77be
00000380: 29ee 62be 92ea 1abc 8a3e 54be 30dc 3cbe
00000390: 8a99 7abe 34f7 0fbd e08d 1dba 9546 33be
000003a0: 456b e9bd b8ce 14be c4cf febd 602d f5bd
000003b0: 3bb3 08be a135 17be afee 83be 9cdb c7bd
000003c0: e17c f4bd b7ba a3be 60a0 56be 02db 14be
000003d0: 9d65 81be e5ae d9bd c7c8 96bd be56 3fbe
000003e0: 2a27 3dbd 81c4 53bd e8e4 f9bd b162 ddbd
000003f0: 6a8a 8ebd c0bc 21be 8e19 13be 98f8 17be

action_model._discrete_distribution.branches.0.weight f4 [4, 512]
-0.016999457 -0.011227061 0.01697972 -0.017854463 0.03199385 0.0011395492 -0.041964486 -0.05568136
0.047303066 -0.003707232 0.10607475 0.0075632683 -0.074409515 -0.018297667 -0.004592727 0.041077036
-0.059370518 0.08779501 -0.020491589 0.027771773 -0.026893832 0.082544446 -0.03755123 -0.011748016
0.000554439 0.010845665 -0.042533003 -0.021241326 0.0362069 -0.0009407575 -0.0031005498 0.011340521
0.046454098 -0.009532399 -0.059564874 0.0049054916 -0.0030112353 0.006794302 0.042140495 0.032927923
-0.037726834 -0.014605624 -0.04405187 -0.043464217 0.0041422774 -0.031334806 0.025359804 0.08998241
-0.066074796 -0.07239722 0.05585262 0.03833094 -0.015754143 0.03607086 -0.04504091 -0.036779046
0.033900972 0.0065112724 -0.01853658 0.005721212 -0.001272924 0.022880275 -0.027362477 0.011238621
-0.012406886 0.037057713 0.01891663 0.06346692 0.0742871 0.026443208 0.004777367 -0.016227525
0.03287676 -0.035242356 0.030257355 0.0353611 -0.017527748 0.054515783 0.027877836 0.052739654
-0.053571973 -0.06390727 0.02013748 0.045484096 0.017278502 0.03577738 0.024746653 -0.015118144
0.02938404 0.04336737 0.033188436 1.4251831e-05 -0.002172331 0.0020174643 -0.06849227 -0.049877197
-0.020822264 0.008596781 0.024437238 0.0046230066 -0.0029709812 -0.07461009 -0.033328813 -0.09959451
0.0300755 0.015571781 0.012488319 0.01438666 0.0068315277 0.050992742 0.023738548 -0.049654033
-0.025876405 0.0704565 -0.039656576 0.016934993 -0.009738036 -0.017374365 -0.004564509 0.0027567758
-0.09972007 -0.009350767 -0.07310835 0.0054120403 -0.0046169115 -0.05095272 0.007734684 0.06854022
0.047312114 -0.043312807 -0.0004768668 -0.017649105 0.026658947 0.009261762 -0.031552963 -0.011330935
-0.013596328 0.016872723 -0.043427233 -0.037946068 0.0059873117 -0.038044814 0.060332563 0.0068148845
0.054207444 0.026314044 -0.0073257918 0.03701522 -0.016472528 -0.011478102 -0.004535329 0.032256924
-0.016992018 0.033073243 -0.058587626 -0.021669278 -0.0074968683 0.049002938 0.061532833 0.037425525
-0.067723885 0.08409269 -0.019781882 -0.04034607 0.0047170585 -0.02159584 0.006001258 -0.03813517
-0.05951609 -0.054121837 -0.07912812 -0.018941306 -0.025008785 -0.04198754 -0.007105397 0.0085990345
-0.087309726 -0.008435877 0.013415599 -0.011828677 0.021045374 -0.017284356 0.030903893 0.012266517
-0.027821453 0.034190744 0.030688293 -0.046223175 0.0030747384 -0.04119341 -0.022196041 0.043485057
0.03780344 0.010163159 -0.024719397 -0.039776776 -0.0013333911 0.049908184 -0.030040842 -0.025482424
0.03366158 0.04987318 -0.046477046 0.03361579 0.0155270165 -0.051171053 -0.0022591567 -0.01702371
-0.019781174 0.042959604 -0.025733788 -0.010689845 -0.02168112 0.032801367 -0.010248962 -0.059421606
0.04372967 -0.09614904 -0.005019849 -0.03081687 0.0045861998 0.01814218 -0.017301429 -0.04427779
0.017841516 0.07554094 -0.021101657 -0.0005088273 0.0150599545 0.05380168 0.04054186 0.07033014
-0.018390609 0.044383273 -0.07832558 0.053900614 -0.0049300413 0.027136765 -0.0112625575 0.006115334
0.010483179 0.054192454 -0.0296766 -0.037008658 0.0040674796 0.06714154 0.022098977 -0.0076971995
-0.06281697 0.037315086 -0.029345127 0.018119194 0.062431056 0.013013532 -0.012040339 -0.0027988737
00000000: 7242 8bbc b5f1 37bc 0e19 8b3c 8643 92bc
00000010: fc0b 033d ed5c 953a f4e2 2bbd 2312 64bd
00000020: dcc0 413d 08f5 72bb b83d d93d 4bd5 f73b
00000030: 0464 98bd fde4 95bc 967e 96bb 6540 283d
00000040: 802e 73bd dfcd b33d fadd a7bc a181 e33c
00000050: 7450 dcbc 100d a93d 52cf 19bd c07a 40bc
00000060: c557 113a 04b2 313c 1637 2ebd 4a02 aebc
00000070: b04d 143d 2b9d 76ba 9832 4bbb 98cd 393c
00000080: a746 3e3d c72d 1cbc 4cfa 73bd 3fbe a03b
00000090: 2558 45bb bca2 de3b 839b 2c3d 6edf 063d
000000a0: 7487 1abd 6d4c 6fbc bc6f 34bd 8907 32bd
000000b0: f1bb 873b ed58 00bd 5dbf cf3c b348 b83d
000000c0: 3952 87bd fe44 94bd b8c5 643d e700 1d3d
000000d0: d50e 81bc 0abf 133d d17c 38bd a0a5 16bd
000000e0: bfdb 0a3d 835c d53b 07da 97bc 0179 bb3b
000000f0: 3ed8 a6ba 6a6f bb3c 4627 e0bc 3122 383c
00000100: 4046 4bbc d4c9 173d 0cf7 9a3c f2fa 813d
00000110: d623 983d 6d9f d83c 768b 9c3b 96ef 84bc
00000120: c8a9 063d 4a5a 10bd 46de f73c cdd6 103d
00000130: 5a96 8fbc f14b 5f3d 0f60 e43c 8905 583d
00000140: 496e 5bbd d1e1 82bd 5bf7 a43c 884d 3a3d
00000150: a58b 8d3c 4d8b 123d 7eb9 ca3c 18b2 77bc
00000160: ccb6 f03c fca1 313d 99f0 073d 261b 6f37
00000170: ab5d 0ebb 6f37 043b ad45 8cbd 084c 4cbd
00000180: 7493 aabc 83d9 0c3c 9a30 c83c 977c 973b
00000190: cbb4 42bb 2dcd 98bd cb83 08bd 35f8 cbbd
000001a0: e560 f63c c920 7f3c ce9b 4c3c 07b6 6b3c
000001b0: 02db df3b c4dd 503d 5877 c23c 0762 4bbd
000001c0: c1fa d3bc 7f4b 903d ef6e 22bd 41bb 8a3c
000001d0: 498c 1fbc af54 8ebc e091 95bb 06ab 343b
000001e0: 093a ccbd f633 19bc d5b9 95bd 7c57 b13b
000001f0: 7649 97bb cdb3 50bd 3b73 fd3b d15e 8c3d
00000200: 59ca 413d c568 31bd fa03 fab9 db94 90bc
00000210: dd63 da3c a5be 173c ae3d 01bd 63a5 39bc
00000220: 22c3 5ebc aa38 8a3c c1e0 31bd 566d 1bbd
00000230: 3631 c43b e1d4 1bbd 471f 773d 654f df3b
00000240: a008 5e3d 8d90 d73c 320d f0bb 459d 173d
00000250: 65f1 86bc a60e 3cbc 199d 94bb d61f 043d
00000260: d832 8bbc cf77 073d 94f9 6fbd c583 b1bc
00000270: 4aa8 f5bb 4eb7 483d da09 7c3d 824b 193d
00000280: d2b2 8abd ca38 ac3d 9d0d a2bc ec41 25bd
00000290: 8e91 9a3b c2e9 b0bc 33a6 c43b a033 1cbd
000002a0: 25c7 73bd dcae 5dbd ec0d a2bd cc2a 9bbc
000002b0: 39df ccbc 20fb 2bbd 64d4 e8bb f7e2 0c3c
000002c0: 71cf b2bd a236 0abc 1acd 5b3c 11cd 41bc
000002d0: 5967 ac3c ec97 8dbc 292a fd3c 80f9 483c
000002e0: d1e9 e3bc 980b 0c3d 0466 fb3c 8354 3dbd
000002f0: 8d81 493b 6cba 28bd 79d4 b5bc 631d 323d
00000300: c8d7 1a3d 6183 263c 5580 cabc f9ec 22bd
00000310: 2ec5 aeba 866c 4c3d 3618 f6bc 84c0 d0bc
00000320: bae0 093d d247 4c3d b75e 3ebd b6b0 093d
00000330: 0765 7e3c bd98 51bd 5c0e 14bb 4f75 8bbc
00000340: 210c a2bc 69f6 2f3d aacf d2bc 7624 2fbc
00000350: 9b9c b1bc ba5a 063d 43eb 27bc 1264 73bd
00000360: e21d 333d cae9 c4bd 8c7d a4bb a973 fcbc
00000370: d547 963b e99e 943c babb 8dbc a15c 35bd
00000380: 5f28 923c 35b5 9a3d 62dd acbc d262 05ba
00000390: 07be 763c 275f 5c3d 390f 263d 4009 903d
000003a0: e7a7 96bc 3ccb 353d 2969 a0bd e4c6 5c3d
000003b0: 2f8c a1bb ec4d de3c 9786 38bc 2463 c83b
000003c0: a4c1 2b3c e8f8 5d3d 571c f3bc 6496 17bd
000003d0: 7e48 853b 8181 893d ea08 b53c ca38 fcbb
000003e0: 2fa6 80bd b4d7 183d 3165 f0bc b46e 943c
000003f0: b5b7 7f3d b636 553c d844 45bc 4f6d 37bb

action_model._discrete_distribution.branches.0.bias f4 [4]
0.018054748 0.015609087 -0.098527454 0.0770286
00000000: 8de7 933c 42bd 7f3c c3c8 c9bd 2cc1 9d3d

action_model._discrete_distribution.branches.1.weight f4 [5, 512]
-0.08479784 0.043834098 -0.022330564 0.11588696 0.04386825 -0.03538216 -0.019512258 0.0015206767
0.03141576 0.020692592 0.06584441 -0.08246819 -0.08400797 0.025355047 -0.025650457 0.04363324
0.07367743 0.15083975 -0.00017939515 -0.042398673 0.045069445 0.008222666 0.02685533 0.0024449576
0.047692478 0.09364619 0.04314973 0.052977663 -0.039454166 0.012260339 0.02255108 0.050996367
0.020046564 0.010752915 0.030917497 -0.054088518 0.025357887 -0.023674197 0.0047426266 0.04833807
0.008078752 0.030828007 -0.036935356 -0.015316049 0.05250768 0.006801166 -0.023952173 0.06980336
0.0942961 0.12089271 -0.009041561 0.017923716 -0.023601275 0.029657692 0.052226324 -0.003068903
0.049350314 -0.034675404 0.0058594407 0.0151890125 0.03753669 0.036634598 -0.02409609 -0.004017634
-0.0104998695 0.032224316 0.05741636 -0.034288045 0.07315396 0.04875008 -0.11968541 0.0017678346
0.054577485 0.009848639 0.008475849 -0.02829458 0.045339856 -0.0021715632 0.035466265 -0.013096965
0.01295015 0.046563122 -0.008846457 0.05823223 0.09199011 -0.0033949385 -0.054444954 0.06742686
0.031463936 -0.0031000318 -0.009621411 0.07223964 -0.052295122 0.02377784 -0.03979846 -0.035158433
0.04341363 -0.079744264 0.117700644 0.056978755 -0.048255425 -0.03273233 -0.06382405 -0.023812303
-0.061161634 -0.017084558 0.018510493 -0.0038629645 0.112260394 0.070460856 0.052290544 -0.001588449
0.009356722 0.028874556 -0.037722122 0.052655775 -0.06205665 0.05161279 0.021712335 -0.019842863
-0.045548446 -0.0397472 -0.020459536 0.018946523 -0.008488615 -0.08999109 0.05346916 0.0022420206
-0.028439505 -0.020750072 -0.011283899 -0.04345343 0.016306084 0.10051842 0.021287339 0.05122536
0.07416314 -0.018458122 0.016683746 -0.004386383 -0.010023251 -0.026691189 0.08876605 -0.013693193
0.024504423 0.05235225 0.045133922 0.05758022 0.015165518 -0.04073503 -0.016646244 0.04651471
0.08582589 -0.01938992 0.02605989 0.01852462 0.024600375 0.07661703 0.1219352 0.032781992
0.08050402 0.064622104 0.011782524 0.10744441 -0.004896509 0.04056571 0.008972155 0.0035112216
-0.009252843 -0.05297579 0.0326976 0.095592394 -0.018460972 -0.008172656 -0.008696149 -0.023553085
0.07293401 -0.037471816 -0.02177362 -0.06444729 -0.0011657128 0.06691468 0.013845475 0.065109916
-0.018643372 -0.035428517 -0.03411043 0.023844725 -0.0015963025 -0.055412255 0.035143778 0.036152612
-0.0140396925 0.06864366 -0.031964347 -0.0035255938 -0.050889924 0.06865365 0.006994223 -0.042895727
0.033980235 0.060455233 -0.008528664 0.048300788 0.008915737 0.019051123 0.035700407 -0.025706489
0.038337342 0.08110503 -0.032708503 -0.018259786 -0.04797962 -0.06080478 0.0002274522 0.087398276
0.022295456 0.019235024 -0.01108543 0.05808808 0.12403028 0.025662001 -0.011551528 0.11990223
0.0334401 0.056574784 -0.008386854 0.026957005 -0.08299596 -0.019538725 -0.006546804 0.024355162
0.00052592857 -0.033353437 -0.018049674 0.072671525 -0.009910114 0.044051547 -0.014838151 0.14121091
0.007159496 0.13153031 -0.014975035 -0.07147816 -0.016911138 0.03949886 0.01866884 -0.034708492
0.022930093 0.009659562 -0.045302182 -0.012752522 0.025206624 0.04533365 0.020598441 0.0724212
00000000: 7daa adbd 628b 333d 96ee b6bc 2456 ed3d
00000010: 32af 333d e2ec 10bd 2cd8 9fbc 7151 c73a
00000020: d0ad 003d 8383 a93c 6fd9 863d 15e5 a8bd
00000030: 5f0c acbd 63b5 cf3c e820 d2bc c5b8 323d
00000040: 31e4 963d bc75 1a3e 051c 3cb9 3baa 2dbd
00000050: bd9a 383d 5cb8 063c b6ff db3c 953b 203b
00000060: 3059 433d 93c9 bf3d c5bd 303d 1bff 583d
00000070: b19a 21bd 97df 483c 0bbd b83c 91e1 503d
00000080: b138 a43c ff2c 303c b146 fd3c ec8b 5dbd
00000090: 58bb cf3c 64f0 c1bc 0968 9b3b 24fe 453d
000000a0: be5c 043c 048b fc3c 8749 17bd 2af0 7abc
000000b0: 4b12 573d 51dc de3b 5937 c4bc 10f5 8e3d
000000c0: 501e c13d 9996 f73d 0e23 14bc c2d4 923c
000000d0: 7657 c1bc b0f4 f23c 45eb 553d a61f 49bb
000000e0: 8e23 4a3d cc07 0ebd 8d00 c03b 56db 783c
000000f0: 12c0 193d 290e 163d 2a65 c5bc 5ba6 83bb
00000100: a507 2cbc a5fd 033d 6b2d 6b3d 9f71 0cbd
00000110: bed1 953d 2aae 473d a01d f5bd b0b6 e73a
00000120: a48c 5f3d 305c 213c 4ade 0a3c 09ca e7bc
00000130: 49b6 393d c950 0ebb 1345 113d a794 56bc
00000140: de2c 543c f9b8 3e3d bbf0 10bc eb84 6e3d
00000150: 5065 bc3d 9e7d 5ebb ac01 5fbd 1817 8a3d
00000160: 54e0 003d e729 4bbb 1fa3 1dbc 60f2 933d
00000170: 6933 56bd bfc9 c23c b603 23bd 4a02 10bd
00000180: 7ed2 313d f650 a3bd 090d f13d 8e62 693d
00000190: 7ba7 45bd 5612 06bd 2fb6 82bd 0512 c3bc
000001a0: 9f84 7abd eaf4 8bbc 51a3 973c ca29 7dbb
000001b0: c7e8 e53d c84d 903d 9c2e 563d 8133 d0ba
000001c0: f04c 193c 558a ec3c 8382 1abd 95ad 573d
000001d0: 1d2f 7ebd ef67 533d 11de b13c 808d a2bc
000001e0: 0291 3abd f6cd 22bd c29a a7bc bd35 9b3c
000001f0: d513 0bbc 404d b8bd 7a02 5b3d ddee 123b
00000200: f7f9 e8bc 0efc a9bc 1ae0 38bc 39fc 31bd
00000210: 5694 853c 9adc cd3d c962 ae3c afd1 513d
00000220: d8e2 973d 7d35 97bc 5aac 883c a6bb 8fbb
00000230: 9038 24bc 7ba7 dabc faca b53d 6a59 60bc
00000240: 80bd c83c 506f 563d 59de 383d 3dd9 6b3d
00000250: cb78 783c c6d9 26bd b45d 88bc 3586 3e3d
00000260: 7cc5 af3d 9cd7 9ebc 8d7b d53c f2c0 973c
00000270: ba86 c93c 64e9 9c3d 2ab9 f93d 6946 063d
00000280: 4bdf a43d 9858 843d 7d0b 413c d10b dc3d
00000290: e572 a0bb 3b28 263d f2ff 123c 861c 663b
000002a0: 3d99 17bc 24fd 58bd ebed 053d f2c5 c33d
000002b0: 773b 97bc 9be6 05bc 4b7a 0ebc 66f2 c0bc
000002c0: 6d5e 953d 0c7c 19bd 975e b2bc f1fc 83bd
000002d0: d5ca 98ba 900a 893d 22d8 623c 5958 853d
000002e0: fcb9 98bc 7e1d 11bd 61b7 0bbd 0356 c33c
000002f0: 063b d1ba f6f7 62bd ecf2 0f3d c314 143d
00000300: bd06 66bc 0c95 8c3d 0ced 02bd a60d 67bb
00000310: f471 50bd 499a 8c3d cc2f e53b 6eb3 2fbd
00000320: dc2e 0b3d e89f 773d cfbb 0bbc 0cd7 453d
00000330: 5013 123c 1a11 9c3c 973a 123d 6a96 d2bc
00000340: 9e07 1d3d 651a a63d 5af9 05bd 8c95 95bc
00000350: 4786 44bd 6f0e 79bd 3c80 6e39 defd b23d
00000360: f6a4 b63c c592 9d3c aa9f 35bc c4ed 6d3d
00000370: 9603 fe3d 1e39 d23c 9f42 3dbc 4d8f f53d
00000380: 7cf8 083d f6ba 673d 0469 09bc f0d4 dc3c
00000390: c9f9 a9bd ad0f a0bc 9386 d6bb 7a84 c73c
000003a0: 78de 093a 9d9d 08bd e9dc 93bc cfd4 943d
000003b0: 085e 22bc 656f 343d b71b 73bc 9899 103e
000003c0: 359a ea3b e2af 063e d959 75bc 2463 92bd
000003d0: 3a89 8abc 8ec9 213d 65ef 983c 7e2a 0ebd
000003e0: e4d7 bb3c 2443 1e3c c88e 39bd f4ef 50bc
000003f0: 1f7e ce3c c7af 393d 10be a83c 9151 943d

action_model._discrete_distribution.branches.1.bias f4 [5]
-0.0035828704 0.011036187 0.038309354 0.0024654733 0.008774871
00000000: 97ce 6abb 20d1 343c 45ea 1c3d c793 213b
00000010: 7ac4 0f3c

exp_avg f4 [512, 40]
0.0 1.338257e-05 -1.6057513e-05 -2.7853557e-06 -6.002487e-06 0.0 -9.2566944e-07 -1.9727719e-05
1.5193093e-05 1.5692935e-06 0.0 6.284476e-06 -1.0746371e-06 -1.0670135e-05 -9.131378e-06 0.0
1.9742714e-05 -2.7377613e-05 2.1745946e-06 8.592265e-07 0.0 6.0551138e-06 5.435372e-06 -1.6950786e-05
-1.0182348e-05 0.0 -1.537737e-06 -8.027959e-06 4.1053927e-06 1.4007517e-06 0.0 7.15563e-06
1.563316e-05 -2.8249091e-05 -1.0384741e-05 -1.1057159e-05 3.2253654e-05 -2.6395803e-05 -0.0003969583 -2.6330225e-05
0.0 1.3459136e-05 -8.9561645e-06 -4.0974774e-06 -4.7379817e-06 0.0 -1.1137281e-06 -2.909006e-06
4.4282315e-06 -4.163654e-06 0.0 5.7995303e-06 -2.2937538e-05 1.754354e-05 1.4605957e-06 0.0
-1.2528341e-05 3.9301463e-05 -2.6367603e-05 -5.986175e-06 0.0 -1.7029164e-05 1.7178409e-05 2.5627784e-07
-1.6315085e-05 0.0 -6.7711284e-05 3.5101173e-05 3.301565e-05 -1.4626839e-06 0.0 -2.0525611e-05
3.2150692e-05 -1.1219572e-05 -1.2730819e-05 7.847404e-06 0.0017713094 2.6611662e-05 -0.0006691695 -9.188343e-06
0.0 8.36303e-06 -3.0929143e-05 3.2540025e-05 1.4836794e-05 0.0 3.283843e-06 -2.871914e-05
3.5409204e-05 2.2925156e-05 0.0 9.005627e-06 -2.1986612e-06 3.166945e-06 5.6728036e-06 0.0
6.902321e-06 -2.2280004e-05 2.5351588e-05 2.6549207e-05 0.0 5.2245217e-05 4.6138703e-06 -4.6885183e-05
-4.0844016e-06 0.0 4.5166158e-05 -8.117417e-06 -2.707483e-05 2.0453492e-05 0.0 3.504155e-05
7.025186e-06 -3.209283e-05 -1.3168154e-05 3.2425763e-05 -0.0008484578 -4.0797837e-05 0.0038213436 -1.5722651e-05
0.0 3.985793e-06 -1.9956791e-05 -0.00012249101 -0.0001320424 0.0 -1.1087816e-05 -7.516697e-06
-0.00011985752 -0.00013719332 0.0 1.1592674e-06 -5.386963e-05 -8.575165e-05 -0.00011943591 0.0
-7.149398e-06 2.2712999e-05 -0.00015402562 -0.0001470089 0.0 -8.969708e-05 -2.2075521e-05 -2.6689384e-05
-0.00011273785 0.0 -0.00014412464 -1.1341098e-05 1.700375e-05 -0.000119878634 0.0 -8.951649e-05
-2.8190047e-05 -2.075548e-05 -9.060919e-05 -9.7078155e-05 0.0028206704 6.742849e-05 -0.010977866 -8.0755366e-05
0.0 1.6545462e-05 -1.3143193e-05 3.020171e-05 6.237997e-06 0.0 3.639997e-05 2.690007e-05
-2.9696066e-05 4.4290264e-06 0.0 1.6159485e-05 -1.5429381e-05 3.2873886e-05 2.5241723e-05 0.0
5.986999e-05 1.7576016e-05 -4.3842003e-05 1.6734954e-05 0.0 3.5785022e-05 -2.856621e-06 6.7555357e-07
3.0303103e-05 0.0 -4.000072e-06 2.366662e-05 1.3937395e-05 1.4355272e-05 0.0 8.886633e-06
1.8235256e-05 6.4820442e-06 4.701009e-05 8.545792e-05 0.00025299017 -1.5634867e-05 0.0021515302 9.975763e-05
0.0 -2.194447e-05 1.603246e-05 1.5143503e-06 -1.4563185e-06 0.0 -1.4336558e-05 4.4805106e-06
5.4583866e-06 -3.4791528e-06 0.0 -1.8787074e-05 1.767567e-05 -3.2862577e-06 -1.1688076e-06 0.0
-9.304305e-06 3.3195013e-06 1.5871431e-06 -2.0946957e-06 0.0 -1.6535627e-05 1.8672088e-05 -6.5341196e-06
-3.6351344e-06 0.0 -1.0593888e-05 1.1398797e-05 -5.202572e-06 -6.737029e-06 0.0 -1.0900166e-05
8.4854255e-06 -1.9829172e-06 -2.9887578e-06 -1.8677792e-05 -2.5621648e-05 -2.3793473e-06 5.4912998e-05 1.3006949e-05
0.0 6.5635995e-06 4.5427412e-05 -6.656498e-05 -3.5895304e-05 0.0 -1.2944329e-05 -3.579571e-07
-1.2716628e-06 -2.747967e-05 0.0 -7.944311e-05 4.7991743e-05 1.6877422e-05 -1.1579823e-05 0.0
00000000: 0000 0000 b385 6037 3fb3 86b7 0cec 3ab6
00000010: f968 c9b6 0000 0000 857b 78b5 f47c a5b7
00000020: d6e5 7e37 84a0 d235 0000 0000 3ddf d236
00000030: 403c 90b5 e203 33b7 f832 19b7 0000 0000
00000040: 289d a537 faa8 e5b7 40ef 1136 98a5 6635
00000050: 0000 0000 082d cb36 7d61 b636 8931 8eb7
00000060: dad4 2ab7 0000 0000 3e64 ceb5 d2af 06b7
00000070: 0ec1 8936 7601 bc35 0000 0000 651a f036
00000080: f523 8337 76f8 ecb7 1f3a 2eb7 2382 39b7
00000090: 1948 0738 8e6c ddb7 d71e d0b9 badf dcb7
000000a0: 0000 0000 8dce 6137 6f42 16b7 107d 89b6
000000b0: f4fa 9eb6 0000 0000 687b 95b5 5838 43b6
000000c0: 3896 9436 84b5 8bb6 0000 0000 9699 c236
000000d0: fd69 c0b7 772a 9337 b009 c435 0000 0000
000000e0: d130 52b7 a0d7 2438 ff2f ddb7 dadc c8b6
000000f0: 0000 0000 dad9 8eb7 5a1a 9037 8f96 8934
00000100: 61dc 88b7 0000 0000 3800 8eb8 9939 1338
00000110: 497a 0a38 7051 c4b5 0000 0000 6a2e acb7
00000120: 8bd9 0638 b23b 3cb7 7496 55b7 58a8 0337
00000130: 482b e83a 1c3c df37 346b 2fba a227 1ab7
00000140: 0000 0000 f14e 0c37 eab9 01b8 967b 0838
00000150: 8ceb 7837 0000 0000 fe5f 5c36 e2e9 f0b7
00000160: 5884 1438 664f c037 0000 0000 e016 1737
00000170: b68c 13b6 b387 5436 0359 be36 0000 0000
00000180: 7c9a e736 f2e5 bab7 1faa d437 fdb5 de37
00000190: 0000 0000 e021 5b38 d8d0 9a36 95a6 44b8
000001a0: be0c 89b6 0000 0000 cb70 3d38 0a30 08b7
000001b0: c11e e3b7 8a93 ab37 0000 0000 94f9 1238
000001c0: e3b9 eb36 6a9b 06b8 caec 5cb7 e600 0838
000001d0: 0a6b 5eba 581e 2bb8 826f 7a3b 23e4 83b7
000001e0: 0000 0000 b3bd 8536 e268 a7b7 ee70 00b9
000001f0: dd74 0ab9 0000 0000 cf05 3ab7 f037 fcb6
00000200: 045c fbb8 8ddb 0fb9 0000 0000 2098 9b35
00000210: 13f2 61b8 91d5 b3b8 aa79 fab8 0000 0000
00000220: dce4 efb6 cb87 be37 f081 21b9 6726 1ab9
00000230: 0000 0000 c11b bcb8 d22e b9b7 04e3 dfb7
00000240: ac6d ecb8 0000 0000 2a20 17b9 a545 3eb7
00000250: 46a3 8e37 5a67 fbb8 0000 0000 cdba bbb8
00000260: aa79 ecb7 0e1c aeb7 7005 beb8 7096 cbb8
00000270: ffda 383b 6568 8d38 82dc 33bc 355b a9b8
00000280: 0000 0000 1ccb 8a37 9681 5cb7 ae59 fd37
00000290: fc4f d136 0000 0000 2cac 1838 76a7 e137
000002a0: d11b f9b7 0c9d 9436 0000 0000 3b8e 8737
000002b0: 586e 81b7 11e2 0938 30be d337 0000 0000
000002c0: ea1c 7b38 3570 9337 fee2 37b8 0a62 8c37
000002d0: 0000 0000 e017 1638 60b4 3fb6 b057 3535
000002e0: 6b33 fe37 0000 0000 5b38 86b6 ae87 c637
000002f0: a8d4 6937 6cd7 7037 0000 0000 cc17 1537
00000300: eaf7 9837 5680 d936 b32c 4538 df37 b338
00000310: c4a3 8439 9f27 83b7 b000 0d3b f834 d138
00000320: 0000 0000 6415 b8b7 727d 8637 ae40 cb35
00000330: b976 c3b5 0000 0000 0c87 70b7 4b57 9636
00000340: 2f27 b736 647b 69b6 0000 0000 ef98 9db7
00000350: 3646 9437 7a89 5cb6 ecdf 9cb5 0000 0000
00000360: b019 1cb7 99c4 5e36 d205 d535 9992 0cb6
00000370: 0000 0000 fdb5 8ab7 01a2 9c37 a93f dbb6
00000380: 22f3 73b6 0000 0000 67bc 31b7 763d 3f37
00000390: c191 aeb6 a30e e2b6 0000 0000 dbdf 36b7
000003a0: a05c 0e37 4212 05b6 7892 48b6 41ae 9cb7
000003b0: 12ee d6b7 e0ac 1fb6 6252 6638 6c38 5a37
000003c0: 0000 0000 e43c dc36 5089 3e38 cd98 8bb8
000003d0: 4a8e 16b8 0000 0000 782b 59b7 402d c0b4
000003e0: 00ae aab5 2484 e6b7 0000 0000 b29a a6b8
000003f0: be4a 4938 fd93 8d37 f646 42b7 0000 0000

exp_avg_sq f4 [512, 40]
0.0 1.7697284e-08 1.2235226e-08 9.13299e-09 2.2729644e-08 0.0 1.1807141e-08 9.374689e-09
1.7783947e-08 2.8961901e-08 0.0 2.2270559e-08 1.1803848e-08 5.5934803e-09 1.951341e-08 0.0
3.378787e-09 6.689502e-09 2.9295565e-08 3.3113224e-08 0.0 2.0684393e-08 1.18686305e-08 7.286637e-09
1.8708745e-08 0.0 4.172196e-09 7.473055e-09 2.7969412e-08 3.3367428e-08 0.0 2.201561e-08
1.0659295e-08 7.822716e-09 2.0719511e-08 1.6809196e-08 7.744651e-07 2.8993467e-08 7.47784e-06 3.353911e-08
0.0 6.8850587e-09 3.1909975e-09 1.2140647e-07 1.2771102e-07 0.0 6.377089e-09 9.7760395e-09
1.14761264e-07 1.2332946e-07 0.0 3.373079e-08 1.8825787e-08 7.491319e-08 1.0527953e-07 0.0
1.4260343e-08 2.9851346e-08 8.5472315e-08 1.1136153e-07 0.0 6.869229e-08 4.346106e-08 1.8850928e-08
6.117683e-08 0.0 3.120072e-08 4.4358607e-08 5.217154e-08 9.5887636e-08 0.0 7.480321e-08
4.543592e-08 8.801943e-09 3.869447e-08 1.18886604e-07 7.6085635e-05 1.5222506e-06 0.0011366095 1.2513314e-07
0.0 3.0719203e-08 5.360857e-09 2.9451131e-08 4.689665e-08 0.0 1.2680842e-08 5.1815423e-09
4.721269e-08 5.786375e-08 0.0 4.3705693e-08 5.0975517e-09 1.6971725e-08 3.3115672e-08 0.0
4.86859e-09 4.987859e-09 5.6118967e-08 6.0467094e-08 0.0 5.3914988e-08 6.711158e-09 6.2899588e-09
2.1224336e-08 0.0 6.336915e-09 5.5779843e-09 5.467678e-08 5.999623e-08 0.0 5.513132e-08
6.5747146e-09 4.9300786e-09 1.8101781e-08 4.1557314e-08 3.0315785e-05 2.7108516e-07 0.00026558994 5.5322047e-08
0.0 1.9498398e-08 4.9713766e-09 1.2193452e-07 1.312687e-07 0.0 8.926147e-09 6.4678343e-09
1.2611032e-07 1.3365005e-07 0.0 4.681716e-08 8.454615e-09 8.373004e-08 1.142176e-07 0.0
1.26834365e-08 1.2199641e-08 1.1919233e-07 1.3149707e-07 0.0 1.0407576e-07 2.6951255e-08 1.2844444e-08
6.248593e-08 0.0 4.3433293e-08 1.3803177e-08 8.5848704e-08 1.2136564e-07 0.0 1.0544451e-07
2.672992e-08 6.639152e-09 4.0375333e-08 1.0900906e-07 0.00011862163 2.8116622e-06 0.0009555299 1.2898988e-07
0.0 7.408644e-08 2.9302669e-08 1.8659733e-08 6.196216e-08 0.0 7.7275324e-08 2.2866494e-08
2.3541988e-08 5.7713585e-08 0.0 3.951788e-08 2.9679823e-08 5.1121205e-08 8.114662e-08 0.0
7.57973e-08 1.8333287e-08 2.688787e-08 6.363524e-08 0.0 3.0837576e-08 2.6054336e-08 6.4000254e-08
9.061226e-08 0.0 5.9070153e-08 1.5065329e-08 4.664216e-08 7.211539e-08 0.0 2.3420265e-08
1.8836694e-08 7.849156e-08 1.0088127e-07 6.112927e-08 2.1562341e-06 1.0212562e-07 3.7096175e-05 1.09164674e-07
0.0 3.1140472e-09 6.8328815e-10 7.7703155e-10 2.3756062e-09 0.0 2.1235707e-09 5.604374e-10
1.7917037e-09 2.7585394e-09 0.0 2.5631852e-09 7.200845e-10 1.2284295e-09 2.528647e-09 0.0
1.5243427e-09 6.439557e-10 2.2916224e-09 2.9827099e-09 0.0 2.2514115e-09 8.097511e-10 1.4502811e-09
2.5685074e-09 0.0 1.3389155e-09 6.244332e-10 2.5402827e-09 3.1239042e-09 0.0 1.9158564e-09
7.333655e-10 1.8915305e-09 2.777011e-09 2.0576836e-09 5.5399372e-08 8.447876e-09 5.4853155e-07 3.849191e-09
0.0 2.2352222e-07 6.155854e-08 1.7103066e-07 3.0081227e-07 0.0 1.1449946e-07 3.588478e-08
3.0550058e-07 3.7347095e-07 0.0 3.06309e-07 7.885389e-08 6.8885726e-08 2.0852923e-07 0.0
00000000: 0000 0000 bd04 9832 1833 5232 51e7 1c32
00000010: 043f c332 0000 0000 5bd8 4a32 510e 2132
00000020: 50c3 9832 e5c7 f832 0000 0000 7a4d bf32
00000030: dfc9 4a32 c630 c031 719e a732 0000 0000
00000040: 4030 6831 7bd9 e531 a1a5 fb32 6038 0e33
00000050: 0000 0000 76ad b132 cae6 4b32 f05d fa31
00000060: f7b4 a032 0000 0000 065b 8f31 d862 0032
00000070: 6341 f032 e04f 0f33 0000 0000 d71c bd32
00000080: 1320 3732 ab64 0632 b0fa b132 d063 9032
00000090: d6e4 4f35 4f0d f932 28ea fa36 a40c 1033
000000a0: 0000 0000 9e91 ec31 9f48 5b31 f55b 0234
000000b0: f020 0934 0000 0000 781d db31 7af3 2732
000000c0: ac72 f633 8b6c 0434 0000 0000 65df 1033
000000d0: 58b6 a132 f6df a033 0916 e233 0000 0000
000000e0: a7fd 7432 e735 0033 e78c b733 a625 ef33
000000f0: 0000 0000 fc83 9333 f1a9 3a33 a1ed a132
00000100: 5160 8333 0000 0000 8e01 0633 ce84 3e33
00000110: 3713 6033 c9ea cd33 0000 0000 80a3 a033
00000120: 5325 4333 5b37 1732 0531 2633 9a4e ff33
00000130: 2a90 9f38 2250 cc35 49fa 943a 565c 0634
00000140: 0000 0000 1ff0 0333 9932 b831 b9fb fc32
00000150: 696b 4933 0000 0000 efda 5932 5409 b231
00000160: e7c6 4a33 de85 7833 0000 0000 ebb6 3b33
00000170: 8a26 af31 38c9 9132 113b 0e33 0000 0000
00000180: 9248 a731 ac61 ab31 7507 7133 23da 8133
00000190: 0000 0000 2890 6733 f897 e631 101f d831
000001a0: cf50 b632 0000 0000 18bc d931 78a8 bf31
000001b0: c1d5 6a33 47d7 8033 0000 0000 87c9 6c33
000001c0: cde7 e131 6e65 a931 3d7e 9b32 c07c 3233
000001d0: a74e fe37 a989 9134 e13e 8b39 3c9b 6d33
000001e0: 0000 0000 6e7d a732 b1d0 aa31 1bed 0234
000001f0: def2 0c34 0000 0000 9c59 1932 ac3b de31
00000200: f168 0734 7281 0f34 0000 0000 0314 4933
00000210: ca3f 1132 14cf b333 ca47 f533 0000 0000
00000220: 58e6 5932 9796 5132 adf6 ff33 a431 0d34
00000230: 0000 0000 4180 df33 7082 e732 76aa 5c32
00000240: 0130 8633 0000 0000 698b 3a33 0423 6d32
00000250: d35b b833 bc50 0234 0000 0000 bb70 e233
00000260: b79b e532 991e e431 2669 2d33 5d18 ea33
00000270: 81c4 f838 fdaf 3c36 877c 7a3a 7880 0a34
00000280: 0000 0000 7319 9f33 40b5 fb32 3049 a032
00000290: 0f10 8533 0000 0000 8ff2 a533 f46b c432
000002a0: 6139 ca32 c2e0 7733 0000 0000 5eba 2933
000002b0: 9ff2 fe32 5c90 5b33 d342 ae33 0000 0000
000002c0: 02c6 a233 537b 9d32 0df7 e632 d8a7 8833
000002d0: 0000 0000 4672 0433 17ce df32 8370 8933
000002e0: 9e96 c233 0000 0000 52b4 7d33 0269 8132
000002f0: 9953 4833 dbdd 9a33 0000 0000 b52d c932
00000300: 54ce a132 318f a833 11a4 d833 2c46 8333
00000310: d2b3 1036 2750 db33 b797 1b38 ea6d ea33
00000320: 0000 0000 e6fe 5531 21d2 3b30 bc96 5530
00000330: 1b40 2331 0000 0000 40ee 1131 470d 1a30
00000340: f83f f630 bd90 3d31 0000 0000 0824 3031
00000350: 71ef 4530 85d5 a830 6ec4 2d31 0000 0000
00000360: 0a81 d130 5b02 3130 a67a 1d31 63f8 4c31
00000370: 0000 0000 40b7 1a31 2b95 5e30 3b53 c730
00000380: a981 3031 0000 0000 e704 b830 95a4 2b30
00000390: 2091 2e31 4eac 5631 0000 0000 1aa8 0331
000003a0: 0296 4930 28fc 0131 b2d5 3e31 2767 0d31
000003b0: 41f0 6d33 2722 1132 cd3e 1335 d841 8431
000003c0: 0000 0000 5201 7034 2a32 8433 8da4 3734
000003d0: 537f a134 0000 0000 bee2 f533 bc1f 1a33
000003e0: ae03 a434 7581 c834 0000 0000 ca72 a434
000003f0: 6256 a933 54ee 9333 14e8 5f34 0000 0000

exp_avg f4 [512]
-5.4603124e-06 4.0554733e-07 9.973908e-06 -0.00013846198 3.3603952e-05 -4.39766e-06 -1.4573937e-05 0.0004564178
-0.00020941693 -6.186497e-06 1.0710435e-05 1.3204374e-05 -0.00014662862 -2.2515547e-05 5.978449e-05 -0.00037573426
1.8335013e-06 -0.00011185069 3.0801893e-05 -3.6591886e-05 2.0994028e-05 -8.3908735e-06 -7.077498e-05 -1.4528683e-07
-4.5620243e-05 -2.3060977e-05 -1.4406475e-05 7.105391e-06 -9.6382595e-05 -9.774062e-05 -5.5252145e-05 -5.8814545e-05
3.742594e-05 -0.00013472856 3.8977003e-05 6.467278e-06 1.7404756e-05 -3.567178e-06 -3.1868956e-05 9.438554e-06
4.6180514e-05 1.030653e-06 8.670979e-05 -0.00011077915 4.507007e-05 -1.3226561e-05 3.0425247e-06 -0.00031017594
-9.8677396e-05 -9.159384e-05 -8.647909e-05 -8.1120845e-05 -2.3865114e-05 -1.3618512e-06 -7.081218e-05 -8.249256e-06
-0.00013398236 4.0153664e-05 -1.3864647e-05 -2.3482364e-05 2.0679081e-05 2.688726e-05 -3.186182e-05 0.00033296566
6.039006e-05 -9.3969946e-05 -2.4113318e-05 -0.00013138966 -5.2072875e-05 6.420999e-05 4.857432e-06 5.25793e-05
-0.00014879313 -9.957023e-05 -0.0001183843 -5.242184e-05 -7.333244e-05 -3.573538e-05 -1.8238075e-05 -4.1383964e-06
0.0006411014 -3.077737e-05 0.00025127715 -4.0505147e-05 -0.00018939891 -0.00012212942 5.4868037e-06 -3.7670223e-05
2.1409509e-05 -0.00036836418 -9.290269e-05 8.9683335e-06 0.00012234953 0.00023242594 0.00015937528 7.963372e-06
-5.086665e-06 -7.373842e-06 -7.7076045e-05 0.00015590055 1.789061e-05 -5.021556e-05 -1.5373687e-05 0.00018549769
7.688685e-06 1.6133861e-05 2.5567804e-05 3.8887603e-05 -0.0003885865 -0.00031976396 8.553739e-05 8.447872e-06
7.0764974e-05 -2.0175095e-05 -2.5127028e-05 1.7507153e-05 5.593617e-06 -0.00020312496 4.0092605e-06 -7.491508e-06
1.9024606e-05 5.2803052e-06 -5.0758586e-05 -0.0002142508 -1.9074625e-05 2.136005e-05 -0.00013334188 1.4362571e-05
-3.2153373e-05 2.6748297e-05 8.503234e-06 5.9383125e-05 -2.3092856e-05 -0.0001271948 -2.6130008e-06 -2.9752071e-05
-3.1744727e-05 1.2989734e-05 -4.421105e-05 -3.3896315e-05 -2.950343e-05 2.7219432e-05 2.1453267e-05 -8.271627e-05
-1.1272729e-05 3.212147e-05 -3.3318196e-05 -0.00026621655 5.5344112e-06 0.00011932175 2.9814617e-05 3.319618e-05
-7.89882e-05 -7.015979e-05 -1.4524235e-05 5.187731e-05 -6.049991e-05 -0.00010902702 -0.00032119465 -0.0001675931
-6.6543274e-05 2.7666417e-06 -8.034209e-05 -6.241551e-05 -5.6308814e-05 -1.3804029e-06 -2.3254379e-05 -9.375937e-05
-0.00011367349 2.7252756e-05 2.6114685e-06 8.8544344e-05 7.1744553e-06 -4.2398122e-05 2.9266766e-05 -9.718194e-05
-3.0908865e-05 1.22076135e-05 1.17368545e-05 -6.562771e-05 -9.598083e-05 -2.2191065e-05 1.05264135e-05 1.2823419e-06
-5.2680616e-06 -8.952077e-05 9.608338e-05 -8.6931366e-05 -4.3608987e-05 2.4372814e-05 5.090207e-06 8.375238e-06
0.00033433753 -0.0001989758 -4.049149e-05 -3.5631112e-06 4.7687868e-06 -3.8222646e-05 3.5079713e-05 0.00022319124
-6.4319276e-05 -9.38538e-05 -6.89374e-05 -1.9100577e-05 3.3500562e-06 -8.456993e-05 -1.3052355e-05 2.3071516e-06
2.0849886e-05 1.2639165e-05 0.00019176069 -7.3342744e-07 1.9445099e-05 -1.8016515e-05 9.6897566e-05 -9.881065e-05
9.495817e-06 2.0227999e-05 -7.082066e-05 -7.254625e-05 -4.6613986e-05 -4.824109e-05 4.595666e-05 5.6960007e-06
1.6744303e-05 -7.36431e-05 -8.726392e-06 -7.0344813e-06 -5.3851745e-06 -0.00013070159 -3.1508578e-05 1.27977655e-05
-5.810718e-05 -2.6070229e-05 -5.3450363e-05 -5.227091e-05 -0.00016965838 -0.00012077504 -3.1912e-05 6.794387e-05
7.392443e-05 7.361712e-05 -2.152675e-06 -0.0002045117 -2.0546044e-05 -3.785819e-05 -0.00016796649 -7.147212e-05
0.00035332597 -3.4082404e-06 -3.1957265e-05 -5.4593427e-05 -0.00015268287 3.06497e-05 8.865565e-06 -6.010038e-05
00000000: ba37 b7b6 00ba d934 9c55 2737 1b30 11b9
00000010: f8f1 0c38 9d8f 93b6 9582 74b7 5c4b ef39
00000020: ee96 5bb9 9b95 cfb6 f8b0 3337 5b88 5d37
00000030: 52c0 19b9 c5df bcb7 1bc1 7a38 33fe c4b9
00000040: a016 f635 6291 eab8 4831 0138 3d7a 19b8
00000050: 551c b037 87c6 0cb7 076d 94b8 2400 1cb4
00000060: 5d58 3fb8 1273 c1b7 57b3 71b7 d86a ee36
00000070: 0321 cab8 19fa ccb8 8abe 67b8 a3af 76b8
00000080: ccf9 1c38 ec45 0db9 3d7b 2338 7f01 d936
00000090: 6e00 9237 a763 6fb6 08ab 05b8 485a 1e37
000000a0: f3b1 4138 f854 8a35 f7d7 b538 1a52 e8b8
000000b0: 9f09 3d38 a6e7 5db7 2d2e 4c36 1c9f a2b9
000000c0: 06f1 ceb8 1216 c0b8 1c5c b5b8 6c1f aab8
000000d0: f131 c8b7 dac8 b6b5 0081 94b8 4966 0ab7
000000e0: 9e7d 0cb9 ab6a 2838 359c 68b7 fefb c4b7
000000f0: fd77 ad37 f48b e137 5ea3 05b8 e591 ae39
00000100: 554b 7d38 bb11 c5b8 f546 cab7 a5c5 09b9
00000110: d368 5ab8 7aa8 8638 06fd a236 9888 5c38
00000120: 5a05 1cb9 5cd0 d0b8 1645 f8b8 86df 5bb8
00000130: 0eca 99b8 92e2 15b8 f8fd 98b7 8edc 8ab6
00000140: 960f 283a f316 01b8 d9bd 8339 12e4 29b8
00000150: 6299 46b9 de0f 00b9 491b b836 1800 1eb8
00000160: 9298 b337 0121 c1b9 c0d4 c2b8 b376 1637
00000170: f44a 0039 5db7 7339 fa1d 2739 6c9a 0537
00000180: 1fae aab6 d26c f7b6 e3a3 a1b8 3c79 2339
00000190: cb13 9637 8c9e 52b8 bef6 80b7 2882 4239
000001a0: a7fe 0037 3457 8737 717a d637 3f1b 2338
000001b0: 32bb cbb9 fea5 a7b9 8962 b338 55bb 0d37
000001c0: a867 9438 b03d a9b7 e2c7 d2b7 53dc 9237
000001d0: ceb0 bb36 f1fd 54b9 4987 8636 905f fbb6
000001e0: 0897 9f37 7a2d b136 9ee5 54b8 83a8 60b9
000001f0: 7202 a0b7 5c2e b337 b0d1 0bb9 c6f6 7037
00000200: 6cdc 06b8 8861 e037 1da9 0e37 2512 7938
00000210: 88b7 c1b7 985f 05b9 035b 2fb6 1694 f9b7
00000220: a425 05b8 7cee 5937 416f 39b8 e42b 0eb8
00000230: 227e f7b7 4955 e437 8af6 b337 f677 adb8
00000240: 0120 3db7 2aba 0638 24bf 0bb8 fb92 8bb9
00000250: 3bb4 b936 603c fa38 671a fa37 203c 0b38
00000260: 78a6 a5b8 c022 93b8 1dad 73b7 d696 5938
00000270: 49c1 7db8 70a5 e4b8 0466 a8b9 eebb 2fb9
00000280: 268d 8bb8 8baa 3936 557d a8b8 12e5 82b8
00000290: 212d 6cb8 4846 b9b5 6612 c3b7 aea0 c4b8
000002a0: fe63 eeb8 d99c e437 b040 2f36 e2b0 b938
000002b0: 1abc f036 a3d4 31b8 e781 f537 28ce cbb8
000002c0: 24a4 01b8 4dcf 4c37 68e9 4437 9ca1 89b8
000002d0: 5149 c9b8 f326 bab7 9a9a 3037 ef1c ac35
000002e0: 4ec4 b0b6 19bd bbb8 5f80 c938 ec4e b6b8
000002f0: cbe8 36b8 3874 cc37 8ccc aa36 6083 0c37
00000300: 064a af39 29a4 50b9 68d5 29b8 c91d 6fb6
00000310: 9103 a036 4151 20b8 8e22 1338 7108 6a39
00000320: 26e3 86b8 60d3 c4b8 7c92 90b8 2d3a a0b7
00000330: 87d1 6036 235b b1b8 70fb 5ab7 90d4 1a36
00000340: cae6 ae37 cd0c 5437 5e13 4939 c0e0 44b5
00000350: 081e a337 2c22 97b7 7c35 cb38 9038 cfb8
00000360: 3950 1f37 4caf a937 8d85 94b8 f923 98b8
00000370: 6383 43b8 7a56 4ab8 97c1 4038 4620 bf36
00000380: 1e76 8c37 d770 9ab8 9167 12b7 bc09 ecb6
00000390: 4cb2 b4b6 f10c 09b9 1428 04b8 fcb5 5637
000003a0: 1cb8 73b8 64b1 dab7 e42f 60b8 763d 5bb8
000003b0: 53e6 31b9 9b48 fdb8 40d9 05b8 167d 8e38
000003c0: e007 9b38 e462 9a38 ad76 10b6 3172 56b9
000003d0: 4b5a acb7 ecc9 1eb8 2920 30b9 4de3 95b8
000003e0: 9c3e b939 20b9 64b6 da09 06b8 3ffb 64b8
000003f0: 7f19 20b9 dd8d 0038 50bd 1437 4b14 7cb8
