MLagents_test1/results/CarAgent_reinforcement_3/CarAgent/CarAgent-1999959.onnx (onnx, 108720 bytes, 7 tensors)

discrete_act_size_vector f4 [1, 2]
4.0 5.0
00000000: 0000 8040 0000 a040

network_body._body_endoder.seq_layers.0.weight f4 [512, 40]
0.0899814 -0.30220276 0.09021303 0.10021295 0.017401312 0.067229316 -0.111922376 0.13760155
-0.16450109 -0.0033894156 -0.28634843 0.18603843 0.11963402 -0.18970346 0.012851437 0.009497632
-0.17827487 -0.09799985 0.34475824 0.016388273 -0.07752585 -0.24210285 -0.110649586 0.011029886
0.019324303 0.007866781 -0.03409484 0.16922247 -0.16011694 -0.21940532 0.016912818 0.23971882
-0.042123605 -0.15369451 -0.20445706 0.03908068 -0.057416275 -0.075505 -0.08859323 0.21016295
-0.21780168 0.058850452 -0.07313946 -0.49886477 -0.14969492 -0.11155787 0.37650892 -0.082938194
-0.2170038 -0.41297472 -0.10253636 0.042619735 0.091847084 -0.18675612 -0.5627333 -0.16669197
-0.31032014 0.03433872 -0.2077604 -0.5629514 0.20434153 -0.7092338 0.012455633 -0.04741753
-0.04776231 0.2571523 -0.041153796 -0.121145874 -0.16811489 -0.38725695 -0.06558298 -0.3369204
-0.13892964 0.29409325 -0.2574648 -0.17108698 -0.018115632 0.070593625 0.07567794 -0.41120172
-0.07554706 -0.29736555 -0.0937937 -0.06558555 0.066039056 0.06660801 0.033024404 0.15000309
0.015576807 0.22394748 -0.07226979 0.1729802 0.049286474 -0.0096196225 -0.30230471 0.059674006
-0.14050694 0.025225718 0.089883916 -0.14800397 -0.24577832 -0.0010749341 0.019962141 -0.17849372
-0.35179675 0.02592685 -0.38608095 0.07073447 0.27021587 -0.08250917 -0.071534865 -0.16374055
-0.20124714 -0.14605881 -0.20310184 0.17777078 -0.10207008 -0.056688096 -0.08504534 -0.25700653
0.3266433 -0.3228279 -0.15635997 0.06671231 -0.30888477 -0.110230625 -0.16472058 -0.029222008
0.17247924 -0.24727775 -0.0033540062 -0.58122945 -0.0053384253 0.21359341 0.013322816 -0.056818042
-0.30355176 -0.02058339 0.10792245 -0.11165708 -0.07481306 -0.11899834 0.27496237 -0.14971325
-0.0430056 0.06194949 -0.009838703 -0.27103603 -0.041945416 -0.37133133 -0.03507905 -0.17376752
-0.028589735 -0.70787233 -0.15427893 0.038192224 -0.09403807 0.3088051 0.009293389 -0.17317763
-0.11572925 0.25177315 0.1524492 -0.20914432 -0.024144597 0.10916596 0.0070756786 0.007703371
-0.030462427 0.011361979 0.22160205 -0.24244703 0.41973862 0.102161616 -0.23183288 0.039733134
0.2270283 -0.23331408 -0.08493871 -0.24509189 -0.06712898 -0.15726805 0.041073903 0.07360747
-0.004166239 -0.16464902 -0.09518394 -0.02815652 0.21998377 -0.34736043 0.090881415 -0.24191284
-0.16609286 0.18850236 0.050203603 -0.366966 0.026705092 -0.23812073 0.021671388 -0.22182903
-0.33028477 -0.115029335 -0.23880428 -0.07525755 -0.25003943 0.017110422 -0.41298607 -0.020972686
-0.28853002 -0.13644183 -0.05325805 0.01737874 0.15109435 -0.2963672 -0.15087105 0.040084615
-0.42398345 0.17222194 -0.29351482 -0.23670569 -0.0840093 0.030999783 -0.06455735 -0.17028397
-0.13139582 0.15762007 -0.09520547 0.12586898 -0.25892103 -0.44665393 0.20616409 -0.46531504
-0.27590632 0.17366908 -0.08993753 0.47438028 -0.0048503303 0.222454 -0.08044539 0.1820625
0.32956794 0.1094881 0.20845766 -0.23459063 -0.040207267 -0.06331115 -0.25076815 0.31319782
0.44623256 -0.18044777 -0.21643275 0.3697825 0.044806402 -0.41081768 -0.21200676 0.19056597
00000000: 2b48 b83d 52ba 9abe 9cc1 b83d 723c cd3d
00000010: 328d 8e3c 86af 893d 8f37 e5bd 6ce7 0c3e
00000020: f972 28be f520 5ebb 439c 92be dc80 3e3e
00000030: ae02 f53d a041 42be d58e 523c f59b 1b3c
00000040: b08d 36be 25b4 c8bd 2784 b03e b340 863c
00000050: dfc5 9ebd cfe9 77be 409c e2bd b2b6 343c
00000060: 004e 9e3c ace3 003c 08a7 0bbd a848 2d3e
00000070: b2f5 23be caab 60be c08c 8a3c da78 753e
00000080: cd89 2cbd 1862 1dbe 315d 51be 1013 203d
00000090: 542d 6bbd 5ea2 9abd 5e70 b5bd f534 573e
000000a0: 6707 5fbe 2c0d 713d 24ca 95bd 346b ffbe
000000b0: a049 19be 7478 e4bd c7c5 c03e 80db a9bd
000000c0: 3f36 5ebe 6c71 d3be 95fe d1bd 0892 2e3d
000000d0: 531a bc3d ff3c 3fbe 4a0f 10bf 4db1 2abe
000000e0: 48e2 9ebe c2a6 0c3d 24bf 54be 951d 10bf
000000f0: e83e 513e 5990 35bf b612 4c3c e238 42bd
00000100: 69a2 43bd 77a9 833e e290 28bd 541b f8bd
00000110: 4f26 2cbe 8b46 c6be 5f50 86bd d580 acbe
00000120: 9243 0ebe 6493 963e 6dd2 83be 6d31 2fbe
00000130: 3c67 94bc 6493 903d 09fd 9a3d 0889 d2be
00000140: 6bb8 9abd 4c40 98be e916 c0bd b851 86bd
00000150: 7c3f 873d c869 883d 9944 073d 699a 193e
00000160: dd35 7f3c 7d52 653e 2f02 94bd b921 313e
00000170: 9de0 493d 9f9b 1dbc afc7 9abe bb6c 743d
00000180: 0de1 0fbe 2aa6 ce3c 0f15 b83d 5a8e 17be
00000190: 50ad 7bbe cee4 8cba a587 a33c 0fc7 36be
000001a0: b41e b4be 8c64 d43c 67ac c5be 3cdd 903d
000001b0: bc59 8a3e 91fa a8bd df80 92bd 9aab 27be
000001c0: bb13 4ebe 7190 15be eef9 4fbe 8b09 363e
000001d0: 1e0a d1bd c731 68bd 402c aebd 5c96 83be
000001e0: ca3d a73e b349 a5be d41c 20be 77a0 883d
000001f0: 2526 9ebe 98c0 e1bd 83ac 28be fe62 efbc
00000200: 669e 303e 6136 7dbe e3ce 5bbb 74cb 14bf
00000210: f5ed aebb 3bb8 5a3e f147 5a3c 09ba 68bd
00000220: 236b 9bbe 7f9e a8bc 7206 dd3d 78ac e4bd
00000230: 9737 99bd 67b5 f3bd dec7 8c3e 6e4e 19be
00000240: a426 30bd c0be 7d3d 8332 21bc 3cc5 8abe
00000250: f5ce 2bbd 241f bebe 0daf 0fbd 1df0 31be
00000260: 0535 eabc 1f37 35bf 4cfb 1dbe 736f 1c3d
00000270: 0897 c0bd b41b 9e3e 4c43 183c 7a55 31be
00000280: 7503 edbd 69e8 803e a51b 1c3e ee29 56be
00000290: e4ca c5bc 6792 df3d 18db e73b 8f6c fc3b
000002a0: 578c f9bc 9827 3a3c a6eb 623e 0944 78be
000002b0: fbe7 d63e 1c3a d13d 9965 6dbe 36bf 223d
000002c0: 1b7a 683e e3e9 6ebe 59f4 adbd 5ef9 7abe
000002d0: eb7a 89bd e00a 21be 1c3d 283d 83bf 963d
000002e0: f284 88bb c199 28be ccef c2bd 81a8 e6bc
000002f0: 6d43 613e 3ad9 b1be 0920 ba3d 00b8 77be
00000300: 3f14 2abe c306 413e 4ba2 4d3d f8e2 bbbe
00000310: a3c4 da3c ecd5 73be 3288 b13c 2627 63be
00000320: 161b a9be 8094 ebbd 1c89 74be a120 9abd
00000330: 2b05 80be 282b 8c3c e972 d3be e9ce abbc
00000340: 35ba 93be 68b7 0bbe 1d25 5abd dc5d 8e3c
00000350: 7ab8 1a3e 71bd 97be f17d 1abe c42f 243d
00000360: 5c14 d9be f35a 303e 9347 96be fa62 72be
00000370: 110d acbd 42f3 fd3c a536 84bd ec5e 2ebe
00000380: a08c 06be 2867 213e 16fb c2bd cce3 003e
00000390: 4c91 84be d3af e4be ae1c 533e c63d eebe
000003a0: 9843 8dbe 4fd6 313e 2b31 b8bd f9e1 f23e
000003b0: 85ef 9ebb fbca 633e 8dc0 a4bd 986e 3a3e
000003c0: 21bd a83e 4c3b e03d ed75 553e 8738 70be
000003d0: 60b0 24bd 47a9 81bd af64 80be 775b a03e
000003e0: 9878 e43e 4dc7 38be 8ca0 5dbe 2254 bd3e
000003f0: eb86 373d b256 d2be 4d18 59be ba23 433e

network_body._body_endoder.seq_layers.0.bias f4 [512]
-0.06347675 -0.19252682 -0.11897617 -0.11571874 -0.00030653665 -0.16065481 0.017995471 -0.0014189126
-0.010728325 -0.23240755 0.042942185 -0.13648205 -0.10741677 -0.1315358 -0.076942086 -0.017057713
-0.08112165 0.035186477 -0.12527148 -0.09774284 -0.13338643 -0.21770917 -0.026019799 -0.08639644
-0.18496583 -0.09308059 -0.080419 0.02371926 -0.08042019 -0.14270304 -0.15317498 -0.071883224
-0.15312862 -0.027994363 -0.036122426 -0.093051 -0.16239722 -0.05662798 -0.13214538 -0.13255695
-0.09896992 -0.1435374 -0.07608942 -0.21684064 -0.15927948 -0.12002723 -0.17365073 -0.05824514
-0.2072467 -0.1936708 -0.14432943 -0.062326718 -0.073699474 -0.11493161 0.045920312 -0.099401616
-0.14996162 -0.19415523 -0.14210191 -0.063399866 -0.11705854 -0.13355356 -0.1246676 -0.032307226
-0.03541151 0.041757695 0.03427333 -0.008689003 -0.073768824 -0.10911802 -0.12020858 -0.17861196
0.04510867 -0.17107515 -0.13955724 -0.10389128 -0.0094992025 -0.034385066 0.06350531 -0.12359981
-0.0038406802 -0.056894157 -0.10280816 -0.06728716 -0.14254618 -0.18254407 -0.20604812 -0.057334945
-0.13395262 0.06538781 -0.05061194 -0.25917605 -0.07483846 -0.043002132 -0.04736258 -0.13740724
-0.11187443 -0.09181003 -0.029298656 -0.025432337 -0.094249636 -0.24063812 -0.26433444 -0.05361955
-0.15792115 -0.056268085 -0.19162774 -0.054723967 -0.017978614 0.020331379 -0.28903696 -0.20667708
-0.16142894 -0.12989806 -0.20711972 -0.1846528 -0.11582328 -0.05818895 -0.19966212 -0.07523509
-0.14479569 -0.18593827 0.020037645 0.011094899 -0.16324556 -0.118265554 -0.05546819 -0.13203551
-0.12717216 -0.017554339 -0.16990592 -0.09977367 0.0015741998 -0.027959755 -0.10731797 -0.057560045
-0.0944855 -0.1663766 -0.04320047 -0.14820908 -0.16862825 -0.12370711 -0.023949951 -0.030111702
-0.1174962 -0.06199669 -0.027105005 -0.0827836 -0.222932 -0.087352484 -0.063586354 -0.22581078
-0.059416316 -0.020140631 -0.2434169 -0.025415989 -0.0054090405 0.0025919888 0.010205963 -0.084348366
-0.2531254 -0.12125774 -0.022136873 -0.18676963 -0.065136045 -0.08362913 -0.08592845 -0.1342472
-0.042110354 -0.011280396 -0.23493892 -0.10073948 -0.1059792 -0.11309161 -0.0531792 -0.11218085
-0.17209938 -0.14352353 -0.05483973 -0.20833705 0.01901035 -0.17724188 -0.13977697 -0.14794903
-0.081059225 -0.11094521 -0.018849498 -0.22789976 -0.10052583 -0.24417438 -0.1935335 0.0027028013
-0.051937424 -0.0406124 -0.13886563 -0.13021372 -0.24015374 -0.16768312 -0.0064621847 -0.052884813
0.083609916 0.010349078 -0.22380583 -0.25372624 -0.050866153 0.032857616 -0.04861746 -0.24720512
-0.20866644 -0.08081327 -0.073399276 -0.14697748 -0.04041604 -0.10472342 -0.032097552 -0.0055140383
-0.18471563 -0.0827936 -0.059671205 -0.20979536 -0.15172765 -0.13951086 -0.116680466 -0.16576798
-0.15041453 -0.005678317 -0.16548736 -0.1540424 -0.200532 -0.08423326 -0.008676984 -0.17257744
-0.07311284 -0.14545996 -0.14357309 -0.05683922 -0.11520546 -0.16196781 -0.18317404 -0.041169897
-0.0857209 -0.28317612 -0.11605254 -0.1509556 -0.28235194 -0.04784365 -0.10524361 -0.2486703
-0.028288072 -0.0077883992 -0.075721055 -0.12589312 -0.09095605 -0.14065893 -0.14662819 -0.13963191
00000000: 1900 82bd c025 45be c7a9 f3bd f2fd ecbd
00000010: a7b6 a0b9 b282 24be 3d6b 933c cefa b9ba
00000020: dbc5 2fbc 3ffc 6dbe 25e4 2f3d f3c1 0bbe
00000030: 53fd dbbd 52b1 06be d093 9dbd 9ebc 8bbc
00000040: 1c23 a6bd b21f 103d 2b47 00be 662d c8bd
00000050: 7496 08be 27ef 5ebe 7927 d5bc 9ef0 b0bd
00000060: af67 3dbe 09a1 bebd b7b2 a4bd e54e c23c
00000070: 57b3 a4bd bf20 12be e7d9 1cbe 8337 93bd
00000080: c0cd 1cbe 6f54 e5bc 1cf5 13bd 8691 bebd
00000090: 754b 26be bef2 67bd 1e51 07be 02bd 07be
000000a0: beb0 cabd 78fb 12be c5d4 9bbd 790b 5ebe
000000b0: 291a 23be d6d0 f5bd 7fd1 31be 7592 6ebd
000000c0: 7b38 54be a351 46be 18cb 13be 4d4a 7fbd
000000d0: c0ef 96bd 4461 ebbd f016 3c3d 1393 cbbd
000000e0: 8a8f 19be a1d0 46be 2a83 11be cad7 81bd
000000f0: 63bc efbd 44c2 08be ba51 ffbd 9554 04bd
00000100: a90b 11bd 1e0a 2b3d 3162 0c3d 525c 0ebc
00000110: 1c14 97bd 4579 dfbd ea2f f6bd 0ee6 36be
00000120: dec3 383d 532e 2fbe 18e8 0ebe f4c4 d4bd
00000130: 8ba2 1bbc 5bd7 0cbd 120f 823d e621 fdbd
00000140: ecb3 7bbb d909 69bd 168d d2bd dacd 89bd
00000150: a0f7 11be d5ec 3abe 47fe 52be 0cd8 6abd
00000160: e02a 09be 0bea 853d 774e 4fbd b9b2 84be
00000170: e844 99bd 0123 30bd 44ff 41bd 7cb4 0cbe
00000180: 6c1e e5bd e606 bcbd bc03 f0bc 7a57 d0bc
00000190: f405 c1bd d769 76be d856 87be 2ca0 5bbd
000001a0: 15b6 21be 5d79 66bd 103a 44be 3d26 60bd
000001b0: e347 93bc fe8d a63c a7fc 93be 28a3 53be
000001c0: a14d 25be ff03 05be 3117 54be a015 3dbe
000001d0: c134 edbd 8957 6ebd 3a74 4cbe db14 9abd
000001e0: 5245 14be 9a66 3ebe fd25 a43c 61c7 353c
000001f0: d829 27be 3635 f2bd 9d32 63bd 5134 07be
00000200: 6b39 02be 1ece 8fbc d1fb 2dbe 2356 ccbd
00000210: 6155 ce3a db0b e5bc 86c9 dbbd 15c4 6bbd
00000220: 9d81 c1bd a15e 2abe faf2 30bd 1fc4 17be
00000230: e2ac 2cbe 275a fdbd b032 c4bc d1ac f6bc
00000240: d9a1 f0bd 3ef0 7dbd 510b debc 738a a9bd
00000250: 4948 64be dce5 b2bd 9039 82bd f13a 67be
00000260: 865e 73bd f7fd a4bc 4842 79be 3135 d0bc
00000270: 523e b1bb 5bde 293b e936 273c d6be acbd
00000280: a799 81be fa55 f8bd 6358 b5bc 8a40 3fbe
00000290: 0c66 85bd c045 abbd 41fb afbd 1978 09be
000002a0: e87b 2cbd 69d1 38bc d493 70be 8050 cebd
000002b0: 9f0b d9bd 939c e7bd 6fd2 59bd 13bf e5bd
000002c0: d23a 30be d5f7 12be a09f 60bd 4f56 55be
000002d0: 98bb 9b3c e57e 35be b221 0fbe f37f 17be
000002e0: 6102 a6bd 3e37 e3bd 436a 9abc 8e5e 69be
000002f0: 7de0 cdbd d908 7abe a52d 46be 7b21 313b
00000300: 56bc 54bd 3059 26bd cb32 0ebe bf56 05be
00000310: ddea 75be 20b5 2bbe bcc0 d3bb bf9d 58bd
00000320: ad3b ab3d 2e8f 293c 5b2d 65be 68e8 81be
00000330: 0759 50bd b595 063d 1a23 47bd 5723 7dbe
00000340: a8ac 55be 6d81 a5bd 5c52 96bd 4481 16be
00000350: 4a8b 25bd 3c79 d6bd b978 03bd 1baf b4bb
00000360: 1826 3dbe b18f a9bd cb69 74bd 98d4 56be
00000370: 7e5e 1bbe efdb 0ebe 2bf6 eebd 15bf 29be
00000380: 4406 1abe 2d11 babb 8575 29be 4abd 1dbe
00000390: 4358 4dbe 7d82 acbd e929 0ebc 24b8 30be
000003a0: 2fbc 95bd 75f3 14be d304 13be 3ed0 68bd
000003b0: d7f0 ebbd e4da 25be fa91 3bbe c4a1 28bd
000003c0: 708e afbd 76fc 90be f4ac edbd 1b94 1abe
000003d0: 6f90 90be b4f7 43bd f689 d7bd 6da3 7ebe
000003e0: 63bc e7bc d435 ffbb a413 9bbd 20ea 00be
000003f0: 2a47 babd e508 10be b325 16be abfb 0ebe

action_model._discrete_distribution.branches.0.weight f4 [4, 512]
0.041153044 0.006148186 0.032665968 -0.03005518 0.028925419 0.009594405 -0.013934316 -0.048898052
0.027181514 -0.016273534 0.10051267 0.06376637 -0.073553145 0.026193302 0.011634408 0.030875297
-0.002484528 0.038598206 0.03923451 -0.0012939151 0.0058210776 0.08315359 -0.03533625 -0.012908263
-0.009081446 -0.005524956 -0.02573241 -0.0273718 -0.015222587 -0.007952557 -0.010345173 0.029743532
0.030992707 0.022594137 -0.066503786 8.238203e-08 0.0326687 0.011398029 0.03412674 0.044413447
0.007247715 -0.023839526 -0.0048489342 -0.025123622 0.012389994 0.014501876 0.052599136 0.057762697
-0.024038447 -0.026264625 0.05153605 0.046902906 0.01270419 0.06140882 -0.021535033 0.01788433
0.040264003 0.015021516 0.025247552 0.010483996 0.01247939 0.025184223 0.0114225 0.012936672
0.04472751 0.03419816 0.002114595 0.03848324 0.053817954 0.040116217 0.0013331012 -0.023226066
-0.00035664128 -0.052939806 0.010818815 0.036968607 0.080861464 0.039532434 -0.0016543295 0.06985406
-0.04980835 -0.025372876 -0.0012981083 0.0042664898 -0.0065726717 -0.0090059675 0.020620996 -0.015576137
-0.023224505 -0.004658336 -0.006829417 0.004755823 -0.0028877142 -0.006528703 -0.011207496 -0.025022095
0.054893788 0.02586133 -0.025200816 0.013055372 0.029921884 -0.02141162 0.0005153818 -0.047686484
0.043995865 0.024394395 0.01692168 -0.020933023 0.014882648 0.005400405 -0.028982066 -0.04062562
-0.022238692 0.026788233 -0.022091888 0.03553925 0.014908042 0.00216766 0.0031537998 0.02464169
-0.048413258 -0.0037884284 -0.04827124 -0.0110016335 -0.0046029687 -0.025712173 0.020604001 0.063129716
0.025639264 -0.05279076 0.016646646 -0.030518023 0.031933874 0.0061452067 -0.02526614 -0.004289488
0.025171507 0.019305762 -0.051792804 -0.025770592 0.014798287 -0.016939275 0.01256572 -0.004361106
0.065187395 0.017520824 -0.04119321 0.029911011 -0.014931016 0.0013721782 0.0046917573 -0.021730648
-0.0033713856 0.013417093 -0.023304272 -0.03280472 0.014646985 0.035086866 0.038584176 0.036327586
-0.00794842 0.08718141 -0.04627816 -0.0033699311 -0.0063711894 -0.011533113 -0.03447124 -0.007399527
-0.028726205 -0.029804725 -0.06730307 0.0068056406 -0.027766373 -0.0026968159 0.0456828 -0.005373436
-0.08105832 0.013079796 0.03580032 0.024751943 0.020053327 0.026194647 0.032048862 0.012530741
0.025478404 0.03694565 0.026990429 -0.041737765 0.024584519 -0.0072278962 -0.038595617 0.008349167
0.031294156 -0.004904356 -0.041025747 0.027474266 0.0021399646 0.03706872 -0.0017341282 0.02695774
0.03648488 0.059801523 -0.029457668 -0.021212162 -0.012989497 -0.036709454 -0.007991409 0.0023634606
0.010379521 0.00931523 0.013293789 0.012963153 0.00958021 0.026048735 -0.03882056 -0.040794548
0.05858336 -0.046003774 -0.040251628 -0.015427653 -0.031439517 0.028536921 0.00065924955 -0.03610952
0.038928635 0.044080988 -0.03942515 0.004710277 0.01728317 0.020592866 0.008971247 0.075669184
0.025779255 0.016282586 -0.047620334 0.022318946 0.016043816 0.0022550705 -0.014173899 -0.008262838
-0.019681891 -0.014916162 0.010899534 -0.041447166 -0.00092162954 0.019340564 -0.0062754764 -0.0075569567
-0.05929819 0.06493451 0.027245605 0.031413052 0.013213699 0.04307177 -0.03935912 0.012565509
00000000: 1890 283d b976 c93b c0cc 053d 4836 f6bc
00000010: 00f5 ec3c da31 1d3c c24c 64bc 5349 48bd
00000020: c4ab de3c 1350 85bc 96d9 cd3d f197 823d
00000030: 08a3 96bd 5693 d63c 3e9e 3e3c 31ee fc3c
00000040: 77d3 22bb 2719 1e3d 5eb4 203d 9698 a9ba
00000050: bdbe be3b 6e4c aa3d bebc 10bd 2e7d 53bc
00000060: 58ca 14bc b10a b5bb c6cc d2bc d33a e0bc
00000070: 2868 79bc 714b 02bc cd7e 29bc b5a8 f33c
00000080: 6be4 fd3c 5717 b93c 2333 88bd 00ea b033
00000090: 9dcf 053d ccbe 3a3c 7bc8 0b3d e0ea 353d
000000a0: 3d7e ed3b 1c4b c3bc cfe3 9ebb 0ed0 cdbc
000000b0: 67ff 4a3c 4799 6d3c 3172 573d 9498 6c3d
000000c0: 47ec c4bc e928 d7bc 7717 533d 431d 403d
000000d0: 3c25 503c d187 7b3d 3d6a b0bc 2982 923c
000000e0: deeb 243d ce1c 763c f4d3 ce3c 11c5 2b3c
000000f0: 5b76 4c3c 254f ce3c 7025 3b3c 56f4 533c
00000100: 3234 373d 5f13 0c3d 0495 0a3b 9aa0 1d3d
00000110: 3770 5c3d e750 243d 74bb ae3a 9744 bebc
00000120: 95fb bab9 69d7 58bd 6641 313c 656c 173d
00000130: b29a a53d c3ec 213d 16d6 d8ba a50f 8f3d
00000140: d703 4cbd c7da cfbc 4925 aaba e9cd 8b3b
00000150: 915f d7bb c48d 13bc 5ded a83c 0e33 7fbc
00000160: 5141 bebc f4a4 98bb 4dc9 dfbb bcd6 9b3b
00000170: ce3f 3dbb bbee d5bb a59f 37bc 23fb ccbc
00000180: 4fd8 603d 24db d33c f171 cebc 33e6 553c
00000190: bd1e f53c 6c67 afbc b01a 073a e752 43bd
000001a0: 0235 343d c1d6 c73c 569f 8a3c bb7b abbc
000001b0: 5ad6 733c e1f5 b03b cc6b edbc 0d67 26bd
000001c0: eb2d b6bc ff72 db3c 0cfa b4bc 9b91 113d
000001d0: dc40 743c 4d0f 0e3b fbaf 4e3b 5fdd c93c
000001e0: fb4c 46bd 4847 78bb 10b8 45bd 3240 34bc
000001f0: 80d4 96bb 56a2 d2bc b9c9 a83c 274a 813d
00000200: 6f09 d23c 203b 58bd 8c5e 883c ef00 fabc
00000210: 18cd 023d bb5d c93b f0fa cebc d58e 8cbb
00000220: 7a34 ce3c 1e27 9e3c b124 54bd d91c d3bc
00000230: 8474 723c 3cc4 8abc 73e0 4d3c 9ce7 8ebb
00000240: f880 853d d587 8f3c 36ba 28bd f007 f53c
00000250: 38a1 74bc a9da b33a 50bd 993b 7904 b2bc
00000260: 77f2 5cbb 5ed3 5b3c 9ae8 bebc 3e5e 06bd
00000270: e8f9 6f3c 3fb7 0f3d 710a 1e3d 3ccc 143d
00000280: 173a 02bc 2b8c b23d 2b8e 3dbd 10da 5cbb
00000290: 69c5 d0bb 62f5 3cbc b731 0dbd bb77 f2bb
000002a0: 3853 ebbc 0a29 f4bc 31d6 89bd da01 df3b
000002b0: 4e76 e3bc 10bd 30bb e31d 3b3d a613 b0bb
000002c0: e801 a6bd a44c 563c 5ba3 123d 96c4 ca3c
000002d0: e046 a43c 2896 d63c ab45 033d bd4d 4d3c
000002e0: 16b8 d03c 5254 173d 081b dd3c 38f5 2abd
000002f0: 7965 c93c fdd7 ecbb 7016 1ebd f2ca 083c
00000300: 4d2e 003d b8b4 a0bb 9d0a 28bd b611 e13c
00000310: a63e 0c3b 5fd5 173d b04b e3ba 7ad6 dc3c
00000320: 2b71 153d 71f2 743d 3551 f1bc 21c5 adbc
00000330: e6d1 54bc a75c 16bd 66ee 02bc 4ae4 1a3b
00000340: de0e 2a3c e89e 183c 31ce 593c 6863 543c
00000350: 50f6 1c3c 2864 d53c 4f02 1fbd 2f18 27bd
00000360: 1bf5 6f3d 746e 3cbd e4de 24bd 44c4 7cbc
00000370: b9c6 00bd 43c6 e93c 7dd1 2c3a 93e7 13bd
00000380: a273 1f3d 448e 343d 447c 21bd ab58 9a3b
00000390: 6f95 8d3c 5fb2 a83c 23fc 123c 72f8 9a3d
000003a0: 042f d33c 0f63 853c 8a0d 43bd 39d6 b63c
000003b0: 526e 833c cec9 133b a439 68bc db60 07bc
000003c0: eb3b a1bc eb62 74bc f693 323c 81c4 29bd
000003d0: 8399 71ba 1a70 9e3c 83a2 cdbb 59a0 f7bb
000003e0: a9e2 72bd 62fc 843d 2d32 df3c f9aa 003d
000003f0: 457e 583c 066c 303d 0737 21bd 91df 4d3c

action_model._discrete_distribution.branches.0.bias f4 [4]
0.011797403 0.0038309514 -0.07145244 0.06130924
00000000: e549 413c b310 7b3b a855 92bd 661f 7b3d

action_model._discrete_distribution.branches.1.weight f4 [5, 512]
-0.034597073 -0.010746573 -0.011661459 0.064291686 0.015358884 -0.034640588 -0.0029945052 -0.030107435
0.0023019484 0.018485062 0.07956967 -0.033807058 -0.02791428 0.028708471 -0.004218113 0.021475729
0.05994907 0.095284514 0.006335896 -0.007028474 0.05438912 0.024011467 0.024739204 -0.0020474086
0.0012464576 0.04262261 0.050116826 0.018308323 -0.026779898 0.016612493 0.03258173 0.04780273
0.041783754 0.02073962 -0.0029333788 -0.06337034 0.048380878 -0.0149063235 -0.012446447 0.010629453
0.029590197 0.032576393 -0.0012769573 0.03747213 0.007841881 0.010105029 -0.011116543 0.064411186
0.054394133 0.06764995 -0.008681728 0.030522414 0.0178274 0.053924285 0.05454425 0.05396812
0.06574571 -0.020902937 0.016803155 0.019523263 0.07471516 0.03369866 0.017040199 -0.00093512144
0.0011157831 0.041616566 0.0470378 0.03995459 0.04357656 0.023370985 -0.080152385 -0.018689068
0.0432084 -0.011318046 0.0272704 0.007628345 0.046459988 0.048128646 0.029055707 -0.006728242
0.01796334 0.044704307 -0.04029168 0.042298403 0.048094068 0.018756924 -0.028608803 0.06425941
0.03251581 0.019177431 -0.0021858288 0.012562439 -0.015003471 -0.011736688 -0.01649094 -0.028416477
-0.0043520904 -0.055097543 0.06060065 -0.0072132153 -0.020215493 -0.00869431 -0.048493657 -0.04433545
-0.039937906 -0.010678188 0.011190809 -0.03158696 0.105681576 0.03972122 0.02521745 0.025570514
0.007884291 -0.014387754 0.0040840195 0.033373985 -0.012997297 0.04783684 0.03897309 0.050667968
-0.04646195 -0.062949866 0.029328272 0.024003688 0.006580723 -0.09537288 0.020065727 0.03088866
-0.017335003 0.00017038413 0.013443794 -0.0027916082 0.052127883 0.09435493 0.06328588 0.040711574
0.09016357 -0.0023304243 9.454638e-05 0.020698488 -0.0045417114 -0.0153633 0.06112389 -0.015144759
0.026753476 -0.031259026 -0.0063525853 0.026407264 0.030318417 0.016725168 0.021467583 0.03825221
0.040822305 0.00978373 -0.008535352 -0.0071343402 0.036899306 0.028532557 0.09468326 0.0136221405
0.039611 0.060233705 -0.012103446 0.05562246 -0.015448303 0.0046115583 0.01618576 0.02564885
0.0046666637 -0.0113466615 0.06635289 0.10302055 -0.033872597 -0.012656421 -0.020598177 -0.013882698
0.017879618 -0.03630382 0.03900382 0.007376337 0.036685575 0.06429144 0.03245768 0.060217794
0.0059014354 -0.00038055962 0.0054407716 0.02733669 0.020125821 0.013470245 -0.0005105286 0.02388818
-0.026439043 0.02989135 -0.010665313 -0.017488493 -0.051596858 0.094166614 0.037140325 0.024806999
0.044411186 0.04537386 -0.007978016 0.02634462 0.0025086934 0.017462926 0.005413144 -0.018997045
0.007759078 0.008602025 6.3811414e-05 -0.017742217 -0.01872453 -0.040416256 -0.021430967 0.031494163
0.054168798 0.0020025978 0.0017382134 0.017688125 0.07887759 0.020027626 -0.0016894299 0.0703835
0.04938231 0.03460769 -0.032242652 0.022635993 -0.06672217 -0.018404024 0.013178667 -0.004492542
-0.01851178 0.0030344436 0.008714044 0.059154898 -0.023643212 0.017857451 -0.034402058 0.102595404
0.020700555 0.0039264937 0.00072069943 -0.023834337 0.005214768 -0.015203109 0.01886572 -0.018587414
-0.0021199016 0.037143648 -0.06498946 -0.0016574992 0.012051612 0.045087032 0.005044498 0.025511712
00000000: a9b5 0dbd 6512 30bc b40f 3fbc 5cab 833d
00000010: d4a3 7b3c 4ae3 0dbd 763f 44bb dea3 f6bc
00000020: 49dc 163b fc6d 973c 6cf5 a23d 4579 0abd
00000030: 7dac e4bc 072e eb3c 1938 8abb deed af3c
00000040: 288d 753d 8724 c33d 599d cf3b 1d4f e6bb
00000050: 20c7 5e3d b2b3 c43c dfa9 ca3c d12d 06bb
00000060: 2d60 a33a 0c95 2e3d 4d47 4d3d 56fb 953c
00000070: 8461 dbbc ec16 883c 6c74 053d cccc 433d
00000080: 7125 2b3d 23e6 a93c ee3d 40bb 4fc8 81bd
00000090: 072b 463d a739 74bc 2fec 4bbc 2827 2e3c
000000a0: 2467 f23c d36e 053d 945f a7ba 607c 193d
000000b0: 3c7b 003c 908f 253c 2922 36bc 03ea 833d
000000c0: 62cc 5e3d 0f8c 8a3d ce3d 0ebc 240a fa3c
000000d0: c40a 923c b6df 5c3d cb69 5f3d ad0d 5d3d
000000e0: b0a5 863d a33c abbc c5a6 893c 40ef 9f3c
000000f0: 4304 993d 9b07 0a3d e397 8b3c f022 75ba
00000100: 783f 923a 2276 2a3d b5aa 403d 6da7 233d
00000110: 567d 323d 8274 bf3c ef26 a4bd d119 99bc
00000120: 4bfb 303d 536f 39bc 2d66 df3c 32f7 f93b
00000130: d44c 3e3d 8b22 453d 3c06 ee3c 9678 dcbb
00000140: db27 933c dd1b 373d e308 25bd 1741 2d3d
00000150: 49fe 443d 1fa8 993c 025d eabc 709a 833d
00000160: 4c2f 053d fd19 9d3c 1f40 0fbb b0d2 4d3c
00000170: 1ed1 75bc 3d4b 40bc 0218 87bc acc9 e8bc
00000180: fb9b 8ebb f6ad 61bd 6338 783d d65c ecbb
00000190: f69a a5bc 9472 0ebc 49a1 46bd 1799 35bd
000001a0: ee95 23bd 91f3 2ebc a859 373c 5461 01bd
000001b0: 956f d83d b8b2 223d d394 ce3c 4179 d13c
000001c0: 1d2d 013c 9dba 6bbc 3dd3 853b 29b3 083d
000001d0: 9df2 54bc 90f0 433d 3fa2 1f3d 3789 4f3d
000001e0: e34e 3ebd dceb 80bd d841 f03c 62a3 c43c
000001f0: 1ba3 d73b db52 c3bd e160 a43c 370a fd3c
00000200: 2302 8ebc 24a9 3239 5c43 5c3c 6af3 36bb
00000210: 0c84 553d 283d c13d 079c 813d 2ec1 263d
00000220: aea7 b83d 08ba 18bb 3447 c638 e08f a93c
00000230: a3d2 94bb 5ab6 7bbc 0b5d 7a3d b921 78bc
00000240: 1b2a db3c 7709 00bd 5929 d0bb 0c54 d83c
00000250: 545e f83c 3803 893c c9dc af3c 59ae 1c3d
00000260: 4a35 273d f04b 203c dcd7 0bbc 2fc7 e9bb
00000270: ba23 173d 1cbd e93c 4ce9 c13d 662f 5f3c
00000280: 253f 223d 9eb7 763d 884d 46bc 60d4 633d
00000290: e11a 7dbc 8e1c 973b 0098 843c 891d d23c
000002a0: d0ea 983b 59e7 39bc 06e4 873d 70fc d23d
000002b0: febd 0abd e15c 4fbc 82bd a8bc 4174 63bc
000002c0: 4778 923c 50b3 14bd 78c2 1f3d 33b5 f13b
000002d0: 9d43 163d 3bab 833d 58f2 043d efa6 763d
000002e0: d460 c13b d985 c7b9 8048 b23b 32f1 df3c
000002f0: e8de a43c 4db2 5c3c ffd4 05ba 25b1 c33c
00000300: b196 d8bc b4de f43c 91bd 2ebc 0744 8fbc
00000310: 3a57 53bd 6dda c03d 7420 183d 0c38 cb3c
00000320: 81e8 353d f1d9 393d 39b6 02bc acd0 d73c
00000330: e468 243b 690e 8f3c be60 b13b b19f 9bbc
00000340: dd3f fe3b 82ef 0c3c 7ed2 8538 2058 91bc
00000350: 2f64 99bc 848b 25bd ff8f afbc 0600 013d
00000360: 1ae0 5d3d 043e 033b c3d4 e33a b0e6 903c
00000370: 938a a13d fa10 a43c dc6f ddba 3925 903d
00000380: 1b45 4a3d cbc0 0d3d df10 04bd 1e6f b93c
00000390: a2a5 88bd 09c4 96bc 56eb 573c 2c36 93bb
000003a0: 04a6 97bc 84dd 463b 59c5 0e3c 684c 723d
000003b0: 69af c1bc ca49 923c 2ce9 0cbd 8a1d d23d
000003c0: 3694 a93c d1a9 803b 52ed 3c3a 3a40 c3bc
000003d0: a5e0 aa3b 7616 79bc 488c 9a3c a244 98bc
000003e0: 0cee 0abb f023 183d 3219 85bd 7240 d9ba
000003f0: 2074 453c 2ead 383d 514c a53b f0fd d03c

action_model._discrete_distribution.branches.1.bias f4 [5]
-0.008750026 0.008482456 0.04065363 -0.005205453 -0.0013861363
00000000: 455c 0fbc 00fa 0a3c 6c84 263d 8192 aabb
00000010: 04af b5ba
