MLagents_test1/results/CarAgent_reinforcement_3/CarAgent/CarAgent-4999956.onnx (onnx, 108720 bytes, 7 tensors)

discrete_act_size_vector f4 [1, 2]
000000 00 00 80 40 00 00 a0 40
       4.0 5.0

network_body._body_endoder.seq_layers.0.weight f4 [512, 40]
000000 2b 48 b8 3d 95 d0 a5 be 9c c1 b8 3d 2c 12 f7 3d
       0.0899814 -0.32385698 0.09021303 0.12064013
000010 40 c9 53 3c 86 af 89 3d 4d a0 e9 bd 6c e7 0c 3e
       0.0129264 0.067229316 -0.11407528 0.13760155
000020 bf 4f 2a be aa 5f ac bb 43 9c 92 be 8a 11 57 3e
       -0.16631983 -0.0052604275 -0.28634843 0.21002784
000030 ae 02 f5 3d db dc 5e be 87 71 8d ba f5 9b 1b 3c
       0.11963402 -0.21763937 -0.001079128 0.009497632
000040 47 27 37 be 25 b4 c8 bd a7 25 b0 3e 99 4d 4c 3c
       -0.17886077 -0.09799985 0.34403726 0.012469673
000050 df c5 9e bd f5 2f 6b be 40 9c e2 bd d7 db cd 3a
       -0.07752585 -0.22967513 -0.110649586 0.0015705776
000060 65 9c 07 3c ac e3 00 3c 79 7f d5 bc a8 48 2d 3e
       0.008277033 0.007866781 -0.02606176 0.16922247
000070 ce 23 2e be ed 42 68 be c0 8c 8a 3c de 07 7f 3e
       -0.17005846 -0.2268178 0.016912818 0.24905345
000080 cd 89 2c bd c8 5a 3f be c1 45 57 be f3 3a 75 3d
       -0.042123605 -0.18686974 -0.21022703 0.05987067
000090 49 00 d8 bc 9b 55 f3 bd 87 f8 8a bd 52 82 57 3e
       -0.026367323 -0.11881562 -0.06785684 0.21045807
0000a0 67 07 5f be 0f 11 ab 3c 24 ca 95 bd b6 aa ff be
       -0.21780168 0.020882158 -0.07313946 -0.4993493
0000b0 1d 03 23 be 74 78 e4 bd 21 03 ab 3e 80 db a9 bd
       -0.15919156 -0.11155787 0.33400825 -0.082938194
0000c0 28 6d 53 be d7 5a da be 95 fe d1 bd 89 60 2c bc
       -0.20647109 -0.4264743 -0.10253636 -0.010521063
0000d0 53 1a bc 3d 61 79 34 be 42 e0 11 bf 4d b1 2a be
       0.091847084 -0.17624427 -0.56982815 -0.16669197
0000e0 0f d7 ab be c2 a6 0c 3d 62 d2 48 be 74 04 12 bf
       -0.33562514 0.03433872 -0.19611505 -0.57038045
0000f0 e8 3e 51 3e 2e 55 32 bf b6 12 4c 3c 3b 00 9b bd
       0.20434153 -0.69661224 0.012455633 -0.07568403
000100 b3 42 62 bd 77 a9 83 3e ca 29 38 bd 54 1b f8 bd
       -0.05523939 0.2571523 -0.04496173 -0.121145874
000110 9b 2c 3c be 99 cc c9 be 5f 50 86 bd d9 37 b7 be
       -0.1837639 -0.39413908 -0.06558298 -0.35784796
000120 92 43 0e be 94 54 9e 3e e8 61 89 be 08 50 40 be
       -0.13892964 0.30923903 -0.2683251 -0.1878053
000130 40 12 ac bb b3 cc a7 3d ca 85 9a 3d 86 f6 d8 be
       -0.005251199 0.0819334 0.075450495 -0.42375582
000140 6b b8 9a bd 95 21 7c be e9 16 c0 bd ce f5 ad bd
       -0.07554706 -0.24622186 -0.0937937 -0.08494149
000150 38 03 c2 3d c8 69 88 3d 90 8c 1b 3c 69 9a 19 3e
       0.0947327 0.06660801 0.009493962 0.15000309
000160 42 02 7f 3d e5 13 86 3e 2f 02 94 bd 60 f0 6d 3e
       0.062258013 0.26187053 -0.07226979 0.23236227
000170 9d e0 49 3d 1a 4b 85 bd f6 56 97 be bb 6c 74 3d
       0.049286474 -0.06508465 -0.29558533 0.059674006
000180 23 ae 27 be 2a a6 ce 3c 9a b5 01 3e 33 d0 e7 bd
       -0.16375022 0.025225718 0.12666932 -0.11319008
000190 50 ad 7b be 28 a2 31 3d a5 87 a3 3c a6 a9 51 be
       -0.24577832 0.043367535 0.019962141 -0.20474872
0001a0 6b fa b2 be 8c 64 d4 3c 27 e4 d0 be 3c dd 90 3d
       -0.3495668 0.02592685 -0.40799066 0.07073447
0001b0 ff 0f 9f 3e d8 69 4e bd df 80 92 bd d0 39 ed bd
       0.31066892 -0.05039391 -0.071534865 -0.115832925
0001c0 bb 13 4e be f6 25 67 be ec 26 43 be 76 ff 82 3e
       -0.20124714 -0.22573075 -0.19057816 0.25585526
0001d0 e8 4d e0 bc 08 a9 a2 bd 3d 01 da bd 8f 13 a0 be
       -0.027380899 -0.079423964 -0.106447674 -0.31264922
0001e0 ca 3d a7 3e e5 15 92 be d4 1c 20 be 63 16 81 3d
       0.3266433 -0.2853233 -0.15635997 0.06303098
0001f0 ee 0a 9e be 98 c0 e1 bd e1 5a 1a be fe 62 ef bc
       -0.30867714 -0.110230625 -0.1507373 -0.029222008
000200 d5 a8 2f 3e 3f a0 7c be e3 ce 5b bb 19 f5 1c bf
       0.17154248 -0.24670504 -0.0033540062 -0.6131149
000210 f5 ed ae bb 7b a0 77 3e 78 22 8e 3c 09 ba 68 bd
       -0.0053384253 0.24182312 0.01735042 -0.056818042
000220 3c b4 93 be 7f 9e a8 bc 44 71 d5 3d d3 ef df bd
       -0.28848445 -0.02058339 0.10421994 -0.10934415
000230 97 37 99 bd 5c 1d 00 be de c7 8c 3e 60 13 05 be
       -0.07481306 -0.125112 0.27496237 -0.12995672
000240 70 ea 28 bd c0 be 7d 3d 2a e0 09 3c 3c c5 8a be
       -0.041239202 0.06194949 0.008415261 -0.27103603
000250 c9 fc 50 bd 1b 81 bc be 0d af 0f bd 9a 34 38 be
       -0.051022325 -0.3681725 -0.03507905 -0.17988816
000260 05 35 ea bc ec ef 29 bf 40 9d 1a be 5c b7 0b 3d
       -0.028589735 -0.66381717 -0.15099049 0.034110412
000270 77 96 c7 bd 0d b3 92 3e e7 7b f4 3b c2 24 35 be
       -0.09745496 0.2865223 0.0074610594 -0.17689803
000280 75 03 ed bd 6d 07 85 3e a5 1b 1c 3e 60 63 67 be
       -0.11572925 0.25982228 0.1524492 -0.22596502
000290 a6 1e 10 bd 67 92 df 3d 88 b8 33 bd 8f 6c fc 3b
       -0.03518548 0.10916596 -0.043877155 0.007703371
0002a0 57 2f 7b 3c b6 78 6b 3c a6 eb 62 3e 98 45 80 be
       0.015331111 0.014372041 0.22160205 -0.25053096
0002b0 fb e7 d6 3e a7 24 c1 3d cf cd 7b be 36 bf 22 3d
       0.41973862 0.09430819 -0.24590228 0.039733134
0002c0 ed 54 44 3e e3 e9 6e be b0 84 a0 bc f6 40 78 be
       0.19173022 -0.23331408 -0.01959452 -0.2424353
0002d0 eb 7a 89 bd e7 54 06 be 1c 3d 28 3d 3c dd 4f 3d
       -0.06712898 -0.13118325 0.041073903 0.050748095
0002e0 cd 33 dd bc c1 99 28 be 5e eb ef bd 81 a8 e6 bc
       -0.02700224 -0.16464902 -0.117148146 -0.02815652
0002f0 e3 29 7f 3e da 59 b4 be 09 20 ba 3d 7a f8 69 be
       0.24918322 -0.352248 0.090881415 -0.22848693
000300 3f 14 2a be c9 bb 30 3e 3b aa cc 3c 7c c9 be be
       -0.16609286 0.17259134 0.024983516 -0.37263095
000310 40 18 fd 3b 03 87 7a be 6e 3f b0 3c ba f1 58 be
       0.007723838 -0.24465565 0.02151462 -0.21185961
000320 16 1b a9 be fa d4 00 be 1c 89 74 be 40 38 7c bd
       -0.33028477 -0.12581244 -0.23880428 -0.06157708
000330 1c 5d 7d be 28 2b 8c 3c ba 43 d5 be e9 ce ab bc
       -0.2474255 0.017110422 -0.41653234 -0.020972686
000340 00 95 90 be 5f 00 0b be 1d 25 5a bd 7e 8f 87 3b
       -0.28238678 -0.1357436 -0.05325805 0.0041369786
000350 7a b8 1a 3e a8 1d 91 be bb 94 25 be c4 2f 24 3d
       0.15109435 -0.28342938 -0.16170017 0.040084615
000360 a7 3f de be f3 5a 30 3e 81 7d 90 be 57 74 6b be
       -0.43407938 0.17222194 -0.28220752 -0.22993599
000370 11 0d ac bd eb 53 4c 3d a5 36 84 bd 2e ec 41 be
       -0.0840093 0.049884718 -0.06455735 -0.18937752
000380 b2 dc 0e be 28 67 21 3e 7c f0 fe bd cc e3 00 3e
       -0.13951376 0.15762007 -0.124482125 0.12586898
000390 30 e2 6a be 11 80 e2 be ae 1c 53 3e 33 02 e4 be
       -0.22937846 -0.44238332 0.20616409 -0.44532928
0003a0 98 43 8d be 64 6d 1c 3e d4 66 d4 bd b2 9f f0 3e
       -0.27590632 0.15276104 -0.103711754 0.46996838
0003b0 1e 30 21 3c b4 74 7c 3e 94 8f 73 bd ad b3 68 3e
       0.009838132 0.24653894 -0.0594631 0.22724791
0003c0 21 bd a8 3e 26 8c 09 3e ed 75 55 3e 2d d4 4f be
       0.32956794 0.13432369 0.20845766 -0.20295782
0003d0 bf 9a e6 bb 47 a9 81 bd 9c 39 6f be 77 5b a0 3e
       -0.00703749 -0.06331115 -0.2336182 0.31319782
0003e0 0e 1c f6 3e b3 4f 13 be 8c a0 5d be 8d e5 db 3e
       0.4806828 -0.14385872 -0.21643275 0.4294857
0003f0 eb 86 37 3d a8 8f e2 be bc 2b 38 be ba 23 43 3e
       0.044806402 -0.44250226 -0.17985433 0.19056597

network_body._body_endoder.seq_layers.0.bias f4 [512]
000000 bd 26 89 bd 65 7e 50 be 7a 05 ba bd 67 74 e7 bd
       -0.06696842 -0.20360716 -0.09083076 -0.11301499
000010 50 8d 04 bc 19 96 24 be 01 be 60 3d 5d 52 a1 3c
       -0.008090332 -0.16072883 0.0548687 0.019692594
000020 87 06 d6 bc 26 4d 69 be a5 38 17 3d 38 a4 09 be
       -0.02612616 -0.22783336 0.036919255 -0.1344155
000030 d8 3b ff bd 9a 82 0b be a7 14 9b bd c1 d5 0a bc
       -0.12462586 -0.1362404 -0.075722985 -0.008473814
000040 67 5f c0 bd d8 50 1b 3d 9c 8d b5 bd b3 75 da bd
       -0.093931966 0.037918895 -0.088649005 -0.106669806
000050 f8 ae b9 bd 38 d7 69 be 3b d5 9c bc c2 3d 9c bd
       -0.09066576 -0.22836006 -0.019144645 -0.07628967
000060 c1 39 45 be 8d 20 b6 bd 04 95 98 bd de 2b 1a 3d
       -0.19260313 -0.08892927 -0.074502975 0.03763949
000070 02 a2 80 bd 45 4c 0a be 70 bb e3 bd f1 b6 4c bd
       -0.062809005 -0.13505657 -0.11119735 -0.049979154
000080 03 70 18 be 03 4e 0d bd 5b 78 47 bd 33 ec c6 bd
       -0.14886479 -0.034498226 -0.048698764 -0.0971302
000090 fe 06 1d be ff dd 29 bd 3a 16 11 be 18 e5 d9 bd
       -0.15334699 -0.041471478 -0.14168635 -0.10639399
0000a0 8e 26 b6 bd b4 df 07 be 5d 02 6c bd 04 41 58 be
       -0.088940725 -0.1326893 -0.05761944 -0.21118551
0000b0 38 55 24 be 27 e0 04 be b0 b2 31 be e1 6f 71 bd
       -0.16048133 -0.12976132 -0.1735332 -0.058944587
0000c0 bf 1f 61 be dd 28 42 be 80 7b 03 be d2 55 43 bd
       -0.21984766 -0.189609 -0.1284008 -0.047689267
0000d0 a3 d8 93 bd 97 cd f3 bd 6c 33 82 3d 09 08 bb bd
       -0.072190545 -0.119044475 0.06357464 -0.09132392
0000e0 bd 08 1d be c3 8d 45 be 29 68 19 be e9 9e 53 bd
       -0.15335365 -0.19292359 -0.1498114 -0.05166522
0000f0 f5 60 16 be 40 18 f1 bd e9 d9 de bd 46 fb ee bc
       -0.14685424 -0.117722034 -0.10881407 -0.02917255
000100 3f 66 16 bd e8 22 32 3d ec 54 66 3d 9b 07 45 3c
       -0.036718603 0.04349032 0.05623333 0.012025739
000110 0f d9 63 bd d9 a2 05 be 17 e8 e4 bd 1b 43 3b be
       -0.055626925 -0.13050403 -0.1117708 -0.18287317
000120 b5 81 57 3d 1c 2d 3c be 44 4b 0c be 10 f6 b1 bd
       0.052613933 -0.18376583 -0.13700587 -0.08689511
000130 5f be bc bc 10 72 16 bd 7f cb a7 3d 63 36 01 be
       -0.023039995 -0.036729872 0.08193111 -0.12618403
000140 4d 56 52 bb 7c fe 16 bd 9f 6e ef bd 2d e3 7a bd
       -0.0032094896 -0.03686379 -0.11691021 -0.061251808
000150 43 6e e5 bd 32 6d 33 be 32 b0 5f be 75 da 4e bd
       -0.112026714 -0.17522123 -0.21844557 -0.050501306
000160 94 29 fe bd 46 a2 a1 3d 56 11 da bc f3 32 7e be
       -0.12410274 0.07892279 -0.026619595 -0.24824123
000170 89 da 75 bd 44 d1 37 bd 9d f6 1f bd 33 d5 11 be
       -0.060022864 -0.044877306 -0.039053548 -0.14241485
000180 57 f9 be bd 9d 9f 82 bd 34 ae 60 bb 01 d0 e5 bb
       -0.093249016 -0.063781 -0.003428352 -0.0070133214
000190 8d db fc bd ce a6 76 be 7e 35 7b be f9 56 0c bd
       -0.123465635 -0.24087068 -0.24532124 -0.03426263
0001a0 97 9a 02 be a8 a1 55 bd 86 05 3e be c4 bc 10 bd
       -0.12754284 -0.05215612 -0.18556795 -0.03533627
0001b0 03 65 15 bc ef d4 f2 3b 0b bc 91 be 4f d4 52 be
       -0.009118321 0.0074106376 -0.28463778 -0.20588802
0001c0 cd 7c 2b be 2c e7 fb bd 2a 34 54 be 2b e3 1e be
       -0.16746826 -0.12299952 -0.20723024 -0.15516345
0001d0 60 54 a8 bd ac eb 56 bd b3 46 48 be 08 e9 8a bd
       -0.08219218 -0.052470848 -0.1955822 -0.067827284
0001e0 31 b3 c9 bd 27 c1 3c be bf ff b5 3b 49 bc d7 3c
       -0.09848631 -0.18433057 0.005554169 0.026334899
0001f0 34 ad 22 be 04 79 de bd d8 fa 8c bd 80 48 1f be
       -0.15886384 -0.10862926 -0.06883782 -0.15555
000200 7c fe 08 be 3a c5 81 bc 08 76 2c be 9a 8a c9 bd
       -0.13378328 -0.015841115 -0.168419 -0.09840889
000210 0e 93 a3 ba dc 34 fb bc 7a a6 c8 bd 58 f9 83 bd
       -0.0012479739 -0.030664854 -0.09797378 -0.06444043
000220 03 fb d4 bd 19 10 43 be 83 33 2a bd f1 f8 f8 bd
       -0.10399439 -0.1904911 -0.04155303 -0.12156857
000230 49 6e 2f be 38 cb e2 bd 72 51 8f 3c 90 a3 9e bc
       -0.17131914 -0.11073917 0.01749489 -0.019365102
000240 6f 51 0e be c2 b9 8a bd 04 75 9c bc 5f 0a 99 bd
       -0.13898252 -0.06773712 -0.019098766 -0.07472681
000250 2c db 63 be 63 1e 91 bd a6 56 17 bd dd bf 75 be
       -0.22251576 -0.07085874 -0.03694787 -0.23998971
000260 a0 c1 13 bd 51 81 ce 3c c6 39 74 be 9a 1e b0 bc
       -0.036073327 0.025208147 -0.23850164 -0.021498967
000270 dd 78 2b bb f0 30 83 bc 2c 98 df 3b 17 5f c8 bd
       -0.002616457 -0.016014546 0.00682356 -0.09783762
000280 91 d7 7b be 9c 5d 23 be fa 06 f2 bb da 82 42 be
       -0.24593951 -0.15953678 -0.0073860856 -0.18995228
000290 92 a9 69 bd e7 db 9e bd 6e 57 ae bd 83 1e e3 bd
       -0.05704648 -0.07756787 -0.0851277 -0.11089804
0002a0 8c be a8 bd 83 e6 6e bc bf 93 7f be 18 1e fb bd
       -0.08239469 -0.014581325 -0.24958704 -0.12261599
0002b0 1c 24 f1 bd 8b 55 f3 bd 6b 8b 83 bd e7 b6 d0 bd
       -0.117744654 -0.118815504 -0.06423076 -0.10191136
0002c0 15 c9 3c be 4a 48 fd bd e2 3f 8f bd 18 c7 6b be
       -0.18436082 -0.12367304 -0.069946066 -0.23025167
0002d0 4c eb 2f 3d 16 da 3a be bb 5a 22 be 70 d1 22 be
       0.042949006 -0.18247256 -0.15854923 -0.15900207
0002e0 c7 a4 a0 bd 48 22 f2 bd 1d f9 29 bd 81 b8 6b be
       -0.07843929 -0.11822945 -0.04149734 -0.23019601
0002f0 19 73 e4 bd ca 28 87 be 71 9d 41 be 35 21 11 3c
       -0.11154766 -0.26398307 -0.18907715 0.008858015
000300 6b 5a 47 bd 8e be 72 bd a5 21 e8 bd a7 a6 ce bd
       -0.048670214 -0.05926376 -0.11334542 -0.1009038
000310 07 1f 7c be 35 ad 33 be cf 39 0d bc 8c fe 67 bd
       -0.24621211 -0.17546542 -0.00861974 -0.05663924
000320 27 f5 82 3d 90 67 76 3c 75 21 7d be f0 0d 85 be
       0.06394415 0.01503934 -0.24719794 -0.25987196
000330 a4 47 fd bc dd 49 34 3d 99 c9 2e bd aa 41 7c be
       -0.03091795 0.044015754 -0.042672727 -0.24634424
000340 b5 5e 60 be ed 8d 42 bd e8 02 91 bd a5 98 29 be
       -0.21911128 -0.047498632 -0.070806324 -0.16562136
000350 8f 0a b5 bc 7a e5 0b be 20 0b 1d bd d4 68 fe 3c
       -0.022099761 -0.13661757 -0.038340688 0.031055845
000360 3f 9a 3d be 4f 14 8f bd a6 cf 51 bd 8b 6b 59 be
       -0.18515871 -0.069862954 -0.05122342 -0.2123243
000370 5c 74 35 be 60 36 06 be c2 e7 d9 bd 8f 95 3a be
       -0.17720169 -0.1310668 -0.106399074 -0.18221115
000380 de da f5 bd ef 76 9b 3b 40 d2 2c be 74 e1 22 be
       -0.12004636 0.0047444026 -0.16877079 -0.15906316
000390 f4 80 4a be f9 49 a9 bd 6b 90 85 3c d7 3e 27 be
       -0.19775754 -0.08266062 0.016304215 -0.16332565
0003a0 86 3a be bd 91 cc f3 bd f5 d7 10 be 1c a2 5c bd
       -0.09288506 -0.11904252 -0.14144881 -0.053865537
0003b0 e2 1f 04 be 18 80 29 be b8 73 42 be 93 4c 61 bd
       -0.12902787 -0.1655277 -0.18989456 -0.055004667
0003c0 a7 55 97 bd 92 12 97 be 62 d4 dd bd 04 fd 25 be
       -0.07389384 -0.29506356 -0.108315244 -0.16209799
0003d0 38 5f 91 be 07 3a 78 bd 69 11 a6 bd f5 7f 89 be
       -0.2839296 -0.060602214 -0.081087895 -0.26855436
0003e0 db a2 e7 bc 1f 64 d1 ba f5 a4 91 bd b1 55 1a be
       -0.028275898 -0.0015975273 -0.07111541 -0.15071751
0003f0 cf f8 aa bd e9 e7 15 be 7e 92 0a be 23 6a 16 be
       -0.08348238 -0.14639248 -0.13532445 -0.14688925

action_model._discrete_distribution.branches.0.weight f4 [4, 512]
000000 9b e5 11 3d 07 1e df 3c c2 9a e4 3b b7 ee e2 3c
       0.03561936 0.027235998 0.0069764564 0.027701719
000010 b2 b5 5f 3d 75 b4 32 3d a0 e6 18 bc 5b 7f 80 bd
       0.054616638 0.04362913 -0.009332329 -0.06274291
000020 87 98 13 3d e6 44 9e 3c 0d 0a de 3d 6b 54 7f 3d
       0.036034133 0.019319963 0.10841761 0.062336367
000030 77 7a a5 bd b2 14 ad 3c 13 94 8a 3c 57 1a 00 3d
       -0.08079999 0.021128032 0.01691631 0.03127512
000040 f5 73 17 3c 2c 53 25 3d 82 53 5f 3d dd 18 7d 3c
       0.009243955 0.040362522 0.054523 0.015447822
000050 b3 ad 34 bc 6d 42 75 3d 4c db 3c bc 80 a8 21 3c
       -0.011027741 0.0598778 -0.011526894 0.009866834
000060 4e 53 a5 3c 18 0e 9e 3c d5 98 99 3c e0 67 af ba
       0.020181324 0.01929383 0.018749634 -0.0013382398
000070 fb cb c8 3b 1a 80 3c 3d ae 0a 8e 3c b7 2d 71 3b
       0.006127832 0.046020605 0.017339077 0.003680093
000080 a6 9a 1a 3d 5f d4 d5 bb 0e 2a 7c bd d2 e4 6b 3c
       0.03774514 -0.0065255607 -0.061563544 0.014397817
000090 8b 39 76 bc de e4 bd 3c e7 43 25 3d b8 06 5a 3c
       -0.015028368 0.023180421 0.04034796 0.013307266
0000a0 78 15 e7 bb 99 0e 1d 3c b8 ea 06 bc f9 a2 e7 bb
       -0.00705212 0.009586 -0.008234672 -0.0070689884
0000b0 8f ee f3 3c ed c7 9e bc 23 56 8e 3d a3 54 a9 3d
       0.02977684 -0.019382441 0.06950023 0.08268096
0000c0 11 9d bd bb 5e 11 0b 3c 40 ce 0f 3d 48 ba 86 3d
       -0.005786546 0.008488027 0.035108805 0.06578499
0000d0 d4 16 2f bc cd 45 a1 3d 58 00 44 bd 20 d9 9d 3c
       -0.010686595 0.078746416 -0.04785189 0.019268572
0000e0 b6 25 4a 3d ec d1 f9 3c 56 02 78 3c 88 bf c4 3a
       0.04935237 0.030495606 0.015137276 0.0015010694
0000f0 7f b2 cd 3c 6a 93 2c 3c 10 33 f2 3a 83 8d 91 3b
       0.025109528 0.010533193 0.0018478353 0.0044419183
000100 b0 8e bb 3c 5d 03 58 3d 0e d4 87 3c fc a8 58 3d
       0.022895187 0.052737582 0.016580608 0.05289553
000110 9c 52 a3 3d fd 8c 0c 3d ea e9 71 3c 2f 90 32 bc
       0.07974741 0.034314144 0.014765242 -0.010898634
000120 4c d4 8d 3c 3d a7 1e bd 0c f1 b7 3c 47 52 88 3c
       0.017313145 -0.03873371 0.022453807 0.016640795
000130 c2 5b 59 3d f1 80 80 3d 8b 04 33 bc 3d ee 69 3d
       0.053066023 0.062745936 -0.010926376 0.057111967
000140 1b 07 73 bd 46 2e 57 bc 6e bf 26 ba 21 41 37 bb
       -0.05933295 -0.013133591 -0.00063609227 -0.0027962404
000150 ef 60 67 3c f2 c3 80 3b c6 b2 50 3d 4e 21 7e bc
       0.014122232 0.0039296085 0.05095174 -0.01551087
000160 75 d4 a5 bc 0b 3c c2 3b fc 86 0a 3c b9 3c d9 3c
       -0.020242909 0.005927568 0.008455034 0.026518213
000170 73 79 9a bc 2b 67 02 bc 78 bb e3 bc 0a c9 46 bc
       -0.01885674 -0.0079591675 -0.027799353 -0.012132892
000180 ff d5 08 3d e1 97 47 3d 0d 9b 3a bb d1 6e c3 3c
       0.033407208 0.048728827 -0.0028473765 0.023856552
000190 ec 6f 41 3d 0c 37 44 bc 9d f8 6a 3b 17 99 80 bd
       0.047225878 -0.011976015 0.0035853751 -0.062791996
0001a0 4a e5 88 3d b4 eb 34 3d 63 1e 50 3c a7 e9 4c bc
       0.066843584 0.044170097 0.012702557 -0.012506879
0001b0 06 96 be 3b ff 21 85 3a c0 cd 54 bc 42 f7 13 bc
       0.005816224 0.0010157226 -0.012988508 -0.009031119
0001c0 a5 23 a0 bb fa c8 33 3d cb 70 9b 3b fb e0 be 3c
       -0.0048870617 0.043892838 0.0047436706 0.023300638
0001d0 95 34 23 3d 6a 4b 1a 3d 21 03 17 3d ac b2 27 3c
       0.039845068 0.037669577 0.03686822 0.01023547
0001e0 aa b7 a7 bd eb 71 13 3b 9b a8 12 bd 14 6e d0 bc
       -0.08189328 0.002249832 -0.035805326 -0.025443114
0001f0 30 f1 ad 3c 24 7d a9 bc b3 d1 c4 3c 3e 2e 8e 3d
       0.021233171 -0.020689555 0.024025774 0.06942414
000200 a7 d1 c9 3b 23 f5 26 bd 54 fd ae 3c 4b 3d ab ba
       0.0061590257 -0.040761124 0.02136103 -0.0013064531
000210 3a 7b 4e 3c 46 6c 32 bd d4 74 50 3c a4 9b c9 3c
       0.012602622 -0.04356029 0.0127231665 0.024610348
000220 47 a3 2b 3c eb 49 43 3d 81 28 49 bd 3a f8 1d bc
       0.01047594 0.047677916 -0.049110893 -0.009641701
000230 81 a4 23 3d bb 64 75 3b 99 15 46 3d 09 4e ff 3b
       0.039951805 0.0037444073 0.04836044 0.007791285
000240 9d ab 48 3d 9f de 0e 38 67 a0 0d bd e7 89 a8 3c
       0.04899179 3.406277e-05 -0.0345768 0.02057357
000250 13 ca 9c 3c eb 2a 47 bb 46 bb a0 3a 74 14 0c bc
       0.019139325 -0.0030390571 0.0012262843 -0.008549798
000260 6f b7 af bc 73 b0 1d 3d c8 84 fc bb 72 97 1a bd
       -0.021449773 0.038498353 -0.0077062584 -0.037742086
000270 19 29 54 3b d7 cd 4a 3d ed 96 0f 3d 7d a0 f2 3c
       0.003237313 0.04951271 0.035056043 0.029617542
000280 3b 9b ef 3b ba 5b c8 3d a4 32 37 bd 5c 9d a5 3c
       0.007312206 0.097831205 -0.04472603 0.020216636
000290 d1 93 5c bc 1f fc 2b bc 0c 00 83 bc e9 4f 0c bc
       -0.013462977 -0.010497122 -0.015991233 -0.008563974
0002a0 f2 e5 51 3b a3 9c a3 bb 73 c6 4e bd 1b 29 8f bc
       0.0032027927 -0.004993038 -0.050482225 -0.017475655
0002b0 a0 ba c5 bb a4 55 6f bd c8 5d 72 3d 70 05 a8 bc
       -0.0060342103 -0.058431283 0.059171468 -0.020510405
0002c0 5a 21 a4 bd 3a 2e 01 3c ca 35 67 3d b6 bf e7 b7
       -0.08014174 0.007884556 0.05644778 -2.7626618e-05
0002d0 e2 4e a0 3c 70 55 16 3d b0 29 1b 3d ee 0a 3b 3d
       0.019568864 0.036702573 0.037881553 0.04566472
0002e0 69 fd 44 3c ee b3 31 3d cb 7f 27 3d 4e e2 a1 bc
       0.012023308 0.043384485 0.040893357 -0.01976123
0002f0 85 28 9f 3b 41 34 b0 bc 70 c6 17 bb 90 ce 3e 3d
       0.004857125 -0.021509292 -0.002315905 0.046583712
000300 b6 c5 61 3c 4a cd 80 3c 1e 8a 54 bd 71 ec 19 3c
       0.013780048 0.01572289 -0.05188953 0.009394751
000310 cd ac cb 3c 65 f0 46 3d 82 4a e2 bc ca e8 30 3c
       0.024862671 0.0485691 -0.027623419 0.010797689
000320 3c cd 38 3d af f4 90 3d db 6a e3 bc 66 f4 f8 3b
       0.0451176 0.0707792 -0.027760914 0.007597494
000330 3a 92 31 bb 1b ea 3a bd e9 30 38 3c e8 b6 cf 3c
       -0.0027095214 -0.045633417 0.01124213 0.025355771
000340 11 1a 33 3c 2d 5d a7 3c 4e df f4 3b 49 22 70 3c
       0.010931508 0.020430172 0.007472909 0.014656612
000350 ff 53 e0 bb 57 6a b7 3c 23 a0 20 bd 3c 79 64 bd
       -0.0068459506 0.022389574 -0.03921522 -0.05577968
000360 51 44 98 3d 31 07 7a bd ed 43 13 bc 42 1e a2 ba
       0.07434905 -0.061042015 -0.008988363 -0.0012368637
000370 2d 7c 4f 3c 4a a6 2b 3d fe e8 08 3d d5 fa 18 bd
       0.012663883 0.041906632 0.033425324 -0.037348587
000380 7b ff 93 3d b8 f3 b3 3d c4 6b 1c bc bb aa 45 bb
       0.072264634 0.0878672 -0.009547178 -0.0030161578
000390 53 a5 38 3d 1a a9 57 3d bf d2 48 3c 96 c8 82 3d
       0.04507954 0.052651502 0.012257277 0.06385915
0003a0 4e 3e 41 3d 20 6f f4 3c 0c b3 2d bd b6 30 e7 3c
       0.04717856 0.029838145 -0.04240708 0.02822147
0003b0 19 56 48 3b 60 4f c1 3c d0 3d 19 bc cf ba 93 3b
       0.0030568896 0.02359742 -0.009353116 0.0045083533
0003c0 47 56 8f bc a2 ce 9c 3c fc 57 80 3b 25 9a 73 bd
       -0.017497195 0.019141499 0.0039167386 -0.059473176
0003d0 9c 1a 0c 3d 1d ee b1 3c c4 62 8e bc 33 c8 a6 3c
       0.034205064 0.021719987 -0.01738108 0.020359134
0003e0 ad 5c 93 bd cc 38 75 3d 36 31 b1 3a 18 9a 39 3d
       -0.07195411 0.05986862 0.0013518694 0.04531297
0003f0 75 ac 9b 3c 66 5f c8 3c 72 eb 3b bd 6f af 1a 3d
       0.019003132 0.024459552 -0.045878835 0.037764963

action_model._discrete_distribution.branches.0.bias f4 [4]
000000 5a 32 7b bc 17 e4 12 3c f1 a9 84 bd fd 1a a1 3d
       -0.015331829 0.008965514 -0.06477726 0.07866476

action_model._discrete_distribution.branches.1.weight f4 [5, 512]
000000 3a 50 5f bd e5 a8 8f 3c f2 58 6a bd d9 bb 96 3d
       -0.05451987 0.01753659 -0.05721373 0.07360048
000010 d8 9d 9b 3c af 69 22 bd 7a 94 90 bb f9 14 2c bd
       0.018996164 -0.03965157 -0.004412231 -0.04201219
000020 09 93 21 3c 08 60 c9 3c 87 c8 8a 3d 6e d1 92 bd
       0.009861716 0.024581924 0.06776529 -0.07168852
000030 88 ca 21 bd 0f d6 07 3d 6a cf 44 bc 1d 33 c1 3c
       -0.03949979 0.033163127 -0.012012342 0.023583943
000040 a9 04 84 3d 32 42 ed 3d f5 16 e0 3c 8d 9d 68 bb
       0.06446201 0.115848914 0.027354697 -0.0035494298
000050 e0 e4 10 3d a0 5e af 3c dc 7e 15 3d 8f e8 b0 3c
       0.035374522 0.021407425 0.036497936 0.021595268
000060 4c 90 d4 3c 1c ee 31 3d 38 46 8e 3d 45 88 be 3c
       0.025947712 0.04343997 0.06946987 0.023258338
000070 66 0a e8 bc e5 a3 f6 3c b9 1f 5f 3c e3 20 40 3d
       -0.02832527 0.030107448 0.013618403 0.046906363
000080 d0 1c 65 3d 62 31 01 3c 47 2a e7 3c 06 88 32 bd
       0.05593568 0.007885309 0.028218402 -0.043586753
000090 1b 91 21 3d 63 a5 58 bc a4 33 90 bc 1e c3 5b 3b
       0.039445024 -0.013223025 -0.01760275 0.0033533047
0000a0 05 a9 ac 3c a6 31 2d 3c 72 8a eb bc 34 cc 00 3d
       0.021076689 0.010570919 -0.02875254 0.031444743
0000b0 00 77 f0 3c c0 80 3f 3c 5f 34 03 bd 4f d6 6a 3d
       0.029353619 0.011688411 -0.032032367 0.057333287
0000c0 be 65 54 3d 84 5d ad 3d 8b 0b de bc 55 9d 9b 3c
       0.05185484 0.08465102 -0.027105113 0.01899592
0000d0 b5 dc 84 3c b6 e5 f3 3c 59 14 4f 3d 76 a5 4c 3d
       0.016218523 0.02977262 0.050556514 0.049962483
0000e0 fa 58 a4 3d 58 d0 a3 bc 11 70 d3 3c 78 12 ff 3b
       0.080247834 -0.019996807 0.025810273 0.007784184
0000f0 31 36 3e 3d 98 e0 dc 3c 7e 77 07 3c b7 6d 6b ba
       0.0464384 0.026962563 0.008268235 -0.00089808874
000100 13 b4 45 bc 14 aa ce 3c 82 18 36 3d 7d 81 64 3c
       -0.012066859 0.025227584 0.044456966 0.013946888
000110 4d d8 ce 3c a8 06 f5 3c 8c 60 da bd 6e 27 f1 bb
       0.025249625 0.0299104 -0.10662946 -0.0073594367
000120 fe c5 85 3c 37 b4 21 bc 1e 20 0b 3d 32 54 7b 3a
       0.016329762 -0.009869627 0.033966176 0.0009587436
000130 db 20 d4 3c 80 48 9b bb 86 82 cc 3c 48 24 58 3c
       0.025894573 -0.0047388673 0.024964582 0.013192244
000140 8a 33 82 3c 5e 14 86 3d d1 db 30 bd d5 1d 51 3c
       0.015893716 0.065468535 -0.043178383 0.01276346
000150 d2 ac 64 3d ee 1c 8a 3b 3e d7 5b bd 15 e5 95 3d
       0.055828877 0.0042148745 -0.053672068 0.073190846
000160 57 3c 1f 3d b2 49 02 b9 6d ca 03 bc 31 0a 3f 3d
       0.038875904 -0.0001242522 -0.008043868 0.04664058
000170 7d 8b 0b bc b6 2a 08 bd 7c 9b ab bc a7 66 a8 bc
       -0.008517143 -0.033243857 -0.020948164 -0.020556761
000180 15 38 dd 39 5b d2 9b bd 6e cf 97 3d 0d 82 4a 3c
       0.0004219419 -0.076084815 0.07412611 0.012360108
000190 e0 b4 e8 bc 51 84 94 bc 27 a2 8f bd aa 80 80 bd
       -0.02840656 -0.0181295 -0.0701335 -0.06274541
0001a0 cb 48 4e bd 1d 9c 4e bb 14 ad a9 3c a7 d3 98 bc
       -0.05036239 -0.0031526156 0.020712413 -0.018655611
0001b0 14 73 f5 3d ee 42 4c 3d 7a 75 25 3d e8 9e 13 3c
       0.1198484 0.049868517 0.040395238 0.009010054
0001c0 67 07 f7 ba 54 e9 4e bb 1a 90 13 3b a7 83 aa 3c
       -0.001884681 -0.003157218 0.002251631 0.02081473
0001d0 83 29 f2 bc 93 c1 37 3d 11 d6 1e 3d 2c 7b 1f 3d
       -0.02956081 0.04486234 0.03877837 0.038935825
0001e0 17 14 5a bd 3c a3 95 bd a6 70 08 3d fb 0d 88 3c
       -0.053241815 -0.07306525 0.033310555 0.016608229
0001f0 ba 3e 15 bc 01 39 e1 bd d6 9f 02 3d 47 b0 a0 3b
       -0.009109193 -0.10997201 0.031890713 0.0049038264
000200 b7 f6 9f 3b 31 30 1f 3b 92 aa c3 bc d0 46 12 3d
       0.0048817056 0.00242902 -0.023885045 0.035712063
000210 25 cf 27 3c 37 a3 79 3d 01 fe 28 3d f3 e3 ce 3c
       0.010242258 0.06094667 0.041257862 0.025255179
000220 96 67 9b 3d 38 84 a5 bc ac c1 7b 3b 0d a0 33 3b
       0.07588117 -0.020204648 0.0038414998 0.002740863
000230 f0 f5 70 3c 23 90 d3 bc 81 4c 66 3d 88 c9 1b b9
       0.014707074 -0.025825566 0.056225304 -0.00014857028
000240 2f 90 8d 3c f9 55 65 bd 8c 4f 00 bc a7 8e 00 3c
       0.017280666 -0.055990193 -0.007831465 0.007846511
000250 ff da 00 3d 67 2a 91 3b be 8f e3 3c 9a 0f 3c 3d
       0.03145885 0.0044301036 0.027778503 0.045913316
000260 37 61 40 3d c2 b0 59 bc c2 ab 87 3c 70 f1 4b 39
       0.04696771 -0.013286771 0.016561393 0.00019449531
000270 57 8e cc 3c ac aa 16 3c af 01 db 3d 8c a8 5a bb
       0.024970217 0.009195965 0.106936805 -0.0033364622
000280 af ef 3c 3d 09 04 88 3d 05 24 2e bc c9 0c a4 3d
       0.046127018 0.06641395 -0.010628705 0.08010251
000290 76 dd 5b bd c3 d1 40 3c 1e e8 84 3c 55 4c 08 3c
       -0.053678 0.011768761 0.016223963 0.00831898
0002a0 61 6e e2 ba c8 10 fd bc 0a cf 5b 3d ef b4 bb 3d
       -0.0017275327 -0.030891791 0.053664245 0.0916537
0002b0 d2 4e 18 bd 7d 7c 94 bc e6 50 a2 bc 7c f9 8e bc
       -0.037184544 -0.018125767 -0.019813966 -0.017452948
0002c0 ce 93 89 3c 08 73 8c bd df a4 84 3c b7 b4 a8 bc
       0.016794112 -0.06857878 0.016191898 -0.020593984
0002d0 bb 1e 23 3d b3 d6 8f 3d 89 97 df 3c 00 b7 66 3d
       0.03982423 0.070233725 0.027293937 0.056326866
0002e0 4e 7b a2 bc 92 71 8e 3c 50 22 0a bc c1 cc de 3c
       -0.019834187 0.017388139 -0.008431032 0.027197244
0002f0 19 a2 66 3c cd e6 e0 bb f5 57 61 3a 79 97 87 3c
       0.014076733 -0.006863451 0.00085961755 0.01655172
000300 83 f1 31 bd e3 22 9c 3c dd 00 3a bd 75 63 05 bd
       -0.043443214 0.019059604 -0.04541098 -0.032565553
000310 2f 80 36 bd 8b 8f df 3d 98 32 19 3c ef a8 ad 3c
       -0.04455584 0.109160505 0.009350441 0.021198718
000320 6a e2 fb 3c 48 ed 39 3d a9 e1 17 bc d1 3f 15 3d
       0.030747611 0.045392305 -0.00927011 0.036437813
000330 40 e7 83 ba 05 31 8c 3b cc 87 30 3d 30 0f d2 bc
       -0.0010063425 0.0042783045 0.043098256 -0.025642008
000340 98 a4 c2 3c 29 97 b8 3c 55 6c 66 bb ac 44 02 bd
       0.023760125 0.022533016 -0.0035159786 -0.03180377
000350 cf dd 5a bc 42 a4 1d bd 5a 7e 10 bc 76 ac de 3c
       -0.013358547 -0.038486727 -0.008819187 0.027181845
000360 bb 87 25 3d 6c 4d f3 bb b8 0f 62 bb 9c 83 d2 3c
       0.040412646 -0.007425001 -0.0034494232 0.025697522
000370 a2 38 91 3d a6 87 15 3d 89 57 d4 3c 2f 5a 96 3d
       0.0709088 0.036506318 0.025920646 0.0734142
000380 d4 99 0d 3d 77 17 a1 3c ff 73 ca bc 78 c4 ff 3c
       0.03457053 0.01966451 -0.024713514 0.031221613
000390 20 ac 81 bd 2e fa a6 3a 36 d5 fe bb 50 40 b8 3a
       -0.06331658 0.0012739354 -0.0077768816 0.0014057253
0003a0 fe e2 a1 bc b5 19 b6 bc 2e 15 ba bb 44 95 23 3d
       -0.019761559 -0.022229055 -0.0056787943 0.039937273
0003b0 c0 5e 31 bd 00 7b 3b 3b b2 b9 33 bd 58 ca f4 3d
       -0.04330325 0.002860725 -0.043878265 0.119526565
0003c0 72 44 36 bc b6 5d c6 3c eb 60 94 bc 22 ea 47 bd
       -0.011124717 0.024214607 -0.01811262 -0.04880727
0003d0 b4 47 4e bb 0a 25 3c bc a3 d9 6c 3c 61 d1 07 bd
       -0.0031475844 -0.01148344 0.0144561855 -0.033158664
0003e0 ff 4b de 3c 96 83 d8 3c f9 cc ab bd ab 2a 1e bc
       0.027135847 0.026429933 -0.08388705 -0.0096537275
0003f0 06 1b 33 3c 5d 3d 88 3d 11 f3 f7 3b 32 67 29 3d
       0.010931736 0.06652329 0.0075668176 0.04135818

action_model._discrete_distribution.branches.1.bias f4 [5]
000000 28 a4 2d bc 5d 8a a2 bb b9 da 59 3d 6b 4d 64 bc
       -0.01059822 -0.004960342 0.053187106 -0.0139344735
000010 7b f6 24 3c
       0.010068531
