MLagents_test1/results/CarAgent_reinforcement_11/CarAgent/CarAgent-2999561.pt (torch, 580945 bytes, 28 tensors)

discrete_act_size_vector f4 [1, 2]
0	0x40800000	4.0
1	0x40a00000	5.0

network_body._body_endoder.seq_layers.0.weight f4 [512, 40]
0	0x3db8482b	0.0899814
1	0xbefe899c	-0.49714363
2	0xbe83e98a	-0.25764114
3	0x3e36a009	0.17834486
4	0xbcee5a42	-0.029095773
5	0x3d89af86	0.067229316
6	0xbdc2c7a0	-0.09510732
7	0x3c2f9c4a	0.010718415
8	0xbd9e8086	-0.07739358
9	0xbb72dc80	-0.0037057698
10	0xbe929c43	-0.28634843
11	0x3e3843ad	0.17994566
12	0xbe29efd9	-0.16595401
13	0xbe4dc3c0	-0.20094204
14	0x3c2269ed	0.00991295
15	0x3c1b9bf5	0.009497632
16	0xbde04c04	-0.10951999
17	0xbedc3146	-0.43006343
18	0x3eb8cbcd	0.36092988
19	0xbdb44fca	-0.08804281
20	0xbd9ec5df	-0.07752585
21	0xbecc0b42	-0.3985234
22	0xbf0a6fa5	-0.54076606
23	0x3e95a87a	0.292301
24	0x3d98c10b	0.07458695
25	0x3c00e3ac	0.007866781
26	0x3e4dbae5	0.20090826
27	0xbd787ecb	-0.060667794
28	0xbee0e712	-0.43926293
29	0xbecd014e	-0.40040058
30	0x3c8a8cc0	0.016912818
31	0x3e1599c7	0.14609443
32	0xbf0582a4	-0.52152467
33	0x3ba9396b	0.0051643155
34	0xbe22bfa7	-0.15893422
35	0x3e3de4e4	0.18544346
36	0x3eaacd5a	0.33359796
37	0x3de2c037	0.11071818
38	0xbd625e68	-0.055265814
39	0x3e21a32d	0.15784903
40	0xbe5f0767	-0.21780168
41	0xbcdf090a	-0.02722599
42	0xbe86a948	-0.26301026
43	0xbf48e217	-0.78469986
44	0xbf125018	-0.57153463
45	0xbde47874	-0.11155787
46	0x3e16f60b	0.14742295
47	0xbe38123c	-0.17975706
48	0xbef97117	-0.48719093
49	0xbf6b2051	-0.91846186
50	0xbdd1fe95	-0.10253636
51	0xbe479ad1	-0.19492652
52	0x3dbe3efa	0.092893556
53	0xbf088646	-0.53329885
54	0xbf6b9c47	-0.92035335
55	0xbe2ab14d	-0.16669197
56	0xbf0a7b34	-0.54094243
57	0xbe6f0879	-0.23343076
58	0xbe906ffd	-0.2821044
59	0xbf819d36	-1.0126102
60	0x3e513ee8	0.20434153
61	0xbf3d7736	-0.74010026
62	0xbe11fa48	-0.14255631
63	0xbeb611eb	-0.35560545
64	0xbec6fd95	-0.38865343
65	0x3e83a977	0.2571523
66	0xbe88fef8	-0.26757026
67	0xbe98659d	-0.29765025
68	0xbe93e6ea	-0.2888711
69	0xbf483741	-0.7820931
70	0xbd86505f	-0.06558298
71	0xbf0b6f68	-0.5446687
72	0xbe865ec5	-0.26244178
73	0x3e085b0c	0.13315982
74	0xbf124eb3	-0.57151335
75	0xbf01a467	-0.50641483
76	0x3c1f6192	0.009727852
77	0x3e9850db	0.29749188
78	0xbd6c04cc	-0.057621762
79	0xbf166b72	-0.587577
80	0xbd9ab86b	-0.07554706
81	0xbe17f200	-0.1483841
82	0xbe73ac11	-0.23796107
83	0x3b79418a	0.003803345
84	0x3e1e1de4	0.1544109
85	0x3d8869c8	0.06660801
86	0x3d07abd4	0.033122852
87	0xbe6357ec	-0.22201508
88	0x3e85eed2	0.26158768
89	0x3eacca51	0.33748105
90	0xbd94022f	-0.07226979
91	0x3e943bd8	0.28951907
92	0x3e8c3825	0.27386585
93	0xbe3522b5	-0.17689021
94	0xbec542d2	-0.38527542
95	0x3d746cbb	0.059674006
96	0xbed05f44	-0.40697682
97	0xbbaeb359	-0.0053314385
98	0x3ea159cd	0.31513825
99	0xbd231157	-0.03981146
100	0xbe7bad50	-0.24577832
101	0xbc0b4e3d	-0.00850254
102	0x3ee1a003	0.44067392
103	0xbe9e38bf	-0.3090267
104	0xbee3305e	-0.4437284
105	0x3cd4648c	0.02592685
106	0xbf634ad1	-0.88786036
107	0x3e5d6fd3	0.21624689
108	0x3f01dbfd	0.507263
109	0x3b856104	0.004070403
110	0xbd9280df	-0.071534865
111	0xbe8400ab	-0.2578176
112	0x3e2a1081	0.16607858
113	0xbe9694fb	-0.29410538
114	0xbeadf1cf	-0.33973548
115	0x3f05bdcd	0.5224274
116	0x3d9da03a	0.076965764
117	0xbdd4f058	-0.103974044
118	0xbeb96114	-0.36206877
119	0xbf0b8125	-0.54493934
120	0x3ea73dca	0.3266433
121	0xbef5ceab	-0.48009238
122	0xbef2061f	-0.47270295
123	0xbe060eb2	-0.13091543
124	0xbf2df473	-0.67951125
125	0xbde1c098	-0.110230625
126	0xbeb046cd	-0.34429017
127	0xbe344319	-0.1760372
128	0xbd5ff3a3	-0.05467571
129	0xbf281f3d	-0.65672666
130	0xbb5bcee3	-0.0033540062
131	0xbf6c6391	-0.92339426
132	0xbd112eeb	-0.035445135
133	0xbcd1807e	-0.025573965
134	0xbea1dc3f	-0.31613347
135	0xbd68ba09	-0.056818042
136	0xbecbf4f0	-0.3983531
137	0xbe81b771	-0.25335267
138	0xbe7feb7a	-0.24992171
139	0xbf08ceb6	-0.53440416
140	0xbd993797	-0.07481306
141	0xbec1ea96	-0.37874287
142	0x3d55a4a8	0.05215898
143	0xbea7bbc5	-0.32760444
144	0xbeab676a	-0.33477336
145	0x3d7dbec0	0.06194949
146	0xbe9fa181	-0.31177905
147	0xbe52bcf0	-0.20579886
148	0xbedf6469	-0.43631294
149	0xbf4811bf	-0.7815208
150	0xbd0faf0d	-0.03507905
151	0xbef05614	-0.46940672
152	0xbe27b7c6	-0.16378698
153	0xbf5194c2	-0.8186761
154	0xbeef709c	-0.46765602
155	0xbd566872	-0.0523457
156	0x3ce7f8c2	0.02831686
157	0x3ee30240	0.44337654
158	0xbde71ccb	-0.11284789
159	0x3dd83a32	0.10557975
160	0xbded0375	-0.11572925
161	0x3e9f3ed7	0.3110263
162	0xbddf9089	-0.1091624
163	0xbee0dbe3	-0.4391776
164	0xbdf2db72	-0.11858262
165	0x3ddf9267	0.10916596
166	0xbc7dc324	-0.01548842
167	0x3cda45ac	0.02664455
168	0xbed7649b	-0.42068943
169	0xbe4d28d8	-0.20035112
170	0x3e62eba6	0.22160205
171	0xbf08d0c9	-0.5344358
172	0xbbf3a3c3	-0.0074352934
173	0x3e6c9537	0.23103796
174	0xbea37941	-0.31928447
175	0x3d22bf36	0.039733134
176	0x3e877ffa	0.26464826
177	0xbedd164b	-0.4318107
178	0xbe792266	-0.24329528
179	0xbeedcccf	-0.4644532
180	0xbd897aeb	-0.06712898
181	0xbefd0315	-0.49416414
182	0xbba532a6	-0.005041438
183	0x3d976f43	0.07394268
184	0xbdbc9e8b	-0.09209927
185	0xbe2899c1	-0.16464902
186	0xbe561afe	-0.20908734
187	0xbd8398d6	-0.064256355
188	0x3dc9d9dc	0.098560065
189	0xbf134fa3	-0.5754339
190	0x3dba2009	0.090881415
191	0xbf36ca76	-0.7140268
192	0xbec6e090	-0.38843203
193	0x3eac796c	0.33686388
194	0xbc8d99e9	-0.017285304
195	0xbf2113c7	-0.629208
196	0xbe0ba469	-0.13636936
197	0xbe61977c	-0.22030443
198	0xbe1a6bfb	-0.15080254
199	0xbf0abf83	-0.54198474
200	0xbea91b16	-0.33028477
201	0xbe892591	-0.26786473
202	0xbec1be35	-0.3784043
203	0xbe867250	-0.2625909
204	0xbf2d7f15	-0.67772037
205	0x3c8c2b28	0.017110422
206	0xbf06aeae	-0.5261029
207	0xbe280785	-0.16409118
208	0xbed806a6	-0.42192572
209	0xbefbdbd3	-0.4919115
210	0xbd5a251d	-0.05325805
211	0xbdb6f5a9	-0.08933575
212	0x3e28b6ad	0.16475935
213	0xbf036d91	-0.5133906
214	0xbf0b1921	-0.5433522
215	0x3d242fc4	0.040084615
216	0xbf1ab6a1	-0.6043492
217	0x3dff7d8e	0.124751195
218	0xbeff1461	-0.49820235
219	0xbf0a6759	-0.54063946
220	0xbdac0d11	-0.0840093
221	0xbdf83f8b	-0.12121495
222	0xbd5e9902	-0.05434514
223	0xbeefb9b2	-0.46821362
224	0xbed35c46	-0.41281337
225	0x3e216728	0.15762007
226	0xbf02dd77	-0.5111918
227	0x3e481f7f	0.19543265
228	0xbead514f	-0.33851096
229	0xbf32e012	-0.69873154
230	0x3e531cae	0.20616409
231	0xbf27d713	-0.6556255
232	0xbef887b4	-0.48541033
233	0x3c6ef8a7	0.0145856505
234	0xbea6f508	-0.3260882
235	0x3e609e09	0.21935286
236	0xbe04ae67	-0.12957154
237	0x3e651588	0.22371495
238	0xbe059f64	-0.13049084
239	0x3ef5c91f	0.48005006
240	0x3ea8bd21	0.32956794
241	0xbcb81d21	-0.022474827
242	0x3eb150d1	0.3463197
243	0xbebea922	-0.37238413
244	0xbe2b721e	-0.16742751
245	0xbd81a947	-0.06331115
246	0xbf163006	-0.5866703
247	0x3ef477df	0.47747704
248	0x3ed200eb	0.41016325
249	0xbe75830e	-0.23975775
250	0xbe5da08c	-0.21643275
251	0x3e8bfe83	0.27342615
252	0x3e67c182	0.22632411
253	0xbf260744	-0.64854836
254	0xbeb43ae1	-0.3520117
255	0x3e4323ba	0.19056597

network_body._body_endoder.seq_layers.0.bias f4 [512]
0	0xbe2b56a6	-0.16732273
1	0xbf0797da	-0.5296608
2	0xbdd63bec	-0.10460648
3	0xbeec53eb	-0.46157774
4	0xbe2a426e	-0.16626903
5	0xbed55d3a	-0.4167269
6	0xbc9bb936	-0.019009214
7	0x3b979c61	0.004626796
8	0xbdd66fd2	-0.10470547
9	0xbed12ce7	-0.4085457
10	0xbda22c53	-0.079186104
11	0xbf03353c	-0.51253104
12	0xbd6058d7	-0.054772224
13	0xbf139798	-0.5765319
14	0xbe3be8b5	-0.1835049
15	0x3ca16ffb	0.019706717
16	0xbf034578	-0.51277876
17	0xbeaf5937	-0.34247753
18	0xbea72ed5	-0.32652918
19	0xbe16e5b6	-0.14736065
20	0xbe889867	-0.26678774
21	0xbeb578d6	-0.35443753
22	0xbe63a985	-0.22232635
23	0xbf4744c2	-0.7783929
24	0xbf0d7490	-0.55255985
25	0xbecb3bb2	-0.3969398
26	0xbdc4879c	-0.09596178
27	0xbd27707d	-0.04087876
28	0xbe132fd7	-0.14373718
29	0xbef9f369	-0.4881852
30	0xbed81f34	-0.42211306
31	0xbd8bc05a	-0.068237975
32	0xbebca103	-0.36841592
33	0xbe4ef56d	-0.2021081
34	0xbe481cc5	-0.19542225
35	0xbe0b4942	-0.13602164
36	0xbf2f69ea	-0.6852099
37	0x3a6ac42f	0.0008955625
38	0xbe87e12c	-0.2653898
39	0xbdf4e7e0	-0.11958289
40	0xbe24b8b2	-0.1608608
41	0xbf1bfc9c	-0.60932326
42	0xbd33686f	-0.043800768
43	0xbf05717e	-0.521263
44	0xbe32c301	-0.174572
45	0xbe1048b3	-0.14090233
46	0xbef3a852	-0.47589356
47	0xbd9499c1	-0.07255889
48	0xbec4215a	-0.38306695
49	0xbee7a833	-0.45245513
50	0xbe52374b	-0.20528905
51	0x3d16b4d6	0.036793552
52	0xbe41da64	-0.18930966
53	0xbed50c58	-0.4161098
54	0x3d6e54aa	0.05818621
55	0xbf073240	-0.5281105
56	0xbe5d48cb	-0.216098
57	0xbda06ca6	-0.07833223
58	0xbe3a30c3	-0.18182664
59	0x3b8872d5	0.0041640797
60	0xbe9813ea	-0.29702693
61	0xbe832eab	-0.25621542
62	0xbd833b8c	-0.06407842
63	0xbd347fec	-0.04406731
64	0xbed803a4	-0.42190278
65	0x3d17f8be	0.037102453
66	0xbec10b67	-0.37704012
67	0xbcaa6d0b	-0.020803949
68	0xbd3e3753	-0.04643948
69	0xbe561b1a	-0.20908776
70	0xbeb5ca3a	-0.3550585
71	0xbe9bb439	-0.30410936
72	0xbdf02649	-0.11726052
73	0xbf0fedbd	-0.56222135
74	0xbdf33a9c	-0.11876413
75	0xbdab6d87	-0.083705
76	0xbeb1183c	-0.34588802
77	0xbd44dc7b	-0.04806183
78	0x3db3f958	0.08787793
79	0xbe81fc9e	-0.25388044
80	0xbd18091f	-0.037118074
81	0xbdfe0701	-0.1240368
82	0xbd395408	-0.045246154
83	0xbe28dfa9	-0.1649157
84	0xbe22d22d	-0.15900488
85	0xbeca4c10	-0.39511156
86	0xbf24714f	-0.64235395
87	0xbef12987	-0.47101995
88	0xbf045c30	-0.51703167
89	0x3e00d5a3	0.12581496
90	0xbc5f29c5	-0.0136207985
91	0xbf44a1ad	-0.768092
92	0xbd08e82b	-0.033424538
93	0xbe596a09	-0.21231855
94	0xbba0dcc0	-0.004909128
95	0xbef56b70	-0.4793353
96	0xbd1f7924	-0.038933888
97	0xbe8f423d	-0.27980223
98	0xbd63132d	-0.05543821
99	0xbe6682c2	-0.22510818
100	0xbeb15b19	-0.34639814
101	0xbe838fbe	-0.25695604
102	0xbf33581d	-0.70056325
103	0xbed390c7	-0.41321394
104	0xbf1b9341	-0.60771567
105	0xbe088050	-0.13330197
106	0xbede328b	-0.43397936
107	0xbe26d71c	-0.16292995
108	0xbe03ee11	-0.12883784
109	0xbdf07471	-0.117409594
110	0xbf2bc905	-0.67103606
111	0xbf091360	-0.5354519
112	0xbe93fe31	-0.2890487
113	0xbe69c0b6	-0.2282742
114	0xbec19b55	-0.3781382
115	0xbe438796	-0.1909469
116	0xbe857e61	-0.26072982
117	0xbdbeb5a0	-0.09311986
118	0xbf292d5c	-0.6608484
119	0xbd809744	-0.06278852
120	0xbe10070a	-0.14065185
121	0xbe61763c	-0.22017759
122	0xbd8033ec	-0.06259903
123	0x3e00c4ac	0.12575024
124	0xbefdcec9	-0.49571827
125	0xbf1a5b3a	-0.6029545
126	0xbe1dfeab	-0.1542918
127	0xbec10da3	-0.37705716
128	0xbe1aed1f	-0.15129517
129	0xbd73914b	-0.059464734
130	0xbf11a0fd	-0.56886274
131	0xbd6b5ca9	-0.057461414
132	0xbea6e225	-0.3259441
133	0xbdabe99a	-0.08394165
134	0xbee582e1	-0.44826415
135	0xbf23e068	-0.6401429
136	0xbe723e89	-0.23656668
137	0xbeccc403	-0.39993295
138	0xbecc21c7	-0.3986952
139	0xbeeab03b	-0.45837578
140	0xbf29c395	-0.6631406
141	0xbd7ddeca	-0.061980046
142	0xbdc2bd30	-0.09508741
143	0xbc06baca	-0.008223245
144	0xbebecde2	-0.3726645
145	0xbe7dbdc9	-0.24779429
146	0xbdf62b02	-0.12019922
147	0xbce272f3	-0.027642703
148	0xbefaac43	-0.4895955
149	0xbd70cf9d	-0.058791745
150	0xbdcf0274	-0.1010789
151	0xbf299ff7	-0.6625971
152	0xbdc72193	-0.09723201
153	0xbbc2308a	-0.0059261965
154	0xbf121135	-0.57057506
155	0xbe39df89	-0.18151678
156	0xbde63d1f	-0.11242127
157	0xbd4e8eee	-0.050429277
158	0xbd9b2c2d	-0.07576785
159	0xbe0950b1	-0.13409688
160	0xbf40ff9e	-0.7539004
161	0xbef9e45c	-0.48807037
162	0xbf1e747a	-0.6189648
163	0xbf1135de	-0.5672282
164	0xbe1ada01	-0.15122224
165	0xbdffacca	-0.12484129
166	0xbe273d4e	-0.1633198
167	0xbefe5365	-0.49673
168	0xbda43608	-0.08018118
169	0xbc99f196	-0.018791955
170	0xbefb0ee4	-0.49034798
171	0xbe992d15	-0.29917207
172	0xbe0fb4d6	-0.14033827
173	0xbe7fb663	-0.24971919
174	0xbead1579	-0.33805445
175	0xbe55adc0	-0.20867062
176	0xbefbc17b	-0.4917105
177	0x3d0a45ee	0.033758096
178	0xbdfca527	-0.12336188
179	0xbf1237d8	-0.5711646
180	0x3e22ef36	0.15911564
181	0xbf18a939	-0.59633213
182	0xbf1f6fff	-0.6228027
183	0xbd6efc92	-0.05834634
184	0xbef3ce54	-0.47618353
185	0xbebaad48	-0.36460328
186	0xbdf7b6f5	-0.12095443
187	0xbef54ea5	-0.47911564
188	0xbf0dd13d	-0.553974
189	0xbe84db6b	-0.25948653
190	0xbf07beda	-0.5302559
191	0xbd62d530	-0.055379093
192	0xbe08d7dd	-0.13363595
193	0xbeb87777	-0.36028644
194	0xbda8b6b2	-0.08237971
195	0xbdf70c2b	-0.12062868
196	0xbef6e68e	-0.48222774
197	0xbf0cb155	-0.5495809
198	0x3c884b1b	0.016637376
199	0xbe4ee866	-0.2020584
200	0x3dbb9c65	0.09160689
201	0xbc3ccf30	-0.011524007
202	0xbf2a984d	-0.6663864
203	0xbef92947	-0.48664305
204	0xbcbe8866	-0.0232584
205	0xbd2b6a31	-0.04184932
206	0xbdc4a0a5	-0.09600953
207	0xbef99643	-0.48747453
208	0xbe8b17ff	-0.27166745
209	0xbd7a7a51	-0.061151806
210	0xbd0a066b	-0.033697527
211	0xbf19562f	-0.5989713
212	0xbe5aeb8e	-0.2137892
213	0xbe505105	-0.20343406
214	0xbdd7caf0	-0.10536754
215	0x3cce9407	0.02521707
216	0xbf4cde2b	-0.800265
217	0xbd80fcd2	-0.06298222
218	0x3d53991f	0.0516597
219	0xbe5112b6	-0.20417294
220	0xbf3dc4ec	-0.74128604
221	0xbe69b42c	-0.22822636
222	0xbe58b4ec	-0.21162766
223	0xbec7cc70	-0.3902316
224	0xbf06c52d	-0.52644616
225	0x3e371bb1	0.17881657
226	0xbece99d9	-0.4035175
227	0xbe72a17d	-0.23694415
228	0xbe6fe4a8	-0.23427069
229	0xbdfaafa8	-0.12240535
230	0xbb1082bf	-0.0022050587
231	0xbe177304	-0.14789969
232	0xbf1cd3c9	-0.6126066
233	0xbe37795a	-0.17917386
234	0xbe8b9dd2	-0.27268845
235	0xbe6086af	-0.21926378
236	0xbe56d0cb	-0.20978086
237	0xbef0276f	-0.46905085
238	0xbf1cb7b4	-0.6121781
239	0xbe47ca5b	-0.19510786
240	0xbde5b21f	-0.112156145
241	0xbf0cea0f	-0.55044645
242	0xbf0ff332	-0.5623046
243	0xbde36a4d	-0.1110426
244	0xbf0606e5	-0.5235427
245	0xbdccc745	-0.09998945
246	0xbde3a82a	-0.11116059
247	0xbe8d2ca7	-0.2757313
248	0xbe5024f6	-0.203266
249	0xbe1e9861	-0.15487815
250	0xbd8c81f6	-0.068607256
251	0xbe492045	-0.19641216
252	0xbdddfc9f	-0.10839199
253	0xbe578a3f	-0.2104883
254	0xbf283e3d	-0.6571997
255	0xbed9b815	-0.42523256

action_model._discrete_distribution.branches.0.weight f4 [4, 512]
0	0x3e304b81	0.17216302
1	0xbe1a36f2	-0.15060022
2	0xbd9006a6	-0.07032518
3	0x3cfd79eb	0.030941924
4	0x3d0079a3	0.031366
5	0xbd82c0fe	-0.063844666
6	0x3e5018a5	0.20321901
7	0x3dacbebc	0.08434817
8	0x3e07c5d0	0.13259053
9	0xbd3083a6	-0.0430943
10	0x3e3a2a8c	0.18180293
11	0x3e283676	0.16427025
12	0xbe3fb0af	-0.18719743
13	0xbd6f4b1a	-0.05842123
14	0x3d630792	0.05542714
15	0x3e81e8e7	0.25373003
16	0xbd69895a	-0.057015754
17	0x3e053c3c	0.13011259
18	0xbe1e61d7	-0.1546701
19	0x3d791451	0.06081039
20	0xbdcaaafb	-0.09895893
21	0x3e9cb41f	0.3060617
22	0x3d2a0060	0.041504264
23	0x3bd0646a	0.0063596265
24	0x3d8ab312	0.06772436
25	0x3c6e240d	0.014534962
26	0x3c847071	0.016166897
27	0x3e3ae4ba	0.18251315
28	0xbd185191	-0.037187163
29	0xbca92bef	-0.020650832
30	0x3d0f74fb	0.03502367
31	0x3c04ba51	0.008101062
32	0x3dbd3197	0.09237974
33	0xbd4ce4f5	-0.050023038
34	0xbe077627	-0.13228665
35	0xbdc5b018	-0.09652728
36	0x3e26809f	0.16260003
37	0x3da15e20	0.07879281
38	0x3c7ffc17	0.015624068
39	0xbcc0719c	-0.023491673
40	0xbd1b2b9f	-0.037883397
41	0xbd8627c7	-0.06550556
42	0xbe25fbb7	-0.16209303
43	0xbe04af0e	-0.12957403
44	0x3dc1ceff	0.094633095
45	0x3bb4cf1d	0.005517854
46	0x3c62aa0e	0.0138344895
47	0x3d9f7bea	0.077873066
48	0xbd03da36	-0.032190524
49	0xbd0bbdd2	-0.034116574
50	0x3d428a43	0.047495138
51	0xbdc78410	-0.09741986
52	0xbd793966	-0.060845755
53	0x3d831b4d	0.064016916
54	0x3e54ae98	0.20769727
55	0xbdebe4fd	-0.115182854
56	0xbd3a9bad	-0.04555862
57	0x3d7025bb	0.058629733
58	0xbde53ad5	-0.11192862
59	0x3de0fddd	0.109859206
60	0x3da7eaaf	0.08199059
61	0xbe4c02d4	-0.19922954
62	0xbc00203e	-0.007820187
63	0xbdee579d	-0.11637805
64	0x3db67809	0.08909614
65	0x3e08ea39	0.13370599
66	0x3d9b68ec	0.07588372
67	0x3e3f3507	0.18672572
68	0x3e28f46f	0.16499494
69	0x3defe83f	0.11714219
70	0xbd1bed34	-0.03806801
71	0xbc4dca17	-0.012560389
72	0x3e40e71f	0.18838166
73	0xbe39e49e	-0.18153617
74	0x3d5d8290	0.054079592
75	0x3d44cc5d	0.04804646
76	0x3d87a735	0.06623689
77	0x3e678afd	0.22611614
78	0x3e07b736	0.13253483
79	0x3e61fe5e	0.2206969
80	0xbe51f7e1	-0.20504715
81	0x3dee633c	0.11640021
82	0x3db3614a	0.08758791
83	0xbb847d8e	-0.0040432876
84	0x3e4be93d	0.19913192
85	0xbd9a3f57	-0.07531612
86	0x3c58aae8	0.013224341
87	0x3c1534c0	0.009106815
88	0xbbd2931a	-0.0064262273
89	0x3e192a24	0.14957482
90	0x3ca5ef7d	0.020255798
91	0x3cebf529	0.028803425
92	0xbe60e02b	-0.21960513
93	0x3c27c6e1	0.0102402875
94	0xbe5bd652	-0.21468475
95	0x3d770b40	0.060313463
96	0xbdea1102	-0.11429025
97	0x3d29637f	0.041354652
98	0x3e880b25	0.26571003
99	0xbdcfd1f0	-0.10147464
100	0x3d9aeabf	0.075643055
101	0xbe80c162	-0.2514754
102	0xbc97546e	-0.018472876
103	0xbdded03b	-0.108795606
104	0x3da87919	0.082262225
105	0x3d3a2f49	0.04545525
106	0x3da91355	0.082556404
107	0x3e032a51	0.12809111
108	0x3e005fc7	0.12536536
109	0x3d648b30	0.055796802
110	0x3ce2f772	0.027705882
111	0xbd82c41e	-0.06385063
112	0xbd9eb7e6	-0.077499196
113	0x3dfebcfe	0.12438391
114	0xbdd87985	-0.10570053
115	0x3e2e9aef	0.1705129
116	0x3e9dc3ae	0.30813354
117	0xbc495734	-0.012288857
118	0xbdb6970d	-0.089155294
119	0xbda488bc	-0.080338925
120	0xbd20ff7c	-0.03930615
121	0x3d33d1a1	0.04390109
122	0x3e1d1bc8	0.15342629
123	0x3dcd68d9	0.10029764
124	0xbdeb5fd2	-0.11492886
125	0xbd78b783	-0.060721885
126	0x3de8967d	0.11356828
127	0x3e57f47a	0.21089354
128	0x3c0f63f4	0.008751858
129	0xbd19d950	-0.03756076
130	0x3d18a3b2	0.037265487
131	0xbd025b89	-0.031825576
132	0xbdc1ff40	-0.09472513
133	0x3ddb320b	0.10702904
134	0xbde695b6	-0.11259024
135	0x3dcb3784	0.09922698
136	0x3c9167ce	0.017749693
137	0x3c2ee07a	0.010673637
138	0xbd4bc081	-0.049744133
139	0xbdfa7582	-0.12229444
140	0xbdf38b7d	-0.1189184
141	0xbe433fa9	-0.19067253
142	0xbcf6b489	-0.030115383
143	0xbc0b7421	-0.008511574
144	0x3e222a5e	0.15836474
145	0x3dc08b72	0.09401597
146	0x3d740e8f	0.059584197
147	0xbe17e731	-0.14834286
148	0xbd9d7863	-0.076889776
149	0x3c922e21	0.017844262
150	0x3e3e8406	0.1860505
151	0xbc2068d6	-0.00979062
152	0x3e2ff708	0.17184079
153	0x3c20cedf	0.009814947
154	0xbc494bb6	-0.012286117
155	0xbe25f8e9	-0.16208233
156	0x3cef68a9	0.02922471
157	0x3d90df92	0.07073893
158	0x3a93f812	0.0011289141
159	0x3de94b55	0.113913216
160	0xbda18560	-0.078867674
161	0x3e1c44fb	0.15260689
162	0x3d0de276	0.034639798
163	0xbe012581	-0.12611963
164	0xbda51a44	-0.080616504
165	0xbca4286d	-0.020038808
166	0xbbe487a0	-0.0069741756
167	0x3dd523fa	0.104072526
168	0xbda65ce6	-0.08123188
169	0x3df3c420	0.11902642
170	0xbe59a63a	-0.21254817
171	0xbc03bf2d	-0.008041185
172	0xbe97e7dd	-0.29669085
173	0x3e412a9d	0.18863912
174	0x3da37543	0.0798135
175	0xbe532159	-0.2061819
176	0x3b0689c9	0.0020528904
177	0x3cf16f5b	0.029472044
178	0x3de9fe6b	0.114254795
179	0x3d2554fc	0.04036425
180	0xbcc0e072	-0.023544524
181	0xbd94d1c4	-0.07266572
182	0x3d75c4c8	0.06000212
183	0xbd0280a9	-0.03186098
184	0x3d799622	0.060934193
185	0x3d8ac053	0.06774964
186	0xbe068925	-0.13138254
187	0xbebf1d81	-0.37327197
188	0x3e2bff9d	0.16796727
189	0x3daf70df	0.0856645
190	0x3d9fb1d3	0.07797589
191	0x3e27b7d1	0.16378714
192	0x3e377ddc	0.17919105
193	0xbd956224	-0.072941095
194	0xbca2c412	-0.019868884
195	0xbdf04c24	-0.11733273
196	0xbd17bdde	-0.037046306
197	0xbc49b01c	-0.012310054
198	0x3dd979f1	0.106189616
199	0x3e29d3ce	0.16584703
200	0x3d81c191	0.06335748
201	0x3e61d571	0.22054078
202	0xbd6e646d	-0.058201242
203	0x3dd22ff0	0.102630496
204	0x3d6414af	0.055683788
205	0xbd255c76	-0.04037138
206	0x3c5fcf9d	0.013660339
207	0xbd0ad121	-0.033890847
208	0x3dced1d6	0.10098617
209	0x3e857b0a	0.26070434
210	0xbd4e3779	-0.05034587
211	0x3d55c9a6	0.05219426
212	0x3e1801c3	0.14844422
213	0x3d7037b0	0.058646858
214	0xbd9aaa9f	-0.07552075
215	0xbd26c21e	-0.04071247
216	0xbc46336a	-0.012097219
217	0x3e051464	0.1299606
218	0x3e4d1117	0.2002605
219	0x3d63e5ed	0.055639196
220	0xbd14b679	-0.036306832
221	0x3d8af47f	0.06784915
222	0x3e0097e8	0.12557948
223	0xbe06516d	-0.13116999
224	0xbc8d4ac1	-0.01724756
225	0x3e0c1144	0.13678461
226	0x3e36ee1e	0.17864272
227	0x3e6ffb3a	0.23435679
228	0x3ddd7d47	0.108149104
229	0x3e0af17c	0.13568681
230	0x3e06816f	0.13135312
231	0x3ea5b00a	0.3236087
232	0x3d8284aa	0.0637296
233	0x3e24d5e7	0.16097222
234	0xbe0535f1	-0.13008858
235	0x3e426bd2	0.18986443
236	0x3d0a4aad	0.033762623
237	0xbd1be639	-0.038061354
238	0xbc50a6a5	-0.012735044
239	0x3bbef8eb	0.005828013
240	0x3b1a7aba	0.0023571686
241	0x3d77a923	0.060464036
242	0x3d0e8145	0.03479125
243	0xbda85ed1	-0.0822121
244	0x3ce7b723	0.028285569
245	0x3db67fa9	0.08911068
246	0x3db79061	0.08963085
247	0x3e0c6a58	0.13712442
248	0x3d1e38b5	0.0386283
249	0xbd27ef4d	-0.0409997
250	0xbdcfc7ed	-0.10145555
251	0x3e28a965	0.16470869
252	0xbce962f2	-0.028489564
253	0xbcc3e243	-0.023911601
254	0xbdfa9268	-0.12234956
255	0xbe36f1fd	-0.17865749

action_model._discrete_distribution.branches.0.bias f4 [4]
0	0x3bc03e60	0.0058668107
1	0x3c324d81	0.010882736
2	0xbe212141	-0.15735342
3	0x3e4fa009	0.20275892

action_model._discrete_distribution.branches.1.weight f4 [5, 512]
0	0x3e5ea1b2	0.2174137
1	0xbd8f1d87	-0.06988054
2	0xbcd0328d	-0.02541473
3	0x3dbc1388	0.09183413
4	0xbd55d77b	-0.05220745
5	0xbd10a5c5	-0.03531434
6	0x3c753a74	0.01496755
7	0x3e412d32	0.18864897
8	0x3d179791	0.03700978
9	0xbc129f5d	-0.008949128
10	0xbd475fee	-0.04867547
11	0x3de33fbd	0.110961415
12	0xbdf2af61	-0.11849857
13	0xbd74f921	-0.0598079
14	0x3e381357	0.17976128
15	0x3e160732	0.14651182
16	0xbe9c2ff8	-0.30505347
17	0xbd207169	-0.039170656
18	0x3d477bbe	0.048701994
19	0x3e5bd72d	0.21468802
20	0xbc8ea171	-0.017410966
21	0xbc743c84	-0.014907006
22	0x3d868541	0.06568385
23	0xbcce3cc0	-0.025175452
24	0x3dd70626	0.104992196
25	0x3e715b02	0.23569873
26	0x3dfc50ab	0.12320074
27	0x3dfaa738	0.12238926
28	0x3e5ad15e	0.2136893
29	0xbdf726e9	-0.120679684
30	0xbd1aa1a3	-0.037751805
31	0xbcee8dd8	-0.02912037
32	0x3dae58c4	0.085130244
33	0xbd218b05	-0.03943922
34	0x3da5a0b7	0.080872945
35	0xbd63f003	-0.055648815
36	0x3d0bac64	0.03409995
37	0x3d6cd625	0.05782141
38	0x3dfabe4d	0.12243328
39	0xbbd1672f	-0.0063904743
40	0xbde20c03	-0.11037447
41	0xbc0cf517	-0.008603356
42	0xbd7b5dcc	-0.06136875
43	0x3d1a19ec	0.037622377
44	0xbb5b3b2c	-0.0033452017
45	0xbdd4e24b	-0.103947245
46	0x3d938813	0.072036885
47	0x3d3c7158	0.04600653
48	0xbe3447c0	-0.17605495
49	0xbe5d51f8	-0.216133
50	0x3df4787a	0.119370416
51	0xbce2b3be	-0.027673598
52	0xbde80b56	-0.11330287
53	0xbe0e869f	-0.13918541
54	0x3d976d26	0.07393865
55	0xbca27699	-0.019831942
56	0x3e0f1121	0.13971378
57	0xbdf04e76	-0.11733715
58	0x3d8d8db0	0.0691179
59	0x3bb9383a	0.0056524547
60	0x3e044404	0.12916571
61	0xbe01be07	-0.12670146
62	0xbe9f14fb	-0.31070694
63	0x3dd39747	0.10331588
64	0x3d27e79e	0.04099237
65	0x3dbc4b00	0.091939926
66	0x3e142252	0.14466217
67	0xbe285c09	-0.16441359
68	0xbce62718	-0.028094813
69	0x3d14df5e	0.036345832
70	0xbe127795	-0.1430343
71	0xbcf98a85	-0.03046156
72	0x3e2466b5	0.16054805
73	0xbdb5162f	-0.08842122
74	0xbcbe478a	-0.023227472
75	0xbdc4d348	-0.09610611
76	0x3dc05749	0.09391648
77	0x3e1dbd2b	0.15404193
78	0x3e3a3845	0.18185528
79	0xbd4df04a	-0.050277986
80	0x3e239e0c	0.15978259
81	0xbe196d0a	-0.14983001
82	0xbd90a395	-0.07062451
83	0x3d47d5b8	0.048787802
84	0x3e46da6b	0.19419257
85	0xbd992106	-0.07477002
86	0xbc82c37f	-0.01596236
87	0x3dd71573	0.10502138
88	0xbdab6ec6	-0.08370738
89	0x3e0f013d	0.13965316
90	0x3d416000	0.047210693
91	0x3c8d8cc7	0.017279042
92	0x3e1ff87c	0.15622133
93	0xbcca051a	-0.024660636
94	0x3d6cf5da	0.05785165
95	0xbd8d7a34	-0.06908074
96	0x3d0b38ac	0.033989593
97	0xbbcb7575	-0.0062090703
98	0xbc243f2e	-0.010024829
99	0x3d82c122	0.063844934
100	0xbe8f1d85	-0.2795221
101	0xbda9b566	-0.08286552
102	0x3d10800b	0.03527836
103	0x3c15cc47	0.009142942
104	0xbd0d8d47	-0.03455856
105	0x3c85551c	0.016275935
106	0xbd2ea3a7	-0.04263654
107	0x3e5d5b4c	0.21616858
108	0x3e56dbad	0.20982237
109	0x3e31a00e	0.17346212
110	0x3d3be6ef	0.045874532
111	0xbb389816	-0.0028166822
112	0x3e4e871d	0.20168729
113	0x3dc3b5c2	0.09556152
114	0xbd421e70	-0.04739231
115	0x3e1b1394	0.15144187
116	0xbe9c7e13	-0.30564937
117	0x3c98f7bb	0.018672815
118	0xbcdbc513	-0.02682737
119	0xbc4aac97	-0.01237025
120	0xbe399a9a	-0.18125382
121	0xbe156ba9	-0.1459185
122	0x3bedd70e	0.0072583025
123	0x3dff59cd	0.124683
124	0xbd404ff5	-0.046951253
125	0x3cc28bff	0.023748396
126	0x3a4d1ef4	0.0007824742
127	0x3d8eb81d	0.069687106
128	0xbddd50e7	-0.108064465
129	0xbe297dea	-0.16551939
130	0x3e113c28	0.14183104
131	0xbddb81e0	-0.10718131
132	0x3dfc401c	0.123169154
133	0x3deaa814	0.114578396
134	0xbe951701	-0.29119113
135	0x3c8b42de	0.016999658
136	0x3e4d43d7	0.2004541
137	0xbf22c130	-0.6357603
138	0x3d6a9721	0.057273034
139	0x3ca0c95b	0.019627264
140	0xbdc5907f	-0.09646701
141	0xbd1bee45	-0.03806903
142	0x3c4eb60a	0.012616644
143	0xbd2ae27d	-0.041719902
144	0x3d30c08b	0.043152373
145	0xbcb04ef0	-0.021522015
146	0x3cb49b86	0.022046816
147	0x3e6589a3	0.22415785
148	0xbd304f24	-0.043044224
149	0xbe0c5c57	-0.137071
150	0xb9e026f6	-0.00042753638
151	0x3c9693ce	0.018381026
152	0xbac83da2	-0.0015277157
153	0xbddcdafe	-0.10783957
154	0xbc5c0ffd	-0.013431546
155	0xbd5c2032	-0.05374164
156	0x3d26d8ce	0.040734105
157	0x3d3b4960	0.045724273
158	0x3e2b8a02	0.16751865
159	0x3dfd7ae9	0.12376959
160	0x3d0921ad	0.03347938
161	0xbd414693	-0.047186445
162	0xbd2e03ac	-0.04248397
163	0xbcdc4538	-0.026888475
164	0xbd3475ea	-0.044057764
165	0x3cbea90d	0.02327397
166	0xbdba4a56	-0.0909621
167	0x3deab812	0.1146089
168	0xbe003d3c	-0.12523359
169	0x3cfed606	0.031107914
170	0xbdceeaa4	-0.10103348
171	0x3dffa863	0.12483289
172	0xbe18404b	-0.14868276
173	0xbddbbe8d	-0.10729704
174	0x3e159cff	0.1461067
175	0x3d4dc3aa	0.050235428
176	0x3e3847fc	0.1799621
177	0xbe684247	-0.22681533
178	0x3d1ef953	0.038811993
179	0xbe085e64	-0.13317257
180	0xbdbedd7e	-0.0931959
181	0x3d3b7f4a	0.04577569
182	0x3dd51c50	0.10405791
183	0xbd7314b8	-0.05934593
184	0x3dd741fb	0.10510632
185	0x3dc4ce52	0.09609665
186	0x3da41717	0.080122165
187	0x3ccef8ff	0.025265215
188	0x3d9d3b6d	0.0767735
189	0xbdb7cb54	-0.08974329
190	0x3d0bfc3a	0.03417609
191	0x3d71b140	0.05900693
192	0xbdee5259	-0.116368
193	0xbca1e084	-0.019760378
194	0x3d8894a0	0.06668973
195	0x3c41f1ef	0.011837467
196	0x3a31d637	0.00067839347
197	0xbd6a3138	-0.057175845
198	0xbdadbbdc	-0.08483097
199	0x3d8b8a09	0.068134375
200	0xbd8fe6f4	-0.07026473
201	0xbe164c0f	-0.14677452
202	0xbd5f6ea8	-0.05454889
203	0x3d36557e	0.044515125
204	0x3dc19eed	0.09454141
205	0x3e5faaf2	0.21842554
206	0xbc657305	-0.014004474
207	0xbc5af9da	-0.013365233
208	0x3d3714ef	0.0446977
209	0x3e8b2599	0.27177122
210	0xbdaeba63	-0.08531644
211	0x3ddd4e7d	0.10805986
212	0xba47bc31	-0.000761929
213	0x3cd2acbb	0.02571713
214	0xbda72675	-0.08161632
215	0xbdae6d71	-0.08516968
216	0xbd9e5c62	-0.077324644
217	0x3d914eb4	0.070950896
218	0x3d236db7	0.039899554
219	0x3da089ae	0.0783876
220	0x3cb307d7	0.021854324
221	0xbb3be78d	-0.002867195
222	0xbdd0df2b	-0.10198816
223	0x3d9a74cb	0.07541808
224	0x3d9f2517	0.07770746
225	0x3da1d57a	0.079020455
226	0xbdbc3ff3	-0.09191885
227	0x3dd5a2c8	0.10431439
228	0xbe3bbf51	-0.183347
229	0x3d32a899	0.04361782
230	0x3e4d80fe	0.20068738
231	0x3e988a49	0.29793003
232	0x3cca2d01	0.024679663
233	0x3d32e476	0.04367491
234	0xbe98bd60	-0.29831982
235	0x3d2cafd5	0.042159874
236	0x3c94f063	0.018181032
237	0xbd9323f9	-0.071845956
238	0xbdc12e95	-0.09432713
239	0x3e7293d8	0.2368921
240	0xbda35088	-0.079743445
241	0xbb17c97e	-0.002316087
242	0x3d88c040	0.06677294
243	0xbedb742d	-0.42862073
244	0xbe15deec	-0.14635819
245	0x3e50fcab	0.20408885
246	0x3e1a5918	0.15073049
247	0xbe71cc18	-0.23613012
248	0x3e99b8d1	0.30023816
249	0x3d225a7f	0.039637085
250	0xbdedcb8b	-0.11611088
251	0x3e538628	0.20656645
252	0x3d584bf6	0.052806817
253	0x3e026a2f	0.12735818
254	0xbc6b153c	-0.014348324
255	0xb95c1905	-0.00020990155

action_model._discrete_distribution.branches.1.bias f4 [5]
0	0x3d0666d7	0.03281292
1	0xbc8d73bd	-0.017267102
2	0x3da49a9a	0.080373004
3	0xbce1e54f	-0.027575163
4	0x3d89e673	0.06733408

exp_avg f4 [512, 40]
0	0x00000000	0.0
1	0x37006888	7.653733e-06
2	0xb795e103	-1.7866963e-05
3	0x39d49b4a	0.0004055149
4	0x39cdbc08	0.0003924074
5	0x00000000	0.0
6	0x37059d15	7.963991e-06
7	0x328f6550	1.6693463e-08
8	0x39cb1154	0.00038732088
9	0x39d5978f	0.00040739446
10	0x00000000	0.0
11	0x372ce0b8	1.030432e-05
12	0x3389d226	6.4177854e-08
13	0x39c9d0da	0.00038493314
14	0x39d29a39	0.00040169226
15	0x00000000	0.0
16	0x392c1e29	0.00016414434
17	0x35924634	1.089828e-06
18	0x39713e42	0.00023006744
19	0x39ae1254	0.00033201522
20	0x00000000	0.0
21	0xb6496900	-3.0012452e-06
22	0x353e46ae	7.088337e-07
23	0x39d0742c	0.00039759406
24	0x39d2115a	0.0004006725
25	0x00000000	0.0
26	0x39d774c1	0.00041094984
27	0x3747dee0	1.1913216e-05
28	0xb7e733d1	-2.7561475e-05
29	0x3903127d	0.00012500021
30	0x00000000	0.0
31	0x37107b32	8.6117525e-06
32	0x35a3c798	1.2202536e-06
33	0x39ca18dc	0.00038546964
34	0x39d169c9	0.00039942403
35	0xb9be1be3	-0.000362604
36	0xb81eae2a	-3.783234e-05
37	0x33c05400	8.955976e-08
38	0xba50733a	-0.00079517404
39	0xb8a1ca4d	-7.71476e-05
40	0x00000000	0.0
41	0x336cccf6	5.5134443e-08
42	0x311adf6c	2.253695e-09
43	0x35c018db	1.4312349e-06
44	0x35c61b62	1.4760119e-06
45	0x00000000	0.0
46	0xb10369d0	-1.9123156e-09
47	0xadcf2579	-2.3549817e-11
48	0x35c80f39	1.4905592e-06
49	0x35c5c8f9	1.4736135e-06
50	0x00000000	0.0
51	0x343545dc	1.6882353e-07
52	0x2fc35d38	3.553653e-10
53	0x35b117c1	1.3194441e-06
54	0x35c5001f	1.4677679e-06
55	0x00000000	0.0
56	0x34650e16	2.1332411e-07
57	0xae5895ec	-4.924587e-11
58	0x35ab2ca2	1.2753483e-06
59	0x35badccb	1.3922339e-06
60	0x00000000	0.0
61	0xb2b97960	-2.159203e-08
62	0x2f90de73	2.6351507e-10
63	0x35caa986	1.5099511e-06
64	0x35c50b5b	1.4680949e-06
65	0x00000000	0.0
66	0x35b7f87c	1.3706881e-06
67	0x317184c4	3.5145584e-09
68	0x33f5b74b	1.1442042e-07
69	0x3523f524	6.107896e-07
70	0x00000000	0.0
71	0x33cd88c8	9.570937e-08
72	0xafe90632	-4.2386855e-10
73	0x35bb02b3	1.3933371e-06
74	0x35c57d66	1.471414e-06
75	0xb5b86489	-1.3738328e-06
76	0xb5319204	-6.615012e-07
77	0x33e1909f	1.05036854e-07
78	0xb671a33a	-3.6006809e-06
79	0xb6327dc8	-2.6597281e-06
80	0x00000000	0.0
81	0xb8729237	-5.783347e-05
82	0xb496b4be	-2.8071184e-07
83	0x3781b738	1.5463316e-05
84	0xb8005c9c	-3.0603827e-05
85	0x00000000	0.0
86	0xb59d382c	-1.171376e-06
87	0xadaa4b73	-1.9360269e-11
88	0xb82dfa39	-4.1479452e-05
89	0xb8331f32	-4.270598e-05
90	0x00000000	0.0
91	0xb824ca65	-3.928914e-05
92	0xb3c9bd11	-9.394183e-08
93	0xb65b4bf0	-3.2677744e-06
94	0xb7c21200	-2.3134984e-05
95	0x00000000	0.0
96	0xb6a61674	-4.9497994e-06
97	0xb1e0aa16	-6.5385946e-09
98	0xb81e1a2e	-3.7694517e-05
99	0xb829758e	-4.040222e-05
100	0x00000000	0.0
101	0xb882f4ca	-6.2444786e-05
102	0xb3d95ed3	-1.01220984e-07
103	0x37a6e479	1.9895133e-05
104	0xb7949a40	-1.7714803e-05
105	0x00000000	0.0
106	0xb783797e	-1.5672991e-05
107	0x3478e2bc	2.3179285e-07
108	0xb7e44054	-2.7209673e-05
109	0xb8136f36	-3.5151104e-05
110	0x00000000	0.0
111	0xb87f1620	-6.0817343e-05
112	0xb1fba328	-7.32361e-09
113	0x379873f1	1.8173801e-05
114	0xb79187c0	-1.734856e-05
115	0xb882e7a0	-6.2420266e-05
116	0xb8f7e534	-0.0001182057
117	0x361c8b3a	2.3326852e-06
118	0x36ebd0a0	7.027833e-06
119	0x36fb589c	7.4906984e-06
120	0x00000000	0.0
121	0x350468e9	4.9326496e-07
122	0x32482d09	1.1651772e-08
123	0xb70917aa	-8.171346e-06
124	0xb7020016	-7.748624e-06
125	0x00000000	0.0
126	0xb4fd3e40	-4.7170215e-07
127	0xaf686e4e	-2.1139465e-10
128	0xb6f1686a	-7.194515e-06
129	0xb6f7bb35	-7.3829674e-06
130	0x00000000	0.0
131	0x349d9452	2.9351446e-07
132	0x31492704	2.9271527e-09
133	0xb7059843	-7.962869e-06
134	0xb7035317	-7.827554e-06
135	0x00000000	0.0
136	0xb5f5e72b	-1.8321201e-06
137	0xb0c95d06	-1.4651114e-09
138	0xb6c3b7b9	-5.832841e-06
139	0xb6e55890	-6.835042e-06
140	0x00000000	0.0
141	0x341823de	1.4169152e-07
142	0x31468999	2.8891007e-09
143	0xb7030c03	-7.811005e-06
144	0xb702ab62	-7.788507e-06
145	0x00000000	0.0
146	0xb7060d0b	-7.990059e-06
147	0xb36e54a6	-5.549068e-08
148	0x34cb8a4a	3.7912315e-07
149	0xb621b6ae	-2.4097203e-06
150	0x00000000	0.0
151	0x33f90bd5	1.1597118e-07
152	0xaf998e89	-2.7931815e-10
153	0xb7028ff0	-7.782117e-06
154	0xb7021d75	-7.755462e-06
155	0x36fdae7b	7.5602998e-06
156	0x35b1b26e	1.3239458e-06
157	0xb542c280	-7.2553667e-07
158	0x37c156ac	2.3047753e-05
159	0x371b8457	9.269533e-06
160	0x00000000	0.0
161	0xb638e300	-2.7550268e-06
162	0xb21ce202	-9.131783e-09
163	0xb8a8f6ea	-8.0568556e-05
164	0xb8ada590	-8.280121e-05
165	0x00000000	0.0
166	0xb6251a07	-2.4602066e-06
167	0x2e58fdf6	4.9338277e-11
168	0xb8a99a1f	-8.087255e-05
169	0xb8ada630	-8.280238e-05
170	0x00000000	0.0
171	0xb4e7724f	-4.3110273e-07
172	0x2f51f75b	1.9096318e-10
173	0xb8addb93	-8.290182e-05
174	0xb8aedeb8	-8.338451e-05
175	0x00000000	0.0
176	0xb832c9cc	-4.2626445e-05
177	0xae48f34e	-4.5690833e-11
178	0xb82abbf7	-4.0706214e-05
179	0xb8845dfa	-6.311755e-05
180	0x00000000	0.0
181	0xb52945e2	-6.30591e-07
182	0xac937900	-4.191425e-12
183	0xb8ad705e	-8.270213e-05
184	0xb8aeace7	-8.329172e-05
185	0x00000000	0.0
186	0xb8ab1a93	-8.158865e-05
187	0x32141f39	8.621833e-09
188	0xb5eb3dba	-1.7526829e-06
189	0xb7f3d33b	-2.906622e-05
190	0x00000000	0.0
191	0xb5deef07	-1.6609855e-06
192	0xafbff047	-3.4913425e-10
193	0xb8ab4700	-8.16714e-05
194	0xb8aea949	-8.3284984e-05
195	0x389db0d2	7.519279e-05
196	0x3850c6d1	4.9776227e-05
197	0xb5aa6619	-1.2695701e-06
198	0x38fb9f34	0.000119982666
199	0x388cc9bc	6.713296e-05
200	0x00000000	0.0
201	0x35553555	7.942629e-07
202	0xb1934c6c	-4.2869512e-09
203	0x34bb7a0a	3.492026e-07
204	0x358c3b05	1.044799e-06
205	0x00000000	0.0
206	0xb484fcb6	-2.4770787e-07
207	0xafc8adc3	-3.6503253e-10
208	0x35ba3198	1.3872514e-06
209	0x35ae566c	1.2989162e-06
210	0x00000000	0.0
211	0x35190916	5.7010163e-07
212	0x3054573f	7.7249135e-10
213	0x35188d94	5.6830436e-07
214	0x35491da2	7.4921456e-07
215	0x00000000	0.0
216	0x3515f35d	5.5860966e-07
217	0x2fa622b8	3.0219893e-10
218	0x351bc398	5.8026626e-07
219	0x35823d4b	9.703593e-07
220	0x00000000	0.0
221	0x3513228a	5.481203e-07
222	0x30b2082e	1.2953529e-09
223	0x351e5030	5.8976275e-07
224	0x352f18fe	6.522895e-07
225	0x00000000	0.0
226	0x3515b14e	5.576484e-07
227	0xb37a64ac	-5.829922e-08
228	0x352bc0ba	6.398292e-07
229	0x35377829	6.834767e-07
230	0x00000000	0.0
231	0x3538cf06	6.88466e-07
232	0x2ee11fa5	1.02374366e-10
233	0x34f1eb5d	4.5060997e-07
234	0x3521ed6f	6.0322685e-07
235	0x34068aec	1.2530262e-07
236	0xb69bbe3c	-4.641506e-06
237	0xb3fe8227	-1.1851471e-07
238	0xb5b28642	-1.3301108e-06
239	0xb4855060	-2.483166e-07
240	0x00000000	0.0
241	0xb90c9c70	-0.00013409718
242	0x35862222	9.993712e-07
243	0x36f87c3c	7.4054387e-06
244	0xb8ead878	-0.0001119831
245	0x00000000	0.0
246	0x37cb3c07	2.4227438e-05
247	0xb16687e0	-3.354664e-09
248	0xb91d32e6	-0.00014991648
249	0xb908e181	-0.00013053977
250	0x00000000	0.0
251	0xb8c9d6f5	-9.624466e-05
252	0xb38ac49b	-6.461888e-08
253	0xb7f67bbc	-2.9383104e-05
254	0xb8c88145	-9.5608215e-05
255	0x00000000	0.0

exp_avg_sq f4 [512, 40]
0	0x00000000	0.0
1	0x33df2b9c	1.0392179e-07
2	0x3291c9ef	1.697205e-08
3	0x3514b902	5.540352e-07
4	0x352e1f4a	6.486558e-07
5	0x00000000	0.0
6	0x348b69d6	2.5967773e-07
7	0x32dfa14f	2.6033971e-08
8	0x34cc2a06	3.8028537e-07
9	0x3517d993	5.6568496e-07
10	0x00000000	0.0
11	0x34457bab	1.8392045e-07
12	0x32a0d53c	1.872342e-08
13	0x350008f3	4.769674e-07
14	0x351b53bf	5.7863866e-07
15	0x00000000	0.0
16	0x34aec56c	3.255367e-07
17	0x32ad28d4	2.0158417e-08
18	0x34a72da1	3.1139373e-07
19	0x34dd42f4	4.1213173e-07
20	0x00000000	0.0
21	0x345ae9c4	2.0387876e-07
22	0x32983174	1.7717618e-08
23	0x34f8d1ae	4.6346162e-07
24	0x3511c1ba	5.429862e-07
25	0x00000000	0.0
26	0x35001a26	4.7721767e-07
27	0x3302414c	3.032737e-08
28	0x34388c07	1.7187277e-07
29	0x3493dc3b	2.7541122e-07
30	0x00000000	0.0
31	0x3491cc27	2.7156895e-07
32	0x323a4e0c	1.0844371e-08
33	0x34d49f5e	3.9604032e-07
34	0x350f89d1	5.34722e-07
35	0x3515bd41	5.5782226e-07
36	0x3845fed2	4.720578e-05
37	0x35eb190d	1.7516155e-06
38	0x3a13f4dc	0.0005644092
39	0x3518fb3d	5.699001e-07
40	0x00000000	0.0
41	0x2cad4e7c	4.9256692e-12
42	0x2b53919a	7.516432e-13
43	0x2c0031e5	1.821759e-12
44	0x2c901d78	4.095998e-12
45	0x00000000	0.0
46	0x2ca291d0	4.6205054e-12
47	0x2b6d52a3	8.4313996e-13
48	0x2becb6b2	1.6819517e-12
49	0x2c3a8db3	2.6510849e-12
50	0x00000000	0.0
51	0x2bc3e4ed	1.3919123e-12
52	0x2b8a9447	9.846645e-13
53	0x2cac912d	4.9046518e-12
54	0x2ccab8c6	5.7616993e-12
55	0x00000000	0.0
56	0x2ca6d597	4.741717e-12
57	0x2b4298e8	6.9134845e-13
58	0x2be3c2dd	1.6183406e-12
59	0x2c25c6ba	2.3558226e-12
60	0x00000000	0.0
61	0x2bcf0498	1.470951e-12
62	0x2a413c5f	1.7162789e-13
63	0x2cc691e1	5.6436943e-12
64	0x2cdc7426	6.265671e-12
65	0x00000000	0.0
66	0x2cc75963	5.665844e-12
67	0x2b54c2b8	7.5587757e-13
68	0x2b8c91fe	9.988119e-13
69	0x2bf4dd68	1.7398695e-12
70	0x00000000	0.0
71	0x2b87d3fc	9.651164e-13
72	0x29f46fde	1.08551826e-13
73	0x2cda482e	6.203946e-12
74	0x2ceb612b	6.6898895e-12
75	0x2cb96865	5.2696064e-12
76	0x2efa527d	1.13833366e-10
77	0x2de3fa08	2.5917948e-11
78	0x2fb409b1	3.2748695e-10
79	0x2c549a1e	3.0212564e-12
80	0x00000000	0.0
81	0x33834807	6.1132646e-08
82	0x319c6338	4.5514774e-09
83	0x338db3cb	6.598528e-08
84	0x33e7b666	1.0789954e-07
85	0x00000000	0.0
86	0x31c3ce57	5.698705e-09
87	0x319da319	4.5878434e-09
88	0x33fe9bfd	1.1856171e-07
89	0x3407d755	1.2651192e-07
90	0x00000000	0.0
91	0x33def061	1.0381405e-07
92	0x327b7f08	1.46390065e-08
93	0x3259ca6d	1.2677089e-08
94	0x3396761f	7.0064054e-08
95	0x00000000	0.0
96	0x30b369ba	1.3054013e-09
97	0x312d8dfb	2.525552e-09
98	0x3406ee3b	1.256639e-07
99	0x3408cc5b	1.2740331e-07
100	0x00000000	0.0
101	0x33cf704d	9.659616e-08
102	0x32e146bc	2.6225614e-08
103	0x32034a0d	7.642041e-09
104	0x335450d9	4.9433627e-08
105	0x00000000	0.0
106	0x31fc3b7e	7.3409288e-09
107	0x32ad8098	2.0198328e-08
108	0x33d9f4bf	1.0149369e-07
109	0x33fea6fe	1.18581724e-07
110	0x00000000	0.0
111	0x33f32aee	1.1323378e-07
112	0x32317429	1.0329168e-08
113	0x3204bf3d	7.726894e-09
114	0x33490317	4.680177e-08
115	0x33ab9923	7.9906634e-08
116	0x3603b635	1.962658e-06
117	0x363d0c58	2.817038e-06
118	0x34facf29	4.6716858e-07
119	0x3316b773	3.5091443e-08
120	0x00000000	0.0
121	0x2d3187b4	1.0091417e-11
122	0x2bad6bf2	1.232235e-12
123	0x2e9684fa	6.8448316e-11
124	0x2ea54c36	7.516869e-11
125	0x00000000	0.0
126	0x2d569996	1.21985946e-11
127	0x2c251e61	2.3464774e-12
128	0x2e974f2c	6.880749e-11
129	0x2e9fb42e	7.262489e-11
130	0x00000000	0.0
131	0x2d3e0df2	1.0803346e-11
132	0x2d2055d4	9.114005e-12
133	0x2e864f19	6.107665e-11
134	0x2e9afee8	7.0483896e-11
135	0x00000000	0.0
136	0x2dc50dfe	2.240252e-11
137	0x2c0f76ca	2.0387463e-12
138	0x2e64552d	5.191685e-11
139	0x2e872445	6.145532e-11
140	0x00000000	0.0
141	0x2da25ce0	1.8458512e-11
142	0x2d4ab2af	1.1522046e-11
143	0x2e5f6cb4	5.0800877e-11
144	0x2e8fd6f9	6.541074e-11
145	0x00000000	0.0
146	0x2e71e580	5.5000893e-11
147	0x2cd8f6c5	6.166486e-12
148	0x2db202db	2.0237525e-11
149	0x2e1c7a43	3.5578884e-11
150	0x00000000	0.0
151	0x2e1eba88	3.6090714e-11
152	0x2ca3593f	4.642647e-12
153	0x2e2f895e	3.99124e-11
154	0x2e8262a1	5.9292356e-11
155	0x2e82a5ff	5.9412024e-11
156	0x30f69ed5	1.7943999e-09
157	0x313cc3a7	2.7468816e-09
158	0x3299d9bf	1.7910564e-08
159	0x2e89c803	6.265568e-11
160	0x00000000	0.0
161	0x3125798d	2.4079754e-09
162	0x2e99c0ca	6.991881e-11
163	0x313cf75c	2.7498208e-09
164	0x31954757	4.344581e-09
165	0x00000000	0.0
166	0x310eddc3	2.0789777e-09
167	0x2e81563c	5.881559e-11
168	0x31552509	3.1016631e-09
169	0x318207d6	3.784389e-09
170	0x00000000	0.0
171	0x30387e4f	6.7118305e-10
172	0x2f0a206f	1.256255e-10
173	0x31981bba	4.4269344e-09
174	0x31a54c94	4.810838e-09
175	0x00000000	0.0
176	0x315076ab	3.0335439e-09
177	0x2e53c135	4.8147448e-11
178	0x30dbb724	1.5986399e-09
179	0x3137a795	2.6725264e-09
180	0x00000000	0.0
181	0x2f95ab3b	2.722461e-10
182	0x2fc8f694	3.6554992e-10
183	0x319cae54	4.5600164e-09
184	0x31a6e8d4	4.8577053e-09
185	0x00000000	0.0
186	0x319928bf	4.4575184e-09
187	0x2e647777	5.1947304e-11
188	0x304c50e0	7.43297e-10
189	0x30c700cd	1.4479383e-09
190	0x00000000	0.0
191	0x3016e9ed	5.490211e-10
192	0x2ddc601d	2.5053787e-11
193	0x31a0954a	4.673585e-09
194	0x31a6a8f8	4.8504454e-09
195	0x317eee3f	3.7097292e-09
196	0x341b7a34	1.4479957e-07
197	0x343eda75	1.7774603e-07
198	0x341459be	1.3816222e-07
199	0x315165d0	3.0471377e-09
200	0x00000000	0.0
201	0x2db67e94	2.0747216e-11
202	0x2cff57c0	7.257278e-12
203	0x2da306e7	1.853402e-11
204	0x2e149803	3.3786317e-11
205	0x00000000	0.0
206	0x2d9f4fc3	1.8111629e-11
207	0x2d299acb	9.640909e-12
208	0x2da39d7c	1.8600892e-11
209	0x2df78051	2.8137633e-11
210	0x00000000	0.0
211	0x2d940a3d	1.6830199e-11
212	0x2cf70f30	7.0218484e-12
213	0x2dcbcd87	2.31697e-11
214	0x2e1b6866	3.5335644e-11
215	0x00000000	0.0
216	0x2da8e889	1.9202655e-11
217	0x2d0f6f15	8.153274e-12
218	0x2da72ad1	1.9004716e-11
219	0x2dedb520	2.7024216e-11
220	0x00000000	0.0
221	0x2da1fe37	1.8416475e-11
222	0x2c92b779	4.169939e-12
223	0x2ddc564b	2.5049426e-11
224	0x2e135f85	3.350877e-11
225	0x00000000	0.0
226	0x2daa716f	1.9377137e-11
227	0x2d7dc8f6	1.4426007e-11
228	0x2d8dbe29	1.6114292e-11
229	0x2de17970	2.5633468e-11
230	0x00000000	0.0
231	0x2da24db7	1.845178e-11
232	0x2c5305c8	2.9988113e-12
233	0x2dda91cb	2.4848476e-11
234	0x2e0f3d99	3.2569145e-11
235	0x2e0cf3fa	3.204901e-11
236	0x313e4b7c	2.7691547e-09
237	0x2dd2b651	2.39552e-11
238	0x31188b47	2.2198081e-09
239	0x2db6dad2	2.078818e-11
240	0x00000000	0.0
241	0x338dff69	6.612283e-08
242	0x329eb745	1.8476962e-08
243	0x33d91762	1.0109103e-07
244	0x342ccc25	1.6093016e-07
245	0x00000000	0.0
246	0x32c30b0c	2.2706011e-08
247	0x32ee29a5	2.7725784e-08
248	0x3413d0da	1.3766422e-07
249	0x342f93b8	1.6351885e-07
250	0x00000000	0.0
251	0x33c5d0d2	9.2115116e-08
252	0x329b85be	1.8105194e-08
253	0x33b331a9	8.34437e-08
254	0x34160dbb	1.3974834e-07
255	0x00000000	0.0

exp_avg f4 [512]
0	0x39cf407e	0.00039530167
1	0x35c7ccb1	1.4886228e-06
2	0xb832e403	-4.265086e-05
3	0xb7009f0d	-7.666426e-06
4	0xb8aec2e8	-8.333271e-05
5	0x3598e5dc	1.139178e-06
6	0xb903cc4e	-0.00012569243
7	0x390a8e36	0.00013213683
8	0x3634e176	2.6953326e-06
9	0xb4884b5c	-2.5386805e-07
10	0x37fb6b63	2.9971538e-05
11	0xb519d5e4	-5.7308193e-07
12	0xb6dae2f0	-6.5233253e-06
13	0xb5df29d7	-1.6626972e-06
14	0xb7b55fba	-2.1621458e-05
15	0x381a66fb	3.681237e-05
16	0x3801d071	3.0950123e-05
17	0x37156acf	8.90596e-06
18	0x378736c3	1.6118755e-05
19	0x39da9cae	0.00041696936
20	0x3785ed82	1.5965434e-05
21	0xb713a0b3	-8.7992985e-06
22	0x37a99b20	2.0218606e-05
23	0xb412276d	-1.3611653e-07
24	0xb5b25f04	-1.3289687e-06
25	0xb7250f2f	-9.838302e-06
26	0x3a0edb53	0.0005449552
27	0xb8ee651c	-0.000113675575
28	0xb87c20f4	-6.0112172e-05
29	0x365adc20	3.261266e-06
30	0x36817a5d	3.8587445e-06
31	0xb985bbfb	-0.00025507793
32	0xb6835af0	-3.9146908e-06
33	0xb8b07178	-8.413469e-05
34	0x38e3d800	0.000108644366
35	0xb9206b88	-0.00015298848
36	0x332d8d0a	4.0407976e-08
37	0x38b55c5f	8.647958e-05
38	0x392b38d0	0.00016328995
39	0xb81054f6	-3.44114e-05
40	0xb960a5c5	-0.00021424059
41	0x345260c8	1.9592983e-07
42	0x383c4acf	4.4892364e-05
43	0xb76006ec	-1.3353052e-05
44	0xb83cde48	-4.502971e-05
45	0xb776cfd0	-1.4711128e-05
46	0xb5455620	-7.351355e-07
47	0x38a3d5f5	7.812298e-05
48	0x37e54a12	2.7333419e-05
49	0x37c42e6c	2.3386638e-05
50	0xb795c406	-1.7853465e-05
51	0xb89a6325	-7.361759e-05
52	0x380c5456	3.3457145e-05
53	0x382c1c64	4.1034436e-05
54	0x37fce1dd	3.0145917e-05
55	0xb575dd7a	-9.1591903e-07
56	0x391af4e9	0.0001477782
57	0xb8af08aa	-8.346264e-05
58	0x39856f7a	0.00025450793
59	0x38c2d884	9.29097e-05
60	0xb6e8ca30	-6.9376765e-06
61	0x37cfb358	2.4759836e-05
62	0x38c7dac7	9.52981e-05
63	0x38322de6	4.2481253e-05
64	0xb6b2abff	-5.3248364e-06
65	0x38bae817	8.912401e-05
66	0xb70f6466	-8.54684e-06
67	0x39503361	0.00019855566
68	0x37760992	1.4664971e-05
69	0x36983c94	4.537005e-06
70	0x38a6552a	7.93136e-05
71	0x386dbf99	5.6683642e-05
72	0xb7f8e3b4	-2.9669936e-05
73	0x3496155f	2.7955227e-07
74	0x38535e69	5.0394247e-05
75	0xb9d04af4	-0.00039728696
76	0xb728335b	-1.0025537e-05
77	0xb838415f	-4.39299e-05
78	0xb84f8733	-4.947856e-05
79	0xb802a000	-3.1143427e-05
80	0x3939086b	0.00017646111
81	0x372e91b5	1.0405133e-05
82	0xb8ff9e46	-0.00012188828
83	0x3697fcd4	4.5295837e-06
84	0x3905ed8f	0.00012772366
85	0xb623a2f3	-2.4383742e-06
86	0xb4879caa	-2.5259698e-07
87	0xb6837c73	-3.918592e-06
88	0x35423c38	7.235826e-07
89	0x3704ecee	7.922978e-06
90	0x3735216d	1.0796223e-05
91	0xb4533a0a	-1.9672021e-07
92	0x394028aa	0.00018325695
93	0xb876cbe9	-5.8840877e-05
94	0x38940c7b	7.0595146e-05
95	0x3590ae7a	1.0779615e-06
96	0x38fb0555	0.00011969606
97	0x365867f6	3.2247021e-06
98	0xb7a2b942	-1.9398172e-05
99	0xb809a590	-3.2817537e-05
100	0x37c3ec8f	2.3355968e-05
101	0x3662b8bb	3.3784152e-06
102	0x34f1e893	4.5058968e-07
103	0xb5b64312	-1.3579577e-06
104	0xb2c2809e	-2.264306e-08
105	0x3809a83b	3.2820022e-05
106	0x373f2c70	1.1394834e-05
107	0xb7b6a1f9	-2.1771515e-05
108	0x3914003b	0.00014114466
109	0x376ce240	1.4119374e-05
110	0xb5693d18	-8.6888167e-07
111	0xb4a93093	-3.1514045e-07
112	0x34cca150	3.811533e-07
113	0xb80a867f	-3.3027023e-05
114	0xb8292aef	-4.0332725e-05
115	0xb7aced2c	-2.061444e-05
116	0x37f00efb	2.8617205e-05
117	0xb80d0f48	-3.363125e-05
118	0xb279b174	-1.4534056e-08
119	0xb8af2ddb	-8.3531915e-05
120	0xba138764	-0.000562778
121	0xb6f6e27a	-7.3577366e-06
122	0xb8e9c92a	-0.000111477755
123	0x37d7b1cc	2.571279e-05
124	0xb46844f9	-2.1631776e-07
125	0x350f62b5	5.341529e-07
126	0xb6875b7c	-4.0339637e-06
127	0x3645fb66	2.950162e-06
128	0x3a1941fe	0.00058463204
129	0xb99bddeb	-0.00029729246
130	0xb3bc06b0	-8.755649e-08
131	0xb7a4e088	-1.9654879e-05
132	0x370867a4	8.130362e-06
133	0xb962030a	-0.00021554172
134	0x36b8208c	5.4874163e-06
135	0xb5457c73	-7.3569316e-07
136	0x38a936ee	8.0687794e-05
137	0x39201364	0.00015266013
138	0x36a83aab	5.01362e-06
139	0xb7ae3d7f	-2.0771053e-05
140	0x3508cbc7	5.0960483e-07
141	0xb7f26d28	-2.8899478e-05
142	0xb74749e8	-1.1878532e-05
143	0x3935733e	0.00017304436
144	0xb59fb0c3	-1.1897868e-06
145	0xb7a2174c	-1.9322753e-05
146	0x384a8ec8	4.829353e-05
147	0x389102b0	6.9146394e-05
148	0x34ad6e47	3.2303998e-07
149	0xb8898bfa	-6.558742e-05
150	0x36486cc4	2.9865632e-06
151	0xb4c58f9f	-3.6798608e-07
152	0xb69bd26a	-4.6438554e-06
153	0x3915718c	0.00014252047
154	0x3506d5e5	5.023015e-07
155	0xb682e510	-3.9009683e-06
156	0xb7598749	-1.2965706e-05
157	0x3860b6e2	5.3576085e-05
158	0x3983a769	0.00025110997
159	0xb7d7f722	-2.5745077e-05
160	0xb451bb17	-1.9532705e-07
161	0x35f66a8d	1.8359439e-06
162	0x33e9be53	1.0884528e-07
163	0x34d03511	3.878163e-07
164	0x385236ec	5.011905e-05
165	0xb7d904a2	-2.5870573e-05
166	0xb8dd1e4b	-0.00010543744
167	0xb7c6343d	-2.3627765e-05
168	0xb91ef60c	-0.00015159714
169	0xb7587fbe	-1.2904346e-05
170	0x358c338d	1.0445816e-06
171	0xb7e6eb6b	-2.7527762e-05
172	0xb832be94	-4.2615997e-05
173	0xb769f6f2	-1.3945379e-05
174	0xb79ddce9	-1.8818728e-05
175	0xb78e0fed	-1.6935135e-05
176	0xb748c38f	-1.1966461e-05
177	0x39541313	0.00020225001
178	0xb758a7c2	-1.2913662e-05
179	0x359b5e7c	1.1575898e-06
180	0x378797b3	1.6163895e-05
181	0xb4a3e72f	-3.0529324e-07
182	0xb4684111	-2.1630355e-07
183	0xb70d33f6	-8.416353e-06
184	0xb697d253	-4.5246356e-06
185	0xb6f15f7c	-7.1934755e-06
186	0xb74f3a22	-1.2351697e-05
187	0x35a1cae5	1.2054485e-06
188	0xb6e07b6d	-6.690089e-06
189	0x37580467	1.2875628e-05
190	0xb5918f81	-1.0845107e-06
191	0x38458cc6	4.7099566e-05
192	0xb9982dec	-0.00029025914
193	0x36571ffb	3.2056112e-06
194	0x38ba8bf4	8.8952394e-05
195	0xb8144dbb	-3.5358342e-05
196	0x35d414d4	1.5801293e-06
197	0x35f720fe	1.8412536e-06
198	0x38439fec	4.664056e-05
199	0x389885ee	7.272871e-05
200	0x37f57108	2.925891e-05
201	0x395cc0e5	0.00021052694
202	0xb49cd29c	-2.9210503e-07
203	0x3757ce86	1.2863084e-05
204	0x391ac41f	0.00014759645
205	0xb858f908	-5.173034e-05
206	0xb89bc0cb	-7.4268864e-05
207	0xb54e99e6	-7.696493e-07
208	0x38451c38	4.699474e-05
209	0x3a11a1e8	0.0005555437
210	0xb960e28e	-0.00021446703
211	0x349bdc1e	2.9031156e-07
212	0x37b9bd2c	2.2141809e-05
213	0x381224e7	3.484348e-05
214	0xb92f13e9	-0.00016696718
215	0x38158186	3.5644996e-05
216	0xb460a5c7	-2.0921935e-07
217	0xb7e91562	-2.7785722e-05
218	0xb881f25e	-6.196344e-05
219	0xb77f95a6	-1.5234027e-05
220	0xb39e4c95	-7.3713785e-08
221	0xb86ee275	-5.6954526e-05
222	0xb8790134	-5.9367347e-05
223	0xb809137a	-3.2681484e-05
224	0xb5c121d6	-1.4389468e-06
225	0xb7d3308c	-2.5175766e-05
226	0x361f603e	2.3748867e-06
227	0xb6fad536	-7.4754016e-06
228	0x37bcb79d	2.2496848e-05
229	0x37b5032f	2.1578364e-05
230	0x375bd1f8	1.3102304e-05
231	0x39af2f83	0.00033414
232	0xb541a574	-7.213887e-07
233	0x37a3df44	1.953508e-05
234	0x38037306	3.1339958e-05
235	0xb7ff6139	-3.0443642e-05
236	0x36f4c924	7.2951825e-06
237	0xb7c84a38	-2.3876419e-05
238	0x351cdbde	5.843448e-07
239	0x38ca66dc	9.65127e-05
240	0xb83e44f6	-4.5363755e-05
241	0x35cedfba	1.5413309e-06
242	0xb5727bfd	-9.033245e-07
243	0x386a43ff	5.5853274e-05
244	0x360f39a4	2.1342212e-06
245	0x39ddedb0	0.00042329496
246	0xb801e642	-3.097044e-05
247	0x383f5581	4.561758e-05
248	0x37f3e500	2.9074494e-05
249	0x37b9f28d	2.2166665e-05
250	0xb8bac7c0	-8.9063775e-05
251	0x35fb8efc	1.8742571e-06
252	0xb8a8650c	-8.029686e-05
253	0x394d9797	0.00019606795
254	0xb3fc901a	-1.17608764e-07
255	0xb589d108	-1.0268132e-06
