MLagents_test1/results/CarAgent_reinforcement_11/CarAgent/CarAgent-2499664.onnx (onnx, 108720 bytes, 7 tensors)

discrete_act_size_vector f4 [1, 2]
00000000: 0000 8040 0000 a040
4.0 5.0

network_body._body_endoder.seq_layers.0.weight f4 [512, 40]
00000000: 2b48 b83d f3c1 febe f990 85be 8ab7 2d3e
00000010: 831d 1bbd 86af 893d ef70 babd bfec 39bc
00000020: a8aa b1bd fd40 33bc 439c 92be 1db1 2b3e
00000030: 153f 33be cef2 4cbe 6cc9 c439 f59b 1b3c
00000040: 8674 e4bd 03f6 dfbe 64a4 b33e efb8 c0bd
00000050: dfc5 9ebd aa55 d1be 773c 0ebf 4ce1 953e
00000060: df7a 883d ace3 003c 2ab6 3c3e 2190 76bd
00000070: 85bf dcbe 42b6 cebe c08c 8a3c 6635 073e
00000080: e826 09bf b028 223c 4ee1 2bbe a6e5 343e
00000090: 96eb a63e f97a e03d 06bd 80bd 251c 1a3e
000000a0: 6707 5fbe c72d 92bc aa48 7cbe 20b1 4ebf
000000b0: 29de 0ebf 7478 e4bd cfbf 133e bb80 29be
000000c0: 27a0 eabe 2002 64bf 95fe d1bd 63a6 2cbe
000000d0: 2ba9 df3d a2da 09bf 8e08 6abf 4db1 2abe
000000e0: 331f 0cbf f013 64be 85cb 78be 530c 7bbf
000000f0: e83e 513e 4b73 34bf 5452 0bbe 358c b9be
00000100: 72fb c4be 77a9 833e 0954 8bbe 82fa 96be
00000110: 49eb 80be 4379 40bf 5f50 86bd fa6f 04bf
00000120: 7646 88be a382 0a3e 8189 10bf 1c52 03bf
00000130: e78e 3c3c c6e2 983e 2ff4 68bd 2b17 1dbf
00000140: 6bb8 9abd 3785 0cbe 25a9 8abe eed3 d53b
00000150: e241 1b3e c869 883d 47dc 843d d290 59be
00000160: 31c3 823e 9910 ad3e 2f02 94bd 70ad 943e
00000170: 9954 8f3e de1b 2dbe 3dca c4be bb6c 743d
00000180: 78f8 d2be 4727 f8ba 7074 a23e 8fa2 1bbd
00000190: 50ad 7bbe f59c bebb e713 df3e 57ad 96be
000001a0: 6f06 e4be 8c64 d43c 7830 69bf 8ba5 5c3e
000001b0: ee3c 033f fe42 bb3b df80 92bd 822e 84be
000001c0: eac9 263e 3c3c 8cbe 106a b0be ab8b 043f
000001d0: 8f12 403d 5f5b 0ebe 90f8 b7be acb8 09bf
000001e0: ca3d a73e ad60 f4be 8094 f5be 70b9 f2bd
000001f0: 431b 2bbf 98c0 e1bd 5efd a6be 9739 42be
00000200: 94c0 36bd 6a4a 26bf e3ce 5bbb ad21 70bf
00000210: 2e67 26bd 983b 38bb 4cf0 99be 09ba 68bd
00000220: 5b5b b7be 48ae 84be fe86 84be 0c81 08bf
00000230: 9737 99bd f423 cdbe f5f3 8a3d 8f02 9bbe
00000240: 92bd a0be c0be 7d3d d2f5 90be d26f 67be
00000250: 2fb7 e2be 7e5c 47bf 0daf 0fbd 1b70 e7be
00000260: 033b 30be 5c20 53bf 3088 e6be 14bd d9bc
00000270: 077b 243d f327 ed3e b026 bebd 44ef ed3d
00000280: 7503 edbd 31e0 963e 8f33 07be 9026 d6be
00000290: 7deb 12be 6792 df3d af9c febc 1e7d 4f3d
000002a0: 5d93 debe 92f9 6dbe a6eb 623e b72e 0dbf
000002b0: d1fc 113d 5ffb 5b3e bfdd adbe 36bf 223d
000002c0: aa2a 803e 19fd d8be d2b1 84be b911 febe
000002d0: eb7a 89bd 42e1 03bf e394 3ebc 781e 883d
000002e0: e5f3 e2bd c199 28be f39f 63be efdc 48bd
000002f0: 3204 a23d 8d7a 1bbf 0920 ba3d 0669 3bbf
00000300: 9b3d ccbe 60e6 a63e 3b7b 17bd 9305 23bf
00000310: 4f1f 0fbe 0f64 48be a31f 1cbe 340c 03bf
00000320: 161b a9be 0c47 81be 2bed c7be b6ec 82be
00000330: cce2 2abf 282b 8c3c 7130 03bf cc0b 25be
00000340: dba4 d5be 3bc6 f9be 1d25 5abd 9d39 b9bd
00000350: 704d 1b3e a77a fbbe 478e 07bf c42f 243d
00000360: 0772 15bf a601 023e 1cdc 00bf 6dc7 09bf
00000370: 110d acbd bd34 00be d77c 58bd a9ea e7be
00000380: 1768 ccbe 2867 213e a544 f7be e6c3 2b3e
00000390: d60d a9be 6bfb 31bf ae1c 533e 81e2 28bf
000003a0: a3fc fcbe ea31 073d 5612 a0be be42 6c3e
000003b0: 646e 07be 9d73 6b3e 7f43 19be 11bf ec3e
000003c0: 21bd a83e 7198 23bc d0a1 ae3e 2677 cfbe
000003d0: 067a 46be 47a9 81bd f19e 08bf ab27 ec3e
000003e0: a76b be3e 27e6 89be 8ca0 5dbe 4e3a 733e
000003f0: 06cd 703e e20b 2abf a1ad c0be ba23 433e
0.0899814 -0.49757347 -0.26087168 0.16964546 -0.03786994 0.067229316 -0.091035716 -0.011347949
-0.08675128 -0.010940787 -0.28634843 0.16766782 -0.17504533 -0.20014498 0.00037534104 0.009497632
-0.111550376 -0.4374238 0.35086358 -0.09410273 -0.07752585 -0.4088567 -0.5556101 0.2927345
0.06664061 0.007866781 0.18428865 -0.060196046 -0.43114868 -0.40373427 0.016912818 0.13203964
-0.5357499 0.009897396 -0.16785166 0.17665729 0.32601613 0.10960955 -0.06286053 0.15049799
-0.21780168 -0.017844094 -0.24637094 -0.8073902 -0.5580774 -0.11155787 0.14428638 -0.16553013
-0.45825312 -0.8906574 -0.10253636 -0.16860346 0.10920938 -0.5384923 -0.91419303 -0.16669197
-0.54735106 -0.2227323 -0.24296387 -0.9806568 0.20434153 -0.70488423 -0.13605624 -0.36239782
-0.38473088 0.2571523 -0.2721255 -0.29487997 -0.25179508 -0.7518503 -0.06558298 -0.5173336
-0.26616257 0.13526396 -0.56459814 -0.51297164 0.01150868 0.29860514 -0.056873497 -0.61363477
-0.07554706 -0.13722692 -0.27082172 0.006525508 0.15161851 0.06660801 0.06487327 -0.21246651
0.25539544 0.33801726 -0.07226979 0.29038572 0.2799423 -0.16905162 -0.38435546 0.059674006
-0.41205192 -0.0018932604 0.3172946 -0.037996825 -0.24577832 -0.0058170506 0.43569872 -0.29429123
-0.44536158 0.02592685 -0.9108958 0.21547525 0.51264846 0.005714773 -0.071534865 -0.25816733
0.16287962 -0.27389705 -0.3445592 0.51775616 0.0468927 -0.13902043 -0.35931826 -0.5379741
0.3266433 -0.47730008 -0.4796486 -0.11851776 -0.66838473 -0.110230625 -0.3261518 -0.18967281
-0.04461725 -0.64957297 -0.0033540062 -0.93801385 -0.040625744 -0.0028111693 -0.30066144 -0.056818042
-0.35811886 -0.25914216 -0.2588424 -0.5332191 -0.07481306 -0.40066493 0.06784812 -0.3027539
-0.3139463 0.06194949 -0.28312546 -0.2260125 -0.44280383 -0.77875507 -0.03507905 -0.45202717
-0.17210011 -0.8247125 -0.45025778 -0.026579417 0.04015639 0.4631954 -0.09284723 0.11617902
-0.11572925 0.2946792 -0.13203262 -0.41826296 -0.14347644 0.10916596 -0.031080572 0.05065643
-0.43471804 -0.23239735 0.22160205 -0.55149406 0.035641495 0.21482609 -0.3395824 0.039733134
0.2503255 -0.42380598 -0.25916916 -0.49622896 -0.06712898 -0.5151559 -0.011632177 0.066464365
-0.110816754 -0.16464902 -0.22228985 -0.049038824 0.079109564 -0.6073387 0.090881415 -0.7320713
-0.3989075 0.32597637 -0.036982756 -0.6368038 -0.13976787 -0.1956942 -0.15246443 -0.51190495
-0.33028477 -0.25249517 -0.39048132 -0.2557122 -0.66752315 0.017110422 -0.5124579 -0.16117781
-0.41727337 -0.4878405 -0.05325805 -0.09044192 0.15166259 -0.49117014 -0.52951473 0.040084615
-0.58377117 0.12695941 -0.5033586 -0.53819925 -0.0840093 -0.12520118 -0.05285343 -0.4529622
-0.39923164 0.15762007 -0.4829456 0.16773948 -0.33018368 -0.6952426 0.20616409 -0.6597062
-0.49411497 0.033006586 -0.3126399 0.23072335 -0.13225704 0.22993322 -0.14967154 0.46239522
0.32956794 -0.009985075 0.34107828 -0.4052059 -0.19382486 -0.06331115 -0.53367525 0.46124014
0.37191507 -0.26933405 -0.21643275 0.2375271 0.2351571 -0.6642438 -0.37632468 0.19056597

network_body._body_endoder.seq_layers.0.bias f4 [512]
00000000: 5e00 33be 0ce8 03bf 4a77 d4bd af5e e7be
00000010: 1365 3dbe ebc7 d1be 63c8 25bd de81 8c3b
00000020: efe0 9abd fef3 d2be 63c2 b5bd 3cef 00bf
00000030: 64b2 5cbd 4d3d 17bf a503 3dbe 4174 153c
00000040: 1604 fbbe 1ddf b1be 9863 a3be 09c5 f3bd
00000050: a190 95be 37fb b7be 3005 4cbe 44d2 46bf
00000060: 835f 0ebf 35d0 cfbe 42a9 b8bd dae5 1fbd
00000070: 4fd5 0fbe fd20 fbbe 5d88 d8be 1f4a 97bd
00000080: 2404 c5be 25cb 4dbe 5412 49be 4e06 17be
00000090: c145 31bf 7240 b93b 6cd1 83be 8ebd f8bd
000000a0: 1da4 2fbe d60b 1dbf 396a 4bbd 6437 08bf
000000b0: 3095 3fbe 451e ffbd 1fae fabe 91d1 90bd
000000c0: 302b c6be 111b edbe 42e2 53be 6e11 ca3c
000000d0: 38f8 46be b97f dcbe 0d04 7f3d 0a14 02bf
000000e0: 6234 64be 4773 bbbd 5438 43be f812 d63a
000000f0: 6c78 9bbe 972b 85be ab52 62bd 986d 3bbd
00000100: adc7 e1be 4071 d13c 05c2 bbbe c6fd ccbb
00000110: ce0d 41bd bc57 4cbe c4d4 bdbe e80d a2be
00000120: eab8 02be 365e 0abf a631 f6bd d5f8 b4bd
00000130: 3e1c afbe c560 13bd 8a8d c03d 8202 80be
00000140: 6ba8 1abd 09fb 00be c248 41bd 78c2 2dbe
00000150: 28de 32be 46d2 cebe ebb2 29bf 1907 ebbe
00000160: ecbb 02bf cb27 dd3d cbb1 9238 2e77 41bf
00000170: ffc2 e8bc bc11 57be 328a 6abb c23a f1be
00000180: 0e1a 49bb 17a7 8ebe 6875 4bbd 7dbe 52be
00000190: e7df acbe 0fea 7ebe f2a8 2ebf b015 d5be
000001a0: 39b9 19bf 033c febd 2b4c d8be cc84 33be
000001b0: 77cb 09be 9749 c2bd 7041 30bf f4a0 0cbf
000001c0: cce2 88be 82d0 7dbe 58a8 b9be 7eeb 4cbe
000001d0: 41cb 7abe b7ef d6bd e643 28bf 7ca8 67bd
000001e0: 9275 21be 2700 53be ce30 6abd c547 f53d
000001f0: de67 fbbe 32cf 14bf c1b4 35be 0db5 c4be
00000200: b24c fdbd f567 70bd 54ae 15bf f467 3fbd
00000210: 9626 aabe 2374 b1bd 110e ecbe d46b 23bf
00000220: ad29 6dbe 059a d6be 8a16 cdbe c0e6 edbe
00000230: 0dcc 27bf 6f3f 80bd 4641 c9bd 12f2 7fbc
00000240: 3ad8 c8be 0452 85be 794f dabd 6bb8 39bd
00000250: 7ff9 febe eaae 83bd 8411 c1bd 869e 2ebf
00000260: 866f bdbd 5a8d 6f38 2a1a 15bf 4860 41be
00000270: e7d1 08be 1ce5 09bd f1a7 7abd 8f39 12be
00000280: 264c 40bf f2ea f6be a4ba 21bf af6b 0dbf
00000290: 0516 14be 0456 06be 491d 0fbe 9424 03bf
000002a0: 6340 90bd e628 a5bc c7ef f3be 3ac5 9fbe
000002b0: 03b2 09be 6670 84be 8c39 b6be c1da 3fbe
000002c0: 7259 02bf d48d d63c e8c0 25be 40f5 11bf
000002d0: 6807 1b3e 870b 13bf 3e4c 23bf 783c 5cbd
000002e0: 688f f3be 39aa afbe e8b8 f5bd 4245 fabe
000002f0: 9ffb 0dbf 4b0a 85be 5277 0abf d82a 36bd
00000300: 54ba 02be f280 b8be 28e0 9bbd fc22 05be
00000310: 08d5 f9be 6aa1 0bbf da1e a63b 7f08 40be
00000320: 152d b83d 7c08 993c 52c9 2ebf a700 f6be
00000330: 5415 a9bc 80f2 83bc 3e72 c7bd 7ecc 01bf
00000340: 242a 8cbe 3ac9 4cbd f74d 19bd 02cd 16bf
00000350: a0cb 48be 7bf6 50be 97eb dabd b69c 403d
00000360: 6c80 4dbf f9c4 3ebd c9e8 5c3d 723e 67be
00000370: 7d97 3ebf 6699 76be 217f 5dbe 50dd c8be
00000380: 43c5 08bf 6ada 373e f186 d7be f019 78be
00000390: f4b5 6bbe 934d d5bd 5df1 bbbc 9abf 22be
000003a0: 2ae5 20bf 41ce 3abe 2908 8ebe bafe 71be
000003b0: 538c 3bbe 5254 f3be 205b 1abf 7598 47be
000003c0: d63d e7bd 4be6 0dbf 1f9c 12bf 4869 08be
000003d0: 6abc 05bf 2c49 02be 0217 e8bd ae1e 98be
000003e0: da3a 45be af8b 19be 4794 95bd e194 56be
000003f0: 1127 d2bd 7682 4bbe 3381 25bf f0f7 d3be
-0.17480609 -0.5152595 -0.10374315 -0.45189425 -0.18495588 -0.40972838 -0.040474307 0.0042879423
-0.07562434 -0.41201776 -0.08874967 -0.5036504 -0.053881064 -0.5907791 -0.18458422 0.009121955
-0.49026555 -0.34740534 -0.31911922 -0.11902816 -0.29211906 -0.3593385 -0.19923854 -0.7766459
-0.5561449 -0.40588537 -0.09016658 -0.039037563 -0.14046215 -0.49048606 -0.42291537 -0.07387184
-0.38479722 -0.20097025 -0.19635898 -0.14748499 -0.6924706 0.0056534344 -0.25745714 -0.1214553
-0.17152448 -0.61346185 -0.04966185 -0.5320952 -0.18709254 -0.12456945 -0.4896097 -0.070712216
-0.38704824 -0.46309713 -0.2069178 0.024666514 -0.19430625 -0.43066195 0.062259723 -0.5081183
-0.22285607 -0.09152847 -0.19064456 0.0016332557 -0.30365312 -0.2600982 -0.05525462 -0.045758814
-0.44097653 0.025566697 -0.36671463 -0.006255838 -0.047132306 -0.19955343 -0.3707639 -0.31651235
-0.12765852 -0.54050004 -0.120211884 -0.088365234 -0.34201235 -0.03598096 0.094019964 -0.25001913
-0.037758272 -0.12595762 -0.047188528 -0.16968715 -0.17467558 -0.403948 -0.6628863 -0.45903853
-0.51067996 0.107986055 6.994939e-05 -0.7557248 -0.028413294 -0.21002859 -0.0035787937 -0.4711514
-0.0030685696 -0.27861854 -0.049672514 -0.20580478 -0.33764574 -0.24893974 -0.6822654 -0.4161811
-0.6004825 -0.1241379 -0.42245612 -0.17531127 -0.13456522 -0.094866924 -0.6884985 -0.54933095
-0.26735532 -0.2478657 -0.3626125 -0.20011708 -0.24491598 -0.10494941 -0.65728605 -0.056557164
-0.15767506 -0.20605527 -0.05717545 0.119765796 -0.49102682 -0.58128655 -0.17744733 -0.3841938
-0.12368144 -0.05869289 -0.5846913 -0.046729997 -0.33232564 -0.086647294 -0.46104482 -0.6383641
-0.2316043 -0.41914383 -0.40056258 -0.4646511 -0.6554573 -0.06262099 -0.09826903 -0.015621679
-0.39227468 -0.26039135 -0.106596895 -0.04534189 -0.49799725 -0.064298466 -0.09427169 -0.6821064
-0.09249787 5.7113684e-05 -0.5824305 -0.18884385 -0.13361321 -0.03366576 -0.061195318 -0.1427977
-0.75116193 -0.48226124 -0.63175416 -0.5524244 -0.14461525 -0.1311875 -0.13976015 -0.5122769
-0.07043531 -0.020161103 -0.47643873 -0.3120516 -0.13446812 -0.25867003 -0.3559078 -0.18735792
-0.5091773 0.026190676 -0.16186869 -0.57014847 0.15139544 -0.57439464 -0.6378821 -0.053768605
-0.47570348 -0.34309557 -0.11998159 -0.48880965 -0.5546207 -0.25984415 -0.5408832 -0.044474453
-0.12766391 -0.36035877 -0.07611114 -0.13001627 -0.48795342 -0.54543173 0.0050695958 -0.18753241
0.08992974 0.018680803 -0.6827594 -0.48047373 -0.020640053 -0.016106844 -0.09738587 -0.50702655
-0.273759 -0.049996592 -0.03742787 -0.5890657 -0.19608927 -0.20406525 -0.106894664 0.04702445
-0.8027408 -0.046574567 0.05393294 -0.22582415 -0.744499 -0.24081954 -0.21630527 -0.39231348
-0.53426 0.17954412 -0.4209514 -0.24228644 -0.23018628 -0.10415187 -0.02294224 -0.15893403
-0.62849677 -0.18242742 -0.277406 -0.23632327 -0.18315248 -0.4752527 -0.60295296 -0.19491751
-0.11291091 -0.55429524 -0.5726947 -0.13321412 -0.5224062 -0.12723225 -0.113325134 -0.29710907
-0.19260731 -0.14994691 -0.07303672 -0.2095523 -0.102613576 -0.19873986 -0.6465027 -0.414001

action_model._discrete_distribution.branches.0.weight f4 [4, 512]
00000000: 08b7 3e3e c9e1 2bbe 82c4 6abd b054 823c
00000010: 3392 ca3c 4aa5 c1bd 8c84 573e 3921 b53d
00000020: f81d 003e 7755 85bd d613 4e3e f372 1d3e
00000030: c64d 3bbe 9452 85bd 0695 403d 2206 863e
00000040: 382f c4bd 239d f73d 430a 18be 5ce5 c43d
00000050: e317 aebd 0056 9d3e 5f4d c93c 8353 0b3c
00000060: 0b4f 633d e9c2 b83c fc40 be3c 2c2d 493e
00000070: d523 3bbd 5298 d7bc c870 b63c 541c 513c
00000080: 5546 983d a877 6ebd d531 10be b0e9 b8bd
00000090: a768 1f3e f885 ac3d 1e8b 9c3c 9bff 99bc
000000a0: a72a 38bd 27b5 a8bd 78fd 20be 3f12 11be
000000b0: 91d5 cc3d 6ba7 993a e19f a23a fc21 b33d
000000c0: 99bb bbbc 9f1f 0abd 1c5a 633d ad21 c0bd
000000d0: 0394 6fbd 5caa aa3d 00ee 533e 1883 ffbd
000000e0: c9bd 35bd 8683 6a3d 1e93 05be 3202 ed3d
000000f0: 2a4b 863d 8112 41be 6c4d 47bb c86d dfbd
00000100: 1855 953d 19c4 0d3e 73f1 7c3d 9aa9 433e
00000110: 3e06 2d3e a5bd d93d ade0 8fbc a2b1 8bbc
00000120: 31b0 2c3e b4e3 48be 64a8 8a3d 89a9 4c3d
00000130: 0c9b 783d c7b2 5c3e 0071 103e 1c30 653e
00000140: 40c1 48be d90b fe3d f112 d43d c6eb 513c
00000150: aa51 463e 65fa bcbd 2e2b 1cbc e045 59bb
00000160: 778c ecbb a515 153e 0e29 ae3c f16b ee3c
00000170: bcc8 65be 8050 063c 755a 51be c176 443d
00000180: fa7b f7bd c241 f03c 6631 863e cb18 bcbd
00000190: 0fe6 903d c209 74be c46e 3cbd a825 fcbd
000001a0: cad5 a33d 2e43 823d edf9 b23d a18d 033e
000001b0: eb1b f03d 29c8 683d e51d a93c 71cc b2bd
000001c0: d452 c7bd ad32 093e 4c6d c9bd 9d47 3d3e
000001d0: 9a2e 9b3e c341 0a3b 8f3f dbbd 2ba8 9cbd
000001e0: 519a babc b99f 2c3d f1d4 233e f3a6 ec3d
000001f0: b5e8 0ebe 0b11 b0bd 5df5 dd3d 884e 573e
00000200: 7884 fb3b 6caa 6dbd c31c 5e3c 34a3 a3bc
00000210: b775 99bd 5883 d23d 6288 d2bd 0817 c83d
00000220: b26f ed3b 3862 db3c 614a 37bd fc61 cbbd
00000230: 963e 0cbe cba9 40be 24f4 9ebc c77b 9fbc
00000240: 2286 123e dc58 dd3d f10c 683d 8e62 0dbe
00000250: 0268 c2bd ff00 593c 61c2 4a3e d780 a5bc
00000260: 7b02 383e 9533 173b 8900 ddbc 5ebb 16be
00000270: 55f0 ec3b 2df6 9d3d 947c 8dbc 6ff7 d93d
00000280: 3dea e8bd 997d 173e ec20 9c3c 52c7 26be
00000290: 445b 8cbd e1cd 48bc 6474 7bbc a04b be3d
000002a0: fc94 94bd 7884 e53d 783d 6cbe dd90 91bc
000002b0: 06eb 8fbe 3d75 453e 35a0 823d abce 4ebe
000002c0: c11a af3b cd88 523d d182 c73d 0c1b 223d
000002d0: 1887 c7bc c39a b3bd 7ee5 243d 15f6 b4bc
000002e0: f92e 563d 1dbe 843d 45cd 03be b366 c1be
000002f0: e379 2d3e c128 d43d 437f 523d c14c 113e
00000300: 123d 303e 229b 98bd a0fe f3bb 1ecf c8bd
00000310: 81df 79bd 9199 22bd 267c d93d bb98 233e
00000320: bd1a 953d 8e4d 653e da57 97bd e928 f73d
00000330: c533 863d e99e 38bd 6563 853c d288 49bd
00000340: 4ca3 db3d eae0 773e 6fc4 79bd 9d03 4d3d
00000350: bdab 243e be34 6e3d fbe4 75bd c9ae 0dbd
00000360: d317 c1bc 9829 0a3e f67d 5a3e 2ed0 593d
00000370: a4bb 7bbd 5a0f 8c3d 40e1 0a3e 7509 f6bd
00000380: d904 52bd 8746 083e 183e 2a3e 9088 773e
00000390: ae38 b23d fe18 0d3e 6efe 0c3e 9013 aa3e
000003a0: d7fc 743d c859 1a3e 18b6 edbd af32 223e
000003b0: cdf3 1a3d 844c 85bc 1417 5cbc fe21 373b
000003c0: 8ef4 8c3b a815 4b3d f61b d33c a7b7 a2bd
000003d0: bbb3 173c 5b0a ce3d 0934 de3d 56b7 123e
000003e0: f3d5 3c3d 2678 0cbd 9dbd b4bd f946 3f3e
000003f0: e176 09bc 66e1 cbbc f764 0cbe eea2 59be
0.18624508 -0.16785349 -0.05731631 0.015909523 0.024727916 -0.094553545 0.21046656 0.08844227
0.12511432 -0.06510442 0.20124754 0.15375881 -0.18291387 -0.06509891 0.04701712 0.26176554
-0.09579319 0.12090518 -0.14847665 0.09614059 -0.0850065 0.30729675 0.024573026 0.008503797
0.055495303 0.022553878 0.023224346 0.19646138 -0.04568847 -0.02631775 0.022270575 0.012763102
0.0743529 -0.05821958 -0.1408151 -0.09028947 0.15567265 0.0842399 0.019109305 -0.01879864
-0.04496255 -0.08237677 -0.1572169 -0.14167117 0.10001672 0.0011722868 0.0012407267 0.087467164
-0.022916602 -0.033721562 0.055505857 -0.09381423 -0.058490764 0.08333275 0.20696259 -0.12476176
-0.044370446 0.057254337 -0.13044402 0.11572684 0.06557305 -0.18854715 -0.0030411137 -0.10909611
0.07291621 0.13844337 0.0617537 0.19107667 0.16896912 0.10631875 -0.017563188 -0.017052475
0.16864087 -0.19618112 0.06770399 0.04996637 0.06069474 0.21552573 0.14105606 0.22381634
-0.19604969 0.124046035 0.10355175 0.01281256 0.1936709 -0.092274465 -0.009531779 -0.003315322
-0.007218893 0.14559038 0.02125981 0.029104205 -0.22439855 0.008197904 -0.20444663 0.047964815
-0.120841935 0.02932823 0.26209563 -0.091844164 0.0707513 -0.23831847 -0.04600407 -0.1231187
0.079997614 0.0636047 0.08739076 0.12846996 0.11724075 0.056831513 0.020644138 -0.087304
-0.09732595 0.13398238 -0.098353 0.1848435 0.30308992 0.0021096326 -0.10705482 -0.07649263
-0.022778662 0.04214451 0.159992 0.115552805 -0.13955958 -0.08597001 0.10837815 0.21026051
0.0076757036 -0.058023855 0.013556662 -0.019975282 -0.074931554 0.10278958 -0.10279919 0.09770018
0.007245981 0.026780233 -0.044748668 -0.099307984 -0.1369575 -0.18814771 -0.019403525 -0.019468201
0.1430898 0.10807964 0.056652967 -0.13807127 -0.09492494 0.013244866 0.19800712 -0.020203037
0.17969696 0.0023071517 -0.026977794 -0.14719912 0.0072307982 0.0771297 -0.017271318 0.10642897
-0.113728024 0.14794005 0.019058667 -0.16286972 -0.06853345 -0.012256117 -0.015347574 0.09291768
-0.07254979 0.11206907 -0.23070323 -0.017769272 -0.28108996 0.19283004 0.06378213 -0.20196025
0.0053437655 0.051399995 0.09741748 0.039576575 -0.02435641 -0.08769753 0.040257923 -0.022089997
0.05229089 0.06481574 -0.12871273 -0.37773666 0.16941027 0.10359336 0.051390897 0.14189436
0.17210796 -0.07451464 -0.007446125 -0.098051295 -0.061004166 -0.039697234 0.106193826 0.15976231
0.072804905 0.22392866 -0.07389803 0.1206835 0.06552843 -0.045073424 0.016282747 -0.049202748
0.10724506 0.24206892 -0.06097835 0.050052274 0.16081138 0.058155768 -0.060032826 -0.034590516
-0.02357093 0.1349243 0.21337113 0.05317705 -0.061458245 0.068388656 0.13562489 -0.120135225
-0.051274154 0.13308154 0.1662525 0.24173188 0.08702217 0.13779065 0.13768932 0.3321805
0.05981144 0.15073311 -0.11606997 0.15839647 0.037830163 -0.016271837 -0.013433237 0.0027943845
0.004301614 0.0495812 0.025770169 -0.07945185 0.00925916 0.10060569 0.10849769 0.1432775
0.046102475 -0.03429427 -0.08825228 0.18679418 -0.008390159 -0.024887752 -0.1371039 -0.21253559

action_model._discrete_distribution.branches.0.bias f4 [4]
00000000: f503 123c ffa0 163c 7c89 1bbe 6819 4a3e
0.008912076 0.009193658 -0.15189165 0.19736254

action_model._discrete_distribution.branches.1.weight f4 [5, 512]
00000000: 9186 3a3e dbab a7bd 322a 49bd 2e00 e03d
00000010: f763 5bbd 3684 1ebd 1f60 df3c 942f 503e
00000020: 7f31 023d 772c 99bc 977e 4cbd 9539 e83d
00000030: 5fe9 f0bd abf8 96bd 0b3e 363e 9500 ef3d
00000040: 2837 90be 1079 33bd 3a73 073d a3fa 3a3e
00000050: fb2b 0bbd 4fb8 4cbc 6e85 7e3d a0de 14bd
00000060: 5cc9 c53d ff6b 723e 1486 de3d 02df 053e
00000070: 0e00 553e 5d76 04be e7a5 37bd 5d39 9dbc
00000080: 4f68 a03d be42 14bd f003 8f3d 1d63 43bd
00000090: 44a0 d43c b929 603d 3ca6 e33d bc62 6dbb
000000a0: e63e d2bd 9092 c6bc 7f4d 90bd bb76 0b3d
000000b0: d5a1 523a 7b43 fbbd f66a 863d 35e0 3d3d
000000c0: b448 1dbe d616 60be 3a24 f13d 82e7 00bd
000000d0: c7de d9bd 8b55 19be 75d5 ac3d 528b c4bc
000000e0: 7cc8 093e f593 eebd d6b8 7f3d c379 213c
000000f0: a47d 093e 9fab 06be fdcb 97be 374e b93d
00000100: 94ca 083d ee54 9b3d 19c4 1f3e 99a3 3abe
00000110: 2341 69bd f417 133d ded5 31be ebd9 ccbc
00000120: fbc1 243e e620 b9bd 9266 29bd 7738 c9bd
00000130: 41c5 be3d 99fe 193e 128b 4a3e 5c06 3ebd
00000140: 59ad 233e 19f8 33be a0a7 a2bd 3596 3e3d
00000150: ed1f 353e 1bbc aebd 49a8 e6bc a55f b83d
00000160: b9a3 b9bd 7200 eb3d 60f3 8a3d e49a 3d3c
00000170: 9cda 143e f4f6 d1bc 7def 403d 2473 8ebd
00000180: 19a3 563d 55df 77bc ec16 eebc 551b 2f3d
00000190: cff5 91be a01d bdbd ede6 2b3d e366 e83b
000001a0: 3704 14bd 618b 8d3c ba92 01bd ce57 593e
000001b0: 0a92 533e dbc1 233e ad7c 1b3d 7cbf 3ebc
000001c0: 6ee0 593e 804d a13d bc2a 36bd 6a93 1b3e
000001d0: 603d 9dbe 3e46 7b3c 22d9 05bd 3a90 6ebc
000001e0: 8cc9 29be 2607 12be 11f7 683c afac 0c3e
000001f0: e62c 62bd b4d1 ba3c 8066 e63a 9369 983d
00000200: 2b97 dcbd 3fd1 22be ab04 0c3e 6200 e7bd
00000210: aeb5 dc3d b327 e43d a473 93be 9616 863c
00000220: 72ca 533e f86d 20bf 2936 823d e6d6 853b
00000230: dd93 ccbd 6897 37bd be2a c0bb 4e35 77bd
00000240: 0b02 5b3d 2620 f3bc aa09 183c 448b 4b3e
00000250: e213 4bbd dc4f 0cbe e1ba 283c b07d 143c
00000260: 9110 a8bc af2b 14be 4e79 c6bc fd3c 87bd
00000270: 7e12 e83c b1ee e63c b319 313e 2cfa 023e
00000280: 904e c33c 25dc 20bd b29d 4bbd 5367 14bd
00000290: 6c64 3ebd e2a0 da3c e755 aabd 4082 d33d
000002a0: 9dbf f8bd 03b6 fe3c f4c1 d5bd 01f2 023e
000002b0: 155e 1abe 0dd1 bcbd ffb9 063e b437 233d
000002c0: 5d59 373e f6de 60be 47e2 493d 56d6 07be
000002d0: f52b bcbd 668b 283d ef17 d43d 4759 8fbd
000002e0: 8aa0 d73d 4847 b63d a4f1 983d c82b e93c
000002f0: e8b9 a13d ba9f cdbd a99f f63c ef6d 8e3d
00000300: 1aed ebbd a49a 16bd 7fa3 823d e6db 9b3c
00000310: 2b7e e43a a9c8 48bd 5129 b2bd c146 623d
00000320: 14e0 a9bd f1a8 20be 6986 83bd df90 4b3d
00000330: bdaf e33d cacc 453e 00e4 e3bc 6bc4 a8bc
00000340: 6147 773d 4320 8a3e ca41 9ebd ce92 da3d
00000350: a22d b63b 5d87 17bc de75 acbd ed44 b7bd
00000360: 8add 9fbd e7f6 5d3d 54d4 603d cf7e aa3d
00000370: b9c8 5c3c 06c2 2b3c 0357 cfbd 54d8 903d
00000380: 303a 963d 169b 943d 04e2 c4bd bb4a cf3d
00000390: 4c1e 32be d695 383d 8511 5f3e d080 8d3e
000003a0: 8f31 513c cc86 143d c893 97be ed7a 373d
000003b0: 99eb 543c 4881 9abd 2dbc cfbd b3ed 6a3e
000003c0: 7f69 a9bd dc49 febb 3d60 5d3d d1c5 d7be
000003d0: 916a 23be 5142 3b3e a8f0 1a3e ca22 52be
000003e0: 6b2d 873e dba7 003d 5d43 f4bd fdb0 373e
000003f0: 9d15 3f3d d8c2 f43d 66b1 bfbc c668 0cbc
0.18215396 -0.08187076 -0.049112506 0.10937534 -0.05356213 -0.038700305 0.027267514 0.2033065
0.031785484 -0.01869796 -0.049925413 0.11339108 -0.11763262 -0.073716484 0.17797105 0.11670033
-0.2816708 -0.043816626 0.033068873 0.18259673 -0.03397749 -0.0124951145 0.062138967 -0.036345124
0.09657547 0.2367401 0.10865417 0.13073352 0.20800802 -0.12935777 -0.04483595 -0.019192392
0.07832395 -0.036196463 0.06983173 -0.047701944 0.025955327 0.05472729 0.11115691 -0.003622218
-0.10265903 -0.024239808 -0.07046031 0.034048777 0.0008034979 -0.1226873 0.0656337 0.0463564
-0.15359765 -0.21883711 0.11774488 -0.031470783 -0.106381945 -0.14974038 0.08439151 -0.023992214
0.13455385 -0.11649314 0.062432133 0.00985569 0.13426834 -0.13151406 -0.29647818 0.090481214
0.03339632 0.075845584 0.15602149 -0.1822647 -0.056946885 0.035911515 -0.1736674 -0.025006255
0.16089623 -0.09039478 -0.041357584 -0.09825223 0.09314967 0.15038528 0.19779614 -0.046392784
0.15984096 -0.1757511 -0.07942128 0.046529967 0.1768796 -0.08531972 -0.028156416 0.09002618
-0.09064431 0.11474694 0.06784701 0.011572573 0.14536518 -0.025630452 0.047103394 -0.06955555
0.052401636 -0.01512893 -0.029063664 0.042750675 -0.2850785 -0.09234166 0.041968275 0.007092343
-0.036136832 0.017278375 -0.03163407 0.21224901 0.20661178 0.15991919 0.037960697 -0.011642333
0.2127702 0.0787611 -0.04447435 0.15192953 -0.30710888 0.015336571 -0.032677777 -0.0145607535
-0.1658079 -0.1426054 0.0142190615 0.13737749 -0.0552186 0.022805072 0.0017578155 0.07442012
-0.107710205 -0.15900134 0.13673656 -0.1127937 0.1077684 0.111403845 -0.28799164 0.016368192
0.20682696 -0.626678 0.063579865 0.004084456 -0.0998914 -0.044822127 -0.0058644703 -0.06035357
0.053468745 -0.029678416 0.009279648 0.19877344 -0.04957951 -0.13702339 0.010298462 0.009063169
-0.020515712 -0.14469789 -0.024227764 -0.066034295 0.02832913 0.028189989 0.1729496 0.12790745
0.023841172 -0.039272446 -0.049710937 -0.03623135 -0.04648249 0.026688043 -0.08317166 0.103275776
-0.12145922 0.03109265 -0.10437384 0.1278763 -0.15074952 -0.09219561 0.1315689 0.039848045
0.17905183 -0.21960053 0.04928806 -0.13265356 -0.09188072 0.041148566 0.103561275 -0.0699945
0.10528667 0.089003146 0.07467964 0.02846326 0.07896787 -0.10040231 0.030105429 0.06954562
-0.11519833 -0.03676857 0.06378841 0.019025754 0.001743262 -0.04901949 -0.08699287 0.055243257
-0.08294693 -0.15689446 -0.06422121 0.049698707 0.11117504 0.19316402 -0.02781868 -0.020601472
0.060370807 0.2697774 -0.07727392 0.10672532 0.005559639 -0.009248582 -0.08420919 -0.089486934
-0.07805927 0.054190543 0.054889992 0.08324968 0.01347559 0.0104832705 -0.10124018 0.07072511
0.07335317 0.07256143 -0.096134216 0.101216756 -0.1739437 0.04506477 0.21784027 0.2763734
0.012768163 0.036261365 -0.29604936 0.044794966 0.012995624 -0.0754419 -0.101433136 0.22942238
-0.08272075 -0.0077602696 0.054046858 -0.4214311 -0.1595862 0.18287016 0.15130866 -0.20521083
0.2640184 0.03141008 -0.11926911 0.1793861 0.04665147 0.11951226 -0.02340002 -0.008569902

action_model._discrete_distribution.branches.1.bias f4 [5]
00000000: d0a7 1d3d db35 bdbc 3625 b73d 8e46 e3bc
00000010: 1883 693d
0.038490117 -0.02309697 0.08942644 -0.027743604 0.057009786
