MLagents_test1/results/CarAgent_reinforcement_6/CarAgent/CarAgent-3999736.pt (torch, 580945 bytes, 28 tensors)

discrete_act_size_vector f4 [1, 2]
00000000: 0000 8040 0000 a040
4.0 5.0

network_body._body_endoder.seq_layers.0.weight f4 [512, 40]
00000000: 2b48 b83d d885 89be 4c6d da3d bf20 c73d
00000010: 63dc 7bbc 86af 893d f107 953d b4ab dd3c
00000020: 20b7 4bbe 7bf7 66bb 439c 92be 35a4 943e
00000030: d6ed fe3d fbf2 5bbe 1f45 013c f59b 1b3c
00000040: f11c fabd 7d12 2fbe e948 aa3e f474 8cbc
00000050: dfc5 9ebd 12f6 37be 7a56 1dbe a32d bd3d
00000060: 6f27 893d ace3 003c b267 d33d 4a16 6c3d
00000070: 2a97 15be 369f 86be c08c 8a3c dc77 923e
00000080: 2c39 17bd a673 16be cb9c 2ebe 61d9 153e
00000090: 185c c83d 2898 96bd 1678 12bd 87b2 733e
000000a0: 6707 5fbe 67ee 08bd c995 10be abae 01bf
000000b0: 2cfe 6dbe 7478 e4bd 6749 c53e 9ef4 b3bd
000000c0: 34b4 b2be 418a 0abf 95fe d1bd 1889 2bbe
000000d0: 0519 233d 96e1 47be 682e 23bf 4db1 2abe
000000e0: b8b8 a1be 800e 09be 622d 57be 66c4 36bf
000000f0: e83e 513e 1d2e 35bf 6021 0dbe bcb8 62bd
00000100: 7d63 dcbd 77a9 833e 96ff 4dbd d330 71be
00000110: d53e 7abe 8d3e 09bf 5f50 86bd 033c ebbe
00000120: bc8c 62be a053 af3e b7cc a4be a726 55be
00000130: 84d9 8bbc 7da9 1d3e c398 873d 9267 cdbe
00000140: 6bb8 9abd 78f0 92be a834 85be 3c4d 35bd
00000150: 4fa3 383d c869 883d d8b5 e23c b03c 07be
00000160: 901d d13d 70a8 543e 2f02 94bd 2459 d13d
00000170: 4cb5 d33c 594e bcbd 9e27 b6be bb6c 743d
00000180: 6e04 8fbe 703d e4bd a814 013e c4f1 46be
00000190: 50ad 7bbe 1a29 a2bd 14f8 14bd 208e 10be
000001a0: 70b0 ccbe 8c64 d43c b53d d7be 3c86 97bd
000001b0: 583a 853e 9113 26be df80 92bd 11b5 72be
000001c0: b078 90be 2461 12be 5cf4 87be 1034 543e
000001d0: fe35 f2bd ce47 6cbe 3465 743c a6ee 39be
000001e0: ca3d a73e c9c9 b8be 8769 4ebe 3f11 1ebb
000001f0: ae6b e9be 98c0 e1bd ecad f0bd b6cd ecbd
00000200: 1574 a73d 3d71 cabe e3ce 5bbb f401 2cbf
00000210: 4360 74bd 36c7 3b3e 16bd a5bd 09ba 68bd
00000220: 4506 6ebe fd3f 42be 04b6 2fbc b304 7cbe
00000230: 9737 99bd 9232 1cbe 4fe0 7a3e fdb6 7abe
00000240: e619 1abe c0be 7d3d 28f4 92bd 93f2 79be
00000250: d790 2bbe 3d2b fdbe 0daf 0fbd f7b5 7dbe
00000260: e3da fdbd d763 2cbf 3436 8bbe a595 2cbd
00000270: 87c6 61bd 47e0 ce3e a4ee eebc 2ce1 26be
00000280: 7503 edbd 14d9 993e 2a19 2f3e e0e1 4fbe
00000290: 4cf9 59bc 6792 df3d 2c9d 19bd 1256 cb3d
000002a0: e621 bebc fa47 d83c a6eb 623e a719 6abe
000002b0: 81e1 9c3e 4bae 5b3e 73ca 40be 36bf 223d
000002c0: e24c 923e c542 8dbe ec95 4f3c d1ce 4cbe
000002d0: eb7a 89bd 41a1 35be d367 0ebb af06 133e
000002e0: a3bd b03c c199 28be f4a6 ebbd fe38 e33b
000002f0: 1e9f 943e 06b0 a9be 0920 ba3d 6985 82be
00000300: 4afb 62be d5c9 883e 34d3 ae3d c9df dabe
00000310: fabe 7b3b 615a 92be 3c8e 3fbd 2b83 8fbe
00000320: 161b a9be 32f4 34be 212f a6be 2d93 29be
00000330: 98fd f3be 282b 8c3c db98 e5be 7a5a 26be
00000340: 051b c0be bcf6 a6be 1d25 5abd c001 76bc
00000350: f61f 53bc 0b92 a4be ada0 bcbe c42f 243d
00000360: 4170 fcbe 514d e53d bf5f cfbe 705c d9be
00000370: 110d acbd d11e 1b3c c2e9 b8bd 0a60 a2be
00000380: 008f 9abe 2867 213e ff14 8abe 76be e43d
00000390: da40 9abe 8477 1bbf ae1c 533e 28ad 19bf
000003a0: 5ab4 98be 52cf c53d 43fe 6dbe 224a f63e
000003b0: 138e 81bd bc3f 393e 19c6 1fbd 7c4a 8b3e
000003c0: 21bd a83e 1845 8c3d 48b9 2b3e 3ee7 5abe
000003d0: 347a 0abe 47a9 81bd e23f 93be 9eb9 973e
000003e0: 6f45 d93e aebf 74be 8ca0 5dbe 53f3 b83e
000003f0: c12d 943d 98b4 03bf 3562 9cbe ba23 433e
0.0899814 -0.26859927 0.10665378 0.09723043 -0.0153723685 0.067229316 0.07276905 0.027059413
-0.19894075 -0.0035242725 -0.28634843 0.2903153 0.12447707 -0.21479408 0.007890015 0.009497632
-0.122125514 -0.17096896 0.3325875 -0.017145611 -0.07752585 -0.17964962 -0.1536502 0.0923722
0.066969745 0.007866781 0.10322513 0.057638444 -0.14608446 -0.26293343 0.016912818 0.2860707
-0.036919758 -0.14692554 -0.17052 0.14633705 0.097831905 -0.0735324 -0.035759054 0.23798572
-0.21780168 -0.033430483 -0.14119639 -0.5065715 -0.2324149 -0.11155787 0.38532564 -0.087868914
-0.3490311 -0.5411721 -0.10253636 -0.16751516 0.039818782 -0.19519648 -0.63742685 -0.16669197
-0.31586242 -0.13384438 -0.21013406 -0.7139343 0.20434153 -0.7077349 -0.13782263 -0.055351958
-0.107611634 0.2571523 -0.050292574 -0.23553781 -0.24438031 -0.5361107 -0.06558298 -0.45944223
-0.22123998 0.34243488 -0.32187435 -0.20815526 -0.017071493 0.15396686 0.06620934 -0.4011808
-0.07554706 -0.28699088 -0.26016736 -0.04426311 0.04507762 0.06660801 0.0276746 -0.13206744
0.10210717 0.20767379 -0.07226979 0.1022208 0.025843285 -0.09194631 -0.355771 0.059674006
-0.27933067 -0.11144531 0.12605536 -0.19428164 -0.24577832 -0.07917996 -0.0363694 -0.14116716
-0.3997836 0.02592685 -0.42039266 -0.0739865 0.26021075 -0.16218401 -0.071534865 -0.23701884
-0.28217077 -0.14294869 -0.2655362 0.20722985 -0.118267044 -0.23074266 0.014916707 -0.18157443
0.3266433 -0.3609145 -0.20157443 -0.0024119166 -0.45589966 -0.110230625 -0.11751923 -0.11562674
0.08176438 -0.3953952 -0.0033540062 -0.6719048 -0.059662115 0.18337712 -0.08092706 -0.056818042
-0.23244579 -0.18969722 -0.010724548 -0.24611168 -0.07481306 -0.15253666 0.2449963 -0.24483867
-0.15048942 0.06194949 -0.07175475 -0.24408941 -0.16754471 -0.4944705 -0.03507905 -0.24776445
-0.12395265 -0.67339844 -0.2718979 -0.0421349 -0.05512097 0.40405485 -0.029166527 -0.16296834
-0.11572925 0.3004843 0.17099443 -0.20301008 -0.013304066 0.10916596 -0.037503406 0.09928526
-0.023209523 0.026401509 0.22160205 -0.22861348 0.30640796 0.21453206 -0.18827228 0.039733134
0.28574282 -0.27590004 0.0126700215 -0.20000769 -0.06712898 -0.17737295 -0.0021729365 0.14358018
0.0215748 -0.16464902 -0.11506453 0.006934284 0.29027647 -0.33142108 0.090881415 -0.2549241
-0.22166172 0.26716486 0.085363775 -0.4274886 0.0038413391 -0.2858458 -0.046766505 -0.2802976
-0.33028477 -0.17671278 -0.32457832 -0.1656005 -0.47654414 0.017110422 -0.44843182 -0.16245452
-0.37520614 -0.32610118 -0.05325805 -0.015015066 -0.012886038 -0.32142672 -0.36841336 0.040084615
-0.49304393 0.111963876 -0.40502736 -0.42453337 -0.0840093 0.009467796 -0.09028961 -0.31713897
-0.30187225 0.15762007 -0.26969144 0.1116914 -0.30127603 -0.6072924 0.20616409 -0.6002984
-0.29825097 0.09658684 -0.23241524 0.48103434 -0.06325927 0.18090719 -0.03900728 0.27205265
0.32956794 0.06849116 0.16769898 -0.21377274 -0.1352318 -0.06331115 -0.28759676 0.29633802
0.42435786 -0.23901245 -0.21643275 0.36123142 0.07235289 -0.5144744 -0.30543676 0.19056597

network_body._body_endoder.seq_layers.0.bias f4 [512]
00000000: 2129 90bd 5d45 8fbe c334 58be 8ba4 67be
00000010: 6bfa 193d 7c58 93be e80e 76bc 2205 58bd
00000020: 8264 67bd 35f0 a2be afc8 b43c 9152 a6be
00000030: f3c2 a0bd c835 bdbe a2c8 89bc 13da 01bd
00000040: 6836 2bbe 7ab2 723c fcec 08be f787 18be
00000050: f23f 30be b768 81be 14c6 cfbd 099d 9abe
00000060: 3585 aabe 6a66 03be 4722 08be a635 d9bc
00000070: afba 9bbd 64f8 83be 7fc1 07be 7605 febd
00000080: 7a55 27be 92c4 e6bd 8300 12be f6f3 1dbe
00000090: b453 84be f007 39bd a60a 38be 9cca 2fbe
000000a0: 662a 02be ac3b 84be aaca 6cbd 9129 6fbe
000000b0: 8401 8fbd 7633 12be 7454 b0be bf7b d9bd
000000c0: 58d8 3abe 0a24 69be 563a 1dbe 6c2c 95bd
000000d0: dfe6 e7bd 07d5 9cbe 942b 4f3d 0660 1dbe
000000e0: 054d 1fbe 6c6c e2bd 9377 34be 8d29 99bd
000000f0: e90a 27be c95b 08be ead1 f9bd c6d7 a6bd
00000100: 66a0 e4bc 188e 8d3d 2ed7 4abc a6d4 1a3c
00000110: e310 c2bd f029 1dbe c15d 8ebe 8bb1 77be
00000120: 67fb 893c 413d 99be 80c8 2abe da45 0dbe
00000130: 5034 ddbc d36f 3cbd 6ee1 103d e6af 24be
00000140: ad57 b2bd e922 cfbd cc2c 28be 2c69 f8bd
00000150: 99ab 0abe 910f 89be 234a bebe 5cc2 3bbe
00000160: e30e 83be e70f ba3d 2b27 1abd 2d6a 96be
00000170: b834 dabd a5eb 06be caca 6abd 53bf 22be
00000180: fd88 cabd 9a7c 7fbe 67ae 6fbc 146d 8ebd
00000190: 2818 3abe 801c acbe d47a a5be 42be c5bd
000001a0: 38b4 abbe 02b8 ebbd 036a 94be c9d1 d8bd
000001b0: c0c9 3cbd 4485 edbc fa9d d3be 0754 a1be
000001c0: 5cef 33be 1d79 1dbe b618 2fbe 0e70 33be
000001d0: 75bc 3dbe 3a1d 83bc ca10 e6be 904d a0bd
000001e0: a3cb 38be e37b 5ebe dc8d 94bd f3f5 1d3d
000001f0: 4b2f 5fbe 07c4 f7bd 4b59 d1bd d763 62be
00000200: f359 28be 123c 9bbd d6e6 ccbe ce88 f6bd
00000210: 287f 1cbd e113 76bd 69c1 a3be 614a 0ebe
00000220: 2c78 03be fceb 86be 8780 24be 492c 74be
00000230: 151b b4be bd8b 60bd 8b85 0dbd 329f bebb
00000240: 1d42 43be bcc2 31be 38a4 bfbd 41b5 ddbd
00000250: 821a 90be 2e37 e4bd 56c7 7dbd 7f97 a5be
00000260: a798 c7bd 0275 413d d229 82be 23b5 b2bd
00000270: ba33 2bbc 4f71 6bbd 11f2 39bc c87a fabd
00000280: c47d 80be 9978 64be 7a7d dcbd 4740 75be
00000290: ab55 46be 6a29 ffbd d5de 1dbe 7c14 20be
000002a0: 0acc 3abd db49 a13c c4c6 acbe 7dca febd
000002b0: dc5f 14be f549 17be 01f5 d2bd 22fe 5dbe
000002c0: 455a 49be 6f64 22be d82b 77bd 75bd a8be
000002d0: fb35 c63c bc78 88be b956 cbbe 1ea8 61be
000002e0: b04c 53be 6c3b fcbd 7bd9 99bd c91b 96be
000002f0: 6e80 34be d6bf a6be 67fc 86be 694d 813c
00000300: ff66 fbbd 3e8f 9cbd 03b6 09be 1775 46be
00000310: 3e5e adbe c713 41be dce2 e83b b178 cbbd
00000320: c70f 523d 939c 3bba b2c1 c4be 2f85 b5be
00000330: b6f2 75bd be98 833d afaa b8bd cca0 b2be
00000340: 4ee9 4dbe a371 75bd 6e49 9abd 1611 83be
00000350: 654c 9ebd 5b07 18be b288 f7bd b00f 6bbd
00000360: a766 9dbe c781 c8bd 0b17 743c c326 59be
00000370: 20f7 67be 2c1b 16be d327 4ebe 4d90 95be
00000380: 9967 8cbe 45b4 4b3c 84e2 44be 164a 39be
00000390: c7b8 8fbe b9e1 14bd 27d1 acbc c399 0ebe
000003a0: 218a c1bd 948d f9bd 20e4 3bbe 6028 cbbd
000003b0: 1fc4 ddbd dc68 3fbe 6b5f 98be 4d19 a9bd
000003c0: b4d8 34be de96 9ebe a41b aebe 756a 13be
000003d0: c27f 90be 1891 f2bd 348c dfbd 0415 61be
000003e0: ad45 cabd 9c45 7fbd 08d7 09be 3bd1 cabd
000003f0: 7852 1cbd 311a 3cbe f7f8 67be e19d 55be
-0.07039095 -0.27982607 -0.21113877 -0.22621362 0.037592333 -0.28778446 -0.015018202 -0.05273927
-0.056492336 -0.31823888 0.02206835 -0.32484868 -0.078496836 -0.36955094 -0.016819302 -0.031702112
-0.16719973 0.01481306 -0.13371652 -0.14895616 -0.17211893 -0.25275204 -0.10145202 -0.30197933
-0.33304754 -0.12832037 -0.13294326 -0.02651484 -0.076039664 -0.25775445 -0.13257407 -0.12403385
-0.163412 -0.112679616 -0.14258008 -0.15425095 -0.2584511 -0.045173585 -0.17972812 -0.17167133
-0.12711486 -0.25826776 -0.057810463 -0.233557 -0.06982711 -0.14277443 -0.34439433 -0.10619306
-0.18246591 -0.22767654 -0.15354285 -0.072838634 -0.11323332 -0.30631277 0.05057867 -0.15368661
-0.15556724 -0.11055836 -0.17623739 -0.07478628 -0.16312756 -0.13316263 -0.12198241 -0.08146624
-0.027908515 0.06911868 -0.012380404 0.009450113 -0.09475877 -0.15348029 -0.27805904 -0.24188821
0.01684351 -0.29929546 -0.16678047 -0.13796178 -0.027002484 -0.04600508 0.035371237 -0.16082725
-0.08708129 -0.101140805 -0.16423339 -0.12129435 -0.13542022 -0.2676969 -0.37165937 -0.18335861
-0.25597295 0.090850644 -0.03763501 -0.2937788 -0.106545866 -0.13175829 -0.0573223 -0.15893297
-0.0988941 -0.24949875 -0.014628983 -0.06954399 -0.18173277 -0.33615494 -0.32320273 -0.096554294
-0.33535933 -0.11509706 -0.2898713 -0.10586888 -0.04609084 -0.02899421 -0.41331464 -0.3150942
-0.17571777 -0.15378232 -0.1709927 -0.17523214 -0.18528922 -0.016005147 -0.44934684 -0.07827294
-0.18046431 -0.21726947 -0.0725362 0.038564634 -0.21795385 -0.12097936 -0.102221094 -0.22108398
-0.16440563 -0.07579817 -0.40019864 -0.12037812 -0.038207203 -0.06007755 -0.31983498 -0.13895561
-0.1283881 -0.26351917 -0.16064654 -0.23845018 -0.35176912 -0.054820765 -0.034551185 -0.0058173174
-0.19068189 -0.17359442 -0.09357494 -0.10825587 -0.28145224 -0.11143337 -0.06195768 -0.32342145
-0.09745913 0.047230728 -0.2542253 -0.08725955 -0.010449344 -0.057481106 -0.011349217 -0.1223045
-0.25095952 -0.2231163 -0.1076612 -0.23950301 -0.19368617 -0.12459071 -0.15417035 -0.15632814
-0.045604743 0.019688537 -0.33745396 -0.12440965 -0.14489692 -0.14774306 -0.10300637 -0.21678975
-0.19663341 -0.15858625 -0.060344547 -0.32957044 0.024195662 -0.26654613 -0.39714602 -0.22036788
-0.20634723 -0.12316021 -0.07512184 -0.29318073 -0.17627117 -0.32568234 -0.26364443 0.015783982
-0.12275504 -0.07644509 -0.13448338 -0.19380604 -0.33860964 -0.188552 0.007107122 -0.099351294
0.051284578 -0.0007156815 -0.38429028 -0.35453174 -0.06004592 0.06425618 -0.0901693 -0.34888303
-0.2010853 -0.059922826 -0.07533537 -0.25598973 -0.07729415 -0.14846556 -0.120866194 -0.057388008
-0.3074238 -0.09790378 0.014898072 -0.21206193 -0.22652864 -0.14658803 -0.20132379 -0.29211655
-0.2742279 0.012433116 -0.19227034 -0.18094668 -0.2807066 -0.03634808 -0.021095825 -0.13925843
-0.09450174 -0.12185207 -0.18348742 -0.0991981 -0.10828423 -0.18692344 -0.29760298 -0.08256779
-0.1766079 -0.30974478 -0.34005463 -0.14396079 -0.2822247 -0.11844081 -0.109154135 -0.21980673
-0.09876571 -0.062322244 -0.13460934 -0.09903189 -0.038164586 -0.18369366 -0.22653566 -0.20861007

action_model._discrete_distribution.branches.0.weight f4 [4, 512]
00000000: fe9b cdbc 88f8 6bbd 5629 8c3b 31f6 1dbd
00000010: ba43 833d 8f43 83bc 74c4 0f3d 841f a33a
00000020: 327a 723c 030f 2dbd e8c4 313e faac b93c
00000030: f78f bcbd 17a6 21bd 963d 1c3d 297b 7c3d
00000040: 5835 c2bd 5474 3d3d c35f 06bd b436 d03c
00000050: d2a0 9dbc cbef fd3d 220e f3bc 1390 b7bc
00000060: e2cb 473c 99c3 e3bb 82b6 4fbc 21d2 42bd
00000070: 03ab 3b3d 6f11 18bd e551 2a3d 578d f9b9
00000080: 7c0c 5e3d 438c 07bc 8541 4ebd f531 433c
00000090: 3186 01bc 05c7 af3c 3ee4 b43c 8ff6 333d
000000a0: e8a2 98bc d177 78bc 0c37 81bd cc11 b2bd
000000b0: f124 323d 235a 8c3b c995 b2bc a821 543d
000000c0: 9f33 f7bd 850c 19be c41d 4b3d 7cd0 883d
000000d0: b93d bbbc 5fa2 95bb 5c09 24bd 6d38 ccbd
000000e0: a7b5 1d3c b13f 503d 6f2e e4bc f794 c5bc
000000f0: b013 053d f1d5 13bb cf7a ef3b 02a6 4e3c
00000100: 24d6 69bb 8daa 543d da13 d53c ce40 073d
00000110: 08a1 973d e05a 123d 1c1c 073c 2575 56bd
00000120: 9fc7 b33c c4ca 1cbd 9985 853d 1003 d33c
00000130: 3465 d7bb 8fb5 813d 379d 6e3d 388c 6f3d
00000140: 53d4 88bc 34d2 07bb 5b12 1d3d e5af 803c
00000150: 9afd b7bc 31c8 a8bc 4701 2abc bc81 b4bc
00000160: 88b6 f83c e76b 753d 94d0 193d 2667 e33a
00000170: 4f45 b13c b44d 283d 298d a6bd b912 80bd
00000180: 4744 15bc 1d5e d8bc f114 6d3d 9585 54bc
00000190: 9723 02bd b92b fbbd b5ad 18bd 7dc9 cdbd
000001a0: 66b8 8c3c 29d5 e33c 7898 ea3c d7a5 a63c
000001b0: 30da 2db8 93dd 1d3d d905 d33c 46ce acbd
000001c0: 75e3 5bbd ccd3 a33c 56a6 96bd 5e5d e53b
000001d0: d8cc 3ebc cbfa fb3a 17b1 fcbc 6687 993c
000001e0: b2cc 19bd 3e8c d5bb 68a0 67bb 3793 43ba
000001f0: 54dd 00bd b032 67bc b5e1 f4bb 34e4 273e
00000200: ee0e 093d cee4 04bd 5b79 5dbc 35ff 22bd
00000210: d540 2d3d 333c a8ba cb66 44bd d590 813c
00000220: dd6c 01bd 3079 863c f68e 19bd 285b 05bd
00000230: 92c4 eebb 5f7a 143d 6b72 f7ba b30a 363c
00000240: a82b e33d ee89 3c3d 8c2c 17bc e6b0 923c
00000250: e0a4 82bd 5181 1fb9 1545 2e3c b7ba 703c
00000260: fbc8 fdbc c7a3 12bc c07f 2cbc bbdb 30bd
00000270: 52b2 d9ba d575 6b3d 8e89 4f3d 26d7 483d
00000280: 4c16 f4bd 11d9 c93d 9ee4 383b d0db dbbd
00000290: 2c5e 36bd be2c 233c 9a3d 94bc 8e30 9b3c
000002a0: 0e9c 06bc 69cd 8ebd dc2b eebd f1a3 acbd
000002b0: cdca 77bd 6725 92bc a694 913d 45ac abbc
000002c0: 0aab 4fbd 03fb d93b bad2 303d b4d9 acbc
000002d0: e7c7 003d 01ad 27bd 065b 54bc 1881 55bd
000002e0: 4fb9 7fbc 60d6 f53c 85e3 573c eedc f0bd
000002f0: 4ce7 4d3d 3139 a0bd a3dc 633a 79b7 643d
00000300: b493 613d 958f 943c 5084 f7bc 7d7a 10bd
00000310: 996c 05bd bb2f 3b3c e734 603b 3f80 98bb
00000320: 83bd 0ebc a551 023e ad1e 9cbd 280e 783c
00000330: 88d6 82bc 5c5c a0bd 483a 3e3b a38d 4dbd
00000340: 3969 183d 8025 9a3d 0c4a bebc 7deb f23c
00000350: 32c4 413d 300f 563d a2bc c5bc 77bf ad3b
00000360: 582a 9a3b 765b c5bd d985 62bd ce1a 4ebd
00000370: 7993 0bbd 36b1 43bd 19fe 343d 24be b6bc
00000380: 3cc9 9e3a 67a5 e23d 382f a8bd 8c4e 1f3d
00000390: 4234 abbc a3c4 563d bd6d 763d 09f1 2d3e
000003a0: 582b 333d ac2d 0c3d 592e a5bd 531a e13d
000003b0: bee6 5f3d c0a4 583d 8902 16bd 0016 153d
000003c0: 7d95 463c a84e c33d 56a8 3abd c14e 64bc
000003d0: 7d0d a0bd 2220 c73d 7783 d33c d859 ccbc
000003e0: 9bdf aabc 5c39 ad3d 985b f9bc f4d5 fe3b
000003f0: 7aa5 113e 6a32 a63d 0e11 14bd 809e 92bd
-0.025098797 -0.057610065 0.0042773886 -0.038564865 0.06409402 -0.016023425 0.03509946 0.0012445305
0.014799641 -0.042250644 0.1736027 0.02266549 -0.092071466 -0.039465036 0.03814467 0.061640892
-0.09482831 0.046253517 -0.03280617 0.02541671 -0.019241724 0.123992525 -0.029669825 -0.022407567
0.012194606 -0.0069508073 -0.012677791 -0.047563676 0.045817386 -0.037126 0.041582007 -0.00047598287
0.054211125 -0.008273187 -0.050355453 0.011913766 -0.007905529 0.021457205 0.02208149 0.04393631
-0.018632367 -0.015165285 -0.063093275 -0.08694801 0.04349226 0.004283206 -0.021799939 0.05178991
-0.12070393 -0.14946182 0.049588934 0.0668039 -0.02285658 -0.0045664753 -0.04004799 -0.099717
0.009625829 0.05084199 -0.027854173 -0.024118884 0.03248948 -0.002255794 0.007308341 0.0126128215
-0.0035680616 0.051920462 0.026010443 0.033020787 0.07403761 0.035731196 0.008246448 -0.05235781
0.021945773 -0.03827931 0.06519622 0.025758296 -0.0065733436 0.06333458 0.0582554 0.058483332
-0.016702807 -0.0020724656 0.038347583 0.015708873 -0.022459794 -0.020603271 -0.010376281 -0.022034518
0.030360475 0.059917357 0.03755243 0.0017349466 0.021639494 0.04108973 -0.08132393 -0.06253571
-0.009110517 -0.026412064 0.0578813 -0.012971302 -0.031772222 -0.12264199 -0.037275035 -0.100481965
0.017177772 0.027811604 0.028637156 0.02034275 -4.1449617e-05 0.038541388 0.025759624 -0.08437781
-0.053683717 0.019998454 -0.07355945 0.0069996556 -0.011645518 0.0019224522 -0.030846162 0.01874132
-0.03754873 -0.0065169623 -0.0035343412 -0.00074605964 -0.031461075 -0.014111206 -0.0074731954 0.16395646
0.033461504 -0.032444768 -0.013517703 -0.039794166 0.042298157 -0.0012835324 -0.047949594 0.015816132
-0.03159796 0.016415209 -0.037489854 -0.032557636 -0.0072866166 0.036249515 -0.0018878704 0.011110949
0.11092311 0.046029978 -0.009226929 0.017906617 -0.06379104 -0.00015211596 0.010636588 0.014692954
-0.030979624 -0.00895018 -0.010528505 -0.0431783 -0.001660893 0.05748542 0.05066829 0.049033307
-0.11918315 0.09855855 0.0028212438 -0.10735285 -0.044523403 0.009959398 -0.01809578 0.018944051
-0.008215917 -0.06972773 -0.11629459 -0.08429707 -0.06049614 -0.0178401 0.071084306 -0.020956168
-0.050700225 0.0066522374 0.043169715 -0.021099903 0.03144064 -0.040936474 -0.012961155 -0.052125067
-0.015608146 0.030009449 0.0131768035 -0.11760889 0.05026941 -0.078234084 0.000869224 0.055839036
0.0550725 0.018134871 -0.030214459 -0.035273064 -0.03257427 0.011424954 0.003421122 -0.00465396
-0.008712175 0.12726457 -0.076230384 0.015140094 -0.015971437 -0.07830116 0.0029026438 -0.050183903
0.037209723 0.07526684 -0.023228668 0.029653305 0.047306247 0.052260578 -0.024137799 0.0053023654
0.004704755 -0.096365854 -0.05530343 -0.05031853 -0.034076188 -0.047776423 0.04418764 -0.022307463
0.0012114416 0.11066704 -0.08212131 0.038893268 -0.020898942 0.05243362 0.06016325 0.16986479
0.043742508 0.034223244 -0.08065481 0.10991349 0.054663412 0.052891493 -0.03662351 0.036397934
0.012120602 0.09536487 -0.045570694 -0.013934792 -0.07815073 0.09722926 0.025819523 -0.024945185
-0.020858577 0.08458206 -0.030439183 0.00777697 0.1422328 0.081150845 -0.036149077 -0.07159138

action_model._discrete_distribution.branches.0.bias f4 [4]
00000000: 4dfb 343d 40a3 2938 c524 d2bd f3cb ab3d
0.04418497 4.044478e-05 -0.102609195 0.083885096

action_model._discrete_distribution.branches.1.weight f4 [5, 512]
00000000: 2dca f6bc d463 60bc 1e52 83bd 1980 6c3d
00000010: c81b c4bc 9778 0bbd b277 983d 192d 593d
00000020: 48d4 c8bc ce58 633c b6d4 ac3d 070f c9bd
00000030: dce8 bebd 3a9d 363c b9fe fbbd b1d9 b03d
00000040: 31c6 aa3d a669 f93d f0ca 633d e6b8 a7bd
00000050: 42db be3d 2583 82bd 4c1d b6ba eeb9 cebc
00000060: e96c 8a3b e0f9 543d 4774 d03c 6469 a43c
00000070: a96b 54bd c659 7ebc 3806 353c 02ef 2ebb
00000080: e4fa 153c 9f0e 3abd bc1f bd3c dd77 a0bd
00000090: 5641 6f3c e25d 09bd 7fd1 713d 10cd f13d
000000a0: 16f0 10bd dbe1 213d 103d 893d 82fe 08bd
000000b0: fa45 163d 39bc edbc 2db9 f3bc 4b6c 753d
000000c0: b619 163e 1e98 c03d f46d 12bc 04d4 ce3c
000000d0: bfbd 59bd e823 913c d458 4f3d 0fc6 3a3c
000000e0: b09f 083d 3a83 85bc af16 60bc 6726 e13b
000000f0: 36a1 29bc e90a 543d e002 30bd 9e0f 593d
00000100: cb2a 43bc c2d5 8e3d 1962 333d 3f00 39bd
00000110: 2ddf 393d ad7a 1c3c 3467 aabd da3b ae3c
00000120: e384 9c3d 8d4b 80ba 0c91 68bd f490 79bd
00000130: 96fb de3d 0487 243d 0e7c 043d 90be 49bd
00000140: c9dc ab3d 833a 833d 7aee 383d e9b4 593d
00000150: 30d2 f83d 433f e4bc 424f 64bd 9480 b13a
00000160: 814b f03c dcc5 0d3d 9f33 793d c1e9 9f3d
00000170: f3d9 d3bc 4aa6 f93c af14 1ebd f953 35bd
00000180: de92 9b3d 1ed7 98bd 4754 f53d c3e5 1f3d
00000190: 4fda 5bbd 182e 8bbd b1fe 23bd a6c1 713d
000001a0: 0389 90bd b19e 10bd 2f45 d0bb b02d 2abd
000001b0: 615a b73d 3676 a83d ed8a 4e3d 7fe1 8ebc
000001c0: c06a 913d 4803 8cbd e03e 9abd 5beb 8a3d
000001d0: 4a84 8dbd 2861 723d 9f13 de3b 19d0 4abd
000001e0: 170d b1bd 902b 86bd 6793 d53c 44b7 a63d
000001f0: 9d4c b7bc 5d23 93bd 7ccc 2d3d d10a dc3c
00000200: b358 b8bd 3c80 9fbd b1cd c539 178a 9abd
00000210: b445 2f3d 4615 893d fb96 2b3c 0816 5abc
00000220: ef64 873c dbb0 fc3a 75ac b0bc 886b 433d
00000230: 9c9f 44bd 594c 21bd c68c 043d b4c5 883c
00000240: 7d05 a63c 9451 a43b 5103 9cbb 23d8 543c
00000250: c3e9 62bc ff6c 5dbd f0eb 9dbc d563 2d3d
00000260: f17c 063e 141e 97bd c8f2 063c 0f3a 89bc
00000270: 2b88 67bc 471c a73d 8dae a93d aa9d 49bd
00000280: 97a5 c83d 0ead 883c 3304 1fbd d698 933d
00000290: 9898 a1bd a3ab 953a 02ea f4bb f8d8 123d
000002a0: 6c39 f63c e92a 30bd bedf 243d 0df6 da3b
000002b0: a74c 3bbd ca0c 12bd 367a 3d3d 2046 5dbc
000002c0: 5c6f 233c bab5 51bc 5b95 e8bc 8453 cabd
000002d0: a3ec 9bbd 855f ab3d 1693 06bc f1ba 273d
000002e0: f5a4 5abc 957c b8bc ea79 00bd 31d6 58bc
000002f0: b977 963d 3ac8 8bbd d0c6 04bd ce68 a13d
00000300: c949 53bc 4564 ae3b e691 643d e7df 80bd
00000310: d0fd a0bd 4f35 0d3d 6e95 b93c a049 083c
00000320: 06ef 103c 2d10 b83d ca4d 0dbd 3fd4 323d
00000330: 57a4 243d 947d aabd 0764 7bbc 9449 2dbd
00000340: 42c1 313c ffca 0b3e 1ce3 33bd 3101 87bb
00000350: bb7e 883a e631 a93c 53d9 813c 2a8c 493d
00000360: bc42 eb3c abf5 bd3a 5ca2 85bd da1a a43d
00000370: 905b 173e 14af 103d 9108 213a 97ff d33d
00000380: 362d 9f3d a2a0 17bd 6a6d 80bb 0d21 8c3c
00000390: 5809 cebd 97ae 1c3d 4db3 593d 5b9d c13c
000003a0: 815c b5bd 7255 8abc c070 5dbd 8eb3 943d
000003b0: cd0c bdba 0838 a53d 90b4 02bd ce6d cf3d
000003c0: 4dd3 18bd 51e3 b53d f03c 74bc 540a a6bd
000003d0: 0a32 8a3c bf25 1c3d bddf 113e 649b d3bc
000003e0: d087 3e3d a1fa 3b3d 2d06 91bd c777 80bc
000003f0: 7f98 19bc bea3 3b3d ec6c 073d e81f 333d
-0.030125702 -0.013695676 -0.06412147 0.05773935 -0.023939028 -0.03405055 0.07444705 0.053021524
-0.024515286 0.013876153 0.08439009 -0.09817319 -0.09321758 0.011145884 -0.12304444 0.08635271
0.08338583 0.12178354 0.05561346 -0.081895635 0.09319164 -0.0637267 -0.0013894229 -0.025235143
0.004224409 0.051996112 0.02544607 0.020069785 -0.051860485 -0.015524333 0.011048846 -0.0026692753
0.009154055 -0.0454241 0.023086421 -0.07835362 0.01460298 -0.0335368 0.05903768 0.11806691
-0.035385214 0.039522033 0.067011 -0.033445843 0.03668783 -0.029020416 -0.029751385 0.05991773
0.14658245 0.09404014 -0.008937348 0.025247581 -0.05315947 0.017717317 0.050621822 0.01139976
0.033355415 -0.016297925 -0.013677283 0.006871033 -0.010353377 0.051768217 -0.04297149 0.05299341
-0.011912058 0.06974365 0.043794725 -0.04516625 0.045378853 0.009550733 -0.08320466 0.021268774
0.07642534 -0.0009788141 -0.056778952 -0.060929254 0.1088783 0.040167823 0.03234487 -0.049254
0.08391721 0.064076446 0.045149304 0.053151045 0.12149465 -0.027862197 -0.05573965 0.0013542348
0.029332878 0.03461252 0.060840245 0.07808257 -0.025860762 0.0304748 -0.038593944 -0.044269536
0.07596372 -0.07462905 0.11978965 0.039037477 -0.053674992 -0.06795901 -0.040037815 0.05902257
-0.07057383 -0.03530759 -0.0063559036 -0.041547477 0.08952785 0.08225672 0.05042546 -0.01744151
0.07100439 -0.06836563 -0.07531524 0.06783172 -0.06909998 0.059174687 0.0067772414 -0.049514864
-0.08645075 -0.06551278 0.026071263 0.08140424 -0.0223754 -0.071844794 0.04243134 0.026860626
-0.09001293 -0.07788131 0.0003772802 -0.0754587 0.042791083 0.06693511 0.010473008 -0.013310917
0.016527621 0.0019278781 -0.021566609 0.04770997 -0.048003778 -0.03937945 0.032360815 0.016695835
0.020266289 0.0050146077 -0.0047611375 0.012990984 -0.013849678 -0.054059025 -0.019277543 0.042331535
0.13133599 -0.07378784 0.0082365945 -0.016751317 -0.014131586 0.0815969 0.08285246 -0.049222626
0.09797209 0.016684081 -0.038822364 0.072068855 -0.07890433 0.001141895 -0.007474185 0.03585145
0.030056678 -0.043009672 0.04025244 0.0066821636 -0.0457274 -0.035656728 0.046259128 -0.013505489
0.009975281 -0.012799675 -0.02839153 -0.098792106 -0.07613494 0.08367828 -0.008213779 0.040949766
-0.013344993 -0.022520343 -0.031366266 -0.013234661 0.07347054 -0.068252996 -0.032416165 0.07881318
-0.01289601 0.0053220117 0.055803202 -0.06292706 -0.07860911 0.034474667 0.022654261 0.008318335
0.00884605 0.0898746 -0.034498014 0.043659445 0.04019579 -0.083247334 -0.015343673 -0.042306498
0.010849299 0.13651656 -0.04391776 -0.004120015 0.0010413745 0.020653676 0.015850699 0.049205936
0.028718345 0.001449277 -0.06525108 0.08012934 0.14781022 0.035323218 0.0006142939 0.10351484
0.07772295 -0.037018426 -0.003919293 0.017105604 -0.10060376 0.03825244 0.05314951 0.023634603
-0.08855534 -0.016886447 -0.054062605 0.0726081 -0.0014423371 0.08067328 -0.03191048 0.101283655
-0.037310887 0.08881248 -0.014907107 -0.08107439 0.016869564 0.038121935 0.14245506 -0.025830932
0.04651624 0.045893315 -0.07081256 -0.015682114 -0.009374737 0.045810454 0.03306286 0.0437316

action_model._discrete_distribution.branches.1.bias f4 [5]
00000000: 9db4 d63c a798 203d 0505 173d 2405 30bb
00000010: b884 7bba
0.02620917 0.03920808 0.03687002 -0.0026858533 -0.0009594667

exp_avg f4 [512, 40]
00000000: 0000 0000 bcf6 3cb8 91f0 2ab7 1630 8638
00000010: 246b 0338 0000 0000 acd4 73b7 c5ac 11b7
00000020: ac0d 0638 3ed2 a337 0000 0000 f6b0 a737
00000030: f2ff 9cb6 9959 dcb6 773c 0938 0000 0000
00000040: 16df 54b7 b14e 9735 3955 aa37 d0c0 4037
00000050: 0000 0000 a1f4 b637 e06e 9cb6 9efc 0cb7
00000060: f28e e637 0000 0000 522e 6536 c8d9 4036
00000070: d4cc 2436 0ad2 0137 0000 0000 aad3 bdb6
00000080: 80bd e8b4 f8e4 7837 6386 0238 0478 8db8
00000090: 99d0 9139 800c 1f35 7a0f 27ba d43b 1db7
000000a0: 0000 0000 8ee7 a5b7 c427 feb4 bfde 67b8
000000b0: d523 94b8 0000 0000 18b0 a6b6 e2cd 93b5
000000c0: 2ead 91b8 5b75 a3b8 0000 0000 34f5 3bb6
000000d0: f954 09b8 84ba 27b8 d28b 8fb8 0000 0000
000000e0: 00eb 3936 40a4 56b8 8a92 e3b7 1c1c 86b8
000000f0: 0000 0000 7631 3136 c67d 47b8 2464 00b8
00000100: fd79 52b8 0000 0000 c032 ecb4 8c67 adb8
00000110: 46c5 fe36 ef4a 4bb8 0000 0000 bb1d 73b7
00000120: 1f58 a1b8 ad51 8537 353e 28b8 c1a7 b4b8
00000130: 7383 e9b9 1a66 bb37 543e abbb d319 6bb8
00000140: 0000 0000 1e13 19b7 f0d0 b2b7 933b 5638
00000150: ddc9 d037 0000 0000 171b cb37 d2d6 56b8
00000160: 98d7 4738 fedb 1238 0000 0000 3660 4cb7
00000170: 0327 a536 fe02 ea37 0027 c737 0000 0000
00000180: b594 0e38 406f 8235 6e67 70b7 6973 0938
00000190: 0000 0000 7106 81b7 1853 0538 88f3 8d36
000001a0: 98bc a936 0000 0000 3d5b a137 cebd 0b37
000001b0: e275 e8b6 445b bf37 0000 0000 95f7 0737
000001c0: 0042 91b3 4f64 5337 4a8c 09b7 371a 7438
000001d0: 9da6 a139 df8c 3838 9117 263b d23e 6c38
000001e0: 0000 0000 50e0 fb36 adeb 77b7 2030 0338
000001f0: 324b f037 0000 0000 ae8e fc36 6749 54b7
00000200: 8263 f437 e5bf d837 0000 0000 e3fc 1638
00000210: 2a40 f2b6 021d a0b6 52d5 dc37 0000 0000
00000220: 60cf 1f36 c0d2 85b6 3edd d637 1e68 c937
00000230: 0000 0000 d8e7 1a38 1620 02b7 a074 adb6
00000240: 7a03 d437 0000 0000 0ed7 cd36 b018 a434
00000250: 565c 9337 d4aa c337 0000 0000 c660 4ab6
00000260: 3a97 43b7 183d 2238 674a f637 13e8 99b7
00000270: 3956 0339 3bf9 e636 74c0 4db9 b950 2237
00000280: 0000 0000 f6c6 1038 9033 0eb7 b424 0439
00000290: 6389 1139 0000 0000 0ab8 9737 f9fe c3b7
000002a0: 14fc 2439 fd39 1539 0000 0000 8339 7a39
000002b0: c2a6 84b8 5497 c3b7 2fc2 fc38 0000 0000
000002c0: 04ee d337 6b17 1637 fe27 f738 b06b 1939
000002d0: 0000 0000 bddd 6f39 a29d 84b8 18bb 61b7
000002e0: f97e 0e39 0000 0000 4038 5238 2fc5 5db8
000002f0: 7356 2239 3a3f 2439 0000 0000 7e74 9f37
00000300: 3245 66b8 f615 4539 200b 1739 8813 0937
00000310: 9a1b b4b8 0264 90b7 0b20 5bba f7b0 76b9
00000320: 0000 0000 5444 f7b6 9327 1eb6 feeb f9b6
00000330: ef46 85b7 0000 0000 aa40 16b7 7001 f6b5
00000340: 6042 d6b6 3a30 7eb7 0000 0000 478a e0b6
00000350: f255 f8b6 a6c7 4eb6 9c19 8bb7 0000 0000
00000360: 901d fdb6 a01b b733 7801 23b7 f043 64b7
00000370: 0000 0000 9d8b 31b6 3d9f a8b6 846f 1fb7
00000380: e759 89b7 0000 0000 f871 84b6 a7aa 11b7
00000390: c47c 98b6 a65d 56b7 0000 0000 be22 84b4
000003a0: 2ee0 d9b6 dc10 2fb7 1171 8db7 b48e ad36
000003b0: 8a63 0f39 b745 27b6 0202 12b9 8455 5d37
000003c0: 0000 0000 159f 4a37 f167 60b8 2086 86b5
000003d0: 68ae d0b7 0000 0000 4a12 5eb6 a196 c1b7
000003e0: c68f 86b7 c3c1 1bb8 0000 0000 b050 cc37
000003f0: 76bc a6b8 ca70 5537 6ef6 58b7 0000 0000
0.0 -4.5052482e-05 -1.0188801e-05 6.3985746e-05 3.1332616e-05 0.0 -1.4533445e-05 -8.6828995e-06
3.1960823e-05 1.9529016e-05 0.0 1.9990355e-05 -4.6789582e-06 -6.5669415e-06 3.2719658e-05 0.0
-1.2688126e-05 1.1273279e-06 2.0305264e-05 1.14889845e-05 0.0 2.1810005e-05 -4.66207e-06 -8.403467e-06
2.74847e-05 0.0 3.415062e-06 2.8736995e-06 2.455713e-06 7.737903e-06 0.0 -5.65728e-06
-4.3351247e-07 1.4835263e-05 3.1119573e-05 -6.7457586e-05 0.00027811973 5.9250306e-07 -0.00063728506 -9.371859e-06
0.0 -1.9777359e-05 -4.734012e-07 -5.528214e-05 -7.063864e-05 0.0 -4.9676855e-06 -1.1012273e-06
-6.946396e-05 -7.794305e-05 0.0 -2.8007898e-06 -3.2742482e-05 -3.998961e-05 -6.844815e-05 0.0
2.7703936e-06 -5.1174546e-05 -2.7128746e-05 -6.394854e-05 0.0 2.6403845e-06 -4.7562433e-05 -3.061084e-05
-5.0181512e-05 0.0 -4.399535e-07 -8.26857e-05 7.5927555e-06 -4.846876e-05 0.0 -1.4490851e-05
-7.693492e-05 1.5892869e-05 -4.0112256e-05 -8.6143154e-05 -0.0004453916 2.2339682e-05 -0.005225936 -5.6052417e-05
0.0 -9.123962e-06 -2.1316548e-05 5.107706e-05 2.4889532e-05 0.0 2.42121e-05 -5.1221643e-05
4.7646085e-05 3.5013996e-05 0.0 -1.2181748e-05 4.9219248e-06 2.7896367e-05 2.374081e-05 0.0
3.3993932e-05 9.718133e-07 -1.4329196e-05 3.277083e-05 0.0 -1.5380998e-05 3.1787058e-05 4.230478e-06
5.0585477e-06 0.0 1.9235182e-05 8.329238e-06 -6.927862e-06 2.2811473e-05 0.0 8.104272e-06
-6.764094e-08 1.2599935e-05 -8.1985e-06 5.8198548e-05 0.0003083245 4.4000215e-05 0.0025343637 5.632529e-05
0.0 7.5064963e-06 -1.477722e-05 3.1277654e-05 2.8645245e-05 0.0 7.5267953e-06 -1.2653275e-05
2.9133404e-05 2.5838564e-05 0.0 3.5998306e-05 -7.2196317e-06 -4.7717485e-06 2.6325379e-05 0.0
2.3813554e-06 -3.9882434e-06 2.5613812e-05 2.400955e-05 0.0 3.6932382e-05 -7.756074e-06 -5.1693787e-06
2.5273988e-05 0.0 6.1345118e-06 3.0565343e-07 1.7566763e-05 2.332536e-05 0.0 -3.0156675e-06
-1.1658116e-05 3.8680708e-05 2.9360132e-05 -1.834709e-05 0.00012525254 6.8835484e-06 -0.00019622018 9.674747e-06
0.0 3.4517572e-05 -8.475865e-06 0.00012602174 0.00013879458 0.0 1.8086303e-05 -2.3364542e-05
0.00015734165 0.0001423135 0.0 0.00023863283 -6.3253116e-05 -2.331628e-05 0.00012052466 0.0
2.5263995e-05 8.946149e-06 0.00011785327 0.00014631334 0.0 0.0002287542 -6.323612e-05 -1.3454606e-05
0.00013589476 0.0 5.012029e-05 -5.2874148e-05 0.00015481729 0.00015663813 0.0 1.9008523e-05
-5.4900716e-05 0.00018795565 0.00014404627 8.170384e-06 -8.58821e-05 -1.7212707e-05 -0.0008358962 -0.00023526313
0.0 -7.369128e-06 -2.356687e-06 -7.4482514e-06 -1.5887867e-05 0.0 -8.9557525e-06 -1.8328847e-06
-6.385424e-06 -1.5150808e-05 0.0 -6.691818e-06 -7.4009813e-06 -3.0812603e-06 -1.6582017e-05 0.0
-7.543429e-06 8.5266265e-08 -9.715899e-06 -1.3605677e-05 0.0 -2.645632e-06 -5.025328e-06 -9.503103e-06
-1.6373537e-05 0.0 -3.9471743e-06 -8.682407e-06 -4.5444776e-06 -1.2777198e-05 0.0 -2.4612194e-07
-6.493202e-06 -1.0434738e-05 -1.686116e-05 5.1724146e-06 0.00013674624 -2.4925519e-06 -0.00013924393 1.3192537e-05
0.0 1.2077177e-05 -5.3502565e-05 -1.0022814e-06 -2.4876746e-05 0.0 -3.3091223e-06 -2.3077535e-05
-1.6040995e-05 -3.7135334e-05 0.0 2.4356268e-05 -7.9506004e-05 1.272205e-05 -1.293198e-05 0.0

exp_avg_sq f4 [512, 40]
00000000: 0000 0000 de64 eb32 f2b1 1e32 e637 b632
00000010: 6056 1a33 0000 0000 e014 b332 7e3c f431
00000020: 7d2d 0a33 8cd9 4233 0000 0000 3dce 1d33
00000030: 5905 2c32 05e4 3f32 0c5e eb32 0000 0000
00000040: dc34 2e32 a1dc e930 77af 4933 833f 5b33
00000050: 0000 0000 74ea 2233 56cd 2632 04f2 3832
00000060: 8bec d232 0000 0000 6a78 7132 6b13 8131
00000070: 0a43 2d33 2a22 5133 0000 0000 a67e 2633
00000080: 77a4 2432 5d5b 2f32 d4e9 de32 ba1a f932
00000090: 8253 c436 b58a 0033 ee4f 0538 c607 5933
000000a0: 0000 0000 5a9b 7531 861e 6630 e042 a933
000000b0: 5037 b033 0000 0000 f4de 3633 e76c e331
000000c0: fc77 1933 2e81 8233 0000 0000 a9b1 c830
000000d0: e595 1432 23a4 9c33 2550 a633 0000 0000
000000e0: b226 7833 4e0e 8d32 7b08 1d32 47a9 0633
000000f0: 0000 0000 9df6 2a31 9d30 9f32 128b 8133
00000100: 6a28 9a33 0000 0000 6e16 7c33 e840 b532
00000110: e0fc 9531 8c39 b832 0000 0000 2e92 1232
00000120: 2698 ca32 52fa 5533 679a 8b33 ddfe a233
00000130: c20a cb37 a811 0c35 fcd1 013a ba3b aa33
00000140: 0000 0000 3553 7532 b05b 9431 1c88 6b33
00000150: 9f43 8f33 0000 0000 a42f 4f32 71ca 4332
00000160: 5f0e 6c33 aa06 8a33 0000 0000 a166 9732
00000170: 8ad4 4c32 1c68 4633 d072 7533 0000 0000
00000180: dca6 9f32 fe77 be32 3caa 1733 d0d1 6a33
00000190: 0000 0000 e7c8 d732 01ca e432 223b e332
000001a0: aa3a 3c33 0000 0000 5d3c b932 8309 0633
000001b0: d1ed e232 a77e 5033 0000 0000 fe5b 0c33
000001c0: a1ca 0e33 e334 4432 74f6 0833 902f 8133
000001d0: 0b49 8e37 0541 3136 ad10 a539 c01e 8f33
000001e0: 0000 0000 855b ae31 faf5 0931 a802 a831
000001f0: 85b5 0932 0000 0000 040e 6e31 59c7 e330
00000200: 224a e531 6feb 1a32 0000 0000 1d37 b531
00000210: 2124 2a31 8cd1 9731 f574 f231 0000 0000
00000220: 8ff8 7e31 829e b630 a2da ed31 e4fa 2032
00000230: 0000 0000 9a0f d731 11d0 2b31 c8eb 6a31
00000240: c967 d931 0000 0000 9c4a 8931 b24a d330
00000250: 258a d731 d72c 1a32 0000 0000 b95c d931
00000260: b3e0 2731 3cad 5131 66ad dc31 79db ea31
00000270: 5770 8d34 68e1 9d34 7113 3437 c027 3332
00000280: 0000 0000 cc1c 3134 5f6f 9e33 d617 ca33
00000290: bc9b 5934 0000 0000 eb92 1734 77c7 9d33
000002a0: d401 f833 1870 6134 0000 0000 d162 0634
000002b0: df0e 8c33 fefe 2334 7db0 6534 0000 0000
000002c0: fb74 2534 c9ec 4433 d5f7 1434 7f26 7134
000002d0: 0000 0000 cc20 0134 a5fa 6833 9093 3534
000002e0: e104 7234 0000 0000 0c08 1134 b7da fd32
000002f0: 70fe 3a34 3aea 8134 0000 0000 e636 cf33
00000300: e3c5 6933 3fcb 4634 d26f 8334 7124 2034
00000310: b7cf 2c36 361f 8035 7230 8238 0084 a834
00000320: 0000 0000 a4a0 3131 acff b330 e347 a530
00000330: 0100 4431 0000 0000 dbf1 f430 2280 9c30
00000340: 5481 1431 d236 6631 0000 0000 6ad5 3f31
00000350: 26a1 aa30 424d 9c30 2962 2831 0000 0000
00000360: e140 9e30 8573 8130 9ca8 4f31 a16d 8131
00000370: 0000 0000 5dce 3331 b8b9 9930 8472 c630
00000380: 62e6 2c31 0000 0000 6387 a330 a7c2 8c30
00000390: 47fd 4e31 9933 8631 0000 0000 04ed 1631
000003a0: 036d 9430 afbd f230 6b04 4131 8d55 2731
000003b0: 05ea ed33 fa1c 5731 26ae d635 950d 9331
000003c0: 0000 0000 d76c 3b34 4189 9433 e281 a633
000003d0: a9b2 5e34 0000 0000 d7e8 2e33 67c3 4f33
000003e0: bf52 7934 df32 9934 0000 0000 6d80 6f34
000003f0: f8c3 a033 e567 0a33 b308 0e34 0000 0000
0.0 2.740347e-08 9.2372705e-09 2.1213008e-08 3.5934477e-08 0.0 2.0847835e-08 7.108212e-09
3.2172e-08 4.5367003e-08 0.0 3.6741984e-08 1.0012934e-08 1.1169509e-08 2.7400368e-08 0.0
1.0140152e-08 1.7015688e-09 4.6958544e-08 5.1047675e-08 0.0 3.7931798e-08 9.70916e-09 1.0765238e-08
2.4554785e-08 0.0 1.4055425e-08 3.7566017e-09 4.0340673e-08 4.8692677e-08 0.0 3.8765073e-08
9.583451e-09 1.0207114e-08 2.5950534e-08 2.8999569e-08 5.850977e-06 2.9928476e-08 3.178411e-05 5.053132e-08
0.0 3.57405e-09 8.371689e-10 7.88184e-08 8.2057e-08 0.0 4.2577952e-08 6.6189503e-09
3.5732214e-08 6.0770944e-08 0.0 1.4602409e-09 8.648816e-09 7.2941724e-08 7.7445556e-08 0.0
5.7777193e-08 1.6421065e-08 9.140531e-09 3.1353263e-08 0.0 2.487844e-09 1.8532143e-08 6.032327e-08
7.178535e-08 0.0 5.8693722e-08 2.110069e-08 4.3652193e-09 2.1446589e-08 0.0 8.531556e-09
2.3585084e-08 4.9820592e-08 6.5007775e-08 7.590072e-08 2.4204495e-05 5.217976e-07 0.00049522496 7.927106e-08
0.0 1.4279796e-08 4.3177906e-09 5.4838992e-08 6.6712566e-08 0.0 1.2059818e-08 1.1396524e-08
5.4961102e-08 6.427338e-08 0.0 1.7625384e-08 1.1922689e-08 4.6195154e-08 5.714793e-08 0.0
1.8585915e-08 2.2173477e-08 3.5312254e-08 5.4673194e-08 0.0 2.5120654e-08 2.6634554e-08 2.6453169e-08
4.3825516e-08 0.0 2.1564285e-08 3.1207957e-08 2.641801e-08 4.8543964e-08 0.0 3.2679957e-08
3.324624e-08 1.1420727e-08 3.1889115e-08 6.015682e-08 1.6961732e-05 2.6412902e-06 0.00031483677 6.66455e-08
0.0 5.074471e-09 2.0075945e-09 4.8897455e-09 8.015722e-09 0.0 3.4641525e-09 1.6573082e-09
6.673205e-09 9.017511e-09 0.0 5.274059e-09 2.4758793e-09 4.418501e-09 7.0564234e-09 0.0
3.7103154e-09 1.3287293e-09 6.9224635e-09 9.370272e-09 0.0 6.2590972e-09 2.5002047e-09 3.4185508e-09
6.32733e-09 0.0 3.995707e-09 1.53735e-09 6.2730288e-09 8.974175e-09 0.0 6.3260726e-09
2.4429425e-09 3.0511975e-09 6.422556e-09 6.8352475e-09 2.6345035e-07 2.9407533e-07 1.0733363e-05 1.0428209e-08
0.0 1.6494886e-07 7.3777066e-08 9.410694e-08 2.0266356e-07 0.0 1.411642e-07 7.347165e-08
1.15487325e-07 2.0995537e-07 0.0 1.2515672e-07 6.521963e-08 1.5273324e-07 2.1391493e-07 0.0
1.540938e-07 4.585016e-08 1.3873735e-07 2.2458879e-07 0.0 1.2025993e-07 5.424467e-08 1.6910622e-07
2.2539781e-07 0.0 1.3507105e-07 2.9552536e-08 1.7415164e-07 2.4198545e-07 0.0 9.6491746e-08
5.4429517e-08 1.8514127e-07 2.4482011e-07 1.4914419e-07 2.5750903e-06 9.545827e-07 6.207907e-05 3.138848e-07
0.0 2.5848204e-09 1.309663e-09 1.2025761e-09 2.8521756e-09 0.0 1.7822076e-09 1.1386911e-09
2.161035e-09 3.3500567e-09 0.0 2.791547e-09 1.2414929e-09 1.1372452e-09 2.4503015e-09 0.0
1.1514453e-09 9.418818e-10 3.0218308e-09 3.7668575e-09 0.0 2.6165232e-09 1.1185e-09 1.4438943e-09
2.5160252e-09 0.0 1.189829e-09 1.0241664e-09 3.0120917e-09 3.9057793e-09 0.0 2.19626e-09
1.07994e-09 1.7661729e-09 2.8087708e-09 2.4350328e-09 1.10787404e-07 3.130309e-09 1.5994926e-06 4.279807e-09
0.0 1.7455328e-07 6.9167534e-08 7.753603e-08 2.0740357e-07 0.0 4.07243e-08 4.837366e-08
2.3220035e-07 2.8535484e-07 0.0 2.230533e-07 7.486227e-08 3.222512e-08 1.3227945e-07 0.0

exp_avg f4 [512]
00000000: 36b5 1237 6c67 9eb8 a61c ad37 7c62 c937
00000010: 3773 1f39 0711 90b7 60f4 31b8 6c1e 4db8
00000020: 9831 ff38 efa3 1036 ac65 6f38 1c2d 0fb8
00000030: 7710 8339 75b0 b836 b4a7 9d39 3e26 abb8
00000040: 7406 9d38 0b1d 8fb9 ac3a 8db8 ecd3 8138
00000050: a80f 48b8 9980 11b9 f83c 43b6 7668 05b7
00000060: ab01 4bb7 6013 cc37 b259 86b8 6084 8538
00000070: dd26 0d39 6c65 4bb7 ca89 4f38 421c 5739
00000080: ece7 87b8 e041 4839 67a2 c438 cbec b539
00000090: 92b6 c7b6 b018 ba37 6802 efb8 04d2 a738
000000a0: 7fbc 2e38 75f3 4a37 166a 98b8 d04a 1537
000000b0: feb8 13b8 700c 18b8 c062 0fb7 9dde 2cb8
000000c0: 0a99 8f38 e6f5 dc38 6d30 1239 ec7c 3939
000000d0: a5d2 b0b7 88b0 7f36 1c69 e8b8 cd52 7038
000000e0: f70f 4f39 4c88 2bb9 eb52 42b7 1884 0eb8
000000f0: d6af e137 e282 ae38 52b4 8ab7 2045 4337
00000100: 2e50 1137 01d4 cdb8 6aad e3b7 e851 32b9
00000110: 9c99 c1b8 a559 0639 8c09 dbb7 d6b5 6cb8
00000120: 1381 67b8 bb2a 4eb7 62cc 2f39 c6c3 8f39
00000130: 1208 9db8 b2c4 0839 f746 30b8 d5f8 53b7
00000140: 40a2 6db9 55ba bab8 e353 98b8 0425 d8b7
00000150: f885 8fb8 653b a1b7 3a87 80b7 fa51 77b7
00000160: 1069 c0b7 d603 ffb8 007f 01b5 e587 64b8
00000170: 121d a2b8 eec6 e638 a0b5 ebb7 de3f b736
00000180: 5fff c438 71c9 a3b7 6abf 23b9 b0a0 72b7
00000190: 87ac f536 02cf 83b8 c8d1 a0b5 477d e4b9
000001a0: d759 a1b7 cc69 e138 23c2 1d37 52ea 9e38
000001b0: 804c 2639 e0b3 6239 3641 6fb6 d23d ba36
000001c0: 0c02 8ab9 725c 29b8 4cb0 b6b6 753e 4e38
000001d0: 7c27 a3b7 78c0 a0b8 ad23 d335 1696 6c39
000001e0: 1708 a939 be04 0238 409c 2b38 06aa c4b8
000001f0: 6aac 2ab7 7f07 2339 244e b4b6 2aa1 08b8
00000200: 2438 fb38 d0d6 8838 4d47 5ab6 0c8b 1439
00000210: 1fa3 c4b7 deb0 8e38 413b 6e37 5fbf b537
00000220: c49d be38 016e 8a37 ad70 8938 d494 7738
00000230: 006b 73b7 c1b2 b538 20b7 bfb6 bdc6 a4b8
00000240: 97b5 6bb8 88e0 3f39 033d 1b38 de02 e039
00000250: 6b76 9236 1a35 1eb8 c068 b237 6b7a 8ab7
00000260: cfd1 b0b9 a228 83b9 4c0c 2a36 7de8 8938
00000270: 0e88 b6b6 f4a9 7638 1c94 8cb9 5461 8439
00000280: 1e8c 8438 782c b2b8 4f0f c537 bd3f 4738
00000290: fc3f d8b7 f45a 8d39 6a67 42b7 6bae 3938
000002a0: dc3e a839 c02b 42b8 3c7c e937 91b3 0839
000002b0: b295 23b8 0590 5b38 b721 91b8 b2e0 9637
000002c0: 4358 1038 d833 f437 eb9a 1b37 8d2a 11b8
000002d0: 0c17 4039 c89d 7b38 88a9 23b5 7b39 f037
000002e0: c82e 2237 5c18 c2b7 6061 6c38 91c7 03b9
000002f0: f0f1 00b9 a996 01b6 400f 3535 e2f7 e4b8
00000300: f49d 0039 4536 1038 3801 4cb9 f886 1f34
00000310: 0efc 78b7 175b 5a39 d8a8 88b8 a6a1 71b8
00000320: 0015 5e36 80e3 75b9 7225 9eb7 f525 1bb7
00000330: b2b1 02b8 3048 1438 51a5 c939 98b4 1cb7
00000340: 4cc6 9ab8 2f60 9db9 7dbe 1839 11bf 7ab6
00000350: 1eeb e538 457b 12b9 cc26 03b8 8cbd dcb8
00000360: def8 5a36 5106 0e39 2c93 08b8 8732 9b38
00000370: 5cc5 6438 c212 d7b8 4097 58b6 decb f737
00000380: cff6 2d38 0835 0db7 74aa 9437 127e 59b7
00000390: 4b3e 03b8 5c7b edb8 408d 29b6 aca0 47b8
000003a0: c046 8239 d897 2439 b249 bf37 b2c3 c437
000003b0: 3757 99b9 7703 c8b7 8eb7 25b8 2b31 8238
000003c0: 7f75 5638 9cbd 9ab8 8168 a536 8059 3c39
000003d0: 015b 5638 1ee0 f038 c0ed b037 176b 8d38
000003e0: fcdc b937 e087 34b9 8e2b 5039 594f 49b9
000003f0: 6794 aa39 e574 c438 1637 21b7 208b d537
8.74447e-06 -7.553291e-05 2.0636548e-05 2.4006928e-05 0.00015206343 -1.7174067e-05 -4.242768e-05 -4.890414e-05
0.00012168585 2.1553094e-06 5.707673e-05 -3.413587e-05 0.00024998534 5.5041696e-06 0.00030070322 -8.1610386e-05
7.4875454e-05 -0.00027296724 -6.7343324e-05 6.190673e-05 -4.7698297e-05 -0.00013876184 -2.9092753e-06 -7.9517395e-06
-1.2100131e-05 2.4327717e-05 -6.406325e-05 6.366591e-05 0.00013461286 -1.2123357e-05 4.9480972e-05 0.00020514525
-6.4805005e-05 0.00019098027 9.376258e-05 0.00034699435 -5.951916e-06 2.2184424e-05 -0.00011396856 8.002299e-05
4.1660383e-05 1.20968225e-05 -7.267685e-05 8.898511e-06 -3.521982e-05 -3.6251207e-05 -8.546456e-06 -4.121532e-05
6.847277e-05 0.000105362196 0.00013941685 0.00017689512 -2.1078924e-05 3.8100716e-06 -0.000110822 5.7297573e-05
0.00019747006 -0.00016358605 -1.1582607e-05 -3.397846e-05 2.690397e-05 8.3213454e-05 -1.653485e-05 1.1639e-05
8.661342e-06 -9.8146505e-05 -2.7141261e-05 -0.00017005915 -9.231569e-05 0.00012812631 -2.611128e-05 -5.6436133e-05
-5.51949e-05 -1.2288506e-05 0.00016765439 0.00027420948 -7.4878466e-05 0.00013043245 -4.202776e-05 -1.2634516e-05
-0.00022662524 -8.903878e-05 -7.26355e-05 -2.5766443e-05 -6.843725e-05 -1.9220353e-05 -1.5321759e-05 -1.4741434e-05
-2.2937107e-05 -0.00012160062 -4.8241054e-07 -5.4485998e-05 -7.730177e-05 0.00011004308 -2.8098759e-05 5.46126e-06
9.393575e-05 -1.9524918e-05 -0.00015616199 -1.4461737e-05 7.321654e-06 -6.285125e-05 -1.1981983e-06 -0.00043580888
-1.923453e-05 0.00010748542 9.40313e-06 7.577673e-05 0.00015859492 0.00021620048 -3.5651733e-06 5.550429e-06
-0.00026322936 -4.0378836e-05 -5.4445463e-06 4.9172395e-05 -1.94495e-05 -7.6652446e-05 1.5731108e-06 0.00022562625
0.0003224022 3.099883e-05 4.0915096e-05 -9.3776776e-05 -1.0172933e-05 0.00015547684 -5.373515e-06 -3.2575022e-05
0.0001197907 6.524997e-05 -3.2526034e-06 0.00014166179 -2.344098e-05 6.804032e-05 1.4199702e-05 2.1665996e-05
9.089292e-05 1.6502107e-05 6.5536566e-05 5.9027996e-05 -1.4508842e-05 8.664048e-05 -5.713562e-06 -7.857147e-05
-5.6197485e-05 0.00018298824 3.70117e-05 0.00042726746 4.3649247e-06 -3.771959e-05 2.1268032e-05 -1.6507887e-05
-0.00033725656 -0.0002501654 2.5339132e-06 6.5759734e-05 -5.4398615e-06 5.880925e-05 -0.0002681323 0.00025249517
6.320349e-05 -8.4959844e-05 2.3491359e-05 4.7504658e-05 -2.5779002e-05 0.0002696138 -1.1587379e-05 4.4269877e-05
0.0003209029 -4.629395e-05 2.7833616e-05 0.00013036864 -3.9001643e-05 5.2347797e-05 -6.920419e-05 1.7986025e-05
3.4414476e-05 2.9111208e-05 9.27479e-06 -3.4610322e-05 0.00018319133 5.999001e-05 -6.096893e-07 2.8636996e-05
9.666845e-06 -2.3137945e-05 5.6357472e-05 -0.00012567478 -0.0001229716 -1.9310194e-06 6.7449946e-07 -0.00010918059
0.00012265873 3.4382818e-05 -0.0001945541 1.485713e-07 -1.4840638e-05 0.00020824034 -6.516435e-05 -5.7609424e-05
3.3092801e-06 -0.00023449771 -1.8852505e-05 -9.2475575e-06 -3.1159907e-05 3.535318e-05 0.00038460878 -9.340372e-06
-7.380228e-05 -0.00030017036 0.00014566812 -3.7364118e-06 0.00010963365 -0.00013969566 -3.1268966e-05 -0.00010525723
3.2629391e-06 0.00013544528 -3.256199e-05 7.4003874e-05 5.454324e-05 -0.00010255493 -3.2274547e-06 2.9539628e-05
4.1476273e-05 -8.416602e-06 1.7722348e-05 -1.2963561e-05 -3.129085e-05 -0.00011324018 -2.526518e-06 -4.7594935e-05
0.00024848245 0.00015696825 2.2803291e-05 2.3456148e-05 -0.00029247414 -2.3843471e-05 -3.9510014e-05 6.208041e-05
5.1131003e-05 -7.37861e-05 4.929549e-06 0.00017962418 5.110633e-05 0.00011485837 2.1091546e-05 6.743351e-05
2.2156622e-05 -0.00017216755 0.00019852651 -0.00019198413 0.00032535495 9.3677816e-05 -9.6091735e-06 2.5456364e-05
