MLagents_test1/results/CarAgent_reinforcement_6/CarAgent/CarAgent-999492.pt (torch, 580896 bytes, 28 tensors)

discrete_act_size_vector f4 [1, 2]
000000 00 00 80 40 00 00 a0 40
       4.0 5.0

network_body._body_endoder.seq_layers.0.weight f4 [512, 40]
000000 2b 48 b8 3d 18 cc 86 be 60 3b df 3d e1 69 09 3d
       0.0899814 -0.26327586 0.10899997 0.03354824
000010 ea 33 53 bd 86 af 89 3d 7d ae 6c 3d e1 1f 13 3d
       -0.05156318 0.067229316 0.057783592 0.035919074
000020 41 8a 61 be ec 01 04 bd 43 9c 92 be 24 12 95 3e
       -0.22025396 -0.032228395 -0.28634843 0.29115403
000030 b1 93 c4 3d 3c 24 80 be 74 23 2b bd f5 9b 1b 3c
       0.095984824 -0.25027645 -0.041781858 0.009497632
000040 20 ba 38 be a2 be 2d be a1 14 ae 3e 29 8a cd bc
       -0.18039751 -0.16967252 0.34000114 -0.025090294
000050 df c5 9e bd cd 66 36 be 3a 8f 0e be 91 f4 e1 3b
       -0.07752585 -0.17812653 -0.13921824 0.0068956097
000060 b3 cf 69 3c ac e3 00 3c 91 c0 09 3c c8 d1 30 3d
       0.014270711 0.007866781 0.008407728 0.043168813
000070 a5 f0 01 be 29 da 89 be c0 8c 8a 3c 37 1c 83 3e
       -0.12689455 -0.26924255 0.016912818 0.25607464
000080 aa 7a b2 3a 05 2c 50 be d0 1b 55 be 2b 49 22 3e
       0.0013616879 -0.20329292 -0.20811391 0.15848224
000090 ae 60 a8 3c 3c 46 ad bd 29 cb 89 bd fe c5 70 3e
       0.020553913 -0.08460662 -0.06728203 0.23513028
0000a0 67 07 5f be 17 bd 0f bd 66 d1 be bd a0 10 06 bf
       -0.21780168 -0.03509244 -0.09317283 -0.5236912
0000b0 6f 69 6e be 74 78 e4 bd 5f c5 ba 3e bb 43 e4 bd
       -0.23282407 -0.11155787 0.36478707 -0.11145731
0000c0 f2 e3 9e be a3 d3 0a bf 95 fe d1 bd 93 c4 e9 bd
       -0.31033283 -0.5422918 -0.10253636 -0.11414447
0000d0 72 6d 9f 3c 14 23 58 be 17 d4 24 bf 4d b1 2a be
       0.019461367 -0.21107131 -0.64386123 -0.16669197
0000e0 f9 08 9d be f5 ea 05 be 9a 3f 66 be 14 38 2f bf
       -0.30670908 -0.1307791 -0.224852 -0.68444943
0000f0 e8 3e 51 3e 6f 9e 2e bf 05 57 2c be 2b da 19 bd
       0.20434153 -0.682105 -0.1683007 -0.037561577
000100 a9 ac e3 bd 77 a9 83 3e 2a e7 25 bd a1 21 84 be
       -0.11116917 0.2571523 -0.04050366 -0.25806907
000110 15 6d 63 be de e6 fd be 5f 50 86 bd 85 19 c0 be
       -0.2220958 -0.495902 -0.06558298 -0.3751947
000120 99 ce 7f be 75 9a a7 3e bb 35 a4 be 1a fd 5f be
       -0.24981155 0.3273503 -0.32072243 -0.21873894
000130 5e fc 1c bd 33 98 19 3e 10 2d 6f 3d ee bb ce be
       -0.038326614 0.14999466 0.058392584 -0.40377754
000140 6b b8 9a bd a2 14 82 be 5f 04 41 be 80 ae bc bd
       -0.07554706 -0.25406367 -0.18849324 -0.09212971
000150 6a 14 6e 3d c8 69 88 3d 3c 28 aa 3d 57 65 1d bd
       0.058124937 0.06660801 0.08308455 -0.038426723
000160 f8 b7 74 3d 4f 7d 66 3e 2f 02 94 bd 5d 03 26 3e
       0.05974576 0.22508739 -0.07226979 0.1621222
000170 ad 0b bf 3c b1 db da bd 9e 82 ac be bb 6c 74 3d
       0.023320997 -0.10686434 -0.33693403 0.059674006
000180 96 56 74 be ab ef 8a bd b1 41 fc 3d 6f 59 2a be
       -0.23861155 -0.06783994 0.12317217 -0.16635679
000190 50 ad 7b be 3d 53 8c bd d1 f7 40 bc f5 94 f0 bd
       -0.24577832 -0.06851814 -0.011777834 -0.11747161
0001a0 3d 9f ba be 8c 64 d4 3c 2d 79 d2 be ce a4 71 bd
       -0.36449614 0.02592685 -0.41108075 -0.05899506
0001b0 6e ce 91 3e bf 4e 04 be df 80 92 bd 77 c1 4f be
       0.28477806 -0.12920664 -0.071534865 -0.20288645
0001c0 00 ef 83 be b3 da 08 be db 1a 57 be 42 44 49 3e
       -0.2576828 -0.13364677 -0.21006338 0.19654945
0001d0 6c c9 e6 bd df c1 42 be 79 a3 e5 bc 24 1e 6a be
       -0.11268887 -0.19019268 -0.028032051 -0.2286306
0001e0 ca 3d a7 3e df f5 cc be 23 7c 21 be 7f d9 dc 3b
       0.3266433 -0.40031335 -0.1577001 0.0067397947
0001f0 2c bc e0 be 98 c0 e1 bd 2d 9d 12 be 66 cd bd bd
       -0.43893564 -0.110230625 -0.1431777 -0.09267692
000200 b0 60 bc 3d 87 ea bf be e3 ce 5b bb 53 da 2b bf
       0.09198129 -0.37483618 -0.0033540062 -0.6713001
000210 96 6a 62 bd c0 60 3d 3e 7a 5f b0 bd 09 ba 68 bd
       -0.05527743 0.18493938 -0.08611961 -0.056818042
000220 3d 60 89 be b8 65 2f be 5f d0 64 3c 02 ba 6a be
       -0.26831236 -0.17128646 0.013965695 -0.22922519
000230 97 37 99 bd 14 79 16 be e0 e3 80 3e 75 0e 7f be
       -0.07481306 -0.14694625 0.25173855 -0.24907859
000240 56 0b 22 be c0 be 7d 3d a4 15 db bd 88 5a 4b be
       -0.15824637 0.06194949 -0.10697487 -0.19858754
000250 cb 62 2b be ae b5 f7 be 0d af 0f bd dd 69 96 be
       -0.16736905 -0.48380798 -0.03507905 -0.29377642
000260 75 6d 39 bd 0c a4 31 bf 4a 84 8e be 0c b8 05 bd
       -0.045270402 -0.6939094 -0.27835304 -0.032646224
000270 fc 7e 37 bd 32 18 bf 3e 86 f0 81 bc 36 3c 1e be
       -0.044798836 0.37323147 -0.01586176 -0.15452656
000280 75 03 ed bd b0 1e 86 3e be c8 20 3e bd 49 73 be
       -0.11572925 0.26195288 0.15701577 -0.23758598
000290 04 41 36 bd 67 92 df 3d ac 66 a7 bd a8 aa 8c 3d
       -0.044495597 0.10916596 -0.0817388 0.068684876
0002a0 15 91 95 bc f3 67 36 bc a6 eb 62 3e 81 9b 73 be
       -0.018257657 -0.011133182 0.22160205 -0.23789789
0002b0 62 ec 98 3e 6b 70 30 3e 7e d9 68 be 36 bf 22 3d
       0.29867846 0.17230384 -0.22739217 0.039733134
0002c0 f4 de 71 3e 17 36 81 be 43 77 16 bd 47 8e 7c be
       0.23620206 -0.2523658 -0.03673483 -0.2466365
0002d0 eb 7a 89 bd 20 ae 57 be dc 3c 99 bc a5 0c ff 3d
       -0.06712898 -0.21062517 -0.018705778 0.12453584
0002e0 88 eb 6a bc c1 99 28 be f6 e6 20 be c6 97 c7 3c
       -0.014338382 -0.16464902 -0.15713105 0.024364363
0002f0 27 c4 77 3e 2a 52 c3 be 09 20 ba 3d 70 ed 8b be
       0.2419592 -0.38148624 0.090881415 -0.27329588
000300 b4 9d 7a be 13 4c 74 3e bb 4c 2e 3d f3 ec cf be
       -0.24474221 0.23857145 0.042553645 -0.40610465
000310 18 76 c2 3b 6d d0 89 be 1e 1c c0 bc eb d1 7e be
       0.005934488 -0.2691683 -0.023450907 -0.24884765
000320 16 1b a9 be ce 19 4c be f4 89 a4 be 38 31 0e be
       -0.33028477 -0.19931719 -0.321365 -0.13885963
000330 de 1d ea be 28 2b 8c 3c 6e fd d9 be e0 ce 4b be
       -0.45725912 0.017110422 -0.42576164 -0.19903135
000340 15 e7 b2 be 5e d6 9b be 1d 25 5a bd 8f 16 2c 3a
       -0.34941927 -0.30436987 -0.05325805 0.0006564641
000350 cb 86 61 bc db bb af be 37 55 b6 be c4 2f 24 3d
       -0.013765047 -0.3432301 -0.3561189 0.040084615
000360 4a 58 ee be 76 9f ca 3d 85 8d d3 be 53 83 d1 be
       -0.46551734 0.09893696 -0.41318908 -0.40920505
000370 11 0d ac bd 43 fd a4 3c ab 26 9e bd 4c 09 ae be
       -0.0840093 0.020140296 -0.07722219 -0.33991468
000380 52 bd 9e be 28 67 21 3e 70 9a 7d be 13 6c cb 3d
       -0.31003815 0.15762007 -0.24765944 0.09932723
000390 2c 62 9f be a8 ad 19 bf ae 1c 53 3e c0 0c 11 bf
       -0.31129587 -0.60030603 0.20616409 -0.5666008
0003a0 ba 3f ae be aa 00 b7 3d 2a 46 73 be 87 00 ea 3e
       -0.34032995 0.089356735 -0.23757234 0.45703527
0003b0 22 2b 51 bd f7 e7 0f 3e df 83 3a bd 58 c6 77 3e
       -0.051066525 0.14053331 -0.04553592 0.24196756
0003c0 21 bd a8 3e 34 e2 e1 3d 70 16 3f 3e 30 5b 54 be
       0.32956794 0.11029473 0.18660903 -0.2073791
0003d0 fd cb a2 bd 47 a9 81 bd ce 12 8a be 5b cd 85 3e
       -0.07949064 -0.06331115 -0.26967472 0.26133236
0003e0 9d 28 ff 3e c8 16 34 be 8c a0 5d be 3b 5e d0 3e
       0.49835673 -0.17586815 -0.21643275 0.40696892
0003f0 4f 01 7a 3d 77 d2 f3 be 50 75 83 be ba 23 43 3e
       0.061036404 -0.4762151 -0.2567544 0.19056597

network_body._body_endoder.seq_layers.0.bias f4 [512]
000000 13 8a ae bd c0 8e 8e be 46 54 2b be 4b 73 63 be
       -0.08522429 -0.27843285 -0.16731367 -0.2221195
000010 dc f2 6f bb 83 fe 97 be b3 94 f2 3c 49 4e 8c bd
       -0.0036613261 -0.29686365 0.029611921 -0.06850869
000020 f9 e4 29 bd 38 39 a2 be 62 5f 9c 3b 61 4e 92 be
       -0.04147813 -0.3168428 0.0047721127 -0.28575423
000030 cd b2 c7 bd f8 15 b9 be 02 a4 24 bd 9f 71 81 bc
       -0.097509004 -0.36149573 -0.040195473 -0.01580125
000040 12 51 37 be c7 e4 7b bc ca d3 04 be 81 67 12 be
       -0.1790202 -0.015374369 -0.12971416 -0.14297296
000050 54 cb 0a be 07 87 53 be ae b9 a2 bd bf 9f 92 be
       -0.13554126 -0.20656978 -0.07945572 -0.28637502
000060 e8 e7 9b be 88 23 0b be 73 c1 1b be 0f 35 be bd
       -0.30450368 -0.13587773 -0.15210514 -0.09287464
000070 93 cd de bd 97 d8 5d be dc 13 e5 bd d4 c5 cd bd
       -0.10879054 -0.21664654 -0.111854285 -0.10047498
000080 1d 53 37 be c8 0f a3 bd ea 6a 14 be 0e d7 1c be
       -0.17902799 -0.079619944 -0.1449391 -0.15316412
000090 e2 90 85 be 6c 56 49 bd 03 4c 20 be 8a c6 4b be
       -0.260871 -0.049154684 -0.15653996 -0.19899955
0000a0 12 33 e9 bd 86 81 68 be 81 ca 6c bd a7 ac 62 be
       -0.11386694 -0.2270566 -0.05781031 -0.22136174
0000b0 4e b3 c9 bd 58 0e 32 be b1 fb ac be 6b 0c 09 be
       -0.09848653 -0.17388284 -0.33785775 -0.13383643
0000c0 f5 78 75 be d6 68 71 be e2 36 08 be a3 62 65 bd
       -0.23971923 -0.23575148 -0.13302186 -0.05600227
0000d0 38 f3 15 be c0 d8 91 be 47 f9 25 3d 49 bd 18 be
       -0.14643562 -0.2848568 0.040520933 -0.14915957
0000e0 dd 03 23 be ae 4e f4 bd b8 06 3d be 67 d4 73 bd
       -0.15919442 -0.119290695 -0.18459594 -0.059528735
0000f0 fd b9 16 be 96 49 6a bd ae 7e e3 bd aa 37 94 bd
       -0.14719386 -0.057199083 -0.111081466 -0.072371796
000100 1e 79 36 bd bd 68 84 3d 81 13 e9 bb 7e a1 9d bc
       -0.0445491 0.0646529 -0.0071129207 -0.019242045
000110 45 ae e6 bd b6 27 2c be 26 0d 4f be 7e 5c 74 be
       -0.11263708 -0.16812024 -0.2021986 -0.23863408
000120 24 85 22 3c d3 3e 87 be 58 cc 16 be 04 16 e3 bd
       0.0099194385 -0.2641512 -0.14726388 -0.110881835
000130 bc b0 51 bd 45 19 8d bd f6 b3 b0 3c 49 25 36 be
       -0.051193938 -0.068895854 0.021570187 -0.1778766
000140 c5 a9 9a bd 8b 63 f6 bd c9 db f8 bd ab e3 f8 bd
       -0.07551912 -0.12030705 -0.12151296 -0.12152799
000150 12 8e 0a be dc a8 76 be a5 92 b9 be b7 c7 37 be
       -0.13530758 -0.24087852 -0.36244693 -0.17947279
000160 c5 79 83 be df ac 90 3d a5 01 75 bc aa bf 8a be
       -0.2567884 0.070642225 -0.014954005 -0.27099353
000170 d6 a8 cf bd 1b 2f 00 be 46 bb 67 bd 7b 8a 09 be
       -0.10139625 -0.1251797 -0.056575082 -0.13431732
000180 26 c9 e1 bd ce c0 77 be 53 e8 d3 bc 24 aa ac bd
       -0.11024694 -0.24194643 -0.025867617 -0.08430889
000190 8f 65 64 be c6 46 94 be 96 02 a7 be 84 b4 ab bd
       -0.22304367 -0.28960246 -0.3261916 -0.0838404
0001a0 21 56 a9 be 6c 49 e8 bd f3 9d 94 be ac b0 d1 bd
       -0.33073524 -0.11342129 -0.29026756 -0.102387756
0001b0 96 69 15 bd 5d 38 85 bc a1 49 c6 be ad 99 a2 be
       -0.036477648 -0.016262228 -0.3872805 -0.3175787
0001c0 5e 64 1f be 0d 21 17 be 32 af 59 be db d1 38 be
       -0.15565631 -0.14758702 -0.21258238 -0.18048804
0001d0 a2 06 30 be a4 f6 0c bc da d9 d8 be 0a b6 9c bd
       -0.1719003 -0.008603726 -0.42353708 -0.07651909
0001e0 05 52 27 be 94 bb 6a be bd 4e 48 bd 96 2c 07 3d
       -0.16339882 -0.22923118 -0.048903216 0.033001505
0001f0 90 a6 64 be f5 2e b6 bd 21 0a d0 bd ae f2 56 be
       -0.22329164 -0.08895675 -0.10158182 -0.20991012
000200 bb 57 0e be f0 ef 93 bd 04 c3 c1 be 45 d8 03 be
       -0.13900654 -0.07223499 -0.37844098 -0.12875469
000210 68 02 01 bd 02 f8 f4 bc 2f c7 99 be 0f 9c f3 bd
       -0.031496435 -0.029903416 -0.30034778 -0.11895
000220 b6 ed e5 bd 4d 93 82 be 9e e1 06 be 25 d4 5b be
       -0.112269804 -0.25503007 -0.13172004 -0.21467645
000230 2c 25 9a be 77 10 38 bd a5 61 66 bd 40 bf 88 bc
       -0.30106485 -0.044937577 -0.056245465 -0.016692758
000240 85 89 3c be bc f9 15 be d5 7a a2 bd 60 89 9d bd
       -0.18411835 -0.14646047 -0.079335846 -0.07692218
000250 eb 4e 93 be af 70 ed bd 87 aa 8f bd 78 09 b0 be
       -0.28771147 -0.11593758 -0.070149474 -0.34382224
000260 74 db 9c bd 0c b9 cb bc db c9 5a be 0e 00 c0 bd
       -0.07659045 -0.02486851 -0.21366064 -0.093750104
000270 fd 1a ae 3b 63 5a 50 bd 25 8d 41 bd eb 7c d9 bd
       0.005313276 -0.05086745 -0.047253747 -0.10619529
000280 c2 1e a1 be 52 fe 3b be cb 42 b4 bd 1e 3d 72 be
       -0.3146878 -0.18358734 -0.08801802 -0.23656127
000290 5a e3 25 be 51 bf ae bd de 07 ff bd 4a 0b 45 be
       -0.16200009 -0.085325845 -0.124526724 -0.19242588
0002a0 7a b1 b4 bc 13 94 0a b9 b1 44 b1 be 03 5b ce bd
       -0.022057284 -0.00013215868 -0.3462272 -0.10075953
0002b0 7d 3d 10 be e0 15 10 be 47 58 af bd 11 39 62 be
       -0.14085956 -0.14070845 -0.085617594 -0.22092082
0002c0 cd 3a 53 be 54 a1 1a be 69 4e 5b bd f0 5c a9 be
       -0.206279 -0.15100604 -0.053541575 -0.33078718
0002d0 e1 49 ef 3c 9f 4f 82 be 55 4c ac be 02 3b 7f be
       0.029210033 -0.2545137 -0.33651987 -0.24924853
0002e0 3a 53 5a be 41 06 e1 bd 13 85 a3 bd 7d 83 96 be
       -0.21320811 -0.10987521 -0.07984366 -0.29397193
0002f0 05 aa 35 be 9f ea b5 be 28 5d 85 be 30 45 e8 3b
       -0.17740639 -0.35530564 -0.26047635 0.007088326
000300 51 ab d9 bd 54 a3 c6 bd aa 96 04 be 4f 40 43 be
       -0.10628379 -0.09699121 -0.12948099 -0.190675
000310 be 93 af be 78 a2 65 be 05 8c 49 3c 6d 5c a2 bd
       -0.34292406 -0.22425258 0.01230145 -0.07927785
000320 e7 d1 39 3d 73 2d cb 3a 8e 47 be be 2d b8 a7 be
       0.045366194 0.0015501216 -0.37163967 -0.32757702
000330 57 32 43 bd 9c 6a bf 3c 28 c0 96 bd 64 73 b4 be
       -0.04765543 0.023366265 -0.0736087 -0.35244286
000340 28 74 5a be 48 99 67 bd 62 ee 8f bd 06 34 83 be
       -0.21333373 -0.056542665 -0.0702789 -0.25625628
000350 d8 59 4d bd 90 55 0a be 4a fb ca bd 4f 0b 3f bd
       -0.05013451 -0.13509202 -0.09911211 -0.046641644
000360 b5 99 93 be fc 28 ca bd ef c8 f3 bc 5a a2 55 be
       -0.28828207 -0.098710984 -0.029758899 -0.20862713
000370 a7 fb 67 be 56 64 04 be ea f7 3e be 82 91 a1 be
       -0.22654592 -0.129289 -0.18649259 -0.31556326
000380 02 f8 8f be 79 54 cf bb 34 8e 39 be e3 ea 26 be
       -0.28118902 -0.0063272086 -0.18120652 -0.1630054
000390 82 73 94 be 64 c9 17 bd 6d dd 2a bd 18 07 b9 bd
       -0.28994375 -0.037057295 -0.041715074 -0.09034556
0003a0 f7 f4 dd bd 9e 6c e6 bd 1c a3 3a be af 09 bb bd
       -0.10837739 -0.11251186 -0.18226284 -0.091327064
0003b0 39 ea ce bd fb 66 30 be 62 aa 91 be b1 22 c7 bd
       -0.10103268 -0.17226784 -0.28450304 -0.09723414
0003c0 19 38 3b be be 0a a1 be 26 dd a0 be b5 c6 24 be
       -0.18283118 -0.31453508 -0.31418723 -0.16091426
0003d0 f5 4f ab be 50 45 bc bd 9d ec fa bd 25 33 61 be
       -0.3345944 -0.09192908 -0.12252162 -0.21992166
0003e0 dc f2 cf bd d1 e5 55 bd d2 7b 01 be cc 4e ca bd
       -0.101537436 -0.052221123 -0.1264489 -0.098783106
0003f0 49 4d 92 bd ac 16 43 be 31 7c 72 be 3f 49 4e be
       -0.07143647 -0.19051617 -0.23680188 -0.20145129

action_model._discrete_distribution.branches.0.weight f4 [4, 512]
000000 4a bc d6 bc b4 2f 29 bd 16 19 d8 3b 71 21 fb bc
       -0.02621283 -0.04130526 0.0065947874 -0.030655595
000010 c7 89 46 3d 5f 60 41 bc c5 b1 45 3c 78 05 34 3a
       0.04847124 -0.011802762 0.012066309 0.000686727
000020 a2 a9 81 bb e1 6f c0 bc 6f a8 2d 3e 69 51 8c 3c
       -0.0039569894 -0.023490848 0.16958784 0.017128663
000030 8e 4d a2 bd 44 88 b7 bc b3 e8 77 3c 34 e8 86 3d
       -0.07924949 -0.022403844 0.015131163 0.06587258
000040 0f 8c c7 bd 68 c3 31 3d a9 c3 f6 bc 8b 8a 56 3d
       -0.09743511 0.043399245 -0.030122595 0.05237822
000050 86 18 51 bc fa d4 01 3e c5 36 44 bd cc 3e cf bc
       -0.0127621945 0.126789 -0.047903795 -0.025298499
000060 84 86 71 3c 45 78 30 bc 38 fc 00 bd 1b df 06 bc
       0.014741544 -0.010770862 -0.031490535 -0.008231903
000070 1c a6 ff 3c 60 61 a9 bc 12 b5 62 3d 76 cb 34 3a
       0.031207137 -0.020676315 0.055348463 0.0006896773
000080 5c 6b 1c 3d e0 fb 05 bd 27 17 54 bd b8 cd d4 3c
       0.038188323 -0.03271091 -0.051779892 0.025977
000090 03 43 85 bb 18 65 55 3c f7 90 76 3c 98 a6 f4 3c
       -0.0040668263 0.013024591 0.015049211 0.029864594
0000a0 18 11 34 bd 9b 6a 60 bc a6 c1 8b bd ab 90 d6 bd
       -0.043961614 -0.013697292 -0.06824045 -0.10476812
0000b0 55 18 d9 3b d4 1f 92 ba f2 46 c1 bc 7c db 48 3d
       0.006625215 -0.0011148402 -0.0235934 0.04903744
0000c0 99 ea c4 bd 8a f0 0a be 82 7a 7e 3d e0 f4 35 3d
       -0.096150585 -0.13568321 0.06212855 0.044422984
0000d0 7d 76 6c bc 1b ef 86 bb cf 82 3c bd cc e9 a7 bd
       -0.014432547 -0.004117859 -0.046023186 -0.0819889
0000e0 02 8a 89 3b 03 84 3d 3d 1e 62 74 bb c4 1a 89 bc
       0.00419736 0.046268474 -0.0037289928 -0.016736396
0000f0 e4 46 80 3b 01 db 11 3d aa bd 2d 3c 54 a5 f3 3c
       0.003914701 0.03560925 0.0106043015 0.02974192
000100 1a 46 92 3b a9 9a e7 3c b4 95 c5 3c 0e 8a 17 3d
       0.004463923 0.02827199 0.024119236 0.036996894
000110 24 d9 b7 3d d9 a2 a3 3c bf 2c de 3b 91 be 6a bc
       0.08976963 0.019975113 0.0067802365 -0.014327661
000120 ed a5 04 bc 07 1e c8 bc c1 94 b5 3d 49 df a4 3c
       -0.0080962 -0.02442838 0.08866263 0.020126002
000130 ff b6 5a 3c 83 6a 58 3d 73 4b 60 3d 80 19 8a 3d
       0.013349294 0.052835952 0.054759454 0.06743145
000140 19 d2 23 bc 53 26 46 3c 55 ad 5f 3d 8d 7d 70 bb
       -0.009998822 0.012094098 0.05460866 -0.0036695928
000150 50 da 87 3c ef 13 5c 3b 36 62 42 bc ae b9 96 bc
       0.016583592 0.0033581217 -0.011864236 -0.018399086
000160 61 7f ab 3c 58 af 9a 3d e1 c9 b6 3c da 77 e2 3c
       0.020934762 0.075529754 0.02231306 0.02764504
000170 8d 4c 18 3d f0 4f e2 3c 5b 66 b2 bd 3f 35 20 bd
       0.03718238 0.027626008 -0.08710929 -0.03911328
000180 6d 00 1d bc ed 06 96 bc e4 cc 1e 3d 86 88 0a 3d
       -0.009582621 -0.01831385 0.038769618 0.033821605
000190 d2 aa a9 bc 44 be 03 be c5 9d 57 bd 35 7e f3 bd
       -0.020711336 -0.1286555 -0.052640695 -0.118893065
0001a0 a1 f6 95 3c 0f 99 31 3c e0 48 b1 3c 44 dc 12 bc
       0.018306078 0.010839715 0.021641195 -0.008963648
0001b0 8d 6c 5c 3b d9 1e ab 3c ca 6f c7 3c 8d 1f 98 bd
       0.0033634037 0.020888733 0.024345297 -0.07427893
0001c0 4a 5a 54 bd b5 c2 08 3d aa a1 68 bd ff a3 27 bb
       -0.05184392 0.033388812 -0.0567948 -0.0025579927
0001d0 33 04 80 bc 17 c9 2d bc 95 e8 ac bc a5 fe 0f 3b
       -0.015627002 -0.010607026 -0.021106998 0.0021971848
0001e0 20 0b 44 bd 0b 80 84 bb 27 7d 3b bc 11 89 82 3c
       -0.047862172 -0.004043584 -0.011443413 0.015934499
0001f0 97 08 b0 bc 5e 43 16 bd db d9 66 3b 4d f4 17 3e
       -0.021488471 -0.03668534 0.0035225067 0.14839287
000200 13 37 55 3d eb 4d 17 bd 0e 13 98 bb ba e0 5d bc
       0.052054476 -0.036939543 -0.0046409434 -0.0135423485
000210 ee e2 49 3d f0 5a e4 bc bf 7f 23 bd 86 89 9e 3c
       0.049288683 -0.027875394 -0.03991675 0.019352686
000220 3a 77 64 bd 36 64 39 3c be 97 5e bd c4 fd 88 bc
       -0.055777766 0.011315396 -0.05434393 -0.016722567
000230 dc 0f bf 3b b8 da e5 3c d9 c2 f0 bb 89 e7 85 3c
       0.005830748 0.028058395 -0.0073474464 0.016345756
000240 25 ba a5 3d 2e a0 5a 3d 52 be a5 bc 59 d5 1f bb
       0.08092145 0.053375416 -0.020232353 -0.002438864
000250 ea a3 56 bd e1 a4 33 3c 7c 22 e5 3b a8 db 59 3c
       -0.052402414 0.010964603 0.0069926362 0.013296999
000260 10 73 08 3a c3 b8 da 3c 2e c8 0f 3c b7 8f bb bc
       0.0005205134 0.02669943 0.008775754 -0.022895677
000270 c3 b4 df bb 4b 10 69 3d ec 15 a0 3d 2d 16 4d 3c
       -0.0068269684 0.056900304 0.07816681 0.012517494
000280 98 3e d4 bd 62 d1 b3 3d 3f 87 0a ba 8d 33 aa bd
       -0.10363501 0.08780171 -0.00052844355 -0.08310614
000290 9e 03 10 bd 34 19 66 39 55 3e d9 bc d9 5a 35 bc
       -0.0351597 0.00021943898 -0.02651898 -0.011069023
0002a0 c7 3a 45 bd 74 26 7a bd 83 cc d4 bd 4d a1 a2 bd
       -0.048151758 -0.061071828 -0.1039057 -0.07940922
0002b0 53 ef 36 bd 4e e9 1b bd 0a 8a 6e 3d ce 2a 37 bc
       -0.04466183 -0.038064294 0.058237113 -0.011179639
0002c0 d5 64 23 bd 6e 5c 8b 3b 20 3a c9 3c 32 8a 5d bc
       -0.039891083 0.004252962 0.024563849 -0.013521718
0002d0 ed be dd 3c c3 59 11 bd 56 36 cb bb 56 dc 92 bc
       0.02706858 -0.035485994 -0.0062015457 -0.01792733
0002e0 93 fc 40 bc 1f 8f 8c 3d 1c 4e 3b bb bd 39 a6 bd
       -0.011778968 0.06863236 -0.0028580492 -0.081164815
0002f0 26 99 8e 3d 7d ea 8b bd c8 d9 a7 bc 99 c1 ae 3c
       0.069628045 -0.068318345 -0.020489588 0.021332549
000300 4f c6 78 3d 39 3d 2a 3c c1 38 c0 bb 44 ef 06 bd
       0.060735997 0.010390573 -0.0058661406 -0.032943025
000310 1c af eb bc df 7a 1d 3c a4 5a 5f bc f1 22 68 3c
       -0.028770022 0.009611814 -0.01363245 0.014168487
000320 ac da 11 bc 8e a8 05 3e 89 09 a8 bd 64 7c c0 3c
       -0.008902233 0.1305258 -0.08204944 0.023496814
000330 a8 4d a5 39 d1 63 08 bd 9f b4 b2 3c e5 b8 31 bd
       0.0003152911 -0.033298317 0.021814642 -0.04338922
000340 4e 06 ee 3c 4e 30 33 3d 52 ab e9 bb 72 a3 08 3d
       0.02905574 0.04374724 -0.0071310187 0.033359
000350 6a 25 14 3d ee aa 82 3d 2f c9 bf bc f4 bd 17 bd
       0.036168493 0.063802585 -0.023411362 -0.037046388
000360 2f 65 a2 3b 24 38 11 be 3f 57 4c 3c 00 f1 06 bd
       0.0049559097 -0.14181572 0.012471973 -0.03294468
000370 bd 57 66 bc d9 b3 b8 bc ae 6a 4c 3d 6a 93 5d bc
       -0.014059004 -0.022546696 0.049906425 -0.013523916
000380 73 36 1d 3c 9b 34 07 3e 01 44 9b bd 62 64 1d 3d
       0.009595501 0.13203661 -0.0758133 0.03842581
000390 3e 6d 6a bc 56 03 4a 3d 1f 19 75 3d dd 2c 3e 3e
       -0.014308272 0.049319588 0.05983841 0.18571801
0003a0 98 7c f7 3c dd d3 99 3c 8f d6 94 bd 22 37 cb 3d
       0.030210778 0.018777782 -0.07267486 0.09922625
0003b0 b8 67 72 3d b0 2d 60 3d ed c9 a6 bc 52 ae e6 3c
       0.059180945 0.05473107 -0.020359958 0.028159294
0003c0 7b b5 2e bc 37 54 ad 3d ab da 41 bd 32 b4 bc 3b
       -0.0106633855 0.08463328 -0.04732768 0.0057587856
0003d0 d9 73 0b bd d3 a5 e5 3d 72 db 10 3d e3 f5 10 bd
       -0.034046028 0.11213269 0.03536553 -0.035390746
0003e0 e9 c2 04 bd 35 0c 82 3d 10 e9 4c bd 97 77 8d 3c
       -0.032412443 0.063499846 -0.050026953 0.017268939
0003f0 8c 16 e8 3d e1 74 9d 3d 89 c5 28 bd 95 60 51 bd
       0.113324255 0.076883085 -0.04120401 -0.0511175

action_model._discrete_distribution.branches.0.bias f4 [4]
000000 52 dd 0b 3d 07 e5 9e 3b 35 c4 c3 bd d9 58 a1 3d
       0.034146614 0.0048490795 -0.09558908 0.078782745

action_model._discrete_distribution.branches.1.weight f4 [5, 512]
000000 e7 38 6b bd cc 12 8b 3a f7 31 6d bd c7 27 82 3d
       -0.057427313 0.001061046 -0.05790898 0.06355243
000010 49 d0 7e 3b 28 90 f9 bc f0 0e c2 3b 51 be 21 3d
       0.0038881472 -0.030464247 0.005922191 0.03948814
000020 59 e7 4f bc 6c 9d 8a 3b f7 3c 7a 3d d1 24 b8 bd
       -0.012689435 0.004230192 0.061093297 -0.08991397
000030 c9 45 11 bd 87 10 02 3c a2 f9 fb bd 5b f8 9f 3d
       -0.035466943 0.007938511 -0.12303473 0.07811042
000040 cc 5b 06 3d ce ce f4 3d 7d 09 bb bb aa 8e 22 bb
       0.032802388 0.11953507 -0.005707918 -0.0024804273
000050 61 64 38 3d c9 f7 3c 3c f9 0f c3 bc 85 33 13 bd
       0.045017604 0.011533686 -0.023811327 -0.035937805
000060 b8 f7 9a 3b 0e cf 7f 3d bd 6c 0b 3d 71 89 99 bb
       0.0047292374 0.062453322 0.034039248 -0.0046855737
000070 02 99 22 bd a3 cd 17 bc 8a 56 77 bc 0e ed 6c 3a
       -0.0396967 -0.009265336 -0.015096316 0.00090380094
000080 69 f0 84 3c 48 10 27 bd e2 55 fb 3c cc 98 22 bd
       0.016227918 -0.04078701 0.0306806 -0.0396965
000090 1b 08 87 3c 12 5b 8b bc 9b 26 d1 3c 22 4f bc 3d
       0.016483357 -0.0170112 0.025531104 0.09194781
0000a0 ef be dd bc 07 f1 4e 3c 1e 00 e0 3c 77 92 13 bd
       -0.027068583 0.012630708 0.027343806 -0.03602835
0000b0 a0 84 37 3d 84 db 29 bd 4f a8 ff bc d4 2a 67 3d
       0.044804215 -0.041469112 -0.031208185 0.05643733
0000c0 54 f3 b1 3d 42 93 76 3d 23 fc cd bc 97 18 5e bb
       0.08688989 0.06019903 -0.025144642 -0.0033889168
0000d0 6c 6e 81 bd 35 1d 74 3c c1 6d 88 3d 04 0d 26 bd
       -0.063198894 0.014899542 0.06661559 -0.040539756
0000e0 76 ae 62 3c a7 51 a8 bc 0e 64 38 bc f3 b6 8a bc
       0.01383554 -0.020546747 -0.011254324 -0.01693294
0000f0 4a e5 60 bc 8d 45 ea 3c 86 0a 21 bd d1 29 d0 3c
       -0.013726542 0.028597618 -0.039316677 0.025410565
000100 37 45 46 bc e9 99 70 3d 0e 59 09 3d b4 eb 61 bd
       -0.012101463 0.05874053 0.033532195 -0.055156425
000110 02 0b 1c 3d 6f d0 07 3c ed f9 c9 bd 48 d6 99 3c
       0.038096435 0.008289441 -0.09862123 0.018778935
000120 c0 b0 cb 3d 55 0a 67 3b 22 9c 0f bd 74 87 5a bd
       0.09945822 0.003525396 -0.03506101 -0.053351834
000130 b9 a6 83 3d e0 80 7a 3c ea c3 7b 3d 37 9c 0d bc
       0.06428284 0.015289515 0.061466135 -0.008643202
000140 61 02 86 3d 9e d4 32 3d 67 ab 6b 3d 88 ec f2 3c
       0.065434225 0.0436598 0.05753651 0.029653803
000150 ae 2d 99 3d 9c b8 ec bc b5 9a 53 bd b1 b3 fd 3b
       0.07479416 -0.028896622 -0.051661212 0.007742368
000160 d9 82 82 3c b3 84 85 3d e0 9b 44 3d f4 2a a8 3d
       0.015931534 0.06519451 0.048000216 0.08211318
000170 a1 4c 73 bd a9 1b 75 3c a2 77 52 bd 3b 9b f2 bc
       -0.05939925 0.014960208 -0.051383622 -0.029615035
000180 1b 9e 48 3d 9d 6d b1 bd 7c 4d fd 3d e9 ee c7 3c
       0.048978906 -0.08663485 0.123682946 0.024405913
000190 19 94 75 bd 69 4b 9c bd 25 03 3e bd bc 2b 35 3b
       -0.05995569 -0.07631571 -0.046389718 0.0027644476
0001a0 ed 58 91 bd ad 5c 0f bd 3e cc 62 bc 6e 37 39 bd
       -0.07097039 -0.035000492 -0.01384264 -0.045218877
0001b0 b2 97 ad 3d 3c 94 4e 3d 5d c1 57 3d d5 4b 76 bc
       0.08476199 0.050434336 0.05267464 -0.015032728
0001c0 47 04 1e bc c0 07 35 bd af 8f 88 bd 15 f5 14 3d
       -0.0096445745 -0.044196844 -0.066680305 0.03636654
0001d0 c7 41 9c bd 30 da 10 3d ce d3 ed 39 8a 10 08 bd
       -0.076297335 0.03536433 0.0004536197 -0.033218898
0001e0 f5 d2 8a bd d9 d1 8d bd a7 7f 40 3c e2 86 c3 3d
       -0.06778518 -0.06924791 0.011749185 0.09547211
0001f0 54 77 bf bc 9f 81 c5 bd 60 ff b8 3c 08 00 00 3d
       -0.02337233 -0.09643864 0.02258271 0.03125003
000200 a0 75 07 bd 5d 91 6d bd b1 97 19 3c e2 9e 65 bd
       -0.03307116 -0.057999957 0.009374545 -0.056059726
000210 69 40 8d 3a f7 39 84 3d 9f 8a 49 3a 91 fe 49 bb
       0.0010776642 0.064563684 0.00076881977 -0.00308219
000220 45 a9 4e 3c 8f e6 39 bd 55 7f f3 bc 05 da 3d 3d
       0.012613599 -0.045385893 -0.029723803 0.046350498
000230 f3 89 66 bd 98 ad be bc ef 00 13 3d 25 93 31 3d
       -0.056283902 -0.023276135 0.035889562 0.04335322
000240 5d 07 3a 3c fc 30 c2 3b aa 17 65 3b ae ca 13 3d
       0.011354295 0.0059262495 0.0034956732 0.036081962
000250 2d 41 51 bc 5e 66 42 bd e7 fd b8 bc 93 15 0c 3d
       -0.012771887 -0.047460906 -0.022582008 0.034200262
000260 52 5b cd 3d ee f5 9c bd 3e 91 8e 3c 3c 33 01 bd
       0.100271836 -0.07664095 0.017403241 -0.031543
000270 ed ed 5e bc a4 20 0b 3d 6e 40 d0 3d 6a 99 0d bd
       -0.013606531 0.033966675 0.10168539 -0.034570135
000280 74 80 61 3d bf 31 5c 3d a4 70 fa bc 39 60 61 3d
       0.055054143 0.05375838 -0.03057129 0.055023406
000290 6a 7d 90 bd b5 21 17 3d f5 75 2e bd 3f f3 81 3c
       -0.07055171 0.03689738 -0.04259296 0.01586306
0002a0 e2 72 4a 3d e8 9d 5a bd 2d 6e e4 3c 3c c4 0c 3a
       0.049425967 -0.053373247 0.027884567 0.00053698174
0002b0 41 0d 81 bd c4 05 48 bd 79 3f ea bb 3f 31 09 bd
       -0.06301356 -0.048833624 -0.00714868 -0.03349423
0002c0 9d 89 0b 3d 8a 58 1c ba c6 6b 2b bd ee 07 c3 bd
       0.034066785 -0.0005964121 -0.041850828 -0.09522997
0002d0 1e e8 99 bd 35 6f 85 3d 96 99 16 bc e6 19 fc 3c
       -0.07514976 0.06515352 -0.009191891 0.030774068
0002e0 10 b2 ed bc 59 b7 df bb 56 eb 08 bd f3 e3 8e bb
       -0.02901557 -0.0068272767 -0.03342756 -0.0043606698
0002f0 c4 04 23 3d 3b f7 85 bd 02 5a 2c bd dc 35 5f 3d
       0.039799467 -0.06541296 -0.042078026 0.054494724
000300 2f 6c 45 bd 7a d1 a8 3b c5 42 a6 3c b9 e4 75 bd
       -0.048198875 0.0051519247 0.02029551 -0.06003258
000310 81 63 9b bd 83 18 32 3d 3a 56 6e bc ef 40 da bc
       -0.07587338 0.043480407 -0.014546925 -0.02664229
000320 d4 41 dc ba d6 9a 30 3d 82 c1 2f bd 65 1e 32 3d
       -0.0016804286 0.043116413 -0.042909153 0.043486018
000330 dd 96 1e 3d 05 fe 55 bd 31 d2 14 3d 04 2e 2f bd
       0.038718093 -0.052244205 0.036333267 -0.042768493
000340 94 bf 25 3d 48 90 03 3e 6f ee ea bc 73 c9 b0 bc
       0.040465906 0.12848008 -0.028678147 -0.021580433
000350 db 04 93 bd 6b e4 61 bc 3c f0 d6 bb 50 be 6b 3d
       -0.071786605 -0.013787369 -0.0065594 0.057554543
000360 37 16 9b 3c 4a 02 99 3c 96 46 46 bd 16 52 78 3d
       0.018931491 0.01867785 -0.04840716 0.06062516
000370 a1 72 15 3e 3c 1b eb 3c 15 8a 56 3c fd f8 b9 3d
       0.14594509 0.02869951 0.013094445 0.09080694
000380 9b 16 2e 3d 09 d5 01 bc 2c ab cc bc 3a 79 ef 3c
       0.042502027 -0.007924327 -0.024983965 0.02923261
000390 2f d6 c0 bd eb b6 3e 3d ba c8 24 3d 24 53 4d 3d
       -0.09415852 0.046561163 0.04023049 0.050128117
0003a0 80 a8 90 bd 57 25 1f bd 9b 19 29 bd b3 e3 24 3d
       -0.07063389 -0.03885397 -0.041284185 0.040256213
0003b0 01 44 5b 3a ed 33 60 3d 8e b0 1b bd 4f 8f fc 3d
       0.00083643204 0.05473702 -0.038010173 0.123320214
0003c0 8a 72 0f bd ff 08 f3 3d ae b2 b3 bc 9e 85 07 bd
       -0.035021342 0.1186695 -0.021935787 -0.03308641
0003d0 2e 01 9f bb 1b 1b 89 3d a3 7d cf 3d 0c 87 34 bd
       -0.0048524356 0.06694623 0.10131385 -0.044074103
0003e0 75 55 ab 3c 05 85 85 3b fb 1a 9d bd 01 c0 04 bc
       0.020914773 0.004074695 -0.07671162 -0.008102418
0003f0 1d de f8 3b 51 c4 7b 3d 74 84 a9 3c ae 15 51 3d
       0.0075948373 0.06146652 0.020693041 0.051046066

action_model._discrete_distribution.branches.1.bias f4 [5]
000000 a4 fe a3 3c 79 b5 bf 3c 1f 5e 37 3d 6e 39 70 3c
       0.020018883 0.023401963 0.044767495 0.01466213
000010 47 77 86 bc
       -0.016414298

exp_avg f4 [512, 40]
000000 00 00 00 00 3d 54 6a 38 1a 29 0e b6 d6 46 f7 b6
       0.0 5.58684e-05 -2.1183573e-06 -7.36942e-06
000010 1e 96 ee 37 00 00 00 00 58 b4 99 37 4a db 33 36
       2.8441715e-05 0.0 1.8323e-05 2.6800722e-06
000020 dc e1 d4 37 64 6e 0c 38 00 00 00 00 49 1b 20 38
       2.5377543e-05 3.348141e-05 0.0 3.8172384e-05
000030 40 a0 1f 35 28 78 ff 36 97 21 e5 37 00 00 00 00
       5.946531e-07 7.6135802e-06 2.7314569e-05 0.0
000040 c6 da 52 37 4b 82 99 b4 1f 05 0f 38 8d bc 1e 38
       1.2567913e-05 -2.859327e-07 3.4098626e-05 3.7845737e-05
000050 00 00 00 00 b9 1a 1e 38 bc 4b 8d b6 42 5e 58 37
       0.0 3.7695023e-05 -4.210944e-06 1.2896549e-05
000060 a5 e8 d1 37 00 00 00 00 85 30 20 37 a2 ba 5f 36
       2.5023075e-05 0.0 9.54804e-06 3.3338224e-06
000070 02 81 0c 38 45 44 29 38 00 00 00 00 b8 83 0f 38
       3.349875e-05 4.035632e-05 0.0 3.421653e-05
000080 b8 43 9c b5 cc 9c 5f 37 36 e5 e1 37 f6 bc dd 37
       -1.1642614e-06 1.3328343e-05 2.6928825e-05 2.6433245e-05
000090 ec f5 37 39 4c eb 0d 37 df 0d 13 39 95 9c ee 36
       0.00017543853 8.459039e-06 0.0001402418 7.1111813e-06
0000a0 00 00 00 00 6e 61 61 35 f7 8b 30 37 14 fb 69 36
       0.0 8.396081e-07 1.0523006e-05 3.4865852e-06
0000b0 8f f6 17 37 00 00 00 00 cc 41 a9 35 f6 e1 27 37
       9.057708e-06 0.0 1.2610631e-06 1.0006586e-05
0000c0 97 5a 70 36 f2 a8 24 37 00 00 00 00 f4 f5 6e 36
       3.5815517e-06 9.814497e-06 0.0 3.5607927e-06
0000d0 cb fa e0 36 e7 cb 99 36 e4 10 19 37 00 00 00 00
       6.7049164e-06 4.5834927e-06 9.123443e-06 0.0
0000e0 a7 97 d7 36 fe 3f 26 37 e5 57 c7 b5 a4 58 f5 36
       6.425154e-06 9.90927e-06 -1.4852236e-06 7.311888e-06
0000f0 00 00 00 00 eb 14 8a 36 3e 39 aa 36 82 f3 bd 36
       0.0 4.1151557e-06 5.0730587e-06 5.660987e-06
000100 c4 ba 4d 37 00 00 00 00 5a bd f3 36 f8 96 14 37
       1.2262437e-05 0.0 7.2640078e-06 8.856638e-06
000110 86 a6 aa b5 29 d6 35 37 00 00 00 00 5d 0a ed b5
       -1.2714452e-06 1.0838304e-05 0.0 -1.7660892e-06
000120 a7 9c 00 37 75 25 16 37 94 46 62 37 2a ad 29 37
       7.665868e-06 8.949418e-06 1.34870825e-05 1.0113503e-05
000130 31 f5 9b 38 55 7b eb b6 aa 96 6a 39 a9 fb 2a 37
       7.4366464e-05 -7.0179035e-06 0.00022372106 1.0191384e-05
000140 00 00 00 00 ba d3 cb b6 f9 d6 dc 35 68 e2 41 36
       0.0 -6.0745197e-06 1.6453843e-06 2.8891027e-06
000150 f1 94 14 37 00 00 00 00 9d 7f b0 b7 6d 89 e0 36
       8.856166e-06 0.0 -2.104026e-05 6.6917187e-06
000160 21 e4 56 37 3e 54 18 37 00 00 00 00 01 85 69 b7
       1.2808509e-05 9.07952e-06 0.0 -1.391885e-05
000170 96 3a 34 36 f0 9f 22 37 e3 d9 60 36 00 00 00 00
       2.6856192e-06 9.693191e-06 3.3505428e-06 0.0
000180 a0 61 48 b6 70 f5 85 b4 71 8d e3 35 04 57 8a b4
       -2.9859148e-06 -2.495176e-07 1.6953983e-06 -2.5767815e-07
000190 00 00 00 00 a6 87 1c b7 41 e4 25 36 66 70 b2 36
       0.0 -9.329908e-06 2.4719777e-06 5.3178983e-06
0001a0 cc 12 e4 b5 00 00 00 00 03 8e e1 b6 76 83 72 36
       -1.6992794e-06 0.0 -6.722055e-06 3.613733e-06
0001b0 fb 7d d2 35 2f 15 04 b6 00 00 00 00 1a 1d 98 35
       1.5682884e-06 -1.9681863e-06 0.0 1.1333352e-06
0001c0 d6 50 e3 36 72 82 1e b7 ce 11 e5 b6 00 68 de 34
       6.7745377e-06 -9.4479055e-06 -6.8268046e-06 4.1426392e-07
0001d0 8e 1c d7 b6 a4 9d b7 b5 60 49 08 b8 0d 46 2d 37
       -6.4108235e-06 -1.3680442e-06 -3.2493263e-05 1.03279135e-05
0001e0 00 00 00 00 52 a0 a0 b7 d9 90 92 37 fb ac 22 b5
       0.0 -1.9148141e-05 1.7472006e-05 -6.060142e-07
0001f0 b4 93 42 b7 00 00 00 00 a3 4c af b7 ec 1e 5e 37
       -1.1597691e-05 0.0 -2.0897312e-05 1.3239431e-05
000200 3d 61 b4 36 19 87 b1 b6 00 00 00 00 0a e3 29 37
       5.375738e-06 -5.2907385e-06 0.0 1.0126047e-05
000210 25 83 99 37 c5 cc 00 b8 e8 84 39 b7 00 00 00 00
       1.830009e-05 -3.0708285e-05 -1.1057804e-05 0.0
000220 14 43 99 b6 40 61 17 37 ef 12 e2 b6 fc b3 a5 b6
       -4.5675642e-06 9.022944e-06 -6.737529e-06 -4.938336e-06
000230 00 00 00 00 a9 b4 86 b6 6a 14 26 37 d2 03 09 b7
       0.0 -4.014543e-06 9.899124e-06 -8.166726e-06
000240 80 f3 90 b6 00 00 00 00 44 12 af b4 0e 75 52 36
       -4.3198816e-06 0.0 -3.260958e-07 3.1360573e-06
000250 d9 dc aa b6 58 2c 9d b6 00 00 00 00 30 74 26 b7
       -5.092105e-06 -4.684127e-06 0.0 -9.921423e-06
000260 62 44 03 37 00 7c 46 b4 94 75 0d b6 e8 69 ad b5
       7.82413e-06 -1.8485298e-07 -2.1079077e-06 -1.2920327e-06
000270 8f 71 5f 38 49 3a db 35 89 f8 40 b9 6e 89 40 b6
       5.3273103e-05 1.6333735e-06 -0.00018403133 -2.8690224e-06
000280 00 00 00 00 4a 96 eb b6 72 0b f8 b8 d5 d7 10 37
       0.0 -7.0210417e-06 -0.000118276934 8.633321e-06
000290 67 36 24 b8 00 00 00 00 33 45 4c b7 bd 18 b9 b8
       -3.9151313e-05 0.0 -1.2175459e-05 -8.826095e-05
0002a0 d7 21 88 b7 d9 53 51 b8 00 00 00 00 5b 99 9c b8
       -1.6228221e-05 -4.9907572e-05 0.0 -7.467224e-05
0002b0 44 84 73 b8 88 c6 86 37 08 bf 6b b8 00 00 00 00
       -5.8058897e-05 1.6066493e-05 -5.6206278e-05 0.0
0002c0 66 36 eb b6 03 84 8b b8 e4 e4 34 b8 be 68 95 b8
       -7.0098786e-06 -6.6526256e-05 -4.3128515e-05 -7.1243834e-05
0002d0 00 00 00 00 05 d1 9f b7 2b c2 c7 b7 10 c5 9a b8
       0.0 -1.905161e-05 -2.3813065e-05 -7.379998e-05
0002e0 aa ae b5 b8 00 00 00 00 c2 8a 62 37 b3 ae ad b8
       -8.663286e-05 0.0 1.3502957e-05 -8.281823e-05
0002f0 00 99 46 b8 c6 81 96 b8 00 00 00 00 88 96 30 b7
       -4.734937e-05 -7.1767296e-05 0.0 -1.0525466e-05
000300 6b f7 c5 b7 32 19 ad b8 40 62 cc b8 6e bc 74 b8
       -2.3599443e-05 -8.253976e-05 -9.7457785e-05 -5.8349622e-05
000310 68 6c 03 39 19 8a 02 38 6e 47 ab 3a d1 e9 0e 38
       0.00012533518 3.112303e-05 0.0013067552 3.4073197e-05
000320 00 00 00 00 20 d0 98 37 98 83 bd b4 48 e8 43 b5
       0.0 1.8216728e-05 -3.529974e-07 -7.2981175e-07
000330 31 d8 39 37 00 00 00 00 bc 6d 4e 37 86 1e 5d 35
       1.1077195e-05 0.0 1.2304106e-05 8.2373333e-07
000340 f5 6b 86 36 fb 86 41 37 00 00 00 00 13 e8 75 37
       4.006079e-06 1.1535124e-05 0.0 1.4657172e-05
000350 0e 03 12 b6 9c 1c 9c 36 34 3a 1d 37 00 00 00 00
       -2.1757473e-06 4.652493e-06 9.371481e-06 0.0
000360 24 ba 9f 36 70 0c 2a 35 c5 f7 44 37 b6 dd 7c 37
       4.760239e-06 6.3348034e-07 1.1740199e-05 1.5071992e-05
000370 00 00 00 00 79 a0 54 37 06 bf 82 35 0b f5 69 36
       0.0 1.2673548e-05 9.74135e-07 3.486234e-06
000380 d3 35 0d 37 00 00 00 00 20 46 1f 34 f8 ab 16 35
       8.416787e-06 0.0 1.483354e-07 5.61296e-07
000390 e2 c6 89 37 7d 37 8a 37 00 00 00 00 9d 5c 4a 37
       1.6424285e-05 1.647672e-05 0.0 1.2061701e-05
0003a0 ff ca 3a b5 65 8b c1 36 33 cf 30 37 03 ab 44 37
       -6.95858e-07 5.768076e-06 1.053866e-05 1.1722327e-05
0003b0 1e 0b 34 38 35 93 91 36 f7 fe 9b 38 39 9a 85 37
       4.2925698e-05 4.338474e-06 7.438467e-05 1.5926651e-05
0003c0 00 00 00 00 98 9b 83 38 79 51 38 39 c6 98 63 b8
       0.0 6.2755484e-05 0.00017577958 -5.42633e-05
0003d0 db 27 c9 38 00 00 00 00 aa 9d d3 b5 f6 43 e9 38
       9.5918505e-05 0.0 -1.5766611e-06 0.000111229645
0003e0 a9 7c 9c 38 dc d8 eb 38 00 00 00 00 ea 41 80 36
       7.4618794e-05 0.000112460664 0.0 3.8223707e-06
0003f0 31 a7 21 39 a3 7e dc 37 37 8e ef 38 00 00 00 00
       0.0001541644 2.6285014e-05 0.00011422898 0.0

exp_avg_sq f4 [512, 40]
000000 00 00 00 00 eb 83 67 32 51 f0 94 31 a4 f2 20 31
       0.0 1.3475964e-08 4.3346877e-09 2.342099e-09
000010 e2 3a 02 32 00 00 00 00 c4 26 44 32 63 17 4b 31
       7.580384e-09 0.0 1.1417516e-08 2.9553682e-09
000020 ab 37 b3 31 25 6f 3f 32 00 00 00 00 41 5a 84 32
       5.2159144e-09 1.1142935e-08 0.0 1.5407865e-08
000030 ff 00 81 31 71 7e 97 30 54 cc c4 31 00 00 00 00
       3.7545074e-09 1.1022633e-09 5.72758e-09 0.0
000040 15 b0 89 31 1d 08 99 30 ac 22 84 32 b4 0d 97 32
       4.007243e-09 1.1134521e-09 1.538259e-08 1.7584945e-08
000050 00 00 00 00 50 10 6f 32 8a 05 86 31 9a 70 1d 31
       0.0 1.391534e-08 3.900543e-09 2.2910513e-09
000060 16 21 d0 31 00 00 00 00 13 fd 2f 31 57 23 85 30
       6.057358e-09 0.0 2.5609708e-09 9.687068e-10
000070 dc 5d 90 32 c1 23 9f 32 00 00 00 00 c6 23 6d 32
       1.6806489e-08 1.8526295e-08 0.0 1.380335e-08
000080 20 52 7d 31 74 f0 2f 31 06 6d 0b 32 51 a9 0a 32
       3.6863028e-09 2.5602533e-09 8.115654e-09 8.071155e-09
000090 07 4a 19 34 82 b2 2d 31 55 43 2e 36 35 51 8c 32
       1.4276166e-07 2.5276283e-09 2.5967213e-06 1.6335074e-08
0000a0 00 00 00 00 6d e3 31 31 78 a6 7b 30 41 c0 5c 32
       0.0 2.5886167e-09 9.1549834e-10 1.2849399e-08
0000b0 3a 18 72 32 00 00 00 00 9a dc 65 31 c2 ad bd 31
       1.4091762e-08 0.0 3.3449283e-09 5.520378e-09
0000c0 34 9c 02 32 0f 73 3f 32 00 00 00 00 fd 86 00 31
       7.602512e-09 1.11438245e-08 0.0 1.8703183e-09
0000d0 1d 04 01 31 e5 03 58 32 09 0a 77 32 00 00 00 00
       1.8774309e-09 1.257374e-08 1.4379574e-08 0.0
0000e0 d8 e4 a9 31 75 bf 27 32 6f 28 cb 30 f4 e3 03 32
       4.944564e-09 9.764212e-09 1.4781686e-09 7.677034e-09
0000f0 00 00 00 00 26 97 22 31 4e 0b d9 31 46 3a 04 32
       0.0 2.366002e-09 6.3168164e-09 7.696661e-09
000100 92 5e 50 32 00 00 00 00 6e 0c 97 31 e8 a7 3b 32
       1.2128696e-08 0.0 4.3960915e-09 1.092301e-08
000110 75 95 96 30 e5 54 c5 31 00 00 00 00 92 67 02 31
       1.0956415e-09 5.743106e-09 0.0 1.8976363e-09
000120 47 da 34 32 4a 67 88 31 eb d5 24 32 b4 bf 69 32
       1.05270095e-08 3.9698635e-09 9.594696e-09 1.3605973e-08
000130 6b d0 40 36 7c 07 5e 33 7e d9 55 39 00 d5 87 32
       2.8731545e-06 5.169521e-08 0.00020394285 1.581293e-08
000140 00 00 00 00 29 b0 d5 32 a3 5c ff 31 c7 03 bb 31
       0.0 2.4876572e-08 7.4320083e-09 5.4428457e-09
000150 02 4f 99 32 00 00 00 00 f6 25 91 32 6e c7 8f 31
       1.7847473e-08 0.0 1.6897484e-08 4.1845203e-09
000160 aa c1 91 32 33 38 e7 32 00 00 00 00 a4 f0 e8 32
       1.696829e-08 2.6917496e-08 0.0 2.7117785e-08
000170 fd 5e ed 31 fc 20 95 31 ea a9 58 32 00 00 00 00
       6.9084067e-09 4.3402206e-09 1.2611489e-08 0.0
000180 a8 76 1a 32 90 cb 20 31 34 6a e8 32 98 e1 0f 33
       8.990959e-09 2.3398776e-09 2.705665e-08 3.349996e-08
000190 00 00 00 00 4a 30 dd 32 83 74 fe 31 0b 3f a1 31
       0.0 2.5749745e-08 7.405619e-09 4.692884e-09
0001a0 03 a5 51 32 00 00 00 00 b8 3d 71 31 9f 51 02 31
       1.22029205e-08 0.0 3.5105199e-09 1.8963886e-09
0001b0 92 33 10 33 e5 3f 1a 33 00 00 00 00 b6 2a d7 32
       3.3574516e-08 3.591403e-08 0.0 2.5048717e-08
0001c0 d1 ce f4 31 96 c9 bb 31 92 38 7e 32 00 03 95 32
       7.124847e-09 5.465334e-09 1.47976085e-08 1.7347247e-08
0001d0 13 2d e7 35 9a 6c 3a 32 96 1c 46 37 91 2b 15 33
       1.722396e-06 1.0851318e-08 1.1808375e-05 3.473139e-08
0001e0 00 00 00 00 a9 7a 09 32 82 0f 5d 31 7c d1 be 31
       0.0 8.002339e-09 3.2168548e-09 5.5535434e-09
0001f0 6c 79 1b 32 00 00 00 00 86 86 f2 31 19 c0 48 31
       9.049796e-09 0.0 7.0584205e-09 2.9213025e-09
000200 2e 8d d2 31 2c da 1b 32 00 00 00 00 59 73 f6 31
       6.1278547e-09 9.071794e-09 0.0 7.172656e-09
000210 b0 84 6f 31 91 ce bd 31 d0 e4 12 32 00 00 00 00
       3.4854502e-09 5.524108e-09 8.550344e-09 0.0
000220 e5 86 e2 31 10 56 3f 31 e2 43 df 31 65 b2 31 32
       6.5928014e-09 2.784308e-09 6.4978716e-09 1.0343318e-08
000230 00 00 00 00 6c af e9 31 2b c3 7f 31 a7 05 c1 31
       0.0 6.8011357e-09 3.7218324e-09 5.617682e-09
000240 a4 15 10 32 00 00 00 00 d8 69 b7 31 0e d5 4f 31
       8.386824e-09 0.0 5.338034e-09 3.0243572e-09
000250 89 ff 08 32 4a a2 3d 32 00 00 00 00 bc 37 ec 31
       7.974344e-09 1.1038148e-08 0.0 6.8748403e-09
000260 25 2b 8d 31 21 ee b6 31 21 59 1a 32 32 19 14 32
       4.108545e-09 5.3239693e-09 8.984245e-09 8.620463e-09
000270 12 d9 b8 34 e0 ae ab 33 0d 64 68 37 1d 6d 72 32
       3.443061e-07 7.9946176e-08 1.38515725e-05 1.4111063e-08
000280 00 00 00 00 4d 30 b3 33 12 39 0d 33 ae ca 8a 32
       0.0 8.344123e-08 3.2881026e-08 1.6157482e-08
000290 b7 9b 84 33 00 00 00 00 9b 14 c2 33 4d e0 fd 32
       6.1750534e-08 0.0 9.037577e-08 2.9555077e-08
0002a0 ba d9 5e 32 13 68 3c 33 00 00 00 00 c8 a5 39 33
       1.2971606e-08 4.3866816e-08 0.0 4.3224446e-08
0002b0 82 00 ee 32 93 0d 84 33 d4 96 bc 33 00 00 00 00
       2.7707078e-08 6.149198e-08 8.781868e-08 0.0
0002c0 ed cf cb 33 41 a0 b8 32 55 9e 75 32 2c 2a 46 33
       9.4907456e-08 2.1493294e-08 1.42968775e-08 4.6138823e-08
0002d0 00 00 00 00 d6 6c bf 32 08 1a a5 32 83 2e c5 33
       0.0 2.228482e-08 1.9220366e-08 9.181988e-08
0002e0 b3 4b e6 33 00 00 00 00 e8 13 b2 33 49 46 98 32
       1.0723979e-07 0.0 8.292392e-08 1.7727091e-08
0002f0 a3 a6 06 33 b3 62 7e 33 00 00 00 00 ff 50 81 32
       3.135086e-08 5.922875e-08 0.0 1.505441e-08
000300 b0 77 45 32 54 c7 e7 33 c4 e6 ff 33 d8 da 77 33
       1.1494123e-08 1.0793033e-07 1.1916339e-07 5.7708206e-08
000310 83 44 37 35 41 84 43 34 31 98 b7 37 39 42 f5 33
       6.827251e-07 1.8208904e-07 2.188617e-05 1.14207474e-07
000320 00 00 00 00 0f f5 71 31 bd ed d4 30 be 1a 1c 30
       0.0 3.5209415e-09 1.5492599e-09 5.679047e-10
000330 c0 f7 0a 31 00 00 00 00 f7 e0 51 31 bb 49 bd 30
       2.0222473e-09 0.0 3.054138e-09 1.3772515e-09
000340 26 3d aa 30 2f 9e 1d 31 00 00 00 00 9a 63 66 31
       1.2386507e-09 2.2936424e-09 0.0 3.3526022e-09
000350 c5 82 ad 30 60 7b 80 30 1c eb 19 31 00 00 00 00
       1.2624574e-09 9.348291e-10 2.2398075e-09 0.0
000360 c5 db 38 31 7d 20 ab 30 3e 99 f7 30 19 82 48 31
       2.6900449e-09 1.2451121e-09 1.8015169e-09 2.9177782e-09
000370 00 00 00 00 c8 93 2e 31 05 53 ab 30 31 c5 e8 30
       0.0 2.5404336e-09 1.2465483e-09 1.6936267e-09
000380 57 ed 43 31 00 00 00 00 5f 40 0c 31 4b a5 64 30
       2.8511147e-09 0.0 2.0409272e-09 8.318081e-10
000390 c6 3e 35 31 ad c5 7e 31 00 00 00 00 88 58 d4 30
       2.637465e-09 3.707423e-09 0.0 1.5450192e-09
0003a0 7f 8f 8d 30 a7 fb 4d 31 2d 99 7f 31 bb 45 0d 31
       1.0299884e-09 2.9974474e-09 3.7194454e-09 2.0557838e-09
0003b0 ce aa 74 33 e6 db 72 31 87 41 3c 35 b7 c6 9d 31
       5.6966023e-08 3.5340633e-09 7.013081e-07 4.5918926e-09
0003c0 00 00 00 00 b5 d7 98 34 17 6d 52 34 52 33 44 34
       0.0 2.8469154e-07 1.9597461e-07 1.8272593e-07
0003d0 79 e8 c3 34 00 00 00 00 24 f1 2c 34 77 a3 20 34
       3.6490727e-07 0.0 1.6106475e-07 1.496063e-07
0003e0 5b c0 bd 34 af 91 fd 34 00 00 00 00 0b b8 c9 34
       3.534395e-07 4.723092e-07 0.0 3.7573076e-07
0003f0 97 55 56 34 a0 16 c7 33 51 72 87 34 00 00 00 00
       1.996144e-07 9.270775e-08 2.5228886e-07 0.0
