MLagents_test1/results/CarAgent_reinforcement_6/CarAgent/CarAgent-2999573.pt (torch, 580945 bytes, 28 tensors)

discrete_act_size_vector f4 [1, 2]
4.0 5.0
00000000: 0000 8040 0000 a040

network_body._body_endoder.seq_layers.0.weight f4 [512, 40]
0.0899814 -0.258945 0.10973171 0.08341526 -0.020135274 0.067229316 0.0738967 0.024576012
-0.19675341 -0.00036701135 -0.28634843 0.29206067 0.13227284 -0.22985607 0.0021179346 0.009497632
-0.14752549 -0.17053007 0.34559438 -0.010093286 -0.07752585 -0.17611422 -0.14719635 0.078968115
0.061741307 0.007866781 0.08405795 0.055971473 -0.13349266 -0.25842887 0.016912818 0.2825502
-0.02892579 -0.15032732 -0.17260371 0.13243619 0.095492795 -0.08892552 -0.051552955 0.24336597
-0.21780168 -0.035292596 -0.120649464 -0.5061152 -0.23062684 -0.11155787 0.39253482 -0.082514964
-0.3570794 -0.5441909 -0.10253636 -0.15794636 0.035058573 -0.19219585 -0.6331097 -0.16669197
-0.30924022 -0.12741198 -0.23102006 -0.71584094 0.20434153 -0.7152728 -0.14340927 -0.046563737
-0.10297518 0.2571523 -0.038531806 -0.23619558 -0.27265096 -0.53743625 -0.06558298 -0.46787855
-0.22120535 0.34778282 -0.31700814 -0.2063087 -0.019462295 0.15373911 0.06660777 -0.39637536
-0.07554706 -0.3145777 -0.2511049 -0.062417313 0.019676827 0.06660801 0.037691973 -0.14590359
0.07142739 0.17682993 -0.07226979 0.07198069 0.012901107 -0.09983174 -0.37191018 0.059674006
-0.27248752 -0.123886526 0.09198441 -0.22706833 -0.24577832 -0.11510624 -0.041814607 -0.14278561
-0.40882725 0.02592685 -0.41099787 -0.090293266 0.22895506 -0.19508758 -0.071534865 -0.25661168
-0.2996267 -0.14465605 -0.26962033 0.18113598 -0.11616218 -0.22152539 0.0041544153 -0.18852304
0.3266433 -0.36735216 -0.19898583 0.0041928114 -0.45641488 -0.110230625 -0.11241513 -0.12612414
0.086711094 -0.39648658 -0.0033540062 -0.66884834 -0.05354918 0.17454325 -0.081030175 -0.056818042
-0.23986003 -0.18738039 -0.0030713826 -0.2492064 -0.07481306 -0.15337187 0.25564888 -0.24913864
-0.15171021 0.06194949 -0.077782474 -0.23083036 -0.16944271 -0.49743706 -0.03507905 -0.2595803
-0.11912254 -0.6608558 -0.26893595 -0.047440417 -0.06012371 0.40038228 -0.035980683 -0.16535383
-0.11572925 0.30658126 0.15665244 -0.21944883 -0.020970928 0.10916596 -0.029623546 0.07352613
-0.03873517 0.010973984 0.22160205 -0.23425779 0.29882663 0.21711151 -0.19437802 0.039733134
0.2966753 -0.28323552 -0.021484904 -0.21790758 -0.06712898 -0.19018403 -0.009535282 0.14991651
0.016219812 -0.16464902 -0.10451047 -0.00623088 0.2700468 -0.34619212 0.090881415 -0.25401127
-0.2295954 0.26220542 0.079547666 -0.416693 -0.008370049 -0.2797277 -0.047317784 -0.27302295
-0.33028477 -0.18476625 -0.30641523 -0.16680397 -0.4765265 0.017110422 -0.44324675 -0.15221672
-0.38759625 -0.33211884 -0.05325805 -0.013135595 -0.016611787 -0.31981486 -0.3627637 0.040084615
-0.4774976 0.11242108 -0.41632706 -0.428996 -0.0840093 0.009936708 -0.08996177 -0.31741393
-0.29863936 0.15762007 -0.265276 0.11040586 -0.29993665 -0.6102485 0.20616409 -0.60502905
-0.3140687 0.1097022 -0.22460896 0.49920103 -0.061445735 0.18130441 -0.044602297 0.2580531
0.32956794 0.07187366 0.16387706 -0.20600955 -0.123533845 -0.06331115 -0.28327852 0.28223
0.43857527 -0.23001736 -0.21643275 0.36630726 0.056770034 -0.49765792 -0.29317307 0.19056597
00000000: 2b48 b83d 7094 84be 05bb e03d 9fd5 aa3d
00000010: bbf2 a4bc 86af 893d 2757 973d a253 c93c
00000020: ba79 49be 6e6b c0b9 439c 92be fa88 953e
00000030: 8872 073e 645f 6bbe 0ccd 0a3b f59b 1b3c
00000040: ec10 17be 6f9f 2ebe bff1 b03e 4f5e 25bc
00000050: dfc5 9ebd 4957 34be a4ba 16be 09ba a13d
00000060: 74e4 7c3d ace3 003c 9326 ac3d 5842 653d
00000070: 4db2 08be ca50 84be c08c 8a3c 6baa 903e
00000080: c7f5 ecbc 68ef 19be 07bf 30be 5a9d 073e
00000090: ba91 c33d 951e b6bd 3129 53bd ee34 793e
000000a0: 6707 5fbe f88e 10bd 1117 f7bd c490 01bf
000000b0: 7129 6cbe 7478 e4bd 53fa c83e 9bfd a8bd
000000c0: 1cd3 b6be 1850 0bbf 95fe d1bd b1bc 21be
000000d0: 9499 0f3d fdce 44be 7a13 22bf 4db1 2abe
000000e0: bc54 9ebe 4978 02be 8690 6cbe 5a41 37bf
000000f0: e83e 513e 1e1c 37bf e1d9 12be 9eb9 3ebd
00000100: a7e4 d2bd 77a9 833e 87d3 1dbd 41dd 71be
00000110: e898 8bbe 6c95 09bf 5f50 86bd c78d efbe
00000120: a883 62be 9710 b23e e44e a2be 9642 53be
00000130: 646f 9fbc c96d 1d3e a869 883d b6f1 cabe
00000140: 6bb8 9abd 5410 a1be d290 80be 4ca9 7fbd
00000150: 4c31 a13c c869 883d e662 1a3d c067 15be
00000160: 8648 923d e812 353e 2f02 94bd 9d6a 933d
00000170: 2a5f 533c 9574 ccbd 036b bebe bb6c 743d
00000180: 7c83 8bbe 38b8 fdbd 5362 bc3d 9a84 68be
00000190: 50ad 7bbe d2bc ebbd cb45 2bbd 6436 12be
000001a0: ce51 d1be 8c64 d43c 506e d2be adeb b8bd
000001b0: 3273 6a3e 0ac5 47be df80 92bd 9b62 83be
000001c0: ac68 99be b720 14be ad0b 8abe b67b 393e
000001d0: 70e6 edbd 8dd7 62be c321 883b 2f0c 41be
000001e0: ca3d a73e 9515 bcbe f1c2 4bbe da63 893b
000001f0: 36af e9be 98c0 e1bd e739 e6bd b026 01be
00000200: 9695 b13d 4a00 cbbe e3ce 5bbb a539 2bbf
00000210: 6356 5bbd 77bb 323e 26f3 a5bd 09ba 68bd
00000220: de9d 75be a5e0 3fbe 4049 49bb f62f 7fbe
00000230: 9737 99bd 840d 1dbe 69e4 823e 331e 7fbe
00000240: ec59 1bbe c0be 7d3d 6b4c 9fbd cb5e 6cbe
00000250: 6482 2dbe 12b0 febe 0daf 0fbd b6e7 84be
00000260: 85f6 f3bd d92d 29bf f9b1 89be e250 42bd
00000270: 4844 76bd e8fe cc3e 7b60 13bd 8452 29be
00000280: 7503 edbd 38f8 9c3e 7f69 203e 32b7 60be
00000290: 39cb abbc 6792 df3d 14ad f2bc de94 963d
000002a0: c5a8 1ebd 3acc 333c a6eb 623e 46e1 6fbe
000002b0: ceff 983e 7b52 5e3e 080b 47be 36bf 223d
000002c0: d3e5 973e 3f04 91be 1c01 b0bc 2a23 5fbe
000002d0: eb7a 89bd 9abf 42be df39 1cbc b783 193e
000002e0: 69df 843c c199 28be 9609 d6bd 692c ccbb
000002f0: 9343 8a3e 1840 b1be 0920 ba3d c40d 82be
00000300: 0e1b 6bbe ca3f 863e e3e9 a23d c958 d5be
00000310: 8822 09bc 7838 8fbe 4bd0 41bd aac9 8bbe
00000320: 161b a9be 5d33 3dbe 75e2 9cbe a9ce 2abe
00000330: 48fb f3be 282b 8c3c 3df1 e2be b3de 1bbe
00000340: 0473 c6be 7b0b aabe 1d25 5abd ae36 57bc
00000350: 7115 88bc c6be a3be 2abc b9be c42f 243d
00000360: 917a f4be 063d e63d d228 d5be 5da5 dbbe
00000370: 110d acbd 93cd 223c e03d b8bd 1484 a2be
00000380: 42e7 98be 2867 213e 42d2 87be 781c e23d
00000390: 4c91 99be 3f39 1cbf ae1c 533e 2fe3 1abf
000003a0: 9dcd a0be 8cab e03d e4ff 65be 4797 ff3e
000003b0: 86ae 7bbd dda7 393e e6b0 36bd 891f 843e
000003c0: 21bd a83e 7f32 933d 63cf 273e 2bf4 52be
000003d0: 50ff fcbd 47a9 81bd e209 91be 7380 903e
000003e0: f08c e03e ac89 6bbe 8ca0 5dbe a08c bb3e
000003f0: b287 683d 05cd febe c81a 96be ba23 433e

network_body._body_endoder.seq_layers.0.bias f4 [512]
-0.06937831 -0.27622014 -0.23602977 -0.22557834 0.03078572 -0.28764004 -0.009638965 -0.05253407
-0.05040133 -0.32626367 0.014206884 -0.3125312 -0.0804659 -0.37999436 -0.031858593 -0.024087034
-0.18053097 0.0044267173 -0.15092896 -0.14082488 -0.19124992 -0.25318038 -0.09733206 -0.3100592
-0.32992056 -0.12721199 -0.13567296 -0.026537938 -0.083095536 -0.25210568 -0.117259376 -0.11572438
-0.1657851 -0.099680826 -0.1391063 -0.15660687 -0.25440866 -0.046825293 -0.1764512 -0.18523583
-0.12889971 -0.26458737 -0.05205518 -0.236525 -0.084706225 -0.143552 -0.34708235 -0.12990019
-0.20351988 -0.23914063 -0.15032955 -0.060983583 -0.10721893 -0.30722007 0.055673506 -0.14074534
-0.15771525 -0.10553227 -0.18375297 -0.08005616 -0.16727576 -0.14339331 -0.10689712 -0.07473482
-0.050096296 0.05773813 -0.013604507 0.0049291225 -0.09270342 -0.14733526 -0.25336048 -0.24688734
0.008376667 -0.2962818 -0.16999632 -0.12668249 -0.035745017 -0.049546264 0.024657669 -0.15172277
-0.08500005 -0.10662533 -0.1690062 -0.1183254 -0.1208202 -0.27006912 -0.37057382 -0.18925625
-0.26300424 0.088700935 -0.03967991 -0.3064323 -0.113730274 -0.1270543 -0.059917063 -0.15824433
-0.10834743 -0.25180483 -0.02562297 -0.069498934 -0.19199088 -0.33829138 -0.32374924 -0.09174412
-0.3298225 -0.099822335 -0.2729245 -0.10649807 -0.041566204 -0.021984074 -0.41060853 -0.32363647
-0.18754853 -0.15732825 -0.15475097 -0.16617574 -0.1865322 -0.02125705 -0.44985047 -0.0994543
-0.19120105 -0.21089965 -0.058177073 0.03893475 -0.23198514 -0.11296074 -0.09491745 -0.22530137
-0.15836945 -0.09529028 -0.39206263 -0.12439513 -0.043070663 -0.05691558 -0.3333567 -0.13235365
-0.12096191 -0.2722153 -0.14300817 -0.2185453 -0.3549062 -0.060565926 -0.034002148 -0.014377002
-0.18854658 -0.18820812 -0.09470746 -0.115405396 -0.29189575 -0.11429826 -0.06802301 -0.33384392
-0.07906727 0.042808123 -0.23590825 -0.08575825 -0.005419139 -0.06089776 -0.025411496 -0.12366327
-0.27738294 -0.22250116 -0.088381596 -0.24141887 -0.18696879 -0.11731369 -0.14832544 -0.15578789
-0.06114954 0.023322964 -0.34743857 -0.13040793 -0.13490447 -0.14252646 -0.099094346 -0.23944223
-0.20639186 -0.17024869 -0.067810416 -0.33900547 0.031837694 -0.26939505 -0.38242018 -0.23989934
-0.21428552 -0.13002522 -0.078837045 -0.30909994 -0.17117156 -0.3416332 -0.27198976 0.017863795
-0.12500814 -0.08207752 -0.13589391 -0.21490225 -0.34687743 -0.18838897 0.01030229 -0.088734314
0.050152496 -0.0050251726 -0.38829857 -0.3507276 -0.061297726 0.06331488 -0.08845288 -0.35922018
-0.19751118 -0.07437577 -0.07560794 -0.26057142 -0.068139344 -0.14307788 -0.109281234 -0.059423096
-0.32103685 -0.10485943 0.021220123 -0.23317985 -0.22845954 -0.1447804 -0.19244014 -0.29260865
-0.27032918 0.0025522776 -0.18407659 -0.1646289 -0.2865341 -0.039455406 -0.023686145 -0.13797718
-0.093715824 -0.11581783 -0.16344933 -0.091830075 -0.10261043 -0.20406814 -0.30472708 -0.08953127
-0.17963548 -0.3093126 -0.34465766 -0.14533834 -0.29057807 -0.119603075 -0.114946134 -0.20780939
-0.094861515 -0.05440979 -0.13625605 -0.10400852 -0.048239175 -0.19736317 -0.24168693 -0.20747347
00000000: 3716 8ebd ba6c 8dbe cab1 71be 02fe 66be
00000010: 5632 fc3c 8e45 93be c0ec 1dbc f72d 57bd
00000020: a071 4ebd 080c a7be fec3 683c 1704 a0be
00000030: 4ecb a4bd 9f8e c2be 287e 02bd 2c52 c5bc
00000040: 1cdd 38be ff0d 913b 1f8d 1abe 6634 10be
00000050: 05d7 43be dca0 81be 0856 c7bd 14c0 9ebe
00000060: 59eb a8be dc43 02be daed 0abe 1766 d9bc
00000070: fe2d aabd ff13 81be af25 f0bd e700 edbd
00000080: 92c3 29be 7625 ccbd e271 0ebe 8d5d 20be
00000090: da41 82be e1cb 3fbd a0af 34be 76ae 3dbe
000000a0: 49fe 03be ff77 87be d037 55bd 9c33 72be
000000b0: 757a adbd 4cff 12be c7b4 b1be 8e04 05be
000000c0: 8467 50be 48e1 74be fdef 19be ecc9 79bd
000000d0: 9995 dbbd f34b 9dbe e709 643d 8c1f 10be
000000e0: 1b80 21be 4e21 d8bd bd29 3cbe 7cf4 a3bd
000000f0: 564a 2bbe b2d5 12be e1ec dabd 920e 99bd
00000100: c631 4dbd d17e 6c3d 70e5 5ebc 7a84 a13b
00000110: 4adb bdbd 0edf 16be 77b8 81be 09d0 7cbe
00000120: 4a3e 093c 40b2 97be 8413 2ebe 0eb9 01be
00000130: 5e69 12bd 06f1 4abd e1fe c93c 375d 1bbe
00000140: 8214 aebd 625e dabd f60f 2dbe 9654 f2bd
00000150: 9570 f7bd 8046 8abe dabb bdbe 64cc 41be
00000160: 7ea8 86be d6a8 b53d 6787 22bd b2e4 9cbe
00000170: 6beb e8bd 861a 02be 986b 75bd cd0a 22be
00000180: 42e5 ddbd 90ec 80be 43e7 d1bc 7555 8ebd
00000190: 4299 44be 8734 adbe 76c2 a5be 57e4 bbbd
000001a0: 7fde a8be a76f ccbd c3bc 8bbe a91b dabd
000001b0: 5341 2abd f217 b4bc 483b d2be aeb3 a5be
000001c0: b90c 40be a81a 21be 0a77 1ebe f929 2abe
000001d0: 4c02 3fbe 4423 aebc cd52 e6be b2ae cbbd
000001e0: 35ca 43be 14f6 57be 154b 6ebd 0b7a 1f3d
000001f0: 838d 6dbe f657 e7bd 1464 c2bd 67b5 66be
00000200: 9a2b 22be 8d27 c3bd 6fbc c8be e0c2 febd
00000210: dd6a 30bd 5020 69bd bbad aabe b787 07be
00000220: e1ba f7bd ce5f 8bbe bc70 12be 57ca 5fbe
00000230: 44b6 b5be fa13 78bd d645 0bbd 848d 6bbc
00000240: 5b12 41be a1b9 40be fcf5 c1bd aa59 ecbd
00000250: 5c73 95be 3515 eabd a64f 8bbd 97ed aabe
00000260: 05ee a1bd 9257 2f3d ef91 71be 05a2 afbd
00000270: 0893 b1bb ee6f 79bd c52b d0bc 2b43 fdbd
00000280: 2305 8ebe 58d7 63be 6901 b5bd 8236 77be
00000290: bf74 3fbe 2942 f0bd a0e2 17be dc86 1fbe
000002a0: f177 7abd cd0f bf3c 78e3 b1be a889 05be
000002b0: 6624 0abe 75f2 11be faf1 cabd 5830 75be
000002c0: 6358 53be ac55 2ebe 30e0 8abd 2092 adbe
000002d0: 3e68 023d 26ee 89be 94cc c3be 2ca8 75be
000002e0: aa6d 5bbe 5525 05be 5175 a1bd 5942 9ebe
000002f0: 9947 2fbe 8cea aebe 3e42 8bbe 1857 923c
00000300: 2202 00be 4218 a8bd c627 0bbe 560f 5cbe
00000310: eb99 b1be 0ae9 40be f0ca 283c 56ba b5bd
00000320: b46c 4d3d 34aa a4bb 12cf c6be 9192 b3be
00000330: 5313 7bbd 3bab 813d c926 b5bd b5eb b7be
00000340: 5f40 4abe 5352 98bd 56d8 9abd 9e69 85be
00000350: a48c 8bbd 0283 12be d7ce dfbd a265 73bd
00000360: f15e a4be 8ac0 d6bd d3d5 ad3c b3c6 6ebe
00000370: 4cf1 69be 5041 14be 070f 45be cdd0 95be
00000380: 9668 8abe 1d44 273b 937e 3cbe 7a94 28be
00000390: 99b4 92be fe9b 21bd 7209 c2bc e449 0dbe
000003a0: 15ee bfbd e631 edbd 435f 27be 6811 bcbd
000003b0: 6b25 d2bd 3df7 50be 3005 9cbe 2c5c b7bd
000003c0: 5df2 37be 395e 9ebe f876 b0be 93d3 14be
000003d0: a6c6 94be 75f2 f4bd e168 ebbd fccb 54be
000003e0: c146 c2bd cddc 5ebd b586 0bbe 6b02 d5bd
000003f0: 7196 45bd 9219 4abe c77c 77be ed73 54be

action_model._discrete_distribution.branches.0.weight f4 [4, 512]
-0.03120217 -0.06388411 0.01225995 -0.028111063 0.06780357 -0.013040863 0.021939965 -0.010091758
0.038294002 -0.03650026 0.18064465 0.03409851 -0.09546837 -0.034254503 0.031563167 0.07337818
-0.08312681 0.03635695 -0.021996116 0.035965264 -0.022081262 0.11467648 -0.024655841 -0.020699518
0.01049658 -0.007351836 -0.0055623655 -0.044594742 0.027332798 -0.03339571 0.045725763 0.018653173
0.056956958 -0.024920033 -0.042285256 0.0028010418 0.00448106 0.009670627 0.023413824 0.043024864
-0.0076077883 -0.014556411 -0.057347946 -0.09015204 0.038794596 0.012062885 -0.023132527 0.052673165
-0.115507044 -0.14023143 0.04510811 0.055156637 -0.020024247 -0.0050573824 -0.056971863 -0.10592986
0.022090374 0.059290193 -0.01927086 -0.003548713 0.03527491 -0.007150548 0.019078972 0.017171824
0.0123586375 0.054804716 0.026408164 0.048080336 0.08698382 0.04593404 0.009924237 -0.06624878
0.015650477 -0.036932517 0.06590914 0.045194015 -0.00045201136 0.06470966 0.03251474 0.06200947
-0.029080274 0.013889314 0.037994623 0.023308858 -0.020862037 -0.012953295 -0.0100518335 -0.024745235
0.02703911 0.05610285 0.03402784 -0.009614318 0.0306816 0.050416145 -0.0925264 -0.049666535
-0.011417966 -0.024730876 0.05549635 0.0062328735 -0.01785409 -0.10220436 -0.03339438 -0.09978072
0.019660799 0.03397219 0.03192912 0.013918718 -0.00086989097 0.03928215 0.021766545 -0.07745527
-0.048330024 0.041566364 -0.061895728 0.021729099 -0.0034878284 0.012314753 -0.026189093 0.022957526
-0.022351 -0.004172136 -0.0023400586 -0.018645968 -0.023500735 -0.014582043 0.020286571 0.15048264
0.04802816 -0.026020583 -0.013495516 -0.026455974 0.04701059 -0.0009611257 -0.03678302 0.021326058
-0.030580573 0.018719358 -0.03069194 -0.030633548 -0.006559152 0.038796358 0.009772588 0.012217431
0.100107506 0.04426132 0.008588631 0.02050867 -0.05581496 0.009874661 0.0102009 0.011076396
-0.035152547 0.004136004 -0.013057329 -0.033666205 0.0008884998 0.056935314 0.052308064 0.03812143
-0.12074171 0.089732915 0.005282534 -0.10139138 -0.038398366 0.0100903865 -0.009029227 0.02271592
-0.0077439263 -0.073837906 -0.10720939 -0.07498114 -0.059167676 -0.0052845445 0.07568528 -0.013426451
-0.03695029 0.010256865 0.03822142 -0.024350438 0.034322232 -0.03377147 -0.0024103387 -0.050737124
-0.018637422 0.033875898 0.006420674 -0.11425173 0.05222336 -0.080887675 0.004684734 0.05238511
0.06851495 0.0203949 -0.034545068 -0.022703042 -0.028869994 0.01934762 0.011477454 -0.012877324
0.00017694637 0.12828936 -0.0780943 0.012770855 -0.006107623 -0.08456203 0.0041273483 -0.050181147
0.036780883 0.079226285 -0.00940114 0.0233014 0.046276603 0.04522051 -0.026026085 0.002430635
0.0073914607 -0.095083006 -0.042915188 -0.056178596 -0.02845863 -0.043401297 0.04984717 -0.03374685
0.0058004325 0.114255704 -0.078018546 0.05199261 -0.019807965 0.0627608 0.046120863 0.15893252
0.050231114 0.03764991 -0.07875916 0.121702224 0.059020184 0.050328042 -0.035480976 0.05451035
0.008950699 0.093973815 -0.041434895 -0.017968599 -0.07313008 0.094174676 0.046912733 -0.014652181
-0.0104558235 0.07785489 -0.051762044 0.010367366 0.14306289 0.07468491 -0.034273803 -0.057445228
00000000: b19b ffbc acd5 82bd f5dd 483c 2c49 e6bc
00000010: 99dc 8a3d 58a9 55bc 71bb b33c e757 25bc
00000020: 2cda 1c3d 4c81 15bd e9fa 383e e1aa 0b3d
00000030: ec84 c3bd 734e 0cbd 6148 013d 4d47 963d
00000040: 643e aabd 06eb 143d 3331 b4bc 5050 133d
00000050: c3e3 b4bc 81db ea3d 0cfb c9bc 0992 a9bc
00000060: d9f9 2b3c ace7 f0bb 8144 b6bb faa8 36bd
00000070: 08e9 df3c f1c9 08bd f04a 3b3d 8ace 983c
00000080: b34b 693d 1925 ccbc 4e33 2dbd af91 373b
00000090: dbd5 923b 8d71 1e3c 59ce bf3c d73a 303d
000000a0: c14a f9bb 037e 6ebc aee5 6abd a2a1 b8bd
000000b0: 15e7 1e3d 68a3 453c 6d80 bdbc d1bf 573d
000000c0: f58e ecbd d498 0fbe 48c3 383d edeb 613d
000000d0: e409 a4bc 66b8 a5bb 545b 69bd c1f1 d8bd
000000e0: dff6 b43c 46da 723d ecdd 9dbc 8691 68bb
000000f0: 6d7c 103d 254f eabb 814b 9c3c edab 8c3c
00000100: e27b 4a3c e97a 603d ef55 d83c e3ef 443d
00000110: 9324 b23d 5525 3c3d 4499 223c 71ad 87bd
00000120: 6e35 803c 8d46 17bd 5ffb 863d 5c1d 393d
00000130: f0fb ecb9 8086 843d 2d2e 053d a4fd 7d3d
00000140: c139 eebc 0190 633c 40a0 1b3d 38f2 be3c
00000150: dde6 aabc 0f3a 54bc 72b0 24bc 85b6 cabc
00000160: 2081 dd3c 1acc 653d c760 0b3d 5f85 1dbc
00000170: fb57 fb3c 2981 4e3d 7b7e bdbd 236f 4bbd
00000180: 6c12 3bbc 6898 cabc 2450 633d 223d cc3b
00000190: be42 92bc 8550 d1bd 8cc8 08bd d659 ccbd
000001a0: af0f a13c 6c26 0b3d 1cc8 023d 560b 643c
000001b0: 6509 64ba 52e6 203d c14f b23c dea0 9ebd
000001c0: b4f5 45bd 7e41 2a3d 6086 7dbd 3901 b23c
000001d0: 0d94 64bb d1c3 493c 828a d6bc 6c11 bc3c
000001e0: 7219 b7bc 6ab6 88bb ab5b 19bb 6ebf 98bc
000001f0: 9d84 c0bc 85e9 6ebc 0630 a63c 1f18 1a3e
00000200: 2db9 443d 1e29 d5bc 4c1c 5dbc 33ba d8bc
00000210: 2d8e 403d 0ef4 7bba cba9 16bd fcb3 ae3c
00000220: 1c84 fabc 5759 993c aa6d fbbc 35f3 fabc
00000230: 28ee d6bb eee8 1e3d 341d 203c 9f2b 483c
00000240: 2a05 cd3d 5c4b 353d 54b7 0c3c cc01 a83c
00000250: 3a9e 64bd 55c9 213c ad21 273c c679 353c
00000260: 1efc 0fbd 5187 873b 68ee 55bc 93e5 09bd
00000270: 36ea 683a 0135 693d fb40 563d 3725 1c3d
00000280: 6e47 f7bd e4c5 b73d 1b19 ad3b 49a6 cfbd
00000290: 9b47 1dbd 2652 253c 53ef 13bc bd16 ba3c
000002a0: c3c0 fdbb 5438 97bd 9990 dbbd b68f 99bd
000002b0: ce59 72bd f929 adbb e200 9b3d 9efa 5bbc
000002c0: 3059 17bd 690c 283c 108e 1c3d 927a c7bc
000002d0: 7895 0c3d f453 0abd c6f6 1dbb bbd1 4fbd
000002e0: 82ad 98bc 74c1 0a3d 8464 d23b d0fc e9bd
000002f0: 29e8 553d 70a8 a5bd 6682 993b c591 563d
00000300: 9151 8c3d 3513 a73c 217f 0dbd bbfb b9bc
00000310: c480 ecbc e67e 9e3c ee0b 3c3c 69fb 52bc
00000320: ae8a 3939 495e 033e e8ef 9fbd d93c 513c
00000330: 7522 c8bb dc2e adbd b53e 873b bf8a 4dbd
00000340: 8da7 163d 6441 a23d 3d07 1abc 94e2 be3c
00000350: 898c 3d3d 2439 393d a834 d5bc 4a4b 1f3b
00000360: 1134 f23b e1ba c2bd d6c7 2fbd 871b 66bd
00000370: 1322 e9bc 8fc5 31bd 8c2c 4c3d 233a 0abd
00000380: 8e11 be3b e5fe e93d 30c8 9fbd 34f6 543d
00000390: 5044 a2bc bc88 803d 3be9 3c3d 35bf 223e
000003a0: 24bf 4d3d cb36 1a3d 7c4c a1bd 043f f93d
000003b0: 26bf 713d c724 4e3d 8054 11bd 3f46 5f3d
000003c0: f4a5 123c 5875 c03d a3b7 29bd e232 93bc
000003d0: 39c5 95bd a7de c03d 9127 403d b40f 70bc
000003e0: e74e 2bbc 6272 9f3d 7004 54bd e2db 293c
000003f0: 147f 123e 67f4 983d b062 0cbd b04b 6bbd

action_model._discrete_distribution.branches.0.bias f4 [4]
0.03860102 0.0016272127 -0.0943275 0.080019556
00000000: 1a1c 1e3d 3348 d53a c72e c1bd 4be1 a33d

action_model._discrete_distribution.branches.1.weight f4 [5, 512]
-0.039486516 0.0024302243 -0.05858369 0.061495747 -0.025765773 -0.033330403 0.06553302 0.07670506
-0.036943503 0.012677087 0.065274276 -0.0909969 -0.092489086 0.017459787 -0.12366562 0.07796821
0.07656677 0.1275682 0.036246315 -0.085381806 0.074169464 -0.06990573 -0.0024681187 -0.016279414
0.013358981 0.06309604 0.023063682 0.008853996 -0.05082403 -0.017754182 0.0034555201 0.0045259297
0.013237633 -0.041550107 0.009365187 -0.07600633 0.014580888 -0.02999388 0.052265365 0.08430057
-0.036785975 0.033134334 0.06096179 -0.046946052 0.027411416 -0.032790184 -0.028502313 0.04097564
0.13194562 0.096877016 -0.008038908 0.033396795 -0.058459457 0.016851936 0.06315157 0.0024898502
0.03481675 -0.022901852 -0.014433238 -0.0032850162 -0.003355886 0.048575938 -0.041140344 0.06422017
-0.011467816 0.057185173 0.041130893 -0.047472972 0.050939243 0.009131668 -0.08867486 0.023661567
0.09331443 0.007877452 -0.04675619 -0.046868317 0.09693213 0.027265904 0.0429389 -0.05188604
0.10047909 0.05265423 0.0361069 0.06021005 0.122220986 -0.02269753 -0.047867708 0.010205902
0.03621901 0.034928963 0.0552384 0.0865721 -0.020498216 0.038565107 -0.008326375 -0.046989247
0.07558064 -0.07894456 0.12304269 0.03346534 -0.05806196 -0.07266854 -0.03630119 0.0323821
-0.07484765 -0.049102 -0.011476183 -0.04701276 0.10874194 0.06981823 0.05505835 -0.015167325
0.049789 -0.06150632 -0.07814531 0.061894868 -0.07394449 0.05680607 0.0034458279 -0.02941993
-0.06933989 -0.07052213 0.018380227 0.09678252 -0.017853454 -0.07597692 0.027181204 0.023146978
-0.08912053 -0.07013552 -0.0019192339 -0.07876517 0.028607655 0.057622 0.011491069 -0.019772263
0.0138481725 0.0025223135 -0.031590715 0.049368814 -0.04535491 -0.034577787 0.0334688 -0.0037664757
0.020356337 0.00034091293 0.014073386 0.03371822 -0.012299222 -0.055857167 -0.02434985 0.044710085
0.14063229 -0.068796374 0.0053177397 -0.008450459 -0.029143564 0.071929604 0.07843194 -0.042654198
0.0881976 0.018027635 -0.04602498 0.07376003 -0.06986318 0.0087232385 -0.012881574 0.029269325
0.03672945 -0.053897407 0.033657447 0.01034349 -0.042954642 -0.035612777 0.033844724 -0.012796659
0.028702168 0.00060602045 -0.035680853 -0.07827312 -0.086989984 0.07684878 -0.004369161 0.036467325
-0.012281438 -0.03934625 -0.02967776 -0.008772669 0.060792048 -0.05158765 -0.030117737 0.08106048
-0.011533833 0.002908933 0.031481244 -0.050022207 -0.07798878 0.039771978 0.010458361 0.010193485
0.0062622014 0.08283586 -0.02955041 0.045719348 0.04818521 -0.056004718 -0.005040098 -0.03876602
0.013200117 0.118378036 -0.050911296 0.0006394444 -0.009434746 0.009175471 0.011939467 0.04861604
0.030555556 0.012184982 -0.059887845 0.07963657 0.15045564 0.024755897 0.004659486 0.106543995
0.07656243 -0.01888522 -0.009626401 0.024131065 -0.103771396 0.025774287 0.05615852 0.0125188185
-0.08728283 -0.028458226 -0.0514253 0.0716461 -0.00021931698 0.07549712 -0.018073527 0.08786326
-0.027406357 0.09956517 -0.01515888 -0.07551767 0.0095476145 0.03790836 0.13201204 -0.04296633
0.036605854 0.043501362 -0.046723466 -0.008922057 -0.0078040506 0.04681461 0.038631275 0.045948423
00000000: 9dbc 21bd 6644 1f3b 74f5 6fbd f7e2 7b3d
00000010: be12 d3bc 7685 08bd 2d36 863d 8b17 9d3d
00000020: 1252 17bd 8fb3 4f3c 85ae 853d 955c babd
00000030: eb6a bdbd d407 8f3c 6744 fdbd ccad 9f3d
00000040: 0acf 9c3d 3da1 023e 0477 143d a8dc aebd
00000050: 29e6 973d bc2a 8fbd 29c0 21bb 685c 85bc
00000060: a1df 5a3c 7f38 813d 0cf0 bc3c 5a10 113c
00000070: dc2c 50bd 3871 91bc 0276 623b 404e 943b
00000080: a8e2 583c 7230 2abd 7170 193c 35a9 9bbd
00000090: ade4 6e3c bab5 f5bc 3514 563d c7a5 ac3d
000000a0: e4ac 16bd deb7 073d 12b3 793d 814a 40bd
000000b0: e88d e03c 004f 06bd af7d e9bc 13d6 273d
000000c0: c11c 073e 7567 c63d a0b5 03bc 14cb 083d
000000d0: 2f73 6fbd 120d 8a3c 9c55 813d c12c 233b
000000e0: 029c 0e3d aa9c bbbc 6379 6cbc 6d49 57bb
000000f0: 6dee 5bbb 90f7 463d c782 28bd dd85 833d
00000100: 82e3 3bbc 003b 6a3d de78 283d 0573 42bd
00000110: aba5 503d fe9c 153c 2a9b b5bd e7d5 c13c
00000120: a31b bf3d 6e10 013c 6b83 3fbd fef8 3fbd
00000130: 5a84 c63d bf5c df3c b3e0 2f3d 7586 54bd
00000140: fbc7 cd3d f6ab 573d d4e4 133d d09e 763d
00000150: ff4e fa3d 2cf0 b9bc ee10 44bd a836 273c
00000160: 625a 143d ac11 0f3d a941 623d b74c b13d
00000170: e0eb a7bc 72f6 1d3d 596b 08bc cc77 40bd
00000180: 06ca 9a3d afad a1bd cefd fb3d f412 093d
00000190: 61d2 6dbd 3ed3 94bd 8eb0 14bd 18a3 043d
000001a0: ba49 99bd 2e1f 49bd 9a06 3cbc 7490 40bd
000001b0: 18b4 de3d dcfc 8e3d dd84 613d 5f80 78bc
000001c0: 8def 4b3d 0dee 7bbd a60a a0bd 7985 7d3d
000001d0: 3570 97bd 7bad 683d 66d3 613b 1102 f1bc
000001e0: 1202 8ebd e86d 90bd 2192 963c ea35 c63d
000001f0: 6841 92bc ca99 9bbd 1eab de3c bb9e bd3c
00000200: d384 b6bd 36a3 8fbd ce8e fbba a24f a1bd
00000210: 9a5a ea3c 0c05 6c3d 0945 3c3c 71f9 a1bc
00000220: 72e3 623c 664d 253b 4465 01bd f436 4a3d
00000230: 12c6 39bd 70a1 0dbd 9516 093d fad6 76bb
00000240: 55c2 a63c 8fbc b239 0f94 663c 1e1c 0a3d
00000250: ad82 49bc 7cca 64bd 5679 c7bc ec21 373d
00000260: e901 103e 1de5 8cbd 6f40 ae3b cb73 0abc
00000270: 7cbe eebc d44f 933d eda0 a03d 2bb6 2ebd
00000280: f1a0 b43d b1ae 933c b084 3cbd 800f 973d
00000290: 6d14 8fbd eaeb 0e3c 3d0d 53bc 39c6 ef3c
000002a0: 9f71 163d 87c3 5cbd 64dc 093d be77 293c
000002b0: 35f1 2fbd b4de 11bd c4a0 0a3d 14a9 51bc
000002c0: cf20 eb3c 58dd 1e3a 1626 12bd a84d a0bd
000002d0: ce27 b2bd e562 9d3d 2e2b 8fbb c35e 153d
000002e0: 1638 49bc 8929 21bd c61e f3bc 3ebb 0fbc
000002f0: 1501 793d 924d 53bd 79b9 f6bc 0903 a63d
00000300: 67f8 3cbc cca3 3e3b 7af2 003d 16e4 4cbd
00000310: 95b8 9fbd f1e7 223d 8c59 2b3c 9302 273c
00000320: 2733 cd3b d9a5 a93d b413 f2bc 3644 3b3d
00000330: db5d 453d 3465 65bd 6827 a5bb 1ec9 1ebd
00000340: 4e45 583c 2f70 f23d 5d88 50bd 63a0 273a
00000350: 3194 1abc b754 163c c19d 433c 9d21 473d
00000360: a54f fa3c 85a3 473c f54c 75bd 7f18 a33d
00000370: 0b11 1a3e e1cc ca3c 9aae 983b bd33 da3d
00000380: c3cc 9c3d 2db5 9abc 0db8 1dbc 83ae c53c
00000390: 1986 d4bd 9924 d33c 7a06 663d bb1b 4d3c
000003a0: 57c1 b2bd 3a21 e9bc 56a3 52bd 31bb 923d
000003b0: 74f8 65b9 3c9e 9a3d ef0e 94bc a7f1 b33d
000003c0: 4c83 e0bc d3e8 cb3d f35c 78bc 02a9 9abd
000003d0: 996d 1c3c cc45 1b3d 2a2e 073e 76fd 2fbd
000003e0: 05f0 153d 7c2e 323d 1b61 3fbd d22d 12bc
000003f0: 1fb9 ffbb adc0 3f3d d43b 1e3d 6a34 3c3d

action_model._discrete_distribution.branches.1.bias f4 [5]
0.027426697 0.029422548 0.039202504 0.00307964 -0.0047709914
00000000: f4ad e03c 8e07 f13c ce92 203d c9d3 493b
00000010: fa55 9cbb

exp_avg f4 [512, 40]
0.0 -5.7686902e-05 1.6918597e-05 4.9463357e-05 3.1786054e-05 0.0 2.0586382e-05 3.3753543e-07
-1.2228869e-05 2.5532568e-06 0.0 -2.0364409e-05 -3.3092529e-06 3.236871e-05 3.2792457e-05 0.0
3.653305e-05 -2.8193458e-06 -2.5018659e-05 -1.0926546e-05 0.0 -3.91131e-05 -3.7847244e-06 5.1592862e-05
3.2347147e-05 0.0 5.7106852e-05 5.677528e-07 -4.8979564e-05 -4.9381015e-06 0.0 -3.725115e-05
-3.0736544e-07 4.6253565e-05 2.9488905e-05 1.7559432e-06 -0.00038291095 -1.5034086e-05 -2.9642106e-05 8.932696e-06
0.0 -6.0544717e-06 3.5848507e-06 6.1963954e-05 6.0959697e-05 0.0 4.661157e-05 2.090003e-05
-8.01727e-06 4.3686407e-05 0.0 5.210318e-07 3.7520326e-06 5.5221277e-05 6.0832008e-05 0.0
3.6108017e-05 1.2340851e-05 1.1045455e-05 3.3260272e-05 0.0 -2.116566e-06 -4.0010555e-06 6.561196e-05
6.0727383e-05 0.0 5.5941186e-05 1.3312852e-05 -9.759703e-06 3.3938715e-05 0.0 8.529896e-06
9.174381e-06 4.1790052e-05 5.152794e-05 5.643114e-05 0.00066600967 3.578782e-08 0.0018370552 3.693843e-05
0.0 2.5313766e-05 3.7135237e-06 1.1737434e-05 3.0348736e-05 0.0 6.463121e-05 3.2501976e-06
-2.7116668e-05 2.3210045e-05 0.0 9.317391e-07 -9.961522e-07 4.0829153e-05 3.8445658e-05 0.0
4.1305237e-05 3.8176086e-06 -4.3581094e-06 2.6807238e-05 0.0 -8.668803e-08 7.798677e-07 4.007156e-05
4.0618874e-05 0.0 1.3537677e-05 2.7743702e-06 2.44527e-05 3.6874208e-05 0.0 -1.6177752e-05
-8.1154445e-07 5.7754034e-05 3.9947514e-05 3.763189e-05 -0.00090478413 1.3253056e-05 0.0011701564 3.5073033e-05
0.0 -1.0196217e-05 3.2033984e-06 1.0112824e-05 1.0412483e-05 0.0 7.85644e-06 -5.8361104e-07
-4.1528197e-06 4.0229515e-06 0.0 -1.5770858e-05 6.573514e-07 1.8233517e-05 1.1336265e-05 0.0
5.9701806e-06 -1.3366594e-06 -1.5135124e-06 1.0148678e-06 0.0 -2.2390735e-05 -2.627644e-07 2.5773512e-05
1.0302084e-05 0.0 1.5084703e-05 -3.9131005e-06 -8.051603e-06 -9.1511265e-07 0.0 -1.1496173e-05
-2.0333837e-06 1.6649567e-05 3.898933e-06 2.3169108e-05 0.00010870523 -8.776526e-06 2.5031108e-05 -2.1000218e-05
0.0 -5.512895e-05 5.1357063e-05 6.7568053e-06 2.7183392e-05 0.0 -9.310391e-05 3.841003e-05
5.767881e-05 4.8954207e-05 0.0 -1.2048805e-05 1.7674876e-05 -2.641129e-06 1.3445082e-05 0.0
-0.00012471195 4.9905553e-05 7.779133e-05 3.8707003e-05 0.0 -4.225658e-05 2.2351942e-05 2.2889577e-05
2.2224885e-05 0.0 5.3040225e-05 2.2975473e-05 -7.30308e-05 -2.0002735e-05 0.0 1.1184233e-05
-1.9566189e-05 1.1366894e-05 -9.6435615e-06 -0.00016182713 -8.864109e-05 -6.0818675e-06 -0.0017649343 -0.00010861158
0.0 1.0688034e-05 1.2180597e-06 -7.426773e-06 -3.0509589e-06 0.0 7.6624e-06 5.5140163e-06
-8.697095e-06 9.851351e-07 0.0 -1.9887439e-06 6.3963034e-06 7.176004e-08 4.914371e-07 0.0
-1.9650056e-06 5.742567e-06 7.017604e-07 2.6976238e-06 0.0 5.3752046e-07 5.6395575e-06 -1.697763e-06
-2.5181862e-07 0.0 4.5787674e-06 4.6130535e-06 -4.7124995e-06 1.5872638e-06 0.0 1.55413e-06
2.1056185e-06 8.19574e-07 2.3753396e-06 -6.7494375e-06 -1.4033758e-05 2.1154674e-06 0.00019804173 -1.4158704e-05
0.0 -6.0261937e-06 -2.6013598e-05 -0.000119101554 -0.00014439008 0.0 1.21831545e-05 -1.01247115e-05
-0.0001531998 -0.00014754324 0.0 -0.00010132605 1.4729569e-05 -6.454489e-05 -0.0001302337 0.0
00000000: 0000 0000 d7f4 71b8 69ec 8d37 e076 4f38
00000010: 0452 0538 0000 0000 ebb0 ac37 8436 b534
00000020: 982a 4db7 9e58 2b36 0000 0000 3cd4 aab7
00000030: 8814 5eb6 a3c3 0738 a28a 0938 0000 0000
00000040: 103b 1938 fe33 3db6 29df d1b7 2851 37b7
00000050: 0000 0000 5f0d 24b8 12fd 7db6 6a65 5838
00000060: 7cac 0738 0000 0000 0486 6f38 ad67 1835
00000070: 686f 4db8 f8b1 a5b6 0000 0000 1e3e 1cb8
00000080: fc03 a5b4 6300 4238 f15e f737 c0ad eb35
00000090: 70c1 c8b9 e83a 7cb7 f0a7 f8b7 a3dd 1537
000000a0: 0000 0000 8427 cbb6 4493 7036 a5f2 8138
000000b0: faae 7f38 0000 0000 cb80 4338 7952 af37
000000c0: ea81 06b7 ec3b 3738 0000 0000 08dd 0b35
000000d0: 6ecb 7b36 659d 6738 df25 7f38 0000 0000
000000e0: b072 1738 8d0b 4f37 de4f 3937 f280 0b38
000000f0: 0000 0000 540a 0eb6 ce40 86b6 2799 8938
00000100: 88b5 7e38 0000 0000 64a2 6a38 445a 5f37
00000110: 9bbd 23b7 6b59 0e38 0000 0000 a01b 0f37
00000120: abeb 1937 ba47 2f38 b41f 5838 7ab0 6c38
00000130: 2797 2e3a 20b5 1933 58c9 f03a 56ee 1a38
00000140: 0000 0000 e658 d437 da35 7936 e5eb 4437
00000150: 6a95 fe37 0000 0000 9e8a 8738 f81d 5a36
00000160: 9a78 e3b7 31b3 c237 0000 0000 a01c 7a35
00000170: 87b3 85b5 f83f 2b38 b640 2138 0000 0000
00000180: 293f 2d38 0219 8036 e03b 92b6 1be0 e037
00000190: 0000 0000 4029 bab3 1a58 5135 8312 2838
000001a0: 2f5e 2a38 0000 0000 e11f 6337 512f 3a36
000001b0: c61f cd37 61a9 1a38 0000 0000 75b5 87b7
000001c0: e9d8 59b5 ec3c 7238 518d 2738 efd6 1d38
000001d0: 092f 6dba 7159 5e37 ef5f 993a 621b 1338
000001e0: 0000 0000 6b10 2bb7 f7f9 5636 40aa 2937
000001f0: 46b1 2e37 0000 0000 27cf 0337 72a9 1cb5
00000200: 7358 8bb6 e4fc 8636 0000 0000 a94b 84b7
00000210: d874 3035 2ef4 9837 e330 3e37 0000 0000
00000220: 7653 c836 4467 b3b5 e423 cbb5 9836 8835
00000230: 0000 0000 bdd3 bbb7 1012 8db4 3234 d837
00000240: 1dd7 2c37 0000 0000 4e14 7d37 474d 83b6
00000250: 5f15 07b7 10a6 75b5 0000 0000 b0df 40b7
00000260: 4475 08b6 acaa 8b37 94d3 8236 485b c237
00000270: adf8 e338 e43e 13b7 e5f9 d137 a029 b0b7
00000280: 0000 0000 423a 67b8 3a68 5738 84b8 e236
00000290: e407 e437 0000 0000 c840 c3b8 751a 2138
000002a0: 27ec 7138 2e54 4d38 0000 0000 3925 4ab7
000002b0: 8244 9437 403e 31b6 3092 6137 0000 0000
000002c0: 1cc5 02b9 ae51 5138 e723 a338 5459 2238
000002d0: 0000 0000 a83c 31b8 6e80 bb37 fe02 c037
000002e0: 946f ba37 0000 0000 8277 5e38 74bb c037
000002f0: 1d28 99b8 8ccb a7b7 0000 0000 eaa3 3b37
00000300: 1222 a4b7 70b4 3e37 c8ca 21b7 24b0 29b9
00000310: d3e4 b9b8 d812 ccb6 5e55 e7ba 66c6 e3b8
00000320: 0000 0000 c250 3337 367c a335 7f33 f9b6
00000330: 13bf 4cb6 0000 0000 c28d 0037 0a05 b936
00000340: bde9 11b7 fc38 8435 0000 0000 5c76 05b6
00000350: d49f d636 801a 9a33 4deb 0335 0000 0000
00000360: 8ade 03b6 46b0 c036 9c60 3c35 d308 3536
00000370: 0000 0000 204a 1035 6e3b bd36 b1de e3b5
00000380: b031 87b4 0000 0000 50a3 9936 d4c9 9a36
00000390: 1020 9eb6 f809 d535 0000 0000 8097 d035
000003a0: 404e 0d36 b200 5c35 0668 1f36 3a79 e2b6
000003b0: 8872 6bb7 74f7 0d36 6ca9 4f39 2c8b 6db7
000003c0: 0000 0000 9c34 cab6 c737 dab7 29c6 f9b8
000003d0: 6b67 17b9 0000 0000 4066 4c37 4edd 29b7
000003e0: 42a4 20b9 d6b5 1ab9 0000 0000 027f d4b8
000003f0: 041f 7737 465c 87b8 588f 08b9 0000 0000

exp_avg_sq f4 [512, 40]
0.0 2.4737767e-08 1.2919116e-08 2.2175916e-08 3.645453e-08 0.0 2.0719028e-08 6.308071e-09
3.38149e-08 4.4064922e-08 0.0 3.3032627e-08 1.22495125e-08 1.5375413e-08 3.0337258e-08 0.0
1.6972475e-08 4.0365e-09 4.010983e-08 4.6990483e-08 0.0 3.3917832e-08 1.1241854e-08 1.6004412e-08
2.8256036e-08 0.0 1.9078279e-08 5.5704157e-09 3.6072848e-08 4.6467882e-08 0.0 3.4370878e-08
1.1245487e-08 1.5238504e-08 2.937071e-08 3.420831e-08 2.3444575e-06 1.1678312e-08 2.194691e-05 5.6228558e-08
0.0 5.4424882e-09 2.5345772e-09 4.822593e-08 5.2040978e-08 0.0 2.3895836e-08 1.5577639e-08
1.6080659e-08 3.4281754e-08 0.0 2.5592473e-09 1.8225833e-09 5.2749325e-08 5.3521877e-08 0.0
2.7062555e-08 2.832049e-08 1.227679e-09 1.7558875e-08 0.0 2.155609e-09 1.47256465e-08 3.9493973e-08
4.9438675e-08 0.0 2.6759231e-08 2.8891444e-08 1.628866e-09 1.3494014e-08 0.0 3.329519e-09
2.6297357e-08 2.580726e-08 4.2090374e-08 4.955141e-08 9.756787e-06 5.2484253e-08 0.00028945928 5.5074548e-08
0.0 5.372269e-09 3.637999e-09 1.2104656e-08 1.5881108e-08 0.0 5.9056138e-09 5.408924e-09
8.94578e-09 1.3788727e-08 0.0 5.0325477e-09 1.879716e-09 1.3750096e-08 1.636481e-08 0.0
7.2624036e-09 6.1556267e-09 6.9792194e-09 1.2023232e-08 0.0 5.650994e-09 2.4800084e-09 1.2043057e-08
1.5858241e-08 0.0 6.9232216e-09 6.38075e-09 7.3499864e-09 1.2089644e-08 0.0 7.6360935e-09
4.0704835e-09 8.305143e-09 1.3629969e-08 1.245688e-08 1.2041102e-05 3.4843973e-07 6.0449704e-05 1.7178257e-08
0.0 6.4638868e-09 2.0014927e-09 4.9154285e-09 8.269728e-09 0.0 5.6421694e-09 1.964159e-09
5.372914e-09 8.122808e-09 0.0 5.7804863e-09 1.7939262e-09 6.3307377e-09 8.433286e-09 0.0
6.247347e-09 1.834593e-09 5.394049e-09 8.228777e-09 0.0 6.3293086e-09 1.6567551e-09 5.885738e-09
8.36375e-09 0.0 5.994632e-09 2.1763336e-09 5.6340443e-09 8.647843e-09 0.0 5.4588636e-09
2.1691078e-09 6.1109806e-09 8.642682e-09 7.1187802e-09 2.8083429e-07 1.0896528e-08 4.465229e-06 1.1936542e-08
0.0 2.934972e-07 9.611882e-08 1.730186e-07 3.3141293e-07 0.0 3.0185294e-07 9.709158e-08
1.644862e-07 3.0185245e-07 0.0 2.2569506e-07 7.913079e-08 2.6705018e-07 3.8601286e-07 0.0
4.05845e-07 5.8049988e-08 1.1952903e-07 2.7074086e-07 0.0 1.6344013e-07 5.619878e-08 3.4984686e-07
4.3048829e-07 0.0 3.3952645e-07 5.665797e-08 1.7959012e-07 2.852394e-07 0.0 1.0729537e-07
7.391055e-08 3.8891426e-07 4.6220265e-07 2.9286818e-07 3.342394e-06 1.5870619e-07 0.00010728538 5.508452e-07
0.0 3.5826009e-09 1.3558473e-09 1.2696507e-09 3.1290806e-09 0.0 3.3004834e-09 1.467051e-09
1.524941e-09 2.8962355e-09 0.0 2.9632148e-09 1.0299605e-09 2.3110065e-09 3.7236623e-09 0.0
3.5066114e-09 1.2212932e-09 1.660854e-09 3.053404e-09 0.0 2.2494162e-09 8.415063e-10 3.1537146e-09
4.203752e-09 0.0 2.7168914e-09 1.2247559e-09 2.2941236e-09 3.5860643e-09 0.0 1.4083676e-09
1.0218112e-09 3.806902e-09 4.629561e-09 2.9752496e-09 1.5006941e-07 1.1055583e-09 1.617502e-06 6.1854557e-09
0.0 9.116121e-08 6.1889786e-08 5.8174663e-08 1.1997057e-07 0.0 4.529553e-08 4.0512084e-08
1.2520007e-07 1.584413e-07 0.0 1.16517505e-07 5.532122e-08 3.7433857e-08 8.978644e-08 0.0
00000000: 0000 0000 ed7e d432 e0f2 5d32 5b7d be32
00000010: 2e92 1c33 0000 0000 a0f9 b132 61be d831
00000020: e03b 1133 e541 3d33 0000 0000 c2df 0d33
00000030: ed71 5232 e412 8432 2b4c 0233 0000 0000
00000040: deca 9132 6eb1 8a31 3945 2c33 95d2 4933
00000050: 0000 0000 0dad 1133 3222 4132 137a 8932
00000060: aeb7 f232 0000 0000 94e1 a332 e565 bf31
00000070: 84ee 1a33 fa93 4733 0000 0000 2e9f 1333
00000080: 2d32 4132 d3e5 8232 e04a fc32 6fec 1233
00000090: 7955 1d36 c2a1 4832 a11a b837 f47f 7133
000000a0: 0000 0000 a200 bb31 c12c 2e31 f920 4f33
000000b0: a983 5f33 0000 0000 8043 cd32 97cf 8532
000000c0: be21 8a32 303d 1333 0000 0000 c1de 2f31
000000d0: 737e fa30 7f8e 6233 eddf 6533 0000 0000
000000e0: 3077 e832 6b45 f332 1dbb a830 60d4 9632
000000f0: 0000 0000 e021 1431 14fc 7c32 15a0 2933
00000100: 6656 5433 0000 0000 2cdc e532 f52c f832
00000110: a1de df30 4dd3 6732 0000 0000 85cd 6431
00000120: 80e4 e132 c4ae dd32 dbc6 3433 5ad2 5433
00000130: 15b1 2337 0c6b 6133 91c2 9739 1b8b 6c33
00000140: 0000 0000 fa96 b831 5b00 7a31 d7f4 4f32
00000150: ed6a 8832 0000 0000 54ea ca31 66d9 b931
00000160: f5af 1932 76e3 6c32 0000 0000 c2ea ac31
00000170: 502c 0131 9039 6c32 9992 8c32 0000 0000
00000180: c788 f931 7781 d331 ddcd ef31 bc8e 4e32
00000190: 0000 0000 ab2a c231 c56c 2a31 ede5 4e32
000001a0: a438 8832 0000 0000 4de1 ed31 ac3d db31
000001b0: 2a8b fc31 d1b2 4f32 0000 0000 e52f 0332
000001c0: 5adc 8b31 68ae 0e32 3d29 6a32 f001 5632
000001d0: 2404 4a37 3111 bb34 608b 7d38 638f 9332
000001e0: 0000 0000 f318 de31 a28a 0931 91e4 a831
000001f0: a612 0e32 0000 0000 0cdd c131 daf9 0631
00000200: a79c b831 7d8c 0b32 0000 0000 b29d c631
00000210: 2b8e f630 c285 d931 fce1 1032 0000 0000
00000220: 3fa8 d631 0125 fc30 8f56 b931 8b5e 0d32
00000230: 0000 0000 3079 d931 e3b3 e330 803b ca31
00000240: 29b0 0f32 0000 0000 57f9 cd31 778e 1531
00000250: 9495 c131 9e91 1432 0000 0000 ac90 bb31
00000260: 590f 1531 c1f8 d131 eb7a 1432 7499 f431
00000270: 92c5 9634 7033 3b32 06d4 9536 7811 4d32
00000280: 0000 0000 f391 9d34 e169 ce33 fec6 3934
00000290: 0ced b134 0000 0000 5a0e a234 a980 d033
000002a0: 9f9d 3034 490e a234 0000 0000 9656 7234
000002b0: 9dee a933 195f 8f34 343d cf34 0000 0000
000002c0: e9e2 d934 a352 7933 e457 0034 575a 9134
000002d0: 0000 0000 157e 2f34 365f 7133 96d2 bb34
000002e0: dc1d e734 0000 0000 2948 b634 1958 7333
000002f0: 5bd5 4034 0123 9934 0000 0000 416a e633
00000300: c1b8 9e33 f8cb d034 a624 f834 7f3b 9d34
00000310: e44d 6036 d368 2a34 66fe e038 cbdd 1335
00000320: 0000 0000 c831 7631 a358 ba30 dd7f ae30
00000330: 5e07 5731 0000 0000 b8ce 6231 45a1 c930
00000340: 1796 d130 1d07 4731 0000 0000 6da1 4b31
00000350: 838e 8d30 a8cf 1e31 5ce3 7f31 0000 0000
00000360: f6f8 7031 6fda a730 1b44 e430 0dd4 5131
00000370: 0000 0000 2694 1a31 be4f 6730 bcb8 5831
00000380: 9870 9031 0000 0000 0fb4 3a31 4454 a830
00000390: a6a6 1d31 b66e 7631 0000 0000 8890 c130
000003a0: c96f 8c30 ddcd 8231 0d12 9f31 2575 4c31
000003b0: c422 2134 60f2 9730 f218 d935 d887 d431
000003c0: 0000 0000 68c4 c333 45e8 8433 b8db 7933
000003d0: 42d1 0034 0000 0000 f68a 4233 82ff 2d33
000003e0: bc6e 0634 0320 2a34 0000 0000 2d38 fa33
000003f0: 539a 6d33 f6c6 2033 9ed0 c033 0000 0000

exp_avg f4 [512]
8.695053e-06 5.9494338e-05 4.0764735e-05 3.1200025e-06 2.9849252e-06 4.4793223e-06 -0.00015114136 -6.2771374e-05
-0.000109677276 9.150379e-06 7.900924e-05 -2.8964268e-05 0.00032862078 2.006958e-06 -3.2100397e-05 0.00017063905
-3.9061706e-05 0.00010599138 4.6110697e-05 6.6207576e-07 7.2693474e-05 -0.000107909545 6.579521e-07 1.3907449e-05
1.1922399e-05 -2.4472607e-05 -8.932117e-05 5.208993e-05 -8.531071e-06 1.2853177e-05 6.849099e-05 -0.00010063415
2.5878593e-05 -0.0003749591 -2.9829085e-05 -7.223526e-05 -8.258594e-06 -1.34904185e-05 4.3620006e-05 -4.8924652e-05
-2.7007653e-05 -7.864781e-06 0.00013635351 1.3814708e-05 7.717615e-05 0.00011799716 1.0016244e-05 7.728063e-05
-5.3298325e-05 -5.9026068e-05 -2.723169e-05 -4.4667493e-05 -3.0101346e-06 -1.5233707e-06 4.0639618e-05 -1.2907702e-05
9.007976e-05 -0.00010048257 -2.7577253e-05 1.0512538e-05 -0.00010657816 -0.00011325626 4.78757e-05 -0.00015464037
-1.0954768e-05 4.8310034e-05 -5.422524e-05 -6.9454094e-05 0.0001666397 -8.662727e-05 -2.8403403e-05 7.87082e-05
6.3805855e-05 1.338826e-05 8.949648e-05 -1.2540639e-05 0.00010611215 8.0127604e-05 0.00012468462 0.00017637537
-4.9487047e-05 6.490757e-05 9.821696e-05 8.009667e-05 -9.799814e-05 1.3682144e-05 1.24494545e-05 2.453718e-05
2.5973772e-05 0.0003081492 0.00010747367 -4.104639e-05 -0.0001415644 -0.00015630608 0.00018483255 1.7070332e-05
-3.3030865e-06 5.165074e-06 0.00019424035 0.00015024694 -3.8349437e-05 1.2228525e-05 -1.6155935e-05 -0.00023829108
-1.4438515e-06 -6.071123e-05 9.814762e-05 -4.8335583e-05 4.3475906e-05 -0.0002603197 2.147277e-05 6.7978926e-06
-3.5648245e-05 -1.0536925e-05 -1.1376138e-05 -7.663516e-06 5.8286405e-06 6.9068425e-05 9.361561e-07 -3.533441e-05
-0.0002173149 -2.1911394e-05 -4.4806802e-07 0.00034841435 1.945694e-05 -0.00010120844 -2.0688224e-06 -9.611626e-05
-3.132474e-05 -1.9709725e-05 -1.6264741e-05 -7.233407e-05 -5.9752897e-06 -0.00016879552 5.1404086e-06 -0.00010332878
-1.3570258e-05 -1.7702783e-05 -0.00010836592 -3.337068e-05 1.21949115e-05 8.869183e-06 0.00018264574 0.000112695976
-2.4981662e-05 -2.3740881e-07 1.580309e-05 2.7393175e-05 1.0266608e-05 -0.00013114802 -3.4915418e-05 3.2287035e-06
1.2159373e-05 0.00028377914 2.2837477e-05 4.1359224e-05 -2.7359407e-05 5.9896403e-05 9.1747745e-05 -0.00010549609
-5.3596075e-05 -3.124787e-05 -3.4379296e-05 -2.5750125e-05 -1.3796585e-05 -0.00018149361 -3.5680358e-05 8.383942e-06
3.9605045e-05 8.709504e-05 3.541154e-07 -3.5838857e-05 3.7097943e-05 -0.00014609675 3.6645768e-05 1.2904495e-05
-0.00017458097 9.450918e-06 -1.5063979e-05 1.8742532e-05 -6.717535e-05 -5.116717e-05 -8.462362e-06 -1.5139506e-05
-1.3883321e-05 0.0001719932 -2.7851971e-05 1.2699713e-05 4.4085868e-05 -6.6608445e-06 1.4532405e-05 -8.040829e-05
-0.00012015964 -6.6605906e-05 -0.00024985577 2.6499813e-05 8.532359e-06 4.8436847e-05 0.00014388161 -7.244e-05
3.120475e-05 -6.99309e-06 1.1358959e-05 -2.0661694e-06 2.2056196e-05 0.0001860871 -0.00021357798 9.422477e-06
-7.232137e-05 5.0791896e-05 -0.00013531999 -2.280883e-05 9.160398e-05 4.600559e-05 -7.941025e-05 -5.7579797e-05
-1.0019887e-06 -0.00013666802 0.0005220547 -2.9228879e-05 -1.8249824e-05 3.7994436e-05 7.644139e-07 -8.136183e-06
-4.649844e-05 -9.9998055e-05 1.7123612e-05 -5.4421464e-05 1.0354939e-05 -8.578562e-05 9.9215285e-05 2.822324e-05
-3.1964148e-05 3.0725467e-05 -1.98323e-05 5.6540535e-05 0.00040989803 3.952714e-05 3.531043e-05 -0.0001926202
0.00013722794 -0.00012675994 8.703224e-06 0.00045948935 2.9881685e-06 5.606276e-05 0.0001981303 -9.709625e-06
-8.2239585e-06 -5.3258602e-05 -0.00021816314 -4.5670276e-07 -5.3801705e-05 9.367237e-05 -9.014402e-06 -4.3946484e-06
00000000: f8e0 1137 8f89 7938 cdfa 2a38 3c61 5136
00000010: a050 4836 164d 9636 b37b 1eb9 20a4 83b8
00000020: 8a02 e6b8 9484 1937 c3b1 a538 4bf8 f2b7
00000030: bc4a ac39 47af 0636 8aa3 06b8 92ed 3239
00000040: 30d6 23b8 b047 de38 fc66 4138 80b9 3135
00000050: 0373 9838 7f4d e2b8 209e 3035 0a54 6937
00000060: 5006 4837 864a cdb7 f051 bbb8 237b 5a38
00000070: ac20 0fb7 faa3 5737 d2a2 8f38 8c0b d3b8
00000080: db15 d937 2996 c4b9 7939 fab7 037d 97b8
00000090: 648e 0ab7 e854 62b7 a0f4 3638 7234 4db8
000000a0: 7e8e e2b7 faf2 03b7 1efa 0e39 b8c5 6737
000000b0: a1d9 a138 3e75 f738 710b 2837 b911 a238
000000c0: a48c 5fb8 c292 77b8 9c6f e4b7 5b59 3bb8
000000d0: b801 4ab6 9e76 ccb5 7574 2a38 288e 58b7
000000e0: 34e9 bc38 2bba d2b8 b355 e7b7 025f 3037
000000f0: b782 dfb8 fe83 edb8 24ce 4838 f526 22b9
00000100: 5fca 37b7 81a0 4a38 e86f 63b8 e2a7 91b8
00000110: 01bc 2e39 a9ab b5b8 d843 eeb7 2510 a538
00000120: 82cf 8538 249e 6037 0fb0 bb38 a265 52b7
00000130: 8788 de38 2e0a a838 c6bd 0239 67f1 3839
00000140: 5090 4fb8 fc1e 8838 d4f9 cd38 93f9 a738
00000150: 5a84 cdb8 5c8c 6537 00de 5037 31d5 cd37
00000160: 40e2 d937 168f a139 7d63 e138 3a29 2cb8
00000170: e770 14b9 18e6 23b9 9ccf 4139 4232 8f37
00000180: 98aa 5db6 a64f ad36 ffac 4b39 9b8b 1d39
00000190: 65d9 20b8 1d29 4d37 9b86 87b7 c6dd 79b9
000001a0: 5cca c1b5 30a4 7eb8 9ad4 cd38 f0bb 4ab8
000001b0: e659 3638 857b 88b9 6c20 b437 7419 e436
000001c0: 0385 15b8 c0c7 30b7 24dc 3eb7 8d92 00b7
000001d0: a493 c336 d4d8 9038 284c 7b35 0934 14b8
000001e0: 06df 63b9 5cce b7b7 008e f0b4 62ab b639
000001f0: 7637 a337 de3f d4b8 19d6 0ab6 0692 c9b8
00000200: af62 03b8 5056 a5b7 4470 88b7 0fb2 97b8
00000210: 597f c8b6 b4fe 30b9 c67b ac36 37b2 d8b8
00000220: d0ab 63b7 7080 94b7 8342 e3b8 7ff7 0bb8
00000230: bf98 4c37 dacc 1437 9884 3f39 3157 ec38
00000240: b68f d1b7 70ea 7eb4 e190 8437 65ca e537
00000250: bf3e 2c37 c784 09b9 2572 12b8 b4ac 5836
00000260: 1c00 4c37 31c8 9439 1c93 bf37 2179 2d38
00000270: e181 e5b7 4639 7b38 b268 c038 c83d ddb8
00000280: 59cc 60b8 2510 03b8 7d32 10b8 f901 d8b7
00000290: e277 67b7 524f 3eb9 7ea7 15b8 c2a8 0c37
000002a0: 981d 2638 cba6 b638 401d be34 ae51 16b8
000002b0: 9d99 1b38 8c31 19b9 18b4 1938 6280 5837
000002c0: b90f 37b9 628f 1e37 4cbb 7cb7 4839 9d37
000002d0: 7ee0 8cb8 559c 56b8 91f9 0db7 afff 7db7
000002e0: 69ec 68b7 1359 3439 a7a3 e9b7 da10 5537
000002f0: d7e8 3838 3880 dfb6 34d0 7337 dfa0 a8b8
00000300: 37fe fbb8 c6ae 8bb8 13ff 82b9 ea4b de37
00000310: 3426 0f37 ab28 4b38 edde 1639 eeea 97b8
00000320: d8e1 0238 30a6 eab6 5b92 3e37 85a8 0ab6
00000330: 5205 b937 6020 4339 e7f3 5fb9 3b15 1e37
00000340: 3dab 97b8 6209 5538 afe4 0db9 9755 bfb7
00000350: 831b c038 20f6 4038 0e89 a6b8 d681 71b8
00000360: 127c 86b5 8b4e 0fb9 7fda 083a 8a30 f5b7
00000370: 3317 99b7 375c 1f38 2032 4d35 a480 08b7
00000380: 5207 43b8 0cb6 d1b8 ada4 8f37 9a42 64b8
00000390: 20ba 2d37 cee7 b3b8 cd11 d038 f2c0 ec37
000003a0: 3e11 06b8 38df 0038 8a5d a6b7 f025 6d38
000003b0: 95e7 d639 f2c9 2538 491a 1438 17fa 49b9
000003c0: d8e4 0f39 ddea 04b9 1004 1237 9ee7 f039
000003d0: 5888 4836 ee24 6b38 33c1 4f39 86e6 22b7
000003e0: a2f9 09b7 fd61 5fb8 b9c2 64b9 c030 f5b4
000003f0: 24a9 61b8 f971 c438 903c 17b7 be75 93b6
