MLagents_test1/results/CarAgent_reinforcement_6/CarAgent/CarAgent-3499532.onnx (onnx, 108720 bytes, 7 tensors)

discrete_act_size_vector f4 [1, 2]
00000000: 0000 8040 0000 a040
4.0 5.0

network_body._body_endoder.seq_layers.0.weight f4 [512, 40]
00000000: 2b48 b83d 140e 8cbe a87d fb3d b68d b23d
00000010: 62cb 9abc 86af 893d 480f 813d 47e0 f63c
00000020: 6415 46be ac5c 7dbb 439c 92be b4a1 923e
00000030: 4c56 0c3e c974 68be c176 9f3b f59b 1b3c
00000040: 81f7 0bbe 0b58 30be 1beb ac3e d89e 89bc
00000050: dfc5 9ebd e926 40be a118 12be 02d5 b63d
00000060: 4830 813d ace3 003c 392a b93d cb42 583d
00000070: 29e2 0ebe 2e11 86be c08c 8a3c 47e6 8d3e
00000080: 3823 e2bc 9272 16be 08c8 31be f3b2 113e
00000090: 05f6 c53d 8aff a6bd fcb7 41bd 2366 6c3e
000000a0: 6707 5fbe 5e58 24bd 1e62 07be 6772 01bf
000000b0: a8c7 6dbe 7478 e4bd 97f9 c13e 8492 9bbd
000000c0: 6042 b2be 8193 0abf 95fe d1bd 4a37 1ebe
000000d0: d236 073d d465 48be ca06 23bf 4db1 2abe
000000e0: 2331 a4be 096d febd 6feb 5dbe e3b1 36bf
000000f0: e83e 513e 4837 37bf 59c0 0dbe 3964 56bd
00000100: 6c4f dabd 77a9 833e 31a3 57bd 2b71 6abe
00000110: 83ae 81be 6bd8 08bf 5f50 86bd 14ca e6be
00000120: 2fb1 5fbe c53f ac3e abe4 a4be 34b7 56be
00000130: ab78 b1bc 7d7f 163e 2f51 8a3d 1148 cdbe
00000140: 6bb8 9abd 4db7 9cbe 8d77 82be 14ea 4fbd
00000150: 5539 113d c869 883d 5f47 db3c ab89 06be
00000160: 6443 b33d 091e 473e 2f02 94bd 57d0 c33d
00000170: 0cb9 993b df5b c0bd f525 b9be bb6c 743d
00000180: 4d02 8cbe 8732 f7bd 3958 e23d 23f0 56be
00000190: 50ad 7bbe 08d9 afbd 49c6 67bd 97d7 0abe
000001a0: 99c5 cdbe 8c64 d43c 157d cebe 0042 bdbd
000001b0: 9d58 793e 2062 36be df80 92bd 9ff6 73be
000001c0: bcfe 9abe fcf7 0cbe 84d4 87be 25e5 483e
000001d0: 3992 f1bd 6864 6abe e937 0a3c 0b5f 38be
000001e0: ca3d a73e 7316 bdbe ddb2 5abe e6da 8e3a
000001f0: 44d9 edbe 98c0 e1bd 0326 ecbd fb15 01be
00000200: 02dd 973d 7406 cfbe e3ce 5bbb a1cb 2bbf
00000210: 74e4 8fbd 27d1 323e a23f b4bd 09ba 68bd
00000220: 8445 75be f834 4abe e280 46bc 3aec 82be
00000230: 9737 99bd b2e0 27be 0d73 763e 804d 77be
00000240: 4512 1ebe c0be 7d3d e5e0 95bd 1a11 7bbe
00000250: e644 35be 6bae 00bf 0daf 0fbd 7870 86be
00000260: a6ce 06be 6510 2abf 81e2 8bbe 012e 68bd
00000270: 62f6 6cbd d98a cc3e 5056 19bd 47b4 30be
00000280: 7503 edbd 6d3a 9e3e 5679 183e 3c2e 49be
00000290: ee74 1ebc 6792 df3d 3691 ebbc ab5a a23d
000002a0: cbfe bdbc b79f e23c a6eb 623e 57c5 60be
000002b0: 6e27 943e 8c90 5e3e 682d 3fbe 36bf 223d
000002c0: 1175 993e 97fc 97be 11a8 6d3b 25e4 4cbe
000002d0: eb7a 89bd c67f 34be 013d 5fbc f50a 1b3e
000002e0: 7cc1 c63c c199 28be bf24 d2bd d3d7 adba
000002f0: 52c1 8f3e 8608 a9be 0920 ba3d e7ad 80be
00000300: 0961 6dbe 38eb 8a3e ba5e b23d 9691 e0be
00000310: 1c2d 10bb edec 8dbe 6a8c 5abd 63c6 92be
00000320: 161b a9be 4e8a 3dbe b314 a8be a374 24be
00000330: 7308 f5be 282b 8c3c 5d53 eabe ce4e 28be
00000340: fdeb bfbe b08a a8be 1d25 5abd 6236 88bc
00000350: a0e0 abbc 9f15 a7be 95c6 bebe c42f 243d
00000360: fc38 00bf 6d1b e13d 8536 d0be 29c6 dbbe
00000370: 110d acbd ff27 b03b effa bbbd de27 a6be
00000380: fdaf 9dbe 2867 213e 8593 90be 94ba dc3d
00000390: 6304 99be 43e0 1cbf ae1c 533e 0452 1abf
000003a0: 592e 9ebe ce8e be3d ffec 74be 3255 f83e
000003b0: b0d8 69bd 7da7 363e 7dba 18bd d29b 8b3e
000003c0: 21bd a83e b549 a43d 3560 313e 44e2 5abe
000003d0: 45da f6bd 47a9 81bd 614f 90be eb08 963e
000003e0: 73d4 e03e 2436 66be 8ca0 5dbe 0f26 c03e
000003f0: 5e3d 8b3d c9c0 01bf 4de0 94be ba23 433e
0.0899814 -0.2735449 0.122798264 0.087184355 -0.018895809 0.067229316 0.06301743 0.03013624
-0.19344097 -0.0038659973 -0.28634843 0.28638995 0.13704795 -0.227008 0.0048664515 0.009497632
-0.13668634 -0.17221086 0.3377312 -0.016799375 -0.07752585 -0.18764843 -0.14267208 0.08927347
0.06308037 0.007866781 0.090412565 0.052798074 -0.13953461 -0.26184982 0.016912818 0.2771475
-0.027604684 -0.14692143 -0.17361462 0.1422842 0.09666065 -0.08154209 -0.0472946 0.23085837
-0.21780168 -0.040123336 -0.13221022 -0.5056519 -0.23220694 -0.11155787 0.37885734 -0.07596305
-0.34816265 -0.54131323 -0.10253636 -0.15450779 0.033011265 -0.19570094 -0.63682234 -0.16669197
-0.32068738 -0.124231406 -0.21671842 -0.71365184 0.20434153 -0.7156873 -0.13842906 -0.052341674
-0.1065968 0.2571523 -0.052645866 -0.22894733 -0.25328454 -0.5345523 -0.06558298 -0.45076048
-0.21844934 0.33642402 -0.3220571 -0.20968324 -0.021663984 0.1469707 0.06753766 -0.40094045
-0.07554706 -0.30608597 -0.25481835 -0.050760344 0.035455067 0.06660801 0.02676743 -0.13138454
0.08753088 0.19445051 -0.07226979 0.09561222 0.0046912488 -0.09392523 -0.3616177 0.059674006
-0.27345505 -0.12070184 0.110519834 -0.20990042 -0.24577832 -0.08586317 -0.056585584 -0.13558803
-0.40189818 0.02592685 -0.40329805 -0.09241104 0.2435021 -0.17810869 -0.071534865 -0.23824547
-0.30272472 -0.13766474 -0.26529324 0.19618662 -0.11795468 -0.22889864 0.008436182 -0.18005006
0.3266433 -0.3693119 -0.21357293 0.0010898977 -0.46454823 -0.110230625 -0.11530688 -0.12606041
0.07415201 -0.4043461 -0.0033540062 -0.6710759 -0.07025996 0.17462598 -0.088011995 -0.056818042
-0.239523 -0.19746768 -0.012115689 -0.25570852 -0.07481306 -0.16394308 0.24067326 -0.24150658
-0.15436657 0.06194949 -0.07318286 -0.24518242 -0.17702064 -0.5026614 -0.03507905 -0.26257682
-0.13164768 -0.66431266 -0.27321246 -0.056684498 -0.057852156 0.39949682 -0.03743583 -0.1725627
-0.11572925 0.3090395 0.14890036 -0.19646543 -0.009671433 0.10916596 -0.028755765 0.0792745
-0.023192784 0.027664049 0.22160205 -0.21950279 0.28936332 0.21734828 -0.18669665 0.039733134
0.29972127 -0.29684898 0.0036263505 -0.20008905 -0.06712898 -0.17626867 -0.013625384 0.15140899
0.024262182 -0.16464902 -0.10260915 -0.0013263173 0.2807718 -0.33014315 0.090881415 -0.25132677
-0.23181547 0.27132583 0.08709474 -0.43861073 -0.0021999544 -0.27719823 -0.053356566 -0.28666982
-0.33028477 -0.1850979 -0.32828292 -0.16060118 -0.4785801 0.017110422 -0.45766726 -0.16436312
-0.37484732 -0.3291831 -0.05325805 -0.016627494 -0.020981133 -0.32633683 -0.3726088 0.040084615
-0.5008695 0.10991559 -0.40666595 -0.42924622 -0.0840093 0.0053758617 -0.09178721 -0.3245229
-0.3079833 0.15762007 -0.28237548 0.107777745 -0.2988616 -0.61279696 0.20616409 -0.60281396
-0.30894735 0.093045816 -0.23918532 0.485025 -0.057091415 0.17837329 -0.037287224 0.2726732
0.32956794 0.08021871 0.17321856 -0.21375376 -0.1205335 -0.06331115 -0.2818556 0.2930368
0.43912086 -0.2248159 -0.21643275 0.37529036 0.06798814 -0.5068479 -0.29077378 0.19056597

network_body._body_endoder.seq_layers.0.bias f4 [512]
00000000: a1d2 93bd 1103 8fbe 9697 64be 3873 70be
00000010: c8e4 1f3d f538 97be c474 4cbb 8cc8 68bd
00000020: cf70 42bd 4ab7 a7be b3c7 d83c be0b a4be
00000030: d8e5 9dbd e2e7 c1be a909 fcbc 6369 cfbc
00000040: 714d 27be 4d93 493c b21a 0bbe ac8b 0fbe
00000050: 230d 39be a1f3 80be 8686 c9bd 525d 9fbe
00000060: f03e aabe 075b 0cbe fd2d 10be 1767 15bd
00000070: 5b19 bbbd 77b7 86be 4dc0 03be c801 eebd
00000080: b7b9 24be 5794 dcbd d799 0ebe 8d6e 18be
00000090: 0a9d 87be 5a86 6fbd 9d31 2cbe 86db 35be
000000a0: 2b71 fbbd 9741 81be b8ec 6cbd 3e24 68be
000000b0: e2be 9fbd c07a 18be 0c08 b7be 325b d1bd
000000c0: ba68 40be f72d 66be b68b 18be 76de 94bd
000000d0: fc04 edbd 4c20 a3be ef19 493d 86b6 1cbe
000000e0: 5822 1abe 411e d6bd 70d0 3fbe 4d11 9cbd
000000f0: ab47 27be 3b29 00be 3857 f7bd 7f16 91bd
00000100: a9e1 3abd f509 813d 974b 89bc d6cc 48ba
00000110: e174 d7bd c7ad 1cbe 8f5a 88be 88e8 7abe
00000120: 636b 823c 63ed 98be 7582 26be e86a 03be
00000130: 2c80 0fbd 5bdc 1abd ef75 df3c 71f9 24be
00000140: 4b83 a3bd ca39 e1bd 4ee6 1ebe 04c7 e0bd
00000150: e468 f1bd 1d18 8dbe f137 c2be 0059 46be
00000160: 2b14 8bbe 57af b03d 8a18 1fbd 8769 98be
00000170: e62d d6bd 47f8 fcbd 767c 65bd bdaf 21be
00000180: f90c e6bd 1856 83be eae6 4bbc 0fd6 96bd
00000190: de34 38be 7995 adbe a8fe a5be 8337 c6bd
000001a0: 2c7a abbe 73fb dbbd e66d 93be dffc eabd
000001b0: 57ed 06bd 8bff bfbc c799 d7be ca86 a4be
000001c0: 089c 46be 9bef 1abe 16a3 22be ef63 37be
000001d0: f453 3dbe f048 90bc f182 e8be a4c7 9fbd
000001e0: 98c1 3ebe 708d 58be e4ea 83bd 2170 143d
000001f0: bc59 6abe 224f fcbd f3a4 cbbd 1ba5 6cbe
00000200: d96f 2dbe e69a aebd 43d2 cebe 6b40 ffbd
00000210: 0272 41bd 9588 4ebd b5e1 a5be 32b9 0cbe
00000220: 8a87 03be 6024 89be 62ac 17be b07a 6bbe
00000230: 505c b2be 8387 7cbd 9160 4dbd 0fcb ccbb
00000240: 66e0 46be dc20 2dbe b3fd b1bd c6e6 c9bd
00000250: 684a 94be 4b0c ddbd f9d5 9abd b074 adbe
00000260: aa50 aabd a1e2 0a3d a20b 81be cb67 afbd
00000270: 4b2a 34bc 0b18 4fbd 7f59 86bc 59ee ffbd
00000280: 6590 82be ff3f 67be 2ec1 bdbd 6b9c 75be
00000290: 4ca7 45be c01c e2bd 66f9 1dbe b23d 22be
000002a0: 2525 34bd e2df b33c 46ec afbe 7c66 02be
000002b0: dd62 0dbe 4f34 1bbe fada dabd 5ab0 66be
000002c0: b8e1 5abe 38bd 1fbe 774f 92bd 59ee aebe
000002d0: f45c 713c b238 89be 8e7e c7be d88d 6cbe
000002e0: a63d 4ebe 42e5 08be 150e a6bd e1d3 98be
000002f0: df3b 2fbe 4fd4 adbe ffba 85be b31e ad3c
00000300: c3fb efbd 2c3e a7bd 21f3 05be bb03 52be
00000310: 1fa7 b1be f896 43be ce89 983b 8884 c4bd
00000320: 1095 263d bea0 87bb 188a c6be 2757 babe
00000330: b05e 78bd 7d94 743d e916 a8bd cdb7 b8be
00000340: f910 4cbe 79ff 88bd f5b8 92bd 65ce 83be
00000350: b1e4 9dbd 25fb 1abe fe75 e9bd 7323 55bd
00000360: 1266 a2be 3c9a ccbd 4f5f 703c d63b 65be
00000370: 1de5 71be 5faf 16be c993 54be 8f42 9bbe
00000380: 1332 8cbe 4f3f ccbb 7118 3bbe 12a8 2ebe
00000390: 6a11 93be 587c 15bd 91a7 c5bc c0c2 03be
000003a0: 409f b6bd f730 f4bd 4e82 33be ca9f b5bd
000003b0: 1cdc dbbd 4c8e 3fbe 7127 9dbe 1751 a2bd
000003c0: 889b 35be 399e 9fbe d354 aebe 9a89 16be
000003d0: f6ae 91be 8237 e1bd 8592 d9bd 2b05 53be
000003e0: 7ddb bfbd 731e 85bd 2db1 06be a6ed ccbd
000003f0: 834e 18bd d599 3ebe 7670 79be 6c29 5abe
-0.07217909 -0.27932027 -0.2232345 -0.23481452 0.039036542 -0.29535642 -0.0031197527 -0.05683188
-0.047470864 -0.32757026 0.026462412 -0.3204021 -0.07709855 -0.37872225 -0.030766325 -0.025318807
-0.16338135 0.012303186 -0.13584402 -0.14018124 -0.18071418 -0.25185874 -0.098401114 -0.31125885
-0.33251143 -0.13706599 -0.14080043 -0.036475267 -0.091356955 -0.26311848 -0.12866326 -0.116214335
-0.1608647 -0.10770481 -0.13925873 -0.14885922 -0.26487 -0.058477737 -0.16815801 -0.17759523
-0.122774445 -0.25245354 -0.05784294 -0.22670075 -0.0780008 -0.14890575 -0.35748327 -0.10222472
-0.1878995 -0.22478472 -0.14897045 -0.072689936 -0.11573216 -0.31860578 0.049096998 -0.15304002
-0.15052164 -0.10454989 -0.18731856 -0.07620487 -0.16335933 -0.12515728 -0.120771825 -0.07084369
-0.045625363 0.06300727 -0.016759677 -0.00076599175 -0.1052034 -0.15300666 -0.2663159 -0.24502766
0.015920347 -0.29868612 -0.16260703 -0.1283375 -0.035034344 -0.037807804 0.027277915 -0.1611078
-0.079840265 -0.109973505 -0.15517542 -0.10975459 -0.117875844 -0.2755746 -0.37933305 -0.19369888
-0.27163824 0.086271934 -0.03884176 -0.2976801 -0.10457973 -0.12352043 -0.0560269 -0.15789695
-0.11232943 -0.25651622 -0.012445191 -0.07365047 -0.17988917 -0.339031 -0.3242085 -0.09678557
-0.33491647 -0.107413195 -0.28794783 -0.114740126 -0.03294119 -0.023437282 -0.4210951 -0.32134086
-0.19395459 -0.15130465 -0.15882525 -0.17909215 -0.18489057 -0.017612904 -0.454124 -0.0780175
-0.18628538 -0.21147704 -0.06441286 0.036239747 -0.22885793 -0.12319781 -0.09943571 -0.23109858
-0.16937198 -0.08525638 -0.40394792 -0.124634586 -0.047227867 -0.050423224 -0.32398763 -0.13742521
-0.12844673 -0.26785564 -0.14811853 -0.2299602 -0.34836054 -0.06165267 -0.05014092 -0.0062497924
-0.19421539 -0.16907066 -0.086909674 -0.0985847 -0.28963017 -0.1079336 -0.07560343 -0.33878088
-0.08316167 0.033907536 -0.25204188 -0.08564719 -0.010996412 -0.05056004 -0.016400097 -0.12496633
-0.2550079 -0.22583006 -0.09265362 -0.2398545 -0.193021 -0.1104064 -0.15427169 -0.15843847
-0.043980736 0.021957342 -0.3435995 -0.12734407 -0.13807245 -0.15156673 -0.10686298 -0.2252821
-0.21375167 -0.15599525 -0.07144063 -0.3416622 0.014731634 -0.26801068 -0.3896374 -0.23100984
-0.20140705 -0.13368705 -0.08108155 -0.2984915 -0.17112683 -0.3395104 -0.2611923 0.021132803
-0.117179416 -0.08166155 -0.13081028 -0.20509236 -0.34697816 -0.19100559 0.0046550995 -0.09595591
0.0406695 -0.004139035 -0.38777232 -0.36394617 -0.060637176 0.059711922 -0.08207495 -0.3607773
-0.1992835 -0.066893525 -0.07164184 -0.25743404 -0.07709635 -0.15134867 -0.11399458 -0.05203576
-0.31718498 -0.09990355 0.014671161 -0.22386107 -0.23622556 -0.14715336 -0.207595 -0.30324218
-0.27381954 -0.006233133 -0.18271042 -0.17056301 -0.28724223 -0.036495537 -0.024127753 -0.1286726
-0.08917093 -0.11923402 -0.17530176 -0.08868368 -0.10735342 -0.18706626 -0.30694154 -0.07925623
-0.17735112 -0.31175402 -0.3404909 -0.14700928 -0.28453797 -0.109969154 -0.106236495 -0.2060744
-0.09368036 -0.06499948 -0.13153525 -0.10006265 -0.03718425 -0.1861337 -0.24359307 -0.21304864

action_model._discrete_distribution.branches.0.weight f4 [4, 512]
00000000: 54b6 ffbc 0235 7cbd fc77 09ba a96f 23bd
00000010: 5f0d 973d 8e83 81bc d0fd 8b3c f806 5dbc
00000020: d744 e13c b1fc 25bd 8f17 353e 1fd7 fa3c
00000030: b618 b9bd 5633 36bd 2df2 003d 2bb4 983d
00000040: a998 c4bd 61b9 613d b6ed c5bc e759 ee3c
00000050: acd0 8dbc fc6b fa3d 7610 02bd 34e1 fdbc
00000060: 52bd 1a3c 2765 20bc f3ae 7cbc 4902 3cbd
00000070: b724 c23c 8798 1cbd f889 1a3d b057 f0b9
00000080: fd67 613d 5c05 abbc ac80 5bbd 07c1 373c
00000090: c2f3 22bc 7d68 853c c1a2 4c3c a908 343d
000000a0: c1db 53bc 488b 84bc d0e5 77bd 6b73 c2bd
000000b0: 4d45 623d 2521 163c 89d9 d1bc 243d 783d
000000c0: 2e13 febd 6eca 17be 07c9 3b3d 086c 5e3d
000000d0: d718 0ebd 8e3b 1abc 9e33 2bbd 9c89 cdbd
000000e0: 0cbc 383c ba48 513d fcdb e0bc bf57 53bc
000000f0: 4d76 133d d6cc d2bb 3b5f 5dba bcd5 7e3c
00000100: edae 9d3b b263 4f3d 2a6b c53c ce4e 3c3d
00000110: 613b 973d c010 273d 1baa a03b 3061 6bbd
00000120: 9fb6 813b d1e2 2fbd 713e 7c3d 276c de3c
00000130: 1844 93bb 1487 833d ff48 563d a7c7 7f3d
00000140: 4bcd dcbc c13f 6cba 204e 1c3d 1a51 7f3c
00000150: 6603 a5bc 424e a3bc 6e0c 4fbc 7302 febc
00000160: eec7 993c e107 643d 3665 113d 0aec 5cbb
00000170: 380c c43c 1dd7 293d f42f b3bd 8895 84bd
00000180: 417b 36bc cb4c debc d903 863d 42b7 36bc
00000190: 34b0 0fbd f255 e6bd db0d 4abd fee6 c5bd
000001a0: 2757 873c b1ab f53c 71fe e53c d5f5 6f3c
000001b0: 48a1 d3ba 462d 253d e37a a73c 562c b0bd
000001c0: b53f 50bd 5af1 1a3d b020 9cbd 197c f23b
000001d0: ea1d 5fbc 2976 b83b e117 05bd fcbd a63c
000001e0: 42e1 0ebd 0303 82bc 3da9 45bc 6da4 7abc
000001f0: 555a 0dbd 5939 a5bc faf1 50bb 5c59 223e
00000200: 977a 273d 0303 28bd 4833 3fbc 7726 23bd
00000210: ce1e 333d 7f1e 9d3b f988 46bd 9edb 533c
00000220: 4f27 01bd cf91 813b db4e 2abd 785c 0cbd
00000230: 94e2 6cbc 4345 d43c 1c36 473b c233 b23c
00000240: c64b cb3d 2658 2f3d 04e4 47bc e4b3 9c3c
00000250: 3bf3 80bd 78c0 af3a cf38 463c dc03 0c3c
00000260: e074 acbc 82dd 04bc 16b5 7cbc 6952 1fbd
00000270: 73ba 4abc d3dd 653d b249 653d 1485 103d
00000280: 55f2 f7bd 0677 b33d 2bda af39 8170 d6bd
00000290: 84fe 44bd 484b 613c c825 8ebc 2602 713c
000002a0: 1511 28bc fd4d a9bd 36a3 ecbd c91e a7bd
000002b0: 2e79 80bd 93b9 90bc b250 873d edbf ccbc
000002c0: 208c 4abd 8fc8 0c3b 5848 233d a110 00bd
000002d0: bab4 e23c 8a75 35bd 4363 a5bc c6dd 67bd
000002e0: 1073 b0bc 8230 db3c 8018 fb3a 19cc f1bd
000002f0: 5c22 3e3d 31a5 b5bd 8bd8 f5bb cfe8 533d
00000300: cc2d 6e3d cc0f c93c be5b eebc d3ec 22bd
00000310: 360c 03bd ab54 303c ea4e d43b 3776 e1bb
00000320: beb7 c2bb 9907 fa3d 793e aabd f3e8 2f3c
00000330: c917 80bc 7993 afbd 2044 c23a fdbc 5dbd
00000340: 7c63 1b3d 43df b53d 8d93 81bc 4ebb bd3c
00000350: 2b44 323d bd4f 4d3d fe2a d4bc 5bc2 4d3b
00000360: a276 d3bb f1a9 c0bd f06f 62bd 5f90 5dbd
00000370: 2d81 09bd 9c48 50bd 33a2 233d 779a bebc
00000380: 6552 aa3b 021c c13d 1e46 a4bd 0f58 093d
00000390: 95e0 9abc ea32 863d f012 3a3d 8f62 2e3e
000003a0: e225 243d 4d49 d73c 57d7 a6bd be0b f03d
000003b0: a2ac 6a3d 1ac4 453d f4db 33bd 1156 1c3d
000003c0: 25dc 073c 0a2d c23d ea5e 51bd ca5c 44bc
000003d0: 4fd8 99bd c2b6 c83d 77ae 0a3d 9bb6 e8bc
000003e0: d8de 8abc 9d95 8d3d 9263 24bd eb1d 843b
000003f0: 65b1 113e 6037 a73d 3587 23bd d174 90bd
-0.03121487 -0.06157399 -0.00052440143 -0.03990141 0.07375597 -0.0158098 0.0170888 -0.013490431
0.027498646 -0.04052419 0.17684768 0.030620156 -0.09037916 -0.04448255 0.031480957 0.07456239
-0.0959943 0.05510843 -0.024161201 0.029095603 -0.017311417 0.12227628 -0.03175398 -0.030991174
0.009444552 -0.009789742 -0.0154225705 -0.045900617 0.023699148 -0.0382314 0.037729234 -0.000458417
0.05503081 -0.020876579 -0.053589508 0.011215455 -0.009945812 0.016285175 0.012489975 0.04395357
-0.012930811 -0.016179696 -0.0605219 -0.094946705 0.05524187 0.009163176 -0.025616424 0.060605183
-0.12406002 -0.14823315 0.04584601 0.054302245 -0.034691658 -0.009413613 -0.041797273 -0.100360125
0.011275303 0.051094748 -0.027448647 -0.012899338 0.036001492 -0.0064331098 -0.00084446714 0.015553888
0.0048121125 0.050632186 0.024098951 0.04597359 0.073843725 0.04078746 0.0049030907 -0.057465732
0.0039585377 -0.04294092 0.061582986 0.02715118 -0.0044942014 0.064222485 0.05231571 0.062446263
-0.02695336 -0.00090121856 0.038160443 0.015583301 -0.020143222 -0.019934777 -0.012637241 -0.031007027
0.018772092 0.055671576 0.035496913 -0.0033710026 0.023931608 0.041464914 -0.08749381 -0.06473833
-0.011137784 -0.027136227 0.06543703 -0.0111520905 -0.03508015 -0.112468615 -0.04932962 -0.09663199
0.01652105 0.029989095 0.028075429 0.014646013 -0.0016146088 0.04032638 0.02044434 -0.086022064
-0.050842006 0.037827827 -0.07623422 0.0074000475 -0.013617972 0.00562932 -0.032493476 0.020354263
-0.03488279 -0.015870577 -0.012064275 -0.015297991 -0.034509975 -0.020168947 -0.003188251 0.158544
0.040888395 -0.041018497 -0.011669941 -0.039831605 0.04373055 0.004794895 -0.04847047 0.012930779
-0.03153163 0.0039541493 -0.04157911 -0.034267873 -0.014458317 0.025911933 0.0030397242 0.021753196
0.09926562 0.042808674 -0.012200359 0.019128747 -0.062963925 0.0013408801 0.012098505 0.008545842
-0.021051824 -0.008109452 -0.015424034 -0.03889695 -0.0123735545 0.05611975 0.055978484 0.035283163
-0.12106768 0.08762936 0.0003354115 -0.10470677 -0.048094288 0.013750859 -0.017352 0.014709985
-0.010257979 -0.08266828 -0.115545675 -0.08160169 -0.06273113 -0.017666614 0.06607188 -0.024993861
-0.04945004 0.0021481847 0.039863914 -0.03126586 0.027674068 -0.044301547 -0.020188933 -0.056607984
-0.021539241 0.026756529 0.0019157082 -0.11806507 0.046419486 -0.088693984 -0.0075026206 0.051735695
0.058149144 0.024543665 -0.02909648 -0.039776634 -0.031994067 0.010762374 0.006479134 -0.0068805474
-0.005942314 0.122084804 -0.08312697 0.010736692 -0.015636342 -0.0857305 0.0014821328 -0.05413531
0.037936673 0.088804744 -0.015817428 0.023160603 0.04352204 0.050124872 -0.025899407 0.0031396362
-0.006453351 -0.09407414 -0.055282533 -0.05409276 -0.033570457 -0.050850496 0.039949607 -0.023267014
0.0051978105 0.0942917 -0.08021186 0.033531245 -0.018905917 0.0655268 0.045428216 0.17029785
0.04007519 0.02628007 -0.081465416 0.1172099 0.05729354 0.04828272 -0.043910936 0.038168017
0.008292233 0.09481247 -0.051115908 -0.011985013 -0.07511961 0.09800483 0.03385779 -0.028407386
-0.016951963 0.06913302 -0.04013402 0.004031887 0.14227827 0.08164859 -0.039923865 -0.07053531

action_model._discrete_distribution.branches.0.bias f4 [4]
00000000: a5c1 413d 9dda 673a 02be c9bd e630 9a3d
0.047303814 0.00088445266 -0.09850694 0.07528858

action_model._discrete_distribution.branches.1.weight f4 [5, 512]
00000000: 8715 0ebd f128 adbb ccb9 80bd c45e 4b3d
00000010: cf57 fbbc fc86 21bd 99cf 983d 315b 8d3d
00000020: 2f37 16bd e89e fd3b 2e6d 973d f2a7 c6bd
00000030: d116 ccbd df35 e23b 7541 f4bd c31f ab3d
00000040: 2c67 a03d 6f6f f83d b53d 293d b50d acbd
00000050: 01c0 a83d 9255 88bd 8451 03bc 76a6 ddbc
00000060: eb6b c33b 86f8 5a3d d5b3 a23c 9bf1 f93b
00000070: 0fa0 67bd 9998 c3bc 2a01 283a cddb b2bb
00000080: 07cb de3b b7c6 5cbd 81ac 563c ef92 a8bd
00000090: ac03 1a3c f10e f1bc 4aec 533d e24e cf3d
000000a0: 52ad 36bd d88d f43c 2191 773d ba85 4abd
000000b0: 19df a63c 5676 07bd 85dc 12bd 47a2 473d
000000c0: 22b4 0a3e 4e84 b13d 26f9 e0bb f310 ef3c
000000d0: 3bfc 78bd 5bcd 083c 123f 6a3d d044 a83b
000000e0: c0a3 f63c e7a1 dcbc 4d92 a3bc 5e18 82bb
000000f0: a009 90bc 8ea6 2a3d a20b 38bd 5202 6e3d
00000100: 6e36 83bc 3d36 823d 607d 093d b774 48bd
00000110: 7801 363d 5ab9 4b3b 6171 c1bd 7722 ba3c
00000120: 6139 ae3d 4061 5b3a 2172 5fbd af79 77bd
00000130: b1a0 c53d a224 163d 1615 243d b218 79bd
00000140: 7ae6 c43d 70c4 593d 6f03 193d 5ea1 583d
00000150: d085 e53d 470f f7bc b24f 71bd 5290 383b
00000160: b829 df3c b60e 0f3d 6006 463d 22a2 a83d
00000170: 754a d5bc 7da4 fc3c eb91 8dbc b4c3 48bd
00000180: cfb8 963d a9ed afbd 1007 e83d b8ab f93c
00000190: 7ff3 82bd 846b 93bd bdfb 3abd d5c1 3d3d
000001a0: ebdf 9bbd 8d53 35bd 0be0 82bc 44f0 3bbd
000001b0: 44f1 c33d 2544 9a3d 022d 4a3d 7c9e b7bc
000001c0: 6b6d 503d ad99 8abd de95 a9bd c4cd 7b3d
000001d0: 2764 a2bd 0fa8 4e3d 5b5f dc3a 5dfb 40bd
000001e0: c6c5 a5bd d5a1 9bbd d7b2 bb3c 5f72 cc3d
000001f0: 1c11 dcbc 2446 a7bd bccd de3c b0ed a03c
00000200: aa6d c5bd ec4d 9ebd 60ab 06bc e640 a5bd
00000210: 5ce6 f23c a9fe 823d f223 503b 6ff4 9dbc
00000220: 5ddc 7139 28e3 7cb9 2b59 ebbc 3717 313d
00000230: f381 4dbd b5db 06bd 6a9c f73c f995 0e3c
00000240: 90c0 093c 2b83 9cba be3a 1e3b b804 b23c
00000250: 3f54 9fbc 9521 6cbd 5985 d4bc 3f45 1e3d
00000260: 0ad5 093e 489f 97bd 7010 823b fb09 4abc
00000270: 2870 c8bc 7319 943d 6abf ac3d 8fc9 52bd
00000280: e2c2 b83d cda5 513c 6291 47bd 9904 873d
00000290: f3f2 a2bd 103a 24ba 5196 7dbc 3e71 d73c
000002a0: 77dd 3c3d 9d1b 5ebd 3941 0c3d f885 d0b9
000002b0: 21d9 47bd 8003 2bbd 7f7d 1e3d 08be b0bc
000002c0: 2c26 3b3c 1da6 46bc 029a fabc 8ef6 b0bd
000002d0: 4514 9abd 5907 9d3d c0f5 81bc 67b4 043d
000002e0: 1ae5 91bc a210 10bd 2e61 fdbc 4c3d 9abb
000002f0: 6ac1 863d 805a 75bd b266 14bd 9ef4 933d
00000300: 6c2a 78bc 71f7 48bb 5d9b 433d bf83 7fbd
00000310: 0066 a9bd 6a02 063d 70ab 593c 8832 1e3c
00000320: 871f 4f39 0a07 ac3d f4b2 13bd c763 213d
00000330: 070b 223d a116 92bd 7a15 f5bb 9751 3bbd
00000340: 18bb 333c ee7c 003e 20a4 3abd fba1 bcbb
00000350: bf54 e6bb 0862 343c 0e46 893c 3e22 3e3d
00000360: d426 e33c 7dae 093c ca35 92bd 3789 a03d
00000370: 025e 123e 42e0 df3c 2801 2e3b 1f5d d13d
00000380: f29f 983d 3521 eebc 1d29 5bbc 1e77 553c
00000390: ee29 ddbd d7c8 f43c 6193 763d 9060 c63c
000003a0: 5064 bfbd f42c fabc 962f 6fbd 0918 943d
000003b0: 6f5c 5339 372f 973d 36dd e9bc bdfb c03d
000003c0: d044 1ebd 1997 c13d 369d ccbc b8ec adbd
000003d0: 9ffd 903c 8329 233d 2f52 073e 98ae 19bd
000003e0: 1c10 1f3d 873e 463d 794e 59bd c3c0 84bc
000003f0: 94a1 45bb 1886 383d 033e f83c befa 1c3d
-0.0346885 -0.0052844216 -0.06285438 0.049650922 -0.030681519 -0.03943537 0.07461471 0.06902159
-0.03667372 0.0077398904 0.07393871 -0.09700002 -0.099652894 0.0069033946 -0.119265474 0.083556674
0.078321785 0.12130629 0.041318614 -0.08401052 0.08239747 -0.06656946 -0.00801504 -0.027056914
0.0059637926 0.053459667 0.019861141 0.0076276786 -0.05654913 -0.023876475 0.0006408865 -0.005458331
0.006799105 -0.053900447 0.013102652 -0.0823115 0.0094002895 -0.02942607 0.051739015 0.101224676
-0.044598885 0.029852793 0.06044114 -0.049443938 0.020370053 -0.03307184 -0.035854835 0.048738744
0.13545278 0.08667813 -0.0068656383 0.029182887 -0.06078742 0.008349742 0.057189055 0.005135156
0.030107379 -0.02693267 -0.019967223 -0.00397019 -0.017582715 0.041662745 -0.04493297 0.05810768
-0.016017165 0.063580014 0.033566833 -0.048939433 0.044434994 0.003108582 -0.094454534 0.022721512
0.08507038 0.00083686784 -0.0545522 -0.06041878 0.0964979 0.03665603 0.04005917 -0.060814567
0.096142724 0.053165853 0.03735679 0.052888267 0.11207163 -0.030158652 -0.058913894 0.0028162193
0.027241573 0.03492614 0.048345923 0.082340494 -0.02603648 0.030840153 -0.017281493 -0.049014762
0.07359468 -0.08590252 0.11329472 0.03047739 -0.063940994 -0.07198241 -0.045650233 0.04632743
-0.07611068 -0.044269133 -0.015975973 -0.045883432 0.09567502 0.07532529 0.04935933 -0.022414438
0.0508856 -0.067675926 -0.08280538 0.06147553 -0.07929259 0.050453242 0.0016813086 -0.04711472
-0.08094363 -0.075992264 0.022912426 0.09982752 -0.026863627 -0.08167675 0.027197711 0.019644588
-0.096400574 -0.07729706 -0.00821957 -0.08069019 0.02965086 0.06396229 0.0031759706 -0.019281594
0.00023065643 -0.00024117215 -0.028729042 0.04323503 -0.050172757 -0.032924373 0.030225951 0.008702748
0.008407727 -0.0011940947 0.00241439 0.021730766 -0.019449351 -0.057649214 -0.025942491 0.038640257
0.13460174 -0.07403427 0.0039692447 -0.012331481 -0.024467543 0.072314166 0.08434947 -0.051461753
0.09021546 0.012795878 -0.048722632 0.06592674 -0.07956495 -0.00062647555 -0.015477733 0.026299115
0.046109643 -0.054225553 0.03424189 -0.00039772666 -0.048791055 -0.041751385 0.0386939 -0.021574989
0.011422675 -0.012124565 -0.030591015 -0.086407766 -0.07523397 0.07667417 -0.015864253 0.032398608
-0.01780944 -0.035172112 -0.030930128 -0.004707014 0.065798596 -0.05990076 -0.03623075 0.072243914
-0.015146833 -0.0030665065 0.047755588 -0.062381502 -0.08271408 0.032717146 0.013285503 0.009655602
0.00019752803 0.0839978 -0.036059335 0.039401796 0.039561298 -0.07133222 -0.007479367 -0.045732107
0.0109699 0.12547657 -0.045566678 -0.0057566143 -0.0070291455 0.011009701 0.016757037 0.046419375
0.027728476 0.008403418 -0.07139166 0.07838672 0.14293674 0.027328614 0.0026550982 0.102228396
0.07452382 -0.029068569 -0.013376501 0.013028888 -0.10799013 0.029880924 0.060199145 0.024215966
-0.09345305 -0.030539013 -0.05839499 0.07231147 0.00020156962 0.073820524 -0.028547864 0.09423015
-0.038639843 0.09452648 -0.024977308 -0.08492416 0.017699061 0.03983451 0.13214944 -0.03752002
0.038833722 0.048399474 -0.053053353 -0.016205197 -0.0030156123 0.045049757 0.030303007 0.038325064

action_model._discrete_distribution.branches.1.bias f4 [5]
00000000: 809d 093d 5487 023d cb58 123d 18eb 7fb9
00000010: aaf6 89bb
0.03359747 0.03186734 0.03572921 -0.00024406274 -0.004210313
