MLagents_test1/results/CarAgent_reinforcement_2/CarAgent/CarAgent-3999999.onnx (onnx, 108720 bytes, 7 tensors)

discrete_act_size_vector f4 [1, 2]
0	0x40800000	4.0
1	0x40a00000	5.0

network_body._body_endoder.seq_layers.0.weight f4 [512, 40]
0	0x3db8482b	0.0899814
1	0xbe7efc0c	-0.24900836
2	0x3db8c19c	0.09021303
3	0xbb36c6fa	-0.0027889595
4	0xbcc4feac	-0.024047218
5	0x3d89af86	0.067229316
6	0xbd359b09	-0.044337306
7	0x3e0ce76c	0.13760155
8	0xbe7620a5	-0.2403589
9	0xbd4add1c	-0.049527273
10	0xbe929c43	-0.28634843
11	0x3e1af9ac	0.15134305
12	0x3df502ae	0.11963402
13	0xbe46b524	-0.19405037
14	0xbca1f5cb	-0.019770524
15	0x3c1b9bf5	0.009497632
16	0xbdd152c7	-0.10220867
17	0xbdc8b425	-0.09799985
18	0x3e8b4a5c	0.2720517
19	0xbcbf778d	-0.023372436
20	0xbd9ec5df	-0.07752585
21	0xbe8e5279	-0.27797297
22	0xbde29c40	-0.110649586
23	0x3be80e44	0.0070817787
24	0xbc15f870	-0.00915347
25	0x3c00e3ac	0.007866781
26	0xbd298226	-0.041383885
27	0x3e2d48a8	0.16922247
28	0xbe49a7aa	-0.19692865
29	0xbe753c66	-0.23948821
30	0x3c8a8cc0	0.016912818
31	0x3e4c74aa	0.19966379
32	0xbd2c89cd	-0.042123605
33	0xbdf23fe2	-0.11828591
34	0xbe60ff50	-0.21972394
35	0x3d88456f	0.066538684
36	0xbcd76bdb	-0.026296547
37	0x3c0e50d5	0.008686264
38	0xbd619894	-0.05507715
39	0x3e75b18a	0.23993507
40	0xbe5f0767	-0.21780168
41	0x3d476831	0.04868335
42	0xbd95ca24	-0.07313946
43	0xbeef8006	-0.46777362
44	0xbdf9af68	-0.12191659
45	0xbde47874	-0.11155787
46	0x3e8e0aa6	0.277425
47	0xbda9db80	-0.082938194
48	0xbe156bf0	-0.14591956
49	0xbeba1619	-0.36344984
50	0xbdd1fe95	-0.10253636
51	0x3d7e75f5	0.06212421
52	0x3dbc1a53	0.091847084
53	0xbe3152e5	-0.17316778
54	0xbf0be6ea	-0.5464922
55	0xbe2ab14d	-0.16669197
56	0xbe9b0107	-0.3027422
57	0x3d0ca6c2	0.03433872
58	0xbe3760c8	-0.17908013
59	0xbf042ee1	-0.5163403
60	0x3e513ee8	0.20434153
61	0xbf2c4b48	-0.6730237
62	0x3c4c12b6	0.012455633
63	0xbd3d3eee	-0.046202593
64	0xbcdeac8f	-0.027181892
65	0x3e83a977	0.2571523
66	0xbc87030b	-0.016480943
67	0xbdf81b54	-0.121145874
68	0xbe2c4298	-0.16822278
69	0xbeb4226b	-0.3518251
70	0xbd86505f	-0.06558298
71	0xbe9ad691	-0.30241826
72	0xbe0e4392	-0.13892964
73	0x3e919960	0.28437328
74	0xbe7ac377	-0.24488626
75	0xbe0e19e1	-0.1387706
76	0xbb8dd94e	-0.0043288833
77	0x3dc6cbd4	0.09706846
78	0x3dcf9fde	0.10137914
79	0xbec6df53	-0.38842258
80	0xbd9ab86b	-0.07554706
81	0xbe8d3148	-0.2757666
82	0xbdc016e9	-0.0937937
83	0xbdcd715b	-0.100313865
84	0x3ceeac04	0.029134758
85	0x3d8869c8	0.06660801
86	0x3ddaf910	0.10692036
87	0x3e199a69	0.15000309
88	0xbcfcfb92	-0.030881677
89	0x3e43dd00	0.19127274
90	0xbd94022f	-0.07226979
91	0x3e072953	0.13199358
92	0x3d49e09d	0.049286474
93	0x3d89429d	0.067021586
94	0xbe9fc9db	-0.3120869
95	0x3d746cbb	0.059674006
96	0xbd65926d	-0.056047846
97	0x3ccea62a	0.025225718
98	0x3d5167c8	0.051124364
99	0xbe2dc00c	-0.16967791
100	0xbe7bad50	-0.24577832
101	0xbcdd85db	-0.027041366
102	0x3ca387a5	0.019962141
103	0xbdf1513b	-0.117830716
104	0xbeb9a53d	-0.3625888
105	0x3cd4648c	0.02592685
106	0xbe936b66	-0.28792876
107	0x3d90dd3c	0.07073447
108	0x3e62377d	0.2209148
109	0xbdbf9e25	-0.093563356
110	0xbd9280df	-0.071534865
111	0xbe1ce53d	-0.15321822
112	0xbe4e13bb	-0.20124714
113	0xbe139026	-0.14410457
114	0xbe4ef867	-0.20211945
115	0x3e18c774	0.14919835
116	0xbe0b9a5e	-0.13633105
117	0x3d14f6d2	0.0363682
118	0xbd6cec91	-0.057842795
119	0xbe5f8aa3	-0.2183023
120	0x3ea73dca	0.3266433
121	0xbe8e993e	-0.2785129
122	0xbe201cd4	-0.15635997
123	0x3d8bb761	0.06822086
124	0xbe985e4c	-0.29759443
125	0xbde1c098	-0.110230625
126	0xbe001a3d	-0.12510009
127	0xbcef62fe	-0.029222008
128	0x3e2db004	0.16961676
129	0xbe731126	-0.2373701
130	0xbb5bcee3	-0.0033540062
131	0xbf026eb3	-0.50950164
132	0xbbaeedf5	-0.0053384253
133	0x3e40b3c8	0.18818581
134	0x3c8e16c7	0.017344845
135	0xbd68ba09	-0.056818042
136	0xbe87b327	-0.2650387
137	0xbca89e7f	-0.02058339
138	0x3dc63f42	0.09680034
139	0xbdcc51d7	-0.09976547
140	0xbd993797	-0.07481306
141	0xbdc6fc48	-0.097160876
142	0x3e8cc7de	0.27496237
143	0xbe1a0bc8	-0.15043557
144	0xbcbc9b27	-0.023023201
145	0x3d7dbec0	0.06194949
146	0x3c545f7d	0.012962219
147	0xbe8ac53c	-0.27103603
148	0xbd144acb	-0.03620414
149	0xbeb4a154	-0.35279334
150	0xbd0faf0d	-0.03507905
151	0xbe251459	-0.16121043
152	0xbcea3505	-0.028589735
153	0xbf320c1d	-0.69549733
154	0xbdec8d86	-0.11550431
155	0x3cb310e5	0.021858642
156	0xbda06967	-0.07832604
157	0x3ea1695f	0.31525704
158	0x3cf1bf2d	0.029510105
159	0xbe1fb931	-0.15597989
160	0xbded0375	-0.11572925
161	0x3e868a41	0.26277354
162	0x3e1c1ba5	0.1524492
163	0xbe7b9f61	-0.24572517
164	0xbd03926d	-0.032122064
165	0x3ddf9267	0.10916596
166	0x3ca7e4ab	0.02049478
167	0x3bfc6c8f	0.007703371
168	0xbd7d0c7c	-0.061779484
169	0xbb4db595	-0.003138875
170	0x3e62eba6	0.22160205
171	0xbe60ac30	-0.21940684
172	0x3ed6e7fb	0.41973862
173	0x3db3f187	0.08786302
174	0xbe6f397c	-0.23361772
175	0x3d22bf36	0.039733134
176	0x3e50d4c0	0.20393658
177	0xbe6ee9e3	-0.23331408
178	0xbc98d2dc	-0.018655233
179	0xbe7bcee7	-0.24590646
180	0xbd897aeb	-0.06712898
181	0xbe3c4478	-0.18385494
182	0x3d283d1c	0.041073903
183	0x3db1ca8c	0.08681211
184	0xbaa81f53	-0.0012826718
185	0xbe2899c1	-0.16464902
186	0xbde4f384	-0.111792594
187	0xbce6a881	-0.02815652
188	0x3e725ac8	0.23667443
189	0xbeb0d943	-0.34540758
190	0x3dba2009	0.090881415
191	0xbe84ac8b	-0.2591289
192	0xbe2a143f	-0.16609286
193	0x3e4e075c	0.20119995
194	0x3d2fbe42	0.042906053
195	0xbe9d21aa	-0.30689746
196	0x3d322c74	0.043499425
197	0xbe555955	-0.20834859
198	0xbbd41af1	-0.006472938
199	0xbe73d3be	-0.23811242
200	0xbea91b16	-0.33028477
201	0xbd93115d	-0.07181046
202	0xbe74891c	-0.23880428
203	0xbca13abe	-0.01968133
204	0xbe1dadde	-0.15398356
205	0x3c8c2b28	0.017110422
206	0xbeb15c17	-0.3464057
207	0xbcabcee9	-0.020972686
208	0xbe80c1aa	-0.25147754
209	0xbda23c70	-0.07921684
210	0xbd5a251d	-0.05325805
211	0x3c137061	0.008998961
212	0x3e1ab87a	0.15109435
213	0xbe246668	-0.1605469
214	0xbd53f492	-0.051746912
215	0x3d242fc4	0.040084615
216	0xbe95ab7f	-0.29232404
217	0x3e305af3	0.17222194
218	0xbea779eb	-0.32710204
219	0xbe5adfa8	-0.2137438
220	0xbdac0d11	-0.0840093
221	0x3cd3ab2f	0.025838463
222	0xbd8436a5	-0.06455735
223	0xbd5877fe	-0.05284881
224	0xbd1b649c	-0.037937745
225	0x3e216728	0.15762007
226	0x3d080826	0.033210896
227	0x3e00e3cc	0.12586898
228	0xbe9a5b7c	-0.30147922
229	0xbed5dec3	-0.41771516
230	0x3e531cae	0.20616409
231	0xbee34fbc	-0.4439677
232	0xbe8d4398	-0.27590632
233	0x3e78700d	0.24261494
234	0xbb8074fb	-0.003920195
235	0x3eb433f4	0.35195887
236	0xbcad4437	-0.021150691
237	0x3e868c12	0.2627874
238	0xbe075bb0	-0.1321857
239	0x3db8d528	0.09025031
240	0x3ea8bd21	0.32956794
241	0x3e1393b5	0.14411815
242	0x3e5575ed	0.20845766
243	0xbe659b11	-0.22422434
244	0xbcdeaa37	-0.027180774
245	0xbd81a947	-0.06331115
246	0xbe58c1a6	-0.21167621
247	0x3ea05b77	0.31319782
248	0x3eea5579	0.45768335
249	0xbe25a791	-0.16177203
250	0xbe5da08c	-0.21643275
251	0x3ec5da62	0.38643175
252	0x3d3786eb	0.044806402
253	0xbec46333	-0.38356933
254	0xbe35c42f	-0.1775062
255	0x3e4323ba	0.19056597

network_body._body_endoder.seq_layers.0.bias f4 [512]
0	0xbdbae3ae	-0.09125458
1	0xbe2c8001	-0.16845705
2	0xbdedf135	-0.11618272
3	0xbdd216f1	-0.10258282
4	0xbb3ae79f	-0.0028519405
5	0xbdc48b74	-0.09596911
6	0x3d42424d	0.04742651
7	0xbc7cad8d	-0.015422237
8	0xbd0aa039	-0.033844206
9	0xbe4b2e10	-0.1984179
10	0x3d016163	0.031587016
11	0xbe0c20d2	-0.13684395
12	0xbdc91a13	-0.098194264
13	0xbd4e2d2a	-0.05033604
14	0xbd6e7cea	-0.058224596
15	0x3aca031e	0.0015412306
16	0xbdaa52fa	-0.08316608
17	0x3d608761	0.054816607
18	0xbdabdffb	-0.0839233
19	0xbdb1b91b	-0.08677884
20	0xbde06014	-0.109558254
21	0xbe11c514	-0.14235336
22	0xbbd3da1c	-0.0064652096
23	0xbd91f02c	-0.07125887
24	0xbe239a39	-0.159768
25	0xbd93179f	-0.0718224
26	0xbdaac777	-0.08338826
27	0x3d7904f0	0.060795724
28	0xbd9d3dcd	-0.07677803
29	0xbdfb19f6	-0.12260811
30	0xbe13f1a1	-0.14447643
31	0xbd813c5b	-0.0631034
32	0xbe183205	-0.14862831
33	0xbbc691fa	-0.006059882
34	0xbd0222e4	-0.031771556
35	0xbd982483	-0.07428839
36	0xbdf7f7a3	-0.1210778
37	0xbd19fa4e	-0.037592225
38	0xbdffc486	-0.12488656
39	0xbdd7365f	-0.10508417
40	0xbe00a127	-0.12561475
41	0xbdc1abd8	-0.09456605
42	0xbe0374cb	-0.12837522
43	0xbe0f0a58	-0.1396879
44	0xbe074b28	-0.13212264
45	0xbdf9ec86	-0.122033164
46	0xbdc9e742	-0.09858562
47	0xbd6f533b	-0.058428984
48	0xbe35066d	-0.17678232
49	0xbe381120	-0.17975283
50	0xbdf8256a	-0.12116511
51	0xbddabd00	-0.1068058
52	0xbd9c2486	-0.07624154
53	0xbd8778ac	-0.06614813
54	0x3d6de592	0.058080263
55	0xbdcd541f	-0.100258105
56	0xbe0842d7	-0.13306747
57	0xbe272f93	-0.16326742
58	0xbda08c15	-0.078392185
59	0xbd9c2277	-0.07623761
60	0xbdf456a8	-0.11930591
61	0xbde63ccb	-0.11242064
62	0xbdddcc97	-0.10830038
63	0xbc2a9eac	-0.010413807
64	0xbc430dd7	-0.011905155
65	0x3d7d3310	0.061816275
66	0x3dbc1b49	0.09184892
67	0xb9169172	-0.00014359297
68	0xbd247969	-0.04015485
69	0xbe03fe4c	-0.12889975
70	0xbcc9f4f8	-0.024652943
71	0xbe27fdbf	-0.1640539
72	0x3d58bea1	0.052916173
73	0xbe0755e5	-0.1321636
74	0xbdd80a42	-0.105488315
75	0xbe0e4cc4	-0.13896471
76	0x3aa27018	0.0012393026
77	0xbcb90b9f	-0.02258855
78	0x3da7815f	0.081789725
79	0xbdf0aaff	-0.11751365
80	0x3ca01f7a	0.01954626
81	0xbcb9f4f5	-0.022699812
82	0xbd9ea29a	-0.077458575
83	0xbce56411	-0.028001817
84	0xbdd62d9d	-0.10457919
85	0xbe28bd68	-0.16478503
86	0xbe1b2003	-0.1514893
87	0xbd92bd94	-0.071650654
88	0xbe149c1c	-0.14512676
89	0x3d88d7d8	0.06681794
90	0xbd7a4c09	-0.06110767
91	0xbe5e5d2d	-0.21715231
92	0xbd06d8ce	-0.032921605
93	0xbce659ee	-0.028119054
94	0xbc3907e9	-0.01129339
95	0xbe0be715	-0.1366237
96	0xbdbcd17b	-0.09219643
97	0xbd83a902	-0.0642872
98	0xbc2ad4f6	-0.01042675
99	0xbab30b34	-0.0013659955
100	0xbd8af230	-0.06784475
101	0xbe4e8bba	-0.20170489
102	0xbe3d4654	-0.1848386
103	0xbd22d7b9	-0.03975651
104	0xbde7b48c	-0.113137335
105	0xbd5df213	-0.054185938
106	0xbe340fa6	-0.17584094
107	0xbdeebcc2	-0.116570964
108	0xbc812b32	-0.015767667
109	0xbaa62db3	-0.0012678414
110	0xbe964615	-0.29350343
111	0xbe31d4e6	-0.1736637
112	0xbe1281f6	-0.14307389
113	0xbe031b5a	-0.12803403
114	0xbe24a67e	-0.16079137
115	0xbe58026a	-0.21094671
116	0xbda150bc	-0.07876727
117	0xbd756428	-0.05990997
118	0xbe0a6b71	-0.13517548
119	0xbd390063	-0.045166384
120	0xbdd36c67	-0.103234105
121	0xbe4c22f0	-0.19935203
122	0x3c913c14	0.017728843
123	0x3bfc3ff2	0.0076980526
124	0xbe12b62a	-0.14327303
125	0xbdd664df	-0.104684584
126	0xbd9dde85	-0.07708458
127	0xbdf4e576	-0.11957829
128	0xbdef87cd	-0.11695824
129	0x3c3dbd19	0.011580729
130	0xbe1a3ad9	-0.15061511
131	0xbda5c939	-0.08095021
132	0x3d01101a	0.031509496
133	0xbd4fcb24	-0.05073084
134	0xbd2b50dc	-0.04182516
135	0xbd17e79a	-0.037086107
136	0xbdfc26e6	-0.12312107
137	0xbe10090d	-0.14065953
138	0xbd8f1755	-0.06986872
139	0xbdd629fc	-0.10457227
140	0xbe0933ea	-0.1339871
141	0xbdcbe566	-0.09955864
142	0x3990494f	0.0002752044
143	0xbd6d177a	-0.057883717
144	0xbdc22c07	-0.09481054
145	0xbd2b0984	-0.04175712
146	0xbccc970a	-0.024974365
147	0xbdb40d13	-0.08791556
148	0xbe404e71	-0.18779923
149	0xbd3ef918	-0.046624273
150	0xbda32184	-0.07965377
151	0xbe74f21f	-0.23920487
152	0xbda1ca3e	-0.07899903
153	0xbcaac775	-0.020847062
154	0xbe6ae351	-0.22938277
155	0xbce92e20	-0.028464377
156	0xbc2920b2	-0.010322737
157	0xbba2f287	-0.004972759
158	0x3cb374a4	0.021906205
159	0xbdae878a	-0.08521946
160	0xbe60d1d2	-0.2195504
161	0xbda0842c	-0.0783771
162	0xbd478d16	-0.048718534
163	0xbe2b41d3	-0.16724329
164	0xbccb9f1e	-0.024856146
165	0xbd85ccfb	-0.065332375
166	0xbd9ecbb2	-0.077536955
167	0xbd9b4f06	-0.07583432
168	0xbcceab7d	-0.025228256
169	0xbd10c54f	-0.03534442
170	0xbe482212	-0.19544247
171	0xbe1ec4be	-0.15504739
172	0xbda8ab82	-0.082358375
173	0xbddc0477	-0.10743039
174	0xbd8ad711	-0.06779302
175	0xbdc7ac71	-0.097496875
176	0xbe2972f4	-0.16547757
177	0xbe2d4f4d	-0.16924782
178	0xbdc50264	-0.096195966
179	0xbe41347c	-0.18867677
180	0x3d6af465	0.05736198
181	0xbe1aad89	-0.15105261
182	0xbe11c83a	-0.14236537
183	0xbe0924f7	-0.13393007
184	0xbd721dd3	-0.059110474
185	0xbdc33bc2	-0.09532882
186	0xbcfc8c7b	-0.030828705
187	0xbe4e2967	-0.20132981
188	0xbdcc2e2e	-0.099697456
189	0xbe73742b	-0.23774783
190	0xbe1e48b7	-0.15457426
191	0xbc46ccf3	-0.012133825
192	0xbce00b7d	-0.027349228
193	0xbd1c12f8	-0.038104028
194	0xbe1a5b33	-0.15073852
195	0xbd954123	-0.072878145
196	0xbe2e4adf	-0.17020749
197	0xbe1e3401	-0.15449525
198	0x3cd9c6b9	0.026584016
199	0xbd5e50e8	-0.054276377
200	0x3da44d62	0.08022572
201	0x39575a56	0.0002053765
202	0xbe530743	-0.20608239
203	0xbe8430a3	-0.25818357
204	0xbd7e69c5	-0.06211259
205	0x3cb652eb	0.022256335
206	0xbd7e62e8	-0.062106043
207	0xbe309460	-0.172441
208	0xbe414031	-0.18872143
209	0xbdae0ec5	-0.08498911
210	0xbd96cbee	-0.07363115
211	0xbde28120	-0.11059785
212	0xbcf44bdf	-0.029821334
213	0xbdb02a25	-0.086017884
214	0xbccc9e99	-0.024977969
215	0x3cf678ec	0.030086957
216	0xbe52c9da	-0.20584813
217	0xbd5b54b3	-0.053547572
218	0xbd9d85ef	-0.076915614
219	0xbe1825be	-0.14858148
220	0xbe05ae49	-0.13054766
221	0xbdbd5a08	-0.09245688
222	0xbe155c95	-0.14586098
223	0xbe38f6b4	-0.1806286
224	0xbdea38e4	-0.11436632
225	0x3be5338e	0.006994671
226	0xbe1825d1	-0.14858176
227	0xbde4ad0e	-0.1116582
228	0xbe1b0b89	-0.15141119
229	0xbd5d7f19	-0.054076288
230	0x3bc07ae2	0.005874024
231	0xbe1a3bd5	-0.15061887
232	0xbda9713d	-0.082735516
233	0xbe1748b9	-0.14773835
234	0xbdd42b98	-0.10359877
235	0xbd36abcd	-0.044597436
236	0xbddc615c	-0.10760757
237	0xbdc8a54e	-0.09797154
238	0xbe311e4a	-0.1729671
239	0xbd11f92d	-0.035638023
240	0xbce4fa14	-0.027951278
241	0xbe76bd97	-0.2409576
242	0xbe17cea5	-0.14824922
243	0xbe0e64c6	-0.1390563
244	0xbe3eb284	-0.18622786
245	0xbbdde6de	-0.0067719063
246	0xbdbd284a	-0.092362
247	0xbe325daf	-0.1741855
248	0xbd0b3992	-0.03399045
249	0x3c92a575	0.017901162
250	0xbd471e58	-0.048612922
251	0xbde180a5	-0.11010865
252	0xbdc0f670	-0.09422004
253	0xbdec6851	-0.11543334
254	0xbe0923e2	-0.13392594
255	0xbe068d34	-0.13139802

action_model._discrete_distribution.branches.0.weight f4 [4, 512]
0	0x3d202e27	0.039106514
1	0x3ba0b379	0.0049042073
2	0x3b320417	0.0027163082
3	0x3cba702d	0.022758568
4	0x3d8c75bb	0.06858393
5	0x3b96cda0	0.004602149
6	0xbcbad83f	-0.022808192
7	0xbd64031d	-0.05566703
8	0x3d5b5ca2	0.05355514
9	0x3c148be8	0.009066559
10	0x3d868a3a	0.065693334
11	0x3d8c1af8	0.068410814
12	0x3ac1ddcf	0.0014790836
13	0x3da5c9ab	0.08095106
14	0x3c708fd2	0.014682727
15	0xbc52ea05	-0.012873177
16	0xbbc8c87f	-0.0061274166
17	0x3d3dac27	0.046306755
18	0xbba6b7a9	-0.005087812
19	0xbc57889d	-0.01315513
20	0xbbf1c8ba	-0.007378665
21	0x3df6ac9b	0.12044641
22	0xbd64c2e0	-0.05584991
23	0xbb289681	-0.0025724473
24	0x3b982532	0.004643106
25	0x3c053942	0.008131327
26	0xbb2c89c4	-0.0026327232
27	0x3d0dfeac	0.034666702
28	0xbc8c3d26	-0.017119002
29	0x3c133344	0.008984391
30	0x3a7224a8	0.00092370296
31	0x3cbc850e	0.023012664
32	0x3c78b3fe	0.015179632
33	0x3d43d922	0.047814496
34	0xbdd07b12	-0.10179724
35	0x3b9c88da	0.004777056
36	0x3c718f8d	0.014743698
37	0xbc85acff	-0.016317843
38	0x3be44aa8	0.0069669075
39	0x3d1dce6f	0.03852695
40	0x3bf6138f	0.007509656
41	0xbbf1ab94	-0.00737519
42	0x39a19972	0.0003082264
43	0xbbb8c246	-0.0056383936
44	0x3c87c078	0.016571268
45	0x3d35b420	0.044361234
46	0x3d48ab62	0.04899157
47	0x3d948dfd	0.072536446
48	0xbba3a6ca	-0.004994248
49	0xba0fe6f1	-0.000548943
50	0x3d3e0aae	0.046396904
51	0x3c6baa98	0.014383934
52	0x3d57a2dd	0.052645553
53	0x3dc385b4	0.09546986
54	0x3c7a6df0	0.015285
55	0xbc1c2eee	-0.009532673
56	0x3cad4e58	0.021155521
57	0x3c30befd	0.010787723
58	0x3d993521	0.07480837
59	0x3cb1a151	0.021683367
60	0x3d33b2d6	0.043871723
61	0xbc2fa92c	-0.010721486
62	0x3cc3ee68	0.023917392
63	0xbc929a12	-0.017895732
64	0x3d1c9bd9	0.038234565
65	0x3d1918e3	0.03737725
66	0xbd4a708a	-0.049423732
67	0x3d94803f	0.072510235
68	0x3d99bcd0	0.07506716
69	0x3d093435	0.033497054
70	0xbc4d77f7	-0.012540809
71	0xbb8e6697	-0.0043457258
72	0x3c53dfe1	0.012931795
73	0x3b08fb1d	0.0020901628
74	0x3c0c0491	0.008546011
75	0x3d203685	0.039114494
76	0x3d8cdfd2	0.06878628
77	0x3cad8c7b	0.02118515
78	0x3c7644ad	0.015031022
79	0x3d9991c3	0.07498505
80	0xbd96797d	-0.07347391
81	0x3d2decfa	0.042462327
82	0x3ac713a3	0.0015188347
83	0xbd62880b	-0.055305522
84	0xbc9320ce	-0.017959978
85	0x3c09139c	0.008366492
86	0x3ba60daa	0.005067547
87	0x3bf8bd5a	0.007590932
88	0xbc16b213	-0.00919773
89	0xbbb087c2	-0.0053872773
90	0x3ae9063d	0.0017778348
91	0x3c683264	0.01417217
92	0xbc4dd7f3	-0.012563693
93	0xbc945c43	-0.0181104
94	0xbcc859d0	-0.024456888
95	0x3b216e80	0.0024632514
96	0x3d805598	0.06266326
97	0x3d0821e9	0.033235464
98	0x3cb73daf	0.02236828
99	0x3d556b8d	0.05210452
100	0x3d805d9e	0.06267856
101	0xbbc73857	-0.0060797143
102	0x3c01b856	0.007917484
103	0xbcf04670	-0.029330462
104	0x3d8382d6	0.06421439
105	0x3d06e5fe	0.03293418
106	0xbc6b71ea	-0.014370421
107	0x3c99a86c	0.018757068
108	0xbac79f7d	-0.0015230026
109	0x3c95a194	0.018265523
110	0xb9e63250	-0.00043906504
111	0xbce0a2f6	-0.027421456
112	0xbd95f830	-0.07322729
113	0x3d7104c5	0.05884244
114	0xbbf6a78a	-0.0075272964
115	0x3ca7c0bf	0.02047765
116	0x3c4f9c16	0.012671491
117	0x3bd2078e	0.006409592
118	0x3c798936	0.015230468
119	0xbc0bae37	-0.008525423
120	0xbcbc1c1f	-0.022962628
121	0xbbc58a58	-0.0060284548
122	0xbc865dfd	-0.016402239
123	0x3a2b9498	0.00065452745
124	0x3c318291	0.010834352
125	0xbd494f94	-0.049148157
126	0x3d55eca9	0.05222765
127	0x3dc23d65	0.09484366
128	0x3d05d2d5	0.03267177
129	0xbd4348b1	-0.047676746
130	0x3d379d03	0.044827472
131	0xbd0b4f1c	-0.03401099
132	0xbbc13122	-0.0058957497
133	0x39dbaea2	0.00041901047
134	0xbb9be58a	-0.004757588
135	0x3c6e0392	0.014527218
136	0x3c08ea7e	0.008356689
137	0xbbc1390a	-0.005896692
138	0xbd2d2403	-0.04227067
139	0xbd243f8b	-0.04009966
140	0x3c9398af	0.018017141
141	0xbd039324	-0.032122746
142	0x3cdb2c1c	0.026754431
143	0xbb284573	-0.002567616
144	0x3d854d53	0.06508889
145	0xbc519f7f	-0.0127943745
146	0xbd5e5e2b	-0.054289024
147	0x3b6698e1	0.0035186338
148	0x3b041539	0.0020154251
149	0xbb947312	-0.004530319
150	0xbbae68e3	-0.005322562
151	0xbc0592e9	-0.008152702
152	0xbcfd9657	-0.030955477
153	0x3d1eee59	0.038801525
154	0x3c855046	0.016273629
155	0xbc85b79d	-0.016322905
156	0x3bfac44a	0.007652794
157	0x3d205d07	0.039151218
158	0x3cde8962	0.027165119
159	0x3d060058	0.03271517
160	0x3ba40194	0.005005071
161	0x3df36e1e	0.118862376
162	0xbd228557	-0.039677944
163	0x3c27a5b1	0.010232375
164	0xbd2ed81b	-0.042686563
165	0xbbc3188c	-0.005953854
166	0x3cc18260	0.023621738
167	0x3d1f4285	0.038881797
168	0xbd331b39	-0.043727133
169	0x3b8c24fb	0.0042768694
170	0xbd306ed4	-0.043074444
171	0x3b83e35e	0.004024907
172	0x3beecb24	0.0072874
173	0x3d175728	0.036948353
174	0x3d089995	0.033349592
175	0x3a154e2c	0.00056955474
176	0xbbd05b5c	-0.006358547
177	0x3bee7c10	0.007277973
178	0x3cdd109e	0.026985463
179	0xbb88f92e	-0.004180095
180	0x3c39814d	0.011322332
181	0x3bd5724a	0.0065138685
182	0x3c667f5b	0.01406845
183	0xbc2ca235	-0.01053672
184	0x3d813cd5	0.06310431
185	0x3cba6d45	0.022757182
186	0x3ccf629a	0.025315572
187	0xbc1712d0	-0.009220794
188	0x3c82e859	0.015979933
189	0xbd1a77e0	-0.037711978
190	0xbcc88eda	-0.02448218
191	0x3c95abf3	0.018270468
192	0xbb9472ca	-0.0045302855
193	0x3ca0933e	0.01960146
194	0xbd3ccf9b	-0.046096426
195	0x3b817eb1	0.0039518704
196	0x3bcc139c	0.0062279236
197	0x3d0980f9	0.033570264
198	0xbc7f878e	-0.015596284
199	0x3d18fdcb	0.03735141
200	0x3d0b6073	0.034027528
201	0x3d0604e9	0.032719526
202	0xbb9877e2	-0.004652963
203	0xbba3f33e	-0.005003362
204	0x3aebf9a3	0.0018003475
205	0xba99e70d	-0.0011741832
206	0x3c74a09b	0.014930869
207	0x3b0daf19	0.002161926
208	0x3c5a2747	0.0133150285
209	0xbc214c20	-0.00984481
210	0x3c163dee	0.009170039
211	0x3cbe4f58	0.023231193
212	0xbba9c753	-0.005181232
213	0x3d536da4	0.051618233
214	0xbd81ffc5	-0.06347612
215	0xbad6b360	-0.0016380362
216	0x3cdac5ed	0.026705706
217	0xbd278d77	-0.040906396
218	0xbc8cf598	-0.017206952
219	0xbc2f378d	-0.010694397
220	0xbc940f2c	-0.01807364
221	0x3d2590dc	0.04042135
222	0x3c8b51aa	0.017006714
223	0xbc721899	-0.014776372
224	0x3d239ba2	0.039943345
225	0x3d828f54	0.06374994
226	0xbc2384a4	-0.009980354
227	0x3cb47de3	0.022032684
228	0x3c6935ec	0.014234047
229	0x3c99262e	0.018694963
230	0x3c3608e7	0.011110521
231	0x3db2fe2b	0.08739885
232	0x3d2f5153	0.042802166
233	0xbc996d2f	-0.01872882
234	0xbd187425	-0.03722014
235	0x3c7e54d0	0.015523151
236	0x3d03a4d4	0.032139614
237	0xbbb20367	-0.0054325345
238	0x3addbd5e	0.0016917398
239	0xbce8f97e	-0.02843928
240	0xbd501591	-0.050801817
241	0x39f58674	0.00046830217
242	0x3cb5dda4	0.022200413
243	0xba85b17a	-0.0010199987
244	0x3c93f64e	0.018061783
245	0x3d20c5d1	0.039251152
246	0xbb941cd9	-0.0045200405
247	0xbba68461	-0.0050816988
248	0xbd64694b	-0.055764478
249	0x3d2bd121	0.041947488
250	0xbc730f5e	-0.014835207
251	0x3d83d421	0.06436945
252	0x3c355e0c	0.011069786
253	0x3d51303f	0.0510714
254	0xbc025944	-0.007955853
255	0x3caefd6f	0.02136108

action_model._discrete_distribution.branches.0.bias f4 [4]
0	0xbb752868	-0.0037408117
1	0x3c3e4f4f	0.011615588
2	0xbd997378	-0.07492727
3	0x3d85760f	0.065166585

action_model._discrete_distribution.branches.1.weight f4 [5, 512]
0	0xbca65e42	-0.020308618
1	0x3c96faac	0.018430077
2	0x3bf30550	0.007416405
3	0x3dbdcf95	0.09268109
4	0xb9ae588c	-0.0003325384
5	0xbd8905e8	-0.0669058
6	0x3cbe1454	0.023203053
7	0x3cc66833	0.024219608
8	0x3cddad46	0.027060162
9	0x3d06db61	0.03292406
10	0x3d772954	0.060342148
11	0xbcdec2e1	-0.027192535
12	0x3bd0590b	0.006358271
13	0x3d857ae8	0.06517583
14	0x3c281915	0.010259886
15	0x3d01ffba	0.03173802
16	0x3c177a16	0.009245416
17	0x3db60d9a	0.08889313
18	0x3c79930c	0.015232813
19	0x3c85bee3	0.016326373
20	0x3db71eee	0.08941446
21	0x3cbe4cf2	0.02323005
22	0xbb19912d	-0.0023432479
23	0xbc81695a	-0.015797306
24	0x3ca541f4	0.02017305
25	0xbc49c757	-0.012315593
26	0x3cd8b182	0.02645183
27	0x3d03ec8d	0.032208014
28	0x3c9f45f0	0.019442528
29	0x3d23a8de	0.039955966
30	0x3d0f433c	0.03497623
31	0x3c2eaa22	0.01066068
32	0x3d5cc2e8	0.053896815
33	0x3d0c2aa5	0.034220356
34	0x3c90eeff	0.017692087
35	0xbd822dbc	-0.063563794
36	0x3d4af300	0.04954815
37	0x3cb526c3	0.02211321
38	0x3d038ae3	0.032114875
39	0x3c31e276	0.010857215
40	0x3c96d2b2	0.018411014
41	0x3d85fe25	0.06542615
42	0xbcbb7126	-0.022881102
43	0x3d5c609f	0.053803083
44	0x3c115cec	0.008872252
45	0xbca9c65b	-0.020724466
46	0xbd053f93	-0.032531332
47	0x3d800440	0.062508106
48	0x3d6fc4c4	0.05853726
49	0x3d857be2	0.065177694
50	0x3d0cce7c	0.034376606
51	0xbd096496	-0.03354319
52	0x3cf17df7	0.02947901
53	0x3d0950cc	0.03352432
54	0x3d8458a9	0.06462223
55	0xbc005746	-0.007833308
56	0x3d845ccb	0.06463011
57	0xbb76b2bd	-0.0037643157
58	0x3d583575	0.052785356
59	0xbadae9b6	-0.0016701731
60	0x3b8c0230	0.0042727217
61	0x3d892039	0.06695599
62	0xbb9122c4	-0.004429193
63	0xbd028031	-0.031860534
64	0x3a8a9a18	0.0010574488
65	0x3d95ccbb	0.0731444
66	0x3d13ed50	0.03611499
67	0x3cca8d31	0.024725528
68	0x3d8def97	0.06930464
69	0x3cc94e17	0.024573369
70	0x3a5fb651	0.0008533942
71	0x3ca4482a	0.020053942
72	0x3d35832a	0.04431454
73	0x3ce015a0	0.027354062
74	0xbc40a4d2	-0.011758046
75	0xbbb99f3c	-0.005664734
76	0x3d2cc106	0.04217627
77	0x3d0f6c6a	0.0350155
78	0x3d18bdd2	0.0372904
79	0x3cbc90d2	0.023018274
80	0xbbd8ba4b	-0.0066140047
81	0x3d7c8044	0.06164576
82	0x3d28f167	0.041245844
83	0xbd030a8c	-0.03199248
84	0x3d48ab9b	0.04899178
85	0x3c49004e	0.012268139
86	0xbd848800	-0.064712524
87	0x3c48cd22	0.012255939
88	0x3d237285	0.039904136
89	0xba5ad917	-0.0008348389
90	0x3c388b2e	0.011263652
91	0x3c36e84a	0.0111637805
92	0xbd21c890	-0.039497912
93	0xbc846e8f	-0.016166
94	0xbbf131ef	-0.007360689
95	0x3d0290db	0.031876426
96	0x3d062954	0.032754257
97	0xbd81612a	-0.06317361
98	0x3d57f868	0.052727133
99	0x3d013f80	0.0315547
100	0xbd234d93	-0.039868902
101	0xbb5e063c	-0.0033878228
102	0xbd6c6803	-0.05771638
103	0xbbb38ffe	-0.0054798117
104	0xbcd25137	-0.025673492
105	0x3d142a98	0.036173433
106	0xbb1fe67c	-0.0024398854
107	0xbcc0bc5d	-0.023527319
108	0x3db1a0ed	0.08673272
109	0x3cff061d	0.031130845
110	0x3d01f2e7	0.03172579
111	0x3d4574dd	0.048207153
112	0xbcb0f3b0	-0.021600574
113	0x3cbb8c4c	0.022894047
114	0x3ba29df0	0.0049626753
115	0xbc831507	-0.016001238
116	0xbd1e1149	-0.038590703
117	0x3cacafc2	0.021079902
118	0x3d76012c	0.06005971
119	0x3cb995b8	0.0226544
120	0xbd1474be	-0.036244147
121	0xbd7ae4c1	-0.061253313
122	0x3d4827c8	0.048866063
123	0xbb74f76e	-0.0037378925
124	0xbbf4b69a	-0.007468057
125	0xbdc6a9d2	-0.097003594
126	0x3cdc5250	0.026894718
127	0x3d5edb25	0.05440821
128	0xbbafe03a	-0.005367306
129	0x3b5c481c	0.0033612316
130	0x3d6b05f5	0.057378728
131	0xbad542a0	-0.0016270466
132	0x3d18364e	0.037161164
133	0x3d6baacc	0.05753593
134	0x3d8a45dc	0.06751606
135	0x3bef0857	0.0072946954
136	0x3bc632a0	0.0060485154
137	0xbd10106e	-0.03517192
138	0x3d17671e	0.036963575
139	0x3d7e9876	0.062157117
140	0x3c7498c2	0.014928998
141	0xbca135b2	-0.019678924
142	0x3d6473af	0.055774387
143	0x3caaff29	0.020873623
144	0x3d016a5a	0.031595565
145	0xbd41ef34	-0.047347263
146	0xbc916702	-0.017749313
147	0x3d1851e6	0.03718748
148	0x3cbb70d8	0.022880957
149	0x3c04bb0a	0.008101234
150	0x3cc69a88	0.024243608
151	0x3d8b8496	0.06812398
152	0x3d479902	0.048729904
153	0x3c73dd21	0.014884264
154	0x3cd17a64	0.025571056
155	0x3c82264f	0.015887408
156	0x3cd40c57	0.02588479
157	0x3d2670d7	0.040634956
158	0x3da20cc1	0.07912589
159	0x3d0ad34d	0.03389292
160	0x3bdb7f22	0.006698505
161	0x3d07460e	0.033025794
162	0x3c96f58c	0.018427633
163	0x3d6ef237	0.058336463
164	0xbcfb654e	-0.030687954
165	0xba8c3e2c	-0.0010699681
166	0x3cdd7ae6	0.027036142
167	0x3d8c651a	0.06855221
168	0x3cad9209	0.021187799
169	0x3c58f4f9	0.013242
170	0x3da01972	0.07817353
171	0x3c998b06	0.01874305
172	0x3ad8acf5	0.0016531037
173	0xbc411fd7	-0.011787376
174	0xbcbe4a6e	-0.02322885
175	0xbb310309	-0.0027009866
176	0x3c8c05c0	0.017092586
177	0xbd160a43	-0.03663088
178	0x3ce4d790	0.02793482
179	0x3c834494	0.016023912
180	0x3cc83248	0.024438038
181	0x3d207b87	0.039180305
182	0xbc8eeaca	-0.01744594
183	0x3d36e693	0.044653486
184	0x3c4e9af7	0.012610189
185	0x3d610899	0.05493984
186	0x3b05a41f	0.0020392013
187	0x3d6ac9be	0.057321303
188	0x3d65290d	0.055947352
189	0x3cbe49d1	0.023228558
190	0x3c1b9bed	0.009497625
191	0x3d04da9b	0.03243504
192	0xbd707e46	-0.058714174
193	0x3d6ccc21	0.05781186
194	0x3c85dba8	0.016340092
195	0xbcd8a2d5	-0.026444832
196	0xbd87ed5b	-0.06637069
197	0x3d8ce394	0.068793446
198	0x3d2d6db3	0.042340945
199	0x3d55d4c5	0.052204866
200	0x3d176136	0.036957942
201	0x3ce845b7	0.028353555
202	0x3c8ff6a9	0.017573671
203	0x3d7964ff	0.060887333
204	0x3cf2d03f	0.029640315
205	0xbb1f4a00	-0.0024305582
206	0xbb41b09f	-0.0029554737
207	0xbcb94cfd	-0.022619719
208	0x3d04d692	0.032431193
209	0x3c12b95e	0.008955328
210	0x3b880b20	0.004151717
211	0x3d3fbe31	0.04681224
212	0x3bc52960	0.006016895
213	0xbcc4779a	-0.023982812
214	0x3cc7ef90	0.024406224
215	0x3d75ecea	0.060040392
216	0x3c64d361	0.013966412
217	0x3d11cace	0.0355938
218	0x3be648b8	0.0070277117
219	0x3cb11590	0.021616727
220	0x3dba81b3	0.091067694
221	0x3d784a03	0.060617458
222	0x3b1556ba	0.0022787289
223	0x3d54af63	0.051925074
224	0x3cfca68e	0.030841138
225	0x3d19307f	0.037399765
226	0x3c903d54	0.017607369
227	0x3ca05f4a	0.019576687
228	0xbda0eb92	-0.078574315
229	0xbbda3333	-0.0066589355
230	0x3ce292e9	0.027657943
231	0x3cf17ae6	0.029477548
232	0x3cbe8a2a	0.023259241
233	0x399c1aa6	0.00029774493
234	0x3bab33f0	0.0052246973
235	0xbbef5d60	-0.0073048323
236	0x3b69f86f	0.0035701056
237	0x3d25f2e1	0.04051483
238	0x3b20e7bf	0.0024552194
239	0x3d3831f8	0.04496953
240	0xbd6bddde	-0.057584636
241	0x3cf002b8	0.029298171
242	0xbb9e0f26	-0.004823583
243	0xbbc290ce	-0.005937672
244	0x3c97fb25	0.018552372
245	0xbc3d1a9c	-0.011541989
246	0x3ceb0170	0.028687209
247	0xbcbfad1a	-0.023397971
248	0x3c26fca1	0.010192067
249	0x3a8de739	0.0010826356
250	0xbd31c79e	-0.04340326
251	0x3d252e67	0.040327456
252	0x3cfcdc08	0.030866638
253	0x3d2ae0f3	0.041718435
254	0x3c886fd6	0.01665489
255	0x3c9e6a75	0.019337872

action_model._discrete_distribution.branches.1.bias f4 [5]
0	0xbcae9066	-0.021309089
1	0x3c61a769	0.013772824
2	0x3d3fcf22	0.046828397
3	0x3ad65e49	0.0016355003
4	0xbc562660	-0.013070673
