MLagents_test1/results/CarAgent_reinforcement_2/CarAgent/CarAgent-3499962.pt (torch, 580945 bytes, 28 tensors)

discrete_act_size_vector f4 [1, 2]
4.0 5.0
00000000: 0000 8040 0000 a040

network_body._body_endoder.seq_layers.0.weight f4 [512, 40]
0.0899814 -0.24321605 0.09021303 -0.0029327776 -0.020878222 0.067229316 -0.050894767 0.13760155
-0.23254445 -0.046176177 -0.28634843 0.16140762 0.11963402 -0.2005779 -0.018074198 0.009497632
-0.10768923 -0.09799985 0.28037903 -0.019572742 -0.07752585 -0.2733204 -0.110649586 0.00654217
-0.008830786 0.007866781 -0.043852355 0.16922247 -0.18924403 -0.23617116 0.016912818 0.20264494
-0.042123605 -0.1170756 -0.2223609 0.060539067 -0.033617586 0.007357034 -0.05539868 0.24054478
-0.21780168 0.051559743 -0.07313946 -0.46870664 -0.12319286 -0.11155787 0.26226363 -0.082938194
-0.13996243 -0.36330494 -0.10253636 0.060026597 0.091847084 -0.17169967 -0.5464304 -0.16669197
-0.30889344 0.03433872 -0.17266437 -0.5143153 0.20434153 -0.67401886 0.012455633 -0.04484485
-0.025875233 0.2571523 -0.01253707 -0.121145874 -0.1751633 -0.35222828 -0.06558298 -0.2995213
-0.13892964 0.27704048 -0.24379578 -0.13928454 0.0018484666 0.104414545 0.102277465 -0.3873073
-0.07554706 -0.28322676 -0.0937937 -0.09747099 0.027070247 0.06660801 0.08770963 0.15000309
-0.021214632 0.19127528 -0.07226979 0.13162813 0.049286474 0.06177435 -0.31733653 0.059674006
-0.0763707 0.025225718 0.057108846 -0.16936563 -0.24577832 -0.022554306 0.019962141 -0.13596594
-0.37131095 0.02592685 -0.3011711 0.07073447 0.22342709 -0.094116345 -0.071534865 -0.150977
-0.20124714 -0.15822221 -0.21284729 0.12975734 -0.1373134 0.046808936 -0.05935591 -0.21663503
0.3266433 -0.27449176 -0.15635997 0.06754682 -0.29687673 -0.110230625 -0.12216389 -0.029222008
0.167539 -0.2378248 -0.0033540062 -0.50708807 -0.0053384253 0.18574876 0.016258007 -0.056818042
-0.26912245 -0.02058339 0.10116202 -0.09841257 -0.07481306 -0.09338178 0.27496237 -0.15536582
-0.0235209 0.06194949 0.0032318584 -0.27103603 -0.018392418 -0.3497117 -0.03507905 -0.16011672
-0.028589735 -0.7000161 -0.11457798 0.019672895 -0.07703395 0.30888724 0.031024365 -0.15558109
-0.11572925 0.25011563 0.1524492 -0.2477029 -0.0416737 0.10916596 0.005397554 0.007703371
-0.056182962 -0.008237741 0.22160205 -0.21838063 0.41973862 0.074771 -0.24542229 0.039733134
0.19259629 -0.23331408 -0.020536775 -0.24913709 -0.06712898 -0.18724048 0.041073903 0.07647051
-0.01190661 -0.16464902 -0.12169986 -0.02815652 0.23258947 -0.34916288 0.090881415 -0.25761452
-0.16609286 0.18799782 0.03191857 -0.30148754 0.04305996 -0.18683593 -0.011952341 -0.23838769
-0.33028477 -0.07400101 -0.23880428 -0.024544168 -0.15924993 0.017110422 -0.36172342 -0.020972686
-0.24174678 -0.082373984 -0.05325805 0.0097230375 0.15109435 -0.17096145 -0.06087675 0.040084615
-0.3018767 0.17222194 -0.32229754 -0.21881837 -0.0840093 0.03138323 -0.06455735 -0.066187106
-0.046000246 0.15762007 0.026655551 0.12586898 -0.29953134 -0.42514357 0.20616409 -0.44178256
-0.27590632 0.23388584 -0.011720949 0.343438 -0.027861848 0.2764675 -0.13627404 0.08981642
0.32956794 0.14497383 0.20845766 -0.22727709 -0.026147787 -0.06331115 -0.2154007 0.31319782
0.4574046 -0.16109128 -0.21643275 0.386068 0.044806402 -0.38766956 -0.17872986 0.19056597
00000000: 2b48 b83d a10d 79be 9cc1 b83d d833 40bb
00000010: ce08 abbc 86af 893d 0877 50bd 6ce7 0c3e
00000020: 2220 6ebe 3b23 3dbd 439c 92be 0a48 253e
00000030: ae02 f53d 4b64 4dbe 5710 94bc f59b 1b3c
00000040: 2c8c dcbd 25b4 c8bd d78d 8f3e 0457 a0bc
00000050: dfc5 9ebd a7f0 8bbe 409c e2bd b35f d63b
00000060: 00af 10bc ace3 003c 879e 33bd a848 2d3e
00000070: 30c9 41be dad6 71be c08c 8a3c 2882 4f3e
00000080: cd89 2cbd 55c5 efbd 93b2 63be d0f7 773d
00000090: 98b2 09bd 4613 f13b bae9 62bd 5f51 763e
000000a0: 6707 5fbe 4f30 533d 24ca 95bd 51fa efbe
000000b0: 8a4c fcbd 7478 e4bd 6b47 863e 80db a9bd
000000c0: 5052 0fbe 1b03 babe 95fe d1bd 73de 753d
000000d0: 531a bc3d 0ad2 2fbe dde2 0bbf 4db1 2abe
000000e0: 4827 9ebe c2a6 0c3d eece 30be 2baa 03bf
000000f0: e83e 513e 808c 2cbf b612 4c3c 3caf 37bd
00000100: 4cf8 d3bc 77a9 833e 4868 4dbc 541b f8bd
00000110: 025e 33be 4457 b4be 5f50 86bd db5a 99be
00000120: 9243 0ebe 40d8 8d3e 9aa5 79be 9ba0 0ebe
00000130: 3f48 f23a 4bd7 d53d d976 d13d 244d c6be
00000140: 6bb8 9abd 1903 91be e916 c0bd df9e c7bd
00000150: 6cc2 dd3c c869 883d 1ba1 b33d 699a 193e
00000160: 4fca adbc abdd 433e 2f02 94bd 86c9 063e
00000170: 9de0 493d 1a07 7d3d ef79 a2be bb6c 743d
00000180: 3e68 9cbd 2aa6 ce3c f7ea 693d 2f6e 2dbe
00000190: 50ad 7bbe cfc3 b8bc a587 a33c a83a 0bbe
000001a0: 781c bebe 8c64 d43c 1933 9abe 3cdd 903d
000001b0: 12ca 643e 12c0 c0bd df80 92bd b799 1abe
000001c0: bb13 4ebe 0105 22be a4f4 59be 1cdf 043e
000001d0: e29b 0cbe baba 3f3d 2f1f 73bd 93d5 5dbe
000001e0: ca3d a73e 2f8a 8cbe d41c 20be fd55 8a3d
000001f0: 3a00 98be 98c0 e1bd 1031 fabd fe62 efbc
00000200: 588f 2b3e 5888 73be e3ce 5bbb 86d0 01bf
00000210: f5ed aebb ec34 3e3e 832f 853c 09ba 68bd
00000220: 6bca 89be 7f9e a8bc 082e cf3d 888c c9bd
00000230: 9737 99bd f23e bfbd dec7 8c3e 3818 1fbe
00000240: e7ae c0bc c0be 7d3d 96cd 533b 3cc5 8abe
00000250: b2ab 96bc 690d b3be 0daf 0fbd a3f5 23be
00000260: 0535 eabc 4134 33bf dca7 eabd 0d29 a13c
00000270: fac3 9dbd 7826 9e3e cf26 fe3c a650 1fbe
00000280: 7503 edbd 280f 803e a51b 1c3e d4a5 7dbe
00000290: 0bb2 2abd 6792 df3d f7dd b03b 8f6c fc3b
000002a0: 1b20 66bd 97f7 06bc a6eb 623e 2c9f 5fbe
000002b0: fbe7 d63e 8a21 993d fb4f 7bbe 36bf 223d
000002c0: f637 453e e3e9 6ebe bd3c a8bc cb1d 7fbe
000002d0: eb7a 89bd f8bb 3fbe 1c3d 283d 929c 9c3d
000002e0: f113 43bc c199 28be c73d f9bd 81a8 e6bc
000002f0: ef2b 6e3e 7ac5 b2be 0920 ba3d 0de6 83be
00000300: 3f14 2abe 8082 403e 0cbd 023d 935c 9abe
00000310: a45f 303d eb51 3fbe c0d3 43bc e71b 74be
00000320: 161b a9be d78d 97bd 1c89 74be da10 c9bc
00000330: 6a12 23be 282b 8c3c d033 b9be e9ce abbc
00000340: 788c 77be b1b3 a8bd 1d25 5abd 604d 1f3c
00000350: 7ab8 1a3e 8510 2fbe e659 79bd c42f 243d
00000360: 958f 9abe f35a 303e 2f04 a5be ec11 60be
00000370: 110d acbd b48b 003d a536 84bd 1b8d 87bd
00000380: c16a 3cbd 2867 213e be5c da3c cce3 003e
00000390: 2c5c 99be 6bac d9be ae1c 533e 5331 e2be
000003a0: 9843 8dbe c57f 6f3e 3909 40bc 1bd7 af3e
000003b0: 883e e4bc 268d 8d3e 6c8b 0bbe acf1 b73d
000003c0: 21bd a83e 0574 143e ed75 553e 53bb 68be
000003d0: e233 d6bc 47a9 81bd 0092 5cbe 775b a03e
000003e0: f030 ea3e 1df5 24be 8ca0 5dbe b4aa c53e
000003f0: eb86 373d a07c c6be f604 37be ba23 433e

network_body._body_endoder.seq_layers.0.bias f4 [512]
-0.08792245 -0.16820505 -0.11964122 -0.10146518 -0.013677937 -0.10038925 0.04532878 -0.012958663
-0.036120865 -0.20387353 0.025327522 -0.13609621 -0.09732465 -0.0523044 -0.055122614 0.0034866885
-0.08341476 0.050237954 -0.07936354 -0.09037803 -0.118876025 -0.14299022 -0.0065629403 -0.065352835
-0.16748714 -0.077842474 -0.07753286 0.05420443 -0.07599249 -0.11988089 -0.14238815 -0.0644849
-0.14907742 0.002805755 -0.026519945 -0.079342805 -0.115295865 -0.042475734 -0.12269001 -0.10288579
-0.12070024 -0.099663585 -0.12815881 -0.14546207 -0.13764402 -0.12811778 -0.10218655 -0.049607623
-0.1794101 -0.18141875 -0.12220473 -0.108449385 -0.07316664 -0.06760501 0.0554615 -0.09562886
-0.13216138 -0.15987355 -0.08265854 -0.087039635 -0.11931379 -0.11222204 -0.103866264 -0.009181939
-0.0151255885 0.057256036 0.09271027 0.00020645086 -0.038208857 -0.13118589 -0.023417147 -0.1707942
0.045936856 -0.13237399 -0.10389189 -0.14188628 -0.002860175 -0.019806447 0.07728071 -0.121376075
0.021537766 -0.026427826 -0.08646131 -0.03069773 -0.10997233 -0.16995111 -0.14867444 -0.07932573
-0.14137636 0.059056044 -0.067626335 -0.22550696 -0.0316561 -0.025862668 -0.013952216 -0.14306948
-0.09274479 -0.06546666 -0.0130781 -0.0076940195 -0.06487621 -0.19990616 -0.18542175 -0.043575823
-0.11253006 -0.060383372 -0.17645507 -0.11982268 -0.015269031 0.000773238 -0.29071864 -0.17843424
-0.14144425 -0.12060283 -0.16338724 -0.217479 -0.08296761 -0.06648087 -0.13312806 -0.052434314
-0.09726273 -0.1934385 0.016670018 0.0011180374 -0.15165028 -0.10755157 -0.07705461 -0.12004515
-0.121796764 0.008689156 -0.15079646 -0.07196895 0.030204318 -0.04950508 -0.035685454 -0.03266688
-0.12409825 -0.13343851 -0.06859275 -0.11554719 -0.1366538 -0.10081557 -0.0073060417 -0.052245066
-0.09258251 -0.042448543 -0.021378407 -0.10690471 -0.19303423 -0.04800778 -0.08056449 -0.23456143
-0.07568173 -0.027211227 -0.23215905 -0.026929433 -0.015519572 -0.009703182 0.018387778 -0.08990263
-0.2237583 -0.08248037 -0.04849271 -0.16865876 -0.029838892 -0.0729828 -0.070828214 -0.08284278
-0.03049488 -0.044652384 -0.19645965 -0.1440876 -0.091788545 -0.11269757 -0.067598164 -0.10288819
-0.18194313 -0.17016463 -0.092515565 -0.17960788 0.050904226 -0.14576662 -0.13372809 -0.12551497
-0.05633505 -0.09795046 -0.026604723 -0.20238346 -0.095488615 -0.23023553 -0.16097248 -0.01663667
-0.026436731 -0.03817096 -0.16537765 -0.07102406 -0.16614127 -0.15310964 0.020980641 -0.048704304
0.0765584 -0.0018516412 -0.2080029 -0.25660583 -0.065092 0.012868881 -0.06419938 -0.17118472
-0.19387725 -0.084226675 -0.07291051 -0.11558969 -0.02077295 -0.08513525 -0.021909114 0.030506773
-0.21235429 -0.05958493 -0.075093225 -0.14815545 -0.13169073 -0.095924996 -0.1402419 -0.18552421
-0.11871833 0.01570866 -0.15122966 -0.111920536 -0.15116584 -0.060580313 0.0016268498 -0.14800054
-0.08188053 -0.14562657 -0.106368996 -0.04096145 -0.10869911 -0.09717177 -0.18251051 -0.02832897
-0.032240987 -0.23725303 -0.14779894 -0.13616796 -0.18655032 -0.004910426 -0.09595866 -0.1751026
-0.028814042 0.016910765 -0.053995956 -0.11394783 -0.095430166 -0.12046931 -0.13365613 -0.13933174
00000000: af10 b4bd f23d 2cbe 7506 f5bd facc cfbd
00000010: 6d19 60bc e198 cdbd acaa 393d 9250 54bc
00000020: 79f3 13bd 39c4 50be aa7b cf3c ce5c 0bbe
00000030: 2552 c7bd 233d 56bd 40c8 61bd ed80 643b
00000040: 5cd5 aabd 50c6 4d3d 5a89 a2bd 1e18 b9bd
00000050: 4675 f3bd 076c 12be ef0d d7bb b5d7 85bd
00000060: c081 2bbe e06b 9fbd 8cc9 9ebd 7705 5e3d
00000070: f3a1 9bbd 1d84 f5bd 33ce 11be a910 84bd
00000080: c0a7 18be c2e0 373b 5b40 d9bc 7b7e a2bd
00000090: 3d20 ecbd 09fb 2dbd e644 fbbd c9b5 d2bd
000000a0: b031 f7bd 6c1c ccbd 103c 03be 02f4 14be
000000b0: 8ef2 0cbe 4f31 03be 2f47 d1bd 5d31 4bbd
000000c0: 48b7 37be d6c5 39be 7946 fabd b61a debd
000000d0: 64d8 95bd 7f74 8abd 992b 633d 10d9 c3bd
000000e0: 5055 07be e4b5 23be e148 a9bd d641 b2bd
000000f0: ca5a f4bd abd4 e5bd d6b7 d4bd d86f 16bc
00000100: 51d1 77bc 4e85 6a3d e2de bd3d bb7a 5839
00000110: e480 1cbd 9855 06be 51d5 bfbc ade4 2ebe
00000120: 4928 3c3d 0c8d 07be 45c5 d4bd a34a 11be
00000130: c671 3bbb 2141 a2bc 5945 9e3d 0594 f8bd
00000140: f86f b03c 2b7f d8bc a112 b1bd ce79 fbbc
00000150: 2c39 e1bd aa07 2ebe 1d3e 18be 8775 a2bd
00000160: f7c4 10be c0e4 713d ad7f 8abd 4ceb 66be
00000170: d4a9 01bd f2dd d3bc d697 64bc ce80 12be
00000180: fbf0 bdbd 6213 86bd 8745 56bc 1d1e fcbb
00000190: d2dd 84bd 33b4 4cbe 33df 3dbe 907c 32bd
000001a0: 2976 e6bd 8e54 77bd a3b0 34be 9865 f5bd
000001b0: f52a 7abc 20b3 4a3a 13d9 94be 77b7 36be
000001c0: c3d6 10be 9efe f6bd fc4e 27be d1b2 5ebe
000001d0: ecea a9bd 1f27 88bd b952 08be 5dc5 56bd
000001e0: af31 c7bd be14 46be 908f 883c 1c8b 923a
000001f0: 364a 1bbe ff43 dcbd cfce 9dbd 3bda f5bd
00000200: 9570 f9bd f65c 0e3c 636a 1abe 7564 93bd
00000210: 0c6f f73c d7c5 4abd e92a 12bd b5cd 05bd
00000220: 3927 febd 1ba4 08be 5b7a 8cbd 01a4 ecbd
00000230: f9ee 0bbe 6578 cebd 8567 efbb ecfe 55bd
00000240: e69b bdbd 86de 2dbd c521 afbc dbf0 dabd
00000250: c4aa 45be cea3 44bd fffe a4bd df30 70be
00000260: 06ff 9abd 14ea debc 1abb 6dbe 1d9b dcbc
00000270: ce45 7ebc 18fa 1ebc f7a1 963c df1e b8bd
00000280: e520 65be 78eb a8bd 4ba0 46bd e2b4 2cbe
00000290: b170 f4bc 0278 95bd 620e 91bd 7aa9 a9bd
000002a0: 66d0 f9bc 6be5 36bd b82c 49be b38b 13be
000002b0: a2fb bbbd fccd e6bd e870 8abd 0bb7 d2bd
000002c0: 4d4f 3abe a33f 2ebe cd78 bdbd 21eb 37be
000002d0: f380 503d d843 15be 04f0 08be ff86 00be
000002e0: 95bf 66bd 409a c8bd 26f2 d9bc 9c3d 4fbe
000002f0: 898f c3bd ddc2 6bbe f8d5 24be a049 88bc
00000300: d891 d8bc 2759 1cbd c258 29be 1075 91bd
00000310: f020 2abe c6c8 1cbe 98df ab3c 2a7e 47bd
00000320: a7ca 9c3d c5b2 f2ba b6fe 54be d761 83be
00000330: f44e 85bd 00d8 523c f77a 83bd 0c4b 2fbe
00000340: c287 46be 097f acbd 1b52 95bd 4aba ecbd
00000350: 092c aabc 645b aebd be7a b3bc 57e9 f93c
00000360: 6773 59be 540f 74bd 7aca 99bd 10b6 17be
00000370: efd9 06be 5374 c4bd 939b 0fbe 0ffa 3dbe
00000380: 9922 f3bd 73af 803c f3db 1abe 9836 e5bd
00000390: 38cb 1abe 1023 78bd 053c d53a 748d 17be
000003a0: fbb0 a7bd 221f 15be fdd7 d9bd 32c7 27bd
000003b0: a49d debd fe01 c7bd 09e4 3abe 2812 e8bc
000003c0: 200f 04bd 75f2 72be 9b58 17be 9d6f 0bbe
000003d0: 0c07 3fbe a4e7 a0bb f985 c4bd 194e 33be
000003e0: 6d0b ecbc 7288 8a3c dd2a 5dbd 7b5d e9bd
000003f0: e470 c3bd 9db8 f6bd 27dd 08be fbac 0ebe

action_model._discrete_distribution.branches.0.weight f4 [4, 512]
0.042316258 0.003743347 0.009986417 0.0252221 0.06270111 0.012261408 -0.017767107 -0.04920928
0.04817129 0.012431594 0.06512219 0.07436885 0.00701738 0.08418942 0.0143107865 -0.007928265
-0.0027287842 0.037388574 -0.0042273323 -0.007882182 0.0016311454 0.12121592 -0.045356214 -0.0064008147
0.002525687 0.0049562724 0.0012319272 0.036089502 -0.015809352 0.016694114 0.004321969 0.024131726
0.015879238 0.050473157 -0.10294049 0.0012548683 0.013059577 -0.014902667 0.016036754 0.040098444
0.006969661 0.0018263492 0.0063641453 0.00036652436 0.012994579 0.038402233 0.050236218 0.07890817
-0.0039461893 0.0017759549 0.048326608 0.021850903 0.05719781 0.0986825 0.015222923 -0.007451791
0.021373397 0.010201522 0.073445246 0.02692681 0.041650526 -0.009964891 0.0312782 -0.0132459905
0.04162101 0.044600923 -0.047029287 0.07534358 0.075791486 0.02628183 -0.0057334243 -0.0043153334
0.011981812 0.010156042 0.0063122306 0.0427182 0.06824283 0.027372155 0.010360311 0.06926006
-0.06576172 0.047978494 0.00018450308 -0.05136102 -0.026092583 0.012340187 0.009644519 0.011285074
-0.004469447 -0.0068325247 0.012292934 0.011874514 -0.013662749 -0.014435333 -0.017270193 0.006524334
0.059979048 0.04265183 0.018110491 0.055248294 0.0676037 -0.0072548124 0.0112324115 -0.02688093
0.07072631 0.03644897 -0.014719462 0.024383698 -0.004821216 0.021936154 -0.00015694807 -0.022953473
-0.073317304 0.061865002 -0.00301059 0.02628437 0.023552759 0.008302535 0.01843395 -0.008979929
-0.030247532 -0.0020394013 -0.0060731047 -0.0069811125 0.01638625 -0.043797217 0.049247712 0.100820065
0.02751809 -0.05689519 0.05178661 -0.031941574 -0.0041985516 0.0019624797 -0.0035082577 0.024394283
0.0052843373 -0.0032795134 -0.042490758 -0.033309847 0.016842404 -0.026506608 0.027055893 -0.0001315234
0.067468114 -0.0073109004 -0.04938914 0.0017353977 0.004424517 0.0058313054 -0.003096041 -0.00313853
-0.034316085 0.039904207 0.013186005 -0.009726987 0.0121422475 0.036370363 0.017078953 0.0330695
0.010302816 0.11839536 -0.040788256 0.013679357 -0.04547941 -0.0072191134 0.025082381 0.044700056
-0.039808247 0.0057635037 -0.03819134 0.008746727 0.010316783 0.03696875 0.042002335 -0.0017675124
0.005069132 0.015081815 0.029356 0.0065821605 0.015668932 0.0083564175 0.020004796 -0.0074504595
0.0645899 0.023822645 0.031666715 -0.00026845743 0.01967185 -0.023009863 -0.01626058 0.021161417
-0.0040801805 0.024304498 -0.0380492 -0.0038749531 0.011697022 0.032574523 -0.011820571 0.047021773
0.036565192 0.035051264 0.0019183885 0.0015495974 0.004186834 -0.0048025986 0.008107938 0.0063524568
0.012157092 -0.012377861 0.016497228 0.028708348 -0.00044207106 0.054430228 -0.05723607 0.0016465283
0.028803626 -0.043351796 -0.013691157 -0.0068989047 -0.017753385 0.039587703 0.015598316 0.002968806
0.042697262 0.070088685 -0.001746951 0.023039393 0.020937452 0.014441348 0.0074190632 0.0919501
0.04488833 -0.018285904 -0.033730883 0.013380083 0.036400028 0.0011080414 0.0041613844 -0.030338787
-0.049242623 -0.001944934 0.027224302 0.0054079723 0.021266142 0.041957043 -0.005287741 -0.0022069726
-0.050120495 0.047200046 -0.017035374 0.0651748 0.0070485566 0.051576823 -0.008090889 0.023773624
00000000: d053 2d3d f152 753b 129e 233c 949e ce3c
00000010: 7169 803d 13e4 483c 538c 91bc ac8f 49bd
00000020: 424f 453d e2ad 4b3c c85e 853d b24e 983d
00000030: 0df2 e53b 816b ac3d ca77 6a3c 8ee5 01bc
00000040: 67d5 32bb c324 193d 6f85 8abb 4424 01bc
00000050: 28cc d53a 0d40 f83d 70c7 39bd edbd d1bb
00000060: ff85 253b 3a68 a23b 9e78 a13a 96d2 133d
00000070: 9d82 81bc 18c2 883c 4e9f 8d3b e6af c53c
00000080: 2d15 823c f1bc 4e3d 77d2 d2bd 657a a43a
00000090: d6f7 553c 512a 74bc 835f 833c 443e 243d
000000a0: c161 e43b 1c62 ef3a 528a d03b 112a c039
000000b0: 37e7 543c a94b 1d3d 7ec4 4d3d 9b9a a13d
000000c0: 094f 81bb 28c7 e83a 1ff2 453d aa00 b33c
000000d0: 4048 6a3d 0d1a ca3d 9169 793c 272e f4bb
000000e0: 4317 af3c 4924 273c 766a 963d 9d95 dc3c
000000f0: be99 2a3d c843 23bc 921d 003d b605 59bc
00000100: cb7a 2a3d 75af 363d c8a1 40bd bc4d 9a3d
00000110: 9138 9b3d fe4c d73c 73df bbbb a467 8dbb
00000120: 5d4f 443c 8765 263c d4d6 ce3b 47f9 2e3d
00000130: e6c2 8b3d 923b e03c 4bbe 293c 38d8 8d3d
00000140: 15ae 86bd 1985 443d 2b77 4139 ef5f 52bd
00000150: 1dc0 d5bc 7f2e 4a3c 0b04 1e3c 08e5 383c
00000160: 7074 92bb 5fe3 dfbb 4d68 493c 528d 423c
00000170: b9d9 5fbc 2d82 6cbc 387a 8dbc 15ca d53b
00000180: 97ac 753d afb3 2e3d 745c 943c 094c 623d
00000190: cf73 8a3d c7b9 edbb 2608 383c 6535 dcbc
000001a0: f5d8 903d 844b 153d e629 71bc 52c0 c73c
000001b0: 4bfb 9dbb 73b3 b33c 6d92 24b9 ec08 bcbc
000001c0: 6227 96bd 2866 7d3d 524d 45bb 5252 d73c
000001d0: b7f1 c03c 5b07 083c cc02 973c 8d20 13bc
000001e0: acc9 f7bc 7aa7 05bb e500 c7bb d1c1 e4bb
000001f0: 753c 863c b664 33bd f8b7 493d c07a ce3d
00000200: 9e6d e13c ee0a 69bd 321e 543d 2bd5 02bd
00000210: 0194 89bb f29c 003b ccea 65bb 85d6 c73c
00000220: 3c28 ad3b 1bed 56bb ca0a 2ebd e86f 08bd
00000230: 15f9 893c 6324 d9bc 52a4 dd3c 8be9 09b9
00000240: b92c 8a3d 4790 efbb 444c 4abd 4976 e33a
00000250: 8afb 903b 8914 bf3b f3e6 4abb ccaf 4dbb
00000260: 068f 0cbd 9872 233d 1d0a 583c f15d 1fbc
00000270: 47f0 463c 17f9 143d 29e9 8b3c e273 073d
00000280: 24cd 283c 4479 f23d 9611 27bd 621f 603c
00000290: 9e48 3abd 508e ecbb 9179 cd3c 6817 373d
000002a0: f90d 23bd c6db bc3b 866e 1cbd 6f4e 0f3c
000002b0: b907 293c 8b6c 173d a40a 2c3d e0ab e7ba
000002c0: f61a a63b b819 773c fe7b f03c 2aaf d73b
000002d0: 225c 803c 5be9 083c 19e1 a33c fc22 f4bb
000002e0: b647 843d b527 c33c f5b4 013d bfbf 8cb9
000002f0: dc26 a13c 2e7f bcbc e834 85bc b55a ad3c
00000300: 09b3 85bb 3a1a c73c 7ad9 1bbd edf2 7dbb
00000310: dea4 3f3c dd6c 053d 11ab 41bc e799 403d
00000320: 62c5 153d ea91 0f3d 7072 fb3a dc1b cb3a
00000330: b631 893b 1e5f 9dbb 28d7 043c 4528 d03b
00000340: 8a2e 473c 83cc 4abc 3225 873c c52d eb3c
00000350: c6c5 e7b9 3bf2 5e3d 5f70 6abd 52d0 d73a
00000360: 95f5 eb3c a791 31bd e050 60bc 3510 e2bb
00000370: 8c6f 91bc b726 223d 1490 7f3c 4d90 423b
00000380: 53e3 2e3d a88a 8f3d f3f9 e4ba 1cbd bc3c
00000390: 0585 ab3c 679b 6c3c 9d1b f33b 5650 bc3d
000003a0: d3dc 373d 52cc 95bc 6529 0abd 2338 5b3c
000003b0: 3218 153d b33b 913a 395c 883b 0c89 f8bc
000003c0: a2b2 49bd 28ed feba 8005 df3c 5c35 b13b
000003d0: 5536 ae3c 26db 2b3d c944 adbb dba2 10bb
000003e0: 264b 4dbd d654 413d c58d 8bbc 5e7a 853d
000003f0: 94f7 e63b 3842 533d a68f 04bc e7c0 c23c

action_model._discrete_distribution.branches.0.bias f4 [4]
-0.005916998 0.013384804 -0.07102635 0.06169662
00000000: 60e3 c1bb f04b 5b3c 4376 91bd 98b5 7c3d

action_model._discrete_distribution.branches.1.weight f4 [5, 512]
-0.022606483 0.020008665 0.0014374619 0.09545669 0.002659184 -0.06934729 0.022221372 0.024706604
0.027166562 0.031149717 0.05927219 -0.029594047 0.008056914 0.06038315 0.011920807 0.031755704
-0.00029255927 0.07978647 0.014623414 0.015625706 0.08669573 0.018830126 -0.005466361 -0.02141044
0.023787528 -0.007587578 0.022706805 0.035651162 0.01862931 0.04355325 0.03438333 0.009964547
0.05370649 0.030898694 0.015256421 -0.06419702 0.049202222 0.01684996 0.034273442 0.011083737
0.022542914 0.06681146 -0.028647209 0.052472305 0.007258547 -0.010246182 -0.03393004 0.062915176
0.060337517 0.06888815 0.027526723 -0.040093873 0.027580287 0.033629894 0.06810668 -0.004416392
0.063126124 -9.9466335e-05 0.04869778 -0.0006764099 0.0085800635 0.06919591 -0.0070300763 -0.029384987
0.0029346566 0.07503773 0.035532627 0.026575977 0.07177478 0.02870028 -0.0020887747 0.019314054
0.045148365 0.03735172 -0.013343283 -0.00095062255 0.038681246 0.03506236 0.03731096 0.02338093
-0.0051907734 0.06310147 0.03369589 -0.028142221 0.045335155 0.015110944 -0.0721573 0.014168351
0.038435746 0.00046303362 0.012875309 0.0042659515 -0.041006695 -0.015936844 -0.0032711267 0.036162548
0.02585135 -0.07024022 0.049319815 0.035541292 -0.038079426 -0.00027022694 -0.05774658 0.0022587283
-0.023440503 0.033930864 -0.002440981 -0.026732512 0.081869446 0.027243545 0.031042412 0.047250137
-0.031728894 0.02477025 0.0058930907 -0.01504353 -0.044709694 0.018860081 0.05724477 0.02700346
-0.02879952 -0.06435677 0.057438854 -0.0060739513 -0.0050967913 -0.10445826 0.028689763 0.0517514
-0.0044355 -0.004520941 0.05349526 -0.00595318 0.03264999 0.05642992 0.07179941 0.011007147
0.015853522 -0.039416373 0.027356153 0.0645772 0.016919546 -0.030454846 0.057611797 0.019355595
0.025194988 -0.04073942 -0.020644091 0.042148158 0.021666275 0.01200792 0.015344365 0.06778695
0.04889156 0.015912665 0.027496062 0.01589183 0.023286639 0.038894854 0.07042798 0.03306499
0.0067837047 0.03619749 0.013546715 0.059189398 -0.024585724 -0.00040743686 0.02715432 0.064275034
0.018633476 0.01828398 0.07733379 0.021771092 0.0075743846 -0.006712287 -0.016354226 -0.0016084852
0.028750379 -0.043157592 0.028905727 0.017931491 0.024229294 0.043906935 -0.022183022 0.047007
0.011669361 0.049696296 0.0024795989 0.06418413 0.05001512 0.025875013 0.01668552 0.025653575
-0.05479847 0.05660461 0.009034181 -0.020069841 -0.06857366 0.06745566 0.036898706 0.052817322
0.040084004 0.026467018 0.021367833 0.059648845 0.031883266 -0.00209489 -0.009704452 -0.024022266
0.03249442 0.0037611197 0.007476844 0.0354351 0.0042674565 -0.023619596 0.021135325 0.06170419
0.013077053 0.040906735 0.0063158344 0.022040058 0.09005705 0.052841626 0.0056903115 0.0558574
0.023847545 0.03204087 0.023376033 0.021631606 -0.07874784 -0.009152469 0.035353247 0.02347695
0.024965782 -0.011024171 0.00671594 -0.005187008 0.004557995 0.040257365 0.0068975864 0.039915558
-0.0496658 0.029336201 -0.012112023 -0.0053716577 0.019601814 -0.012598129 0.028926944 -0.027224852
0.008323444 0.0007167559 -0.033853486 0.044221025 0.032716554 0.038377218 0.016472908 0.020705724
00000000: 3b31 b9bc 36e9 a33c 3869 bc3a cc7e c33d
00000010: b445 2e3b f405 8ebd 9809 b63c 8165 ca3c
00000020: 698c de3c b12d ff3c 65c7 723d 376f f2bc
00000030: 2601 043c 5254 773d 7d4f 433c 4512 023d
00000040: a462 99b9 1767 a33d 0b97 6f3c 7b01 803c
00000050: 888d b13d a341 9a3c 291f b3bb f264 afbc
00000060: 10de c23c 38a1 f8bb 9f03 ba3c f406 123d
00000070: 7f9c 983c e564 323d 89d5 0c3d 5742 233c
00000080: 56fb 5b3d 421f fd3c 11f6 793c ba79 83bd
00000090: 4588 493d ed08 8a3c 4f62 0c3d 9098 353c
000000a0: ebab b83c 72d4 883d 8dad eabc 33ed 563d
000000b0: 1bd9 ed3b 9adf 27bc 3afa 0abd acd9 803d
000000c0: 7924 773d 3b15 8d3d b97f e13c 7939 24bd
000000d0: 0ef0 e13c 80bf 093d 847b 8b3d 62b7 90bb
000000e0: 4548 813d 9598 d0b8 5377 473d 1a51 31ba
000000f0: 6593 0c3c 96b6 8d3d 8e5c e6bb c9b8 f0bc
00000100: 5e53 403b 62ad 993d a98a 113d ddb5 d93c
00000110: a8fe 923d d91c eb3c d3e3 08bb 8238 9e3c
00000120: 7eed 383d 1efe 183d c99d 5abc 3333 79ba
00000130: 3a70 1e3d 8d9d 0f3d 61d3 183d 5d89 bf3c
00000140: 5d17 aabb 583b 813d b404 0a3d 848a e6bc
00000150: 5bb1 393d e593 773c 35c7 93bd 5f22 683c
00000160: cd6e 1d3d 52c3 f239 f6f2 523c 65c9 8b3b
00000170: a3f6 27bd fc8d 82bc 6660 56bb 2e1f 143d
00000180: 36c6 d33c 1bda 8fbd 9303 4a3d bf93 113d
00000190: 2cf9 1bbd 3fad 8db9 ae87 6cbd 2c07 143b
000001a0: 4c06 c0bc 17fb 0a3d def8 1fbb 24fe dabc
000001b0: 2bab a73d db2d df3c a84c fe3c 5c89 413d
000001c0: 28f6 01bd fbea ca3c d41a c13b 2379 76bc
000001d0: 8321 37bd 7580 9a3c 7e79 6a3d 5c36 dd3c
000001e0: f9ec ebbc 7bcd 83bd 0145 6b3d ff07 c7bb
000001f0: fc02 a7bb 36ee d5bd cb06 eb3c 47f9 533d
00000200: ac57 91bb 6724 94bb d91d 5b3d e512 c3bb
00000210: ffbb 053d 0f23 673d 920b 933d 5257 343c
00000220: 3fdf 813c 1073 21bd 031a e03c 0d41 843d
00000230: dc9a 8a3c 717c f9bc 59fa 6b3d a08f 9e3c
00000240: b865 ce3c 61de 26bd cc1d a9bc 8ca3 2c3d
00000250: 797d b13c debc 443c ee66 7b3c e2d3 8a3d
00000260: 8442 483d 475b 823c 6c3f e13c 952f 823c
00000270: 9fc3 be3c 3650 1f3d 8b3c 903d 286f 073d
00000280: d749 de3b d243 143d 0af3 5d3c 9570 723d
00000290: 0068 c9bc 409d d5b9 bd72 de3c a1a2 833d
000002a0: 3ba5 983c 49c8 953c 2e61 9e3d 4a59 b23c
000002b0: 8b32 f83b bff2 dbbb 4cf9 85bc cfd3 d2ba
000002c0: ea85 eb3c 04c6 30bd b4cb ec3c 10e5 923c
000002d0: 837c c63c c2d7 333d 2bb9 b5bc 698a 403d
000002e0: d930 3f3c 588e 4b3d c480 223b f872 833d
000002f0: a8dc 4c3d d6f7 d33c 12b0 883c 7227 d23c
00000300: 5c74 60bd 3cda 673d 1a04 143c 8269 a4bc
00000310: 5970 8cbd 3126 8a3d 1923 173d fa56 583d
00000320: 202f 243d 5cd1 d83c 980b af3c 5952 743d
00000330: 0798 023d 6c4a 09bb 6cff 1ebc 58ca c4bc
00000340: de18 053d 1e7d 763b 5000 f53b 6524 113d
00000350: 05d6 8b3b e27d c1bc fd23 ad3c 88bd 7c3d
00000360: 2341 563c d28d 273d 0ff5 ce3b 5a8d b43c
00000370: d56f b83d 7670 583d cb75 ba3b bbca 643d
00000380: ed5b c33c 4a3d 033d 187f bf3c c434 b13c
00000390: 8c46 a1bd 3df4 15bc 91ce 103d bc52 c03c
000003a0: 0a85 cc3c b99e 34bc 6311 dc3b c7f7 a9bb
000003b0: 3c5b 953b e8e4 243d 2605 e23b 7f7e 233d
000003c0: 5e6e 4bbd 7952 f03c 8271 46bc bb04 b0bb
000003d0: fc93 a03c 6268 4ebc 33f8 ec3c a706 dfbc
000003e0: 0e5f 083c ade4 3b3a f4a9 0abd 1b21 353d
000003f0: cb01 063d 6e31 1d3d 31f2 863c 0d9f a93c

action_model._discrete_distribution.branches.1.bias f4 [5]
-0.021102846 0.016715977 0.04193242 0.009201471 -0.019626405
00000000: e0df acbc f2ef 883c 54c1 2b3d c4c1 163c
00000010: 8ec7 a0bc

exp_avg f4 [512, 40]
0.0 -1.3788838e-06 0.0 4.3441605e-07 -1.0471715e-06 0.0 -9.840492e-07 0.0
3.95803e-08 1.1032909e-06 0.0 1.9581726e-06 0.0 -2.9026423e-06 -2.4805893e-06 0.0
-2.8483023e-06 0.0 1.9038323e-06 9.022699e-07 0.0 1.7415322e-06 0.0 -2.6860014e-06
-2.7884962e-06 0.0 -3.0128458e-06 0.0 2.0683765e-06 1.2047424e-06 0.0 2.8367438e-06
0.0 -3.781212e-06 -2.306645e-06 -2.744084e-06 2.0515114e-05 -6.385526e-07 -0.00013343769 -7.3274064e-06
0.0 5.1138406e-05 0.0 -1.9441135e-05 2.1479671e-05 0.0 6.555978e-05 0.0
-3.3862532e-05 -1.10136825e-05 0.0 -3.7469653e-07 0.0 3.207194e-05 3.1089898e-05 0.0
4.5891124e-05 0.0 -1.4193869e-05 -1.1416803e-05 0.0 -1.074268e-05 0.0 4.2439933e-05
3.613594e-05 0.0 3.8812494e-05 0.0 -7.1152417e-06 -8.106965e-06 0.0 -3.085754e-05
0.0 6.255479e-05 4.1861524e-05 2.8201406e-05 0.000205425 -5.251235e-05 -3.439421e-05 3.2388758e-05
0.0 3.4849231e-06 0.0 -5.2275877e-06 -2.7941962e-06 0.0 -6.4605894e-07 0.0
-1.0966069e-06 -2.269517e-06 0.0 -2.0430493e-06 0.0 3.00385e-07 -1.8054579e-06 0.0
3.7629452e-06 0.0 -5.5056103e-06 -3.1264635e-06 0.0 -2.5498025e-06 0.0 8.071372e-07
-6.534612e-07 0.0 4.852598e-07 0.0 -2.2279241e-06 -2.9777073e-06 0.0 -6.67311e-06
0.0 4.9304454e-06 1.4969794e-07 1.7709331e-06 6.612466e-05 -4.7943763e-07 -8.552138e-05 3.2095236e-06
0.0 -1.3930841e-05 0.0 -7.253199e-05 -8.7578264e-05 0.0 -0.00012896792 0.0
4.2505104e-05 -4.8446127e-06 0.0 -1.3365434e-06 0.0 -8.512629e-05 -8.895988e-05 0.0
-8.148393e-05 0.0 -4.978881e-06 1.8141334e-05 0.0 6.0272443e-05 0.0 -0.00014673527
-9.4206596e-05 0.0 -9.036873e-05 0.0 3.9059055e-06 2.0840229e-05 0.0 8.551411e-05
0.0 -0.00017197694 -0.00010641973 -9.1297516e-05 -0.0025017858 -0.00082889764 -0.003922113 -8.7130036e-05
0.0 -1.6957283e-06 0.0 -5.040178e-05 -4.7292262e-05 0.0 -4.4488712e-05 0.0
-7.608799e-06 -4.411813e-05 0.0 -2.8313086e-06 0.0 -4.9266186e-05 -4.784891e-05 0.0
-4.7872672e-05 0.0 -4.2248303e-06 -2.2700067e-05 0.0 -1.5673504e-05 0.0 -3.6424004e-05
-4.830601e-05 0.0 -5.5305394e-05 0.0 3.2078792e-06 -1.4207918e-05 0.0 -2.9369166e-06
0.0 -4.916061e-05 -4.9302576e-05 -4.6288777e-05 -0.0012888848 9.189149e-05 -0.0017445346 -3.1935997e-05
0.0 4.3856335e-06 0.0 -7.140034e-07 4.5993493e-06 0.0 -2.3196271e-06 0.0
5.9912572e-06 3.5545759e-06 0.0 -1.7915088e-06 0.0 5.463138e-06 3.9237175e-06 0.0
2.0549014e-06 0.0 1.6167269e-06 1.6296897e-06 0.0 1.8289945e-06 0.0 1.8426356e-06
2.7365325e-06 0.0 4.935649e-06 0.0 -1.2640199e-06 1.1248512e-06 0.0 3.4155805e-06
0.0 2.5604976e-07 1.5078602e-06 2.889021e-06 5.883884e-06 -1.3904619e-05 9.545141e-05 5.7900206e-07
0.0 6.9390044e-05 0.0 -3.2259077e-06 4.960182e-05 0.0 1.2020988e-05 0.0
5.4143155e-05 6.202274e-05 0.0 6.414713e-05 0.0 2.0169996e-06 3.2703392e-05 0.0
00000000: 0000 0000 1612 b9b5 0000 0000 b039 e934
00000010: 8a8c 8cb5 0000 0000 ac13 84b5 0000 0000
00000020: 00ff 2933 c914 9435 0000 0000 2669 0336
00000030: 0000 0000 04cb 42b6 3378 26b6 0000 0000
00000040: 7625 3fb6 0000 0000 2e87 ff35 8433 7235
00000050: 0000 0000 97be e935 0000 0000 2741 34b6
00000060: 0022 3bb6 0000 0000 4c30 4ab6 0000 0000
00000070: 70ce 0a36 a2b2 a135 0000 0000 e35e 3e36
00000080: 0000 0000 bac0 7db6 dccb 1ab6 0127 38b6
00000090: df17 ac37 0069 2bb5 68eb 0bb9 f1dd f5b6
000000a0: 0000 0000 727d 5638 0000 0000 8515 a3b7
000000b0: 3e2f b437 0000 0000 247d 8938 0000 0000
000000c0: 9e07 0eb8 68c7 38b7 0000 0000 e629 c9b4
000000d0: 0000 0000 fc84 0638 8666 0238 0000 0000
000000e0: 387b 4038 0000 0000 3422 6eb7 cc8a 3fb7
000000f0: 0000 0000 763b 34b7 0000 0000 8801 3238
00000100: ac90 1738 0000 0000 99ca 2238 0000 0000
00000110: 76bf eeb6 2603 08b7 0000 0000 086d 01b8
00000120: 0000 0000 d92f 8338 7894 2f38 0f92 ec37
00000130: 5b67 5739 b540 5cb8 8042 10b8 2ad9 0738
00000140: 0000 0000 86de 6936 0000 0000 a368 afb6
00000150: ed83 3bb6 0000 0000 d56c 2db5 0000 0000
00000160: 202f 93b5 014e 18b6 0000 0000 521b 09b6
00000170: 0000 0000 9a44 a134 1053 f2b5 0000 0000
00000180: e886 7c36 0000 0000 d5bc b8b6 3cd0 51b6
00000190: 0000 0000 461d 2bb6 0000 0000 0caa 5835
000001a0: 8369 2fb5 0000 0000 cd42 0235 0000 0000
000001b0: 7283 15b6 9fd4 47b6 0000 0000 94e9 dfb6
000001c0: 0000 0000 3470 a536 a8bc 2034 ccb0 ed35
000001d0: 68ac 8a38 b4b2 00b5 f159 b3b8 3263 5736
000001e0: 0000 0000 82b8 69b7 0000 0000 511c 98b8
000001f0: 39aa b7b8 0000 0000 903b 07b9 0000 0000
00000200: 8247 3238 e88e a2b6 0000 0000 4863 b3b5
00000210: 0000 0000 d485 b2b8 f98f bab8 0000 0000
00000220: 5ae2 aab8 0000 0000 4310 a7b6 382e 9837
00000230: 0000 0000 0bcd 7c38 0000 0000 f3dc 19b9
00000240: c890 c5b8 0000 0000 5884 bdb8 0000 0000
00000250: 790f 8336 0dd2 ae37 0000 0000 0a56 b338
00000260: 0000 0000 b554 34b9 a82d dfb8 fb76 bfb8
00000270: 00f5 23bb 614a 59ba 1285 80bb 95b9 b6b8
00000280: 0000 0000 c898 e3b5 0000 0000 8066 53b8
00000290: ae5b 46b8 0000 0000 6499 3ab8 0000 0000
000002a0: 164f ffb6 7b0b 39b8 0000 0000 8301 3eb6
000002b0: 0000 0000 2aa3 4eb8 60b1 48b8 0000 0000
000002c0: e4ca 48b8 0000 0000 04c3 8db6 066c beb7
000002d0: 0000 0000 987a 83b7 0000 0000 fac5 18b8
000002e0: 2f9c 4ab8 0000 0000 b7f7 67b8 0000 0000
000002f0: f246 5736 8b5e 6eb7 0000 0000 d817 45b6
00000300: 0000 0000 ce31 4eb8 3dca 4eb8 3226 42b8
00000310: ccef a8ba deb5 c038 dea8 e4ba 04f3 05b8
00000320: 0000 0000 4e28 9336 0000 0000 f1a9 3fb5
00000330: 1c54 9a36 0000 0000 e4aa 1bb6 0000 0000
00000340: 8208 c936 268b 6e36 0000 0000 c673 f0b5
00000350: 0000 0000 0050 b736 7aa8 8336 0000 0000
00000360: f0e6 0936 0000 0000 50fe d835 b6bb da35
00000370: 0000 0000 c67b f535 0000 0000 7a50 f735
00000380: 45a5 3736 0000 0000 e79c a536 0000 0000
00000390: 65a7 a9b5 98f9 9635 0000 0000 3a37 6536
000003a0: 0000 0000 3677 8934 af61 ca35 01e1 4136
000003b0: 2e6e c536 e247 69b7 162d c838 b86c 1b35
000003c0: 0000 0000 7f85 9138 0000 0000 ac7c 58b6
000003d0: 8c0b 5038 0000 0000 c0ad 4937 0000 0000
000003e0: c517 6338 3412 8238 0000 0000 ba86 8638
000003f0: 0000 0000 ca5b 0736 002b 0938 0000 0000

exp_avg_sq f4 [512, 40]
0.0 1.6149695e-09 0.0 3.4777161e-09 4.2112034e-09 0.0 1.380943e-09 0.0
3.7930312e-09 4.5323088e-09 0.0 2.9202418e-09 0.0 2.145067e-09 3.5335959e-09 0.0
1.7739008e-09 0.0 3.3584837e-09 4.3374846e-09 0.0 3.5044598e-09 0.0 1.7047638e-09
2.9661262e-09 0.0 2.934842e-09 0.0 2.2428475e-09 3.897753e-09 0.0 4.4997e-09
0.0 7.171369e-10 2.5109688e-09 3.4561545e-09 9.984062e-08 1.2820177e-09 2.920032e-06 4.526605e-09
0.0 4.3362838e-09 0.0 9.494317e-08 9.700356e-08 0.0 1.0298846e-08 0.0
8.7300045e-08 9.3559834e-08 0.0 1.8430827e-08 0.0 7.930754e-08 9.1396636e-08 0.0
4.4739718e-08 0.0 4.895583e-08 8.069346e-08 0.0 6.927916e-08 0.0 2.7925461e-08
6.589679e-08 0.0 8.211345e-08 0.0 1.886719e-08 6.264734e-08 0.0 8.819426e-08
0.0 1.01617e-08 4.508419e-08 8.964869e-08 9.026469e-06 2.419785e-07 0.00037117072 9.6261644e-08
0.0 4.2299297e-09 0.0 4.4447663e-09 6.38327e-09 0.0 2.1982547e-09 0.0
6.5248837e-09 7.647091e-09 0.0 5.662111e-09 0.0 2.905339e-09 5.0661786e-09 0.0
1.707176e-09 0.0 6.8584467e-09 7.875978e-09 0.0 7.166423e-09 0.0 1.4793866e-09
4.055188e-09 0.0 1.9128488e-09 0.0 6.5225043e-09 7.717486e-09 0.0 7.4473547e-09
0.0 1.3960261e-09 3.509768e-09 4.941843e-09 1.2656776e-06 1.4296508e-09 4.197674e-06 7.0424355e-09
0.0 9.014739e-09 0.0 4.184274e-07 4.229089e-07 0.0 7.430846e-08 0.0
3.4897636e-07 4.033862e-07 0.0 8.866849e-08 0.0 3.3296456e-07 3.8169364e-07 0.0
2.0730913e-07 0.0 2.0963755e-07 3.370833e-07 0.0 2.5354598e-07 0.0 1.7266757e-07
2.960158e-07 0.0 3.1355506e-07 0.0 1.0798445e-07 2.855251e-07 0.0 3.948994e-07
0.0 3.034947e-08 1.9248925e-07 3.8291066e-07 6.866016e-05 1.0526813e-06 0.0014959318 4.0042679e-07
0.0 2.0096035e-08 0.0 1.5782643e-08 2.7102232e-08 0.0 2.4787578e-08 0.0
1.1672318e-08 2.2287143e-08 0.0 8.859087e-09 0.0 2.6913026e-08 3.214554e-08 0.0
3.2969375e-08 0.0 3.2026413e-09 1.6302746e-08 0.0 4.9168443e-09 0.0 3.1563197e-08
3.356293e-08 0.0 2.7479285e-08 0.0 7.848414e-09 1.6562295e-08 0.0 6.0424985e-09
0.0 2.9200912e-08 3.3076194e-08 2.1020208e-08 1.9760244e-06 3.640992e-08 1.7177848e-05 2.9543163e-08
0.0 7.757261e-09 0.0 6.4641803e-09 9.793165e-09 0.0 6.7210486e-09 0.0
7.468852e-09 9.9974855e-09 0.0 8.300153e-09 0.0 6.2939276e-09 1.0348296e-08 0.0
9.499536e-09 0.0 5.0418874e-09 8.773935e-09 0.0 6.8517036e-09 0.0 7.79297e-09
1.0827459e-08 0.0 1.03862225e-08 0.0 4.2580117e-09 8.232438e-09 0.0 5.7403566e-09
0.0 8.4002485e-09 1.0990982e-08 8.127158e-09 1.7434401e-07 1.998227e-09 3.188536e-06 1.2889534e-08
0.0 2.0932065e-07 0.0 3.3184944e-07 4.4880383e-07 0.0 9.679652e-08 0.0
4.448374e-07 4.945447e-07 0.0 4.095972e-07 0.0 1.4399477e-07 3.156353e-07 0.0
00000000: 0000 0000 b0f5 dd30 0000 0000 a1fc 6e31
00000010: 23b2 9031 0000 0000 9dcb bd30 0000 0000
00000020: db53 8231 9cba 9b31 0000 0000 70ad 4831
00000030: 0000 0000 6b68 1331 add3 7231 0000 0000
00000040: 96cd f330 0000 0000 12cb 6631 eb08 9531
00000050: 0000 0000 1cd3 7031 0000 0000 0b4d ea30
00000060: a5d4 4b31 0000 0000 49ae 4931 0000 0000
00000070: 9720 1a31 ffec 8531 0000 0000 c89b 9a31
00000080: 0000 0000 0620 4530 6e8d 2c31 5081 6d31
00000090: f667 d633 fd32 b030 c5f5 4336 7088 9b31
000000a0: 0000 0000 5bfe 9431 0000 0000 8fe3 cb33
000000b0: 4550 d033 0000 0000 ceee 3032 0000 0000
000000c0: b579 bb33 10eb c833 0000 0000 d151 9e32
000000d0: 0000 0000 c84f aa33 d545 c433 0000 0000
000000e0: d727 4033 0000 0000 8143 5233 b349 ad33
000000f0: 0000 0000 9fc6 9433 0000 0000 bde0 ef32
00000100: 2583 8d33 0000 0000 5956 b033 0000 0000
00000110: 6411 a232 bd88 8633 0000 0000 4f65 bd33
00000120: 0000 0000 a193 2e32 97a2 4133 e384 c033
00000130: 6470 1737 46e9 8134 b199 c239 66b8 ce33
00000140: 0000 0000 db56 9131 0000 0000 94b8 9831
00000150: d653 db31 0000 0000 1b10 1731 0000 0000
00000160: 7c31 e031 4360 0332 0000 0000 748c c231
00000170: 0000 0000 44a7 4731 9412 ae31 0000 0000
00000180: eaa1 ea30 0000 0000 89a7 eb31 eb4e 0732
00000190: 0000 0000 863c f631 0000 0000 4a53 cb30
000001a0: d055 8b31 0000 0000 3173 0331 0000 0000
000001b0: 8e1c e031 dd95 0432 0000 0000 a0e3 ff31
000001c0: 0000 0000 4dde bf30 7e30 7131 e9cc a931
000001d0: 5ae0 a935 5e7d c430 bfd9 8c36 ebf9 f131
000001e0: 0000 0000 3edf 1a32 0000 0000 39a4 e034
000001f0: 280c e334 0000 0000 8293 9f33 0000 0000
00000200: f25a bb34 fa90 d834 0000 0000 056a be33
00000210: 0000 0000 4dc2 b234 93eb cc34 0000 0000
00000220: b398 5e34 0000 0000 bb18 6134 60f8 b434
00000230: 0000 0000 181f 8834 0000 0000 8066 3934
00000240: 1aec 9e34 0000 0000 ae56 a834 0000 0000
00000250: 14e5 e733 454a 9934 0000 0000 8f02 d434
00000260: 0000 0000 9859 0233 0baf 4e34 d792 cd34
00000270: a5fd 8f38 db49 8d35 2413 c43a 3dfa d634
00000280: 0000 0000 a69f ac32 0000 0000 6692 8732
00000290: 70ce e832 0000 0000 76ec d432 0000 0000
000002a0: 6687 4832 f271 bf32 0000 0000 ad32 1832
000002b0: 0000 0000 5f2e e732 6510 0a33 0000 0000
000002c0: 369a 0d33 0000 0000 7615 5c31 1e0a 8c32
000002d0: 0000 0000 05f1 a831 0000 0000 1a90 0733
000002e0: d526 1033 0000 0000 960b ec32 0000 0000
000002f0: b1d5 0632 df44 8e32 0000 0000 619e cf31
00000300: 0000 0000 7cd5 fa32 a90f 0e33 ed8f b432
00000310: d79b 0436 2161 1c33 2619 9037 1ac6 fd32
00000320: 0000 0000 cb44 0532 0000 0000 881b de31
00000330: cc3e 2832 0000 0000 f8ee e631 0000 0000
00000340: 5c50 0032 68c1 2b32 0000 0000 7598 0e32
00000350: 0000 0000 f941 d831 4ac8 3132 0000 0000
00000360: 6733 2332 0000 0000 e93c ad31 2dbc 1632
00000370: 0000 0000 396c eb31 0000 0000 d8e1 0532
00000380: ab03 3a32 0000 0000 176f 3232 0000 0000
00000390: de4d 9231 a56e 0d32 0000 0000 b63c c531
000003a0: 0000 0000 af50 1032 dad2 3c32 9e9f 0b32
000003b0: 5133 3b34 2e51 0931 a2fa 5536 c570 5d32
000003c0: 0000 0000 9fc1 6034 0000 0000 0a29 b234
000003d0: 21f3 f034 0000 0000 73de cf33 0000 0000
000003e0: fdd1 ee34 dac0 0435 0000 0000 9ce6 db34
000003f0: 0000 0000 fb9c 1a34 9674 a934 0000 0000

exp_avg f4 [512]
-9.444668e-07 3.169725e-05 -1.7426643e-06 -8.6462824e-05 -5.2097497e-05 3.67163e-06 6.616411e-05 0.00012301285
-2.6094347e-05 -5.502832e-06 0.00014685318 5.8679034e-06 -5.6699326e-05 0.0001458747 4.327831e-05 6.0243445e-05
1.036274e-05 0.00029139762 6.855234e-05 -1.9003252e-05 0.0001451715 2.8533597e-05 -1.2384006e-05 -1.792729e-05
6.4072156e-05 3.161415e-05 -2.2666793e-05 0.00018039334 3.7234204e-05 3.8757626e-05 -1.7008679e-06 -2.2431277e-07
3.8015103e-05 -7.137767e-05 4.7295332e-05 -0.00015966436 -9.0015155e-06 9.9223325e-06 -6.477825e-05 -2.1514374e-05
1.1859986e-05 0.0001259177 6.7891774e-06 2.7709799e-05 9.181236e-06 -1.788155e-05 4.094757e-06 -4.6398825e-05
-4.496314e-05 -1.8510693e-05 -1.5977355e-05 -2.2542386e-06 -1.890283e-05 3.5609783e-06 8.8914414e-05 8.779026e-06
0.00018172468 8.470556e-05 8.097499e-05 -1.445289e-06 -5.2821077e-05 0.00017116968 -4.5453244e-06 -0.00029223436
-4.7860703e-06 4.1717823e-05 4.1007683e-05 -3.2650463e-05 3.731849e-05 -1.146434e-05 4.0941086e-07 -2.6196132e-05
0.00019060582 8.9433364e-05 -8.5614956e-05 -9.4479594e-07 5.5425935e-06 1.940549e-05 0.00028239976 -1.4750531e-06
-0.00023915447 2.6877138e-05 9.8083416e-05 -0.00025407656 0.00014633845 9.220623e-06 1.1352697e-06 4.0778752e-05
-8.979874e-06 0.00029850655 8.369129e-06 1.5707072e-05 -0.0005887881 -5.679361e-05 -0.0004212904 6.7146466e-06
1.7563141e-05 -5.258346e-06 0.00017695344 4.8015427e-05 2.0998941e-05 -1.3102417e-06 3.3148644e-06 5.4281238e-05
1.4666179e-05 -1.0511647e-05 1.5965848e-06 6.6925945e-06 -0.00013942563 1.6166527e-05 2.1769436e-05 3.9011044e-05
3.697003e-05 -7.907466e-05 4.071396e-06 -2.6495837e-07 -4.480392e-06 -1.09007005e-05 6.649276e-06 1.7618851e-05
6.0116294e-05 3.157681e-06 -0.0001236274 0.00015015184 3.822195e-06 2.1716534e-05 -3.1265125e-05 -5.484453e-06
-2.7997305e-06 4.19581e-05 -1.9664501e-05 1.0076236e-05 1.2134226e-06 -4.3057844e-06 7.362328e-06 -0.00010111942
-2.359875e-06 -1.7362665e-06 1.3250244e-05 6.2672625e-05 6.3847736e-05 9.484529e-06 3.4637636e-05 1.9070072e-05
-2.4461784e-05 -0.00044243995 2.8684268e-05 -1.0909894e-05 -1.0789045e-06 -9.62036e-05 1.1138345e-05 2.8918807e-06
-6.421454e-05 -7.7524455e-06 3.504034e-05 6.919545e-06 -1.6177582e-06 2.724765e-05 0.00034668046 -1.233861e-05
7.4731946e-07 3.0379342e-06 8.881961e-06 2.7528697e-05 -1.4809317e-05 -1.7731189e-05 -3.6710626e-06 -8.339115e-06
-9.5442374e-08 1.7436407e-05 0.00010337528 7.832062e-06 -1.2486307e-05 -9.238585e-05 -7.4652535e-06 1.7074897e-05
-3.2853495e-06 8.051204e-06 2.6133603e-07 -0.00014401795 2.9528517e-05 -7.936267e-06 -2.3720759e-09 -1.0980457e-05
-1.7151726e-05 -1.25302e-06 -7.548872e-06 6.83725e-05 2.4021465e-06 -0.000102312566 2.7145717e-05 6.3969725e-05
-0.0006259813 3.077497e-05 1.6886563e-05 -6.5812696e-05 2.311914e-06 0.00011082954 4.107888e-06 -1.0349165e-05
-9.462901e-06 6.9655215e-08 1.9121097e-05 2.4672532e-05 -1.419532e-06 -9.256484e-06 -3.1468466e-05 3.7871177e-06
9.89474e-05 -6.3969264e-07 -3.4147874e-05 4.657421e-05 3.429144e-05 6.612131e-07 -6.16867e-05 8.4370615e-05
-1.1530431e-06 -7.4835785e-05 -3.334546e-05 1.3823076e-06 3.2819782e-05 1.3429049e-05 2.5276975e-05 -3.6166057e-05
3.9919714e-06 4.9705304e-05 1.4876993e-05 -5.381586e-06 6.874899e-06 -4.996739e-05 0.00019913848 3.302053e-05
-3.4262648e-05 5.462708e-06 -5.7201605e-06 -0.00012553686 -0.00012463007 9.839599e-05 -7.554557e-05 0.00015827676
-0.00038368074 3.9595703e-05 7.967818e-06 -0.00020202379 -3.237869e-06 -0.00028634927 0.00011581214 1.7261731e-06
-1.1499978e-06 -1.3482288e-05 -4.5246074e-05 2.5068945e-05 7.3090705e-05 9.7377415e-06 -1.2755627e-05 1.6041931e-05
00000000: 4487 7db5 aaf2 0438 7de5 e9b5 6053 b5b8
00000010: 4383 5ab8 2066 7636 96c1 8a38 03fd 0039
00000020: 2fe5 dab7 f8a4 b8b6 9afc 1939 e8e4 c436
00000030: 70d0 6db8 f1f5 1839 bb85 3538 e8ad 7c38
00000040: a1db 2d37 bac6 9839 c2c3 8f38 2c69 9fb7
00000050: 2e39 1839 6f5b ef37 e7c4 4fb7 9062 96b7
00000060: 7a5e 8638 6f99 0438 9124 beb7 f827 3d39
00000070: ec2b 1c38 af8f 2238 6049 e4b5 a0da 70b4
00000080: 6872 1f38 98b0 95b8 fa5e 4638 936b 27b9
00000090: 3705 17b7 1878 2637 8fd9 87b8 c479 b4b7
000000a0: 41fa 4637 c608 0439 97ce e336 5772 e837
000000b0: 1c09 1a37 5600 96b7 b265 8936 5c9c 42b8
000000c0: ce96 3cb8 6947 9bb7 1c07 86b7 8647 17b6
000000d0: 8591 9eb7 24f9 6e36 9077 ba38 a149 1337
000000e0: 598d 3e39 f4a3 b138 1ed1 a938 c0fb c1b5
000000f0: 338c 5db8 037c 3339 0a84 98b6 0837 99b9
00000100: 0898 a0b6 2cfa 2e38 aaff 2b38 2bf2 08b8
00000110: 6c86 1c38 f756 40b7 00cd db34 c4bf dbb7
00000120: 5cdd 4739 2c8e bb38 2e8c b3b8 e29d 7db5
00000130: 84fa b936 f9c8 a237 0e0f 9439 70fa c5b5
00000140: 8ac5 7ab9 3776 e137 22b2 cd38 9435 85b9
00000150: 6e72 1939 46b2 1a37 925f 9835 da09 2b38
00000160: 44a8 16b7 df80 9c39 2369 0c37 aec2 8337
00000170: e758 1aba ad35 6eb8 a4e0 dcb9 604e e136
00000180: 8f54 9337 d970 b0b6 948c 3939 2c64 4938
00000190: e226 b037 90db afb5 f074 5e36 09ac 6338
000001a0: c20e 7637 2e5b 30b7 3c4a d635 f390 e036
000001b0: c832 12b9 5a9d 8737 829d b637 ca9f 2338
000001c0: 4410 1b38 e3d4 a5b8 069d 8836 9a3f 8eb4
000001d0: 4656 96b6 27e2 36b7 d91c df36 32cc 9337
000001e0: 6125 7c38 8ce8 5336 faa1 01b9 1472 1d39
000001f0: 6840 8036 e72b b637 ac22 03b8 1807 b8b6
00000200: 01e3 3bb6 2bfc 2f38 32f5 a4b7 1b0d 2937
00000210: e2dc a235 687a 90b6 ea09 f736 1310 d4b8
00000220: 585e 1eb6 aa09 e9b5 5d4d 5e37 1c6f 8338
00000230: fee5 8538 be1f 1f37 e147 1138 abf8 9f37
00000240: 4833 cdb7 49f7 e7b9 ff9e f037 a309 37b7
00000250: e0ce 90b5 eac0 c9b8 d4de 3a37 2212 4236
00000260: ebaa 86b8 8010 02b7 47f8 1238 702e e836
00000270: c021 d9b5 e291 e437 aac2 b539 ed01 4fb7
00000280: 679b 4835 50df 4b36 bb03 1537 6ded e637
00000290: 8875 78b7 70bd 94b7 605c 76b6 3ae8 0bb7
000002a0: 00f6 ccb3 6644 9237 2ecb d838 7366 0337
000002b0: 487c 51b7 47bf c1b8 0a7e fab6 103c 8f37
000002c0: e079 5cb6 a813 0737 c04d 8c34 8603 17b9
000002d0: 02b4 f737 0226 05b7 0002 23b1 b438 38b7
000002e0: 0de1 8fb7 702d a8b5 514c fdb6 3563 8f38
000002f0: 9034 2136 a490 d6b8 fcb6 e337 7c27 8638
00000300: e518 24ba 5f14 0138 9ea7 8d37 ec04 8ab8
00000310: 6126 1b36 286d e838 7dd6 8936 53a1 2db7
00000320: dac2 1eb7 5c95 9533 3e66 a037 dcf7 ce37
00000330: c086 beb5 4c4c 1bb7 02fd 03b8 3026 7e36
00000340: fb81 cf38 58b7 2bb5 003a 0fb8 ad58 4338
00000350: 27d4 0f38 387e 3135 cb5d 81b8 21f0 b038
00000360: 42c2 9ab5 28f1 9cb8 6adc 0bb8 ba87 b935
00000370: f9a7 0938 544d 6137 e409 d437 02b1 17b8
00000380: c6f2 8536 aa7a 5038 3398 7937 7993 b4b6
00000390: efae e636 1494 51b8 d4cf 5039 867f 0a38
000003a0: 3db5 0fb8 4e4c b736 ceef bfb6 8ba2 03b9
000003b0: 21af 02b9 f259 ce38 386e 9eb8 18f7 2539
000003c0: c228 c9b9 9013 2638 85ad 0537 59d6 53b9
000003d0: 2a4a 59b6 2621 96b9 2be0 f238 dbae e735
000003e0: a059 9ab5 fc31 62b7 9ac6 3db8 264b d237
000003f0: 4648 9938 485f 2337 0001 56b7 c991 8637
