MLagents_test1/results/CarAgent_reinforcement_2/CarAgent/CarAgent-1499785.onnx (onnx, 108720 bytes, 7 tensors)

discrete_act_size_vector f4 [1, 2]
00000000: 0000 8040 0000 a040
4.0 5.0

network_body._body_endoder.seq_layers.0.weight f4 [512, 40]
00000000: 2b48 b83d 7319 6ebe 9cc1 b83d ae19 7bbb
00000010: b24a 4ebc 86af 893d 5721 a3bd 6ce7 0c3e
00000020: b1df 5abe b30c 0abd 439c 92be 6beb 363e
00000030: ae02 f53d cdb4 5cbe a00b a7bc f59b 1b3c
00000040: dd47 aebd 25b4 c8bd d9c5 8c3e 25f3 2bbc
00000050: dfc5 9ebd 3ad6 82be 409c e2bd 993d 73bc
00000060: ff59 5ebc ace3 003c ef3a 9dbd a848 2d3e
00000070: 4fd8 1fbe bc4a 66be c08c 8a3c 8f71 593e
00000080: cd89 2cbd 13fd 03be 34ed 5fbe eb38 2c3d
00000090: 1601 f5bb 6681 d1bb 5d95 54bd 903c 6b3e
000000a0: 6707 5fbe 6dea 0e3e 24ca 95bd 9166 f7be
000000b0: a8d1 f6bd 7478 e4bd 0d5a 4a3e 80db a9bd
000000c0: a339 c8bd a9cf b0be 95fe d1bd 7e91 ffbb
000000d0: 531a bc3d 6764 04be f02c 08bf 4db1 2abe
000000e0: b952 99be c2a6 0c3d 086c 2ebe e045 f9be
000000f0: e83e 513e 3ead 28bf b612 4c3c 9128 55bd
00000100: c825 e4bb 77a9 833e 57ae 9b3c 541b f8bd
00000110: de39 63be 533f adbe 5f50 86bd bafe 8bbe
00000120: 9243 0ebe f825 783e b2b2 65be b668 0cbe
00000130: 99b9 83bc 4aec bb3d 0eb7 e93d ff37 c1be
00000140: 6bb8 9abd 9dea 86be e916 c0bd 72e4 bfbd
00000150: d52c 3a3d c869 883d 18d1 8f3d 699a 193e
00000160: cd4d 3f3c 7ba4 533e 2f02 94bd 56cd 023e
00000170: 9de0 493d dea3 c83d 89b7 9bbe bb6c 743d
00000180: afaa 9ebd 2aa6 ce3c a9d6 9c3d d69b 25be
00000190: 50ad 7bbe 6cfa b0ba a587 a33c c98a 0ebe
000001a0: bbb0 b4be 8c64 d43c d0eb 98be 3cdd 903d
000001b0: 28aa 743e 3b2d b3bd df80 92bd b8e7 10be
000001c0: bb13 4ebe d8ee 14be b090 51be 7ce7 0f3e
000001d0: fce7 20be 0150 0d3d f14b bbbc 39ff 36be
000001e0: ca3d a73e d00f 8fbe d41c 20be 3abf 763d
000001f0: 302d 9bbe 98c0 e1bd 7aa2 a4bd fe62 efbc
00000200: 6bc8 0f3e d7a5 7fbe e3ce 5bbb d1fc e9be
00000210: f5ed aebb 61c9 183e 1ac6 8cbb 09ba 68bd
00000220: 4934 7dbe 7f9e a8bc 16e7 893d 52f1 d0bd
00000230: 9737 99bd 9b61 ddbd dec7 8c3e 7146 1dbe
00000240: 3868 1abd c0be 7d3d 2c03 a5bc 3cc5 8abe
00000250: a71e 9ab9 fd94 b2be 0daf 0fbd 249a 25be
00000260: 0535 eabc b1e8 3cbf eec7 03be 9b1a 54bc
00000270: 81ea c0bd 7870 9c3e 694c cd3c 5598 1bbe
00000280: 7503 edbd 58e9 803e a51b 1c3e 2278 85be
00000290: 65d0 45bd 6792 df3d f75d 99b9 8f6c fc3b
000002a0: f3b5 81bd a2f1 abbc a6eb 623e eae6 82be
000002b0: fbe7 d63e 7d9c ac3d c343 7ebe 36bf 223d
000002c0: 024a 423e e3e9 6ebe a782 0cbd 1649 89be
000002d0: eb7a 89bd 515f 68be 1c3d 283d 48d3 a73d
000002e0: f34a 6abc c199 28be a20f ecbd 81a8 e6bc
000002f0: 5454 4b3e 00c8 c0be 0920 ba3d 8eb4 6bbe
00000300: 3f14 2abe 28fc 2b3e 34c0 ce3c 95bc 8ebe
00000310: 449f a63c 6b3a 1cbe dca6 a53c d124 22be
00000320: 161b a9be bc95 11bd 1c89 74be c20d 4cbd
00000330: 1653 27be 282b 8c3c 6e59 acbe e9ce abbc
00000340: 01e6 82be b54f b7bd 1d25 5abd 1517 f9bc
00000350: 7ab8 1a3e 6349 f8bd 2bd2 7cbd c42f 243d
00000360: 8512 7bbe f35a 303e ff34 c0be c299 76be
00000370: 110d acbd 3ca7 833c a536 84bd 96d6 69bd
00000380: ee80 03bd 2867 213e 8770 5b3d cce3 003e
00000390: 180e acbe b6d5 e4be ae1c 533e 5cf9 f1be
000003a0: 9843 8dbe a6b3 843e 1fe8 7e3b 7a56 b33e
000003b0: 4d4a 573c 27c1 853e 6efa edbd 7a93 bd3d
000003c0: 21bd a83e 9cd6 1a3e ed75 553e e698 71be
000003d0: 0725 debc 47a9 81bd 4762 17be 775b a03e
000003e0: 7a1b d43e 8725 31be 8ca0 5dbe f27c b73e
000003f0: eb86 373d d9f8 b0be a2c7 1cbe ba23 433e
0.0899814 -0.23251896 0.09021303 -0.0038314867 -0.012591051 0.067229316 -0.079653434 0.13760155
-0.21374394 -0.033703517 -0.28634843 0.17863242 0.11963402 -0.21553345 -0.020391285 0.009497632
-0.085098006 -0.09799985 0.27494696 -0.010494982 -0.07752585 -0.25554067 -0.110649586 -0.014846229
-0.013571261 0.007866781 -0.07677256 0.16922247 -0.15609859 -0.22489446 0.016912818 0.21234725
-0.042123605 -0.12889509 -0.2186783 0.04204647 -0.007476936 -0.0063935993 -0.051900256 0.22972322
-0.21780168 0.13956614 -0.07313946 -0.4832044 -0.120517075 -0.11155787 0.19760914 -0.082938194
-0.09776618 -0.34533432 -0.10253636 -0.0077993264 0.091847084 -0.12928925 -0.5319357 -0.16669197
-0.29945925 0.03433872 -0.17033398 -0.48686123 0.20434153 -0.65889347 0.012455633 -0.05204064
-0.0069625117 0.2571523 0.01900403 -0.121145874 -0.22190043 -0.33837375 -0.06558298 -0.27342778
-0.13892964 0.24233234 -0.22431448 -0.13711819 -0.01607971 0.09175928 0.11411868 -0.37738034
-0.07554706 -0.2635087 -0.0937937 -0.09369744 0.04545291 0.06660801 0.07022303 0.15000309
0.011676264 0.20668213 -0.07226979 0.12773642 0.049286474 0.0979688 -0.30413464 0.059674006
-0.07747399 0.025225718 0.07658131 -0.16172728 -0.24577832 -0.0013502366 0.019962141 -0.1392013
-0.35291085 0.02592685 -0.2986741 0.07073447 0.23893034 -0.087488614 -0.071534865 -0.14150894
-0.20124714 -0.14544237 -0.2046535 0.14053148 -0.15713495 0.034500126 -0.02286336 -0.17870797
0.3266433 -0.2794175 -0.15635997 0.06024096 -0.30307913 -0.110230625 -0.080388024 -0.029222008
0.14041297 -0.24965607 -0.0033540062 -0.45700696 -0.0053384253 0.1492057 -0.0042960765 -0.056818042
-0.24726976 -0.02058339 0.06733529 -0.10202278 -0.07481306 -0.108096324 0.27496237 -0.15358903
-0.037697047 0.06194949 -0.020143114 -0.27103603 -0.00029396007 -0.34879294 -0.03507905 -0.16172081
-0.028589735 -0.7379256 -0.12869236 -0.012945796 -0.09419728 0.30554557 0.02506085 -0.15194829
-0.11572925 0.25178027 0.1524492 -0.26068217 -0.048294444 0.10916596 -0.00029252443 0.007703371
-0.06333532 -0.020989243 0.22160205 -0.25566798 0.41973862 0.08428285 -0.24830537 0.039733134
0.18973544 -0.23331408 -0.034304287 -0.26813573 -0.06712898 -0.2269261 0.041073903 0.081945956
-0.014300096 -0.16464902 -0.11526419 -0.02815652 0.19856387 -0.37652588 0.090881415 -0.23018095
-0.16609286 0.16795409 0.025238134 -0.27878252 0.020339616 -0.1525666 0.020221166 -0.15834357
-0.33028477 -0.03554319 -0.23880428 -0.049817808 -0.16340289 0.017110422 -0.3366198 -0.020972686
-0.25566104 -0.0895075 -0.05325805 -0.030406514 0.15109435 -0.121233724 -0.06172387 0.040084615
-0.24518783 0.17222194 -0.37540433 -0.24082091 -0.0840093 0.016070955 -0.06455735 -0.05708941
-0.03210538 0.15762007 0.05357411 0.12586898 -0.33604503 -0.44694299 0.20616409 -0.4726056
-0.27590632 0.2591831 0.003889568 0.35026914 0.013140273 0.26123926 -0.11620031 0.092566445
0.32956794 0.1512093 0.20845766 -0.23593482 -0.027117265 -0.06331115 -0.14783584 0.31319782
0.41427213 -0.17299472 -0.21643275 0.35837513 0.044806402 -0.34564856 -0.15310529 0.19056597

network_body._body_endoder.seq_layers.0.bias f4 [512]
00000000: 5f3d aabd 54ad 22be 5187 d3bd 3801 e3bd
00000010: 3fd5 a9bc 7efd ccbd b4dd 263d bcee 0dbd
00000020: c333 10bd d73d 52be 849d f83c 971f 22be
00000030: 1596 b8bd 6fff 31bd 8112 47bd 3909 9dbc
00000040: 25ea 9cbd 56a0 583d 76ce d7bd e82f dfbd
00000050: 5723 fcbd f61e fdbd b055 46bc 72fa 98bd
00000060: 1c59 18be d5a7 a7bd f530 71bd d8d1 863c
00000070: 5dd7 dabd 06f7 ffbd 9720 eebd 29bd 97bd
00000080: bc88 17be 1e59 ed3b 91fd 70bc 1112 d5bd
00000090: b500 04be 6917 6cbd cf24 f0bd 17d0 e2bd
000000a0: 4c4f e6bd 148a b9bd 79a7 f0bd 292d 10be
000000b0: 97d2 0abe 209c 0abe cd7a b9bd 749c 4fbd
000000c0: 566e 28be 1c34 45be b58f d5bd 5800 c8bd
000000d0: f35b 92bd fa03 a9bd 98bb 473d e060 00be
000000e0: bdc5 0bbe 0294 13be 1465 8fbd 0afd b4bd
000000f0: 5749 f0bd 76cd d8bd 1a8a b7bd c70b b8bc
00000100: 4c1a 6cbc 545e 3b3d 5a29 aa3d a70d dcbc
00000110: 3420 76bd 6415 0ebe da6b dbbc e3fa 21be
00000120: 2ee7 4b3d 9f02 09be 3907 dfbd 04ba 02be
00000130: 7ef4 99bb c86f ab3b fb26 8f3d 68e7 d7bd
00000140: c072 c73c 5c9b 4fbd 4aee cbbd 4115 34bd
00000150: c286 e8bd 1d15 41be 260c 09be a7ee c3bd
00000160: 16e9 1cbe bb5b 623d 25fe 88bd c0c1 5bbe
00000170: fc4e 36bd 6cce d9bc 5350 0dbd eb31 08be
00000180: 0c08 a5bd 9b9f 8abd affe c2bc 0374 b3bc
00000190: fa86 92bd 8fe5 48be 9d8d 30be c5ab 24bd
000001a0: bb8f 08be 58ff 70bd cd25 24be 99d2 dabd
000001b0: 0272 01bc 0ea4 6b3c 0819 8fbe 2c74 15be
000001c0: 54ba 08be fdee eebd 9bed 2fbe 2ecf 47be
000001d0: b78e 91bd 809c a7bd 5985 f3bd 1875 81bd
000001e0: 0f97 c2bd 1e60 24be 643e da3c b406 8abb
000001f0: 71da 1ebe b3ec cbbd 58e0 8dbd ffbc fbbd
00000200: 3c47 dbbd 71c6 50bc 286d 04be 7884 52bd
00000210: 270f c03c 3cf4 8dbd 6217 afbc a7db f1bc
00000220: 57f9 1bbe 95ee dcbd c055 8dbd 31b2 dfbd
00000230: 13a5 e1bd 9ed3 bebd 7fe7 98bc b8d7 8abd
00000240: 706c b5bd f73f 48bd 6ba9 d1bc a719 c1bd
00000250: 912c 4dbe 9df7 33bd e8c9 96bd 6418 78be
00000260: 34bf 66bd eb68 c6bc 9230 52be afec ffbc
00000270: d8e9 e9bc 345c 1bbd fe25 773b 98db c1bd
00000280: af96 47be f6e7 b5bd bb11 5abd 9bbb 27be
00000290: b5cc 4dbd 1195 c8bd ff3e 97bd da01 90bd
000002a0: b393 6cbd 5780 31bd 0cf8 24be ece9 0fbe
000002b0: d4c7 babd 98c8 cabd da0e 4abd af82 ebbd
000002c0: f18b 26be a0ef 04be 5f82 fbbd 6e5c 2cbe
000002d0: d496 833c 85aa e6bd 20aa cbbd 8f29 dcbd
000002e0: a119 4fbd 396d 3ebd fd91 c1bc 8de3 57be
000002f0: 4c9d 8cbd 6a41 68be 2403 33be a141 28bd
00000300: 8b9a 0fbd d22c 20bd 5a2a 24be 26a3 8fbd
00000310: c6c9 0dbe c7c3 29be 6630 183d e963 55bd
00000320: 4f18 a23d cdcd dabc ae76 4bbe 1ce6 82be
00000330: 00e2 a0bd 0358 003c 50fc 95bd 3b6f 0ebe
00000340: 22c6 47be be0d c4bd ac10 adbd 8a06 cfbd
00000350: 151a 53bd 793f d0bd 2c72 09bc 32b7 af3c
00000360: f7ca 3abe e0dd 86bd e639 a3bd 80c4 d5bd
00000370: 223a 08be ccbf 8fbd 93ac 19be 2149 28be
00000380: 42bc fdbd dc1b 8fbb d69f 15be e9cb b2bd
00000390: aced 01be 8f59 9ebd 94ce ea3a fe99 13be
000003a0: eb5c a1bd 6211 09be b95d bfbd d34e 42bd
000003b0: 2e78 e6bd 042c e3bd c1a1 32be 8d7b 04bc
000003c0: 84bc 4fbd 7469 64be eda6 00be be8d 00be
000003d0: c2f6 3bbe 8e9d 47bb 3d20 04be 86ba 30be
000003e0: 53da 33bb 1208 aa3b b1bb 48bd 762a d4bd
000003f0: 5470 c0bd 6520 97bd 410d 1ebe f5b9 06be
-0.08312487 -0.15886432 -0.10328544 -0.11084217 -0.020731566 -0.10009287 0.040738776 -0.034651503
-0.035205614 -0.20531403 0.030348547 -0.15832363 -0.09013001 -0.04345649 -0.04860163 -0.019169437
-0.07661847 0.052887283 -0.10537426 -0.10897809 -0.12311428 -0.12359421 -0.01210539 -0.07469644
-0.14877743 -0.08186308 -0.05888458 0.016457483 -0.106856085 -0.12498288 -0.1162731 -0.07409126
-0.14798254 0.0072432896 -0.014708892 -0.104038365 -0.12890895 -0.057639513 -0.11725771 -0.11074846
-0.112455934 -0.090595394 -0.11750693 -0.14079727 -0.13556896 -0.1353612 -0.090566255 -0.050686315
-0.1644834 -0.1925816 -0.104278006 -0.097656906 -0.07146444 -0.082527116 0.048762888 -0.12536955
-0.1364965 -0.14411929 -0.07001701 -0.08837326 -0.117327385 -0.105860636 -0.08961888 -0.022466553
-0.014410567 0.045744255 0.083086684 -0.026861979 -0.060089305 -0.13875347 -0.026784826 -0.15818362
0.049781017 -0.13379906 -0.108900495 -0.12766272 -0.004698335 0.005231831 0.06989857 -0.10542184
0.02434671 -0.05068527 -0.099575594 -0.04396558 -0.11353828 -0.1885571 -0.1338354 -0.09567004
-0.1532329 0.055263262 -0.06689099 -0.21460629 -0.04450892 -0.026587687 -0.03450043 -0.13300292
-0.080581754 -0.067687236 -0.023803083 -0.021905905 -0.07154651 -0.1961882 -0.17241521 -0.040202875
-0.13336079 -0.058837265 -0.16030045 -0.106846996 -0.007900717 0.014382375 -0.27948785 -0.14595097
-0.13352329 -0.11666677 -0.17180483 -0.19512627 -0.07107299 -0.08184147 -0.118906684 -0.06321162
-0.095014684 -0.16052291 0.026641078 -0.004212225 -0.15513016 -0.09957256 -0.06927556 -0.122919075
-0.10706946 -0.012742625 -0.12932265 -0.051395863 0.023444725 -0.0693135 -0.021373454 -0.029523684
-0.15231834 -0.107876934 -0.06901121 -0.10922659 -0.110178135 -0.093177065 -0.018665073 -0.06779426
-0.088585734 -0.048889127 -0.02559348 -0.09428721 -0.20036532 -0.043937314 -0.07362729 -0.24228054
-0.05633469 -0.02421995 -0.2052634 -0.03124079 -0.028553888 -0.03792973 0.0037711854 -0.09465712
-0.19491075 -0.08882134 -0.053239565 -0.1638016 -0.050244052 -0.09794057 -0.073850624 -0.07031603
-0.057758044 -0.043335285 -0.16110247 -0.14054078 -0.091201454 -0.099015415 -0.04933057 -0.11499535
-0.16264321 -0.12982035 -0.12280726 -0.16832134 0.016063131 -0.11262993 -0.09944558 -0.10750114
-0.05056155 -0.04649088 -0.023629183 -0.21082897 -0.068659395 -0.22681203 -0.17481667 -0.041078214
-0.035059493 -0.039105244 -0.16031781 -0.0701354 -0.13846502 -0.1657859 0.03715553 -0.052097235
0.07914793 -0.026709462 -0.19869491 -0.25566185 -0.07855606 0.007833484 -0.073235154 -0.13909619
-0.19509175 -0.095729336 -0.084504455 -0.10108669 -0.051538546 -0.101683564 -0.008389037 0.021449659
-0.18241487 -0.06585288 -0.079700276 -0.1043787 -0.13303426 -0.07019004 -0.15007238 -0.16434146
-0.12389423 -0.004367335 -0.14611754 -0.08730299 -0.12688321 -0.07731926 0.0017914348 -0.14414212
-0.07879051 -0.13385537 -0.09344048 -0.047438454 -0.11253391 -0.1109238 -0.17444517 -0.008086097
-0.050716892 -0.22305852 -0.12563677 -0.1255407 -0.1835585 -0.00304589 -0.12902923 -0.17258653
-0.0027443364 0.0051889503 -0.04900712 -0.10359661 -0.09396425 -0.07379226 -0.15434743 -0.13156874

action_model._discrete_distribution.branches.0.weight f4 [4, 512]
00000000: ce95 403c b235 fc3b b912 66bb 914d c43c
00000010: d38f db3c 570d e5ba 1324 2fbc cddb ccbc
00000020: 689e b33c 56fd b0bc 4631 ee3c b191 043d
00000030: d068 a73b 4a83 493d c828 6f3c 0b16 edbc
00000040: e55a dbbb c777 f63c a087 8abc 7297 1dbc
00000050: c0cb 30bd 0e82 b33d da59 4bbd 818d 523a
00000060: 9408 713c f691 9839 eba2 2dbc d7b7 013c
00000070: aa44 4fbd a998 6d3c bdaf b9bc 59ad 553c
00000080: e44f 9ebb 8ebc e63c 0e95 b7bd 7d92 14ba
00000090: 8630 193b cd68 d9bc f91d 94ba 4ae8 113d
000000a0: f3d9 edbc 6998 2fbd fd9f aeba f241 a4bc
000000b0: e8a6 1e3c fad0 1cbc a81b d53c dfc2 f63c
000000c0: 8204 7839 d5a4 bb3c 88ed 7a3d df3f 693c
000000d0: d830 083d eb94 6b3d 3f93 883b d8c5 1ebd
000000e0: 5b73 e6bc 1a69 293c 5d1a 053d 00dc 9e3b
000000f0: d0c7 1bbc 6e3f 16bd 50b5 2c3c 27eb 7d3b
00000100: 46b8 9c3c 964b f53c 171b 23bd eef8 ed3c
00000110: 0b8d 2a3d 9ab5 c83b 450b a7bc 0f1b 373c
00000120: 175f 183d 69a6 ae3b 4794 7b3b b532 853c
00000130: f122 d53c 9c30 e23c fda7 ea3c c1ae 293d
00000140: 010a 39bd 651d c33c 5918 d6bb 76a9 02bc
00000150: a646 99bd 9322 3bbc 0769 123b 8543 1f3a
00000160: d446 77bb de54 14ba 918e 82bc 8625 5d3c
00000170: 7f89 3d3c e982 c9bc 0108 60bc be62 793c
00000180: b61e 233d 3dc3 853c 1898 53bb 19c8 7d3a
00000190: 632c 0f3d e553 813b 89fc f13b ac81 15bc
000001a0: d6ee e63c 6f02 c83c d5fe 63bc 8a19 373c
000001b0: 3ff7 55bc c3e9 12bc 0686 6d3b 7c76 65bd
000001c0: 68db 6abd 77fc 263c 0b02 87bc 48de db3b
000001d0: a069 cf3b a51e 92bc e699 a83c 37e7 08bb
000001e0: 4766 44bd 0075 60bc deda 90bc aa3f 753c
000001f0: 1165 9bbb 9029 3bbd b0cd c43c 7607 583d
00000200: 4de1 bb3c 95b4 083b 2a0b 953c c846 8ebc
00000210: 08d1 dc3a 704e 553b f828 20bc ae95 f63c
00000220: 105e f3bc 07f7 ebba ae0a 25bd 5b61 83bd
00000230: cad8 a63c 0de0 b2bc 4cac c83a f7df 6239
00000240: 6d0e 4e3d 30e6 713c e875 26bd 4603 f63b
00000250: 7ecb 3ebc af6a 703c 6e56 36bb 0b7e 6abc
00000260: 6d94 5fbc b4be 663c f628 633c b99f bdbc
00000270: 37ee 09bc 6c0e 6a3c 3d57 183d a0df 94ba
00000280: 8119 c83c c5a8 963d d8d5 40bd 8611 053d
00000290: 389a 9c3b 477f 96bc f2d8 0abb 19f4 363c
000002a0: c837 84bd f5cf 35bc 2b85 81bd 065c abbc
000002b0: 6e95 a83c b2bd 9ebb 61a5 ad3c 8616 df3b
000002c0: 3935 95b9 d582 aeba 6f43 823c 86b4 07bc
000002d0: f2a9 2e3c 4437 1f3c 3ee4 523c 220c 1d3b
000002e0: 17c3 183d ed56 413d 0265 123c 853c 57bc
000002f0: 93a9 943c a5f8 24bd 0eff 2cbd e83d d9bc
00000300: 4829 f73c c9dd 283c 19e1 4cbd a525 9a3b
00000310: 222e 8f3b 0d84 203c 6b66 f3bb 2475 f33c
00000320: b4b8 be3c ea6a 1a3d f683 cf39 2a8c d8bc
00000330: 624b e63b c2ba 78bc 6985 fd3b de6f 83bc
00000340: 7a8a 6c3c 5ecd 07bc 6417 92bb a7bf 98ba
00000350: a54e 59bb fc15 473c ff27 30bd e67e 2f3c
00000360: 89b5 f73c ce02 1fbc 6f66 7bbc a766 cbbc
00000370: 8b03 0abd 3c4a d43c 3a7b ed3b a791 7fbc
00000380: 8d6d ab3c 6589 a53d 44df 253b 241f 353c
00000390: 3f15 2c3c faaf a23c 2415 983c a973 683d
000003a0: 2339 e13b 15f7 83bc d90f 7cbd a367 9d3c
000003b0: 17b7 5e3c 99ee 02bd 048d 943c b619 f1bc
000003c0: 61a1 28bb c88d 023c 2e7c 413c cf63 dd3c
000003d0: bb9e 323b feb8 133d 4dfd abbc c039 8bbb
000003e0: af53 30bd a18b 4b3d 8ff9 403d 645b d93c
000003f0: 7a09 143c f3a9 eb3c cad5 8fb9 195e 143d
0.011754466 0.0076968307 -0.0035106374 0.023962768 0.02680198 -0.0017475289 -0.010689753 -0.025007153
0.02192612 -0.021605175 0.02907623 0.032365505 0.00510893 0.049197473 0.014597125 -0.028941175
-0.006694185 0.030086411 -0.016910374 -0.009618627 -0.04316306 0.0876504 -0.049646236 0.000803195
0.014711518 0.0002910045 -0.010597925 0.007917366 -0.050602593 0.014501729 -0.022666806 0.013041818
-0.004831301 0.028166082 -0.08963977 -0.00056675804 0.002337487 -0.02653923 -0.0011300436 0.03562192
-0.02903459 -0.04286996 -0.0013322827 -0.020050976 0.009683348 -0.009571308 0.026014164 0.030122219
0.00023652802 0.022905746 0.061261684 0.014236419 0.033249706 0.057515066 0.0041679437 -0.038762897
-0.028131178 0.01034 0.032495845 0.0048480034 -0.009508088 -0.036681585 0.010541275 0.0038744898
0.019130837 0.029943269 -0.039820757 0.029049363 0.041638415 0.006125164 -0.020391116 0.011175885
0.03720006 0.005329896 0.003838794 0.01625953 0.026017638 0.02761107 0.028644556 0.041426424
-0.045175556 0.023817727 -0.006533664 -0.007974973 -0.07484178 -0.011421817 0.0022340433 0.000607543
-0.0037731426 -0.0005658398 -0.015937122 0.013497716 0.011568426 -0.024598556 -0.013673783 0.015221296
0.03982421 0.016328448 -0.00322867 0.0009681001 0.03495444 0.0039467686 0.007384841 -0.009125154
0.028190058 0.024415223 -0.013915737 0.011175523 -0.013059436 -0.008966866 0.0036243214 -0.0560212
-0.05733815 0.010192028 -0.016480466 0.0067098476 0.00632973 -0.017836878 0.020581197 -0.0020889768
-0.0479491 -0.01369977 -0.017682489 0.014968792 -0.0047422727 -0.045693934 0.02402386 0.05274149
0.02293458 0.0020859588 0.0181938 -0.017367736 0.0016846964 0.0032547973 -0.009775393 0.03010067
-0.029707938 -0.0018002697 -0.040293388 -0.064150535 0.020367045 -0.021835351 0.0015310138 0.00021636473
0.050306726 0.014764354 -0.040639788 0.0075077144 -0.011645196 0.014673873 -0.0027822512 -0.014312278
-0.013646227 0.014083553 0.013864746 -0.02314745 -0.008418611 0.014285665 0.037192572 -0.0011358149
0.024426224 0.07356409 -0.047078937 0.032487415 0.0047791265 -0.018371237 -0.0021186438 0.011166596
-0.06455952 -0.011096944 -0.06324228 -0.020917904 0.020579066 -0.004844391 0.021197023 0.006808105
-0.0002845915 -0.0013314137 0.015901295 -0.008282786 0.010660635 0.009717766 0.0128718 0.002396353
0.037295427 0.04720204 0.008935215 -0.013136988 0.018147266 -0.04027619 -0.042235427 -0.026518777
0.030171052 0.010306784 -0.050019357 0.0047041946 0.004369513 0.009797108 -0.0074279807 0.029718943
0.023281433 0.037699617 0.00039580435 -0.026434023 0.0070280293 -0.015181245 0.007736851 -0.016044553
0.014437312 -0.008288709 -0.004458355 -0.0011653797 -0.0033158448 0.012151238 -0.043006893 0.010711407
0.03023793 -0.0097052585 -0.015344246 -0.024829222 -0.033694785 0.025914304 0.0072473558 -0.015598691
0.020926261 0.080828466 0.0025310079 0.011054788 0.010503112 0.019859303 0.018564768 0.056750927
0.0068732663 -0.016109029 -0.06153855 0.019214457 0.013593457 -0.031965826 0.018133648 -0.029431205
-0.0025730955 0.007968374 0.011809392 0.027025132 0.0027255255 0.036065094 -0.020994807 -0.0042488277
-0.043048557 0.049693707 0.047112998 0.026532836 0.0090354625 0.028767562 -0.0002743437 0.03622255

action_model._discrete_distribution.branches.0.bias f4 [4]
00000000: 26e1 653c 91e7 533b f661 7abd b7ac 333d
0.01403073 0.003233407 -0.06112858 0.043865886

action_model._discrete_distribution.branches.1.weight f4 [5, 512]
00000000: c363 0abd c684 d83b 46b0 b5b9 cf7b 3c3d
00000010: 5af6 deba 6d35 48bd c045 aa3c b5a3 2a3c
00000020: 99b2 343c ccc4 9e3c 24bc d83c a18b b8bc
00000030: 3fae 8f3b 27fd 2b3d 8c65 9f3c b492 9c3c
00000040: d10f 3c3c 1c17 af3d 15ab 3b3b 7159 cb3b
00000050: d452 663d 842b 01bc 001e 37bc e9c6 b1bc
00000060: d6c5 d03c 9d66 463c b28c eeb9 f10d e9bb
00000070: 337e 1e3a 8c06 c83c 0052 b6bb d5a5 c73b
00000080: 5771 da3c c1ad 1d3c 78b6 543c ad99 49bd
00000090: f554 083d 225c 20bc 48d4 703c 1944 4c3a
000000a0: b382 a03c 5cf4 5a3d 2b9b baba 8308 233d
000000b0: 797c b23b a3cf 6cbc a865 b9bc c475 f63c
000000c0: 50e8 de3c 7985 0b3d 6eb5 c63c 3427 e4bc
000000d0: a03e 7c3a 0bec 6c3c 4a1a 2b3d 8cc8 cebc
000000e0: 4970 353d 6fb0 16bb 6a97 ac3c c1b7 72bc
000000f0: fdb0 cdbb 64d4 433d 6679 6dbc 05aa 81bc
00000100: 5ff6 fdbb 0283 883d 3efa 223d 3086 473b
00000110: 456b c83c 4671 823c 73bf a1bc 466a 963b
00000120: 7c5e 253d 109c 833c ba0b 9d3c 2681 56bc
00000130: 679e 04bc 4a6f a63c e5bc 0d3d 76ce ccb9
00000140: 7590 6d3c 4abd f33c 1281 a63c 6fbe fe3b
00000150: c316 573d e91b 373b 0539 0abd fcc4 debb
00000160: edf9 ba3a 5b0d f83b 3008 f53b 1e12 a03b
00000170: 4f3d d4bc 6865 293b 4019 c6bc 03b9 d63c
00000180: e3dc 853a 373c dfbc bc92 093d 7bdd 2e3c
00000190: 6cb8 0ebd 9527 17bc 2b31 85bc 8822 823a
000001a0: 6e21 42bd 4c3c aa3c 1e44 d5ba 9ae2 05bd
000001b0: ba9d 973d a2a9 453d 96b6 ac3b 4530 173d
000001c0: 05fd 98ba 5b59 413c 73c7 b6bb 32a6 66bb
000001d0: 5394 273a 2f4f f9bb b401 513d c47a b13c
000001e0: 9f43 04bd 466b 2cbd 0e4f 1d3d 0eec 05ba
000001f0: f140 4abc 66cf 93bd b856 8c3c 84a5 bf3c
00000200: fddf 0fbc 9a10 d63c 7514 be3c 3d19 fc3b
00000210: ad69 013d 47ab 96bb 685d 233d 5778 893c
00000220: 3e16 fa3b 915e 1dbc 91b0 183c d7b8 7c3d
00000230: dfc4 803c 00d5 843c 5ad6 84ba 7560 9e3a
00000240: dab5 553c c6fd 9dbc 6d9b 34bc 14c0 c33c
00000250: 0521 693c 5fd0 e73c 5cea b43c 62fe 0d3d
00000260: 81c7 1f3d 8c69 72bc c3b7 8b3c f52b 55bb
00000270: c010 923a 335d 13bc 78d6 953d 0b06 2b3c
00000280: 8225 993c 0b33 bc3c 0bab ccba 5532 513d
00000290: b524 c5bc 0c76 81bb f5a9 de3b df65 873c
000002a0: 34fc 8e3c 71c6 e13b bc8d 833d 5a07 8aba
000002b0: 7820 81bc 7c66 afbb 6df4 81bc 5144 16bc
000002c0: e206 cf3c a1b5 f3bc 3cab 9c3c 890c 003c
000002d0: 2163 dc3b 208b 463d c0cd 693b 0754 f23c
000002e0: 5404 4dbc 0b16 783d 3d4a 80ba f2cd 123d
000002f0: 78cd d63c 23d4 223c a23f f53b 1111 913c
00000300: 6e1d d1bc 23fc 2d3d 52ea f93b 1433 febc
00000310: 6ca2 10bd b09d 613d 7d4a c53c 7b55 733c
00000320: 78ef 173d 6bf3 493c 8ffc 76bb 03fc c73c
00000330: d678 dc3b 6600 c3bc 916c 7bbc 67e2 e8bc
00000340: 571e af3c 5af6 32bc e3b2 803c 1ab3 a23c
00000350: 863a 11bc 4c41 23bd e859 ce3c a11e 553d
00000360: 189d 013d 6be5 5b3c ed05 b4ba 1e31 703c
00000370: 721c 573d 7495 5a3d 6122 f63b de68 303d
00000380: d9f4 a93b 0073 03bc 8b42 15bc 71cc 86bc
00000390: b491 82bd 94f4 2abc a3e5 803c 4ad9 883a
000003a0: 8d2e 94bc 6f75 a73b 808c 97bb 0bae 203d
000003b0: 30df 8d3b b40b 123d 08a3 2e3c 2e4c 8a3d
000003c0: a0a7 87bc 9e34 b6ba e630 983b aab6 b3bb
000003d0: f4c3 e53b 9f31 f03b 9838 df3b 44e4 43bc
000003e0: 5381 d63c fb76 1bbc eeb1 c5bc b032 5c3c
000003f0: fc1d de3b f27f 143b 7c4e ebbb 55cd 6d3c
-0.033786546 0.0066076247 -0.00034654344 0.04601651 -0.0017010674 -0.048879076 0.020785213 0.010415007
0.011028909 0.01938095 0.0264569 -0.022527518 0.0043847854 0.04198947 0.019457601 0.019112922
0.01147838 0.0854933 0.0028635908 0.0062057306 0.056231335 -0.00788391 -0.011176586 -0.021701293
0.02548496 0.012109426 -0.00045499724 -0.0071122576 0.0006046027 0.024417184 -0.0055639744 0.0060927668
0.026665373 0.009623946 0.012982957 -0.049218822 0.033284146 -0.009787591 0.014699049 0.000779213
0.019593572 0.053455696 -0.0014236917 0.03980304 0.005446967 -0.014453801 -0.022631481 0.030085452
0.027210385 0.034062836 0.024256434 -0.027850725 0.0009622369 0.014460574 0.041773118 -0.025242113
0.044296537 -0.0022993346 0.021068294 -0.014814318 -0.006277202 0.047809973 -0.014494276 -0.015828142
-0.007750317 0.06665613 0.03978943 0.0030444972 0.024465213 0.015923154 -0.01974461 0.0045903055
0.04037331 0.016065627 0.01917063 -0.013092315 -0.008094407 0.020316739 0.034603972 -0.00039063737
0.014499773 0.029753346 0.020325217 0.0077741663 0.05251194 0.002794022 -0.033745784 -0.0067983847
0.0014265158 0.0075699515 0.0074777827 0.0048849722 -0.02590814 0.0025847796 -0.024181962 0.026211267
0.0010212924 -0.027250392 0.033587202 0.010672922 -0.034843847 -0.009225746 -0.016258797 0.0009928504
-0.047395162 0.020780705 -0.0016270911 -0.032686807 0.07403131 0.048257478 0.0052707894 0.036911268
-0.0011672085 0.011801089 -0.0055779754 -0.0035194275 0.00063926465 -0.0076083164 0.051027015 0.021664985
-0.03229105 -0.04209449 0.03840547 -0.0005108722 -0.012344585 -0.072172925 0.017131194 0.023394354
-0.00878143 0.026130963 0.023203114 0.0076934383 0.03159492 -0.0045980546 0.039884 0.016781015
0.007632046 -0.009605066 0.00931944 0.061699715 0.015718875 0.016214848 -0.0010134683 0.001208319
0.013043845 -0.019286048 -0.0110233845 0.0238953 0.014229064 0.028297601 0.022084408 0.034666426
0.03900862 -0.014795672 0.017055398 -0.003252742 0.0011143908 -0.008994388 0.07316297 0.0104384525
0.018694643 0.022973558 -0.001561494 0.05107339 -0.024065355 -0.00395084 0.006795163 0.016528068
0.017454244 0.006890111 0.06423518 -0.0010530755 -0.015762553 -0.0053527933 -0.015863622 -0.009171561
0.025271837 -0.029749693 0.01912462 0.007815489 0.0067256843 0.048472524 0.0035675615 0.029581083
-0.012513239 0.060567897 -0.000978775 0.035840936 0.026221022 0.009938273 0.0074843923 0.017708333
-0.025526728 0.042476784 0.00762681 -0.031030215 -0.035311148 0.055082023 0.02408337 0.014851923
0.03709361 0.012326102 -0.0037687158 0.02441216 0.006728272 -0.0238039 -0.0153457085 -0.02842827
0.021376772 -0.010922993 0.0157103 0.019860793 -0.008864051 -0.039857194 0.025189355 0.052031163
0.031643957 0.013421397 -0.0013734676 0.014660148 0.052517362 0.053365186 0.0075114225 0.04306876
0.005186659 -0.008023024 -0.009110103 -0.016454907 -0.06375447 -0.0104342885 0.0157345 0.0010440734
-0.018088603 0.0051104347 -0.004624903 0.03922848 0.0043295845 0.035655692 0.010658987 0.06752811
-0.016559422 -0.0013901179 0.004644501 -0.0054844217 0.007011885 0.007330134 0.0068121664 -0.011956278
0.026184713 -0.009488816 -0.024132695 0.013439819 0.0067784768 0.002265927 -0.007180987 0.014514287

action_model._discrete_distribution.branches.1.bias f4 [5]
00000000: f623 8bbb d5e1 8a3c c5c5 f63c 6574 563b
00000010: 8ac4 b9bc
-0.0042462302 0.016953388 0.0301236 0.0032723185 -0.022676725
