MLagents_test1/results/CarAgent_reinforcement_2/CarAgent/CarAgent-2499846.onnx (onnx, 108720 bytes, 7 tensors)

discrete_act_size_vector f4 [1, 2]
000000 00 00 80 40 00 00 a0 40
       4.0 5.0

network_body._body_endoder.seq_layers.0.weight f4 [512, 40]
000000 2b 48 b8 3d 58 45 6d be 9c c1 b8 3d 26 0b 16 bc
       0.0899814 -0.23170984 0.09021303 -0.009157931
000010 6d 2f c0 bc 86 af 89 3d f7 28 51 bd 6c e7 0c 3e
       -0.023460114 0.067229316 -0.051064458 0.13760155
000020 37 13 6e be 8d 24 2f bd 43 9c 92 be b7 81 2e 3e
       -0.23249517 -0.042759467 -0.28634843 0.1704167
000030 ae 02 f5 3d c2 81 56 be 02 49 b5 bc f5 9b 1b 3c
       0.11963402 -0.20947936 -0.02212954 0.009497632
000040 22 2a e6 bd 25 b4 c8 bd 4c af 91 3e fb 21 84 bc
       -0.11238505 -0.09799985 0.28454053 -0.016129484
000050 df c5 9e bd 20 4d 88 be 40 9c e2 bd 62 e0 21 bb
       -0.07752585 -0.26621342 -0.110649586 -0.0024700393
000060 c6 28 4a bc ac e3 00 3c d9 67 6a bd a8 48 2d 3e
       -0.012338823 0.007866781 -0.057227943 0.16922247
000070 17 98 31 be 95 b1 6f be c0 8c 8a 3c d3 ee 4d 3e
       -0.17343174 -0.23407586 0.016912818 0.20110635
000080 cd 89 2c bd d3 13 eb bd 2b e5 5f be 57 43 6f 3d
       -0.042123605 -0.114783905 -0.21864764 0.05841383
000090 3d da ac bc 9b 7b ad bb ac bc 4a bd f6 85 76 3e
       -0.021100158 -0.005294276 -0.049496338 0.2407454
0000a0 67 07 5f be eb 25 aa 3d 24 ca 95 bd 1c f8 f0 be
       -0.21780168 0.083080135 -0.07313946 -0.47064292
0000b0 75 9d f6 bd 74 78 e4 bd fa 82 6c 3e 80 db a9 bd
       -0.12041751 -0.11155787 0.23096839 -0.082938194
0000c0 e2 be f4 bd ab 1e b5 be 95 fe d1 bd 09 50 3a 3d
       -0.119504705 -0.3537496 -0.10253636 0.045486484
0000d0 53 1a bc 3d c4 7a 1f be b7 9e 0a bf 4d b1 2a be
       0.091847084 -0.15574175 -0.5414843 -0.16669197
0000e0 d2 30 9c be c2 a6 0c 3d 5a 94 2b be 90 1a 00 bf
       -0.30505997 0.03433872 -0.1675581 -0.5004053
0000f0 e8 3e 51 3e 61 cd 28 bf b6 12 4c 3c 99 95 66 bd
       0.20434153 -0.65938383 0.012455633 -0.05629501
000100 10 16 a3 bc 77 a9 83 3e 42 b8 b0 3a 54 1b f8 bd
       -0.019907981 0.2571523 0.0013482647 -0.121145874
000110 f7 59 3f be b3 dd b0 be 5f 50 86 bd 19 0c 93 be
       -0.18686663 -0.34544143 -0.06558298 -0.28720167
000120 92 43 0e be 7d 0d 86 3e 28 2d 71 be 6d c5 08 be
       -0.13892964 0.26182166 -0.23552382 -0.13356562
000130 8e 89 ff bb 08 c6 e6 3d 72 f8 e1 3d 1d 2e c3 be
       -0.00779838 0.1126824 0.11033715 -0.3812112
000140 6b b8 9a bd 56 97 8e be e9 16 c0 bd 83 5d bf bd
       -0.07554706 -0.27849835 -0.0937937 -0.09344008
000150 aa 23 00 3d c8 69 88 3d b0 53 7b 3d 69 9a 19 3e
       0.031284012 0.06660801 0.061359107 0.15000309
000160 ee c2 d0 3b 03 e7 4b 3e 2f 02 94 bd b8 e1 11 3e
       0.0063708937 0.19912343 -0.07226979 0.14246261
000170 9d e0 49 3d eb 15 79 3d 85 60 a4 be bb 6c 74 3d
       0.049286474 0.06081192 -0.3210489 0.059674006
000180 c2 36 b9 bd 2a a6 ce 3c 08 e6 96 3d 61 c0 26 be
       -0.09043647 0.025225718 0.07368094 -0.16284324
000190 50 ad 7b be 8a d2 52 bc a5 87 a3 3c 4d ca 0b be
       -0.24577832 -0.012867579 0.019962141 -0.1365139
0001a0 3e 59 bf be 8c 64 d4 3c b0 7d a3 be 3c dd 90 3d
       -0.37372774 0.02592685 -0.3193183 0.07073447
0001b0 4b c1 77 3e 2c 3f b3 bd df 80 92 bd a4 4d 16 be
       0.24194829 -0.087522835 -0.071534865 -0.14678055
0001c0 bb 13 4e be 92 a1 16 be 34 a3 60 be d2 bc 0d 3e
       -0.20124714 -0.14710072 -0.21937257 0.1384156
0001d0 22 a9 16 be a6 93 1a 3d ef c3 43 bd 99 be 57 be
       -0.14712957 0.037738465 -0.04779428 -0.21068801
0001e0 ca 3d a7 3e 12 da 95 be d4 1c 20 be fd 80 93 3d
       0.3266433 -0.29267937 -0.15635997 0.07202337
0001f0 9e 70 96 be 98 c0 e1 bd 43 bc d4 bd fe 62 ef bc
       -0.29382795 -0.110230625 -0.103874706 -0.029222008
000200 1f 82 26 3e 75 0c 72 be e3 ce 5b bb af e7 fc be
       0.16260575 -0.23637564 -0.0033540062 -0.4939551
000210 f5 ed ae bb 08 44 37 3e d2 29 76 3c 09 ba 68 bd
       -0.0053384253 0.17897046 0.015024619 -0.056818042
000220 bb 7a 8a be 7f 9e a8 bc 8c ec d0 3d 4d b5 b8 bd
       -0.2704676 -0.02058339 0.10201368 -0.090189554
000230 97 37 99 bd f1 d3 c0 bd de c7 8c 3e 31 63 1e be
       -0.07481306 -0.094154246 0.27496237 -0.15467526
000240 62 f8 aa bc c0 be 7d 3d cc 61 81 bb 3c c5 8a be
       -0.020870391 0.06194949 -0.003948426 -0.27103603
000250 39 de 2e bb 8a bd ae be 0d af 0f bd 89 e7 1c be
       -0.0026682748 -0.34128982 -0.03507905 -0.15322699
000260 05 35 ea bc ef da 39 bf b6 55 e3 bd d5 85 ac 3c
       -0.028589735 -0.7259969 -0.111003324 0.02105991
000270 27 92 b3 bd 9f 9a a1 3e 51 a5 16 3d e7 4d 18 be
       -0.08768111 0.3156328 0.03677875 -0.14873467
000280 75 03 ed bd d4 0c 72 3e a5 1b 1c 3e dd ad 82 be
       -0.11572925 0.23637706 0.1524492 -0.25523272
000290 90 af 71 bd 67 92 df 3d 9c 1a 32 bc 8f 6c fc 3b
       -0.05900532 0.10916596 -0.010870602 0.007703371
0002a0 34 7d 6e bd e6 9c ed bc a6 eb 62 3e 29 c3 70 be
       -0.05822487 -0.029005479 0.22160205 -0.23511948
0002b0 fb e7 d6 3e 43 a9 87 3d ce c8 84 be 36 bf 22 3d
       0.41973862 0.06624081 -0.25934452 0.039733134
0002c0 21 28 3e 3e e3 e9 6e be dc d1 46 bd cf 6e 8b be
       0.18569995 -0.23331408 -0.04853998 -0.27232978
0002d0 eb 7a 89 bd 1f d3 4d be 1c 3d 28 3d 66 e6 88 3d
       -0.06712898 -0.20100068 0.041073903 0.0668457
0002e0 4d e8 bc bc c1 99 28 be cc c4 08 be 81 a8 e6 bc
       -0.023059988 -0.16464902 -0.13356322 -0.02815652
0002f0 b6 02 6a 3e b3 25 c0 be 09 20 ba 3d e7 9c 7b be
       0.22852597 -0.37528762 0.090881415 -0.24571572
000300 3f 14 2a be ef 3c 2b 3e 94 ea a0 3c 9f 21 93 be
       -0.16609286 0.16722463 0.019643106 -0.28736588
000310 64 7e 48 3c 76 b3 3b be 4f 19 15 3c 41 ac 3e be
       0.012237165 -0.18330178 0.009100272 -0.18620397
000320 16 1b a9 be 70 3e c3 bd 1c 89 74 be 65 5c f5 bc
       -0.33028477 -0.095333934 -0.23880428 -0.029951284
000330 70 d0 36 be 28 2b 8c 3c f7 60 c2 be e9 ce ab bc
       -0.1785295 0.017110422 -0.37964603 -0.020972686
000340 48 18 81 be d4 c9 d0 bd 1d 25 5a bd da 3a 79 bc
       -0.25213838 -0.10194746 -0.05325805 -0.015211785
000350 7a b8 1a 3e a9 30 33 be 77 70 a1 bd c4 2f 24 3d
       0.15109435 -0.17499031 -0.07882779 0.040084615
000360 0c 23 9b be f3 5a 30 3e 4c c5 b7 be 01 d3 7d be
       -0.30300176 0.17222194 -0.35892713 -0.24787523
000370 11 0d ac bd 3d b8 3f bc a5 36 84 bd e1 45 77 bd
       -0.0840093 -0.011701641 -0.06455735 -0.060369376
000380 05 2b 6a bd 28 67 21 3e 9f 48 b6 3c cc e3 00 3e
       -0.057169933 0.15762007 0.022251425 0.12586898
000390 59 1d ab be 06 99 e8 be ae 1c 53 3e b1 b4 f2 be
       -0.33420828 -0.45429248 0.20616409 -0.47403482
0003a0 98 43 8d be 0b 43 70 3e c3 6f c4 bc 94 17 aa 3e
       -0.27590632 0.23463075 -0.023979073 0.33221114
0003b0 dd 9d bd 3b 6b 7e 8b 3e e1 17 03 be 74 e9 c8 3d
       0.005786641 0.27244887 -0.12802078 0.09810153
0003c0 21 bd a8 3e 69 9f 07 3e ed 75 55 3e fc 0c 68 be
       0.32956794 0.13244404 0.20845766 -0.22661203
0003d0 98 66 e5 bc 47 a9 81 bd d2 82 48 be 77 5b a0 3e
       -0.028003022 -0.06331115 -0.19581154 0.31319782
0003e0 20 c9 e0 3e ef 4d 2d be 8c a0 5d be 40 51 ba 3e
       0.43903446 -0.1692426 -0.21643275 0.36390114
0003f0 eb 86 37 3d 42 d2 b9 be c1 e9 2f be ba 23 43 3e
       0.044806402 -0.36293226 -0.17179014 0.19056597

network_body._body_endoder.seq_layers.0.bias f4 [512]
000000 d4 ce b1 bd 11 a1 25 be a7 9b e3 bd d0 b2 cc bd
       -0.086820275 -0.16174723 -0.11113673 -0.09995043
000010 c2 0e e4 bc 72 51 f9 bd 6d 89 13 3d f0 83 c5 bc
       -0.027839068 -0.121737376 0.03601973 -0.024110764
000020 76 de 36 bd 8f 3e 51 be 20 05 68 3c 27 2a 22 be
       -0.04464575 -0.2043402 0.014161378 -0.15836392
000030 b8 98 ce bd 3c 50 35 bd b5 45 38 bd be 2a a9 3b
       -0.100877225 -0.04426597 -0.044988353 0.005162566
000040 39 b9 bf bd a9 90 33 3d 16 a9 97 bd 39 db cd bd
       -0.093615 0.04383913 -0.074052975 -0.10051579
000050 ca ad c1 bd f4 6c 20 be 45 bb 53 bb 07 0b 90 bd
       -0.09456976 -0.15666562 -0.0032307666 -0.07033353
000060 09 0a 27 be 3b 4a 9d bd e8 81 8d bd 90 84 f8 3c
       -0.16312422 -0.07680174 -0.06909543 0.030336648
000070 f4 f6 c2 bd 5a 24 f3 bd 07 96 11 be bb e7 85 bd
       -0.09519759 -0.11872168 -0.14217387 -0.0653834
000080 e4 b5 16 be 05 72 21 3c 18 71 4f bc 9c 50 b6 bd
       -0.14717823 0.0098538445 -0.012661241 -0.08902094
000090 27 66 f3 bd 1f a0 58 bd a6 51 00 be 92 ae ec bd
       -0.118847184 -0.05288708 -0.12531146 -0.11556734
0000a0 af 0e fa bd ab 14 99 bd b7 6f 00 be 51 34 08 be
       -0.12209832 -0.07474645 -0.12542616 -0.13301207
0000b0 e4 33 0e be 34 0a 16 be be 13 e2 bd 9e cd 5a bd
       -0.13886982 -0.1465233 -0.11038922 -0.053418748
0000c0 28 b4 2d be 59 e5 37 be 7a b8 c4 bd 4c 46 dd bd
       -0.16963255 -0.17958583 -0.096054986 -0.10804424
0000d0 7e d3 a9 bd 9d 8d be bd ef 30 3c 3d b5 5a c0 bd
       -0.08292292 -0.09304354 0.045945104 -0.09392301
0000e0 a7 56 0e be 1a 62 10 be fe 63 96 bd 5f e9 c4 bd
       -0.13900243 -0.14099923 -0.07343291 -0.096148245
0000f0 5a 2c 05 be 60 45 eb bd 3b 0d e2 bd 30 fc 86 bc
       -0.130052 -0.114878416 -0.1103768 -0.016477674
000100 77 65 9b bc 1a cf 3a 3d 00 09 a6 3d 15 91 7e bc
       -0.01896928 0.045607664 0.08107185 -0.01553752
000110 9c 7d 53 bd 60 b1 13 be 7b 84 d7 bc 07 9c 30 be
       -0.051633462 -0.14423132 -0.026308289 -0.1724702
000120 7d 0a 33 3d e9 79 0c be 00 ad eb bd 6a 33 0b be
       0.043711174 -0.1371838 -0.115076065 -0.13593832
000130 5a 91 38 bb a5 5c 49 bc a7 9e 9a 3d ef fe e0 bd
       -0.0028162808 -0.012290155 0.07549792 -0.10986125
000140 e4 89 be 3c ea d5 29 bd a2 ed aa bd 54 0c 20 bd
       0.02325911 -0.04146377 -0.08346106 -0.039074257
000150 50 fd dd bd 38 fd 2f be 52 7c 1f be 79 59 a3 bd
       -0.10839331 -0.17186439 -0.15574768 -0.0797605
000160 6c 4a 0e be f5 92 73 3d af 8a 8d bd 49 9e 6a be
       -0.13895577 0.05946632 -0.069112174 -0.22911943
000170 b9 aa 22 bd 81 18 db bc 00 66 a3 bc 28 9e 12 be
       -0.039713595 -0.026745083 -0.019946098 -0.14318144
000180 88 ec ab bd 54 a8 a8 bd da 1c 65 bc 4c c9 b9 bc
       -0.08394724 -0.08235231 -0.0139839295 -0.022678994
000190 9a 59 94 bd c2 dc 59 be cb 41 3e be b5 fe 2b bd
       -0.07243653 -0.21275619 -0.18579786 -0.041990954
0001a0 c7 68 1c be 17 fd 7e bd d3 04 27 be ce d7 e9 bd
       -0.15274344 -0.062253084 -0.16310434 -0.114181146
0001b0 fa 70 46 bc b8 7b d1 3b 7e 1f 94 be 9a f2 34 be
       -0.012111897 0.0063929223 -0.28930277 -0.1767067
0001c0 97 8d 0d be 33 cd fc bd 00 be 29 be dc 76 5d be
       -0.13823543 -0.12343826 -0.16576385 -0.21627373
0001d0 b0 54 c3 bd 43 7e af bd f7 67 04 be 46 52 8d bd
       -0.09537637 -0.085690044 -0.12930284 -0.06900458
0001e0 b3 78 b9 bd 13 6a 45 be c1 66 a0 3c 63 42 18 bb
       -0.09056225 -0.19278745 0.019580247 -0.002323293
0001f0 56 23 1f be d8 fc f7 bd 9f 38 b7 bd 01 48 14 be
       -0.15540823 -0.12108773 -0.089463465 -0.14480592
000200 74 5f f6 bd a4 78 6c 3b 8c 46 21 be 04 e8 87 bd
       -0.12029925 0.003608265 -0.15749568 -0.0663605
000210 a1 2d e1 3c 59 55 6f bd 84 a8 df bc 6f 65 09 bd
       0.027487578 -0.058431003 -0.027302034 -0.033544
000220 8c 6d 01 be 5a 1e 06 be 5f 5f 90 bd f5 fa b5 bd
       -0.12639445 -0.13097516 -0.070494406 -0.08885757
000230 f4 18 fa bd 24 99 d6 bd ad 9e 92 bc 99 2d 6c bd
       -0.12211791 -0.10478428 -0.017897928 -0.057660673
000240 68 ce d8 bd 5b 44 33 bd f5 c4 b2 bc 58 76 d9 bd
       -0.10586244 -0.04376636 -0.021822432 -0.106182754
000250 56 fe 45 be 22 45 4f bd 8f 6f a1 bd 45 f3 70 be
       -0.19335303 -0.05060304 -0.07882606 -0.235303
000260 d0 92 85 bd 5d 01 2e bd b5 de 63 be ae 12 0e bd
       -0.06522143 -0.04248177 -0.22252925 -0.034685783
000270 d2 9f ca bc ef 0b 0a bd 51 03 50 3c b3 a4 e2 bd
       -0.024734411 -0.033702787 0.012696103 -0.1106657
000280 42 73 55 be 86 be d8 bd e1 23 42 bd 20 c6 27 be
       -0.20844749 -0.105832145 -0.047397498 -0.16384172
000290 37 de 2b bd 89 6a b1 bd 38 06 95 bd eb 4f 85 bd
       -0.041959967 -0.08662898 -0.07276577 -0.06509384
0002a0 59 72 26 bd 8c 3c 5c bd 46 3f 49 be 34 83 14 be
       -0.040636394 -0.05376868 -0.19653043 -0.14503175
0002b0 9e 08 be bd 73 05 f1 bd fe 54 62 bd fb 9f c9 bd
       -0.09278987 -0.117686175 -0.055256836 -0.09844967
0002c0 43 46 3a be 89 50 26 be 96 27 ee bd 2d 43 2e be
       -0.18190865 -0.16241659 -0.11628644 -0.17017813
0002d0 d2 e3 f6 3c f9 7e 09 be 63 4d 05 be bd a8 f4 bd
       0.03013793 -0.13427342 -0.13017802 -0.11946247
0002e0 0e 09 88 bd 6f 83 93 bd 17 f9 f3 bc 1e 10 56 be
       -0.06642352 -0.07202803 -0.029781861 -0.20904586
0002f0 3d 3f 8a bd 71 7b 64 be 23 88 27 be 83 73 0a bd
       -0.06750343 -0.22312714 -0.16360526 -0.033801567
000300 fd 62 f1 bc 1b cb 6b bd db b9 2a be d6 2f a6 bd
       -0.029466147 -0.057566743 -0.1667246 -0.08114593
000310 91 89 2c be c9 75 1c be ce 40 fb 3c 2b a0 87 bd
       -0.16849352 -0.15279306 0.03067055 -0.066223465
000320 78 0c 94 3d 38 af c8 bc 92 10 55 be 09 63 81 be
       0.07228941 -0.024497613 -0.20807102 -0.2527087
000330 9c 60 a9 bd 18 62 aa ba 94 72 a2 bd 40 a5 34 be
       -0.0827038 -0.0012999205 -0.0793201 -0.17641163
000340 e1 19 3f be 51 7b bd bd 29 a4 a6 bd c2 f7 aa bd
       -0.18662216 -0.09252036 -0.0813678 -0.08348037
000350 ec 3c 44 bd b7 0b cc bd de 36 7d bc 99 50 b5 3c
       -0.047909662 -0.09963172 -0.015454976 0.022133159
000360 9d 93 4b be 44 62 8e bd 76 e2 aa bd ae 20 08 be
       -0.19880529 -0.069523364 -0.08343975 -0.13293716
000370 56 88 fb bd 4c ab b1 bd 3a ae 1a be d2 6d 34 be
       -0.122818634 -0.086752504 -0.15105525 -0.17620018
000380 af 35 06 be 48 7d e4 39 66 fa 1c be 4a 97 eb bd
       -0.13106416 0.0004358089 -0.15329894 -0.115034655
000390 62 bb 1a be 22 9b 90 bd 72 24 d9 3a fa 8f 28 be
       -0.15110543 -0.07060839 0.0016566648 -0.16461173
0003a0 f5 94 b1 bd b7 2d 12 be 13 d9 cd bd 8a c4 41 bd
       -0.086709894 -0.14275251 -0.10051169 -0.047306575
0003b0 c3 81 d3 bd 90 cd b0 bd bb 6a 3d be e4 d0 b7 bc
       -0.103274845 -0.08632958 -0.18497746 -0.022438474
0003c0 68 22 20 bd 12 b3 6a be 89 89 1c be f2 d9 12 be
       -0.039095312 -0.22919872 -0.1528684 -0.14340952
0003d0 7e 28 41 be 4b ca e8 bb 8e b5 c4 bd 4b 22 2e be
       -0.18863103 -0.0071041933 -0.09604941 -0.17005269
0003e0 af 83 56 bc 22 1a 51 bb cc fd 60 bd 48 b1 01 be
       -0.013092919 -0.0031906446 -0.05492954 -0.12665284
0003f0 2b b5 c9 bd dc 01 d5 bd fc d5 08 be 4f 7d 07 be
       -0.09849008 -0.10400745 -0.13362879 -0.13231395

action_model._discrete_distribution.branches.0.weight f4 [4, 512]
000000 25 6b e2 3c 50 9f 34 3c 04 52 70 bb 5c 35 66 3c
       0.027638981 0.011024311 -0.003666998 0.014050808
000010 33 b0 2a 3d 1c c2 98 3b 1e 38 b4 bc b9 28 1b bd
       0.041671943 0.0046618115 -0.021999415 -0.037880633
000020 f1 dc 05 3d ec 89 d9 ba 02 6a 0d 3d 4a a5 49 3d
       0.03268141 -0.001659689 0.034524925 0.049229898
000030 e0 3e c6 3c 72 45 71 3d 4d 7c 7d 3c 66 12 c4 bc
       0.024199903 0.05890412 0.01547153 -0.023934554
000040 64 6a c8 bb c3 cd d1 3b f5 9c f3 bb 1f 42 9a bb
       -0.0061161984 0.0064027025 -0.007434482 -0.0047075893
000050 2d 6d 15 bd 1e 6a bf 3d ea be 6e bd 72 6e c9 bb
       -0.03648107 0.09346412 -0.05828754 -0.0061471993
000060 78 a8 af 3c 3e 69 47 3c b4 bc 64 bb f7 62 7f 3c
       0.021442637 0.012171088 -0.0034902515 0.01558756
000070 b3 a5 d9 bc fb a5 82 3c 8a ca cc bb be 0c 6f 3c
       -0.02656827 0.015948286 -0.0062497305 0.01459044
000080 41 25 cc ba 84 bd e4 3c 0b 59 d4 bd 92 9a 09 3c
       -0.0015575067 0.0279224 -0.10368546 0.008398669
000090 4d 1d 87 ba 04 2a 98 bc 14 86 6f 3c bb 68 05 3d
       -0.0010308415 -0.018574722 0.014619369 0.032570582
0000a0 a3 24 2c bc 24 d8 b4 bc 8e ea 08 ba 6c 6f 22 bc
       -0.010506782 -0.02207572 -0.00052229397 -0.00991426
0000b0 5c 09 2d 3b 86 d5 9a 3b 35 f2 20 3d 01 41 63 3d
       0.0026403284 0.004725161 0.039293487 0.055481914
0000c0 d9 5d 22 bb 02 69 96 3b fb 22 80 3d 4b a9 79 3c
       -0.0024775176 0.0045901546 0.06256672 0.0152381165
0000d0 1e d7 fe 3c 7b 63 90 3d e4 a7 7c 3c 69 bc ba bc
       0.031108435 0.070502244 0.015420888 -0.02279492
0000e0 f7 34 e2 ba fa 5b 5e 3c 09 35 50 3d 97 89 3b 3c
       -0.0017258216 0.013571734 0.05083183 0.011446378
0000f0 de b8 e4 3b ee bd aa bc cd 07 38 3c d5 76 5f 3b
       0.0069800457 -0.020842519 0.011232329 0.003409793
000100 da f6 b9 3c e5 22 39 3d f9 a8 41 bd ac 90 40 3d
       0.022700716 0.045199294 -0.047280286 0.04701297
000110 b8 96 6d 3d 93 ab 8c 3b 14 86 95 bc 83 b3 2c 3c
       0.058005065 0.004292914 -0.01825241 0.010540846
000120 bc fc 33 3c e0 ef a5 3c b2 f6 43 3c 63 08 cd 3c
       0.01098555 0.020255983 0.011960672 0.025028413
000130 40 01 fa 3c e2 f4 04 3d 15 ec 36 3c 46 38 5d 3d
       0.030518174 0.0324601 0.011164685 0.054008745
000140 dc d9 5e bd 5f de ed 3c 64 f5 82 3a f7 a3 44 bc
       -0.054406986 0.029036699 0.0009991345 -0.012001983
000150 5a f0 31 bd 96 ba c0 3b e4 c0 e7 3b cf 5e 62 3c
       -0.043442108 0.005881618 0.007072555 0.013816549
000160 fb 75 c9 3b f1 86 a4 3a 88 8e 21 3b 06 3d 23 3b
       0.0061480976 0.0012552423 0.0024651606 0.00249082
000170 40 f1 de ba ca 9d b5 bc df a0 19 bc f9 25 0b 3d
       -0.0017009154 -0.022169966 -0.009376734 0.03397176
000180 d2 28 25 3d 43 57 e1 3c 5b 24 59 bb 5c e5 75 3c
       0.040322132 0.02750743 -0.0033133242 0.015008297
000190 fa f3 4e 3d d4 61 01 bb e9 bb 08 3c 95 0a 45 bc
       0.050525643 -0.0019742148 0.0083455825 -0.012026449
0001a0 30 35 58 3d 6e 38 1d 3d 34 74 64 bc c4 00 90 3c
       0.0527851 0.038383894 -0.013943721 0.01757849
0001b0 2b fd a3 bc b6 15 91 bb 4a 0f ce 3b a0 02 05 bd
       -0.02001818 -0.004427637 0.0062884437 -0.032473207
0001c0 e8 6b 80 bd 52 9d e3 3c 87 e0 e8 bb db ae 91 3c
       -0.062705815 0.027784977 -0.007106844 0.017783573
0001d0 de cb 63 3c cd 6f 12 bb 15 bc e7 3b 24 8c df bb
       0.013903586 -0.002234447 0.0070719817 -0.006822126
0001e0 12 f7 d7 bc 34 83 1f bc b9 d8 28 bc 5d b7 a7 b9
       -0.02636293 -0.009735871 -0.010305577 -0.00031989338
0001f0 1b 23 48 3c e6 38 49 bd 22 9b 0b 3d 56 9d 83 3d
       0.012215401 -0.04912653 0.034083493 0.06426494
000200 1c dd bf 3c 98 d3 07 bd 95 ea 96 3c d3 b3 0f bd
       0.023420863 -0.033160776 0.018422404 -0.035083603
000210 f3 2e 89 bb e9 63 cb bb 2e 9b e7 39 d9 d3 0b 3d
       -0.004186505 -0.0062069786 0.0004417537 0.03413758
000220 90 7c 72 bc 26 b6 a4 bb 58 36 39 bd 69 9a 5b bd
       -0.014800206 -0.0050265966 -0.045217842 -0.053614054
000230 f7 e5 a5 3c 16 5e da bc 58 73 76 3c 4e 9a 4c bb
       0.020251257 -0.026656192 0.0150421485 -0.0031219902
000240 b7 62 5f 3d 8c 9a c2 3c 4f 8b 68 bd 0a b2 b0 bb
       0.0545375 0.023755334 -0.05677348 -0.0053923177
000250 5c 0e f4 bb 47 b1 03 3d 24 50 e3 bb c7 df 8c 3b
       -0.007448001 0.032151487 -0.0069370437 0.0042991373
000260 6e ce 08 bd d3 fd ce 3c 99 8b 89 3c 60 00 9c bc
       -0.03339999 0.025267517 0.016790198 -0.019043148
000270 40 f0 5e bb 13 12 8a 3c b9 01 aa 3c 1e e0 52 3c
       -0.0034017712 0.016854322 0.020752775 0.0128708165
000280 d0 9c f3 3b bd 59 a9 3d cd c2 41 bd 40 49 87 3b
       0.007434465 0.08269069 -0.047304917 0.004128605
000290 ea a8 c2 bc 8e d7 8d bc a0 fa 77 3a c1 aa 55 3c
       -0.023762185 -0.017314699 0.0009459648 0.013041199
0002a0 7c 70 40 bd fa 71 dd 3b f6 3c 4a bd 51 23 8c bb
       -0.046982273 0.006757972 -0.049374543 -0.004276671
0002b0 d4 c4 07 3d d2 e3 26 bc d4 bc aa 3c 2f 78 90 3b
       0.033146694 -0.0101861525 0.020841993 0.0044088583
0002c0 c6 6e a8 3c 02 cc 82 3b 81 04 c9 3c b0 ec 96 3c
       0.020560633 0.003991605 0.02453828 0.018423408
0002d0 06 66 31 3c d9 65 be bb 9a 9d 60 3c 84 a5 99 bc
       0.010827547 -0.005810481 0.01370945 -0.018755682
0002e0 98 00 18 3d 38 88 9f 3c 9c 17 e1 3c a8 48 b5 bb
       0.03710994 0.019474134 0.027477078 -0.005532343
0002f0 82 aa 1b 3c 05 f3 9d bb 51 d9 17 bc 82 22 1c 39
       0.009501101 -0.00482023 -0.009268121 0.00014890174
000300 9b 8e fa 3c c9 99 15 3c e9 1d 66 bd e6 6f 7a 3c
       0.030585578 0.0091309035 -0.05618087 0.015285468
000310 ca 2e e6 3b b3 5b 6f 3c 9f d6 99 bc d4 91 15 3d
       0.0070246207 0.014609265 -0.018779097 0.036516026
000320 2d bb f4 3c dc 85 08 3d 41 fe 90 3c 03 ad 92 bb
       0.029874409 0.033330783 0.017699363 -0.004476191
000330 88 38 fc bb 7d c9 9a bb 30 14 65 3a d7 4e 1c 3b
       -0.0076971687 -0.0047237263 0.0008738665 0.0023850703
000340 c3 cc a7 3c 6f ff 55 bc bb 55 89 3c 70 75 df 3b
       0.02048338 -0.013061388 0.016764512 0.0068194196
000350 a7 5a 6c bb a0 da 13 3d 25 b1 6a bd 2b 60 d5 3b
       -0.0036064775 0.03609717 -0.057297844 0.0065117083
000360 39 3e 68 3c f7 f4 02 bd cf 48 90 ba 57 c3 65 bc
       0.014174991 -0.031971898 -0.0011008027 -0.014023623
000370 89 26 86 bc 86 ae e9 3c c1 52 71 3c ab af a5 3c
       -0.016375797 0.028525602 0.014729203 0.020225367
000380 b3 ae fb 3c 84 c1 a7 3d 94 7f 65 3c 34 9a 5d 3c
       0.030722952 0.08191207 0.014007468 0.013525534
000390 9a 89 84 3c c4 b7 61 3c de 26 93 3c 6d a1 81 3d
       0.016178895 0.013776723 0.01796287 0.06329618
0003a0 b8 63 29 3d 0d 40 92 bc 6d 48 42 bd c3 bd 2e 3d
       0.041354865 -0.017852807 -0.04743235 0.04266144
0003b0 62 1f 2e 3d c6 14 e7 bc eb 79 09 3d cc b6 fa bc
       0.042510398 -0.028208148 0.033563536 -0.030604742
0003c0 d2 14 85 bb d6 4f be b9 e8 71 a7 3c a5 02 fe 3c
       -0.00406132 -0.00036299106 0.020440057 0.03100712
0003d0 4f e4 a2 3c 57 b9 5e 3d be 72 64 bb cf 27 12 bc
       0.019884257 0.054375973 -0.003485843 -0.008920624
0003e0 a5 b6 72 bd 27 f0 27 3d 63 3d 08 3c 74 d6 2c 3d
       -0.059256215 0.04100051 0.008315417 0.042196706
0003f0 49 09 86 ba 55 1d d2 3c 34 f4 8b 3b 73 c0 b1 3c
       -0.0010226156 0.025648752 0.0042710546 0.021698212

action_model._discrete_distribution.branches.0.bias f4 [4]
000000 99 d8 50 39 4b aa 0a 3c 30 13 87 bd 1d 6a 6b 3d
       0.00019917115 0.008463453 -0.065954566 0.057474244

action_model._discrete_distribution.branches.1.weight f4 [5, 512]
000000 cd 96 c1 bc e7 bd 4e 3c 75 89 86 b9 3e 0a c3 3d
       -0.023631478 0.012618518 -0.00025660885 0.09523438
000010 6b f7 01 3c 2c d9 76 bd 4f 41 c3 3c 05 57 f8 3c
       0.007932524 -0.060265705 0.023834853 0.030314932
000020 b9 9a aa 3c dd 73 01 3d ef b3 8e 3d e0 58 dd bc
       0.02082573 0.031604636 0.06967913 -0.027019918
000030 b8 84 9c 3b 8f 89 a0 3d 02 19 67 3c 4a 8e 06 3d
       0.0047765635 0.07838737 0.014105083 0.03285054
000040 b4 79 a8 3b d2 cf a8 3d aa 91 66 3c 11 46 b4 3c
       0.0051414613 0.082427636 0.014072815 0.022006067
000050 36 99 b0 3d 85 72 90 3c 84 f5 c7 bb 08 a9 ab bc
       0.08622973 0.017632732 -0.006102266 -0.020954624
000060 cf 0c 90 3c a6 a5 81 bb 6b 08 e6 3c f3 58 f3 3b
       0.017584233 -0.0039565144 0.028080186 0.007426375
000070 e3 84 60 3c 13 17 42 3d 70 3b b7 3c 0c 8d 5c 3c
       0.013703558 0.047385287 0.02236721 0.013461363
000080 9d 57 44 3d 2d ad 66 3c 6b 4f 69 3c 06 34 5a bd
       0.047935117 0.014079374 0.014240126 -0.05327227
000090 15 0d 37 3d 6f 15 54 3c 6e 13 28 3d 20 b7 19 3c
       0.04469021 0.012944563 0.041034155 0.009382039
0000a0 64 a7 d3 3c ef 88 90 3d 8b 7d 31 bc 1c a5 6a 3d
       0.025836654 0.07057368 -0.010833154 0.057286367
0000b0 33 37 79 3b ae 42 03 bc ca 14 d1 bc 4b f9 12 3d
       0.0038027286 -0.008011503 -0.025522608 0.035882276
0000c0 61 5d 76 3d 4d fe 84 3d 0f d2 c5 3c 31 09 16 bd
       0.060147647 0.064938165 0.024148015 -0.03662986
0000d0 c4 25 da 3c 99 a3 e2 3c 88 f1 4e 3d d9 7d 0c bc
       0.026629336 0.0276659 0.05052331 -0.008574926
0000e0 e2 3d 65 3d 9d 28 66 bb 32 9d 87 3d 03 9b a9 3b
       0.05596722 -0.0035119422 0.066217795 0.0051759495
0000f0 30 a2 53 bb d3 01 8c 3d 0c cf 8d bb 62 29 86 bc
       -0.0032292716 0.068362854 -0.0043276604 -0.016377155
000100 04 28 ad b9 d7 24 6a 3d 5e 8a 04 3d 9e cd 27 3c
       -0.00033026945 0.05716404 0.03235852 0.010241894
000110 1b 05 32 3d 62 8d 1a 3d fd d2 28 ba d6 d4 69 3c
       0.0434619 0.03773249 -0.0006440131 0.014271935
000120 2b 11 22 3d 95 92 01 3d 04 d5 8c bb bf d7 5c 3b
       0.039567154 0.031633932 -0.0042978544 0.003369793
000130 15 5e 10 3d fe fb be 3c 02 20 15 3d 78 e7 05 3d
       0.035245974 0.023313519 0.03640748 0.03269145
000140 b4 78 b8 ba b0 72 27 3d 3a 9b 35 3d 61 6b 7c bc
       -0.0014074058 0.04088086 0.04433749 -0.0154064605
000150 e8 2d 58 3d 80 95 34 3c 9b 46 44 bd 9b 69 61 3c
       0.052778155 0.011021972 -0.047918897 0.013758088
000160 3a 5f ff 3c ab 38 12 bc e5 14 91 3c d5 98 1b b9
       0.031173337 -0.0089246435 0.017710159 -0.00014838886
000170 db 69 0e bd e9 fd 85 bc 9d 61 89 3b 5b 26 09 3d
       -0.03476892 -0.016356425 0.0041925446 0.033483844
000180 28 74 01 3d e3 d2 4d bd e5 75 39 3d 13 d7 48 3c
       0.031604916 -0.050249945 0.04527845 0.012258309
000190 bb 4c ff bc fb 1e 44 ba 38 13 03 bd 6e 74 27 3c
       -0.031164518 -0.0007481423 -0.03200075 0.01022063
0001a0 2a 23 25 bd ae ff bc 3c 3e 75 3a 3c 13 54 8e bc
       -0.04031674 0.023071136 0.011380492 -0.017374074
0001b0 6d 2d ad 3d 7a 45 d1 3c fe e0 89 3c 76 b8 2c 3d
       0.0845593 0.025545824 0.016830917 0.042168103
0001c0 a3 be 1f bc fc 5d b7 bb 9a cb ec 3b 3a 23 6a bc
       -0.009750041 -0.0055959206 0.0072264196 -0.014290625
0001d0 a8 de a7 bc 22 d7 44 3c f5 c0 82 3d c4 b4 ee 3c
       -0.020491913 0.012014182 0.0638446 0.02913893
0001e0 e2 6e c7 bc ce 98 59 bd 60 72 81 3d 07 44 9c bc
       -0.024344865 -0.05312424 0.063206434 -0.019075407
0001f0 aa b1 03 bc e4 d8 a6 bd fd 38 c4 3c 4b 23 31 3d
       -0.008037964 -0.08146837 0.023952955 0.04324655
000200 c8 63 38 3b 85 05 2f 3c 01 ef 43 3d 64 dd d9 3b
       0.0028135646 0.010682468 0.047835354 0.0066487063
000210 ac 70 00 3d f5 93 1a 3d f6 8c 9c 3d ca 53 c6 3a
       0.031357452 0.03773876 0.07644074 0.0015131172
000220 34 04 9b 3c 6c 02 98 bc ef 97 ee 3c bb ed 89 3d
       0.018922903 -0.018555842 0.029125182 0.067347966
000230 a9 69 4a 3c c8 7f 6c bb 53 8f 17 3d d5 ec bf 3c
       0.012354293 -0.0036086906 0.03700192 0.02342836
000240 25 f3 9c 3c 99 be 13 bd c4 15 8b bc 0e ab 31 3d
       0.01915891 -0.03607044 -0.016978152 0.04337602
000250 2d e2 a3 3c 4f c3 07 3d 8a 2c b1 3c 01 f4 69 3d
       0.02000531 0.033145245 0.021627683 0.057117466
000260 99 ab 5f 3d 8f 77 0c 3c c4 15 ab 3c ab 93 23 3c
       0.054607008 0.008573427 0.020884402 0.009983937
000270 a6 30 b7 3c 33 ae d7 3c 30 27 aa 3d d3 31 c8 3c
       0.022362065 0.026328182 0.08308256 0.02443782
000280 09 3f 14 3c 47 fd 22 3d 87 d2 b3 3c 38 b2 6b 3d
       0.009048232 0.039792325 0.021950973 0.05754301
000290 0f be 55 bc 74 ca 41 3c c2 f6 e4 3c b7 24 65 3d
       -0.013045802 0.011828054 0.027949695 0.055943217
0002a0 b0 63 a9 3c ab 18 89 3c fb 21 8d 3d b8 86 a3 3c
       0.020677418 0.016735395 0.06891247 0.0199617
0002b0 b3 5d b9 3a 46 72 26 bc 75 f4 7a bc da df f5 bb
       0.0014142304 -0.010159081 -0.015317072 -0.007503492
0002c0 6b 9a fb 3c 4c 5c e8 bc 22 ca c4 3c 0e 3e 94 3c
       0.03071328 -0.028364323 0.024022166 0.018095996
0002d0 f5 bf 67 3c 90 20 3f 3d aa d3 af bb a1 dc 53 3d
       0.014144887 0.046661913 -0.0053658085 0.05172408
0002e0 14 e7 84 3c 91 aa 8d 3d 0d 13 50 bb 41 1c 4c 3d
       0.016223468 0.069172986 -0.0031749636 0.049831633
0002f0 a7 dc 2a 3d 34 13 93 3c d1 11 16 3c 5e 8f 96 3c
       0.041714337 0.017953493 0.009159521 0.01837891
000300 c1 2b 47 bd cc c4 68 3d 66 60 27 3c 1c 9a 91 bc
       -0.04862571 0.056828305 0.010215854 -0.01777368
000310 b0 40 3e bd d8 07 81 3d 96 df fc 3c 04 e4 0c 3d
       -0.04644841 0.06300324 0.030868333 0.03439714
000320 a8 99 3c 3c eb f1 83 3c 61 12 6f 3c 53 78 3b 3d
       0.011511244 0.016106566 0.014591784 0.045769047
000330 80 ba ea 3c 4d ce 76 bc d5 dd e8 bb 24 56 98 bc
       0.028653383 -0.015063834 -0.0071065226 -0.018595763
000340 61 dc bc 3c cf 83 c8 3b cb 73 9b 3c 8f 1b 48 3d
       0.023054304 0.0061192284 0.018976113 0.048854407
000350 04 79 7d bb 4e 3b 9c bc 01 bf a6 3c fd c3 73 3d
       -0.0038676867 -0.019071247 0.02035475 0.05951308
000360 27 f1 d5 3c 63 98 46 3d 23 78 da b9 6d 5e e8 3c
       0.026115967 0.04848517 -0.0004166971 0.028365338
000370 77 d1 a5 3d 1a ea 6d 3d 7a 9e f9 3b 3a 83 56 3d
       0.08096593 0.058084585 0.007617769 0.05237124
000380 a4 9d 34 3c 40 5b 74 3c 26 be 85 3c 45 60 ba 3c
       0.011023913 0.014914334 0.016326021 0.022750983
000390 40 04 8a bd 8d a1 1c bc 41 f1 97 3c 74 7c b9 3c
       -0.06739092 -0.009560001 0.018547656 0.022642352
0003a0 4c 96 c8 3c 55 e9 05 bb 5e 4f 95 3b d2 e3 e7 3b
       0.02448573 -0.0020433266 0.0045565804 0.007076719
0003b0 c7 46 36 3c fe 58 5b 3d 92 2f 14 3c 55 90 32 3d
       0.011125273 0.053551666 0.009044545 0.043594677
0003c0 fc 57 16 bd 02 3c 88 3c fa 0b 30 bb 6b 2e e9 bb
       -0.036705002 0.016630176 -0.0026862607 -0.007116129
0003d0 31 f0 aa 3c f9 d8 8a bb 63 ca cc 3c 21 d4 08 bc
       0.020866485 -0.004237291 0.02499885 -0.008351357
0003e0 dd ed 2d 3c ae db 17 bc 59 ca f5 bc cb 40 1d 3d
       0.010615793 -0.009268684 -0.030003713 0.03839187
0003f0 dd b8 ad 3c 3e 3f 20 3d 14 f3 0f 3c 6d 83 c7 3c
       0.021206314 0.039122812 0.008785982 0.02435466

action_model._discrete_distribution.branches.1.bias f4 [5]
000000 5d 99 a8 bc 1f ad 7e 3c b7 71 24 3d 8d 70 60 3c
       -0.020580942 0.015544205 0.04014751 0.013698709
000010 7d 49 c3 bc
       -0.023838753
