MLagents_test1/results/CarAgent_reinforcement_2/CarAgent/CarAgent-999569.onnx (onnx, 108720 bytes, 7 tensors)

discrete_act_size_vector f4 [1, 2]
4.0 5.0
00000000: 0000 8040 0000 a040

network_body._body_endoder.seq_layers.0.weight f4 [512, 40]
0.0899814 -0.23580661 0.09021303 -0.00468678 -0.014965064 0.067229316 -0.0747591 0.13760155
-0.21846083 -0.033817396 -0.28634843 0.18539277 0.11963402 -0.22296236 -0.022911964 0.009497632
-0.08442235 -0.09799985 0.27242145 -0.011811273 -0.07752585 -0.2752195 -0.110649586 0.010633931
-0.013256358 0.007866781 -0.08862864 0.16922247 -0.14060092 -0.22922102 0.016912818 0.19692425
-0.042123605 -0.101718016 -0.21540904 0.05358698 0.007808915 0.010981339 -0.066761054 0.20919198
-0.21780168 0.20854253 -0.07313946 -0.50017375 -0.11841902 -0.11155787 0.18013892 -0.082938194
-0.0727575 -0.33089817 -0.10253636 -0.012074869 0.091847084 -0.117902994 -0.52736926 -0.16669197
-0.30533397 0.03433872 -0.14418985 -0.46278477 0.20434153 -0.62584573 0.012455633 -0.06725019
0.00026869186 0.2571523 0.028991116 -0.121145874 -0.22383945 -0.32218218 -0.06558298 -0.25085863
-0.13892964 0.22554047 -0.2180545 -0.13152763 -0.035772942 0.14343993 0.11899032 -0.36924857
-0.07554706 -0.29230312 -0.0937937 -0.08423247 0.045069624 0.06660801 0.03779409 0.15000309
0.022284143 0.20178902 -0.07226979 0.11374108 0.049286474 0.104713805 -0.30385953 0.059674006
-0.05064581 0.025225718 0.045987803 -0.17602867 -0.24577832 -0.021644494 0.019962141 -0.12599024
-0.3477923 0.02592685 -0.31249985 0.07073447 0.24191158 -0.0986347 -0.071534865 -0.15906946
-0.20124714 -0.124749966 -0.20056812 0.121488534 -0.17769277 0.022473557 -0.0241198 -0.16332942
0.3266433 -0.27287126 -0.15635997 0.050651416 -0.30652365 -0.110230625 -0.069172256 -0.029222008
0.1263416 -0.2550225 -0.0033540062 -0.42040512 -0.0053384253 0.12597646 -0.014917389 -0.056818042
-0.249512 -0.02058339 0.060128592 -0.110232085 -0.07481306 -0.11188002 0.27496237 -0.15991263
-0.043534126 0.06194949 -0.019193446 -0.27103603 -0.015061408 -0.3568622 -0.03507905 -0.18205343
-0.028589735 -0.709928 -0.12659949 -0.02418375 -0.072584726 0.25664207 0.019074623 -0.15712547
-0.11572925 0.26253688 0.1524492 -0.2738339 -0.06385955 0.10916596 0.00053270493 0.007703371
-0.06522134 -0.03179309 0.22160205 -0.25083822 0.41973862 0.081346855 -0.2536013 0.039733134
0.19030489 -0.23331408 -0.031045487 -0.26671278 -0.06712898 -0.18435189 0.041073903 0.07017182
-0.01736278 -0.16464902 -0.12222883 -0.02815652 0.21777894 -0.37387627 0.090881415 -0.18855743
-0.16609286 0.14982711 0.022685664 -0.26281947 0.016963474 -0.1709853 0.018273974 -0.12899491
-0.33028477 0.020889735 -0.23880428 -0.042680368 -0.13276435 0.017110422 -0.28254354 -0.020972686
-0.2465483 -0.061272435 -0.05325805 0.0046743182 0.15109435 -0.09379205 -0.025414294 0.040084615
-0.19190434 0.17222194 -0.37516582 -0.2143698 -0.0840093 0.039001275 -0.06455735 -0.024127994
0.010983481 0.15762007 0.09962338 0.12586898 -0.3361848 -0.4175677 0.20616409 -0.44915327
-0.27590632 0.29302382 0.05268215 0.3533948 -0.0035570108 0.22130787 -0.13674867 0.05401725
0.32956794 0.1833678 0.20845766 -0.25452653 -0.016127473 -0.06331115 -0.14923966 0.31319782
0.42484397 -0.16583201 -0.21643275 0.34185708 0.044806402 -0.30520186 -0.12974745 0.19056597
00000000: 2b48 b83d 4a77 71be 9cc1 b83d 8f93 99bb
00000010: 0730 75bc 86af 893d 4d1b 99bd 6ce7 0c3e
00000020: 32b4 5fbe 1c84 0abd 439c 92be 9ad7 3d3e
00000030: ae02 f53d 3f50 64be dfb1 bbbc f59b 1b3c
00000040: a0e5 acbd 25b4 c8bd d37a 8b3e 1284 41bc
00000050: dfc5 9ebd 92e9 8cbe 409c e2bd f039 2e3c
00000060: 3231 59bc ace3 003c ef82 b5bd a848 2d3e
00000070: b0f9 0fbe eab8 6abe c08c 8a3c 83a6 493e
00000080: cd89 2cbd 8951 d0bd 3094 5cbe 057e 5b3d
00000090: ede1 ff3b 13eb 333c 05ba 88bd 6c36 563e
000000a0: 6707 5fbe 2c8c 553e 24ca 95bd 630b 00bf
000000b0: ac85 f2bd 7478 e4bd 5676 383e 80db a9bd
000000c0: e201 95bd 7c6b a9be 95fe d1bd acd5 45bc
000000d0: 531a bc3d 2077 f1bd ac01 07bf 4db1 2abe
000000e0: bc54 9cbe c2a6 0c3d 81a6 13be 20f2 ecbe
000000f0: e83e 513e 6d37 20bf b612 4c3c 78ba 89bd
00000100: 36df 8c39 77a9 833e c77e ed3c 541b f8bd
00000110: 2b36 65be 10f5 a4be 5f50 86bd 8b70 80be
00000120: 9243 0ebe 15f4 663e ae49 5fbe 2eaf 06be
00000130: a686 12bd ebe1 123e 32b1 f33d 260e bdbe
00000140: 6bb8 9abd c1a8 95be e916 c0bd 1382 acbd
00000150: ed9a 383d c869 883d facd 1a3d 699a 193e
00000160: 3c8d b63c c8a1 4e3e 2f02 94bd 15f1 e83d
00000170: 9de0 493d 3174 d63d 7a93 9bbe bb6c 743d
00000180: fb71 4fbd 2aa6 ce3c b55d 3c3d dc40 34be
00000190: 50ad 7bbe cb4f b1bc a587 a33c 9603 01be
000001a0: d511 b2be 8c64 d43c fbff 9fbe 3cdd 903d
000001b0: abb7 773e fd00 cabd df80 92bd 1be3 22be
000001c0: bb13 4ebe e97c ffbd bb61 4dbe fbce f83d
000001d0: 18f5 35be 771a b83c e396 c5bc d43f 27be
000001e0: ca3d a73e c8b5 8bbe d41c 20be dc77 4f3d
000001f0: abf0 9cbe 98c0 e1bd 2faa 8dbd fe62 efbc
00000200: b15f 013e 4f92 82be e3ce 5bbb 573f d7be
00000210: f5ed aebb f9ff 003e 1068 74bc 09ba 68bd
00000220: 1380 7fbe 7f9e a8bc 6649 763d 5cc1 e1bd
00000230: 9737 99bd 5a21 e5bd dec7 8c3e 23c0 23be
00000240: d750 32bd c0be 7d3d 933b 9dbc 3cc5 8abe
00000250: 20c4 76bc a4b6 b6be 0daf 0fbd 376c 3abe
00000260: 0535 eabc d7bd 35bf 4ca3 01be 001d c6bc
00000270: 4da7 94bd 9766 833e 6242 9c3c 80e5 20be
00000280: 7503 edbd 3c6b 863e a51b 1c3e f533 8cbe
00000290: ccc8 82bd 6792 df3d 39a5 0b3a 8f6c fc3b
000002a0: c492 85bd 7939 02bd a6eb 623e de6d 80be
000002b0: fbe7 d63e 2e99 a63d 08d8 81be 36bf 223d
000002c0: 49df 423e e3e9 6ebe 1b53 febc 948e 88be
000002d0: eb7a 89bd bec6 3cbe 1c3d 283d 3eb6 8f3d
000002e0: 643c 8ebc c199 28be 1c53 fabd 81a8 e6bc
000002f0: 7101 5f3e b66c bfbe 0920 ba3d 3315 41be
00000300: 3f14 2abe 476c 193e 49d7 b93c 4690 86be
00000310: fcf6 8a3c c516 2fbe 4db3 953c 3e17 04be
00000320: 161b a9be f320 ab3c 1c89 74be 9cd1 2ebd
00000330: 61f3 07be 282b 8c3c 8ca9 90be e9ce abbc
00000340: 2877 7cbe cef8 7abd 1d25 5abd 062b 993b
00000350: 7ab8 1a3e 0c16 c0bd a331 d0bc c42f 243d
00000360: 9282 44be f35a 303e bc15 c0be c283 5bbe
00000370: 110d acbd cdbf 1f3d a536 84bd 12a8 c5bc
00000380: 0ff4 333c 2867 213e 5807 cc3d cce3 003e
00000390: 6a20 acbe 6fcb d5be ae1c 533e 6bf7 e5be
000003a0: 9843 8dbe 3807 963e 3dc9 573d 2af0 b43e
000003b0: bd1c 69bb 889e 623e d807 0cbe 3141 5d3d
000003c0: 21bd a83e c5c4 3b3e ed75 553e 4d51 82be
000003d0: c31d 84bc 47a9 81bd 48d2 18be 775b a03e
000003e0: 2685 d93e decf 29be 8ca0 5dbe e407 af3e
000003f0: eb86 373d 6b43 9cbe 84dc 04be ba23 433e

network_body._body_endoder.seq_layers.0.bias f4 [512]
-0.08393324 -0.15103085 -0.10897046 -0.117720395 -0.020165293 -0.059010047 0.04944485 -0.02871532
-0.028154178 -0.19149919 0.023638483 -0.14125319 -0.08799334 -0.05658674 -0.029540483 0.0062743197
-0.06060744 0.043165468 -0.077496216 -0.09095382 -0.10224395 -0.11148027 -0.0022619413 -0.0767394
-0.14694895 -0.08019579 -0.05549101 0.031105934 -0.091471106 -0.11490076 -0.085122235 -0.044744175
-0.1411894 -0.00061821414 -0.010622593 -0.0898209 -0.10000042 -0.029384945 -0.11394402 -0.115042366
-0.1054581 -0.07598448 -0.09290132 -0.14673515 -0.112564236 -0.12756653 -0.07931078 -0.060047105
-0.16159679 -0.19562809 -0.10370378 -0.075304255 -0.07475962 -0.075311996 0.054859404 -0.11454723
-0.13997176 -0.12933482 -0.06590395 -0.06893636 -0.107562415 -0.10789669 -0.08692973 -0.010919678
0.00059925835 0.049716946 0.10343389 -0.031790316 -0.046958283 -0.16865303 -0.0068123685 -0.14530963
0.0490647 -0.12026552 -0.10747624 -0.10496302 0.0053396258 0.0063380334 0.07972704 -0.08455444
0.029505113 -0.028880823 -0.083622284 -0.030314604 -0.1259845 -0.1805176 -0.096146345 -0.09626241
-0.13960072 0.056367014 -0.047938228 -0.19404076 -0.04046038 -0.017402764 -0.026643643 -0.123571336
-0.06820969 -0.046826486 -0.022623127 -0.0025979169 -0.063558675 -0.19787583 -0.15202658 -0.040790834
-0.12239364 -0.051975098 -0.13395646 -0.110747926 -0.0070451293 0.012918433 -0.26312727 -0.14902826
-0.11547928 -0.11162247 -0.16741881 -0.16626565 -0.063751645 -0.06431471 -0.113586254 -0.06417039
-0.07943783 -0.17105782 0.033681896 0.007951539 -0.14667274 -0.09938914 -0.06719175 -0.120399065
-0.09047214 0.010130723 -0.12015215 -0.03409838 0.051086433 -0.06037479 -0.008821603 -0.020877063
-0.15631305 -0.080053866 -0.045393676 -0.09017543 -0.09810081 -0.07029285 -0.0041786353 -0.0658261
-0.09590486 -0.040468566 -0.010259988 -0.100163646 -0.1944491 -0.034870557 -0.059689544 -0.22487159
-0.060033295 -0.01622512 -0.20475921 -0.015154137 -0.02415568 -0.033331633 0.01771896 -0.098549284
-0.17664717 -0.09025579 -0.03983489 -0.15076579 -0.05436129 -0.07986743 -0.081968606 -0.04848966
-0.037672177 -0.03702834 -0.1557275 -0.12562855 -0.08250779 -0.08230641 -0.03586953 -0.09531153
-0.18978527 -0.10754442 -0.12840624 -0.15235063 0.038183577 -0.10911732 -0.05416151 -0.093220375
-0.04857305 -0.055544008 -0.013551001 -0.20298323 -0.06357346 -0.20533714 -0.16392086 -0.036653675
-0.028058255 -0.04718317 -0.13966446 -0.056339327 -0.0953786 -0.1667807 0.040044695 -0.061988816
0.081665 -0.016087873 -0.19092377 -0.23346916 -0.067806974 0.015266168 -0.06598213 -0.10387072
-0.18049523 -0.08204759 -0.07411891 -0.089094706 -0.034136277 -0.07910821 -0.0069306083 0.034860615
-0.15790752 -0.07825428 -0.08963641 -0.091638885 -0.1290842 -0.074010156 -0.14274466 -0.16373491
-0.09745842 -0.013131759 -0.14320318 -0.05519044 -0.08672843 -0.06346175 0.014859551 -0.13332245
-0.09315983 -0.107853 -0.06979713 -0.056299023 -0.107229136 -0.0862708 -0.1750421 -0.0128257815
-0.033220697 -0.19316152 -0.10830812 -0.13513045 -0.15208241 -0.0015254896 -0.11089219 -0.15361084
-0.002724605 0.008450029 -0.054510463 -0.09097573 -0.0743481 -0.05257259 -0.14078087 -0.120019354
00000000: 31e5 abbd d5a7 1abe e82b dfbd 6417 f1bd
00000010: af31 a5bc 85b4 71bd af86 4a3d 643c ebbc
00000020: 97a3 e6bc 5d18 44be 7ea5 c13c ada4 10be
00000030: da35 b4bd 7fc7 67bd e2fe f1bc cf98 cd3b
00000040: 823f 78bd 46ce 303d 56b6 9ebd ff45 babd
00000050: 4765 d1bd c54f e4bd 143d 14bb 8c29 9dbd
00000060: c979 16be b13d a4bd 8b4a 63bd dfd1 fe3c
00000070: 3455 bbbd 1751 ebbd 9154 aebd ab45 37bd
00000080: f493 10be a60f 22ba 620a 2ebc 05f4 b7bd
00000090: 05cd ccbd b2b8 f0bc 7b5b e9bd 559b ebbd
000000a0: 6bfa d7bd c09d 9bbd 0c43 bebd bd41 16be
000000b0: 1488 e6bd cda0 02be b16d a2bd f4f3 75bd
000000c0: a179 25be bb52 48be a662 d4bd 1e39 9abd
000000d0: 921b 99bd 2d3d 9abd 41b4 603d bd97 eabd
000000e0: c254 0fbe 5970 04be a6f8 86bd 822e 8dbd
000000f0: af49 dcbd f1f8 dcbd 3708 b2bd 73e8 32bc
00000100: 8c17 1d3a ffa3 4b3d 26d5 d33d 9036 02bd
00000110: 5457 40bd 61b3 2cbe 4a3a dfbb 0ccc 14be
00000120: 11f8 483d c54d f6bd 811c dcbd daf6 d6bd
00000130: 07f8 ae3b 47af cf3b ee47 a33d e12a adbd
00000140: b5b4 f13c 7a97 ecbc 2942 abbd 5556 f8bc
00000150: 1502 01be 9bd9 38be 60e8 c4bd 3a25 c5bd
00000160: 7ef3 0ebe 19e1 663d e05a 44bd 9fb2 46be
00000170: c9b9 25bd 3e90 8ebc c543 dabc f812 fdbd
00000180: 86b1 8bbd 21cd 3fbd 2354 b9bc d041 2abb
00000190: 0d2b 82bd f69f 4abe dbac 1bbe 4a14 27bd
000001a0: 84a9 fabd d7e3 54bd e22b 09be cfcf e2bd
000001b0: d4da e6bb d6a7 533c 9eb8 86be dd9a 18be
000001c0: 6780 ecbd 529a e4bd d66f 2bbe 8b41 2abe
000001d0: 3990 82bd 6eb7 83bd e99f e8bd c46b 83bd
000001e0: 4db0 a2bd c829 2fbe 07f6 093d 2c47 023c
000001f0: 6131 16be 898c cbbd d49b 89bd c993 f6bd
00000200: 7549 b9bd 55fb 253c 5512 f6bd beaa 0bbd
00000210: 0240 513d 8e4b 77bd 7c88 10bc 6006 abbc
00000220: 8710 20be 48f3 a3bd b8ee 39bd e5ad b8bd
00000230: 14e9 c8bd b3f5 8fbd efec 88bb d6cf 86bd
00000240: c469 c4bd 5ec2 25bd 8219 28bc 9922 cdbd
00000250: aa1d 47be 6ed4 0ebd 067d 74bd bd44 66be
00000260: 79e5 75bd 8bea 84bc 66ac 51be 0f49 78bc
00000270: 22e2 c5bc c086 08bd 5a27 913c 35d4 c9bd
00000280: ffe2 34be 07d8 b8bd e929 23bd 5962 1abe
00000290: f2a9 5ebd 8991 a3bd 28df a7bd 189d 46bd
000002a0: 244e 1abd 07ab 17bd 0877 1fbe c5a4 00be
000002b0: d8f9 a8bd 4390 a8bd eeeb 12bd b132 c3bd
000002c0: 1257 42be 4040 dcbd ed7c 03be ce01 1cbe
000002d0: 6266 1c3d e778 dfbd 76d8 5dbd 53ea bebd
000002e0: 89f4 46bd 1d82 63bd 0505 5ebc d6da 4fbe
000002f0: cd32 82bd e643 52be dfda 27be 2a22 16bd
00000300: 6dda e5bc 2443 41bd 3304 0fbe 11c4 66bd
00000310: db55 c3bd 8fc8 2abe e805 243d fce7 7dbd
00000320: fb3f a73d b7ca 83bc 8581 43be 8a12 6fbe
00000330: 62de 8abd f31e 7a3c a421 87bd 2cba d4bd
00000340: bed3 38be 9108 a8bd a8cb 97bd 4977 b6bd
00000350: 7bd2 0bbd 7c03 a2bd 281a e3bb 01ca 0e3d
00000360: 82b2 21be c843 a0bd 4b93 b7bd 2bad bbbd
00000370: a62e 04be a392 97bd a82b 12be 20aa 27be
00000380: 4898 c7bd 9726 57bc dba3 12be 5f0f 62bd
00000390: ad9e b1bd 3cf8 81bd 7975 733c ae85 08be
000003a0: 95ca bebd 09e2 dcbd ccf1 8ebd ce99 66bd
000003b0: f39a dbbd bfae b0bd 3c3e 33be 3a23 52bc
000003c0: 6d12 08bd 22cc 45be a6d0 ddbd a35f 0abe
000003d0: 7ebb 1bbe f0f2 c7ba 721b e3bd 294c 1dbe
000003e0: 498f 32bb fe71 0a3c 5d46 5fbd 7c51 babd
000003f0: d143 98bd 5b56 57bd dc28 10be b5cc f5bd

action_model._discrete_distribution.branches.0.weight f4 [4, 512]
0.016199756 0.0059843347 -0.0036759262 0.025815064 0.026014367 0.009844223 -0.024888083 -0.033330675
0.027386185 -0.0071634473 0.019353248 0.039701976 0.014569155 0.013470775 0.004991969 -0.00022361451
-0.004270673 0.037020054 -0.0065810787 0.0049373023 -0.0490459 0.08015218 -0.031643946 0.01689735
0.00809519 -0.0027716374 0.0031965522 0.0056868717 -0.039546505 0.0021344337 -0.018494919 0.019001717
0.010193233 0.026551675 -0.09606535 0.0095068095 0.0014821867 -0.03675821 -0.004693674 0.036914095
-0.024098355 -0.03386943 0.0049673477 -0.0069667622 0.005003716 -0.0057775714 0.03207248 0.017323054
0.0015069916 0.0114315925 0.011208059 0.016888183 0.031288754 0.064267494 0.0055085346 -0.011579361
-0.0033054517 0.0035567384 -0.0014569486 0.014658588 -0.019495416 -0.0170563 0.010996825 -0.0064999545
0.014454734 0.012941435 -0.055271722 0.024051616 0.03011108 0.008201215 -0.030594146 0.01299656
0.022872344 0.0013278477 0.022253431 0.02374705 0.023963206 0.012734071 0.01474579 0.028203262
-0.05525484 0.015465203 -0.03151599 -0.035668444 -0.06227694 0.007487543 0.007275909 0.015715135
0.010702788 0.01475459 -0.011674857 0.009273749 0.012200607 -0.035153132 -0.0023128574 0.0038393722
0.032826226 0.020755475 0.016945126 0.0031103494 0.040663034 0.0012716997 0.012483728 -0.010191517
0.040778097 -0.0013895018 -0.0090614585 0.009806164 0.0065416847 -0.005889137 0.005110299 -0.032643706
-0.052970443 0.0014182044 -0.00028927097 0.009230748 0.008058424 -0.015256059 0.009269909 0.0077074687
-0.04357284 -0.0074365567 -0.013350551 0.027326087 0.0089059 -0.036881406 0.02615517 0.05469875
0.016843108 -0.013132836 0.015370697 -0.022028647 0.00081087137 0.0052900636 -0.023878735 0.020830564
-0.012448323 0.0073935003 -0.046296015 -0.059720546 0.012927039 -0.016606493 -0.003525512 0.0001628266
0.05215188 -0.01279821 -0.046829443 0.008665263 0.009544519 0.004395648 -0.002927094 -0.0045912573
0.0016280452 0.017432753 0.0018816111 -0.02866381 -0.0047806576 0.018540785 0.0076729893 -0.0020027745
0.016135758 0.07635473 -0.034627955 0.009906107 0.0017200984 -0.019988513 -0.012446438 -0.0028597105
-0.06149702 -0.004966023 -0.040584 -0.014185019 0.0044480604 -0.002920182 0.021393305 0.008551273
0.0026668874 0.00085104216 0.0055386624 0.00077782664 0.0096350275 -0.008634179 0.018599194 -0.010369719
0.0342726 0.026941173 -0.0004032841 -0.00018690541 0.0026372755 -0.02706779 -0.034474943 -0.007950409
0.0016193576 0.002464504 -0.056431822 0.004204889 0.008368297 0.028723441 -0.0068346416 0.021187961
0.015666252 0.031290814 0.0065712878 -0.0106843235 0.022697901 -0.0078273695 0.0130033195 -0.0033209785
0.014450116 -0.01176451 0.00619728 -0.011249975 -0.004134952 -0.0034843294 -0.049457543 0.0044151377
0.017210219 -0.0045364304 -0.013337245 -0.01618727 -0.025002832 -0.019712526 0.00072620675 -0.0029192318
0.033769246 0.067991436 0.0024935182 0.0012547121 0.018106444 0.028811378 0.012396387 0.050146036
-0.0043073487 -0.013933718 -0.047138892 0.018565292 0.022856744 -0.035047635 0.011157911 -0.03847907
-0.028342493 0.0061314735 0.01856954 0.027568862 0.0073582693 0.009008319 -0.00031592883 0.008121265
-0.049952246 0.048125885 0.034208413 0.03198078 0.0031985887 0.012320454 -6.116653e-05 0.018719614
00000000: 5ab5 843c 3d18 c43b cfe7 70bb 1d7a d33c
00000010: 151c d53c aa49 213c 18e2 cbbc bf85 08bd
00000020: fe58 e03c 5abb eabb b48a 9e3c 8a9e 223d
00000030: 77b3 6e3c 87b4 5c3c ac93 a33b 107a 6ab9
00000040: 00f1 8bbb 57a2 173d 17a6 d7bb 18c9 a13b
00000050: 5be4 48bd d326 a43d 159d 01bd 506c 8a3c
00000060: b0a1 043c 5ca4 35bb 3f7d 513b f058 ba3b
00000070: 84fb 21bd dbe1 0b3b a882 97bc 7da9 9b3c
00000080: 8501 273c e682 d93c e9bd c4bd 73c2 1b3c
00000090: ef45 c23a c78f 16bd 64cd 99bb 3c33 173d
000000a0: ea69 c5bc acba 0abd 22c5 a23b 7049 e4bb
000000b0: 36f6 a33b c851 bdbb 6f5e 033d 14e9 8d3c
000000c0: 3f86 c53a 934b 3b3c 02a2 373c 1659 8a3c
000000d0: a328 003d ad9e 833d f080 b43b 5cb7 3dbc
000000e0: 47a0 58bb 2b18 693b 15f7 beba 932a 703c
000000f0: dab4 9fbc a7b9 8bbc 072c 343c 92fd d4bb
00000100: 8cd3 6c3c 5008 543c 9a64 62bd e507 c53c
00000110: 83ab f63c 645e 063c 93a0 fabc 86ef 543c
00000120: c85e bb3c 2d0b ae3a d44c b63c 2c89 c23c
00000130: 7c4e c43c 91a2 503c 5398 713c 870a e73c
00000140: e652 62bd c361 7d3c e916 01bd 1319 12bd
00000150: 1b16 7fbd 105a f53b c06a ee3b 07bd 803c
00000160: bf5a 2f3c 3cbd 713c e647 3fbc ecf0 173c
00000170: 0ee5 473c bbfc 0fbd 4f93 17bb fa9d 7b3b
00000180: cb74 063d 6307 aa3c 81d0 8a3c 01d7 4b3b
00000190: 488e 263d 29af a63a 8d88 4c3c 52fa 26bc
000001a0: ef06 273d f21f b6ba 8376 14bc 08aa 203c
000001b0: a15b d63b a9f9 c0bb 4c74 a73b 68b5 05bd
000001c0: 89f7 58bd 0be3 b93a 4ba9 97b9 903c 173c
000001d0: 7b07 043c 8df4 79bc d1e0 173c ef8e fc3b
000001e0: 6f79 32bd 5cae f3bb 45bc 5abc f5da df3c
000001f0: 0dea 113c f510 17bd 5e43 d63c cc0b 603d
00000200: 8ffa 893c 1b2b 57bc 60d5 7b3c 6c75 b4bc
00000210: a890 543a 4558 ad3b 569d c3bc dca4 aa3c
00000220: 0df4 4bbc 2d45 f23b e4a0 3dbd 889d 74bd
00000230: eecb 533c 570a 88bc 470c 67bb 6fbc 2a39
00000240: 369d 553d 95af 51bc 3bd0 3fbd bff8 0d3c
00000250: 9d60 1c3c 5e09 903b 7dd4 3fbb 4272 96bb
00000260: 2264 d53a 22cf 8e3c 64a0 f63a 5ed0 eabc
00000270: 10a7 9cbb d8e2 973c b36d fb3b fb40 03bb
00000280: 232f 843c de5f 9c3d 0bd6 0dbd 394d 223c
00000290: ed74 e13a f3be a3bc 25ec 4bbc fb69 3bbb
000002a0: 4de4 7bbd 05ba a2bb 693b 26bd 4868 68bc
000002b0: 09c1 913b 8660 3fbb 0341 af3c a31a 0c3c
000002c0: f2c6 2e3b 7918 5f3a ab7d b53b 10e7 4b3a
000002d0: 3cdc 1d3c 5f76 0dbc 565d 983c c1e5 29bc
000002e0: 6d61 0c3d bcb3 dc3c e06f d3b9 0afc 43b9
000002f0: 24d6 2c3b 45bd ddbc 9935 0dbd 6f42 02bc
00000300: a040 d43a 8483 213b 0e25 67bd 2ac9 893b
00000310: 2e1b 093c 6c4d eb3c 21f5 dfbb 6092 ad3c
00000320: 8356 803c cc2a 003d f553 d73b 4d0d 2fbc
00000330: f3f0 b93c 5e3e 00bc e00b 553c c6a4 59bb
00000340: 2ec0 6c3c eebf 40bc 8d12 cb3b d151 38bc
00000350: 7e7e 87bb 5959 64bb fe93 4abd dcac 903b
00000360: 72fc 8c3c 56a6 94bb 7684 5abc 2a9b 84bc
00000370: bdd2 ccbc 2a7c a1bc e95e 3e3a 9550 3fbb
00000380: 9f51 0a3d 183f 8b3d 4b6a 233b 2775 a43a
00000390: f753 943c d705 ec3c 371a 4b3c ee65 4d3d
000003a0: a924 8dbb 404a 64bc b614 41bd 3d16 983c
000003b0: 113e bb3c 1c8e 0fbd accf 363c 3b9c 1dbd
000003c0: 842e e8bc 87ea c83b 261f 983c 18d8 e13c
000003d0: a31d f13b a197 133c 40a3 a5b9 0e0f 053c
000003e0: ba9a 4cbd a61f 453d 1f1e 0c3d 47fe 023d
000003f0: 6a9f 513b bbdb 493c 8846 80b8 e059 993c

action_model._discrete_distribution.branches.0.bias f4 [4]
0.0033708992 -0.0015935895 -0.053886343 0.050250616
00000000: 4eea 5c3b fedf d0ba edb7 5cbd 97d3 4d3d

action_model._discrete_distribution.branches.1.weight f4 [5, 512]
-0.013613702 0.0029108557 0.015668806 0.037254997 -0.010933965 -0.05308578 0.011768822 0.023880813
-0.0028140033 0.03059419 0.01828256 -0.022964282 0.00016747932 0.03573535 0.009650012 -0.0029695702
0.025554834 0.04946668 -0.0043725767 -0.010165896 0.0455626 -0.017242078 -0.017430056 -0.029021382
0.020824924 -0.004702385 0.0006704656 -0.008055081 0.0013215998 0.032492917 -0.0034988536 -0.008069507
0.02455397 0.0028598101 0.0033091502 -0.04848286 0.017884495 0.010590718 0.025313808 -0.007986369
0.0056915353 0.054593265 -0.0012024924 0.052345086 -0.005890021 -0.015070093 -0.0060967435 0.044686418
0.008146046 0.017482348 0.02882953 -0.016534217 0.004923317 0.023491586 0.0336108 -0.02314006
0.043497577 -0.014095524 0.014916326 -0.0025855922 -0.021327738 0.03951217 -0.0033720857 -0.018921927
-0.0034645393 0.06046437 0.030506503 0.009171916 0.017438313 0.0060918485 -0.026882593 0.009010666
0.02045696 0.028318333 0.002908775 -0.016517619 -0.03049571 0.0058863373 0.011136011 0.0023370038
0.0040818336 0.029937048 0.0200106 -0.008577862 0.03441534 0.020321125 -0.014902132 0.0015023333
-0.008472078 -0.0065838797 0.017443405 0.004951363 -0.024959568 -0.012526506 -0.015017689 0.026595755
0.0022728408 -0.024018 0.0032015843 -0.009246441 -0.01926461 -0.016047353 -0.0014545583 0.02519258
-0.05984135 0.026738655 0.00036068278 -0.017558565 0.07413379 0.04806526 0.001384782 0.036829058
0.0015980067 0.014096016 0.01102631 -0.008684625 -0.00019242556 -0.018240374 0.05082418 0.015448922
-0.04470178 -0.020298911 0.027233316 -0.023963865 0.0035595465 -0.042292695 -0.0005129174 0.003947227
-0.013172679 0.010409657 0.0074453955 0.016360225 0.035828233 -0.006703044 0.024857031 0.003481921
0.0153020695 0.017142374 0.01969186 0.0587099 0.0085065225 0.019826671 -0.011168806 0.017797679
0.00658055 -0.025570905 -0.017180232 0.023783987 0.023098076 0.01898933 0.024158329 0.031589374
0.025511498 -0.0018303681 0.00579942 -0.0025602954 0.013773893 -0.009309575 0.069712006 0.012882694
0.012642783 0.016347013 0.0136132445 0.035418507 -0.03044786 -0.010966121 -0.017219149 0.008904402
0.0096828425 0.011763353 0.059773266 0.002003138 -0.01572103 -0.02876672 -0.009857767 -0.009949453
0.012242368 -0.019827176 0.02518143 0.008043397 0.020900836 0.030019542 0.02432476 0.006445808
-0.019168345 0.045474667 0.025772726 0.03477064 0.019640895 0.012034805 0.0070032817 0.017655186
-0.046802808 0.045913804 0.0028966982 -0.054518137 -0.016103597 0.04351362 0.017177334 0.022501491
0.023831842 0.019507958 -0.0012848661 0.020829318 0.013538608 -0.036005683 -0.0140527515 -0.012402057
0.017713908 0.006098457 0.024336943 0.017982215 0.0058336547 -0.037458725 0.017357197 0.05121632
0.02349608 0.006292669 -0.0018721278 0.024524229 0.035183687 0.043865144 -0.0020589186 0.04566452
0.013383254 -0.008402569 0.00553215 -0.022712996 -0.062021893 -0.0259595 0.0035068195 -0.011533745
-0.0237268 0.013055989 0.0067854724 0.00594215 0.0013647103 0.025606865 0.011213072 0.051859476
-0.035538126 -0.0071720495 0.019641895 -0.004688886 0.005520655 -0.0076322667 -0.010782567 0.0052278154
0.015862623 0.00083664356 -0.011956679 0.017451806 -0.005164008 -0.015267176 -0.012339965 -0.0034479261
00000000: 010c 5fbc 0ec4 3e3b de5b 803c b298 183d
00000010: 6024 33bc 7a70 59bd 04d2 403c b2a1 c33c
00000020: 246b 38bb aba0 fa3c 4fc5 953c 971f bcbc
00000030: 639d 2f39 3b5f 123d 151b 1e3c 1f9d 42bb
00000040: 5f58 d13c 939d 4a3d d547 8fbb dc8e 26bc
00000050: d99f 3a3d 423f 8dbc 7ac9 8ebc 40be edbc
00000060: 0899 aa3c 7716 9abb 2fc2 2f3a 75f9 03bc
00000070: 8839 ad3a 4b17 053d 064d 65bb f735 04bc
00000080: 6825 c93c a76b 3b3b 54de 583b f795 46bd
00000090: 8182 923c b184 2d3c e75e cf3c 42d9 02bc
000000a0: 0f80 ba3b 309d 5f3d f39c 9dba cd67 563d
000000b0: 1401 c1bb 8de8 76bc 31c7 c7bb 1b09 373d
000000c0: fe76 053c 2437 8f3c e82b ec3c c472 87bc
000000d0: c753 a13b 6d71 c03c 7aab 093d 3990 bdbc
000000e0: 842a 323d eaf0 66bc 9b63 743c 0a73 29bb
000000f0: 82b7 aebc 83d7 213d 36fe 5cbb 2802 9bbc
00000100: 530d 63bb 7da9 773d c6e8 f93c ce45 163c
00000110: cbda 8e3c 219e c73b e238 dcbc 79a1 133c
00000120: 5b95 a73c d9fb e73c 25a1 3e3b f54f 87bc
00000130: 24d2 f9bc 2de2 c03b d173 363c 6b28 193b
00000140: e7c0 853b 8a3e f53c 45ed a33c 298a 0cbc
00000150: 19f7 0c3d 7d78 a63c 1228 74bc f1e9 c43a
00000160: 78ce 0abc 96bd d7bb 79e5 8e3c 0b3f a23b
00000170: 0278 ccbc f93b 4dbc c10c 76bc 57df d93c
00000180: f1f3 143b 66c1 c4bc acd1 513b 627e 17bc
00000190: d1d0 9dbc bd75 83bc e1a6 beba ab60 ce3c
000001a0: 341c 75bd 060b db3c 061a bd39 fbd6 8fbc
000001b0: 75d3 973d 14e0 443d 9381 b53a 11da 163d
000001c0: 3574 d13a faf2 663c b2a7 343c f549 0ebc
000001d0: d8c5 49b9 d66c 95bc 042d 503d 7a1d 7d3c
000001e0: 3719 37bd e749 a6bc 6718 df3c de4f c4bc
000001f0: 4847 693b 1b3b 2dbd 4e75 06ba bd57 813b
00000200: 38d2 57bc 448d 2a3c 81f8 f33b e105 863c
00000210: a0c0 123d 35a5 dbbb f9a0 cb3c f130 643b
00000220: 88b5 7a3c 2a6e 8c3c d350 a13c cb79 703d
00000230: f15e 0b3c 8b6b a23c 5efd 36bc 70cc 913c
00000240: a8a1 d73b 137a d1bc 8fbd 8cbc a3d6 c23c
00000250: 2d38 bd3c 838f 9b3c b0e7 c53c dc63 013d
00000260: 7dfd d03c f6e8 efba 1009 be3b a1ca 27bb
00000270: e5ab 613c 3087 18bc 2bc5 8e3d ef11 533c
00000280: ad23 4f3c 2cea 853c 160a 5f3c ff12 113d
00000290: ca6d f9bc 3fab 33bc 2c0f 8dbc c5e3 113c
000002a0: c9a4 1e3c 14bb 403c d0d4 743d 1447 033b
000002b0: 64c9 80bc 2fa8 ebbc 7982 21bc 0803 23bc
000002c0: 3794 483c 9a6c a2bc 4949 ce3c 74c8 033c
000002d0: 3b38 ab3c 8beb f53c b844 c73c 5b37 d33b
000002e0: ef06 9dbc a543 3a3d 5321 d33c a96b 0e3d
000002f0: f1e5 a03c a12d 453c c97b e53b 9ca1 903c
00000300: 4db4 3fbd 1d10 3c3d 88d6 3d3b 694e 5fbd
00000310: b1eb 83bc 563b 323d 7bb7 8c3c 0c55 b83c
00000320: ff3a c33c 27cf 9f3c f468 a8ba 3fa2 aa3c
00000330: 0ad1 5d3c b27a 13bd 833d 66bc ff31 4bbc
00000340: c21c 913c 91d5 c73b 455e c73c 704f 933c
00000350: 3e28 bf3b 526e 19bd ae30 8e3c 34c8 513d
00000360: da7a c03c bc32 ce3b 2f62 f5ba 09e7 c83c
00000370: c51c 103d f0ab 333d ecee 06bb b80a 3b3d
00000380: 7045 5b3c eeaa 09bc 0a47 b53b 9b10 babc
00000390: ab0a 7ebd 04a9 d4bc abd2 653b 08f8 3cbc
000003a0: b55e c2bc c9e8 553c ab58 de3b 5eb6 c23b
000003b0: 14e0 b23a 7dc5 d13c 08b7 373c 9a6a 543d
000003c0: 6d90 11bd 8303 ebbb 0ae8 a03c 3aa5 99bb
000003d0: 9ce6 b43b 1818 fabb 5da9 30bc 184e ab3b
000003e0: 55f2 813c 3352 5b3a f2e5 43bc 17f7 8e3c
000003f0: d736 a9bb 2d23 7abc 912d 4abc 9af6 61bb

action_model._discrete_distribution.branches.1.bias f4 [5]
-0.015920172 0.014331092 0.028777195 0.0045238365 -0.010616235
00000000: 056b 82bc f5cc 6a3c 27be eb3c b13c 943b
00000010: b8ef 2dbc
