MLagents_test1/results/CarAgent_reinforcement_2/CarAgent/CarAgent-2999661.onnx (onnx, 108720 bytes, 7 tensors)

discrete_act_size_vector f4 [1, 2]
0	0x40800000	4.0
1	0x40a00000	5.0

network_body._body_endoder.seq_layers.0.weight f4 [512, 40]
0	0x3db8482b	0.0899814
1	0xbe75c795	-0.24001916
2	0x3db8c19c	0.09021303
3	0xbba0ed54	-0.004911104
4	0xbca50fc5	-0.020149121
5	0x3d89af86	0.067229316
6	0xbd623870	-0.055229604
7	0x3e0ce76c	0.13760155
8	0xbe6ba120	-0.23010683
9	0xbd2f4374	-0.042788938
10	0xbe929c43	-0.28634843
11	0x3e27f647	0.16402541
12	0x3df502ae	0.11963402
13	0xbe500d4f	-0.20317577
14	0xbca0d684	-0.019633539
15	0x3c1b9bf5	0.009497632
16	0xbdd18913	-0.10231223
17	0xbdc8b425	-0.09799985
18	0x3e8d628b	0.27614245
19	0xbc931dfe	-0.017958637
20	0xbd9ec5df	-0.07752585
21	0xbe8ef63e	-0.27922243
22	0xbde29c40	-0.110649586
23	0x3c6900e4	0.014221404
24	0xbbfe73fd	-0.0077652917
25	0x3c00e3ac	0.007866781
26	0xbd3c9f9f	-0.046050664
27	0x3e2d48a8	0.16922247
28	0xbe3e7def	-0.18602727
29	0xbe71975a	-0.23592892
30	0x3c8a8cc0	0.016912818
31	0x3e4f7a34	0.2026146
32	0xbd2c89cd	-0.042123605
33	0xbdf490da	-0.11941691
34	0xbe5fa4c7	-0.21840201
35	0x3d85b7ba	0.06529184
36	0xbcc19731	-0.023631664
37	0x3a7ac1e1	0.00095656334
38	0xbd51a856	-0.05118593
39	0x3e7d29e2	0.24723008
40	0xbe5f0767	-0.21780168
41	0x3d8d0451	0.06885589
42	0xbd95ca24	-0.07313946
43	0xbeee04ea	-0.46488124
44	0xbdef8fb1	-0.11697329
45	0xbde47874	-0.11155787
46	0x3e867dfd	0.26267996
47	0xbda9db80	-0.082938194
48	0xbe06ca61	-0.13163139
49	0xbeb56db3	-0.35435256
50	0xbdd1fe95	-0.10253636
51	0x3d8a853a	0.06763692
52	0x3dbc1a53	0.091847084
53	0xbe2b9d0e	-0.1675913
54	0xbf0b2eb5	-0.54368144
55	0xbe2ab14d	-0.16669197
56	0xbe9eba40	-0.31001472
57	0x3d0ca6c2	0.03433872
58	0xbe25257e	-0.16127583
59	0xbf012b21	-0.50456434
60	0x3e513ee8	0.20434153
61	0xbf29c715	-0.663194
62	0x3c4c12b6	0.012455633
63	0xbd44edb9	-0.048078272
64	0xbcc19c7e	-0.023634192
65	0x3e83a977	0.2571523
66	0xbc6186f8	-0.013765089
67	0xbdf81b54	-0.121145874
68	0xbe22135e	-0.158277
69	0xbeb0836f	-0.34475276
70	0xbd86505f	-0.06558298
71	0xbe9405d7	-0.28910705
72	0xbe0e4392	-0.13892964
73	0x3e8aa411	0.27078298
74	0xbe74ed4d	-0.23918648
75	0xbe05f301	-0.1308098
76	0xbbdcb7a3	-0.0067357584
77	0x3dd51563	0.1040447
78	0x3ddd4b43	0.10805371
79	0xbec17c1e	-0.37790006
80	0xbd9ab86b	-0.07554706
81	0xbe906b84	-0.28207028
82	0xbdc016e9	-0.0937937
83	0xbdaca173	-0.084292315
84	0x3d18fd59	0.037350986
85	0x3d8869c8	0.06660801
86	0x3db1ff03	0.08691218
87	0x3e199a69	0.15000309
88	0xbbf6ae86	-0.007528129
89	0x3e4faa2c	0.20279759
90	0xbd94022f	-0.07226979
91	0x3e0aca53	0.13553743
92	0x3d49e09d	0.049286474
93	0x3d9a5c1c	0.075371
94	0xbe9eec22	-0.3103953
95	0x3d746cbb	0.059674006
96	0xbd9eaffe	-0.077484116
97	0x3ccea62a	0.025225718
98	0x3d8dd018	0.06924456
99	0xbe212dde	-0.15740153
100	0xbe7bad50	-0.24577832
101	0xbc60822d	-0.013702911
102	0x3ca387a5	0.019962141
103	0xbe04469f	-0.12917565
104	0xbebb3a2b	-0.36567816
105	0x3cd4648c	0.02592685
106	0xbe9a2a46	-0.30110377
107	0x3d90dd3c	0.07073447
108	0x3e71108a	0.23541465
109	0xbda87ddc	-0.08227131
110	0xbd9280df	-0.071534865
111	0xbe11781b	-0.14205973
112	0xbe4e13bb	-0.20124714
113	0xbe19aab2	-0.15006521
114	0xbe593b68	-0.21214068
115	0x3e18a8df	0.14908169
116	0xbe191e9a	-0.1495308
117	0x3d28eb41	0.04123998
118	0xbd33cd82	-0.04389716
119	0xbe4ebfd4	-0.20190364
120	0x3ea73dca	0.3266433
121	0xbe8a73ab	-0.27041373
122	0xbe201cd4	-0.15635997
123	0x3d8c96c6	0.06864695
124	0xbe972ae3	-0.29524907
125	0xbde1c098	-0.110230625
126	0xbdf21de9	-0.11822111
127	0xbcef62fe	-0.029222008
128	0x3e2bacc1	0.16765119
129	0xbe71866e	-0.23586437
130	0xbb5bcee3	-0.0033540062
131	0xbef7a400	-0.4836731
132	0xbbaeedf5	-0.0053384253
133	0x3e324fe4	0.17413288
134	0x3c5f9e04	0.013648514
135	0xbd68ba09	-0.056818042
136	0xbe89fa16	-0.26948613
137	0xbca89e7f	-0.02058339
138	0x3dd42cfd	0.10360143
139	0xbdbe632e	-0.09296261
140	0xbd993797	-0.07481306
141	0xbdaee61c	-0.08539984
142	0x3e8cc7de	0.27496237
143	0xbe28063f	-0.16408633
144	0xbcbff94e	-0.023434307
145	0x3d7dbec0	0.06194949
146	0xbaaaa3b5	-0.0013018759
147	0xbe8ac53c	-0.27103603
148	0xbbe5ec1c	-0.007016672
149	0xbeb04858	-0.34430194
150	0xbd0faf0d	-0.03507905
151	0xbe208d75	-0.15678962
152	0xbcea3505	-0.028589735
153	0xbf357cf9	-0.7089382
154	0xbdea7eed	-0.114499904
155	0x3cc71e92	0.02430657
156	0xbd9c6e1f	-0.076381914
157	0x3ea15aed	0.31514683
158	0x3d03dad4	0.032191113
159	0xbe1a53ca	-0.15071025
160	0xbded0375	-0.11572925
161	0x3e78bdfe	0.24291226
162	0x3e1c1ba5	0.1524492
163	0xbe8057b4	-0.25066912
164	0xbd431120	-0.047623754
165	0x3ddf9267	0.10916596
166	0xbb289383	-0.002572269
167	0x3bfc6c8f	0.007703371
168	0xbd707ed5	-0.058714706
169	0xbc865eff	-0.01640272
170	0x3e62eba6	0.22160205
171	0xbe66f8a7	-0.22555791
172	0x3ed6e7fb	0.41973862
173	0x3d902dcb	0.07039984
174	0xbe8044de	-0.25052541
175	0x3d22bf36	0.039733134
176	0x3e436a93	0.19083624
177	0xbe6ee9e3	-0.23331408
178	0xbd138d2b	-0.0360233
179	0xbe837c2d	-0.25680676
180	0xbd897aeb	-0.06712898
181	0xbe4e5b40	-0.20151997
182	0x3d283d1c	0.041073903
183	0x3d99e3a3	0.075141214
184	0xbc751b94	-0.014960188
185	0xbe2899c1	-0.16464902
186	0xbdff0145	-0.12451414
187	0xbce6a881	-0.02815652
188	0x3e67738c	0.22602671
189	0xbeb8a25a	-0.36061364
190	0x3dba2009	0.090881415
191	0xbe7f460c	-0.24929065
192	0xbe2a143f	-0.16609286
193	0x3e35382a	0.17697206
194	0x3ce506a6	0.027957272
195	0xbe97556c	-0.2955736
196	0x3cba16ff	0.022716044
197	0xbe3940eb	-0.1809117
198	0xbbf90d73	-0.00760048
199	0xbe62d698	-0.22152174
200	0xbea91b16	-0.33028477
201	0xbdcd0eee	-0.10012613
202	0xbe74891c	-0.23880428
203	0xbcbd70d7	-0.023125095
204	0xbe3213ff	-0.1739044
205	0x3c8c2b28	0.017110422
206	0xbec1d5bb	-0.37858376
207	0xbcabcee9	-0.020972686
208	0xbe7ff2b2	-0.24994925
209	0xbdc83786	-0.09776215
210	0xbd5a251d	-0.05325805
211	0xbc35f371	-0.011105404
212	0x3e1ab87a	0.15109435
213	0xbe323347	-0.17402373
214	0xbd9b6bab	-0.075888954
215	0x3d242fc4	0.040084615
216	0xbea1eabe	-0.31624407
217	0x3e305af3	0.17222194
218	0xbea9a81d	-0.33136073
219	0xbe726872	-0.23672655
220	0xbdac0d11	-0.0840093
221	0x3c770cad	0.015078706
222	0xbd8436a5	-0.06455735
223	0xbd9787ce	-0.073989496
224	0xbd79d77e	-0.060996525
225	0x3e216728	0.15762007
226	0x3c93044d	0.017946387
227	0x3e00e3cc	0.12586898
228	0xbea2518d	-0.31702843
229	0xbee39a38	-0.44453597
230	0x3e531cae	0.20616409
231	0xbee4eb34	-0.44710696
232	0xbe8d4398	-0.27590632
233	0x3e5fb540	0.21846485
234	0xbceadc6c	-0.028669558
235	0x3eadfd5f	0.3398237
236	0xbbf966f0	-0.007611148
237	0x3e8f8669	0.28032234
238	0xbe072606	-0.13198099
239	0x3dc38a13	0.0954782
240	0x3ea8bd21	0.32956794
241	0x3e050eea	0.1299397
242	0x3e5575ed	0.20845766
243	0xbe68cd79	-0.22734632
244	0xbd14e3e5	-0.03635015
245	0xbd81a947	-0.06331115
246	0xbe49b3d6	-0.19697508
247	0x3ea05b77	0.31319782
248	0x3edfdd22	0.43723398
249	0xbe315092	-0.17315891
250	0xbe5da08c	-0.21643275
251	0x3eba4446	0.36380213
252	0x3d3786eb	0.044806402
253	0xbebcf4c0	-0.3690548
254	0xbe3681fc	-0.17823023
255	0x3e4323ba	0.19056597

network_body._body_endoder.seq_layers.0.bias f4 [512]
0	0xbdb3bc94	-0.08776203
1	0xbe2406a3	-0.16018157
2	0xbdde30c4	-0.10849145
3	0xbdcc5655	-0.09977404
4	0xbc9f3133	-0.01943264
5	0xbdf0b75a	-0.117537215
6	0x3d09e349	0.03366402
7	0xbce66ca2	-0.028127972
8	0xbd1d576a	-0.038413443
9	0xbe540c3a	-0.20707789
10	0x3c91da84	0.017804392
11	0xbe1a5e1a	-0.1507496
12	0xbdb62890	-0.088944554
13	0xbd64c854	-0.05585511
14	0xbd50c67f	-0.05097055
15	0x3c6073f2	0.0136995185
16	0xbdb19d4b	-0.086725794
17	0x3d53f487	0.05174687
18	0xbd8fa080	-0.07013035
19	0xbdb656fe	-0.08903311
20	0xbdd14e4a	-0.102200106
21	0xbe166a44	-0.14688975
22	0xbc2e3277	-0.010632149
23	0xbd8694b1	-0.065713294
24	0xbe3848df	-0.17996548
25	0xbdba0a17	-0.09083956
26	0xbd95997f	-0.07304668
27	0x3d2a9d8b	0.04165415
28	0xbd967961	-0.0734737
29	0xbdff38c8	-0.12462002
30	0xbe10878e	-0.1411421
31	0xbd8c35bc	-0.068461865
32	0xbe11219f	-0.14172982
33	0x3b5f7d08	0.0034101624
34	0xbce82134	-0.028336145
35	0xbd9a285c	-0.07527229
36	0xbdef6b33	-0.116903685
37	0xbd3f595c	-0.04671608
38	0xbded3a64	-0.11583403
39	0xbddddd2c	-0.10833201
40	0xbdfee41c	-0.12445852
41	0xbdac2401	-0.08405305
42	0xbe03c1c3	-0.12866883
43	0xbe07f993	-0.13278799
44	0xbe0b06d2	-0.1357682
45	0xbe07fd40	-0.13280201
46	0xbdd3ace8	-0.103357136
47	0xbd5af706	-0.053458236
48	0xbe35b056	-0.17743048
49	0xbe3f45e5	-0.18679006
50	0xbde045ca	-0.10950811
51	0xbde190e3	-0.11013963
52	0xbd9c1a64	-0.07622221
53	0xbda7e94b	-0.08198794
54	0x3d55357f	0.05205297
55	0xbdc693a3	-0.09696128
56	0xbe071461	-0.13191368
57	0xbe1f1fa9	-0.15539421
58	0xbdadd1af	-0.084872596
59	0xbdb00c6c	-0.08596119
60	0xbe06ff5d	-0.13183351
61	0xbdd76861	-0.105179556
62	0xbddd382f	-0.10801732
63	0xbc4e54b4	-0.012593437
64	0xbc1d9411	-0.009617821
65	0x3d5dfb95	0.054195005
66	0x3daa4be9	0.0831526
67	0xbbd028a4	-0.006352501
68	0xbd253651	-0.040335003
69	0xbe0c868a	-0.13723198
70	0xbcd8038e	-0.026368883
71	0xbe34da8d	-0.17661496
72	0x3d31b7bb	0.04338811
73	0xbe0b390e	-0.13595983
74	0xbdd3e309	-0.10346038
75	0xbe0da77d	-0.13833423
76	0xbbcbcf7f	-0.006219804
77	0xbc9609dc	-0.018315248
78	0x3d9c7916	0.07640283
79	0xbde9ab97	-0.11409681
80	0x3cb6bba9	0.02230628
81	0xbd04b652	-0.032400437
82	0xbdaa2c42	-0.08309223
83	0xbd0b52f0	-0.034014642
84	0xbdd764a1	-0.1051724
85	0xbe33184c	-0.17489737
86	0xbe175519	-0.14778556
87	0xbdbc81a3	-0.09204414
88	0xbe124f7e	-0.14288136
89	0x3d6fd5a7	0.058553364
90	0xbd8b90ba	-0.06814714
91	0xbe6c5a21	-0.23081256
92	0xbd0680a5	-0.03283753
93	0xbcf14cd2	-0.029455576
94	0xbc55470b	-0.013017426
95	0xbe170063	-0.14746241
96	0xbdb852b8	-0.09000152
97	0xbd979850	-0.07402098
98	0xbc255bd4	-0.010092694
99	0xbc8628ea	-0.016376931
100	0xbd8d6405	-0.06903843
101	0xbe5038a2	-0.20334104
102	0xbe350286	-0.17676744
103	0xbd37866b	-0.044805925
104	0xbe0d4747	-0.13796721
105	0xbd802e9c	-0.0625889
106	0xbe2b280e	-0.16714498
107	0xbdf0f3e5	-0.11765269
108	0xbc1b8662	-0.009492489
109	0xbb9ff178	-0.0048810802
110	0xbe94e3d7	-0.29080078
111	0xbe38d0bb	-0.18048374
112	0xbe0c2009	-0.13684095
113	0xbe0078ad	-0.12546034
114	0xbe2ac521	-0.16676761
115	0xbe60cd2d	-0.21953268
116	0xbdbf7736	-0.093489096
117	0xbda350a7	-0.079743676
118	0xbe078914	-0.13235885
119	0xbd54bea0	-0.051939607
120	0xbdd4a692	-0.10383333
121	0xbe415eba	-0.18883792
122	0x3c7e2816	0.015512487
123	0xb9d4b26e	-0.00040568731
124	0xbe1fa0d8	-0.15588701
125	0xbddcdc48	-0.10784203
126	0xbda7fa6a	-0.082020596
127	0xbe078659	-0.13234843
128	0xbdf5ce94	-0.12002292
129	0x3afa44ad	0.0019093953
130	0xbe1a557b	-0.1507167
131	0xbd912f49	-0.07089097
132	0x3cf0ff9e	0.029418763
133	0xbd7b1f21	-0.061308984
134	0xbd0d3d47	-0.034482267
135	0xbd12ef15	-0.035872538
136	0xbe014492	-0.12623814
137	0xbdfdbd33	-0.123896025
138	0xbd8d24bf	-0.068917744
139	0xbdc34ab3	-0.09535732
140	0xbe0e6e94	-0.1390937
141	0xbdd51eb4	-0.10406247
142	0xbc125276	-0.008930793
143	0xbd89719a	-0.06711121
144	0xbdc2437e	-0.09485529
145	0xbd36235f	-0.044467326
146	0xbcea7ae1	-0.028623046
147	0xbdd2783c	-0.10276839
148	0xbe4870b8	-0.19574249
149	0xbd35488f	-0.04425865
150	0xbd977918	-0.07396144
151	0xbe6f7542	-0.23384574
152	0xbd96a529	-0.073557205
153	0xbd014956	-0.03156408
154	0xbe781672	-0.24227312
155	0xbd118f1d	-0.035536874
156	0xbcf7103e	-0.030159112
157	0xbcda4874	-0.026645876
158	0x3c8dbc04	0.017301567
159	0xbdca21af	-0.09869706
160	0xbe67d22f	-0.22638772
161	0xbdcc99d2	-0.099902764
162	0xbd4b719b	-0.04966889
163	0xbe2a06f3	-0.16604213
164	0xbd2dd35c	-0.042437896
165	0xbd8bfaf9	-0.068349786
166	0xbd94c545	-0.07264189
167	0xbd9ae432	-0.07563056
168	0xbce0a24f	-0.027421145
169	0xbd40fa0f	-0.047113474
170	0xbe4bf169	-0.1991631
171	0xbe0e83e3	-0.13917498
172	0xbdbfde6b	-0.09368595
173	0xbde2826b	-0.110600315
174	0xbd8a24dd	-0.06745312
175	0xbdc6faca	-0.09715803
176	0xbe4665ec	-0.19374818
177	0xbe2a025e	-0.16602466
178	0xbdd2d4dc	-0.10294506
179	0xbe316d9b	-0.17326967
180	0x3d1cb757	0.038260784
181	0xbe16ef09	-0.14739622
182	0xbe048b6e	-0.12943813
183	0xbe06abc5	-0.13151462
184	0xbd7dd94a	-0.0619748
185	0xbdb8ed56	-0.09029643
186	0xbd015b7d	-0.03158139
187	0xbe574ce1	-0.2102542
188	0xbda5a6d7	-0.08088463
189	0xbe6ac158	-0.22925317
190	0xbe26c86e	-0.16287395
191	0xbcab6da4	-0.020926304
192	0xbcf6ffc0	-0.030151248
193	0xbd3112e4	-0.043230906
194	0xbe279d37	-0.16368566
195	0xbdadb7cf	-0.08482324
196	0xbe2929dd	-0.16519876
197	0xbe1aa8c3	-0.1510344
198	0x3cdad281	0.026711704
199	0xbd6dd234	-0.058061793
200	0x3da622fd	0.08112142
201	0xbc71699a	-0.01473465
202	0xbe5a8979	-0.21341504
203	0xbe831dda	-0.25608712
204	0xbd935ec4	-0.071958095
205	0x3c34b43d	0.0110293
206	0xbd96902f	-0.073517196
207	0xbe3ad3f1	-0.18244912
208	0xbe417861	-0.18893577
209	0xbdb4ec0a	-0.088340834
210	0xbd99e2e6	-0.075139806
211	0xbdd31fdf	-0.10308813
212	0xbd29b976	-0.041436635
213	0xbdbe73e3	-0.092994474
214	0xbc959433	-0.018259143
215	0x3cccd522	0.025003973
216	0xbe50fbf1	-0.20408608
217	0xbd6e973f	-0.05824971
218	0xbd989ba4	-0.07451561
219	0xbe15de67	-0.14635621
220	0xbe022220	-0.1270833
221	0xbdcdb0cf	-0.10043489
222	0xbe202954	-0.15640765
223	0xbe40de19	-0.18834724
224	0xbdfea1b5	-0.12433187
225	0x3c327507	0.010892159
226	0xbe20d766	-0.15707168
227	0xbde0549a	-0.109536365
228	0xbe20f97a	-0.15720168
229	0xbd707c83	-0.058712494
230	0xba71642e	-0.00092083483
231	0xbe1d10c9	-0.15338434
232	0xbda43d01	-0.08019448
233	0xbe17f331	-0.14838864
234	0xbde2f4a0	-0.11081815
235	0xbd3c525e	-0.04597699
236	0xbdc7ab77	-0.09749501
237	0xbdba7b0d	-0.09105501
238	0xbe3d9698	-0.18514478
239	0xbcdb2732	-0.026752088
240	0xbd10b123	-0.03532518
241	0xbe6a4d98	-0.22881162
242	0xbe14a77c	-0.14517015
243	0xbe100272	-0.14063433
244	0xbe49010d	-0.19629307
245	0xbbd20b6c	-0.006410053
246	0xbdc8ce2f	-0.098049514
247	0xbe2e3087	-0.17010699
248	0xbcfac379	-0.030610787
249	0x3bf112e6	0.007356989
250	0xbd665cdf	-0.056240913
251	0xbdf4e23f	-0.119572155
252	0xbdc1df94	-0.09466472
253	0xbdf2b1ab	-0.11850294
254	0xbe072b67	-0.1320015
255	0xbe18f9fd	-0.14939113

action_model._discrete_distribution.branches.0.weight f4 [4, 512]
0	0x3d01e5da	0.031713344
1	0x3b88f503	0.0041795983
2	0xbacb2003	-0.0015497211
3	0x3ca291d6	0.01984493
4	0x3d4b180d	0.049583483
5	0xbae484fb	-0.0017434651
6	0xbc7ff5b2	-0.015622543
7	0xbd0f8543	-0.035039198
8	0x3d0e4f82	0.034743793
9	0x3b95c373	0.0045704185
10	0x3d23cf9a	0.039992906
11	0x3d6a0807	0.05713656
12	0x3c55f0e6	0.013057923
13	0x3d82f3b0	0.06394136
14	0x3c7dbf75	0.015487541
15	0xbcbc6c7e	-0.023000952
16	0xbc4ac155	-0.0123751955
17	0x3cc915b6	0.024546485
18	0xbc6d1ca8	-0.014472164
19	0xbc5b2a14	-0.013376731
20	0xbce1efab	-0.027580103
21	0x3de7ae5a	0.11312552
22	0xbd293547	-0.041310575
23	0xbc59db8d	-0.013296974
24	0x3bbb63a2	0.0057186643
25	0x3ac33947	0.0014894389
26	0xbb6eee0a	-0.00364578
27	0x3d05f1c7	0.03270128
28	0xbd0f5369	-0.034991655
29	0x3c8ee84b	0.01744475
30	0xbb11347d	-0.002215653
31	0x3ca32b7b	0.019918194
32	0x3c124ce9	0.00892947
33	0x3d2ac4dd	0.04169165
34	0xbdc9d371	-0.098547824
35	0xba80abf2	-0.0009816869
36	0x3c195bdb	0.009360279
37	0xbc9bcd28	-0.019018725
38	0x3ca07b57	0.019590063
39	0x3d2105d2	0.03931219
40	0xbc4b3b18	-0.012404226
41	0xbcab9ffd	-0.020950312
42	0xbb94612b	-0.004528185
43	0xbb8fdd5e	-0.0043904027
44	0x39a975ae	0.0003232187
45	0x3cd4ebb6	0.025991302
46	0x3d21010c	0.03930764
47	0x3d76471c	0.06012641
48	0xbc0cc7f4	-0.008592594
49	0xbac1f0c4	-0.0014796485
50	0x3d4c5593	0.049886297
51	0x3c8337b1	0.016017767
52	0x3d1bf258	0.038072914
53	0x3d9fb26e	0.07797705
54	0x3c6cac20	0.014445335
55	0xbcb7068e	-0.022341993
56	0x3c5dd2b7	0.013539008
57	0x3c370061	0.011169524
58	0x3d719e83	0.05898906
59	0x3c7a0896	0.015260836
60	0x3c7847d2	0.015153842
61	0xbc2fcc94	-0.010729928
62	0x3c7bce4d	0.01536901
63	0x3bba86e4	0.0056923497
64	0x3cee9129	0.029121952
65	0x3d1ee61f	0.03879368
66	0xbd344147	-0.044007566
67	0x3d622565	0.055211443
68	0x3da39551	0.07987464
69	0x3c463a21	0.01209882
70	0xbcd71bbf	-0.026258348
71	0xbb3af737	-0.00285287
72	0x3bee810f	0.0072785686
73	0x3c7ba6fd	0.015359637
74	0x3c49ee94	0.012324948
75	0x3d05252c	0.032506153
76	0x3d340efa	0.043959595
77	0x3cac66f0	0.021045178
78	0x3bec64f9	0.0072141853
79	0x3d8aaf90	0.06771767
80	0xbd536659	-0.05161128
81	0x3d4ab2b0	0.049486816
82	0xbbe4cc40	-0.0069823563
83	0xbd02a5cd	-0.0318964
84	0xbd4054c6	-0.046955846
85	0x3bfb1d6b	0.007663419
86	0xba42437c	-0.00074105687
87	0x3b9d2046	0.004795107
88	0xbc00d0fc	-0.007862326
89	0xba934462	-0.001123559
90	0x3adf7ebe	0.0017051322
91	0x3a4db4d4	0.0007847075
92	0xbc3da8be	-0.011575876
93	0xbc5628f1	-0.013071285
94	0xbb19e808	-0.0023484249
95	0x3c8d95ee	0.017283406
96	0x3d4e16f0	0.050314844
97	0x3cdd9ec5	0.027053246
98	0x3c29db9e	0.010367302
99	0x3d3707da	0.044685222
100	0x3d3aef8f	0.045638617
101	0xbbdd494b	-0.006753122
102	0xba688eef	-0.00088713964
103	0xbca9cc01	-0.02072716
104	0x3d75ce6c	0.060011312
105	0x3cde141a	0.027109195
106	0xbc9178a0	-0.017757714
107	0x3c5617fd	0.013067243
108	0xbc408d70	-0.011752471
109	0xbbf8494b	-0.0075770966
110	0xbb731af3	-0.003709492
111	0xbcf82856	-0.030292671
112	0xbd8fe4fd	-0.07026098
113	0x3d5c6087	0.053802993
114	0xbbf032ac	-0.0073302593
115	0x3c758dda	0.014987433
116	0x3c50dd4d	0.012748075
117	0xba9183c9	-0.0011101897
118	0x3c3c2052	0.011482315
119	0xbbd0166e	-0.00635033
120	0xbd17090c	-0.036873862
121	0xbc270442	-0.010193886
122	0xbc3f41df	-0.01167342
123	0x38cf2c88	9.878824e-05
124	0x3c2a7963	0.010404917
125	0xbd49e730	-0.049292743
126	0x3d1dc1ed	0.03851502
127	0x3da2fa01	0.07957841
128	0x3cf30208	0.029664055
129	0xbd12ef2a	-0.035872616
130	0x3d020582	0.031743534
131	0xbcea5cd5	-0.028608719
132	0xbb971255	-0.0046103396
133	0xbc95f059	-0.018303083
134	0xbc0dc037	-0.008651785
135	0x3d2167dd	0.039405692
136	0xbc397282	-0.011318805
137	0xbc5bdaca	-0.013418863
138	0xbd36d1ea	-0.044633783
139	0xbd560b38	-0.052256793
140	0x3c6db536	0.014508536
141	0xbcfb876d	-0.030704224
142	0x3cdaea13	0.026722943
143	0xb98f5bf8	-0.00027343608
144	0x3d850b75	0.06496326
145	0x3ba8a224	0.005146282
146	0xbd373d83	-0.044736397
147	0xbb960064	-0.0045776833
148	0xbb2646b9	-0.0025371744
149	0x3c818ab8	0.015813217
150	0xbc26c5fa	-0.010179037
151	0xbbf7ff5e	-0.007568284
152	0xbd24b341	-0.040210012
153	0x3cf83496	0.030298512
154	0x3c68dfdd	0.014213529
155	0xbc0eb4b0	-0.008710071
156	0x3b80a49c	0.003925873
157	0x3c54eaa6	0.012995398
158	0x3cba97f7	0.02277754
159	0x3c58cac4	0.013231937
160	0x3aa37c9b	0.0012473048
161	0x3dc69534	0.09696427
162	0xbd440a12	-0.047861166
163	0x3bcfcf9e	0.0063418886
164	0xbcfe35dd	-0.031031543
165	0xbc7d7d57	-0.015471778
166	0x3c1bf660	0.00951919
167	0x3cec604e	0.028854515
168	0xbd7dfe81	-0.062010292
169	0x3c0ca2c2	0.008583726
170	0xbd306a9b	-0.043070417
171	0x38de305f	0.00010594795
172	0x3c849d5a	0.016188312
173	0x3c9e0c96	0.01929311
174	0x3cfff301	0.031243803
175	0xbaa0e2a8	-0.001227458
176	0x3c1a4c32	0.00941758
177	0x3b1cc44a	0.0023920708
178	0x3c9cd39e	0.019143876
179	0x3bdf86af	0.0068214755
180	0x3c70e612	0.014703291
181	0xbb3ef584	-0.0029138038
182	0x3bf8c4f0	0.007591836
183	0xbc873094	-0.016502656
184	0x3d456e36	0.04820081
185	0x3cbeae23	0.023276394
186	0x3c87cb57	0.016576452
187	0xbb9859cc	-0.0046493765
188	0x3c2f9417	0.01071646
189	0xbcb14c91	-0.021642955
190	0xbca18fac	-0.019721828
191	0x3b8008cf	0.0039073
192	0x3c446a6a	0.011988262
193	0x3c34bcd3	0.011031347
194	0xbd68704c	-0.05674772
195	0x3ae15dd8	0.0017194105
196	0x37160dfe	8.9439545e-06
197	0x3ccacce0	0.024755895
198	0xbd03ef1a	-0.032210447
199	0x3d39589b	0.045250516
200	0x3d1b9521	0.037984017
201	0x3d209214	0.03920181
202	0x3b7f50e0	0.0038958117
203	0xbc0a5b80	-0.008444667
204	0x3b6714fa	0.0035260306
205	0x3b4cf9ea	0.003127689
206	0xba44d01b	-0.0007507817
207	0xbb0afe23	-0.0021208606
208	0x3c6da398	0.014504336
209	0xbc7102cf	-0.014710142
210	0x3c895b7a	0.016767252
211	0x3bffae7f	0.007802784
212	0xbb3c2615	-0.0028709222
213	0x3d43af2e	0.047774486
214	0xbd55d177	-0.052201714
215	0x3b6935f6	0.0035585142
216	0x3c338b84	0.010958556
217	0xbd195ee5	-0.037444014
218	0xbc4902c9	-0.01226873
219	0xbc6d91f1	-0.014500127
220	0xbcd68098	-0.026184365
221	0x3ce9ed95	0.02855567
222	0x3bed62ab	0.007244428
223	0x3bb7cb73	0.00560897
224	0x3cfc8f4e	0.030830052
225	0x3d9ef533	0.07761612
226	0x3b609ca4	0.0034273053
227	0x3ca37087	0.019951118
228	0x3c10e8d6	0.008844575
229	0x3c35aec1	0.011089028
230	0x3bf85f61	0.0075797294
231	0x3daa2864	0.08308485
232	0x3d1a99fb	0.037744503
233	0xbc9cd780	-0.019145727
234	0xbd341603	-0.043966305
235	0x3cebc53d	0.028780574
236	0x3d0ab664	0.033865348
237	0xbcdd099f	-0.026982127
238	0x3c4b012e	0.012390418
239	0xbcdeb29f	-0.027184783
240	0xbcee246b	-0.0290701
241	0xbb5c73c5	-0.003363834
242	0x3c8da778	0.01729177
243	0x3c2ce0c7	0.010551638
244	0x3c8a3614	0.01687149
245	0x3d39e38c	0.04538302
246	0xbc1e7f45	-0.009673898
247	0xbc0a4dab	-0.008441369
248	0xbd51fc37	-0.05126592
249	0x3d3a554f	0.045491513
250	0xbbc5d23e	-0.0060370257
251	0x3d586f6c	0.052840635
252	0xbae0ce84	-0.001715139
253	0x3d235461	0.039875392
254	0xbbf02830	-0.0073290095
255	0x3c8d647b	0.017259827

action_model._discrete_distribution.branches.0.bias f4 [4]
0	0x39d04f7d	0.00039732075
1	0x3c455e4b	0.012046407
2	0xbd94cd75	-0.0726575
3	0x3d72ae3e	0.0592482

action_model._discrete_distribution.branches.1.weight f4 [5, 512]
0	0xbcd7e3f9	-0.026353823
1	0x3c73ab82	0.014872434
2	0xbc0c7a82	-0.00857413
3	0x3dbd638a	0.09247501
4	0x3c03ee41	0.00805241
5	0xbd93aa02	-0.07210161
6	0x3cce2d9b	0.02516823
7	0x3cf4edaa	0.029898483
8	0x3cb858a1	0.022503199
9	0x3ce795c2	0.028269652
10	0x3d8f28b2	0.06990184
11	0xbcfa5c08	-0.030561462
12	0x3bad4df3	0.0052888333
13	0x3d8aae7d	0.06771562
14	0x3c535157	0.012897811
15	0x3cedc4f2	0.029024575
16	0xbb56c036	-0.0032768375
17	0x3d9c2225	0.076237
18	0x3c592971	0.013254509
19	0x3c19a762	0.009378286
20	0x3db7140a	0.08939369
21	0x3ca0144e	0.019540932
22	0xbbe57ddd	-0.0070035295
23	0xbcf11c8c	-0.029432558
24	0x3c690954	0.014223415
25	0xbc0a7c8e	-0.008452548
26	0x3c9458ac	0.018108688
27	0x3ca0b4bc	0.01961743
28	0x3c88b344	0.016687043
29	0x3d1eba87	0.038752105
30	0x3d09e7a5	0.03366818
31	0x3c3fc720	0.01170519
32	0x3d54901f	0.051895257
33	0x3cd7d6ba	0.026347507
34	0x3c4b18b6	0.012396028
35	0xbd8d9fa7	-0.06915217
36	0x3d53eb3f	0.05173802
37	0x3c016ea1	0.007899911
38	0x3d1c96b5	0.038229663
39	0x3c1453f7	0.009053222
40	0x3cbef8af	0.023311941
41	0x3d8f0fda	0.06985445
42	0xbcd2f90c	-0.02575352
43	0x3d61a2c0	0.05508685
44	0xba8aa65b	-0.0010578142
45	0xbb75f436	-0.0037529594
46	0xbd1e3b7e	-0.038630955
47	0x3d385d7c	0.04501103
48	0x3d5e0dcc	0.054212376
49	0x3d7c75a8	0.061635643
50	0x3cbe4e87	0.023230804
51	0xbd429f1f	-0.04751503
52	0x3ce92c51	0.028463515
53	0x3cfd5a9d	0.030926997
54	0x3d669c23	0.056301247
55	0x3adc84a4	0.0016824198
56	0x3d72ae8d	0.059248496
57	0xbb31d6c0	-0.0027136058
58	0x3d653571	0.05595917
59	0xbb3eae8f	-0.0029095744
60	0x3c578082	0.013153197
61	0x3d8e8fcb	0.0696102
62	0xbbe62935	-0.007023955
63	0xbc99ef17	-0.018790765
64	0xbc0ee2ca	-0.008721063
65	0x3d86ebdc	0.06587955
66	0x3d11cb65	0.035594363
67	0x3be484c3	0.0069738342
68	0x3d757923	0.059929978
69	0x3d264fce	0.04060345
70	0xbb9081ca	-0.0044100033
71	0x3c43d68d	0.011953008
72	0x3d3eafa6	0.04655423
73	0x3d086f0e	0.033309035
74	0xbc2c7de0	-0.010528058
75	0xbbbfbf80	-0.005851686
76	0x3d4790ca	0.048722066
77	0x3d02f70f	0.031973895
78	0x3d12b588	0.035817653
79	0x3cd09d61	0.02546567
80	0x3b198682	0.002342612
81	0x3d512897	0.0510641
82	0x3d0ba377	0.03409144
83	0xbc6eaabd	-0.014567074
84	0x3d32a9a1	0.043618802
85	0x3c5647c5	0.013078635
86	0xbd9062ab	-0.070500694
87	0x3c50937c	0.0127304755
88	0x3d040782	0.032233723
89	0xbba4ccb3	-0.005029285
90	0x3be1958d	0.006884283
91	0xbb73f2fa	-0.0037223683
92	0xbd24277e	-0.040076725
93	0xbc362e65	-0.01111946
94	0x3ba936a5	0.005163985
95	0x3ce88a1d	0.02838617
96	0x3cdba0e4	0.026810117
97	0xbd94315f	-0.07235979
98	0x3d383c01	0.0449791
99	0x3cbf0207	0.023316396
100	0xbd144c26	-0.036205433
101	0x38ebedf6	0.00011249997
102	0xbd59cd00	-0.05317402
103	0x3c4da9b9	0.012552672
104	0xbccac58b	-0.024752399
105	0x3cd02e0c	0.025412582
106	0xb9a42f41	-0.00031315724
107	0xbcde8044	-0.027160771
108	0x3da842d4	0.082158715
109	0x3cc82a73	0.024434304
110	0x3cb951d2	0.022622023
111	0x3d33f2e8	0.043932825
112	0xbcd75162	-0.026283924
113	0x3c28edfb	0.010310645
114	0x3b924eb6	0.0044649495
115	0xbca6dd7f	-0.02036929
116	0xbd2b188d	-0.04177146
117	0x3c73bf69	0.014877179
118	0x3d5e38e4	0.054253474
119	0x3d0c7691	0.03429276
120	0xbd08deaf	-0.033415493
121	0xbd830de1	-0.063991316
122	0x3d5b1f87	0.053496864
123	0xbc7a1983	-0.0152648715
124	0xbbe08209	-0.006851439
125	0xbdd7014c	-0.10498294
126	0x3cc4e7ef	0.024036376
127	0x3d5a6aa2	0.05332435
128	0xbb54558a	-0.0032399618
129	0x3bdbaa4a	0.0067036496
130	0x3d6c2cff	0.0576601
131	0xbb3ff920	-0.0029292777
132	0x3cd1ce92	0.025611196
133	0x3d66fc20	0.05639279
134	0x3d9083b8	0.07056373
135	0x3be1de7d	0.0068929777
136	0x3cc6a4c9	0.024248498
137	0xbd1e88aa	-0.03870455
138	0x3ced3b96	0.028959077
139	0x3d8977c4	0.067122966
140	0x3c32fe69	0.010924914
141	0xbccfcf1b	-0.02536731
142	0x3d3e2f4d	0.04643183
143	0x3c8667b1	0.016406866
144	0x3c9db595	0.019251624
145	0xbd0f2728	-0.03494945
146	0xbc846635	-0.016162017
147	0x3d322233	0.043489646
148	0x3ca3f633	0.020014858
149	0x3c9695be	0.01838195
150	0x3c87bdb5	0.016569952
151	0x3d807469	0.062722035
152	0x3d2eb3a0	0.042651772
153	0x3c35fc41	0.011107505
154	0x3c96d985	0.018414268
155	0x3c3f36d2	0.011670785
156	0x3c861d40	0.01637137
157	0x3d25ab0c	0.040446326
158	0x3d9c92d0	0.0764519
159	0x3d08950b	0.033345263
160	0x3c0d0b3e	0.008608637
161	0x3d2defc7	0.042464998
162	0x3c8f64e0	0.017504156
163	0x3d5f3b5f	0.05449998
164	0xbbf297a7	-0.0074033323
165	0xbb6bd8cd	-0.0035987378
166	0x3cd70d62	0.026251499
167	0x3d88e3af	0.06684052
168	0x3c770d1c	0.015078809
169	0x3c708d51	0.01468213
170	0x3d94814b	0.07251223
171	0x3cbdc3f5	0.023164729
172	0x3a36ac91	0.00069684634
173	0xb9237be9	-0.00015591051
174	0xbce4691a	-0.027882148
175	0xbbbada7a	-0.005702314
176	0x3cf9bdd8	0.030486032
177	0xbd2ccbfe	-0.04218673
178	0x3cc22a5a	0.023701835
179	0x3c921e9a	0.017836858
180	0x3c38a4ce	0.011269761
181	0x3d2940fd	0.041321743
182	0xbcca8d24	-0.024725504
183	0x3d2d6e68	0.04234162
184	0x3c8b7ae3	0.01702637
185	0x3d4c3a22	0.049860127
186	0xbb003a1f	-0.0019565893
187	0x3d5a29d6	0.053262554
188	0x3d565e9c	0.05233632
189	0x3cb7a2f1	0.022416564
190	0x3c4654ff	0.012105226
191	0x3cb0dff0	0.021591157
192	0xbd4c5516	-0.04988583
193	0x3d663f20	0.056212544
194	0x3c330648	0.010926791
195	0xbca80c49	-0.02051367
196	0xbd8076c4	-0.06272653
197	0x3d838d3a	0.06423421
198	0x3d19b5f5	0.037527043
199	0x3d27ed86	0.040998004
200	0x3ce8d069	0.02841969
201	0x3c82d66c	0.015971385
202	0x3c7cce95	0.015430112
203	0x3d58a9dd	0.05289637
204	0x3d0d2601	0.03446007
205	0xbc730cb6	-0.0148345735
206	0xbca0c3f2	-0.019624684
207	0xbccec677	-0.02524112
208	0x3cd67cb6	0.026182514
209	0xbb296682	-0.0025848453
210	0x3c2ab0fd	0.010418174
211	0x3d17dc76	0.037075482
212	0xbbc272c2	-0.0059340904
213	0xbcdaf9fa	-0.026730526
214	0x3ccd7cc6	0.02508391
215	0x3d7a37df	0.06108844
216	0x3c73d01e	0.014881162
217	0x3d4e5f13	0.05038364
218	0x3a9be507	0.0011893817
219	0x3cc13716	0.023585837
220	0x3dac58e0	0.08415389
221	0x3d5845b0	0.052800834
222	0x3a550aa3	0.000812689
223	0x3d680a55	0.05665048
224	0x3c3be11f	0.011467247
225	0x3cdf242f	0.027238933
226	0x3c8a4640	0.016879201
227	0x3cadc432	0.021211717
228	0xbd9f89a0	-0.07789922
229	0xbc7626a6	-0.015023863
230	0x3d0a584a	0.033775605
231	0x3cb185a1	0.021670165
232	0x3ca4fc14	0.020139731
233	0xbc3e1670	-0.011602029
234	0x3b3593b0	0.0027706437
235	0xbbbb08ae	-0.005707822
236	0x3b7578d2	0.0037456048
237	0x3d3aebf2	0.04563517
238	0x3b848bbc	0.004044978
239	0x3d1b88f2	0.037972398
240	0xbd0f8407	-0.03503802
241	0x3cacd17d	0.021095986
242	0xbc90e2da	-0.017686296
243	0xbc1eb1f7	-0.009685985
244	0x3c9caac8	0.019124404
245	0xbc33e2b4	-0.010979343
246	0x3ccaef6d	0.02477237
247	0xbcd7f3d1	-0.026361378
248	0x3b829cb4	0.0039859656
249	0xbc3826b4	-0.011239696
250	0xbc8d5a7b	-0.017255059
251	0x3d450e20	0.048109174
252	0x3cda4a14	0.026646651
253	0x3d30c8fc	0.043160424
254	0x3c2bad79	0.010478371
255	0x3c8a1383	0.016855007

action_model._discrete_distribution.branches.1.bias f4 [5]
0	0xbc9ec252	-0.019379769
1	0x3ca819d3	0.020520126
2	0x3d0bb919	0.03411207
3	0x3c2ef12c	0.010677617
4	0xbc9f9b10	-0.01948312
