MLagents_test1/results/CarAgent_reinforcement_9/CarAgent/CarAgent-4499533.pt (torch, 580945 bytes, 28 tensors)

discrete_act_size_vector f4 [1, 2]
000000 00 00 80 40 00 00 a0 40
       4.0 5.0

network_body._body_endoder.seq_layers.0.weight f4 [512, 40]
000000 2b 48 b8 3d 20 ef 38 be dc 3b 1b 3c 74 a1 df 3d
       0.0899814 -0.18059969 0.009474721 0.109194666
000010 ba 5e 8e bc 86 af 89 3d 5e 73 45 3e 14 2e d7 3d
       -0.017379154 0.067229316 0.1928229 0.105068356
000020 b7 ee 93 be dc 68 63 bc 43 9c 92 be b9 e5 c1 3e
       -0.28893062 -0.013879981 -0.28634843 0.37870577
000030 5e 2a 93 bd cd 2c 41 be 06 bf cb 3c f5 9b 1b 3c
       -0.07185815 -0.18864746 0.02487136 0.009497632
000040 00 26 fd ba e9 fa 45 be 34 2d a0 3e da be 0d bd
       -0.0019313693 -0.19333996 0.31284487 -0.03460584
000050 df c5 9e bd c8 22 6d be ae 3b a7 be d4 03 95 3e
       -0.07752585 -0.23157799 -0.3266272 0.29104483
000060 1d f5 da 3d ac e3 00 3c be 25 1d 3e c0 0d 82 bd
       0.10691283 0.007866781 0.15346429 -0.06350279
000070 78 1b be bd 16 85 92 be c0 8c 8a 3c 54 6c 91 3e
       -0.09282583 -0.28617162 0.016912818 0.2840296
000080 d2 2a 35 be f7 36 36 bd 72 e6 0e be 52 8d 42 3e
       -0.17692116 -0.044486012 -0.13955095 0.18999222
000090 1f 44 3e 3e 1e 9d 82 bd e8 c5 63 bd 6a 81 23 3e
       0.18580674 -0.06377624 -0.05560866 0.15967336
0000a0 67 07 5f be 9b 8c 89 bd 40 68 ee bd 7f 46 14 bf
       -0.21780168 -0.067162715 -0.11640978 -0.5792007
0000b0 80 fe c6 be 74 78 e4 bd 51 30 8f 3e ab 66 a5 bd
       -0.38866043 -0.11155787 0.2796655 -0.08076223
0000c0 49 53 d2 be 61 7d 3b bf 95 fe d1 bd b0 ff 0d be
       -0.41079167 -0.7323819 -0.10253636 -0.13867068
0000d0 f8 3e 03 3e 53 55 bd be b2 7e 48 bf 4d b1 2a be
       0.1281699 -0.3697916 -0.7831832 -0.16669197
0000e0 d6 70 f3 be 75 7c 1a be 40 f8 28 be 0c 2e 59 bf
       -0.47547024 -0.15086539 -0.1650095 -0.84835887
0000f0 e8 3e 51 3e eb b2 23 bf 04 e2 43 be 5b 2e 3c be
       0.20434153 -0.6394488 -0.19129187 -0.18377058
000100 d3 f0 74 be 77 a9 83 3e b8 53 3e be 90 67 87 be
       -0.23919992 0.2571523 -0.18586624 -0.264462
000110 80 d1 63 be 13 9e 26 bf 5f 50 86 bd 97 32 d6 be
       -0.22247887 -0.6508495 -0.06558298 -0.41835472
000120 35 9f 86 be a7 df 63 3e 83 37 df be 44 54 bb be
       -0.2629334 0.22253285 -0.4359704 -0.36587727
000130 e2 87 d4 3c 1d dc 13 3e 6f 44 d3 3a eb 0a f9 be
       0.0259437 0.14439435 0.0016118417 -0.48641142
000140 6b b8 9a bd f5 3c 93 be 9e 1c 2c be 36 58 79 bd
       -0.07554706 -0.28757444 -0.16807792 -0.06087514
000150 90 c9 9a 3b c8 69 88 3d 06 c1 cf 3d e2 c8 0f be
       0.004723735 0.06660801 0.10144238 -0.14041474
000160 e3 29 9a 3d e5 db 45 3e 2f 02 94 bd 8b 18 12 3d
       0.075275205 0.19322164 -0.07226979 0.035667937
000170 93 7f f7 3d 48 23 e1 bd 4d d9 cf be bb 6c 74 3d
       0.1208488 -0.109930575 -0.40595475 0.059674006
000180 4a fc 6b be 7c 0f 2f be c5 09 d2 3d 37 3b 5b be
       -0.2304546 -0.1709575 0.1025577 -0.21409307
000190 50 ad 7b be e9 ce 17 be 7b ba 07 3c 26 01 0c be
       -0.24577832 -0.14825024 0.0082842065 -0.13672313
0001a0 75 97 e3 be 8c 64 d4 3c ea e3 f0 be cf e1 5c bd
       -0.4445149 0.02592685 -0.47048885 -0.053926285
0001b0 3b 75 87 3e 9e fe 28 be df 80 92 bd 38 01 b5 be
       0.26456627 -0.16503379 -0.071534865 -0.35352492
0001c0 a5 73 2a be 70 1d f4 bd e1 3c 9b be f2 70 48 3e
       -0.16645677 -0.11919677 -0.30319884 0.19574335
0001d0 cd dd 02 be 46 58 7a be c7 e6 37 bd 35 37 77 be
       -0.12779923 -0.24447736 -0.04489782 -0.24142154
0001e0 ca 3d a7 3e eb 2e aa be 98 d6 ab be 81 0a e3 bd
       0.3266433 -0.3323892 -0.3356216 -0.11085988
0001f0 14 0c 12 bf 98 c0 e1 bd c6 63 26 be f6 01 f7 bd
       -0.5704968 -0.110230625 -0.16248998 -0.12060921
000200 da 26 02 bd 15 d4 0a bf e3 ce 5b bb d7 84 2a bf
       -0.031775333 -0.5422986 -0.0033540062 -0.6660895
000210 15 2a 24 be 4e 64 b9 3d d9 0d 59 be 09 ba 68 bd
       -0.16031678 0.09052335 -0.21196689 -0.056818042
000220 3a cd 97 be 99 9d 58 be 50 49 c9 bd a8 8a c3 be
       -0.29648763 -0.21153869 -0.098284364 -0.38191724
000230 97 37 99 bd ae 8b 23 be 36 2e c4 3d 19 32 90 be
       -0.07481306 -0.15971252 0.095791265 -0.2816322
000240 17 02 75 be c0 be 7d 3d 2a 7e 2e be 1b 7f 50 be
       -0.23926578 0.06194949 -0.17040315 -0.20360987
000250 4e fe a1 be 65 69 1b bf 0d af 0f bd 38 6c 8a be
       -0.31639332 -0.60707694 -0.03507905 -0.2703569
000260 5e 05 6d be a5 a4 46 bf 0c e1 bd be 4d d3 53 bd
       -0.23146579 -0.7759498 -0.3708576 -0.051715184
000270 ff 17 ab bd 10 8d ad 3e 0b 59 0d be c3 05 63 bd
       -0.08354186 0.33896685 -0.13803498 -0.055425417
000280 75 03 ed bd ef 2c 97 3e 0d 4f a9 3d e7 d6 44 be
       -0.11572925 0.2952647 0.08267031 -0.19222604
000290 1b dd 76 bd 67 92 df 3d 31 75 46 3c 55 74 22 bd
       -0.060269456 0.10916596 0.012112902 -0.039661724
0002a0 6d 38 8c bd 80 9a 87 bd a6 eb 62 3e 8f 3a 8d be
       -0.068467 -0.066212654 0.22160205 -0.2758374
0002b0 95 5e 6a 3e c6 12 5e 3e 05 19 57 be 36 bf 22 3d
       0.22887643 0.21686849 -0.21005638 0.039733134
0002c0 62 48 b5 3e bd 5e f8 be ac cc 10 bd d8 08 94 be
       0.35406786 -0.4850978 -0.03535144 -0.28912997
0002d0 eb 7a 89 bd a1 83 81 be a6 92 b6 bd 86 48 1e 3e
       -0.06712898 -0.25295737 -0.0891469 0.15457353
0002e0 7e 11 09 3b c1 99 28 be f6 db c5 bd 9b fa 0e be
       0.0020914967 -0.16464902 -0.09661095 -0.13962786
0002f0 8c 64 75 3e bf d1 d7 be 09 20 ba 3d 59 0a a7 be
       0.23964137 -0.4215221 0.090881415 -0.32625082
000300 43 1e a7 be 7d 1e 96 3e bc a4 5a 3d 9a 5d 03 bf
       -0.32640275 0.29320136 0.05337976 -0.513147
000310 35 65 10 bc 90 27 9f be 55 b5 44 bd 4c 5d cd be
       -0.008813192 -0.3108487 -0.048024494 -0.40110242
000320 16 1b a9 be 50 a9 08 be a5 20 79 be 56 47 83 be
       -0.33028477 -0.13345838 -0.24328859 -0.25640363
000330 61 5c f5 be 28 2b 8c 3c 41 e5 ef be 5e e1 5b bd
       -0.47922042 0.017110422 -0.46854594 -0.053681724
000340 15 10 a5 be 2a 29 a0 be 1d 25 5a bd a0 f5 27 3c
       -0.32238832 -0.31281406 -0.05325805 0.010251433
000350 d6 b4 fc 3d 4b 09 b6 be 21 a8 bf be c4 2f 24 3d
       0.12339179 -0.35553965 -0.3743296 0.040084615
000360 cf 6c 00 bf 2d 38 15 3e a6 58 97 be 5a 40 c1 be
       -0.5016603 0.1457221 -0.2955982 -0.3774441
000370 11 0d ac bd db c6 30 3e e0 f8 49 be e2 0c bb be
       -0.0840093 0.17263357 -0.19723845 -0.36533266
000380 3d cd 8e be 28 67 21 3e ff f9 88 be 11 34 2c 3e
       -0.2789096 0.15762007 -0.26753232 0.16816737
000390 1f c2 80 be 6d f3 0b bf ae 1c 53 3e 15 99 0c bf
       -0.25148103 -0.54668313 0.20616409 -0.54921085
0003a0 e1 7e b2 be 50 8b 21 3e 00 4b 52 be 28 26 02 3f
       -0.34862426 0.157758 -0.20536423 0.5083947
0003b0 44 d0 57 be 5d 8c 83 3e c3 1b e2 bd 74 f7 ce 3e
       -0.21075541 0.25693026 -0.110404514 0.40423167
0003c0 21 bd a8 3e 0d 7c 86 3d 51 de 82 3e 3b 2b 89 be
       0.32956794 0.065666296 0.2556024 -0.26790795
0003d0 2c 66 1a be 47 a9 81 bd 6f d5 9a be 7a d0 ab 3e
       -0.15078038 -0.06331115 -0.30240962 0.33557492
0003e0 eb 4b e3 3e f1 05 4c be 8c a0 5d be 94 77 d4 3e
       0.44393858 -0.19924141 -0.21643275 0.4149748
0003f0 56 dd 56 3e 5b af 57 bf 5e 99 a8 be ba 23 43 3e
       0.2098287 -0.84251946 -0.3292951 0.19056597

network_body._body_endoder.seq_layers.0.bias f4 [512]
000000 49 5e 1d bd 3d 75 c2 be ff 12 7a be 3b 5c ad be
       -0.038419995 -0.3798007 -0.24421309 -0.3385943
000010 c1 a5 33 bc f8 2e 79 be c9 2c bb 3c 48 90 11 3c
       -0.010964812 -0.24334323 0.022848504 0.008884497
000020 e5 62 a8 bd 82 ff b4 be 8f f1 4e bd 1c 87 d0 be
       -0.08221988 -0.35351187 -0.050523337 -0.4072808
000030 f1 38 d6 bd bb 0b 02 bf 92 a4 b8 bd 2c c2 3d bd
       -0.104600795 -0.5079915 -0.09015764 -0.046327755
000040 9f 01 85 be e5 8d 50 bd 3b 12 58 be 32 f8 2d be
       -0.259778 -0.05091657 -0.21100704 -0.1698921
000050 83 56 0b be 20 c6 95 be e8 b1 95 bd ae fe e4 be
       -0.1360722 -0.2925272 -0.073093235 -0.44725555
000060 97 ab e4 be c5 1f 7b be 49 29 e9 bd c5 9d 7a bc
       -0.44662163 -0.24523838 -0.11384828 -0.015296404
000070 da fa 8d bd 5a 7f c6 be 47 ab dd bd 26 de a0 bd
       -0.06932612 -0.38769037 -0.10823684 -0.078548715
000080 97 c5 5c be 84 b1 40 be 4b e9 0f be 81 c9 11 be
       -0.2155975 -0.18817717 -0.14053838 -0.14237024
000090 d7 1e dd be 39 61 ae bd d7 cc 47 be 94 8e 09 be
       -0.4318759 -0.085146375 -0.19511734 -0.13433295
0000a0 02 18 fe bd d6 e0 e1 be bf e8 69 3c b6 3f 98 be
       -0.12406923 -0.4411685 0.014276682 -0.29736108
0000b0 ec 7d 7d bd d8 20 55 be a2 6a d0 be ea 7f ff bd
       -0.061887667 -0.2081331 -0.40706354 -0.124755695
0000c0 36 15 58 be 08 41 9c be 56 bd 77 be 02 75 59 bd
       -0.21101841 -0.30518365 -0.2419332 -0.053090103
0000d0 58 fe a3 bd 1d 30 c1 be df 36 de 3d cf 89 af be
       -0.080074966 -0.3773202 0.108503096 -0.34284827
0000e0 ce 8d 30 be 40 44 84 bd 78 de 37 be fb 49 3b bd
       -0.17241594 -0.0645833 -0.17955959 -0.04572485
0000f0 a8 f1 52 be 5a ed 56 be 18 67 1a be 2a 33 76 bd
       -0.20599997 -0.2098898 -0.1507839 -0.060107388
000100 11 97 b1 bc 34 9e 61 3d a8 29 27 be 27 24 05 3d
       -0.02167848 0.055082515 -0.16324484 0.03250518
000110 d1 11 5c bc 19 d5 11 be 77 3e ac be 1b 9b 80 be
       -0.013431982 -0.14241447 -0.33641407 -0.25118336
000120 45 bc b4 3c c8 cf dd be 68 6f 95 be 41 06 d7 bd
       0.02206243 -0.43322587 -0.2918656 -0.1049924
000130 4e 25 cf bd 0d 0a d5 bd 28 ee 9b 3d 4d dc ef bd
       -0.10114537 -0.10402308 0.07613784 -0.11711941
000140 e3 e6 97 bd a6 64 af bd 04 34 4c be 13 67 33 be
       -0.07417085 -0.08564119 -0.19941717 -0.17519788
000150 4f 44 ea bd 73 5b a8 be f4 d4 e9 be 42 a8 a0 be
       -0.1143881 -0.3288227 -0.45670283 -0.3137837
000160 3a aa b2 be b4 d9 2d 3e 88 35 ef 3c 9d 3d 07 bf
       -0.34895498 0.16977578 0.02920033 -0.5282839
000170 92 f7 c7 bd 09 78 f2 bd 79 e8 50 bd b3 c5 25 be
       -0.09764017 -0.11839301 -0.051002953 -0.16188698
000180 20 e4 a4 bc be 78 94 be 41 04 37 bd 93 b6 5d bd
       -0.02012831 -0.2899837 -0.04468179 -0.054129194
000190 a6 e3 51 be a8 f8 9c be 3b 56 e3 be e8 f3 d3 bd
       -0.20496997 -0.3065846 -0.44401726 -0.10349256
0001a0 9d fb c3 be 47 53 18 be d2 ed 96 be cf e8 8c bd
       -0.38277903 -0.14875518 -0.29478317 -0.06880342
0001b0 ae fc 7c bd 02 a3 c2 bd 43 60 0d bf da 9a c0 be
       -0.06176441 -0.095037475 -0.5522501 -0.37618142
0001c0 0b 76 1b be 3d 09 fb bd 66 e1 84 be dc fe 18 be
       -0.15181749 -0.122576214 -0.25953215 -0.14940971
0001d0 56 e8 0d be 42 2d d6 3c 8c c5 0f bf c3 79 0e bd
       -0.1385816 0.026144627 -0.5616081 -0.03478409
0001e0 3a e1 1a be d8 a0 3d be a5 54 b6 bd d7 23 e0 3d
       -0.1512498 -0.18518388 -0.089028634 0.10944336
0001f0 fd 99 ab be d4 82 96 be 6a d9 e7 bd 1c e9 54 be
       -0.3351592 -0.2939669 -0.11320765 -0.20792049
000200 5f 91 f7 bd b3 28 8c bd e3 66 02 bf 07 cb a1 bd
       -0.12088274 -0.068437 -0.5093824 -0.079000525
000210 d1 32 01 be 92 71 b4 bd e8 ab d6 be 88 f1 83 be
       -0.12617041 -0.08810724 -0.4192803 -0.2577021
000220 64 85 1d be 13 2d 97 be 84 5d 60 be 1e a4 ae be
       -0.15382916 -0.29526576 -0.21910673 -0.34109586
000230 73 fa e6 be da 07 58 bd 8a 9d ac 3b 07 a2 e0 3b
       -0.45112953 -0.052741863 0.0052678036 0.0068552527
000240 30 62 42 be 77 12 99 be 35 53 a0 bd 8e f2 8f bd
       -0.18982768 -0.298969 -0.078283705 -0.070286855
000250 1b 8a b4 be 73 46 c3 bd 28 f6 02 bd c9 6a 00 bf
       -0.35261616 -0.095349215 -0.031973034 -0.5016294
000260 b7 4a ff bd fb d1 9c 3d f1 a0 d0 be f2 b4 8c bd
       -0.124654226 0.07657238 -0.4074779 -0.0687045
000270 ed 3c 1b 3c 8b 99 06 be 22 d2 3d bd b1 22 11 be
       0.009474975 -0.1314451 -0.046342976 -0.1417339
000280 84 41 df be 9a b0 78 be 05 6a 40 be 61 91 9e be
       -0.43604672 -0.24286118 -0.18790443 -0.3097029
000290 0a 4f 13 be 3e 76 ea bd 19 db e9 bd 84 81 85 be
       -0.1438562 -0.11448334 -0.11418743 -0.26075375
0002a0 81 c8 8d bd 1e 5d 53 3d 7a b1 bd be 68 4e 27 be
       -0.06923009 0.051602475 -0.37049466 -0.16338503
0002b0 58 f8 00 be e6 53 43 be 74 02 3f be 1e 0b 72 be
       -0.12594736 -0.19074973 -0.1865328 -0.23637053
0002c0 b9 08 5c be e0 03 98 bd a8 21 69 bd ea 64 d4 be
       -0.21487702 -0.07422614 -0.056916863 -0.4148324
0002d0 da 63 81 3d bc 77 61 be 73 7c 0d bf a5 3d 50 be
       0.06317873 -0.22018331 -0.5526802 -0.20336016
0002e0 e0 1b a8 be 7e 43 b0 bd 07 9a 0e bd da 85 9e be
       -0.32833767 -0.08606623 -0.03481486 -0.30961496
0002f0 af bb ab be 26 a7 88 be 70 d8 bd be 64 a2 a1 3b
       -0.3354163 -0.26690024 -0.3707919 0.0049326885
000300 fa f6 e0 bd ad 73 af bd b4 17 c4 bd 10 22 20 be
       -0.10984607 -0.08566985 -0.095748335 -0.15637994
000310 c8 86 b8 be 0a 67 8d be 58 10 f1 3c 63 e8 93 bd
       -0.3604033 -0.27617675 0.029426739 -0.072220586
000320 f8 58 a9 3d 83 61 da bc ac 96 ef be d5 ba db be
       0.082689226 -0.026657825 -0.4679464 -0.4291598
000330 f8 df 05 bd 87 9c a7 3d 07 7c 98 bd 22 eb d5 be
       -0.032684296 0.08184152 -0.07445531 -0.41780955
000340 d0 7c 6d be 30 63 8e bd df f3 34 bd c2 45 e8 be
       -0.23192143 -0.06952512 -0.044177886 -0.4536572
000350 5b 80 e3 bd b2 77 0d be b3 4b 08 be 2b b7 93 bc
       -0.11108466 -0.13815191 -0.13310127 -0.018031677
000360 bd 0c 04 bf ea 67 8d bd 3f b0 67 3d 88 85 63 be
       -0.5158194 -0.06904586 0.056564566 -0.22218907
000370 ea c0 e3 be 64 f7 2d be 5c 87 66 be 86 56 97 be
       -0.4448312 -0.16988903 -0.22512573 -0.295582
000380 20 66 a0 be 9d 17 c9 3d fb b4 43 be cf 49 2f be
       -0.31327915 0.09818957 -0.19112007 -0.17118
000390 6e f7 54 be 01 56 9c bd f3 1e 12 3d ba 64 34 be
       -0.20797512 -0.076335914 0.035674047 -0.17616549
0003a0 9d f6 84 be 95 e6 7a bd 0c a4 57 be d0 3f bb bd
       -0.259694 -0.061255056 -0.21058673 -0.09143031
0003b0 7a 5e ca bd 86 b6 ad be b7 3b c7 be 63 4c e7 bd
       -0.09881301 -0.33928317 -0.38912746 -0.112938665
0003c0 d4 e0 45 be ac 8a b3 be 4d 8a f6 be b9 a1 3c be
       -0.19324046 -0.35066736 -0.4815239 -0.18421067
0003d0 1d 81 ba be c9 34 a9 bd f2 68 5b be 1e 6b 3e be
       -0.3642663 -0.08262021 -0.21426752 -0.1859555
0003e0 6a 82 8e bd d5 ef c4 bd 52 27 fb bd 34 d2 ab bd
       -0.06958468 -0.09616057 -0.12263359 -0.083897024
0003f0 8f 57 0d bd ad 92 4f be 31 e8 ad be 7f 41 87 be
       -0.03450733 -0.20270796 -0.3396621 -0.26417157

action_model._discrete_distribution.branches.0.weight f4 [4, 512]
000000 7c 9a 19 3d c8 a1 fd bd 73 08 64 bc 14 c4 5a bd
       0.037500843 -0.12384373 -0.01391803 -0.05340965
000010 96 74 d5 3d 2b 93 33 bc cd f1 c9 bc 1d 4c 32 3c
       0.10422628 -0.010960381 -0.024651432 0.010882405
000020 89 96 26 3b 30 fd 5a bd a8 c3 30 3e 46 95 88 3d
       0.0025419316 -0.053464115 0.17262137 0.06669097
000030 35 2f d8 bd a9 d8 52 bd a6 d7 8c bc 22 1b 18 3e
       -0.10555879 -0.051476154 -0.017192673 0.148541
000040 01 6f dc bc 46 5c 92 3d 41 98 f0 bd 73 ce 97 3d
       -0.0269084 0.07146506 -0.1174779 0.07412424
000050 c9 7f dc bd ee 72 09 3e be a5 fe bd 37 a3 b9 bd
       -0.107665606 0.13422748 -0.124339566 -0.09064334
000060 08 9f 51 bd b1 f7 e3 3c 73 d0 f4 3c 3d 10 e3 3c
       -0.051177055 0.02782807 0.029884553 0.027717704
000070 7b 94 c3 3c 37 93 45 bd 33 c5 21 3d 9f b8 9c 3b
       0.023874512 -0.0482361 0.039494704 0.0047827507
000080 2e ed 13 3d da 31 c0 bd c1 17 89 bd b4 7b 0f bc
       0.036114864 -0.093845084 -0.06693984 -0.0087575205
000090 cd 84 ef bb ee 34 94 3c cf 08 8c bc 0e 63 06 3d
       -0.0073095323 0.018091645 -0.017094044 0.03280931
0000a0 30 76 91 bd 95 05 03 3c ee 51 4c bd 61 0b 2c be
       -0.071026206 0.007996936 -0.04988282 -0.16801216
0000b0 32 bf d7 3d b4 18 4d 3d a0 11 9b bd ca c5 04 bd
       0.105345145 0.050072387 -0.07571721 -0.03241519
0000c0 49 cd 65 bd 9a 17 9b bd 4d 7d 75 3d 10 b5 40 bd
       -0.05610398 -0.07572861 0.05993395 -0.047047675
0000d0 73 b3 97 bd b8 ef ba 3b 00 51 d4 3c a8 1f d6 bd
       -0.07407274 0.0057048462 0.02591753 -0.10455257
0000e0 b6 7e 60 bd 9d 53 f6 3c 45 96 9a bd 21 7f 69 bc
       -0.05480834 0.030069167 -0.07548193 -0.014251501
0000f0 95 fd 20 3d e6 20 0d bd 11 11 3c 3c b3 73 5e bd
       0.039304335 -0.034455203 0.011478678 -0.054309558
000100 98 e3 07 bc a9 bd 8d 3d 21 22 c9 3c b9 54 1f 3d
       -0.008294009 0.069209404 0.024552407 0.038899157
000110 54 f5 7e 3d e8 e4 a2 3d 4d 82 8c bc d0 95 f9 ba
       0.062245682 0.07953817 -0.017151976 -0.001904184
000120 8a ef 7d 3d 33 4e 69 bd 60 fd 69 3d 62 2f 51 bc
       0.06199602 -0.056959342 0.057126403 -0.012767645
000130 d8 be f0 3c e8 3d c9 3d b6 58 e1 3d 37 73 06 3e
       0.029387876 0.09826261 0.110032484 0.13129888
000140 09 3d 1c bd 78 2f 75 3d 94 db de bd 4b 0c 04 bd
       -0.038144145 0.059859723 -0.10881725 -0.032238286
000150 90 01 27 3d b5 e0 5b bd ab e3 97 bc fc 42 ee 3a
       0.040772974 -0.053681094 -0.018541178 0.0018177922
000160 8f c4 91 3d d8 71 e9 3d ca f4 1d 3c a2 5a d6 bc
       0.07117569 0.11398667 0.009640882 -0.026166264
000170 f0 73 e3 bd e9 f8 48 3d 4d 32 1f be 4b 81 d7 bd
       -0.11106098 0.049065504 -0.15546532 -0.105227076
000180 aa 54 d0 3c a1 db 26 bd 95 60 cb 3d 27 04 f5 bd
       0.025430996 -0.0407368 0.09930531 -0.119636826
000190 f8 7f 46 3c 41 8c bc bd 68 b9 92 bd 9c 2f 44 be
       0.012115471 -0.09206439 -0.0716427 -0.19158787
0001a0 da d4 35 3d 15 5b 28 3b f3 b1 79 bb ce e8 c6 bc
       0.044392444 0.0025689055 -0.003810045 -0.024280932
0001b0 f3 94 87 3b 3d b9 d6 bc 2b 5f 12 bd 89 25 fb bd
       0.004137629 -0.026211375 -0.03573529 -0.12263019
0001c0 8e ca f6 bd a3 6c ec 3c 08 22 e9 bd b5 c0 c0 3d
       -0.12050353 0.028860396 -0.11383444 0.09411756
0001d0 1d a1 b2 3b 25 e8 6c bc 56 02 ca bd d2 48 65 bd
       0.005451335 -0.014459644 -0.09863727 -0.05597765
0001e0 de 6a d0 bb 3a 00 d5 bd 06 d9 e1 bc 6d 7a 00 3a
       -0.006360396 -0.10400434 -0.027569305 0.00049010554
0001f0 17 27 86 bd e1 75 87 bd ca 7e 40 ba 6c 26 4a 3e
       -0.065504245 -0.066142805 -0.0007343112 0.1974122
000200 79 be ca b9 12 af b6 3b 3f 91 8b 3c 9b 06 dd bd
       -0.00038670356 0.005575069 0.017037032 -0.107922755
000210 c1 0d 6f ba 70 65 a6 3d 5f 3a c2 bc 7e 5c 04 3c
       -0.0009119176 0.081248164 -0.023709474 0.0080786925
000220 e8 67 b6 bb ce 66 3f bc b0 23 0c bd 16 02 21 bd
       -0.005566586 -0.011682225 -0.03421372 -0.03930863
000230 81 a8 ca bd cf 91 a0 bd 55 83 d5 b9 12 f2 14 3d
       -0.09895421 -0.07840311 -0.00040724376 0.03636367
000240 2c 34 38 3d bb 1c de 3c 15 17 8c bd 1c 6d bb bd
       0.04497163 0.02711331 -0.0684034 -0.0915167
000250 72 c0 e4 bd c3 ea d7 bc 58 aa 5b 3c e7 eb 0d bd
       -0.111695185 -0.02635706 0.013407312 -0.034648802
000260 f0 4a 65 3c 39 ee ee bd 1b 0c 7c bd 60 fc 2c be
       0.013994917 -0.11666531 -0.061534982 -0.16893148
000270 6b dd 67 3c fa cb 9b 3d 51 0b bb 3c a4 ce 0c bc
       0.014151911 0.07607265 0.022832545 -0.008594189
000280 ea 68 03 be 03 d9 ca 3d ca b6 3d 3c 82 f2 29 be
       -0.1283299 0.09904673 0.011579225 -0.16596416
000290 a5 fb 3d bd 41 12 06 bd a7 18 6b bd 2f 09 af ba
       -0.046382565 -0.032732252 -0.057396557 -0.0013354177
0002a0 41 98 15 bd 63 dc c9 3c 18 16 30 be 30 db 9f bd
       -0.036522154 0.024641221 -0.17195928 -0.078054786
0002b0 fe c1 17 be 54 a4 91 bb 31 3b 0d 3d e6 f7 33 bd
       -0.14820096 -0.0044446383 0.034480277 -0.043937586
0002c0 10 ae 19 3c 3c c5 80 bd b6 bc 06 3e 8e bc 55 3b
       0.009379879 -0.062876195 0.13157925 0.0032613608
0002d0 e2 ff 92 bd 6d 8b 00 be 53 69 50 bd 76 3a 31 be
       -0.07177712 -0.12553187 -0.050881695 -0.17307457
0002e0 e4 d3 f6 bc f4 cb b7 3c a2 f1 ad 3a 61 b8 ec bd
       -0.030130334 0.02243612 0.0013270865 -0.11558605
0002f0 37 21 cc 3c 81 32 a5 bd ba a3 2d 3d 3c 80 c4 3c
       0.024918182 -0.080662735 0.04239247 0.023986928
000300 9b b2 c1 3d ff 18 37 bd be 05 d0 bd 0b e6 54 3b
       0.094578944 -0.044701573 -0.10157345 0.003248575
000310 d4 db a5 bd 5e 3e 36 bd b4 2a 90 3c c7 19 10 3c
       -0.080985695 -0.04449307 0.017598487 0.008795208
000320 4c 18 6a 3d 9e e5 3e 3e 9e 3f d9 bd b8 80 4c 3d
       0.057152078 0.1864228 -0.10607837 0.049927443
000330 78 b6 d1 bc e5 a4 42 bd 44 42 9c bd 61 fb d6 bd
       -0.025599703 -0.047520537 -0.07629827 -0.104971655
000340 18 53 87 3d ab 14 27 3e 88 b1 2e 3d d8 64 12 3d
       0.06607646 0.16316478 0.042649776 0.035740703
000350 12 27 4a bc 05 9b c0 3d 51 43 ea bd 3a 2a 71 3c
       -0.012338417 0.09404568 -0.11438621 0.01471954
000360 7b 36 f0 bc 4f 27 c6 bd a1 0d 04 3d f2 d0 ac bc
       -0.029322853 -0.09675466 0.03223956 -0.021095727
000370 d2 6e 77 3c 8c 86 53 3d 12 30 26 3d 3f a6 37 bd
       0.015102105 0.051641986 0.040573187 -0.04483628
000380 83 4a c8 3d a4 e7 0d 3e fc d9 70 bd c1 5f 0a 3e
       0.09779837 0.13857895 -0.058801636 0.1351309
000390 a2 48 eb bc 53 1e 0a 3e 03 00 ad 3d 5a a8 53 3e
       -0.028721157 0.1348813 0.08447268 0.2066969
0003a0 bc ea 49 3d dd 7a 24 3d 92 74 c3 bd a4 3b f7 3d
       0.049296126 0.040156234 -0.095437184 0.120719224
0003b0 67 60 04 bc d7 6e a1 3d dc 15 6f bd 44 3c 00 bd
       -0.008079625 0.07882469 -0.058370456 -0.031307474
0003c0 ca da 18 bd 12 27 e3 3d 64 61 30 bd 05 6c 0b bc
       -0.03731803 0.110914364 -0.04306163 -0.008509641
0003d0 f3 9a 17 bd 38 7b 90 3d aa a1 ee 3c 8f ed ae bb
       -0.037013005 0.07054752 0.029129822 -0.005338378
0003e0 ca 13 9d bd db 50 00 3d 5b 23 29 be 37 60 b9 bc
       -0.0766979 0.03132711 -0.16517393 -0.022628887
0003f0 e4 c2 d0 3d 67 37 5f 3d f6 37 8d bd 03 3a e8 bd
       0.101934224 0.054496195 -0.06895439 -0.1133919

action_model._discrete_distribution.branches.0.bias f4 [4]
000000 33 e9 0d 3d 89 4d a4 3c 4a b0 09 be ca e6 fe 3d
       0.034646224 0.020056503 -0.13446155 0.12446363

action_model._discrete_distribution.branches.1.weight f4 [5, 512]
000000 7d 37 67 3d 21 5c 45 bd 98 0f 03 bd 84 54 42 bd
       0.056449402 -0.048183564 -0.031997293 -0.04744388
000010 1a 78 37 3d 09 df 91 bd 9c ad da 3d cb e2 e8 3d
       0.044792272 -0.07122619 0.106776446 0.11371382
000020 41 33 62 bd f7 69 d1 bb 13 ad c1 3c 96 dd d0 bd
       -0.05522466 -0.006390806 0.023642099 -0.10198514
000030 09 5b d5 bd ba c4 c6 bc 50 59 aa 3c 31 83 b2 3d
       -0.10417754 -0.024263728 0.02079454 0.08716429
000040 ef 11 ab bd 6a 39 e5 ba 45 5b 07 3d e8 70 0a 3d
       -0.0835303 -0.0017488424 0.033046026 0.033799082
000050 7c 0a 0f bd e1 b4 e1 bb 7d a2 5e 3d f7 aa cd ba
       -0.034922108 -0.0068880175 0.05435418 -0.001569121
000060 5e 85 cd bc 8e 95 1f b9 1f 7f 4c bc 93 fb 88 3d
       -0.025088008 -0.00015219135 -0.01248148 0.06688609
000070 bc 83 ad 3d c4 82 ca bd cb 28 75 3c 93 e6 09 bd
       0.08472392 -0.09888223 0.014963339 -0.03366716
000080 4c f4 7d 3c 74 33 c9 bd 07 4a 8d 3d 02 d9 93 bd
       0.015500139 -0.09824267 0.06898885 -0.07219125
000090 3a fe a1 bb e0 3a 09 bd 04 f8 c8 3d b3 c1 b2 3d
       -0.0049436362 -0.033503413 0.0981293 0.087283514
0000a0 98 4a 6b bd 7d 1a da bc 57 da bc 3d e4 bb af bc
       -0.057444185 -0.026623959 0.092213325 -0.021451898
0000b0 7a e5 b8 39 bf b8 f5 bc 55 21 5e bd a1 5c 54 3d
       0.00035266188 -0.02999532 -0.054231007 0.05184615
0000c0 46 6a 85 bc 5c 1b bb bd 9a 50 f8 3b dd db 14 3b
       -0.016286027 -0.09136078 0.007577968 0.0022714057
0000d0 32 a9 26 bd 25 f8 9b bd e9 ec 2d 3c 1d 8c dd bc
       -0.0406887 -0.07615689 0.010615566 -0.02704435
0000e0 f7 1b 68 3d 2c b9 c1 bc af b9 af bd 66 73 32 bd
       0.056667294 -0.023647867 -0.08580338 -0.043567084
0000f0 eb fd 39 3d b4 40 f3 3c d5 e3 75 bd fc 78 b6 3d
       0.04540817 0.029693939 -0.06003173 0.08909795
000100 07 42 f8 3c 3e 78 15 3d 8c 74 fe 3c 5a 6d 59 bd
       0.030304922 0.036491625 0.031061433 -0.0530828
000110 71 23 bd bc 3b 55 a1 3d 48 c6 26 be b9 3e d4 bc
       -0.023088189 0.078775845 -0.16286576 -0.025908815
000120 69 47 ca 3d 90 9c b2 bc 71 57 13 be 11 e6 80 bd
       0.09876902 -0.02180317 -0.14388825 -0.06293882
000130 5b 54 ef 3d 5a ba 0b 3d f7 17 c1 3c 92 60 b9 3b
       0.116860114 0.034113266 0.023570998 0.005657264
000140 82 12 9b 3d 85 d2 8f 3c 21 81 ae 3c 99 0e 57 3d
       0.075718895 0.017556438 0.021301808 0.052504156
000150 2c fd 91 3d e6 28 9e bd 8c 7a 11 be 28 7d c8 bc
       0.07128367 -0.077226445 -0.14206904 -0.024473742
000160 91 16 40 bd e1 9c 9f 3d 0b be 45 3d 12 e0 2e 3c
       -0.04689652 0.07793594 0.048276942 0.01067354
000170 3f 74 c0 bc 16 29 83 3d ee 01 5b 3b 8e 92 fe bd
       -0.02349293 0.06404321 0.0033417898 -0.12430297
000180 45 ab f7 bb 17 e5 06 be 1d a9 d4 3c 72 e7 d7 3d
       -0.0075582587 -0.13173328 0.025959546 0.105421916
000190 02 74 ed bd 32 ef fa bd e4 f8 aa bd ad 33 b1 3d
       -0.11594392 -0.12252654 -0.08348253 0.086524345
0001a0 44 95 da bd 9a 81 a5 bc d4 1e c7 3c 3d 09 f2 3d
       -0.106730014 -0.0202034 0.024306692 0.11818168
0001b0 bc e2 f5 3d e7 b1 e6 3d 17 83 a0 3b 1c 17 4b bd
       0.12006137 0.11264401 0.0048984396 -0.049582586
0001c0 66 5c 79 3d fb 7e b0 bb eb 89 f0 bd 2c 6e 0b 3e
       0.060879134 -0.005386231 -0.11745056 0.13616246
0001d0 28 38 0c be 1c 89 86 3d 5f a3 76 bd a1 a3 2e bc
       -0.13693297 0.0656912 -0.060214397 -0.010659129
0001e0 0d 63 bb bd a8 b7 2a be e2 bb 03 bd c1 8f e8 3d
       -0.09149752 -0.16671622 -0.0321616 0.11355544
0001f0 b4 e5 5d bd c3 c2 85 bd 9f 4b 80 bb 69 62 8b 3c
       -0.05417414 -0.065312885 -0.0039152647 0.017014699
000200 e5 af d9 3c a3 2b bc bd 6c 3d 3c bd 2a 1d d0 bd
       0.02657313 -0.091880105 -0.045957014 -0.101618126
000210 7a 06 3e 3c eb 0e a2 3d 6f 52 20 be 8b 59 c1 bc
       0.011598224 0.079130016 -0.15656446 -0.023602268
000220 f8 c4 8c 3d bb 5a bd bd 04 3b f9 bc 8c ae 20 bd
       0.06873506 -0.09245821 -0.030423649 -0.03922896
000230 4a d6 dc bd d4 14 a4 3b cc bf 83 bc a3 c4 3a bd
       -0.1078306 0.0050073657 -0.016082667 -0.045597684
000240 b3 e6 a2 bc b3 02 1e bd 04 87 9d bb 46 7c 1a 3e
       -0.019885397 -0.038576793 -0.004807355 0.15086469
000250 2b d6 2d bd d3 22 a5 bd 0c 72 46 bc 06 93 8b 3c
       -0.042440575 -0.08063283 -0.012112152 0.01703788
000260 06 02 5d 3d f4 fc 97 bc 3a 38 2a bd 00 ed b2 3d
       0.053957008 -0.018553235 -0.041557528 0.087366104
000270 20 70 23 3a 6d d9 87 3d 15 b5 d7 3d 6d 94 2f 3d
       0.00062346645 0.066332676 0.105325855 0.04286616
000280 27 6e f1 bc 9f 2c 39 bd 96 18 83 bc ef 13 81 bd
       -0.02947147 -0.04520857 -0.016002934 -0.0630263
000290 08 6f d3 bd a4 fb ee 3c 42 1b a6 bd 5d 31 96 3b
       -0.10323912 0.029172726 -0.08110668 0.0045835213
0002a0 01 5d 98 bc e5 3b 08 3d d1 47 ad bd 21 49 41 3c
       -0.018599035 0.033260245 -0.084609635 0.01179722
0002b0 9c fe 0c be 3f 96 78 bc 5a 62 e9 3d ec 80 2b 3c
       -0.13769001 -0.01517254 0.11395712 0.010467749
0002c0 ba 78 da 3b a2 2d 30 3c 71 ed bc 3d 49 d0 24 be
       0.0066672238 0.010753067 0.09224976 -0.1609508
0002d0 2c 28 18 bd 0c fb 8a 3d e0 c0 bf 3b 53 ed 91 bc
       -0.037147686 0.06786165 0.00585185 -0.01781336
0002e0 66 3d 96 bd a7 0d 3a bd 11 c8 0d 3e e3 27 28 bd
       -0.073359296 -0.045423176 0.1384585 -0.041053664
0002f0 e0 a3 33 3d f8 9e 50 bd 7e ee e2 bc 37 64 87 3d
       0.043857455 -0.050932854 -0.027701613 0.06610911
000300 5b dd 7b bd d6 45 56 bc db e5 ce 3d c9 f0 8a bd
       -0.061490398 -0.013078174 0.10102435 -0.067842074
000310 b2 d0 02 be f7 3b eb bb 5a 82 7e 3b 55 cd 9d bd
       -0.12774923 -0.007178779 0.003883502 -0.077051796
000320 18 32 8c 3c e4 97 a9 3c 8a 5a 9a bd 59 6f be bd
       0.01711373 0.02070231 -0.075368 -0.09298582
000330 66 11 57 3d dc 66 2c bd 73 47 fb 3c 07 f6 89 bd
       0.052506827 -0.04209028 0.030673718 -0.06736379
000340 16 14 c6 bc a7 c9 36 3e e8 65 ab 3c 46 68 97 bc
       -0.0241795 0.17850362 0.020922616 -0.018482339
000350 c2 7d 01 be cb 2b 3b 3d 9e eb 1a 3c 87 bd ac bc
       -0.12645629 0.04569606 0.00945559 -0.021086467
000360 27 f5 6e bd 19 34 ec bb 8e 56 db bc 9d 9c 23 3d
       -0.058339264 -0.007208359 -0.02677467 0.03994428
000370 f7 55 23 3d 4f b5 ff 3c ed a4 df bc 26 3a 58 3d
       0.039876904 0.031214384 -0.027300322 0.05278983
000380 0d 22 5d bc 2b 76 04 3c a1 4f 97 bd b0 81 98 bd
       -0.013496888 0.008084814 -0.07388235 -0.07446611
000390 a5 74 4c be 07 45 8b 3c d0 ad 25 3e f3 bb 71 3d
       -0.19966371 0.017000688 0.16179585 0.059017133
0003a0 80 5a dc bc 04 df da 3c 3f 2b f8 bd 3d 00 02 bd
       -0.026898623 0.02671767 -0.121176235 -0.03173851
0003b0 87 e8 4f bb d3 50 8a bc 77 cd ce bd 4e 7a 02 3e
       -0.003172429 -0.016884243 -0.10097783 0.12741968
0003c0 14 b3 0f bd e8 de ae 3d e9 51 c3 bc 66 13 33 be
       -0.03508289 0.0853861 -0.023842769 -0.17487869
0003d0 77 88 05 be 24 e0 60 3d 53 98 24 bc 93 52 d0 bc
       -0.13040338 0.054901257 -0.010046083 -0.02543
0003e0 9e e4 da 3d f1 1d 13 3e d7 59 a4 3b d8 97 7e 3d
       0.106881365 0.1436689 0.0050155926 0.06215653
0003f0 f9 4a 97 3d 3b d8 4a 3d ee 3f 03 3d 3c 95 b1 bc
       0.07387347 0.04952262 0.03204339 -0.021677606

action_model._discrete_distribution.branches.1.bias f4 [5]
000000 28 69 4a 3d dc a3 91 3c cc 3a 97 3d 7a 98 3c bc
       0.04941669 0.01777833 0.073842615 -0.011510963
000010 55 f7 b1 3c
       0.021724382

exp_avg f4 [512, 40]
000000 00 00 00 00 d8 41 42 b8 04 00 e6 36 4c 8b 27 b8
       0.0 -4.6314526e-05 6.854536e-06 -3.9945633e-05
000010 6c be 5c b8 00 00 00 00 14 73 9d b8 10 bd 64 b4
       -5.262943e-05 0.0 -7.507778e-05 -2.1302935e-07
000020 e8 11 8a b6 41 ff 3f b8 00 00 00 00 86 d9 1e b8
       -4.114805e-06 -4.5775672e-05 0.0 -3.787272e-05
000030 82 93 c6 b5 fc fe 27 b8 73 d0 79 b8 00 00 00 00
       -1.479508e-06 -4.0053375e-05 -5.956036e-05 0.0
000040 09 6a d6 b8 94 60 3c b6 f9 19 d7 37 7c cb 96 b8
       -0.00010224066 -2.80704e-06 2.5642092e-05 -7.190459e-05
000050 00 00 00 00 f1 73 50 b8 f7 04 85 36 ce 39 0d b8
       0.0 -4.9699043e-05 3.964287e-06 -3.3670854e-05
000060 c6 ce 8c b8 00 00 00 00 81 a6 16 b8 b1 52 48 b6
       -6.714235e-05 0.0 -3.5917856e-05 -2.9850455e-06
000070 6e e1 29 b8 0e b2 94 b8 00 00 00 00 44 e1 9b b8
       -4.0502688e-05 -7.090355e-05 0.0 -7.432935e-05
000080 a4 51 60 b6 94 af e8 b5 1e 59 ac b8 f3 ba 5e 38
       -3.3426122e-06 -1.7336447e-06 -8.2181985e-05 5.3103035e-05
000090 35 fc 5d ba 9a cd f5 b7 78 16 81 ba 6c 5b 46 b9
       -0.0008468063 -2.9302017e-05 -0.0009848615 -0.00018916809
0000a0 00 00 00 00 c2 6d 7e 37 3e 6e 99 32 8a d1 00 33
       0.0 1.5165135e-05 1.7861677e-08 2.9992897e-08
0000b0 a3 99 01 37 00 00 00 00 ac dc 87 37 64 9c 60 b3
       7.7247705e-06 0.0 1.6196012e-05 -5.22963e-08
0000c0 03 d7 79 b5 1e dd 1c 37 00 00 00 00 79 bc 7c 37
       -9.307261e-07 9.349807e-06 0.0 1.5064253e-05
0000d0 a7 0a ce 32 19 f3 05 34 77 d2 00 37 00 00 00 00
       2.39864e-08 1.2475029e-07 7.678397e-06 0.0
0000e0 c0 9c 84 37 0b 58 f7 b2 93 28 18 b5 da 48 72 37
       1.5808619e-05 -2.8794622e-08 -5.6683456e-07 1.4441286e-05
0000f0 00 00 00 00 a3 b5 77 37 bd fc 4c 33 45 15 d7 34
       0.0 1.4764638e-05 4.7727315e-08 4.0062346e-07
000100 4a 54 17 37 00 00 00 00 ec a2 d8 b2 5a 88 c5 b2
       9.019926e-06 0.0 -2.5219798e-08 -2.2995824e-08
000110 31 05 80 37 87 a4 80 37 00 00 00 00 97 3f 74 37
       1.5261206e-05 1.5335403e-05 0.0 1.4558339e-05
000120 ba 28 0b b3 cc 6d 38 35 86 ec 52 37 5c c6 ce b5
       -3.24005e-08 6.8705117e-07 1.2572045e-05 -1.5405926e-06
000130 6f 89 42 37 75 fd a4 b6 6f af 29 b8 cb 17 f0 b6
       1.15953e-05 -4.917087e-06 -4.0456125e-05 -7.1553272e-06
000140 00 00 00 00 ce 13 e6 37 e4 71 f4 32 dc e4 4b b7
       0.0 2.7427359e-05 2.845713e-08 -1.2153028e-05
000150 d4 d8 b8 b3 00 00 00 00 b0 53 1b 38 af f8 1b 35
       -8.6076085e-08 0.0 3.703282e-05 5.810388e-07
000160 a9 28 bb b7 99 ee 4c 36 00 00 00 00 c6 61 06 38
       -2.2311071e-05 3.053725e-06 0.0 3.203915e-05
000170 d0 19 7b 33 9f e2 8c b7 da 28 77 b5 00 00 00 00
       5.8463968e-08 -1.679483e-05 -9.207412e-07 0.0
000180 08 ea d6 37 60 a5 42 34 ad 21 30 b7 93 14 84 37
       2.5619767e-05 1.8127821e-07 -1.0498258e-05 1.5745207e-05
000190 00 00 00 00 5a f8 cd 37 ec 89 09 b7 b2 4e 8d b5
       0.0 2.4553552e-05 -8.197949e-06 -1.0528222e-06
0001a0 59 bc 12 37 00 00 00 00 3f 70 04 b7 a1 b7 11 b7
       8.746131e-06 0.0 -7.893947e-06 -8.685428e-06
0001b0 35 b9 05 38 15 0d a4 37 00 00 00 00 1a 0a d3 37
       3.188216e-05 1.9556415e-05 0.0 2.5157864e-05
0001c0 49 6f 17 b7 5f 7f 5e b5 13 51 a6 37 b6 9f a6 b7
       -9.026212e-06 -8.2886794e-07 1.9826495e-05 -1.9863113e-05
0001d0 a4 a8 dd 39 f8 03 ed 38 e4 35 9d ba 24 d2 e1 b7
       0.00042278052 0.0001130178 -0.001199421 -2.6919945e-05
0001e0 00 00 00 00 1a 6a ad 36 f9 2d 0d 34 40 0a 4e 36
       0.0 5.1681536e-06 1.3148373e-07 3.0702358e-06
0001f0 ea 98 95 36 00 00 00 00 94 03 f5 36 84 79 9d 34
       4.4583476e-06 0.0 7.3019855e-06 2.9331943e-07
000200 17 ec 4f 35 a8 e4 d2 36 00 00 00 00 6e 9a 0e 37
       7.7457065e-07 6.285107e-06 0.0 8.4998155e-06
000210 54 65 d8 31 00 49 12 b4 20 19 89 36 00 00 00 00
       6.297947e-09 -1.3623867e-07 4.085843e-06 0.0
000220 31 1a cf 36 ea ee 07 30 6d 74 13 36 28 95 21 37
       6.17213e-06 4.945223e-10 2.1972476e-06 9.631076e-06
000230 00 00 00 00 30 8f 3c 37 b1 e9 05 b4 c4 2c 38 b6
       0.0 1.1239012e-05 -1.2471607e-07 -2.7444194e-06
000240 68 35 97 36 00 00 00 00 0c 02 12 b4 87 1d 4a b1
       4.506368e-06 0.0 -1.3598054e-07 -2.9411653e-09
000250 01 c1 0e 37 fa 5b 29 37 00 00 00 00 b7 6d 24 37
       8.508797e-06 1.00946e-05 0.0 9.800707e-06
000260 58 8a 92 b1 7a 78 bf b5 ca 84 d2 36 5e 84 b1 b6
       -4.264887e-09 -1.4265672e-06 6.2739464e-06 -5.2904206e-06
000270 8d 3e c5 37 ba c8 df b4 00 64 03 37 94 4d 45 b6
       2.3513358e-05 -4.1683035e-07 7.8314915e-06 -2.9400444e-06
000280 00 00 00 00 72 3e 62 39 19 1f 1e 34 b2 c6 d2 b7
       0.0 0.00021576302 1.472621e-07 -2.5126476e-05
000290 24 26 e5 38 00 00 00 00 57 38 3f 39 a6 8e 8c 34
       0.00010926675 0.0 0.00018236168 2.6180822e-07
0002a0 27 e8 08 37 31 ec f4 38 00 00 00 00 69 e6 45 39
       8.160284e-06 0.00011678821 0.0 0.00018873219
0002b0 b3 f3 fc b4 a4 4c 29 36 79 17 cd 38 00 00 00 00
       -4.7115972e-07 2.5227573e-06 9.779534e-05 0.0
0002c0 43 76 3c 39 b0 b9 cb 31 9a 54 39 37 55 59 31 39
       0.00017973133 5.929188e-09 1.1046557e-05 0.00016913314
0002d0 00 00 00 00 da 75 36 39 f1 f9 0c b6 81 59 9e 37
       0.0 0.00017400776 -2.100711e-06 1.8876746e-05
0002e0 31 62 eb 38 00 00 00 00 40 d6 55 36 ed 76 60 b5
       0.00011223963 0.0 3.1864183e-06 -8.361956e-07
0002f0 3e 96 45 39 e9 d8 3b 39 00 00 00 00 8b 8f 2f 39
       0.00018843354 0.00017914515 0.0 0.00016742774
000300 1e c4 80 b5 f5 f8 cb 37 d9 ae 1e 39 9a 67 f0 37
       -9.593821e-07 2.4315415e-05 0.0001513319 2.8658473e-05
000310 a4 62 13 3a 7a f1 e9 39 74 96 9e ba 46 e7 ed b8
       0.00056223036 0.00044621137 -0.0012099282 -0.00011344119
000320 00 00 00 00 86 ab dc b7 56 4f 7c 35 5b 40 be 36
       0.0 -2.6305916e-05 9.3992765e-07 5.669933e-06
000330 e6 cf 25 b7 00 00 00 00 80 8c bf b7 81 15 a8 35
       -9.8831715e-06 0.0 -2.28344e-05 1.2523234e-06
000340 3d 23 fd 35 52 b7 28 b7 00 00 00 00 28 06 91 b7
       1.8860225e-06 -1.0056263e-05 0.0 -1.7288214e-05
000350 e9 eb ec b2 a0 bc 1f b6 26 b6 3d b7 00 00 00 00
       -2.7581295e-08 -2.380264e-06 -1.1307688e-05 0.0
000360 14 00 c8 b7 f7 1e eb b3 ee c8 8e 36 c8 41 83 b7
       -2.3841894e-05 -1.0948673e-07 4.255321e-06 -1.5647049e-05
000370 00 00 00 00 3a fc 8b b7 2d 9b cb 35 b2 d9 97 b6
       0.0 -1.6687543e-05 1.5169841e-06 -4.5254938e-06
000380 d2 2a 6c b7 00 00 00 00 ce 7e 8c b6 9c 37 f9 35
       -1.4076666e-05 0.0 -4.187087e-06 1.856813e-06
000390 bc ac 91 b7 59 b9 87 b7 00 00 00 00 7e a3 91 b7
       -1.7365783e-05 -1.6179563e-05 0.0 -1.7361479e-05
0003a0 fe 6b e8 35 e1 70 88 b6 a6 f8 9d b7 92 7c a3 b5
       1.7316777e-06 -4.0662567e-06 -1.8831644e-05 -1.2180701e-06
0003b0 b4 6a 2f b8 e0 fe 48 34 74 ff cc 38 5c 2a 9b 36
       -4.1822626e-05 1.8719174e-07 9.77506e-05 4.6242913e-06
0003c0 00 00 00 00 68 eb bc b9 d8 4b 41 37 83 da bd 37
       0.0 -0.00036033546 1.1521355e-05 2.2632308e-05
0003d0 5d f4 36 b9 00 00 00 00 07 b9 96 b9 6f 12 b7 35
       -0.00017447905 0.0 -0.00028748086 1.3639927e-06
0003e0 5e 0b 28 b8 e4 3f 61 b9 00 00 00 00 05 c6 a6 b9
       -4.0064908e-05 -0.00021481473 0.0 -0.00031809523
0003f0 42 72 88 35 d4 b9 18 b7 e5 f1 2f b9 00 00 00 00
       1.0166043e-06 -9.1031725e-06 -0.00016779413 0.0

exp_avg_sq f4 [512, 40]
000000 00 00 00 00 ab 8c 0a 34 3c a7 7b 32 d6 b6 43 34
       0.0 1.2903426e-07 1.4648148e-08 1.8227306e-07
000010 50 f0 87 34 00 00 00 00 49 b9 2d 34 7c 02 07 33
       2.532056e-07 0.0 1.6179287e-07 3.1434396e-08
000020 e2 1a fa 33 17 4c 7d 34 00 00 00 00 94 d3 0f 34
       1.1646422e-07 2.3590142e-07 0.0 1.3394884e-07
000030 e0 24 68 32 8e d7 41 34 1b 64 72 34 00 00 00 00
       1.3512562e-08 1.8052944e-07 2.2574424e-07 0.0
000040 70 1d 39 34 ff 96 03 33 6c d8 03 34 e1 3f 41 34
       1.7240177e-07 3.0638144e-08 1.227906e-07 1.7997765e-07
000050 00 00 00 00 8c 59 04 34 21 31 8b 32 28 a5 42 34
       0.0 1.2326035e-07 1.6204071e-08 1.8127741e-07
000060 ce 74 6c 34 00 00 00 00 6e ac 27 34 0f 5e 12 33
       2.2021706e-07 0.0 1.5615817e-07 3.407882e-08
000070 10 27 10 34 5e a9 2e 34 00 00 00 00 a0 7e 14 34
       1.3425256e-07 1.6266628e-07 0.0 1.382964e-07
000080 33 f6 e7 32 0a ea 22 34 d9 29 71 34 21 ce 87 34
       2.7003898e-08 1.5172569e-07 2.2460098e-07 2.5295688e-07
000090 2a bd 15 39 0f cd 1b 37 10 99 71 3a 00 54 6a 34
       0.00014280216 9.286464e-06 0.00092162285 2.1823507e-07
0000a0 00 00 00 00 46 57 e8 2e 2f 01 ff 2d 27 ae b5 2e
       0.0 1.05656414e-10 2.899067e-11 8.261863e-11
0000b0 bc 97 13 2f 00 00 00 00 53 8e 2d 2f 4e 0d 38 2e
       1.3423479e-10 0.0 1.5784822e-10 4.1848573e-11
0000c0 b0 78 d8 2d 4e d2 e8 2e 00 00 00 00 b1 08 99 2e
       2.4609953e-11 1.0587496e-10 0.0 6.9591784e-11
0000d0 e5 82 da 2d 7a f2 f9 2e 19 d6 2c 2f 00 00 00 00
       2.484186e-11 1.13662815e-10 1.5719372e-10 0.0
0000e0 76 5c 26 2f ad bb 1d 2e c2 3a 25 2e d1 0a f1 2e
       1.5130461e-10 3.5864357e-11 3.7568844e-11 1.09613325e-10
0000f0 00 00 00 00 f1 f0 6f 2e d8 58 e2 2d 30 48 12 2f
       0.0 5.4556307e-11 2.573268e-11 1.3304269e-10
000100 16 55 35 2f 00 00 00 00 2c f4 cf 2e d8 5b 19 2e
       1.6492083e-10 0.0 9.456644e-11 3.4869746e-11
000110 8a 1a be 2e 72 98 f1 2e 00 00 00 00 6d 67 80 2e
       8.644914e-11 1.0986491e-10 0.0 5.839138e-11
000120 32 a8 13 2e ca ab 07 2f 24 e2 3f 2f 0a 83 08 2f
       3.3573318e-11 1.233921e-10 1.745169e-10 1.2415682e-10
000130 2b e8 fb 32 bc bc fc 31 6f 36 c2 34 f6 ea 1a 2f
       2.9325824e-08 7.355622e-09 3.6174922e-07 1.4089693e-10
000140 00 00 00 00 e4 b1 32 31 2c df b7 30 9c 80 cb 31
       0.0 2.6003528e-09 1.3378432e-09 5.9226988e-09
000150 46 44 08 32 00 00 00 00 38 2a 6f 31 13 37 26 31
       7.9317655e-09 0.0 3.4803076e-09 2.4187485e-09
000160 66 4f 87 31 80 25 e7 31 00 00 00 00 4f 53 05 31
       3.9380437e-09 6.727248e-09 0.0 1.9401403e-09
000170 65 85 45 30 f7 aa f7 31 39 f5 08 32 00 00 00 00
       7.185775e-10 7.2080826e-09 7.971999e-09 0.0
000180 47 8f 96 31 1c 42 42 31 b5 3c 38 31 5d 68 bf 31
       4.3818633e-09 2.8268294e-09 2.6810032e-09 5.5706963e-09
000190 00 00 00 00 42 73 70 31 97 33 57 30 70 81 bb 31
       0.0 3.4990113e-09 7.828986e-10 5.4571316e-09
0001a0 44 c0 ef 31 00 00 00 00 47 68 96 31 ea 56 57 31
       6.9776736e-09 0.0 4.3774295e-09 3.1336023e-09
0001b0 45 66 22 31 c8 53 ad 31 00 00 00 00 39 dc 9f 31
       2.3632236e-09 5.0444875e-09 0.0 4.6525455e-09
0001c0 87 16 18 31 a8 59 49 31 73 17 b8 31 10 90 f4 31
       2.2131716e-09 2.9300313e-09 5.3577707e-09 7.1177126e-09
0001d0 38 36 3b 37 3c c1 c0 36 3f 56 46 38 2c 6b ed 31
       1.1158692e-05 5.7445413e-06 4.72872e-05 6.909792e-09
0001e0 00 00 00 00 e4 d5 02 2f 9a 96 05 2e ef 07 2a 2f
       0.0 1.189942e-10 3.037446e-11 1.5464229e-10
0001f0 b0 28 78 2f 00 00 00 00 6e e3 fa 2e 2c ee fa 2d
       2.2569924e-10 0.0 1.14090834e-10 2.8527479e-11
000200 15 48 30 2f 6c 2e 78 2f 00 00 00 00 04 8b a6 2e
       1.6032715e-10 2.2571961e-10 0.0 7.5735e-11
000210 f7 7a 08 2e 9b 55 50 2f 40 bb 78 2f 00 00 00 00
       3.1032035e-11 1.8947903e-10 2.2621993e-10 0.0
000220 1e 2a 37 2f 76 a2 4f 2e 75 01 c4 2e 5d f4 77 2f
       1.6658716e-10 4.7210645e-11 8.913307e-11 2.2551334e-10
000230 00 00 00 00 8d 9e 1e 2f 7a 92 6b 2e 3c b8 dc 2e
       0.0 1.4426345e-10 5.356291e-11 1.0037168e-10
000240 55 a0 4e 2f 00 00 00 00 18 b9 12 2f 37 19 5f 2e
       1.8792552e-10 0.0 1.3344381e-10 5.0726725e-11
000250 80 04 ef 2e 03 a7 61 2f 00 00 00 00 44 7c 2f 2f
       1.0869261e-10 2.0522965e-10 0.0 1.5960305e-10
000260 d4 c8 83 2e 76 1e 9c 2e 4d 25 32 2f 2b 1e 55 2f
       5.9928645e-11 7.0994696e-11 1.6202258e-10 1.9382955e-10
000270 32 fa 4d 31 71 9a 8f 32 be 1d 66 33 a9 2f 58 2f
       2.9973646e-09 1.6717623e-08 5.35781e-08 1.9662018e-10
000280 00 00 00 00 b4 fd 4d 33 ad 27 bf 30 05 d5 42 33
       0.0 4.7961024e-08 1.3908356e-09 4.5362885e-08
000290 5a 4d 9c 33 00 00 00 00 c2 91 86 33 d2 41 03 31
       7.278386e-08 0.0 6.2663744e-08 1.9100423e-09
0002a0 ab 24 03 33 10 45 70 33 00 00 00 00 f9 79 a5 32
       3.0534164e-08 5.5942166e-08 0.0 1.9263995e-08
0002b0 c9 2b bf 30 f6 b7 9c 33 ba cd b4 33 00 00 00 00
       1.3909524e-09 7.2977784e-08 8.4193246e-08 0.0
0002c0 59 cc b2 33 26 00 ec 30 87 cc 51 32 b0 b6 3a 33
       8.3259415e-08 1.7171302e-09 1.2211905e-08 4.3472653e-08
0002d0 00 00 00 00 c0 8e b9 32 30 f9 67 30 41 48 94 33
       0.0 2.160175e-08 8.4391427e-10 6.90493e-08
0002e0 21 20 ad 33 00 00 00 00 d3 c5 95 33 ad 16 ee 30
       8.0617845e-08 0.0 6.974337e-08 1.7323224e-09
0002f0 c7 28 bd 32 16 01 24 33 00 00 00 00 23 98 32 33
       2.202104e-08 3.8185213e-08 0.0 4.1582222e-08
000300 4e 0d 81 30 ab 44 53 33 26 6f 9e 33 9c 28 81 33
       9.389767e-10 4.918972e-08 7.377666e-08 6.0144174e-08
000310 aa 61 e0 35 b5 bf 9b 38 01 d1 41 39 45 aa 90 33
       1.6717725e-06 7.426684e-05 0.00018483774 6.7364944e-08
000320 00 00 00 00 e7 36 98 30 ad 04 d3 31 f3 97 e7 2f
       0.0 1.107506e-09 6.14144e-09 4.2126622e-10
000330 b2 91 4f 31 00 00 00 00 9b 53 5c 30 08 3c d5 31
       3.0205283e-09 0.0 8.0154344e-10 6.2059407e-09
000340 0d 2a 20 30 ee a6 10 31 00 00 00 00 8f 72 7e 30
       5.826742e-10 2.1049646e-09 0.0 9.256746e-10
000350 08 08 82 31 4d 18 42 31 ac cf a2 31 00 00 00 00
       3.784411e-09 2.824453e-09 4.73843e-09 0.0
000360 1e 3e 3b 30 a9 ab cc 31 70 b7 42 30 92 15 08 31
       6.811848e-10 5.956697e-09 7.083747e-10 1.9802866e-09
000370 00 00 00 00 db fd 5c 30 be 71 53 2f 99 71 e1 31
       0.0 8.0396284e-10 1.9230748e-10 6.5612764e-09
000380 98 5e ea 31 00 00 00 00 2a 20 ee 2f 02 3e d4 31
       6.8210504e-09 0.0 4.3314802e-10 6.1770615e-09
000390 f3 67 7c 30 20 88 18 31 00 00 00 00 e0 e0 63 30
       9.1824787e-10 2.219629e-09 0.0 8.2901686e-10
0003a0 fa be 64 2f b7 e5 e0 31 18 98 eb 31 85 57 85 31
       2.0804328e-10 6.5453736e-09 6.856691e-09 3.8807593e-09
0003b0 a4 34 4d 37 06 2b ec 33 57 b2 cd 37 13 fb 8b 31
       1.22312085e-05 1.0997432e-07 2.452095e-05 4.0739763e-09
0003c0 00 00 00 00 85 2c da 33 c7 c7 3b 33 4e 04 8f 32
       0.0 1.0159514e-07 4.3721027e-08 1.6649349e-08
0003d0 54 c8 b4 33 00 00 00 00 8e 0a 44 33 9d 3a 99 32
       8.418343e-08 0.0 4.5644406e-08 1.7838198e-08
0003e0 48 17 bf 33 c0 42 05 34 00 00 00 00 71 1f fa 33
       8.8983654e-08 1.2410874e-07 0.0 1.1647251e-07
0003f0 d2 6b 16 33 76 db 1d 32 6f 6b 65 33 00 00 00 00
       3.502266e-08 9.188502e-09 5.3415928e-08 0.0
