MLagents_test1/results/CarAgent_reinforcement_9/CarAgent/CarAgent-1499826.pt (torch, 580945 bytes, 28 tensors)

discrete_act_size_vector f4 [1, 2]
00000000: 0000 8040 0000 a040
4.0 5.0

network_body._body_endoder.seq_layers.0.weight f4 [512, 40]
00000000: 2b48 b83d f5ed 37be 9f77 153d a569 ad3d
00000010: d689 a9bc 86af 893d 374a 303e 3dd6 9f3d
00000020: 72fa 8bbe 3e6d bfb9 439c 92be 140b c03e
00000030: d927 7abb ec3f 69be 3b56 593c f59b 1b3c
00000040: 3fdf 9cbc f450 3abe 9dd3 a03e cdda babc
00000050: dfc5 9ebd d4f4 5ebe 9d5d 9dbe eda2 833e
00000060: 49f1 b63d ace3 003c ce7c 013e 7276 20bd
00000070: d531 aebd ddf2 87be c08c 8a3c a7d7 933e
00000080: 0f62 09be c547 97bd b82f 22be 95b3 373e
00000090: 1fb0 283e 3fb1 3cbd 92ea 54bd 1ba1 483e
000000a0: 6707 5fbe 42e8 a4bd e435 dabd 361a 14bf
000000b0: 58de bdbe 7478 e4bd 348e 863e a35b 94bd
000000c0: 3a1c c8be b35b 35bf 95fe d1bd 3781 18be
000000d0: 320c fb3d 28ca aebe 5e10 44bf 4db1 2abe
000000e0: 3e03 ecbe f834 1fbe d3d3 32be a948 56bf
000000f0: e83e 513e 7041 25bf daff 2abe 5b75 48be
00000100: 79ea 68be 77a9 833e 4f1e 3fbe e242 71be
00000110: c3cc 78be 452f 25bf 5f50 86bd 9f49 f3be
00000120: 1be1 79be 88f0 7a3e 2c36 dabe 8b65 ccbe
00000130: 9e3b 953a 0e86 083e 9d14 90bc 59f8 f3be
00000140: 6bb8 9abd c126 88be 8c8e 4bbe d146 bdbd
00000150: 6b46 1abc c869 883d 0626 0e3e 125a 46be
00000160: 29fd 243d 0ecc 393e 2f02 94bd 7d83 6c3d
00000170: 672a 513d 53df 00be e1cb d1be bb6c 743d
00000180: a795 6abe 3153 5fbe ce65 d63d 213b 62be
00000190: 50ad 7bbe 4dbd 1ebe 8865 26bd bfcc 00be
000001a0: 2667 e3be 8c64 d43c 6c22 f0be f3f0 c3bd
000001b0: 7890 843e bbc2 34be df80 92bd 2950 b1be
000001c0: 5182 79be 778b debd bc6a 9cbe d0c4 383e
000001d0: dd68 01be 04c5 78be b613 4dbd fd32 70be
000001e0: ca3d a73e f39a b3be 66b1 a9be e566 a2bd
000001f0: 0de5 0bbf 98c0 e1bd c1b7 42be a5a2 0dbe
00000200: d24a 003c 11b5 05bf e3ce 5bbb 1c74 2ebf
00000210: 001f 02be ff6e c53d 6637 4bbe 09ba 68bd
00000220: 2fa9 86be a2dd 6abe 6f48 c7bd a3ac bdbe
00000230: 9737 99bd 52df 40be 2630 fa3d 2419 84be
00000240: 8d30 6abe c0be 7d3d 8b17 35be 5595 44be
00000250: 87fb 9bbe 5fea 19bf 0daf 0fbd dbf2 8cbe
00000260: 65dc 5cbe a339 43bf 6228 babe 0568 8bbd
00000270: 272f 87bd fed8 a73e 725c 03be 0a16 bdbd
00000280: 7503 edbd f9d9 753e d021 c03d ebf4 30be
00000290: affd 88bd 6792 df3d 0663 70bd e309 7fbc
000002a0: b62d dcbc d506 8abd a6eb 623e c2c9 9abe
000002b0: b916 613e 9116 583e e256 63be 36bf 223d
000002c0: f47e a53e 148e f0be 48f4 f6bc 9c1b 92be
000002d0: eb7a 89bd 6378 71be 4f81 87bd 7008 da3d
000002e0: 56f0 d6bc c199 28be ebd1 d0bd 5435 bfbd
000002f0: 898a 3c3e 8460 dabe 0920 ba3d 2570 a8be
00000300: 68d2 99be 2e0d 843e a44d a63c 2001 02bf
00000310: 5a0f 4fbd b076 9cbe 0104 25bd f620 c8be
00000320: 161b a9be f18c 2cbe cb8b 9fbe 1a59 41be
00000330: aa2c ffbe 282b 8c3c 3455 fabe e68a 1dbe
00000340: 55a3 99be c15d aabe 1d25 5abd 2595 9cbc
00000350: 5d5e d43d 6704 bdbe 90f3 cfbe c42f 243d
00000360: 952e 04bf 7d78 8b3d c25b 99be fa43 cebe
00000370: 110d acbd bb58 173e 2478 52be 812a cabe
00000380: f945 a0be 2867 213e 4a58 88be 1aa3 d53d
00000390: aedd 8cbe 73ae 13bf ae1c 533e 72a7 0abf
000003a0: 66c1 c3be fcaf e03d cf4d 77be 48d2 f23e
000003b0: 4494 27be 701a 613e 8296 0cbe 2e7d c03e
000003c0: 21bd a83e 296d 113d d75d 883e fdf7 8dbe
000003d0: 6038 3abe 47a9 81bd f545 8bbe 522c ae3e
000003e0: 44f9 cc3e 2ea7 6ebe 8ca0 5dbe fd26 c33e
000003f0: 7cd5 483e 8fd2 49bf d439 acbe ba23 433e
0.0899814 -0.17961867 0.036491033 0.08467416 -0.020695608 0.067229316 0.1721581 0.078045346
-0.27339512 -0.0003651175 -0.28634843 0.37508452 -0.0038170724 -0.2277829 0.013265188 0.009497632
-0.01914942 -0.18194944 0.31411448 -0.02280941 -0.07752585 -0.21773082 -0.30735484 0.2571024
0.0893274 0.007866781 0.12645265 -0.03917546 -0.085055985 -0.26552477 0.016912818 0.28875467
-0.13416313 -0.07386736 -0.15838516 0.17939599 0.16473435 -0.046067473 -0.051981516 0.19592707
-0.21780168 -0.08052112 -0.1065481 -0.57852495 -0.37083697 -0.11155787 0.26280367 -0.07244041
-0.39084035 -0.70843047 -0.10253636 -0.14893042 0.122581854 -0.34138608 -0.76587474 -0.16669197
-0.46096224 -0.1554755 -0.17463617 -0.8370462 0.20434153 -0.64552975 -0.16699162 -0.19576018
-0.22745694 0.2571523 -0.18663906 -0.2356067 -0.2429686 -0.6452525 -0.06558298 -0.47517106
-0.24402277 0.24505818 -0.42619455 -0.3992122 0.0011385565 0.13332388 -0.017587954 -0.47650412
-0.07554706 -0.26592067 -0.19878596 -0.09242023 -0.009416203 0.06660801 0.13881692 -0.19370297
0.040280495 0.18144247 -0.07226979 0.057742584 0.05106583 -0.12585191 -0.4097586 0.059674006
-0.2290865 -0.21809079 0.104686365 -0.22092868 -0.24577832 -0.155019 -0.04062417 -0.12578104
-0.44414634 0.02592685 -0.46901262 -0.09567442 0.2589147 -0.17652409 -0.071534865 -0.3463147
-0.24366118 -0.108664446 -0.30550182 0.18043828 -0.12637658 -0.24293905 -0.050067626 -0.2345695
0.3266433 -0.35079154 -0.33143157 -0.07929782 -0.5464638 -0.110230625 -0.19015409 -0.13831575
0.007830339 -0.5222941 -0.0033540062 -0.6814592 -0.12707138 0.096403114 -0.19845352 -0.056818042
-0.26300952 -0.22936109 -0.097306125 -0.37045774 -0.07481306 -0.1883519 0.12216215 -0.2580043
-0.22870083 0.06194949 -0.17684762 -0.1919759 -0.30465338 -0.60123247 -0.03507905 -0.27529034
-0.21568449 -0.7625982 -0.36358935 -0.068069495 -0.066007905 0.3278274 -0.12828234 -0.09232719
-0.11572925 0.24008931 0.09381449 -0.17280929 -0.06689011 0.10916596 -0.058688186 -0.015566322
-0.026877265 -0.06739584 0.22160205 -0.30232054 0.21981324 0.21102358 -0.22201112 0.039733134
0.3232342 -0.46983397 -0.03014578 -0.2853669 -0.06712898 -0.2358108 -0.066164605 0.106461406
-0.026237648 -0.16464902 -0.10196289 -0.093363434 0.18412222 -0.4265176 0.090881415 -0.3289806
-0.3004334 0.25791305 0.020300694 -0.50782967 -0.05055175 -0.305593 -0.04028702 -0.39087647
-0.33028477 -0.1685064 -0.3116134 -0.18881646 -0.49838763 0.017110422 -0.4889313 -0.15385017
-0.30007425 -0.33274654 -0.05325805 -0.019114086 0.10369561 -0.3691742 -0.4061551 0.040084615
-0.5163358 0.06810091 -0.29952818 -0.40286237 -0.0840093 0.14779942 -0.20553643 -0.39485553
-0.31303385 0.15762007 -0.2662986 0.104315 -0.27512878 -0.57688063 0.20616409 -0.5416175
-0.3823349 0.10971066 -0.24150775 0.47426057 -0.16365153 0.21982741 -0.13729289 0.37595505
0.32956794 0.035504494 0.26634094 -0.27728263 -0.18185568 -0.06331115 -0.2720181 0.3401819
0.40033925 -0.23305961 -0.21643275 0.38115683 0.19612688 -0.7883691 -0.3363787 0.19056597

network_body._body_endoder.seq_layers.0.bias f4 [512]
00000000: 99fa 3cbd b061 bfbe 4c49 7dbe 3dc2 a6be
00000010: 8718 f6bc 3393 8cbe 677d e2ba f6b6 faba
00000020: 161e 9fbd 8ab5 bcbe d9c4 80bd 7e49 c6be
00000030: 6f8a acbd 585d 04bf 75b7 dfbd b505 85bd
00000040: bcc3 70be 244e 71bd 16be 3dbe 8a74 39be
00000050: 49e8 29be 04a3 b5be 25f1 c1bd b5d7 dbbe
00000060: 1fa7 ccbe fc5f 76be fa18 00be 8441 08bd
00000070: c27e 9bbd 9631 b3be 9296 12be e291 8abd
00000080: b5e3 59be ef53 2fbe 679f 2dbe 123f 01be
00000090: 7fcf d9be a1a4 5bbd 9636 56be 9284 01be
000000a0: 0ad8 f0bd cb8d d7be 5bf6 913c e2fa 8fbe
000000b0: 59cc 94bd 35f1 52be 5318 d5be 0f7d 0dbe
000000c0: 32de 45be 9605 98be aef2 4dbe a128 57bd
000000d0: fbad d9bd 420f babe d4bc a83d ce54 9dbe
000000e0: e712 3ebe a22c a4bd 94ee 4cbe 8375 8cbd
000000f0: a3da 31be e8b7 60be 23a2 54be bdca 8bbd
00000100: 9920 2dbc 08de 333d 9915 40be c907 23bc
00000110: 1e9f 6fbd 2cc3 24be 99a6 a1be 13c5 7cbe
00000120: d0f4 d23c 12a1 d9be f4d8 87be 0373 bfbd
00000130: 2110 f0bd 1772 c0bd fc2d 623d 3708 d7bd
00000140: 1e2c 00be b04e d3bd 5672 45be 5d79 30be
00000150: b516 febd a598 a2be da2b e8be 2dfa 8dbe
00000160: 7058 c4be 700f 0b3e eb09 02bb f9e5 f0be
00000170: e717 c0bd 67fe ecbd 1fba 82bd 2712 43be
00000180: d9a7 44bd 5e14 9fbe 8b56 96bd 92d3 9abd
00000190: ed52 64be 0b6f 9abe 57e0 d3be 5b97 a2bd
000001a0: 43ff bebe 6c89 11be 831d abbe 70e6 92bd
000001b0: 967f 8bbd 02e2 4fbd 7ed5 09bf 3a97 b7be
000001c0: a9c3 61be eb6f 19be ab7b 83be f356 29be
000001d0: b711 23be 42e2 3abb 452b 06bf eafe 18bd
000001e0: c49a 1abe 0fd4 4ebe 65a4 a9bd 965a ad3d
000001f0: f2b2 9ebe e899 8ebe faeb b8bd 9e43 24be
00000200: 4b8e 10be 1585 68bd 2096 f5be 14e4 a9bd
00000210: f775 03be 6794 94bd aa90 d5be 78b1 88be
00000220: e1de 0dbe 2cb5 88be 5de1 61be 76e6 a4be
00000230: a563 debe fc67 23bd a794 bdbc ae50 ccbb
00000240: 531b 61be 5822 8cbe 4005 d1bd 41f0 8dbd
00000250: a5a9 a8be 2259 d0bd 9161 dabc 5980 f6be
00000260: 3b11 11be dacd 253d 8822 c3be 9133 93bd
00000270: 0d77 b13c fae5 f2bd c534 89bc 274c 0dbe
00000280: 0ef4 d2be bd51 77be 1f5c ecbd 4ed3 8dbe
00000290: 55b5 1fbe fae7 c6bd dd4c 04be 48ef 83be
000002a0: 89e5 97bd 7a7d 513d b462 b7be ddfa 0ebe
000002b0: 977f 24be 6824 46be 05ea 30be a02f 76be
000002c0: 1001 4dbe cf6c cfbd a6b0 63bd f678 d2be
000002d0: ca13 433d 24c8 7fbe f728 0abf 18f5 6fbe
000002e0: 31c7 b7be d0ac 0ebe ea64 20bd 8916 9abe
000002f0: 380d a1be be3a 90be c7b9 babe 193e 20bc
00000300: 1418 debd 3cae e9bd a409 d7bd bb3f fdbd
00000310: fe66 b5be 4835 8dbe bc64 9b3c 0fba cebd
00000320: d9dc 793d 7eb1 613c ccbd e5be d081 e1be
00000330: 1407 63bd 59bb bd3c f218 8ebd c004 d2be
00000340: 8496 69be 8dd3 46bd 5397 37bd b57b cebe
00000350: bc89 e5bd d53e 09be a811 2fbe 26d5 2ebd
00000360: 98af f3be d762 a0bd 8aff 0b3d 2bde 5bbe
00000370: f4a8 d0be d9b8 15be ccf0 6abe 53cc 99be
00000380: da35 9bbe bef8 cd3d c319 34be db54 38be
00000390: d9b9 5dbe dd4d 6bbd 3d79 d73c 0c48 52be
000003a0: efe7 65be 8625 bdbd 90f1 70be a20c 86bd
000003b0: eeac c5bd 03bf a4be 3c2f d5be 8406 d8bd
000003c0: 212e 4fbe 1f68 acbe c92e eabe 94f6 29be
000003d0: 3ed1 c8be 385e e8bd e200 3abe 83aa 6abe
000003e0: c940 9abd 1a47 aebd 9d7d 05be 97c0 b6bd
000003f0: ed5f 7dbd 540d 3fbe 3ec2 a2be 327a 8cbe
-0.046137426 -0.37379217 -0.24734992 -0.32570067 -0.030040992 -0.27456054 -0.0017279804 -0.0019128013
-0.0776941 -0.36857253 -0.06287546 -0.38727945 -0.084248416 -0.5170493 -0.109236635 -0.06495229
-0.23512167 -0.05891241 -0.18529543 -0.18110862 -0.16592516 -0.35475934 -0.09469823 -0.4293801
-0.39971253 -0.24060053 -0.12509528 -0.033265606 -0.075925365 -0.3499877 -0.1431525 -0.06766106
-0.2127827 -0.17121862 -0.16955338 -0.12621716 -0.4254112 -0.0536238 -0.2091926 -0.12648228
-0.11759956 -0.42100367 0.017817667 -0.28121096 -0.07265539 -0.20599826 -0.4162012 -0.13817237
-0.19323042 -0.29691762 -0.20112106 -0.05252898 -0.10628887 -0.36339766 0.08239141 -0.30728763
-0.18561898 -0.080163255 -0.20012885 -0.06858351 -0.1736856 -0.21945155 -0.20764975 -0.06825779
-0.010566854 0.043912917 -0.18758239 -0.009950587 -0.058501355 -0.16090077 -0.31572416 -0.24684553
0.025751501 -0.425057 -0.2653271 -0.093481086 -0.11721826 -0.09396761 0.055219635 -0.10499614
-0.1251683 -0.10317743 -0.19281897 -0.17233796 -0.12406675 -0.31757084 -0.45345956 -0.2772993
-0.38348722 0.13580108 -0.0019842337 -0.47050455 -0.09379559 -0.11571961 -0.06383156 -0.19049893
-0.048011634 -0.31070226 -0.073407255 -0.07559885 -0.22297259 -0.30162844 -0.41382095 -0.07939025
-0.37304124 -0.14212579 -0.33420953 -0.07172859 -0.068114445 -0.050752647 -0.5384139 -0.35857564
-0.22047295 -0.149841 -0.2568029 -0.16537075 -0.15924726 -0.0028516208 -0.52409774 -0.03735248
-0.15098101 -0.20198081 -0.08283309 0.084645435 -0.309959 -0.27851796 -0.09029384 -0.16041419
-0.1411678 -0.056767542 -0.479661 -0.082954556 -0.12837969 -0.07254868 -0.41711932 -0.26697898
-0.13854553 -0.26700723 -0.22058626 -0.32207078 -0.43435398 -0.03989409 -0.023142172 -0.0062352037
-0.2198308 -0.27369952 -0.102060795 -0.069305904 -0.32941929 -0.10173251 -0.026657851 -0.48144796
-0.14166729 0.04047952 -0.38112283 -0.0718757 0.021663213 -0.11860271 -0.016748795 -0.13798581
-0.41201824 -0.24152274 -0.11541008 -0.27700275 -0.15596516 -0.09712215 -0.12919946 -0.25768495
-0.07416827 0.051145054 -0.35817492 -0.13962884 -0.16064297 -0.19349825 -0.17276771 -0.24041605
-0.20019937 -0.101281755 -0.055588387 -0.4110791 0.047626294 -0.24978691 -0.5396876 -0.2343334
-0.35894158 -0.1393311 -0.03915874 -0.30095318 -0.31455398 -0.28169817 -0.36469862 -0.00978043
-0.10844436 -0.11410186 -0.10499886 -0.12365671 -0.3543014 -0.27579713 0.018968932 -0.100940816
0.061001632 0.013775228 -0.44871366 -0.44044352 -0.055426672 0.023160623 -0.06938352 -0.4101925
-0.22811323 -0.048541594 -0.04482205 -0.40328756 -0.11207911 -0.13402875 -0.17096579 -0.042683743
-0.47594905 -0.07831352 0.034179248 -0.21471469 -0.407539 -0.14621295 -0.22943419 -0.300387
-0.30314523 0.100572094 -0.17587952 -0.1800112 -0.21652927 -0.057447303 0.026302928 -0.20535296
-0.22451757 -0.09235673 -0.23529649 -0.06545378 -0.09652124 -0.3217698 -0.416376 -0.10548118
-0.2023244 -0.33673188 -0.4573882 -0.16597968 -0.3922214 -0.11346096 -0.181644 -0.22916608
-0.07531888 -0.08509655 -0.13036199 -0.08923452 -0.06185906 -0.18657428 -0.3178882 -0.27436978

action_model._discrete_distribution.branches.0.weight f4 [4, 512]
00000000: 12c0 003d b9e6 e6bd 9a7d c5bc cbe9 67bd
00000010: 7daa c73d 5033 38bd bd14 f3bc 6eaa 953c
00000020: dca0 e8b6 d698 bcbd a764 283e 4e4d 893d
00000030: ccb4 efbd fc40 76bd b3c8 16bd 4c28 1d3e
00000040: 478c 85bd 3a3c 7d3d 673b d9bd 1d8c 6e3d
00000050: 8e23 bbbd d1fa ba3d 7fc2 04be 9d53 b6bd
00000060: 7c35 4abd b88e 1f3c ed34 323d f80f ac3b
00000070: 2fdd c33c e6e3 a5bd c70d 283d f41b f43c
00000080: 52fc ac3c c825 37bd 1cc0 86bd f5b5 e7bc
00000090: 0858 22bd d7b2 f43c 272f c03c 5f2e 993c
000000a0: 0e9f 93bd 5997 7fbc f94a 80bd e579 0fbe
000000b0: d3a3 db3d e0f6 383d 17a9 c0bd 7f5e 52bd
000000c0: d87e 8fbd 7e63 bfbd 97d0 593d 1637 35bd
000000d0: d5b1 b1bd 34b3 b0bc 3ed6 753c 3b05 07be
000000e0: d0f1 07bd 8089 d83c 130f 98bd 675d b1bb
000000f0: 6b3e ee3c c998 92bb b255 ebbb a669 3ebd
00000100: 72b8 0fbd 6eed 813d 6e72 103d 2f92 4d3d
00000110: fd6e 3f3d f719 893d 1c42 10bd 2fd8 0bbd
00000120: 42f0 833d 093a 7cbd 6e5e 643d 5d14 053c
00000130: 0196 993c 01a1 ca3d cc83 bd3d f189 003e
00000140: 207b 59bd 3251 4b3d 2363 cfbd 8dd8 31bd
00000150: 5fba 0d3d e991 90bd ad2f 59bd 6194 0a3c
00000160: fb5a 1c3d 6392 ec3d 0095 d43c 9745 1bbd
00000170: b670 dabd 8f4e 003d 5c5f f4bd baee 08be
00000180: 47b7 9c3c be1c 52bd f73a b03d bc47 05be
00000190: 907a 61ba 36f3 8ebd daa9 e2bd a1c2 70be
000001a0: b292 883d de10 873c 9efc a2bc 8193 993c
000001b0: c3f8 af3c 6f8f 9abc 0cf0 16bd 2429 0cbe
000001c0: 1f86 afbd 1b8d ae3b ce2e acbd 6044 063e
000001d0: 51cf 633c 14b3 82bc 355a e5bd ff01 e5bc
000001e0: 544a 94bc a0b1 d2bd 1ebf ecbc 3e7f 5dbc
000001f0: 1005 a7bd b042 a3bd 0ce8 353b 2226 623e
00000200: 7f28 763c 77ca 7bbc 3f11 403d 41f0 c4bd
00000210: 98c7 ccbc c3c6 8b3d 0d87 4bbd 7c8e a9bc
00000220: 7232 01bd 5832 22bd feb6 1cbd fcc0 8abd
00000230: c1ce c7bd b3da babd 0bcd 79bc 8fea b33c
00000240: 3fe3 0e3d 44de 463c 4c04 82bd 406a c4bd
00000250: ac42 febd b465 78bd 2e86 743d 06e1 28bd
00000260: fa57 44bc bec2 c0bd e599 adbd 882d 27be
00000270: 374d f4bb 8d08 b23d 86de 8a3c 3868 cdbb
00000280: f37d 04be 0e68 d73d a93d e43b efd3 45be
00000290: 95b1 04bd 25e0 4bbd ad24 9fbc 9e4f adbb
000002a0: 67a3 41bd 432d e23c d833 41be 74eb dfbd
000002b0: a1dd 06be a81f 69bc 58ce ab3c a4db 25bd
000002c0: 8b15 18bc c780 943b 9de4 bc3d c186 fcba
000002d0: f171 b1bd 5473 f0bd 227a 60bd 1b37 20be
000002e0: b31e 88bd 66a8 e23c 462a 80bc 3578 b5bd
000002f0: f21c d43a 38f8 77bd 7f6f 1db9 2a48 813c
00000300: fd1f 9d3d 4627 d7bc d7dd d0bd 89be d7bc
00000310: de80 e5bd ae8e 83bd 14fd bc3c ce34 59bc
00000320: b367 3e3d 1969 2d3e bbaf f9bd 7a3a 3b3d
00000330: 78f6 273b d864 7abd b861 9fbd 2429 03be
00000340: 6811 083d ba07 263e c5fc 94bc eaf9 5f3c
00000350: 435a b7bc 9513 aa3d 19d0 b8bd 8f30 73bc
00000360: 852d 5dbd eef3 babd b706 623d 3217 5fbc
00000370: d025 833c 72ad 213d 067e cc3c 09f8 7abd
00000380: ef27 b03d 90d5 103e 51c0 8bbd 8065 0b3e
00000390: b4af 50bd ca08 233e 4eab 9d3d c274 513e
000003a0: 0af1 c23c cac2 b93c 47ec dcbd 992a d43d
000003b0: 2067 bebc 8cdc 7e3d ee79 33bd 1307 c7bc
000003c0: 3684 20bd 82f9 c53d 83c8 96bd a2eb d2bc
000003d0: 364a 67bd 04b0 3a3d 87f7 df3c bcd0 cfbb
000003e0: 8b59 cfbd 6e54 1f3c f9fa 41be 8109 cabb
000003f0: 1710 c93d b9f9 253d caf4 adbd 1846 fbbd
0.031433173 -0.112744756 -0.024107743 -0.056619447 0.09749315 -0.04497081 -0.029672975 0.018269744
-6.9328653e-06 -0.09208839 0.16444646 0.06704198 -0.11704406 -0.060120568 -0.036812495 0.15347403
-0.065208964 0.061825015 -0.10607033 0.05823909 -0.09137641 0.09129871 -0.1296482 -0.08902667
-0.049367413 0.009738617 0.043507505 0.005250927 0.02390918 -0.08100109 0.041028764 0.029798485
0.02111641 -0.044713765 -0.06579611 -0.028285006 -0.039634734 0.029870434 0.023459984 0.01869887
-0.07208072 -0.015600049 -0.062643 -0.14011343 0.10724606 0.045157313 -0.09407251 -0.05135965
-0.070066154 -0.093451485 0.053177442 -0.044241987 -0.08676497 -0.021569826 0.015004693 -0.13185589
-0.033189595 0.026432753 -0.0742475 -0.0054127458 0.029082498 -0.00447378 -0.0071818465 -0.046487473
-0.03508801 0.06344114 0.03526538 0.05018824 0.046736706 0.066944055 -0.035219297 -0.034141716
0.0644231 -0.061578784 0.055754118 0.008122531 0.018748285 0.0989399 0.09253654 0.1255262
-0.053095937 0.04963798 -0.10126331 -0.04341941 0.034601565 -0.0705908 -0.053023983 0.008458228
0.038172703 0.115513586 0.025949955 -0.037908163 -0.10666029 0.03132492 -0.11932251 -0.13372317
0.019130362 -0.051296942 0.08604997 -0.13015646 -0.0008601332 -0.069799826 -0.11067553 -0.23511745
0.06668605 0.016487535 -0.019895848 0.018747093 0.021480924 -0.018867223 -0.03685002 -0.13687569
-0.085705034 0.0053268797 -0.08407365 0.1311202 0.013904409 -0.015954532 -0.11198846 -0.027955053
-0.018101849 -0.102877855 -0.028899726 -0.013519106 -0.081552625 -0.07971704 0.002775672 0.22084859
0.015024303 -0.015368096 0.046891447 -0.09616137 -0.024997517 0.0682502 -0.04968934 -0.020697825
-0.03154225 -0.039598793 -0.038260452 -0.0677509 -0.09756232 -0.09123745 -0.01524664 0.021962432
0.034884688 0.012137953 -0.06348476 -0.09590578 -0.124150604 -0.060643867 0.059698276 -0.041230224
-0.011983866 -0.09412144 -0.08476619 -0.16325963 -0.007455494 0.08693037 0.01695181 -0.0062685274
-0.12938671 0.10517894 0.0069653583 -0.19319128 -0.032395918 -0.049774308 -0.019426668 -0.005289032
-0.047274973 0.027609473 -0.18867433 -0.10933581 -0.13170482 -0.014228739 0.020972416 -0.04049267
-0.00928248 0.004531953 0.09223292 -0.0019266234 -0.08664311 -0.11740747 -0.054803975 -0.15646021
-0.066464804 0.02766819 -0.015645158 -0.08860818 0.0016182943 -0.060539454 -0.00015014222 0.01578148
0.07672117 -0.026263844 -0.101985626 -0.026335971 -0.1120622 -0.06423698 0.023069896 -0.0132572185
0.046485614 0.16934623 -0.12191721 0.045710064 0.0025629085 -0.06113133 -0.0778231 -0.12808663
0.033219725 0.16213885 -0.018186936 0.013670424 -0.022381907 0.08304516 -0.090240665 -0.01484312
-0.05399849 -0.09128557 0.055182185 -0.01361637 0.016009241 0.03947205 0.024962436 -0.0612717
0.08601367 0.14143968 -0.06823791 0.13612938 -0.050948814 0.15921322 0.076986894 0.20454696
0.023796577 0.02267589 -0.10787254 0.10359687 -0.023242533 0.06222205 -0.043817453 -0.024295365
-0.039188586 0.096667305 -0.07362463 -0.025747124 -0.056467257 0.045578018 0.02733971 -0.0063420217
-0.10124501 0.009724719 -0.18943395 -0.0061656837 0.09817522 0.040521357 -0.084939554 -0.12269229

action_model._discrete_distribution.branches.0.bias f4 [4]
00000000: 0fe2 2e3d e503 f73c 1775 05be 2068 d33d
0.042696055 0.030153224 -0.13032947 0.10322595

action_model._discrete_distribution.branches.1.weight f4 [5, 512]
00000000: 015f c8bb bd5a 02bd 9df5 9cbc 8f2c 94bd
00000010: b349 3b3d 42c6 a8bd d06b a73d 1ded 5d3d
00000020: f4cc 21bc 1d99 1fbb 5e26 0c3c b505 acbd
00000030: 86e7 c0bd ec2d 9d3a e574 a13c c291 b63d
00000040: 869d aebd 6f4b 4e3b d370 593d 9ced b93c
00000050: caf2 a83b 2b66 4dbc a458 933d ce38 803c
00000060: 62bf aebc ef98 ad3b 837a 313c 87da 873d
00000070: 810f a13d 70d5 cabd 50dd 0abc 83d7 1fbd
00000080: f149 2a3d 95dd b1bd 7a2b a53d 94f9 9abd
00000090: 9374 8d3c a488 0fbd 3150 8a3d cf45 9d3d
000000a0: dea8 89bc 8d1f 42bb e8ea be3d 3278 57bc
000000b0: 4594 973c 89e7 e9bb dc02 0abd 2bb5 d63d
000000c0: 60e0 92bc 047f 91bd dccd 813b f6b0 58bc
000000d0: d309 17bd e4b1 18bd eafe fa3c c957 0e3c
000000e0: b80b 283d 34b1 7dbc b697 83bd 8d53 48bd
000000f0: 9f2c 253d e24b 863c fbce d4bc 1fb4 a83d
00000100: b2cd 813d ac69 193d 3158 2f3d 6f56 47bd
00000110: a507 93bc 3af0 9b3d 4b95 00be d44b 923b
00000120: 9e7f b33d 9277 093c 3e20 f4bd 1f48 8bbd
00000130: d5f1 023e a339 2c3d 9953 e93c 11b7 be3c
00000140: 6ca3 a13d bfee 133d 8438 f43c 2d3c 3a3d
00000150: 5469 b53d 9efd 70bd 1a2d dcbd e186 a9bc
00000160: c69d b6bc f59a 843d 37e2 383d 0231 9f3c
00000170: 5c2a fdbc fdc1 9d3d 1f2e ee3a dca5 babd
00000180: 82ab 8ebc 0871 b4bd 1c18 c93c 04bf c13d
00000190: c225 e7bd 5813 e5bd 232b 80bd 7a68 b83d
000001a0: e309 c0bd 36f0 2f3c 2c2d 563d e213 0c3e
000001b0: 3c94 b73d 7cfd 063e c07b b73c c024 febc
000001c0: 955a 9e3d 0c3f 3cbc 4680 e3bd 6d4a 0d3e
000001d0: 5d80 01be 4dc2 833d d5ce 07bd 6b85 b0bc
000001e0: b186 abbd 8dad fabd 5162 47bc 8345 f13d
000001f0: e810 7dbd 773c 86bd 70c6 253d 9c3a c1bc
00000200: fffe 113d 3589 afbd e89f 99bc e9b6 fcbd
00000210: 0352 c53c cef6 4b3d 70b2 f3bd c6ac 26bc
00000220: a19e 743d 3e05 ccbd 5d74 9fbc ccc5 5cbc
00000230: 1cc6 cdbd 047f dc3c c734 b0bb 8eb8 25bd
00000240: febf 83bc 7000 21bd b730 bab9 c4d1 fb3d
00000250: ef42 08bd 7b8d acbd cec6 bab9 da30 933c
00000260: bd0d a93d 65b1 3bbd 9afd dbbc ed42 a53d
00000270: 1f33 493d 98ee 6c3d 6116 cf3d f4a1 6e3d
00000280: ea14 06bd 3220 f5bc 5eb8 9fbc b808 6abd
00000290: 9fc6 b0bd 1246 f23c a46a 66bd 03c7 003c
000002a0: 6b94 06bb f242 843d b284 51bd 6db3 373c
000002b0: 648e e3bd c519 abbb 7b62 d43d 9985 a03c
000002c0: 4463 35b9 a48c 2d3c 09f7 cc3d 120c 15be
000002d0: 44f7 223c 985f 9b3d c5a3 3ebb 5c11 b53c
000002e0: c51b 28bd 15a5 c5bc 4f40 083e 59bd 26bd
000002f0: 64dd 9d3d 1185 b8bc ea66 80bc 69f5 873d
00000300: 587b 7dbd 8df1 623c 98f5 bf3d 4b30 91bd
00000310: a166 e5bd 8442 fbba 4c79 45bc 282e 6dbc
00000320: 269e f9ba bedd 333d d78a 94bd eded 1abd
00000330: 643c 193c 742e 3fbc c3f6 223c 8a41 63bd
00000340: ab28 3b3c 3e12 493e 1d77 3c3c 6ba8 0e3c
00000350: 8dc5 d4bd adf6 483d 4e32 3a3d ac5b 773c
00000360: aabf 3fbd e2fd c2bb 4406 61bd 5111 6b3d
00000370: 4119 493d 3ab7 5d3d a9fd 493c c21b 6a3d
00000380: a0b3 a1bb e919 273c 06bf bcbd 4ec8 37bd
00000390: 7c1e 2abe 11c0 1f3d 3332 dc3d b5a2 533d
000003a0: 44c5 9fbc 9032 793c 2741 9ebd dbef bbbc
000003b0: 0145 5e3c e992 1f3c 5ede 85bd 3484 e03d
000003c0: 8d27 4bbd fdcc cd3d cb53 72bc 1768 19be
000003d0: e4c3 cabd f84f 543d 6729 c43c 1530 e7bc
000003e0: 6286 033e cd03 0c3e 1e98 2abc 01b8 473d
000003f0: 001f 803d ab4b ad3d e754 6e3d f0eb babc
-0.006114841 -0.031824816 -0.019160086 -0.072350614 0.045724582 -0.0824094 0.081748605 0.054181207
-0.009875525 -0.0024352737 0.008554069 -0.08399526 -0.094191596 0.0011991835 0.01970906 0.0891452
-0.08526139 0.0031478067 0.053086113 0.022696309 0.005155896 -0.012536566 0.07194641 0.015652087
-0.021331493 0.005297772 0.010832432 0.06633478 0.07864285 -0.09903991 -0.008475617 -0.039023887
0.041574422 -0.086848415 0.08064933 -0.075671345 0.017267501 -0.03504242 0.067535765 0.076793306
-0.016804155 -0.0029620857 0.093221486 -0.013151215 0.018503318 -0.007138197 -0.033694133 0.10483774
-0.017929256 -0.071043044 0.003961308 -0.0132257845 -0.036874603 -0.037279025 0.03063913 0.008687922
0.0410268 -0.015484143 -0.06425421 -0.048907805 0.040325757 0.016393606 -0.025977602 0.0823748
0.063380614 0.037454292 0.042808715 -0.048666414 -0.017947981 0.07614179 -0.12556951 0.004464606
0.087645754 0.008390324 -0.11920212 -0.068008654 0.12787564 0.042047154 0.028482245 0.023280652
0.078924984 0.036116358 0.029812105 0.045467544 0.0885798 -0.05883562 -0.1075079 -0.020694198
-0.02229203 0.06474868 0.04513761 0.019432548 -0.030903988 0.07703016 0.0018171704 -0.091136664
-0.017415766 -0.088106215 0.024547629 0.094602615 -0.112864986 -0.1118533 -0.06258228 0.09004302
-0.09376886 0.010738423 0.052289173 0.1367946 0.0896382 0.13182634 0.022397876 -0.031023383
0.07732121 -0.011489641 -0.111084506 0.13797922 -0.12646623 0.06433544 -0.033156235 -0.021547994
-0.083753 -0.122401334 -0.012169437 0.117808364 -0.0617837 -0.065545015 0.040472448 -0.023587517
0.035643574 -0.08571092 -0.018753007 -0.12339575 0.024086958 0.04979592 -0.118992686 -0.010173028
0.059721593 -0.09961937 -0.019464666 -0.013474893 -0.10047552 0.026916035 -0.0053773853 -0.04045921
-0.01608276 -0.039307058 -0.0003551298 0.12295869 -0.033266958 -0.08425423 -0.00035624806 0.01796763
0.082545735 -0.045823473 -0.026854325 0.08069406 0.04912102 0.05784473 0.1011169 0.05825992
-0.03273479 -0.029922578 -0.019497093 -0.05713722 -0.08631634 0.029574428 -0.056254044 0.007859948
-0.0020535241 0.06458081 -0.05115194 0.011212212 -0.11111143 -0.005221578 0.10370346 0.019594954
-0.00017298484 0.010592613 0.10008056 -0.14555386 0.009946648 0.075865924 -0.0029089313 0.022103004
-0.041042108 -0.024126569 0.13305782 -0.04070792 0.077082425 -0.022524389 -0.015674073 0.06638605
-0.061885208 0.0138515355 0.09373015 -0.07089289 -0.112012155 -0.0019169603 -0.012052845 -0.014476337
-0.0019044324 0.04391264 -0.07253044 -0.03782456 0.009352777 -0.01166879 0.009946528 -0.055482425
0.01142327 0.19635865 0.011503008 0.008707146 -0.10389242 0.049063373 0.04545813 0.01509754
-0.046813644 -0.0059506753 -0.054937616 0.05738956 0.04909635 0.054129817 0.012328544 0.05715538
-0.004934743 0.010199049 -0.09216122 -0.04486876 -0.16613191 0.03900153 0.10751762 0.05166884
-0.019503243 0.015209809 -0.077272706 -0.02294152 0.0135662565 0.009739616 -0.06536554 0.10962716
-0.049598265 0.10048864 -0.014790486 -0.14981113 -0.099006444 0.051834077 0.023945523 -0.02822117
0.12844232 0.13673325 -0.010412244 0.048759464 0.06255913 0.08461698 0.058186438 -0.022817582

action_model._discrete_distribution.branches.1.bias f4 [5]
00000000: c397 0e3d 415b 32bb 4db9 7d3d 63c9 253d
00000010: 7be5 9d3c
0.0348127 -0.0027215036 0.061944295 0.04047526 0.019274464

exp_avg f4 [512, 40]
00000000: 0000 0000 8266 15b8 5628 be37 f89e 8ab7
00000010: 8805 e8b7 0000 0000 269e 1cb7 5ea2 1638
00000020: a81c 6bb8 5b26 28b8 0000 0000 0946 aeb7
00000030: 0f87 0bb7 1086 ceb4 881b f5b7 0000 0000
00000040: 011b 35b8 fca3 df37 4363 59b7 0fae 31b8
00000050: 0000 0000 dafb fa33 a408 37b6 8a5d e1b7
00000060: a5da 01b8 0000 0000 805e 8db7 2819 f837
00000070: 25ff 30b8 2f0d 2eb8 0000 0000 2d6e 28b8
00000080: deac 99b6 f403 8037 5894 94b7 eef6 12b8
00000090: 4d7d 12ba d86d f2b8 eb2b 09bb 9ae1 3c37
000000a0: 0000 0000 2891 9132 2890 1236 d948 c7b5
000000b0: 70eb 8db4 0000 0000 0ce3 8535 6490 1bb3
000000c0: 59a3 83b4 5c0c 92b4 0000 0000 ba1e d835
000000d0: e045 7233 6926 7fb5 26b6 0ab4 0000 0000
000000e0: 5f2a 0a35 cb8a c3b3 b904 9d34 fef5 b6b4
000000f0: 0000 0000 5268 8c35 0f26 2234 c81e 01b5
00000100: 4801 62b3 0000 0000 6c91 bf35 ba83 c5b3
00000110: f136 26b5 e4dc dab4 0000 0000 626d 7d35
00000120: 56bb a3b3 4cea 22b4 c881 ca34 b9d7 5e35
00000130: 7431 2737 9c3c 7cb6 4a77 fb36 a81b e9b5
00000140: 0000 0000 a9aa 2ab8 6fd5 18b5 4484 36b5
00000150: b6a0 0eb8 0000 0000 1860 42b7 4705 3b36
00000160: 5d00 0bb8 6e61 25b8 0000 0000 2699 1cb8
00000170: 6874 19b6 2e7a 1bb6 bc3f f7b7 0000 0000
00000180: 4904 23b7 1cce 00b4 30a6 06b8 2c80 1eb8
00000190: 0000 0000 57ab 13b8 1b1b 24b6 3ad8 8fb6
000001a0: 4dce ecb7 0000 0000 2216 0db7 44ae 3d34
000001b0: 3660 0db8 bb65 20b8 0000 0000 3066 9436
000001c0: 2703 26b8 7a8d e3b6 ed79 f2b7 b951 c5b7
000001d0: 2897 4fb7 3a30 ab39 f6b9 2bb9 6b7f 73b7
000001e0: 0000 0000 1e32 f333 ae3d 3536 8b20 beb6
000001f0: 5b18 83b6 0000 0000 d837 2c36 d446 2cb3
00000200: 4c78 b4b6 97dd 8ab6 0000 0000 240a 9535
00000210: 9e12 a735 1cbc aeb6 b8c6 7fb6 0000 0000
00000220: 5cf9 63b6 a336 ccb3 dac4 2b35 a775 89b6
00000230: 0000 0000 1e59 46b5 abe7 cf34 85d0 27b6
00000240: bcff 6cb6 0000 0000 4c2f 9935 d6ec c1b3
00000250: 0cf9 82b6 b045 88b6 0000 0000 f2eb 92b6
00000260: a303 4c34 975b b335 2d4e 2eb5 2180 ae36
00000270: efdd bb36 8801 fc32 fdeb 1137 958a 6536
00000280: 0000 0000 7924 c1b6 56de 2737 a1ec 8ab7
00000290: fc76 9eb6 0000 0000 b88c 81b8 749f 5837
000002a0: 4e4e 1938 f338 b736 0000 0000 ade1 e137
000002b0: e3e9 16b6 7d25 1bb8 50e9 9cb7 0000 0000
000002c0: 8c6b 96b8 6f1f 5e37 f5ab 4138 7c43 ea36
000002d0: 0000 0000 b975 3238 1bd6 bb36 c493 7db8
000002e0: 2d6e dbb7 0000 0000 682f 3db8 2c44 5637
000002f0: 2bf6 a737 fb74 0fb6 0000 0000 390c 54b7
00000300: 24fd 4a38 5a9d 49b8 8c81 a3b7 ec8d 0a38
00000310: 2f2b 3139 24a5 0eba 6151 393a f33f 2338
00000320: 0000 0000 e0ab 87b3 03ee 0536 60f3 3c35
00000330: 4d07 f135 0000 0000 40b3 7b35 4296 53b4
00000340: 1b74 fe35 94db 2a36 0000 0000 84b9 6936
00000350: a67a 5536 5623 87b6 e085 e533 0000 0000
00000360: 3870 83b5 aa29 03b5 03b8 8936 a5ac 5236
00000370: 0000 0000 4472 8e36 266c b335 1dad 45b6
00000380: a012 8634 0000 0000 f079 18b5 c3d6 13b5
00000390: ac01 7c36 7bb8 5d36 0000 0000 f605 2936
000003a0: 56e3 a335 4614 94b5 6871 5a35 3576 5535
000003b0: 55f7 2338 98ce 3434 1868 31b8 96c1 86b5
000003c0: 0000 0000 0a24 bdb7 f5e4 06b6 fa26 f737
000003d0: 128f 1937 0000 0000 b2a5 52b7 2677 ee34
000003e0: 4cbf 8e37 f681 0137 0000 0000 3789 31b7
000003f0: 9d05 0537 89a0 fd36 3c60 1136 0000 0000
0.0 -3.5619836e-05 2.2668548e-05 -1.6524908e-05 -2.765913e-05 0.0 -9.335146e-06 3.5914003e-05
-5.6055054e-05 -4.0090043e-05 0.0 -2.0775029e-05 -8.316491e-06 -3.8468033e-07 -2.9219096e-05 0.0
-4.3178912e-05 2.6660033e-05 -1.2957319e-05 -4.2362193e-05 0.0 1.1687344e-07 -2.7274154e-06 -2.6865648e-05
-3.0959625e-05 0.0 -1.6852515e-05 2.9575618e-05 -4.219929e-05 -4.149711e-05 0.0 -4.015693e-05
-4.5798797e-06 1.526063e-05 -1.7712053e-05 -3.5039084e-05 -0.0005588129 -0.00011559919 -0.0020930718 1.12582e-05
0.0 1.6946231e-08 2.1839605e-06 -1.4847857e-06 -2.64346e-07 0.0 9.975352e-07 -3.6220072e-08
-2.4519503e-07 -2.7203612e-07 0.0 1.6102197e-06 5.6408567e-08 -9.5050797e-07 -1.2918517e-07 0.0
5.1470664e-07 -9.1056414e-08 2.9246965e-07 -3.4079125e-07 0.0 1.0461174e-06 1.5101271e-07 -4.810104e-07
-5.262089e-08 0.0 1.4272932e-06 -9.197488e-08 -6.191977e-07 -4.0766383e-07 0.0 9.440902e-07
-7.624355e-08 -1.5172662e-07 3.771986e-07 8.301536e-07 9.96549e-06 -3.7586206e-06 7.49427e-06 -1.7367902e-06
0.0 -4.0690098e-05 -5.6935e-07 -6.7992755e-07 -3.4005112e-05 0.0 -1.1585675e-05 2.7868243e-06
-3.314052e-05 -3.9429804e-05 0.0 -3.733593e-05 -2.2866534e-06 -2.3167918e-06 -2.9474373e-05 0.0
-9.716555e-06 -1.1995911e-07 -3.2102864e-05 -3.7789505e-05 0.0 -3.5207104e-05 -2.4453682e-06 -4.286904e-06
-2.8229459e-05 0.0 -8.409408e-06 1.7665394e-07 -3.3706623e-05 -3.8241717e-05 0.0 4.42264e-06
-3.958042e-05 -6.781597e-06 -2.8905424e-05 -2.3522285e-05 -1.2373355e-05 0.00032651593 -0.00016377107 -1.45135955e-05
0.0 1.13246855e-07 2.7007004e-06 -5.6662298e-06 -3.9069396e-06 0.0 2.5662503e-06 -4.011129e-08
-5.3784224e-06 -4.138517e-06 0.0 1.1104316e-06 1.2447888e-06 -5.207503e-06 -3.811363e-06 0.0
-3.3970782e-06 -9.5094286e-08 6.398892e-07 -4.0966147e-06 0.0 -7.389043e-07 3.8725315e-07 -2.5006314e-06
-3.5315597e-06 0.0 1.1413154e-06 -9.030343e-08 -3.903295e-06 -4.0612285e-06 0.0 -4.3786067e-06
1.9000304e-07 1.3363195e-06 -6.493381e-07 5.2005203e-06 5.5988708e-06 2.9337357e-08 8.697619e-06 3.4204324e-06
0.0 -5.756094e-06 1.0005742e-05 -1.656107e-05 -4.7226185e-06 0.0 -6.17741e-05 1.2911729e-05
3.655097e-05 5.4604548e-06 0.0 2.6927179e-05 -2.2487882e-06 -3.6989793e-05 -1.8705294e-05 0.0
-7.1725895e-05 1.323955e-05 4.6174933e-05 6.9815997e-06 0.0 4.2548145e-05 5.5979594e-06 -6.0457518e-05
-2.6158139e-05 0.0 -4.5105262e-05 1.27712665e-05 2.0022582e-05 -2.1376752e-06 0.0 -1.26390305e-05
4.839631e-05 -4.806868e-05 -1.949144e-05 3.303394e-05 0.00016896123 -0.0005441478 0.00070693163 3.8921786e-05
0.0 -6.317691e-08 1.9957085e-06 7.0389615e-07 1.7958024e-06 0.0 9.376563e-07 -1.970557e-07
1.8958266e-06 2.5459785e-06 0.0 3.482769e-06 3.1810864e-06 -4.027427e-06 1.0687995e-07 0.0
-9.79292e-07 -4.886193e-07 4.10434e-06 3.139293e-06 0.0 4.245232e-06 1.3368015e-06 -2.9456053e-06
2.4972996e-07 0.0 -5.6801855e-07 -5.5074287e-07 3.75519e-06 3.3038948e-06 0.0 2.5186432e-06
1.221061e-06 -1.103276e-06 8.1376356e-07 7.95207e-07 3.9092574e-05 1.6838965e-07 -4.2297033e-05 -1.0040119e-06
0.0 -2.2547338e-05 -2.0100827e-06 2.9462844e-05 9.152822e-06 0.0 -1.2555554e-05 4.4417646e-07
1.7016799e-05 7.719258e-06 0.0 -1.058197e-05 7.928725e-06 7.5586763e-06 2.16627e-06 0.0

exp_avg_sq f4 [512, 40]
00000000: 0000 0000 dbfc 9133 9d12 2332 902f b533
00000010: 3b73 f633 0000 0000 9898 b833 9370 bb31
00000020: cd86 8533 b276 f433 0000 0000 b862 a133
00000030: fb1c 1032 5167 a133 9194 dc33 0000 0000
00000040: 442c a533 59ee d531 97e8 a333 9329 d433
00000050: 0000 0000 c7c0 a133 41fe ee31 0f8e a433
00000060: f00d d733 0000 0000 c952 a933 fb8c c831
00000070: a798 a033 c985 c833 0000 0000 04d6 b033
00000080: d9bf fc31 8227 9a33 d477 da33 716e dc33
00000090: e620 0f38 ff06 2835 98b9 4839 c4e7 f433
000000a0: 0000 0000 32b6 932f 3c6e f42e 56f8 982e
000000b0: 8756 4b2f 0000 0000 0c91 ac2f 6e31 b62e
000000c0: 1346 7a2e cc64 302f 0000 0000 dcc3 572f
000000d0: 29e1 c42e 4e34 312f e6af 862f 0000 0000
000000e0: c258 942f 246f e72e fe4b af2e dee2 3e2f
000000f0: 0000 0000 3c57 322f 4807 aa2e b76f 782f
00000100: 337f a32f 0000 0000 1dbb 802f b77f b22e
00000110: 881d 142f 8668 6e2f 0000 0000 de4c e92e
00000120: d41f 5b2e 1c18 a72f a1b1 bf2f 0486 612f
00000130: ef6c 4132 8645 c731 d42c fc33 1322 b52f
00000140: 0000 0000 7502 4632 8579 d430 f583 8831
00000150: 18a9 1032 0000 0000 b8e2 e131 5019 9c30
00000160: fff8 2232 87e4 5c32 0000 0000 d3ec 6a32
00000170: 6608 dd2f 65df 3331 1b6c bb31 0000 0000
00000180: 661c 1f31 e802 ac30 852d 6432 beaf 8132
00000190: 0000 0000 5fdc 6d32 9cec 7530 89bb 1e31
000001a0: a301 8631 0000 0000 1b9d cb30 4cf3 a730
000001b0: 0532 7032 8a72 8132 0000 0000 8390 5d32
000001c0: 153c 4b31 fed4 ac30 1747 5531 658c 4c32
000001d0: 7509 5236 26fd 0836 b4dc 9437 f0ee 1632
000001e0: 0000 0000 6d82 8d2f 8110 242f 306a b62f
000001f0: 2af6 0530 0000 0000 1cbb 5a2f 89c1 9b2e
00000200: d002 0430 6190 2230 0000 0000 e85e 822f
00000210: 02d6 382f eb74 b22f cbf0 e62f 0000 0000
00000220: be00 512f 0225 f42e 8fc2 0130 3dbf 2630
00000230: 0000 0000 f9a0 da2f f824 402f 8c6a 302f
00000240: 28b1 ca2f 0000 0000 986f 992f aa92 d22e
00000250: 1f6e d32f 234b 1d30 0000 0000 21b6 e82f
00000260: db81 502f d8e8 f02e a11e af2f cd51 0130
00000270: ba9d d631 98c3 ee31 3126 3e33 fe83 1330
00000280: 0000 0000 6484 0533 cfde 0931 55d5 f132
00000290: 1478 3033 0000 0000 c37f 1f33 9c17 5731
000002a0: b537 ab32 842a 1833 0000 0000 3b34 9332
000002b0: 7a44 5031 ec07 3233 ff29 4e33 0000 0000
000002c0: f84d 3d33 d10f 9931 2dea 5932 36bc 0b33
000002d0: 0000 0000 062c 9632 e48b 7431 5743 2e33
000002e0: ac0d 4e33 0000 0000 c899 1233 b68d b131
000002f0: 2af7 b232 bf8d 0633 0000 0000 4d3e b332
00000300: f465 f031 438f 0f33 502d 4033 a570 2b33
00000310: 42eb 2a36 13ad 0937 41c9 6538 2646 5633
00000320: 0000 0000 4d8f 1b31 bd4c 0830 d759 c82f
00000330: 497b c230 0000 0000 fa26 9230 666d 9d2f
00000340: c2ff ea30 a9ec 1d31 0000 0000 06c8 2431
00000350: 1592 a12f b9a8 f22f 1965 8130 0000 0000
00000360: 2e3d 0c30 27c5 a62f 32b1 2131 c19c 3031
00000370: 0000 0000 b79d 2031 7e14 812f c6b9 0f30
00000380: 9abf 7030 0000 0000 046a fa2f 31b0 7c2f
00000390: b56f 2831 48b9 3531 0000 0000 c543 1531
000003a0: d243 992f 2537 2c30 b381 7d30 18be 0d31
000003b0: a958 b033 15cb c931 52ba 1634 d971 a530
000003c0: 0000 0000 8e5e 6934 b4e4 9f33 2f78 c332
000003d0: 8409 1934 0000 0000 d764 aa33 ae3e ca32
000003e0: 4721 6b34 552b 8d34 0000 0000 985c 8a34
000003f0: 387c 6e33 0c60 6d31 ce04 9133 0000 0000
0.0 6.798083e-08 9.492081e-09 8.437121e-08 1.1476228e-07 0.0 8.595924e-08 5.4552145e-09
6.217815e-08 1.1383726e-07 0.0 7.5151036e-08 8.388493e-09 7.51594e-08 1.02715724e-07 0.0
7.691463e-08 6.226213e-09 7.632587e-08 9.8795816e-08 0.0 7.532213e-08 6.955617e-09 7.6626854e-08
1.0014253e-07 0.0 7.884734e-08 5.8367937e-09 7.478348e-08 9.337561e-08 0.0 8.234568e-08
7.355976e-09 7.17837e-08 1.0173213e-07 1.02646375e-07 3.4124496e-05 6.259506e-07 0.00019142625 1.1404293e-07
0.0 2.6868602e-10 1.1115417e-10 6.956273e-11 1.8493483e-10 0.0 3.138968e-10 8.285182e-11
5.6905657e-11 1.6042917e-10 0.0 1.962372e-10 8.9530446e-11 1.6116639e-10 2.449944e-10 0.0
2.698411e-10 1.0524406e-10 7.9715776e-11 1.7360999e-10 0.0 1.6219998e-10 7.7319984e-11 2.2595158e-10
2.9739908e-10 0.0 2.3416016e-10 8.1171896e-11 1.3471013e-10 2.1683108e-10 0.0 1.06092676e-10
4.9823104e-11 3.0394254e-10 3.486891e-10 2.0511243e-10 1.1258847e-08 5.799566e-09 1.17428186e-07 3.294792e-10
0.0 1.15256755e-08 1.5459568e-09 3.9731227e-09 8.420351e-09 0.0 6.574137e-09 1.1357688e-09
9.486256e-09 1.28576465e-08 0.0 1.367444e-08 4.0205633e-10 2.6174913e-09 5.4547065e-09 0.0
2.3153688e-09 1.2515473e-09 1.3281697e-08 1.5097495e-08 0.0 1.3845322e-08 8.9466723e-10 2.3098627e-09
3.9000994e-09 0.0 1.4814846e-09 1.2219998e-09 1.3981212e-08 1.5069663e-08 0.0 1.2896751e-08
2.957454e-09 1.2575183e-09 3.103599e-09 1.1906285e-08 3.1297943e-06 2.041293e-06 1.7745748e-05 8.785477e-09
0.0 2.5740424e-10 1.4921576e-10 3.3181058e-10 4.873494e-10 0.0 1.9893459e-10 7.082963e-11
4.8025317e-10 5.914043e-10 0.0 2.3714297e-10 1.6810733e-10 3.2461087e-10 4.200785e-10 0.0
1.9008703e-10 1.1102409e-10 4.720641e-10 6.0662214e-10 0.0 3.9768347e-10 1.7475432e-10 1.604496e-10
3.6869463e-10 0.0 2.790983e-10 9.575747e-11 3.8458922e-10 5.7223043e-10 0.0 4.2329965e-10
1.8963624e-10 1.0955298e-10 3.1854078e-10 4.704617e-10 6.246151e-09 6.948948e-09 4.4272557e-08 5.366586e-10
0.0 3.1086884e-08 2.0062776e-09 2.8153105e-08 4.1087404e-08 0.0 3.713627e-08 3.1300038e-09
1.9932353e-08 3.5428926e-08 0.0 1.7136804e-08 3.0306908e-09 4.145106e-08 4.8001308e-08 0.0
4.4075904e-08 4.454684e-09 1.2684308e-08 3.2534636e-08 0.0 1.7482318e-08 3.5586192e-09 4.0573777e-08
4.7975547e-08 0.0 3.4133137e-08 5.1674887e-09 2.0834324e-08 3.1328224e-08 0.0 2.0866674e-08
6.99651e-09 3.3425078e-08 4.4744695e-08 3.991649e-08 2.5468912e-06 8.206133e-06 5.4785287e-05 4.9889557e-08
0.0 2.2636926e-09 4.9585563e-10 3.6443623e-10 1.4150398e-09 0.0 1.0633976e-09 2.8635866e-10
1.7098432e-09 2.2981033e-09 0.0 2.3978841e-09 2.9389527e-10 4.4139428e-10 9.414719e-10 0.0
5.1018645e-10 3.033531e-10 2.3529307e-09 2.5700475e-09 0.0 2.3372715e-09 2.3479524e-10 5.2287097e-10
8.7583774e-10 0.0 4.5550064e-10 2.2981862e-10 2.4510716e-09 2.6444287e-09 0.0 2.1720876e-09
2.7878727e-10 6.26516e-10 9.222518e-10 2.0626256e-09 8.211766e-08 5.8729577e-09 1.4037622e-07 1.2037688e-09
0.0 2.1734215e-07 7.445615e-08 2.2755641e-08 1.4252697e-07 0.0 7.9345845e-08 2.3544398e-08
2.1898187e-07 2.6294825e-07 0.0 2.5771874e-07 5.552667e-08 3.4542635e-09 6.7529626e-08 0.0

exp_avg f4 [512]
00000000: a543 f7b7 663b 4035 0fe8 2fb8 da69 3fb6
00000010: 138d 4eb7 82ed 3036 4499 a436 0e12 0b38
00000020: b8bc f3b6 da6b 80b6 ee6a f938 0914 2c37
00000030: db8b a5b8 ac13 e535 e9ee acb7 0046 ebb4
00000040: f796 f4b7 b042 33b7 b465 afb7 f4d7 cfb7
00000050: 588d 0cb5 25a9 a3b6 be70 9e37 b842 0136
00000060: 3e71 9836 b244 9137 bcbc 9d37 911c 8b39
00000070: 4081 8338 9747 b0b5 eba5 3337 40b5 d435
00000080: a7d6 25b6 c0ac 96b7 37a0 1c37 9cd6 3ab8
00000090: 8246 e635 cc4f bf37 ae5a 9f38 b10a 8336
000000a0: 7ce4 1db8 41ee 35b6 db53 c7b8 9483 5737
000000b0: f092 b737 689c 4937 4c8b 1b35 e015 b0b4
000000c0: 0c66 1fb8 8b42 31b7 70f1 2b37 bdd9 3bb9
000000d0: 468a 1138 9c3c ad36 055e 0d38 0a3a 6737
000000e0: c655 2ab8 aed2 2938 2187 8ab6 35ef a237
000000f0: e445 73b7 36f6 4bb8 20d8 9fb4 54ec 0d37
00000100: 0129 4ab8 2508 3138 68d1 f4b6 3902 3539
00000110: ac35 6c39 e85e 4537 9089 43b4 0047 b7b6
00000120: 4602 0238 124f 6436 7720 77b8 7265 f136
00000130: c811 4938 cb96 3938 297c 4937 c565 3638
00000140: ce31 f3b7 78df 9038 b72a a2b7 424f 9cb7
00000150: 08e8 8037 31a2 76b6 54e1 f2b6 34cf d5b5
00000160: c376 c037 cc8c 5039 dec6 d338 3a1a 7bb5
00000170: 92c6 5eb9 9e3e 79b8 80d1 a3b9 ce6b 8fb6
00000180: f470 1438 a038 b236 32f7 e2b5 ee74 c338
00000190: a2df d5b6 4b1a 2ab9 4040 9bb3 ca12 0eb8
000001a0: 08e4 a7b7 3b36 8437 df43 8ab6 e83e 5838
000001b0: d0bd 5938 6f61 64b9 6a3f 8936 ac89 5b35
000001c0: 62a9 e0b6 e0de ac38 8c05 8ab7 b821 f5b7
000001d0: 613d 0eb7 8f39 b938 0717 3d35 56e9 37b9
000001e0: 9a3f bbb7 6b34 02b8 dca2 aab5 05e8 f438
000001f0: 34c6 9bb4 dc58 d0b6 7143 46b8 2cc9 6eb8
00000200: a078 46b7 ea65 bdb8 9210 4cb8 ac04 2bb8
00000210: 22b0 d2b7 620b 05b9 c0b1 cab3 6307 cc36
00000220: be43 ebb8 1f15 7eb7 3466 4437 8e27 d2b6
00000230: c923 aeb5 cf1b 84b8 8140 4839 dadd fc37
00000240: 0e2d 80b6 a31f 6fb6 48ee a2b7 e000 cfb7
00000250: 9c3e b135 30f5 1eb8 820f ef37 1a74 5e36
00000260: 2b62 00b8 9a24 8a39 8802 b035 f7ea b8b8
00000270: a24a 52b8 b3bc 6838 e0a5 31b8 0456 13b8
00000280: 7077 7c34 bbf1 0638 321a 0035 c9db 0b37
00000290: d6fa 29b9 403d 8e37 a0a4 8637 863e e936
000002a0: 2c2d d038 ef65 4737 f4c8 ad36 4c1b 83b8
000002b0: 6807 01b7 07bb 5537 f609 1037 df84 e136
000002c0: 564e 1db8 c79f c937 0e72 c5b6 5991 2836
000002d0: fa22 0738 00ac a735 0e8d 8e34 8e19 13b7
000002e0: a637 9636 7771 5138 b76e 0db8 14f3 9437
000002f0: c8c1 0238 682c f137 2bb2 2435 1679 8ab7
00000300: 4903 6cb8 a94e e736 58bb 3d37 c001 3236
00000310: 6840 b835 642a 0cb5 14ae 2b38 d17e 1f38
00000320: 1b7e 2b38 50a6 5b37 b26d 0735 00be a137
00000330: db38 8237 bf07 7b37 ac47 e837 8707 cf35
00000340: 3294 6938 1c41 de36 98aa d8b8 828d ae36
00000350: 396b dfb7 f10f 9b38 bcad d537 a482 8c35
00000360: 0085 0cb6 080b 98b8 7a35 8d38 f8a5 2637
00000370: 08b6 8636 3e20 00b7 d98b 0cb7 367b cd36
00000380: 1749 0936 da41 4e39 cf59 91b5 b640 7837
00000390: fba9 2c37 73ce 0a37 54fe 3d39 98b1 9d38
000003a0: 6a83 07b6 189a 3bb8 cd85 5137 86d9 4739
000003b0: d347 1639 446d 44b7 4c5a 2236 145a 7738
000003c0: 9c81 5eb7 41a0 9c38 169d cb35 8034 36b9
000003d0: d8c5 17b7 3058 9c36 3a2e d136 0ab1 aeb6
000003e0: 3c42 e1b8 8ef6 f0b8 de4b f9b7 df2d acb7
000003f0: 40fb 8d35 ae24 e636 1ed4 1137 550f 2d36
-2.9476194e-05 7.161201e-07 -4.1939373e-05 -2.8522832e-06 -1.2311403e-05 2.6364291e-06 4.9054233e-06 3.3156997e-05
-7.263934e-06 -3.827253e-06 0.000118931624 1.0256664e-05 -7.893863e-05 1.7067555e-06 -2.0615249e-05 -4.3823093e-07
-2.9157365e-05 -1.0684758e-05 -2.0908985e-05 -2.4776884e-05 -5.2359746e-07 -4.8774696e-06 1.8887567e-05 1.9261333e-06
4.543136e-06 1.7317336e-05 1.8803745e-05 0.0002653343 6.2706415e-05 -1.3133857e-06 1.0707862e-05 1.5847982e-06
-2.471186e-06 -1.7961836e-05 9.3356275e-06 -4.4545726e-05 1.7156856e-06 2.2806133e-05 7.598601e-05 3.905349e-06
-3.764451e-05 -2.7109784e-06 -9.504679e-05 1.2845634e-05 2.1883723e-05 1.201695e-05 5.7944703e-07 -3.279847e-07
-3.8003593e-05 -1.0565515e-05 1.0248608e-05 -0.00017914824 3.469947e-05 5.1628576e-06 3.3704582e-05 1.3782186e-05
-4.061104e-05 4.048895e-05 -4.1284516e-06 1.9423294e-05 -1.4500201e-05 -4.8628273e-05 -2.977331e-07 8.459279e-06
-4.819874e-05 4.2207674e-05 -7.2961448e-06 0.00017262333 0.00022526708 1.1764212e-05 -1.8210835e-07 -5.4620905e-06
3.0996533e-05 3.4020673e-06 -5.8919624e-05 7.1941695e-06 4.7938694e-05 4.4247874e-05 1.2009442e-05 4.348696e-05
-2.899105e-05 6.9080794e-05 -1.9331796e-05 -1.8633556e-05 1.5366837e-05 -3.6751264e-06 -7.2383937e-06 -1.5930041e-06
2.2943486e-05 0.00019888877 0.00010098306 -9.354295e-07 -0.00021245543 -5.9424543e-05 -0.00031245872 -4.274282e-06
3.5391146e-05 5.3114054e-06 -1.6910255e-06 9.3201044e-05 -6.373929e-06 -0.00016222258 -7.229437e-08 -3.3872937e-05
-2.0014137e-05 1.576088e-05 -4.1206217e-06 5.1557e-05 5.191361e-05 -0.00021780071 4.0903005e-06 8.1784196e-07
-6.695439e-06 8.243113e-05 -1.6453465e-05 -2.9221977e-05 -8.47815e-06 8.8322086e-05 7.0441496e-07 -0.00017539164
-2.2321754e-05 -3.1043233e-05 -1.2713385e-06 0.00011678044 -2.9015212e-07 -6.2092276e-06 -4.726969e-05 -5.6930978e-05
-1.1829805e-05 -9.031205e-05 -4.8652822e-05 -4.0773928e-05 -2.5115969e-05 -0.00012688109 -9.4386905e-08 6.0805337e-06
-0.00011218291 -1.5144497e-05 1.1706306e-05 -6.2630925e-06 -1.2974425e-06 -6.29943e-05 0.00019097516 3.0144049e-05
-3.8199423e-06 -3.563219e-06 -1.9422863e-05 -2.467673e-05 1.3205749e-06 -3.7898484e-05 2.8498242e-05 3.3148158e-06
-3.0609004e-05 0.0002634868 1.3113759e-06 -8.817569e-05 -5.013741e-05 5.548885e-05 -4.235457e-05 -3.512764e-05
2.351278e-07 3.217322e-05 4.7721835e-07 8.336218e-06 -0.0001621054 1.695624e-05 1.6050704e-05 6.95122e-06
9.926627e-05 1.1885058e-05 5.179196e-06 -6.251651e-05 -7.690724e-06 1.2739335e-05 8.585388e-06 6.7209908e-06
-3.7504673e-05 2.403547e-05 -5.884335e-06 2.5118554e-06 3.2219083e-05 1.2492528e-06 2.6552192e-07 -8.767833e-06
4.4768267e-06 4.9935155e-05 -3.372013e-05 1.7756167e-05 3.1174888e-05 2.8750117e-05 6.135403e-07 -1.6507267e-05
-5.6269844e-05 6.8934937e-06 1.1308897e-05 2.6525086e-06 1.3727813e-06 -5.221575e-07 4.09317e-05 3.802666e-05
4.0887022e-05 1.309214e-05 5.0451047e-07 1.9281171e-05 1.5523683e-05 1.4962569e-05 2.768993e-05 1.5424893e-06
5.5689547e-05 6.6236953e-06 -0.00010331458 5.202078e-06 -2.6633601e-05 7.393945e-05 2.547248e-05 1.0468834e-06
-2.0939042e-06 -7.2499795e-05 6.733365e-05 9.933014e-06 4.0147024e-06 -7.6369015e-06 -8.377211e-06 6.1238197e-06
2.0457135e-06 0.00019670223 -1.082948e-06 1.4797019e-05 1.0291576e-05 8.273509e-06 0.00018119189 7.519423e-05
-2.019306e-06 -4.4727785e-05 1.2488524e-05 0.00019059153 0.00014331871 -1.1707951e-05 2.419244e-06 5.897328e-05
-1.3262408e-05 7.468509e-05 1.5170397e-06 -0.0001737643 -9.046365e-06 4.6594287e-06 6.234067e-06 -5.206214e-06
-0.00010741173 -0.00011490016 -2.9718442e-05 -2.0525358e-05 1.0578442e-06 6.858804e-06 8.692061e-06 2.5787933e-06
