MLagents_test1/results/CarAgent_reinforcement_7/CarAgent/CarAgent-3999884.onnx (onnx, 108720 bytes, 7 tensors)

discrete_act_size_vector f4 [1, 2]
00000000: 0000 8040 0000 a040
4.0 5.0

network_body._body_endoder.seq_layers.0.weight f4 [512, 40]
00000000: 2b48 b83d c9c1 85be 045f bd3d a17f 173e
00000010: d3a7 173d 86af 893d ebaa ab3d 6c72 f0bb
00000020: 6af2 20be 5228 4d3d 439c 92be 2e82 9d3e
00000030: 4752 d53d 6e54 40be d327 f23c f59b 1b3c
00000040: b1ec 02be e409 3ebe c5d1 bc3e f159 713c
00000050: dfc5 9ebd da0f 3fbe 0e0e 36be 97d9 0d3e
00000060: c262 9c3d ace3 003c ccd9 ac3d 5cae 7c3d
00000070: 00ae f6bd 9ecd 7cbe c08c 8a3c 8919 983e
00000080: 0cd2 1dbc f300 2cbe 4bff 35be 319c 523e
00000090: 0516 953d 4031 d0bc a609 d4bc 2c72 823e
000000a0: 6707 5fbe 73f6 84bd 1706 08be 2ba4 16bf
000000b0: 78fd 9fbe 7478 e4bd 539d b73e 3c83 06be
000000c0: 7f55 bfbe c1e2 21bf 95fe d1bd 4c85 34be
000000d0: 5df5 233c 747c 7ebe 0d60 37bf 4db1 2abe
000000e0: cd1c adbe a3c7 30be 5da6 83be d189 46bf
000000f0: e83e 513e b48e 2cbf 7cf9 30be 892f 18be
00000100: 2865 41be 77a9 833e a9aa babd e7d7 8fbe
00000110: 52c6 6ebe 258b 14bf 5f50 86bd dccb fbbe
00000120: 4168 8abe d5ad a03e faf7 c9be 75b7 87be
00000130: 072e 343c 907c 1d3e 86b5 143d 0534 e2be
00000140: 6bb8 9abd ebb5 83be 8574 92be 8c4a 40bd
00000150: fd4c 2e3d c869 883d f747 153e b0b6 1ebe
00000160: 887c 463d 6621 4b3e 2f02 94bd 8158 da3d
00000170: 26d4 273d 96db f4bd 3ab8 c2be bb6c 743d
00000180: 52f8 2dbe f298 3cbe a250 e13d eb84 4fbe
00000190: 50ad 7bbe 003a 00be d32c 42bd b2c1 ccbd
000001a0: 8262 dbbe 8c64 d43c 3b9d bebe 899f c4bd
000001b0: dd56 763e 4b72 29be df80 92bd dcac 8fbe
000001c0: 1b6d 8dbe fdc9 d2bd 53db 92be fa63 593e
000001d0: 2599 09be e999 80be fb03 1b3c 1253 42be
000001e0: ca3d a73e e3a7 c5be dad0 43be 072d d5bc
000001f0: 055c f2be 98c0 e1bd 5ceb 1fbe 565b 51bd
00000200: ca48 553d e7ac debe e3ce 5bbb 381f 26bf
00000210: 1b02 8dbd cc62 0c3e e263 eebd 09ba 68bd
00000220: 55c4 9fbe ac89 00be 4060 8fbc 1986 8cbe
00000230: 9737 99bd 24e9 31be 0886 833e 1200 86be
00000240: 8e8c 25be c0be 7d3d 2272 1abe 1c40 24be
00000250: 9922 48be 8b62 05bf 0daf 0fbd 32ac a2be
00000260: 2648 b9bd 965c 2cbf 1ea1 92be 155e 97bc
00000270: fd87 27bc 9521 d83e cb32 94bc 33bf 06be
00000280: 7503 edbd 8c3a 9e3e 4433 da3d 4a89 42be
00000290: 47b3 e4bc 6792 df3d bc11 4cbd b15c 7b3d
000002a0: bffc 803b facd b53b a6eb 623e 1d9f 86be
000002b0: 2f81 8d3e 1dd1 6f3e e762 54be 36bf 223d
000002c0: 3a1a 9f3e b958 a4be 7898 5abb 3393 51be
000002d0: eb7a 89bd bd50 e8bd 7444 8bbc 14db a83d
000002e0: 10d0 1ebc c199 28be 9218 01be b5c5 6abd
000002f0: d604 a23e 3de7 a7be 0920 ba3d df83 5bbe
00000300: da47 88be 6be3 7c3e d0d2 553d 1a8f d6be
00000310: 3e42 2ebc 8909 9bbe 88c8 703b 2f05 62be
00000320: 161b a9be 98e3 21be bbee aabe fbf4 2bbe
00000330: f880 fbbe 282b 8c3c bd63 dabe 10ff 37be
00000340: f676 b2be 396d a9be 1d25 5abd a815 0e3d
00000350: 9c66 94bb 2f25 c3be 70cc c7be c42f 243d
00000360: 796a fbbe 308b a53d c21b b1be 8ef6 ccbe
00000370: 110d acbd 6741 a83d 11a7 d1bd ce13 babe
00000380: 7d8a a0be 2867 213e 7a4d 83be c2bc 903d
00000390: 19f1 84be c739 14bf ae1c 533e c93c 14bf
000003a0: 0fec b6be 91e0 013e d96e 72be 629d e83e
000003b0: 9dea fcbd d933 803e 3e61 b3bd 8314 8c3e
000003c0: 21bd a83e ed70 c93c 2684 4b3e ed63 5fbe
000003d0: c318 2fbe 47a9 81bd c6d0 89be 0fa9 983e
000003e0: 4ae3 c23e 34ce 86be 8ca0 5dbe 7543 af3e
000003f0: 50a1 e53d fac2 19bf 9acc a5be ba23 433e
0.0899814 -0.2612441 0.092466384 0.1479478 0.037025284 0.067229316 0.083822094 -0.007337859
-0.15717474 0.05008728 -0.28634843 0.30763382 0.10416084 -0.18782207 0.029560005 0.009497632
-0.12785603 -0.1855846 0.3687879 0.014730916 -0.07752585 -0.1865839 -0.17778799 0.13852535
0.07636024 0.007866781 0.08439979 0.06168972 -0.120449066 -0.24687812 0.016912818 0.29706982
-0.009632599 -0.16797237 -0.17773168 0.20567395 0.072795905 -0.02541411 -0.025883507 0.2547773
-0.21780168 -0.06492319 -0.13283573 -0.5884425 -0.3124807 -0.11155787 0.35862216 -0.13136
-0.37369916 -0.63236624 -0.10253636 -0.17628974 0.01000723 -0.24852163 -0.71630937 -0.16669197
-0.33811036 -0.17263655 -0.25712863 -0.7755404 0.20434153 -0.6740525 -0.1728267 -0.14861883
-0.18886244 0.2571523 -0.09114582 -0.28094408 -0.2331784 -0.5802482 -0.06558298 -0.4917897
-0.27032664 0.31382623 -0.39447004 -0.26507154 0.010997302 0.15379548 0.036305927 -0.44180313
-0.07554706 -0.2572473 -0.28604522 -0.046946093 0.04255389 0.06660801 0.14578234 -0.15499377
0.048458606 0.19836959 -0.07226979 0.10661412 0.040973805 -0.11955945 -0.3803118 0.059674006
-0.16989258 -0.18417719 0.110017076 -0.20265548 -0.24577832 -0.12522125 -0.04740603 -0.09997882
-0.42848593 0.02592685 -0.37229332 -0.096007414 0.24056573 -0.16547506 -0.071534865 -0.2806157
-0.27622303 -0.102924325 -0.28682956 0.21229544 -0.13437326 -0.25117424 0.009461398 -0.18977001
0.3266433 -0.3860465 -0.1912264 -0.026022447 -0.4733583 -0.110230625 -0.15617126 -0.051112495
0.05207137 -0.4349129 -0.0033540062 -0.64891386 -0.06885167 0.13709563 -0.11640145 -0.056818042
-0.31204477 -0.12552518 -0.01750195 -0.27446058 -0.07481306 -0.17374092 0.25688195 -0.2617193
-0.16166899 0.06194949 -0.150826 -0.16040081 -0.19544448 -0.5210349 -0.03507905 -0.31772
-0.09046964 -0.67328775 -0.28638548 -0.018477479 -0.010225293 0.4221312 -0.018090626 -0.13158874
-0.11572925 0.30904043 0.106543094 -0.18997684 -0.027917517 0.10916596 -0.0498216 0.061367694
0.0039363797 0.005548236 0.22160205 -0.2629327 0.27637622 0.23419614 -0.20740853 0.039733134
0.31074697 -0.3209894 -0.0033355039 -0.20466308 -0.06712898 -0.113435246 -0.017000414 0.08244911
-0.009693161 -0.16464902 -0.12607029 -0.057317454 0.31644315 -0.32793608 0.090881415 -0.21437024
-0.26617318 0.24696128 0.052203 -0.41906053 -0.010635911 -0.30280712 0.003674062 -0.2207229
-0.33028477 -0.15809476 -0.33385262 -0.16792671 -0.49121833 0.017110422 -0.4265422 -0.17968392
-0.34856385 -0.33091143 -0.05325805 0.03468862 -0.0045288336 -0.38114306 -0.3902316 0.040084615
-0.4910467 0.080831885 -0.3459149 -0.40031856 -0.0840093 0.082155995 -0.102369435 -0.36343235
-0.31355658 0.15762007 -0.25645047 0.07067253 -0.25965193 -0.5790066 0.20616409 -0.5790525
-0.35726973 0.12683322 -0.23675098 0.45432574 -0.123494364 0.25039557 -0.08758782 0.273594
0.32956794 0.02458998 0.1987463 -0.21815462 -0.1709929 -0.06331115 -0.26917094 0.2981648
0.38064033 -0.26329195 -0.21643275 0.34231153 0.112124085 -0.60063136 -0.3238266 0.19056597

network_body._body_endoder.seq_layers.0.bias f4 [512]
00000000: 324f 40bd f64f afbe 9c54 5ebe 46bf 78be
00000010: 2116 d73c ccaf 90be 0284 03bd 724d 19bd
00000020: b178 b0bd 75bc acbe 503f 943c 72be b2be
00000030: 5e1b d4bd 0308 e5be 9f5f 6bbd 7c7c 8abd
00000040: 1363 4bbe 615d 25bc 6ec7 28be 371f 23be
00000050: 294b 37be cf78 67be f908 80bd 8c95 abbe
00000060: 7d58 c0be 5bce 15be b0a9 13be a8ad a2bc
00000070: 64e8 97bd f5c2 96be 00f8 16be 2095 07be
00000080: 8f4d 45be acbe 13be ceeb 04be 4773 20be
00000090: b584 acbe 1f33 03bd a75b 36be 4fd1 29be
000000a0: 8f5c d9bd 1431 a8be 37d2 91bd dfec 83be
000000b0: 7161 b5bd c497 20be b0cd c0be c558 d6bd
000000c0: 09e2 3bbe 814c 71be bad0 3cbe 38e6 abbd
000000d0: 8c4a b9bd 9f59 aebe f376 923d 35a9 88be
000000e0: 5911 21be f229 b1bd 93c7 75be df42 7ebd
000000f0: 6889 53be cf34 7bbe 0104 f1bd fcbd b7bd
00000100: 3928 4ebd 98ea 743d c521 71bd 3fc0 80bc
00000110: d0b8 dabd 4018 1bbe 75a3 9abe 3ecd 6abe
00000120: 3296 a53c d4f8 b7be ebac 3cbe ce44 04be
00000130: 3e07 81bd 92fb 9dbd d7a7 153d 3c92 21be
00000140: d714 f6bd 3f73 cdbd 05af 4bbe c80e 19be
00000150: 5b83 16be 8605 93be fe92 d1be 0dce 77be
00000160: 72eb 9ebe 2e46 ec3d 39a7 d1bc d783 c4be
00000170: 8202 f0bd 72a7 14be 1233 88bd 1e21 6dbe
00000180: 0cee 92bd 4ef3 84be 723f 15bd d35a 75bd
00000190: 6eeb 4cbe 5e3d b2be 9e0c d2be 031d 00be
000001a0: b9c2 b1be 5fcb 00be 37f6 94be d532 9abd
000001b0: c1f8 82bd c4d7 8abd b6af f3be 7aa3 b0be
000001c0: 971f 5cbe 1d9d 23be 108e 72be 1c10 2fbe
000001d0: 7220 29be f5b9 913c d1e5 fcbe 53ce edbc
000001e0: 596f 42be 4a30 78be ca2e 99bd 1c54 993d
000001f0: 4371 7ebe c7ad 34be 6a2f f8bd f8e1 57be
00000200: 3705 11be 0b55 c5bd 1741 e7be 4c74 ddbd
00000210: 2634 d4bd 4800 86bd ffa0 c0be 0635 29be
00000220: 40cf 0dbe f7f2 89be 7315 30be 68d7 77be
00000230: d684 ddbe 3b76 92bd fd22 ccbc fc41 ebb9
00000240: c896 49be c2f8 75be 3d18 c1bd a6d5 b9bd
00000250: f3f6 9cbe 2d7f ffbd feab b0bc 4357 c4be
00000260: c1b2 0cbe bd2f 143d bc18 9dbe 6494 96bd
00000270: 59c2 09bc c834 e0bd 56e2 4cbd eede 1dbe
00000280: 78e0 a9be 3d53 8ebe d178 e3bd ff6f 8cbe
00000290: ca35 15be f4ac e7bd d7d1 17be 2654 4abe
000002a0: 8d22 56bd 1f78 333d cf58 bcbe 1bed 09be
000002b0: 83ab debd de8f 1fbe bd7d 1dbe 8370 6cbe
000002c0: d242 4cbe f253 1abe a9af 7ebd 124e b6be
000002d0: 7753 353d 7d82 8dbe 5334 fcbe d497 87be
000002e0: f6bf 84be ee56 e9bd 4980 7cbd c878 8ebe
000002f0: 2be4 73be acf3 94be bbc9 8fbe 4345 8a3c
00000300: 6d53 2dbe 870e 72bd d2af 09be 5042 55be
00000310: 2141 b2be fd3f 46be 104f 653c a2ab 05be
00000320: 8787 933d deb6 cfbc e1ff e0be c241 babe
00000330: e262 99bd fc09 b03d fd90 aebd f2b2 c3be
00000340: 4797 5abe 5a8d a1bd 3dac c3bd 12c6 a7be
00000350: 11f7 0cbe f7c6 47be 6502 0dbe ca1f 38bd
00000360: 9fd9 c7be bb8c c0bd 376c a93c 1fd2 6cbe
00000370: 6359 8cbe 613c 2dbe 66ca 64be 6658 a4be
00000380: 9e87 9bbe e25c 8c3c 3abe 77be 69ac 29be
00000390: b75e 8cbe d16b 3bbd 4137 3abc d30e 3fbe
000003a0: 8de6 1fbe 7aec 23be 8951 65be bc22 15be
000003b0: 92ff f1bd 3784 31be 67d5 b7be b805 aabd
000003c0: bcc6 2fbe 6713 a0be c2f1 d3be 85fe 26be
000003d0: 1c33 c3be 6ba1 febd fe3f bbbd 58b2 7dbe
000003e0: a4cf d4bd 84c6 f9bd f7d8 fabd e0e4 abbd
000003f0: 3fde 7dbd ff48 4bbe 8792 81be 274d 5bbe
-0.046950527 -0.34240693 -0.21711963 -0.24291715 0.02625567 -0.28259122 -0.032108314 -0.037427373
-0.0861677 -0.3373753 0.018096596 -0.34910923 -0.103567824 -0.44732675 -0.05746424 -0.06762025
-0.19862013 -0.010093064 -0.16482326 -0.15929876 -0.17899765 -0.22604679 -0.062517114 -0.33512533
-0.3756751 -0.146295 -0.144202 -0.019858196 -0.07417372 -0.29445615 -0.14743042 -0.1324048
-0.19267868 -0.14428204 -0.12980577 -0.15668975 -0.33694997 -0.032031175 -0.178084 -0.16583751
-0.10613357 -0.32849944 -0.071201734 -0.25766656 -0.08856476 -0.15682894 -0.37656927 -0.1046615
-0.18347944 -0.2356434 -0.18438998 -0.0839352 -0.09047422 -0.3405275 0.07151594 -0.26691595
-0.15729274 -0.086505786 -0.24001913 -0.062075492 -0.20657885 -0.24531864 -0.11768342 -0.089717835
-0.050331328 0.05979404 -0.058870096 -0.01571667 -0.106797814 -0.1514597 -0.30202833 -0.22929856
0.02021322 -0.35932028 -0.18425338 -0.12916872 -0.063002095 -0.07713999 0.036537018 -0.1577844
-0.12015694 -0.10031747 -0.19890983 -0.14947045 -0.14698546 -0.28715152 -0.4093246 -0.24199696
-0.31039006 0.11536823 -0.025592433 -0.38381836 -0.11719228 -0.14517 -0.06650366 -0.23157164
-0.0717431 -0.25966877 -0.03643746 -0.05990107 -0.20011684 -0.34812444 -0.4102525 -0.12511067
-0.34718874 -0.1257758 -0.29094097 -0.07529227 -0.06395102 -0.06779435 -0.47594994 -0.34499723
-0.21496426 -0.15977903 -0.23687005 -0.17095989 -0.16516283 0.017788867 -0.49394086 -0.029029047
-0.18987788 -0.24237171 -0.074796274 0.07486746 -0.24847893 -0.17644416 -0.121184185 -0.21082294
-0.14162146 -0.09635361 -0.45166847 -0.108131975 -0.10361509 -0.065430224 -0.3762283 -0.16524133
-0.13848591 -0.2694318 -0.17195682 -0.24203265 -0.43265408 -0.07151457 -0.024919027 -0.00044871855
-0.19686425 -0.24020675 -0.09428451 -0.09073953 -0.30657157 -0.12475429 -0.021566387 -0.38347825
-0.13740064 0.03617834 -0.30682933 -0.07352522 -0.0084081525 -0.10947567 -0.05002054 -0.15417072
-0.3317907 -0.2779788 -0.11107028 -0.27429196 -0.145713 -0.11312285 -0.14826141 -0.19758663
-0.052279044 0.04381573 -0.36786506 -0.13469355 -0.10872557 -0.15582225 -0.15379997 -0.23089795
-0.19947365 -0.15071085 -0.06217924 -0.35606438 0.04426905 -0.27638617 -0.4925867 -0.26483023
-0.25927705 -0.11393534 -0.06164578 -0.27826524 -0.23817508 -0.29092157 -0.28083596 0.01687873
-0.16926356 -0.059095886 -0.13445976 -0.20826077 -0.34815314 -0.19360347 0.013995901 -0.13053754
0.07203584 -0.025355753 -0.4394522 -0.36378294 -0.074895635 0.08595654 -0.08523748 -0.38222462
-0.2134677 -0.07888289 -0.09554336 -0.32768303 -0.13766123 -0.19509493 -0.13770445 -0.04495219
-0.3903322 -0.09401842 0.020681484 -0.2312703 -0.27411947 -0.16917564 -0.22342834 -0.32098693
-0.30376905 0.017134134 -0.2419366 -0.16569676 -0.27416012 -0.04575712 -0.011365713 -0.18657999
-0.15615292 -0.16008177 -0.22394384 -0.14564031 -0.11816324 -0.17335592 -0.35905 -0.08301872
-0.17165655 -0.31264803 -0.41395384 -0.16308029 -0.3812493 -0.12433132 -0.09143065 -0.24775064
-0.10391167 -0.12196067 -0.12248414 -0.08393264 -0.06197953 -0.19852065 -0.25307104 -0.2141615

action_model._discrete_distribution.branches.0.weight f4 [4, 512]
00000000: 5a78 1bbd 6d3f 55bd cd72 213c eb8f 48bd
00000010: b68a c33d fb07 ecba df08 053d 17f6 cc3c
00000020: 710c 173d c9a9 85bc 1cdb 493e 4999 963d
00000030: 862c 66bd 54e7 e8bc 04ca 263c 33fc 173e
00000040: 30b3 73bd 8192 e13d fc74 d8bc 2fcc 513d
00000050: 5419 98bc ceb2 f63d 78a8 adbd 4115 14bd
00000060: b1fb 863c eaeb 823c 248d adbb 41ca 9bbb
00000070: dcb3 f73c dd8e 7cbb c8a9 133d 9f3f 803c
00000080: 4c77 743d e7b0 dabc 2ffd 94bd 3529 953b
00000090: 8b54 113c 6d67 703c e3af 283b a8ec f53c
000000a0: c9e5 1abd 69de b2bb a968 d2bc 2b3e 9dbd
000000b0: 7806 393d a4f2 0d3d 8ca8 0ebc 9eea 3d3c
000000c0: ea69 b9bd 2f01 28be 9718 293d f24f dfbc
000000d0: 7e3d cbbc 0a93 123d ea88 1d3b 8911 b7bd
000000e0: 84b8 90bc 2292 413d 2694 293c 8dcd 18bc
000000f0: e9cf e23c dba4 eb3c 8b86 693c d293 e4bc
00000100: bf2f b83a c6b8 2d3d f90d 933c 12b5 133d
00000110: d438 863d c600 a73d 2c74 333c dda9 9abc
00000120: d538 ae3d f7dd bdbc 2fe9 063d 3d1d 0d3d
00000130: 45e2 043d ffd3 b63d 150b cd3d 20ec 283d
00000140: ab0e 0fbd 1e16 e43c 7591 ea3c ec06 5c3c
00000150: 7983 273b 4bbf 9dbc a813 9dbc 991d 93bb
00000160: da53 593d 5450 4d3d f573 973c 460b 2c3c
00000170: 6250 d0bc 3c53 3b3d 2128 debd f1ae 6abc
00000180: 0652 ad3c 91d7 bd3b 3cc7 fa3d 0d42 83bd
00000190: 55c0 023c 82ce aabd 1c9e 21bd 21d7 f5bd
000001a0: 939e 5c3d ccb2 023d cbad 5e3c 84cf 5bbb
000001b0: 87d7 623c 0916 6abc 575e 883c 6bec 81bd
000001c0: e937 82bd 61e9 27bd 7479 7bbd 7c17 bb3d
000001d0: 4155 c03c e342 b6bc dbbb 9fbc 4e39 bfbc
000001e0: 3cf1 83bd 2d53 0bbd 1074 1e3d 78dc c0bc
000001f0: dfc4 ebbc f4e7 88bc 6065 2a3d 61b0 253e
00000200: f10c bf3b fc93 a0ba 6a87 ce3c f0a7 abbd
00000210: 3817 393d 09b0 eb3c c5ab a1bd 7e1b 763b
00000220: 3c74 65bc 577a 2e3d cacb 88bc 6504 b6bc
00000230: 70d9 36bc 28fa a63c e178 a43b 06cf 1dbc
00000240: c349 c43d 3c82 1c3d e483 07bc 4700 5039
00000250: dab6 e9bc 15e6 fcbc ba1a 413d ba27 e33c
00000260: ad31 1dbd b6bb 4ebd 6df7 58bc 2217 debd
00000270: fedb b23c 5966 633d 9a79 263d 2977 2c3d
00000280: 2d10 d8bd f386 9f3d acf3 1e3c 09fa febd
00000290: 1220 76bd 43f8 9bbb c8a4 d1bc 0a5f bb3b
000002a0: 29fd 5ebd f47b 19bd e1a5 ddbd 087b a2bd
000002b0: 56d7 6abd 271b 203c c840 133d dde7 8c3c
000002c0: 871a 42bd 50a7 013d fe96 d43c e582 f83b
000002d0: 83e6 92bd ff95 d3bc 8cc6 d73b 3f44 a4bd
000002e0: d1a5 b8bc fde2 9cbc e6f6 69bb 5b19 b8bd
000002f0: 2ba8 2c3d dfb3 57bd 0f95 f33c 7e23 853d
00000300: f9bd 7c3d 9af7 703c 8495 21bd a78a 38bd
00000310: fcf9 05bb 095a 803a 8b59 493d b07e 83bc
00000320: 37c6 253b 0833 dc3d b67c 72bd f426 cc3c
00000330: 3ef0 0f3a 2ed4 82bd 2d9e 03bd 5776 d8bc
00000340: d08d 223d 15f6 8e3d 4bfe 3fbc c670 ab3c
00000350: bbb3 2dbc dd9c b73c 991e 66bd 6369 67bd
00000360: 5546 133d 2afa 79bd 28b4 89bc 51a6 aabc
00000370: 4185 95bd 7d13 023d 335d 303d c3d6 41bb
00000380: 613d e5ba f168 843d 171e 2ebc 398b 883d
00000390: af26 a7bb d217 a23d 61ea 0f3d 967b 1c3e
000003a0: 2f11 1b3d 3c2d 313d c04f 2cbd f3d5 cc3d
000003b0: 329e 7a3c 1356 713d f61c 09bc 310c 003d
000003c0: b12f f8bb 00fe b93d e66d 25bb dd85 073d
000003d0: e96e 08bd f552 873d ba42 513d 8061 5b3c
000003e0: 4c70 82bd 83aa e73c c309 b1bd bedc dfba
000003f0: a8d2 0c3e d2dd 7f3d 32e8 ceb9 dbcd 76bd
-0.037956573 -0.05206244 0.009854031 -0.048965376 0.095479414 -0.001800775 0.032479163 0.025019689
0.0368771 -0.016316311 0.1971249 0.073534556 -0.056194805 -0.028430618 0.01018 0.148423
-0.05949706 0.110142715 -0.02642297 0.051220115 -0.018566765 0.12045823 -0.084793985 -0.03615308
0.016477438 0.015981633 -0.0052963663 -0.004754335 0.03023713 -0.0038537302 0.036050588 0.015655337
0.059684083 -0.026695682 -0.072748534 0.0045520314 0.008870254 0.014673096 0.0025739602 0.030020073
-0.037816796 -0.0054586423 -0.025684671 -0.07677873 0.045172185 0.03465523 -0.008707177 0.011591582
-0.09053405 -0.16406702 0.041283216 -0.0272598 -0.024809595 0.03578476 0.0024037906 -0.089388914
-0.017666109 0.047258504 0.010350263 -0.009326351 0.02768703 0.028765133 0.014253269 -0.027902517
0.0014052315 0.04241254 0.017950999 0.036061354 0.06553808 0.081544444 0.0109529905 -0.018879825
0.085069336 -0.02317713 0.032937225 0.034451712 0.03244235 0.08927154 0.10011879 0.04124081
-0.034926098 0.027842578 0.028633812 0.013429385 0.0025560542 -0.019256255 -0.019174412 -0.0044896123
0.053058483 0.050125435 0.01848791 0.010500735 -0.025428955 0.045733675 -0.10847498 -0.014323936
0.021157276 0.00579352 0.12245032 -0.064090826 0.007980426 -0.083401695 -0.039457425 -0.12003923
0.053862166 0.031908795 0.01359124 -0.0033540437 0.013845331 -0.01428748 0.016646547 -0.06343921
-0.0635832 -0.04099405 -0.061395124 0.09135339 0.023478152 -0.022248691 -0.019498756 -0.023342755
-0.06442496 -0.03401487 0.038684905 -0.023542628 -0.028780399 -0.016712166 0.041600585 0.16180564
0.0058304 -0.0012251134 0.025211055 -0.08381641 0.04518816 0.028770464 -0.078940906 0.0037553008
-0.014004763 0.04259714 -0.016698737 -0.022218892 -0.01116024 0.020382956 0.0050192927 -0.009631878
0.095843814 0.03821014 -0.008271191 0.00019836529 -0.028529573 -0.03087143 0.04714463 0.027728904
-0.038377453 -0.050471984 -0.013242585 -0.10844256 0.021833416 0.05551753 0.040643312 0.042105827
-0.1054996 0.077894114 0.009701651 -0.12450034 -0.06008918 -0.0047598197 -0.02559127 0.0057181166
-0.05444065 -0.037471727 -0.108226545 -0.079336226 -0.057334267 0.009772099 0.035950452 0.017200405
-0.04738858 0.031653702 0.025950905 0.007583963 -0.07172873 -0.02582836 0.006584948 -0.080208294
-0.022540005 -0.019151205 -0.0035700141 -0.08989211 0.042152565 -0.052661773 0.029734163 0.0650091
0.06170461 0.01470747 -0.03944923 -0.045054104 -0.0020443192 0.0009792458 0.04915766 -0.01605162
0.0025295147 0.10751921 -0.059200965 0.024920918 0.0005490816 -0.06388126 -0.03213327 -0.026423616
0.039686024 0.0698053 -0.011718343 0.020927798 -0.010601933 0.022413665 -0.056181524 -0.05649699
0.035955746 -0.06102959 -0.016809538 -0.020831259 -0.07300807 0.031756867 0.04305763 -0.002957747
-0.0017489606 0.064653285 -0.010627291 0.066671796 -0.005101047 0.079146996 0.03513563 0.1528152
0.037858184 0.04325603 -0.042068243 0.10001745 0.015296506 0.058919977 -0.008368721 0.031261627
-0.0075740446 0.0908165 -0.0025242507 0.033086646 -0.033308897 0.0660762 0.051089026 0.013389945
-0.06369075 0.028279549 -0.0864444 -0.0017079336 0.13752234 0.062467404 -0.0003946438 -0.060254913

action_model._discrete_distribution.branches.0.bias f4 [4]
00000000: ee6d 8c3c 2900 f03c 95c1 e3bd 41dc c73d
0.017142262 0.029296951 -0.11120907 0.09758807

action_model._discrete_distribution.branches.1.weight f4 [5, 512]
00000000: 2a36 69bd c48d 7abc eb4d ddbc c1fa 813d
00000010: 4ef1 1b3d 7f58 45bd 76ba d13d 06c8 423d
00000020: c739 253c 99e0 403d 7dd5 9d3d 45c6 c0bd
00000030: ffa6 a7bd cf14 bd3c d728 bdbd ff78 a33d
00000040: 24e9 603d 081d 963d ab7a ca3d b2cf 3ebd
00000050: c41b ce3d c5b8 01bd fb4b 8fbc a3dd a8bb
00000060: 8bff 59bc 5ab1 483d 596c c3bc 3652 2a3d
00000070: bc85 b53c d6ea 013c fe80 c73c 3cdb 1fbc
00000080: 0bad fa3c e161 3d3d 8b18 ff3c fa6e cfbd
00000090: 03da 8b3c d328 28bd 6412 1f3d b1f8 fc3d
000000a0: 9c5c 463c 5853 613d 7c39 d83d ed1a b7bc
000000b0: 8f2a 4b3d f8ed 27bc 0739 18bd 5eba d33d
000000c0: 4f7b b13d 9dcc 843d dbbe babc bd59 993d
000000d0: 8c88 df3b 0029 443d 0cf0 bb3d ca32 c439
000000e0: 3100 523c 8d8e 0fbd 328a f3bc 9ed6 32bb
000000f0: 6e97 1c3d 9f2d 1b3d c068 e3bc 8be8 913d
00000100: 9fbc 2d39 ef59 a23d d15b 093d 700d 183d
00000110: 9dc0 2c3c 55f0 973c c398 7ebd 4bd9 a138
00000120: a7a0 6a3d 00a2 97bc 04e4 d0bd 16ef 74bd
00000130: fad9 d53d 8da4 1c3d dccb 843d 1edf 8ebc
00000140: c10b 953d 1edc 1f3d 747d 0f3c 6dae 4b3d
00000150: 4825 c43d 398b 413c 82ac 96bd d5dc 87bc
00000160: a591 0d3d 5859 d53d c69a 1d3d 0773 ad3d
00000170: d29d 4fbd 35e0 d23c 8b3c 18bd 8b3a 26bc
00000180: e6a1 833d d5ef 8dbd 3a47 aa3d d2fe 223d
00000190: 5c01 8bbd 2027 f4bd 799a 2abd 58cf c63d
000001a0: 8ae8 43bd b0d9 d73c ed44 cf3c f89a 313d
000001b0: 18a9 7c3d fc11 fa3d 7483 373d 640f f9bb
000001c0: b0e9 f43d c9b1 073c 847a 54bd 4d92 bd3d
000001d0: dfff 99bd 3a31 8c3d e9fe 15bc 32af 32bd
000001e0: 51da bebd 0fb9 a0bd c3ae 8e3c 2896 133e
000001f0: 4b5c 273c 9447 82bd 92bb 883d 07b2 4d3d
00000200: f4c8 a4bd 4d18 23bd 4ec6 13bb f5b6 dabd
00000210: 9757 8e3d c242 af3d 2b8a 16bc 5405 f5bc
00000220: 2172 623d 6267 d1bb a880 38bc ad45 613d
00000230: 7b03 64bd 40da 073c 949a 6c3d 705e 43bd
00000240: dbef 8c3c 15ef 13bd 8aca cbbb 16cb 17bd
00000250: 7846 743c b19e c3bd b1c3 72bc a3aa 2e3d
00000260: 879c ba3d 4011 0fbc 376a bebc 931c c33c
00000270: d387 023d 80fb 983d 786b af3d 64d4 fe3b
00000280: 75cb ad3d 4363 813c d456 aabc 4b2d a23d
00000290: 58f0 b4bd c780 bd3c 18f5 41bd a34c 4f3d
000002a0: 9825 34bc a3f3 2c3d 7049 503d 2bb8 033d
000002b0: d1c3 80bd a2a3 d33c 1921 7a3d 50ac 803c
000002c0: b56a 0cbc 79e3 7fbc 03f0 4d3c b4f4 d8bd
000002d0: 8bf3 643c 74be 0b3e 7a3f 74bb ba8b 9c3d
000002e0: 649f 61bc 3a98 d0bd 45f7 4c3d d910 08bd
000002f0: 9935 a93d 8e68 60bd d2da 0d39 cb10 b73d
00000300: 770a 203b 099e a73c 0678 763d 6e9a 9fbd
00000310: 2563 bdbd 5682 df3c f2e5 ef3c ada3 c0bc
00000320: cc79 bd3d 63bb c63d 489a 32bd 5b05 2fbc
00000330: 0458 da3c 7043 eabc d42a 66bc 7963 53bd
00000340: 1c2f dbbc ea69 cd3d 8420 ddbb aa37 a93c
00000350: 3dfa d9bc 9118 953c de98 55bc e779 363d
00000360: 2e19 c43c 0dd8 aebc d1f7 2cbc b833 663d
00000370: fd88 1c3e 2a3a 923c 24c6 df3a 070d 5a3d
00000380: 0760 d33d 8c9a 8d3c 3232 c23c e41d 96bb
00000390: 4661 dbbd 60f8 853c c8ac c13d c77b 183d
000003a0: 4243 69bd 5d6b 3abc 4c44 49bc 3ddd 113d
000003b0: d4ec cfbc 595f d63d fb7d 11bd dc52 bc3d
000003c0: bf08 90bc 2682 4f3d c2dc bf3b abb6 00be
000003d0: bd21 c63c 593c d43b cdcf 373e 605c 573c
000003e0: c62f 283d bb05 bd3d 4260 b8bd 0f9c ffbc
000003f0: 3605 08bd a637 1d3d 6f08 223d 9943 323d
-0.05693642 -0.015292589 -0.027014693 0.06346656 0.038071923 -0.0481801 0.10240643 0.04755404
0.010084576 0.047089193 0.07706735 -0.09412817 -0.08186149 0.023081211 -0.09236305 0.079820625
0.05490984 0.07329756 0.09886678 -0.046584792 0.100638896 -0.03167035 -0.017492285 -0.0051533743
-0.013305555 0.04899726 -0.023855375 0.04158231 0.022158496 0.007929524 0.0243535 -0.009756859
0.030600091 0.046235923 0.031139633 -0.10128589 0.01707173 -0.041054558 0.038835898 0.123521216
0.012107041 0.055011123 0.10557839 -0.022351706 0.049601134 -0.010249607 -0.03716376 0.10338281
0.086660974 0.064843394 -0.022796085 0.07487819 0.0068216976 0.047890663 0.09176645 0.00037421874
0.012817428 -0.035048056 -0.029728983 -0.0027288566 0.038230352 0.037885305 -0.02775991 0.07124432
0.00016568833 0.0792731 0.03353483 0.03712219 0.010543969 0.018547216 -0.062157404 7.717552e-05
0.057282116 -0.018509865 -0.101997405 -0.059798323 0.10441966 0.038242865 0.064841956 -0.017440375
0.072776325 0.03902828 0.008757938 0.049726892 0.09577423 0.011812978 -0.07357122 -0.016584793
0.034562726 0.104174316 0.03847768 0.08469205 -0.05068762 0.025741676 -0.037167113 -0.010145794
0.06427364 -0.0693051 0.08314367 0.039793797 -0.06787369 -0.11921525 -0.041651223 0.097075164
-0.04782919 0.026348919 0.025301421 0.04336068 0.061684698 0.122104615 0.044803098 -0.0076007117
0.11958635 0.008282133 -0.051874653 0.0925642 -0.07519507 0.06845327 -0.009155014 -0.04362411
-0.09318984 -0.07847797 0.017417317 0.14412749 0.010214875 -0.06361309 0.06676401 0.05021861
-0.08046141 -0.039818097 -0.0022548619 -0.106794275 0.069503 0.08557655 -0.009188215 -0.029909767
0.055284623 -0.006390498 -0.011261143 0.05499809 -0.05566738 0.008291781 0.057764605 -0.047697484
0.017204216 -0.03611668 -0.006219213 -0.037058912 0.014909379 -0.09551752 -0.014817164 0.0426432
0.091118865 -0.00873214 -0.023244007 0.023817336 0.031867813 0.07469845 0.0856542 0.007776784
0.08486072 0.015794402 -0.020793356 0.07918795 -0.088349044 0.023132695 -0.04735288 0.050610196
-0.010995291 0.042224538 0.050851285 0.032158058 -0.06287349 0.025834862 0.06106672 0.015707165
-0.008570363 -0.015618199 0.01256943 -0.105935484 0.013974081 0.13646871 -0.003726928 0.07643838
-0.013770912 -0.10185285 0.050040502 -0.033219192 0.08262176 -0.05478721 0.00013528325 0.0893875
0.00244203 0.0204611 0.060173057 -0.07793127 -0.09247426 0.027283829 0.029284451 -0.023515547
0.092517465 0.0970371 -0.043604165 -0.010682429 0.026653297 -0.02859661 -0.014048297 -0.051608536
-0.026755862 0.10029967 -0.006748261 0.020656426 -0.02660858 0.01820019 -0.013036935 0.04454985
0.023937788 -0.021343255 -0.010557131 0.056201667 0.15286632 0.01785 0.00170726 0.05323508
0.1032105 0.017285608 0.023705576 -0.0045812 -0.10711913 0.016353786 0.094567835 0.03722742
-0.056948908 -0.011378136 -0.01228435 0.03561138 -0.025381483 0.10467405 -0.035520535 0.09195492
-0.017582295 0.05066123 0.005855174 -0.12569682 0.02418601 0.0064769206 0.17950363 0.0131445825
0.041061185 0.092296086 -0.09002735 -0.031202344 -0.033208095 0.03838315 0.039558824 0.043521497

action_model._discrete_distribution.branches.1.bias f4 [5]
00000000: cd27 db3c 8fd0 c93c bfc0 3d3d 9f7e 8d3c
00000010: ee14 b63b
0.026752377 0.024635581 0.046326395 0.017272292 0.005556694
