MLagents_test1/results/CarAgent_reinforcement_10/CarAgent/CarAgent-4499628.onnx (onnx, 108720 bytes, 7 tensors)

discrete_act_size_vector f4 [1, 2]
0	0x40800000	4.0
1	0x40a00000	5.0

network_body._body_endoder.seq_layers.0.weight f4 [512, 40]
0	0x3db8482b	0.0899814
1	0xbe37effa	-0.17962638
2	0xbd8c1f71	-0.068419345
3	0x3dca0f94	0.098662525
4	0xbd286006	-0.0411072
5	0x3d89af86	0.067229316
6	0x3e430c1b	0.19047587
7	0xbb3633fb	-0.002780198
8	0xbe915919	-0.2838829
9	0xbd430f0e	-0.04762178
10	0xbe929c43	-0.28634843
11	0x3eb648b8	0.35602355
12	0xbe19795a	-0.14987698
13	0xbe2e07dd	-0.16995187
14	0x3c188fa2	0.0093115885
15	0x3c1b9bf5	0.009497632
16	0x3a80a574	0.0009814934
17	0xbe4ee605	-0.20204933
18	0x3e831c8d	0.2560772
19	0xbd9f6947	-0.07783752
20	0xbd9ec5df	-0.07752585
21	0xbe791075	-0.24322684
22	0xbed6a9e3	-0.41926488
23	0x3ea01f38	0.31273818
24	0x3dbbb56a	0.09165461
25	0x3c00e3ac	0.007866781
26	0x3e2a1227	0.16608487
27	0xbddb0719	-0.10694713
28	0xbe02adde	-0.12761638
29	0xbea84401	-0.32864383
30	0x3c8a8cc0	0.016912818
31	0x3ea3d75c	0.32000244
32	0xbe58e4bf	-0.2118101
33	0xbdc82983	-0.09773543
34	0xbe22ee29	-0.15911163
35	0x3e21ac2c	0.15788335
36	0x3e3622a9	0.1778666
37	0xbd9205b1	-0.07129992
38	0xbd0eb6a5	-0.034842152
39	0x3e0a6b53	0.13517503
40	0xbe5f0767	-0.21780168
41	0xbd2ca652	-0.042150803
42	0xbe305ff3	-0.17224102
43	0xbf16a78c	-0.58849406
44	0xbee1ef66	-0.4412796
45	0xbde47874	-0.11155787
46	0x3e8dd277	0.27699634
47	0xbddaa97c	-0.10676858
48	0xbed9e1ab	-0.42554983
49	0xbf4fa8d3	-0.8111698
50	0xbdd1fe95	-0.10253636
51	0xbde511da	-0.111850455
52	0x3db60ecf	0.08889543
53	0xbed004ee	-0.4062876
54	0xbf56e32c	-0.83940387
55	0xbe2ab14d	-0.16669197
56	0xbef54017	-0.4790046
57	0xbe32b73d	-0.17452712
58	0xbe4c5e46	-0.19957837
59	0xbf678327	-0.904345
60	0x3e513ee8	0.20434153
61	0xbf2443de	-0.6416606
62	0xbe4a17cc	-0.1973564
63	0xbe5a71f2	-0.21332529
64	0xbe924fdc	-0.28576553
65	0x3e83a977	0.2571523
66	0xbe316aa4	-0.17325836
67	0xbea421a4	-0.32056916
68	0xbe7cd7f6	-0.24691758
69	0xbf2dfdd3	-0.6796543
70	0xbd86505f	-0.06558298
71	0xbebff11a	-0.37488633
72	0xbe8c2229	-0.27369812
73	0x3e403239	0.18769158
74	0xbef6005e	-0.48047155
75	0xbece52a4	-0.40297425
76	0x3c9877c6	0.0186118
77	0x3d9219ef	0.07133853
78	0xbc808883	-0.015690094
79	0xbeeada31	-0.45869592
80	0xbd9ab86b	-0.07554706
81	0xbe9f0378	-0.31057334
82	0xbd95476f	-0.072890155
83	0xbdd22b39	-0.1026215
84	0x3cabdce7	0.020979358
85	0x3d8869c8	0.06660801
86	0x3d3b1325	0.045672555
87	0xbe06aa0a	-0.13150802
88	0x3ddc0828	0.10743743
89	0x3e57de70	0.21080947
90	0xbd94022f	-0.07226979
91	0x3c6d1f5d	0.01447281
92	0x3e4ab9d6	0.19797453
93	0xbde6e8ef	-0.11274897
94	0xbecacb0c	-0.39608037
95	0x3d746cbb	0.059674006
96	0xbe84368b	-0.25822863
97	0xbe1259c6	-0.14292058
98	0x3df2d448	0.11856896
99	0xbe4dcf2a	-0.20098558
100	0xbe7bad50	-0.24577832
101	0xbe1fb803	-0.15597539
102	0x3d4c838a	0.049930133
103	0xbe020ce6	-0.12700233
104	0xbee0aa0f	-0.43879744
105	0x3cd4648c	0.02592685
106	0xbef3de4b	-0.47630534
107	0xbd25451a	-0.040349104
108	0x3e914b8e	0.28377956
109	0xbe1b8e9d	-0.15191121
110	0xbd9280df	-0.071534865
111	0xbea99b52	-0.33126312
112	0xbe388890	-0.18020844
113	0xbe035040	-0.12823582
114	0xbe9502ed	-0.29103795
115	0x3e7a936b	0.24470298
116	0xbe1c603b	-0.15271084
117	0xbe678a6a	-0.22611395
118	0xbcb4455b	-0.022005728
119	0xbe63f514	-0.22261459
120	0x3ea73dca	0.3266433
121	0xbedbf8a0	-0.42963123
122	0xbeba8a6c	-0.36433733
123	0xbd7ee189	-0.062226806
124	0xbf12734d	-0.57207185
125	0xbde1c098	-0.110230625
126	0xbe58434c	-0.21119422
127	0xbdf270d4	-0.118379265
128	0xbd05b49f	-0.032642957
129	0xbf0cfb98	-0.550714
130	0xbb5bcee3	-0.0033540062
131	0xbf31c88a	-0.69446623
132	0xbe4d9f1a	-0.20080224
133	0x3ddda9bf	0.10823392
134	0xbe60a11f	-0.21936463
135	0xbd68ba09	-0.056818042
136	0xbeb8187d	-0.35956183
137	0xbe2e7418	-0.17036474
138	0xbd88c673	-0.06678476
139	0xbecad353	-0.39614353
140	0xbd993797	-0.07481306
141	0xbe11986e	-0.14218304
142	0x3dd6cdfa	0.10488506
143	0xbea47dc1	-0.32127193
144	0xbe8065af	-0.25077578
145	0x3d7dbec0	0.06194949
146	0xbe4bdad5	-0.19907697
147	0xbdd6dbe6	-0.10491161
148	0xbebfcabf	-0.3745937
149	0xbf205b2b	-0.6263911
150	0xbd0faf0d	-0.03507905
151	0xbe8d6f99	-0.27624205
152	0xbe58b7a2	-0.211638
153	0xbf538102	-0.82618725
154	0xbec6d01d	-0.38830653
155	0xbd38bdb5	-0.045102794
156	0xbdb339a8	-0.087512314
157	0x3ebaf691	0.3651624
158	0xbdbf706a	-0.09347613
159	0x3d42f14a	0.047593392
160	0xbded0375	-0.11572925
161	0x3eab8b76	0.33504838
162	0x3db25878	0.0870828
163	0xbe412ccf	-0.1886475
164	0xbd5ec0ec	-0.054383203
165	0x3ddf9267	0.10916596
166	0x3cfb066d	0.030642712
167	0xbc45021e	-0.012024431
168	0xbde6f255	-0.1127669
169	0xbdab9e44	-0.08379796
170	0x3e62eba6	0.22160205
171	0xbe9f188a	-0.3107341
172	0x3e725676	0.23665795
173	0x3e6b1cb1	0.22960164
174	0xbe4e473f	-0.20144366
175	0x3d22bf36	0.039733134
176	0x3ebaef5e	0.36510748
177	0xbecb5199	-0.39710692
178	0xbdf9acad	-0.121911384
179	0xbe9f5659	-0.31120566
180	0xbd897aeb	-0.06712898
181	0xbea4505f	-0.32092568
182	0xbd80930b	-0.06278046
183	0x3e47e852	0.19522217
184	0x3c5d578a	0.0135096405
185	0xbe2899c1	-0.16464902
186	0xbdeadfff	-0.11468505
187	0xbdc7069e	-0.09718059
188	0x3e65024a	0.22364154
189	0xbee19d06	-0.44065112
190	0x3dba2009	0.090881415
191	0xbeac1b4c	-0.33614576
192	0xbeaef458	-0.34170794
193	0x3ea1305b	0.31482205
194	0x3d87924e	0.06619702
195	0xbf14b232	-0.58084404
196	0xbce36bbe	-0.027761336
197	0xbe95fe20	-0.29295444
198	0xbdcd36e5	-0.10020236
199	0xbf00dbf0	-0.503356
200	0xbea91b16	-0.33028477
201	0xbe29019f	-0.16504525
202	0xbe81a7e4	-0.25323403
203	0xbe5132df	-0.20429562
204	0xbeefabec	-0.46810853
205	0x3c8c2b28	0.017110422
206	0xbeffa354	-0.49929297
207	0xbd49fbfc	-0.049312577
208	0xbe931b33	-0.2873169
209	0xbe95fadd	-0.29292956
210	0xbd5a251d	-0.05325805
211	0x3d9f1b59	0.07768888
212	0x3e0853f9	0.13313283
213	0xbec04721	-0.37554267
214	0xbebacec9	-0.3648589
215	0x3d242fc4	0.040084615
216	0xbf06441c	-0.52447677
217	0x3e184007	0.14868174
218	0xbe86d0a9	-0.2633107
219	0xbeb7113f	-0.35755345
220	0xbdac0d11	-0.0840093
221	0x3e342a43	0.17594247
222	0xbe147935	-0.14499362
223	0xbec0971b	-0.37615284
224	0xbe8c655f	-0.2742109
225	0x3e216728	0.15762007
226	0xbe94e27d	-0.29079047
227	0x3e3e573f	0.18587969
228	0xbe617dd1	-0.22020651
229	0xbf06311d	-0.5241869
230	0x3e531cae	0.20616409
231	0xbf0c1754	-0.54723096
232	0xbeaf2eca	-0.34215385
233	0x3e25aad5	0.16178448
234	0xbe4fd82a	-0.20297304
235	0x3f05217d	0.52004224
236	0xbe4dbcce	-0.20091555
237	0x3e8ace43	0.2711049
238	0xbe06a120	-0.13147402
239	0x3ef4a3cd	0.4778122
240	0x3ea8bd21	0.32956794
241	0xbbb12076	-0.005405481
242	0x3e746b51	0.23869063
243	0xbe83d3e3	-0.25747594
244	0xbe3e0f88	-0.18560612
245	0xbd81a947	-0.06331115
246	0xbea3e0dc	-0.32007492
247	0x3ea928e2	0.33039004
248	0x3ecefddb	0.4042805
249	0xbe764ea3	-0.24053435
250	0xbe5da08c	-0.21643275
251	0x3ea95c3c	0.33078182
252	0x3e5d9f68	0.2164284
253	0xbf53b83d	-0.82703
254	0xbeb2ed0f	-0.34946486
255	0x3e4323ba	0.19056597

network_body._body_endoder.seq_layers.0.bias f4 [512]
0	0xbd8f91cd	-0.07010231
1	0xbed4a20d	-0.41529885
2	0xbe64b844	-0.22335917
3	0xbeb7294f	-0.35773703
4	0xbc294fe7	-0.010333992
5	0xbe73dea9	-0.23815407
6	0xbc9f22c2	-0.019425754
7	0x3c7f9c2a	0.015601197
8	0xbcf788a4	-0.030216523
9	0xbeca9024	-0.39563096
10	0xbd79efc2	-0.061019666
11	0xbedcebc0	-0.43148613
12	0xbd57b14b	-0.052659314
13	0xbef66231	-0.4812179
14	0xbdb50014	-0.088379055
15	0xbd92e350	-0.07172263
16	0xbe924110	-0.28565264
17	0xbd50d8f7	-0.050988164
18	0xbe2b6445	-0.16737469
19	0xbe1bc1ce	-0.1521065
20	0xbde2695d	-0.11055253
21	0xbe896a27	-0.268388
22	0xbdaaee57	-0.08346241
23	0xbefdbe11	-0.49559072
24	0xbf0066cb	-0.5015685
25	0xbe991944	-0.2990209
26	0xbe194f5c	-0.1497168
27	0xbc786d20	-0.015162736
28	0xbdc55bfc	-0.09636685
29	0xbed5a6cd	-0.4172882
30	0xbe19982c	-0.14999455
31	0xbd1afee0	-0.037840724
32	0xbe7c7bfd	-0.24656673
33	0xbdfbaf16	-0.12289254
34	0xbe017e5a	-0.12645856
35	0xbe0eb7a3	-0.1393724
36	0xbee41e6d	-0.44554463
37	0xbcadedbe	-0.021231528
38	0xbe4b1540	-0.19832325
39	0xbdb19dd7	-0.08672684
40	0xbdae2fb1	-0.0850519
41	0xbeda2fb0	-0.42614508
42	0xbc1d58c3	-0.009603682
43	0xbeae4426	-0.34036368
44	0xbdb9f3fc	-0.090797395
45	0xbe08afae	-0.13348266
46	0xbed205f1	-0.41020158
47	0xbdcae7b2	-0.099074736
48	0xbe81dfeb	-0.25366148
49	0xbe97ac7b	-0.2962378
50	0xbe8297a2	-0.25506312
51	0xbd3a1f65	-0.045440096
52	0xbe0c5cf9	-0.13707341
53	0xbeafec5b	-0.34360012
54	0x3df34347	0.118780665
55	0xbeb0602c	-0.34448373
56	0xbe4e259f	-0.20131539
57	0xbdb5579a	-0.08854599
58	0xbe3c7f52	-0.18407944
59	0xbd92edc4	-0.071742564
60	0xbe4c04be	-0.19923684
61	0xbe6cd7b7	-0.23129164
62	0xbe063921	-0.1310773
63	0xbd8cd00f	-0.068756215
64	0x3a9915e9	0.0011679503
65	0xbc8c7835	-0.017147163
66	0xbdfdaa70	-0.12386024
67	0x3c8a319a	0.016869355
68	0xbd272073	-0.04080243
69	0xbe0dcd4c	-0.13847846
70	0xbec68425	-0.38772693
71	0xbe84d97a	-0.2594717
72	0x3bb7739f	0.0055985
73	0xbed6bd05	-0.41941085
74	0xbe9c9c84	-0.30588162
75	0xbdb13331	-0.08652342
76	0xbe0d8029	-0.1381842
77	0xbdc0f07e	-0.0942087
78	0x3d8fd4f1	0.07023037
79	0xbde75f1e	-0.11297439
80	0xbd93eef4	-0.07223311
81	0xbdd19ff8	-0.1023559
82	0xbe39f8d2	-0.18161324
83	0xbe462453	-0.19349794
84	0xbe01673d	-0.12637039
85	0xbe9f8940	-0.311594
86	0xbeeacd00	-0.45859528
87	0xbe9a4c29	-0.3013623
88	0xbec55d83	-0.38547906
89	0x3e27b542	0.16377738
90	0x3ccd51d5	0.025063435
91	0xbf0fa579	-0.56111866
92	0xbdbc953d	-0.092081524
93	0xbdd0ace2	-0.10189225
94	0xbd459369	-0.048236284
95	0xbe024c60	-0.12724447
96	0xbd1d3f18	-0.03839025
97	0xbe83a9bc	-0.25715435
98	0xbde806ca	-0.1132942
99	0xbd9e2923	-0.0772269
100	0xbe685952	-0.22690323
101	0xbe9dd102	-0.30823523
102	0xbef41996	-0.4767577
103	0xbe07fbba	-0.1327962
104	0xbec0d2ea	-0.37660915
105	0xbe2267fa	-0.15859976
106	0xbe8ec96c	-0.27888048
107	0xbdfeff36	-0.124510214
108	0xbdcb2b59	-0.09920377
109	0xbd656a12	-0.05600936
110	0xbf0a934b	-0.54131
111	0xbec30ce4	-0.38095772
112	0xbe20cbdd	-0.15702768
113	0xbdee1d5d	-0.11626694
114	0xbe89ca07	-0.26911947
115	0xbdf3435b	-0.118780814
116	0xbdde97cc	-0.10868797
117	0x3cdbebe3	0.026845878
118	0xbf0a85d8	-0.5411048
119	0xbd176df2	-0.036970086
120	0xbdd44408	-0.103645384
121	0xbe34f002	-0.1766968
122	0xbde2b19c	-0.110690325
123	0x3df4d5e2	0.119548574
124	0xbea1afdc	-0.31579483
125	0xbe9660b2	-0.29370648
126	0xbd844a54	-0.064594895
127	0xbe2e6b79	-0.17033185
128	0xbe200183	-0.15625577
129	0xbdad57d7	-0.0846402
130	0xbefa7624	-0.4891826
131	0xbdd2fc27	-0.103020005
132	0xbe346c24	-0.17619377
133	0xbdd06e4a	-0.10177286
134	0xbee6e907	-0.4509966
135	0xbeaa6b6d	-0.33285084
136	0xbe204170	-0.15649962
137	0xbe91f4e1	-0.2850714
138	0xbe7c023f	-0.24610232
139	0xbe9e139e	-0.30874342
140	0xbefae275	-0.49000898
141	0xbd8cc7e8	-0.068740666
142	0xbc894461	-0.016756238
143	0xbdb3bee2	-0.087766424
144	0xbdcffb12	-0.1015531
145	0xbeae7038	-0.3406999
146	0xbd8d68a2	-0.06904723
147	0xbdc0bc10	-0.0941087
148	0xbeacc039	-0.33740404
149	0xbdd83ca4	-0.10558441
150	0xbcb290cf	-0.021797566
151	0xbef72676	-0.4827153
152	0xbdf35288	-0.11880976
153	0x3d78a7d6	0.060706936
154	0xbede75e7	-0.43449327
155	0xbdb19b93	-0.086722516
156	0x3cbd2d56	0.023092907
157	0xbe357ca1	-0.17723323
158	0xbdc0ac12	-0.0940782
159	0xbdf53591	-0.119731076
160	0xbec7f85f	-0.3905668
161	0xbe9200c8	-0.2851622
162	0xbe2fe52e	-0.17177269
163	0xbe8bcd8d	-0.2730526
164	0xbe186cc6	-0.14885244
165	0xbde3eafd	-0.11128805
166	0xbd6f3113	-0.05839641
167	0xbe8ba94f	-0.2727761
168	0xbd823426	-0.06357603
169	0x3d59560f	0.053060587
170	0xbebeea8d	-0.37288323
171	0xbe1f27c1	-0.15542509
172	0xbde2551a	-0.11051388
173	0xbe6f68e6	-0.2337986
174	0xbe71ecb8	-0.23625457
175	0xbe45750f	-0.19282936
176	0xbe79d402	-0.24397281
177	0xbd3d17d3	-0.0461653
178	0xbd4a115b	-0.049332958
179	0xbeead439	-0.45865038
180	0x3d92bb06	0.07164578
181	0xbe436019	-0.19079627
182	0xbf099960	-0.53749657
183	0xbe1b30a5	-0.15155275
184	0xbeb59086	-0.35461825
185	0xbe030475	-0.12794669
186	0xbd18b19f	-0.037278768
187	0xbeaaf1f0	-0.3338771
188	0xbe976b6d	-0.29574147
189	0xbe7b13fa	-0.24519339
190	0xbec5f2dd	-0.38661852
191	0xbc5d2062	-0.01349649
192	0xbe0c467b	-0.13698761
193	0xbd409126	-0.047013424
194	0xbde2cc10	-0.11074078
195	0xbdf8673e	-0.12129067
196	0xbeaec675	-0.34135786
197	0xbe3722ab	-0.17884319
198	0x3d523106	0.051316284
199	0xbda2e754	-0.079542786
200	0x3cf8fe48	0.030394688
201	0xbc274919	-0.010210299
202	0xbef92377	-0.4865987
203	0xbecee90d	-0.4041218
204	0x3c335228	0.010944881
205	0x3cef30f0	0.02919814
206	0xbd92c967	-0.07167321
207	0xbed2afdd	-0.41149798
208	0xbe745895	-0.23861916
209	0xbd8a1d96	-0.06743924
210	0xbd1a1294	-0.037615374
211	0xbeeb3307	-0.45937368
212	0xbdc8ec91	-0.098107465
213	0xbe13d234	-0.14435655
214	0xbe143f18	-0.14477193
215	0xbb6d75cc	-0.0036233542
216	0xbf174f9f	-0.5910587
217	0xbdb9d049	-0.0907293
218	0x3d5d13a3	0.053973805
219	0xbe891da5	-0.2678043
220	0xbeea2b12	-0.45735985
221	0xbe0d6aa1	-0.13810207
222	0xbe586b94	-0.21134788
223	0xbea923a6	-0.3303501
224	0xbead3831	-0.33831933
225	0x3db84068	0.089966595
226	0xbe4ae869	-0.1981522
227	0xbe6ee27d	-0.23328586
228	0xbe60b5cc	-0.2194435
229	0xbd7f9bbe	-0.062404387
230	0x3d59a90a	0.053139724
231	0xbe290ce7	-0.16508828
232	0xbeade823	-0.3396617
233	0xbd51073a	-0.051032282
234	0xbe60d3b9	-0.21955766
235	0xbdbd218c	-0.09234914
236	0xbdcba0ca	-0.099427775
237	0xbea84579	-0.32865503
238	0xbec5fbb5	-0.386686
239	0xbe114fcd	-0.14190598
240	0xbe42a3e3	-0.1900783
241	0xbec458e7	-0.38349077
242	0xbede1bfe	-0.4338073
243	0xbe210813	-0.15725736
244	0xbeca3bc5	-0.39498726
245	0xbe096f9a	-0.13421479
246	0xbe79b968	-0.24387133
247	0xbe6090d8	-0.21930254
248	0xbd871337	-0.06595462
249	0xbdca8233	-0.09888115
250	0xbe1f90dc	-0.15582603
251	0xbdd07007	-0.101776175
252	0xbd332010	-0.04373175
253	0xbe3eef40	-0.18645954
254	0xbe99bd57	-0.30027267
255	0xbe906aec	-0.28206575

action_model._discrete_distribution.branches.0.weight f4 [4, 512]
0	0x3ce790d2	0.028267298
1	0xbdd04622	-0.10169627
2	0xbcb75848	-0.022380963
3	0xbda55588	-0.080729544
4	0x3db799c5	0.08964876
5	0xbd594070	-0.053039968
6	0xbc969ce3	-0.018385356
7	0x3cceb1ed	0.025231326
8	0xbc5d2ce9	-0.013499477
9	0xbc5f8e9c	-0.013644841
10	0x3e12b588	0.14327061
11	0x3cfb0667	0.030642701
12	0xbdfbfa6a	-0.12303622
13	0xbc36fa7a	-0.011168117
14	0xbdb9221d	-0.0903971
15	0x3e1f9c05	0.1558686
16	0xbdab64ad	-0.08368812
17	0xbd250bcc	-0.040294454
18	0xbe1ab6ea	-0.15108839
19	0xbc9e009f	-0.019287406
20	0xbdfc9215	-0.123325504
21	0x3e1809e3	0.14847521
22	0xbe3551a5	-0.17706926
23	0xbd803891	-0.06260789
24	0xbd5109d9	-0.051034782
25	0x3d28f66c	0.04125063
26	0x3b36ef1b	0.0027913514
27	0xbc553adc	-0.013014521
28	0x3c8d9398	0.017282292
29	0xbda6dd8e	-0.08147727
30	0x3ce09e39	0.027419196
31	0xbe15e7f2	-0.14639261
32	0x3c9c59c3	0.01908577
33	0xbe02202e	-0.12707588
34	0x3c493ede	0.012283055
35	0xbd18bf63	-0.037291896
36	0x3b8767a6	0.004132229
37	0xbca6f684	-0.02038122
38	0x3cd20307	0.02563621
39	0xbdc22c2c	-0.09481081
40	0xbde5b1f2	-0.11215581
41	0x3d537482	0.051624782
42	0x3afd42f6	0.0019322324
43	0xbe1bb97a	-0.15207472
44	0x3dac6b5d	0.084189154
45	0x3bcd78fc	0.006270526
46	0xbd7f547f	-0.06233644
47	0xbc719de4	-0.014747117
48	0xbe1af9b8	-0.15134323
49	0xbe02ba8a	-0.12766472
50	0x3b55b7a9	0.003261069
51	0xbd0d2a06	-0.034463905
52	0xbe01cefe	-0.12676618
53	0x3c889a48	0.01667513
54	0x3d37de3e	0.04488968
55	0xbda542f3	-0.0806941
56	0xbd42bf22	-0.04754556
57	0x3c9ad6e5	0.018901298
58	0x3cc65629	0.024211006
59	0xbcaa32e4	-0.02077622
60	0x3d14ed1e	0.036358945
61	0xbcdadfa6	-0.026717972
62	0x3c35b83b	0.011091287
63	0xbd1f2607	-0.038854625
64	0x3d7a6477	0.061130967
65	0x3d11074c	0.03540735
66	0x3d7b72a1	0.061388616
67	0xbcf4cdd5	-0.029883305
68	0x3cd79482	0.026315931
69	0x3c91e403	0.01780892
70	0x3beb23f7	0.007175918
71	0xbc4ef158	-0.012630783
72	0x3d19e6ca	0.037573613
73	0xbc62d489	-0.013844618
74	0x3d5253bf	0.051349398
75	0xbe22c0f8	-0.15893924
76	0x3c0c985b	0.008581246
77	0x3dbaf4be	0.09128712
78	0x3ddc3860	0.1075294
79	0x3e2b0bcf	0.16703723
80	0xbd89b379	-0.06723685
81	0x3c6787c7	0.014131493
82	0xbdf40296	-0.11914556
83	0xbd72c372	-0.059268422
84	0x3cd63ba5	0.026151488
85	0xbd5cf648	-0.05394581
86	0xbd72ee35	-0.059309203
87	0x3d0383e1	0.03210819
88	0x3d86379e	0.06553577
89	0x3de93279	0.1138658
90	0xbd33aa22	-0.043863423
91	0x3d3b3850	0.045708
92	0xbe043088	-0.12909138
93	0x3d9d33fc	0.07675931
94	0xbe34e4a9	-0.17665352
95	0xbe3b83fc	-0.18312067
96	0xb94bdce6	-0.0001944188
97	0xbcd49000	-0.02594757
98	0x3c115299	0.0088697905
99	0xbdaa1b5b	-0.08305999
100	0x3c95bb69	0.01827784
101	0xbda22ae7	-0.07918339
102	0xbde96d83	-0.11397841
103	0xbe4947be	-0.19656274
104	0x3d8753da	0.0660779
105	0xbd3152e9	-0.04329196
106	0x3d13580b	0.035972636
107	0x3cf011d7	0.029305382
108	0x3cec5d97	0.02885322
109	0xbd6adcb2	-0.057339378
110	0x3c496b25	0.012293612
111	0xbe09c888	-0.13455403
112	0xbe20e080	-0.1571064
113	0x3a380902	0.0007020385
114	0xbd92d1a5	-0.07168893
115	0x3de65e6e	0.1124848
116	0x3d40ccea	0.04707042
117	0xbd67f2e4	-0.056628123
118	0xbde8ee28	-0.1137355
119	0xbd8c644c	-0.068550676
120	0x3cbf64e0	0.02336353
121	0xbe317128	-0.17328322
122	0xbd2a43c8	-0.041568547
123	0x3c479c9a	0.012183333
124	0xbd572625	-0.05252661
125	0xbdc8112c	-0.097689
126	0xbd76a511	-0.060216013
127	0x3e4f441a	0.20240822
128	0xbd8647e5	-0.065566815
129	0x3c6c3767	0.014417506
130	0x3d48fdf7	0.049070325
131	0xbe1b8880	-0.1518879
132	0xbc966b91	-0.018361839
133	0x3d81b0ee	0.06332575
134	0xbd96477d	-0.07337854
135	0x3c8903cf	0.016725449
136	0xbc92086d	-0.017826283
137	0xbd88b17f	-0.0667448
138	0xbd3b427b	-0.045717698
139	0xbd22948a	-0.03969244
140	0xbdbd4038	-0.092407644
141	0xbd4f1d65	-0.050565142
142	0xb9d1a68d	-0.00039987676
143	0x3a33031a	0.000682877
144	0x3d948c88	0.07253367
145	0x3ced80d8	0.028992102
146	0xbd3315b8	-0.043721884
147	0xbdc30b32	-0.0952362
148	0xbde82f84	-0.11337188
149	0xbcaaefaa	-0.020866234
150	0x3cad23b2	0.021135185
151	0xbc139826	-0.009008443
152	0xbd0c7792	-0.03429372
153	0xbe36a772	-0.17837313
154	0xbd60652c	-0.054783985
155	0xbd927cd0	-0.07152712
156	0x3c99a305	0.018754492
157	0x3d833545	0.06406645
158	0x3c17dded	0.00926922
159	0xbb9ca4e9	-0.004780401
160	0xbe1ea9dd	-0.15494485
161	0x3e0414bd	0.12898536
162	0xbc803c39	-0.015653716
163	0xbe76049b	-0.24025194
164	0xbda9c5a7	-0.08289652
165	0xbd66f581	-0.056386475
166	0xbdb2cf4a	-0.087309435
167	0xbad52319	-0.001626107
168	0xbd2c2faa	-0.042037643
169	0x3d0dbe81	0.034605507
170	0xbe35233c	-0.17689222
171	0xbcafbc86	-0.0214522
172	0xbe123e3f	-0.14281558
173	0xbc07359f	-0.00825253
174	0x3dc90e95	0.098172344
175	0xbd88e0b5	-0.066834845
176	0x3d0cdba5	0.034389157
177	0xbbc0c1a9	-0.005882461
178	0x3da9673a	0.08271642
179	0x3d2d324e	0.042284302
180	0xbcd36151	-0.02580324
181	0xbe2ea0d5	-0.1705354
182	0xbd35f2b4	-0.044420913
183	0xbe1f840c	-0.15577716
184	0xbd0822fe	-0.033236496
185	0xbc510f39	-0.012759977
186	0x3c8fb2da	0.017541338
187	0xbdad5dba	-0.084651425
188	0x3d1a9877	0.037743058
189	0xbd24425a	-0.04010234
190	0x3d371148	0.044694215
191	0x3c18437c	0.009293433
192	0x3da938ef	0.08262812
193	0xbd6ae006	-0.05734255
194	0xbe211821	-0.1573186
195	0x3ce5e363	0.028062528
196	0xbda68536	-0.08130877
197	0xbcb0414e	-0.021515515
198	0xba89b796	-0.0010506983
199	0x3b262bee	0.0025355774
200	0x3d561d1b	0.05227385
201	0x3e5c9296	0.21540293
202	0xbdd87fef	-0.105712764
203	0x3d1c2b37	0.03812715
204	0xbd635e68	-0.055509955
205	0xbdfe27e7	-0.124099545
206	0xbdb7f403	-0.089820884
207	0xbdf8935b	-0.12137481
208	0x3d460c28	0.048351437
209	0x3e2ff7a9	0.17184319
210	0x3d98cdb5	0.074611105
211	0x3d9cc1e3	0.076541685
212	0xbc27d2c0	-0.010243118
213	0x3e028be4	0.12748677
214	0xbe267f8d	-0.16259594
215	0xbb91d9c3	-0.004451008
216	0xbcf148b1	-0.029453607
217	0xbdd39d30	-0.103327155
218	0xbcce5a8a	-0.025189657
219	0xbcc7e538	-0.024401292
220	0x3d4d3fc7	0.05010965
221	0x3d602439	0.054722045
222	0x3d1c5f1b	0.038176637
223	0xbd947e2d	-0.072506286
224	0x3da8a9bc	0.08235499
225	0x3def55f0	0.11686313
226	0xbd246c22	-0.040142186
227	0x3dc95337	0.09830325
228	0xbc2fbe61	-0.010726542
229	0x3e2c9d37	0.16856848
230	0x3dad08e5	0.08448962
231	0x3e48e3ee	0.19618198
232	0x3cba1a3d	0.02271759
233	0x3ddde238	0.108341634
234	0xbd8d636f	-0.06903731
235	0x3dd1e101	0.10247994
236	0xbd0c2cda	-0.03422246
237	0x3dbe69c4	0.09297517
238	0xbd275f1d	-0.04086219
239	0xbc731acd	-0.014837933
240	0xbdb698e8	-0.08915883
241	0x3dce38a2	0.100693956
242	0xbd9dc605	-0.07703785
243	0xbcca4627	-0.024691654
244	0xbd786430	-0.06064242
245	0x3d058a4c	0.032602593
246	0x3cf23fa9	0.029571371
247	0xbd0048ac	-0.031319305
248	0xbd31eec2	-0.043440588
249	0x3e0c57c6	0.13705358
250	0xbe2802b3	-0.1640728
251	0xbd6b974d	-0.05751734
252	0x3de02ec1	0.109464176
253	0x3de96184	0.11395553
254	0xbd404b5c	-0.04694687
255	0xbde09ef7	-0.1096782

action_model._discrete_distribution.branches.0.bias f4 [4]
0	0x3d2f489e	0.042793863
1	0x3d42b6ae	0.0475375
2	0xbe2e22b1	-0.17005421
3	0x3e078417	0.13233982

action_model._discrete_distribution.branches.1.weight f4 [5, 512]
0	0x3d93f9a4	0.072253495
1	0xbd7c2d56	-0.061566673
2	0x3d24aa06	0.04020121
3	0xbc9369d5	-0.0179948
4	0x3e131609	0.14363874
5	0xbdd2a9a4	-0.10286263
6	0x3db651c5	0.08902315
7	0x3de3dff5	0.11126701
8	0xbcac12f1	-0.021005126
9	0xbb11fe9f	-0.002227701
10	0x3d4397a1	0.047752026
11	0xbdc1da78	-0.09465498
12	0xbdf242f1	-0.11829174
13	0xbd026faf	-0.03184479
14	0x3d3d85d4	0.046270207
15	0x3d93e80c	0.07221994
16	0xbdd6c701	-0.10487176
17	0xbc11cdd7	-0.008899174
18	0xbba548c9	-0.005044077
19	0x3d32fe01	0.04369927
20	0xbd87c61e	-0.06629585
21	0x3c2889ed	0.01028679
22	0xbc4103c6	-0.011780685
23	0xbc28519b	-0.0102733625
24	0xbcbb68a3	-0.022877043
25	0x3d52123e	0.05128693
26	0xbd3aab0d	-0.045573283
27	0x3d10fb34	0.035395816
28	0x3d8b140a	0.067909315
29	0xbdd1fb9b	-0.10253068
30	0x3d963c07	0.07335668
31	0x3c756070	0.014976606
32	0xbcd6e4f7	-0.026232226
33	0xbe184bb5	-0.1487263
34	0x3dc76031	0.09735144
35	0xbdaaec29	-0.08345825
36	0x378529f0	1.5874364e-05
37	0xbd742448	-0.059604913
38	0x3e11e0bc	0.14245886
39	0x3dcfd88f	0.10148727
40	0xbd6414ec	-0.055684015
41	0xbd438ed1	-0.047743622
42	0x3cd75dac	0.026289783
43	0x3cba3291	0.02272919
44	0x3b7f54e1	0.0038960504
45	0xbc2a7ca1	-0.01040569
46	0xbd6c0f57	-0.057631817
47	0x3e1b0bd8	0.15141237
48	0xbd3f8931	-0.046761695
49	0xbe10b167	-0.14130174
50	0x3c7348f6	0.014848938
51	0x3d028c03	0.031871807
52	0xbdb2eb1a	-0.08736248
53	0xbd98b3e7	-0.07456189
54	0xbbee8973	-0.007279569
55	0xbd55a97c	-0.052163586
56	0x3da7e20d	0.08197413
57	0xbcb5c701	-0.022189619
58	0xbd70078c	-0.058600947
59	0xbdc2e6d8	-0.09516686
60	0x3dd51ea5	0.104062356
61	0x3d6c69a8	0.05771795
62	0xbd26121a	-0.040544607
63	0x3e1b2d46	0.15153989
64	0xbd8ab10f	-0.067720525
65	0x3d4c4d61	0.04987848
66	0x3d30725a	0.043077804
67	0xbd73893d	-0.059457052
68	0xbc068d3d	-0.008212385
69	0x3e2fbc4d	0.17161675
70	0xbe1a2ed1	-0.15056922
71	0xbc2049e8	-0.009783246
72	0x3dca43c0	0.098762035
73	0xbd73fdaf	-0.059568103
74	0xbdf8ea73	-0.12154093
75	0xbcc0743f	-0.02349293
76	0x3e185e04	0.14879614
77	0x3a622663	0.0008626936
78	0xbc39e18c	-0.0113452785
79	0x3d1a4e87	0.037672546
80	0x3e0f28e6	0.13980445
81	0xbcae17e8	-0.021251634
82	0xbd4cf834	-0.050041392
83	0x3dbe48b7	0.09291213
84	0x3d619f66	0.055083655
85	0xbdcc8af8	-0.09987444
86	0xbe0d3fbe	-0.13793847
87	0xbc29cd60	-0.010363907
88	0xbd09f082	-0.03367663
89	0x3d8537f1	0.065048106
90	0x3cf4a5d2	0.029864226
91	0x3c557879	0.013029211
92	0xbc735e1a	-0.0148539785
93	0x3d6c123f	0.05763459
94	0x3d4de895	0.050270636
95	0xbdfacff3	-0.122466944
96	0x3d5e2041	0.05422998
97	0xbe2893f0	-0.16462684
98	0xbca07f6f	-0.019592015
99	0x3d8743fd	0.066047646
100	0xbde73f77	-0.11291402
101	0xbde9a3a5	-0.11408166
102	0xbdc0f016	-0.09420793
103	0xbc284363	-0.0102699725
104	0xbdb4f78b	-0.088362776
105	0xbcafcbdd	-0.021459514
106	0x3dc0bf54	0.09411493
107	0x3db3ae56	0.08773486
108	0x3e0f38d6	0.13986525
109	0x3e0898d8	0.13339555
110	0x3cda6a83	0.026662117
111	0xbd89cb5e	-0.06728242
112	0x3d3cbcac	0.04607837
113	0xbdbe93fc	-0.093055695
114	0xbde91fde	-0.11383031
115	0x3df54363	0.119757436
116	0xbe25c88b	-0.16189782
117	0x3d831e6b	0.06402286
118	0xbdbc0a03	-0.09181597
119	0xb9b8a4fe	-0.00035218144
120	0xbd3998b3	-0.04531164
121	0xbe30d4cf	-0.1726868
122	0xbd36637e	-0.044528477
123	0x3da3314a	0.079683855
124	0xbd73bc8c	-0.059505984
125	0xbcab517c	-0.020912878
126	0x3b38b51d	0.0028184124
127	0x3ccf4a3b	0.02530395
128	0xbc1969b4	-0.0093635805
129	0xbd862f22	-0.065519586
130	0xbd1dc338	-0.038516253
131	0xbdf1adb4	-0.11800709
132	0x3c2f413f	0.010696708
133	0x3ddbf424	0.107399255
134	0xbe1fb83a	-0.1559762
135	0x3bd55a69	0.006511022
136	0x3df50448	0.11963707
137	0xbe09af62	-0.1344581
138	0xbd44a1b9	-0.048005793
139	0xbd83f627	-0.06443434
140	0xbe00028c	-0.12500972
141	0x3c8b5578	0.017008528
142	0xbc3e0afd	-0.0115992995
143	0xbd9e82f7	-0.07739823
144	0xbc8e0555	-0.017336527
145	0xbc4be09d	-0.012443689
146	0xbcc48a30	-0.023991674
147	0x3e1aa1e6	0.15100822
148	0xbd9be7f7	-0.07612603
149	0xbd5ff5bd	-0.054677714
150	0x3b19b840	0.0023455769
151	0x3d1c2d40	0.03812909
152	0x3e076e8c	0.13225764
153	0xbd67afb5	-0.05656405
154	0xbd6c5ded	-0.057706762
155	0x3cb52ce7	0.022116138
156	0x3caa89ef	0.020817725
157	0x3df6a39a	0.12042923
158	0x3dcd9165	0.100374974
159	0x3d934131	0.07190169
160	0xbd0a8e9e	-0.033827417
161	0xbd847ea2	-0.06469466
162	0xbd1a9216	-0.037736975
163	0xbd39bb65	-0.04534473
164	0xbdd541e1	-0.10412956
165	0x3c0ae0e8	0.008476473
166	0xbe266793	-0.16250448
167	0x3b0672cd	0.0020515204
168	0xbcfd1760	-0.030894935
169	0x3d5fba81	0.054621223
170	0xbdebca0e	-0.11513148
171	0x3c36c80d	0.011156094
172	0xbe19a854	-0.15005618
173	0x3cbe0edb	0.023200443
174	0x3d953971	0.07286347
175	0xbc25a898	-0.010110997
176	0x3ce05cc8	0.027387992
177	0xbc065183	-0.008198145
178	0x3df145b2	0.117808715
179	0xbe1fc53d	-0.15602584
180	0xbd8bbc2e	-0.06823002
181	0x3df0c730	0.11756742
182	0x3d0543c7	0.03253534
183	0xbc4d17b9	-0.012517863
184	0xbdc7e2b6	-0.097600386
185	0xbde9baf2	-0.1141261
186	0x3e170020	0.14746141
187	0xbd05367e	-0.03252267
188	0x3e092f83	0.1339703
189	0xbd3c08d0	-0.04590684
190	0xbca719ff	-0.020398138
191	0x3d71f6f4	0.059073403
192	0xbcfb5484	-0.030679949
193	0x38f166ed	0.00011510947
194	0x3dca423e	0.09875916
195	0xbd53e25f	-0.051729556
196	0xbd8532f9	-0.06503863
197	0x3c69033b	0.014221962
198	0x3b8179d6	0.0039512916
199	0xbd902202	-0.070377365
200	0x3be19128	0.006883759
201	0x3cd8fa90	0.026486665
202	0xbdc06033	-0.093933485
203	0xbe103bee	-0.14085361
204	0x3d5a1742	0.053244837
205	0xbdca6469	-0.09882433
206	0x3ce45b21	0.027875485
207	0xbdbe0ab7	-0.092793874
208	0x3c327432	0.010891961
209	0x3e57974a	0.21053806
210	0x3d820cf9	0.063501306
211	0x3c0d80c2	0.008636655
212	0xbe0d5b2a	-0.13804308
213	0x3d91f986	0.07127671
214	0xbc542d1f	-0.012950211
215	0xbd4221db	-0.04739557
216	0xbd1683b6	-0.036746703
217	0x3c2a1a40	0.010382235
218	0xbd29f4b3	-0.04149313
219	0x3d31e414	0.043430403
220	0x3d4edf4e	0.05050593
221	0x3d4d5e82	0.050138958
222	0x3c681f3a	0.014167601
223	0x3da3107f	0.07962131
224	0xbae12841	-0.0017178134
225	0x3d50a475	0.05093809
226	0xbd11f677	-0.035635438
227	0xbe0476eb	-0.12935989
228	0xbe784400	-0.2424469
229	0x3cebf299	0.028802203
230	0x3e26c8b0	0.16287494
231	0x3dd9372c	0.10606226
232	0xbd52b835	-0.051445205
233	0xbcde03ab	-0.027101358
234	0xbe0f36e7	-0.13985787
235	0xbc76b3e2	-0.015057536
236	0x3b96eecc	0.0046061035
237	0xbd06232b	-0.032748383
238	0xbd99c8c7	-0.07508998
239	0x3dfeafa0	0.124358416
240	0x3ca88384	0.020570524
241	0x3dbc60c4	0.09198144
242	0xbcc0643a	-0.023485292
243	0xbe38e4f5	-0.1805609
244	0xbe0ceac6	-0.13761434
245	0x3dac9271	0.08426369
246	0xbc2ad9b0	-0.010427877
247	0xbd2e8516	-0.04260739
248	0x3db84df8	0.08999246
249	0x3e0eb8fd	0.13937755
250	0xbd3b0c90	-0.045666277
251	0x3d976846	0.073929355
252	0x3d77c1d6	0.06048759
253	0x3e3b8b6f	0.18314908
254	0x3d399088	0.04530385
255	0xb953d2a8	-0.00020201004

action_model._discrete_distribution.branches.1.bias f4 [5]
0	0x3d710e02	0.05885125
1	0x3d228e99	0.039686773
2	0x3d6cb376	0.057788335
3	0xbc6d60f6	-0.014488449
4	0x3ce4c33d	0.027925128
